pdebench/models/newly_trained_models1D_Advection_Sols_beta0.4_PINN.pt-10000.pt (torch, 120453 bytes, 39 tensors)

linears.0.weight f4 [40, 2]
0.24132997 -0.018300287 -0.20341843 -0.09797653 -0.36284703 0.027627928 0.16623925 0.10896487
-0.17090139 -0.09957741 0.5888984 -0.17006402 0.20042093 -0.20598002 0.1653746 0.0133266095
-0.4181003 0.09963839 -0.09866004 0.20505734 0.55946577 -0.019728044 -0.09671199 -0.09069103
-0.2721137 0.07411058 -0.10897326 0.3122498 0.11615469 0.22438811 0.139497 -0.03674503
-0.27817926 0.02712334 -0.11111237 0.11519219 0.13659152 -0.05075768 -0.1474355 -0.0121867275
0.33742505 0.016043525 0.26915786 -0.071608685 -0.029796595 -0.20744082 -0.11691577 -0.20504612
0.04450964 0.03469707 0.35389286 0.29461515 -0.019087482 -0.18488383 -0.21428579 -0.5778507
-0.043835744 0.18561496 0.51703566 0.12632143 0.03467696 -0.26752526 0.15475121 -0.1978262
0.20079167 -0.09182569 0.050248887 0.29118824 0.012635798 0.37830427 -0.2547079 0.12293174
-0.18418232 -0.42784405 -0.47501713 0.03932442 0.11836866 -0.1250176 0.24301437 0.52346206
00000000: 341f 773e 7cea 95bc ec4c 50be eba7 c8bd
00000010: 16c7 b9be f753 e23c 9f3a 2a3e f928 df3d
00000020: c600 2fbe 3eef cbbd 0cc2 163f 4325 2ebe
00000030: 253b 4d3e 6dec 52be f657 293e da57 5a3c
00000040: 3e11 d6be 360f cc3d 460e cabd 8dfa 513e
00000050: 2639 0f3f b59c a1bc f010 c6bd 38bc b9bd
00000060: 7d52 8bbe 4ac7 973d 5f2d dfbd 35df 9f3e
00000070: 83e2 ed3d ffc5 653e 4dd8 0e3e f581 16bd
00000080: 836d 8ebe c431 de3c e28e e3bd e2e9 eb3d
00000090: a6de 0b3e 49e7 4fbd 55f9 16be d7aa 47bc
000000a0: fac2 ac3e b66d 833c 0fcf 893e 93a7 92bd
000000b0: fd17 f4bc 5e6b 54be 8971 efbd 9cf7 51be
000000c0: be4f 363d 841e 0e3d 7231 b53e ccd7 963e
000000d0: 5a5d 9cbc 3052 3dbe bc6d 5bbe 06ee 13bf
000000e0: 1c8d 33bd d911 3e3e 735c 043f 685a 013e
000000f0: 6e09 0e3d 12f9 88be 1a77 1e3e f492 4abe
00000100: 559c 4d3e 1b0f bcbd c7d1 4d3d a016 953e
00000110: 6106 4f3c 19b1 c13e 1369 82be a3c3 fb3d
00000120: 4a9a 3cbe 600e dbbe 7235 f3be a512 213d
00000130: 456b f23d 9d04 00be c2d8 783e 9c01 063f

linears.0.bias f4 [40]
-0.032384142 -0.018010354 0.0042942446 -0.111880764 -0.01239269 -0.013861361 0.08630013 0.037049834
-0.0232615 0.10947742 -0.04003539 0.08673453 -0.17614013 -0.08460919 -0.0049712025 0.11231454
0.08860432 -0.041112542 -0.0499341 -0.036594354 -0.072951354 0.043972615 -0.071572416 0.010286672
-0.061368655 -0.0038959328 0.0663033 -0.10576671 -0.042358596 -0.115553185 -0.05521157 -0.066114925
-0.08288875 -0.05842611 0.009466867 0.021623822 0.07682907 0.12478318 -0.03570378 -0.02977638
00000000: 3ca5 04bd 738a 93bc bcb6 8c3b be21 e5bd
00000010: b60a 4bbc c31a 63bc 1fbe b03d 91c1 173d
00000020: e78e bebc b335 e03d 26fc 23bd e0a1 b13d
00000030: 145e 34be 9547 adbd 78e5 a2bb 2a05 e63d
00000040: 2f76 b53d a065 28bd b387 4cbd f6e3 15bd
00000050: 8567 95bd a11c 343d 8f94 92bd 6e89 283c
00000060: b35d 7bbd e852 7fbb 06ca 873d 389c d8bd
00000070: 3580 2dbd 26a7 ecbd 8725 62bd 4367 87bd
00000080: 94c1 a9bd 3750 6fbd eb1a 1b3c 7124 b13c
00000090: 8f58 9d3d 538e ff3d 203e 12bd 98ed f3bc

linears.1.weight f4 [40, 40]
0.068420775 0.15254378 -0.058523484 0.18899426 -0.049327508 -0.18162902 -0.29456362 0.16630489
-0.091629386 -0.055399805 0.06517985 -0.24964628 0.074191354 -0.013081406 0.11909736 -0.15233375
0.008293506 0.05895732 0.37716237 0.14992741 0.2765639 0.28892842 -0.023719266 -0.045864657
0.0903126 0.26125827 0.02542449 -0.041431498 -0.25775442 0.052468922 0.1253696 0.24150065
0.21547869 0.023588596 -0.2446434 0.19767556 -0.12391497 -0.20409435 -0.112937875 -0.010340339
0.1705874 -0.011805226 0.13807671 0.045984194 0.053952057 -0.023712462 0.07922971 -0.09273813
0.36564422 -0.0701023 -0.13749653 0.10341551 0.03890339 -0.0007534371 0.0753157 0.014575942
0.12878199 -0.08048083 -0.06170115 0.04971582 -0.049830526 -0.08237781 -0.0888866 0.3870206
-0.29188627 0.0119607765 0.06313388 0.21973503 0.38190392 -0.13316701 -0.047286462 -0.32544416
-0.04600431 0.16593009 -0.37012285 0.08657153 -0.2392333 -0.036814414 -0.04089939 -0.041525893
0.088143475 -0.020032711 -0.36573762 0.162555 -0.1279012 -0.06522084 0.10690086 -0.20011516
0.15572594 -0.106602035 0.17154957 0.07927024 0.05244895 0.27078718 0.054669164 0.0080123395
-0.16937833 0.28326464 0.050855897 -0.11414781 -0.1647844 0.14495818 0.08343054 0.10285204
0.13414654 -0.012335845 0.03165971 0.3360215 -0.023048645 0.32908258 0.12870468 0.30280152
-0.05803549 0.063165866 0.19423631 -0.04672709 -0.14224315 -0.10258446 0.29825217 -0.21899058
-0.017666712 -0.22496733 -0.06363644 -0.018127413 -0.030937726 0.18672949 0.07498915 0.08021132
-0.039794426 -0.140123 -0.27808973 -0.1249101 -0.26788476 -0.07519089 0.025547827 -0.020564634
-0.04333778 -0.19163807 -0.35722592 0.28098395 -0.23265551 -0.04569524 -0.057838745 0.22561023
-0.1221436 0.055320613 0.39867482 -0.06658659 0.16595973 -0.12508409 0.08269142 -0.2537578
-0.15324758 0.018577192 0.40610874 -0.16444124 -0.18548846 0.23025927 -0.38007492 0.06833264
-0.23129617 -0.024788814 0.37025702 -0.31668752 -0.2147926 0.029199852 0.124481015 0.06056799
0.06051058 0.28806517 -0.09732446 -0.0006515919 -0.048734844 -0.04636514 0.13466969 0.11645071
-0.1794916 -0.06770129 0.059236772 -0.13769996 -0.1327362 -0.19126996 0.18137117 -0.1563889
-0.26304495 -0.29372105 -0.057664607 -0.24541348 0.19538338 -0.28887028 0.14886627 -0.07952609
-0.22698124 -0.16077767 -0.06708596 0.2217012 0.1666023 0.23450936 -0.021534193 -0.068152405
0.03739503 -0.12043328 0.10962468 -0.17017528 0.060110122 0.066150144 0.15021698 -0.12370644
0.1136989 -0.54985374 0.043249387 -0.18900636 -0.047515392 -0.017415153 -0.08657606 0.081258975
0.13861777 0.21459222 0.10830464 -0.0464566 0.20174131 -0.17462151 0.009013349 0.17997631
0.29857865 0.094366744 -0.2014059 -0.101803385 0.18547352 -0.34969446 -0.008938729 -0.061778616
0.019822825 -0.11178039 0.036004946 -0.0133752655 -0.044843495 -0.15436961 0.1497586 0.053774644
-0.25203806 0.08240774 0.17240342 -0.05798707 0.119801246 0.081602335 -0.22032933 0.054722585
0.20147082 0.08075656 0.08540307 0.07455405 0.07500877 -0.21442951 -0.083078176 -0.22914538
00000000: 3120 8c3d 7034 1c3e 52b6 6fbd b687 413e
00000010: a40b 4abd f5fc 39be 0bd1 96be d44b 2a3e
00000020: 30a8 bbbd e8ea 62bd 037d 853d 46a3 7fbe
00000030: a3f1 973d 6553 56bc 51e9 f33d 61fd 1bbe
00000040: 7ce1 073c 3b7d 713d 6d1b c13e 9286 193e
00000050: c999 8d3e 6dee 933e e84e c2bc 94dc 3bbd
00000060: d0f5 b83d a5c3 853e 0547 d03c 13b4 29bd
00000070: 63f8 83be a7e9 563d e360 003e f24b 773e
00000080: 72a6 5c3e df3c c13c cd83 7abe 766b 4a3e
00000090: 22c7 fdbd 1cfe 50be f94b e7bd 866a 29bc
000000a0: 77ae 2e3e b56a 41bc fb63 0d3e ec59 3c3d
000000b0: d5fc 5c3d a340 c2bc 3043 a23d 7ded bdbd
000000c0: b835 bb3e cb91 8fbd e4cb 0cbe 83cb d33d
000000d0: 2959 1f3d 4f82 45ba 1e3f 9a3d efcf 6e3c
000000e0: 6ddf 033e 22d3 a4bd 58ba 7cbd d1a2 4b3d
000000f0: 181b 4cbd b2b5 a8bd 2e0a b6bd 9027 c63e
00000100: 1e72 95be 22f7 433c 564c 813d 3802 613e
00000110: e988 c33e ef5c 08be 73af 41bd 9ea0 a6be
00000120: 046f 3cbd 94e9 293e be80 bdbe 6a4c b13d
00000130: 93f9 74be b6ca 16bd 1e86 27bd 0e17 2abd
00000140: 9184 b43d a41b a4bc f641 bbbe d174 263e
00000150: 88f8 02be 8192 85bd d7ee da3d fdea 4cbe
00000160: 9f76 1f3e 2b52 dabd b1aa 2f3e 7058 a23d
00000170: b6d4 563d 9ea4 8a3e c6ec 5f3d 3046 033c
00000180: 8371 2dbe 1008 913e 464e 503d 54c6 e9bd
00000190: 3ebd 28be eb6f 143e a2dd aa3d 17a4 d23d
000001a0: b65d 093e 491c 4abc 9dad 013d 030b ac3e
000001b0: 83d0 bcbc 837d a83e 29cb 033e cd08 9b3e
000001c0: 9fb6 6dbd 1b5d 813d e2e5 463e e864 3fbd
000001d0: 30a8 11be cd17 d2bd 82b4 983e 113f 60be
000001e0: c8b9 90bc d65d 66be d253 82bd f17f 94bc
000001f0: 1d71 fdbc 0436 3f3e e993 993d d545 a43d
00000200: 7bff 22bd 677c 0fbe c761 8ebe ded0 ffbd
00000210: 3128 89be aefd 99bd ad49 d13c 2a77 a8bc
00000220: f582 31bd c53c 44be 51e6 b6be 21dd 8f3e
00000230: 3f3d 6ebe ef2a 3bbd 52e8 6cbd 5e06 673e
00000240: 6c26 fabd de97 623d 1b1f cc3e 8d5e 88bd
00000250: 59f1 293e 0b16 00be 1f5a a93d 8bec 81be
00000260: efec 1cbe 322f 983c 7ced cf3e 4963 28be
00000270: b0f0 3dbe 16c9 6b3e 2e99 c2be fcf1 8b3d
00000280: e7d8 6cbe e911 cbbc 5492 bd3e de24 a2be
00000290: 97f2 5bbe 8734 ef3c e7ef fe3d 2416 783d
000002a0: f1d9 773d 477d 933e 0c52 c7bd 98cf 2aba
000002b0: 309e 47bd 5fe9 3dbd dae6 093e b67d ee3d
000002c0: a5cc 37be f9a6 8abd 42a2 723d 3801 0dbe
000002d0: 00ec 07be 46dc 43be 5db9 393e 6924 20be
000002e0: d4ad 86be 9b62 96be b931 6cbd ac4d 7bbe
000002f0: 9512 483e cee6 93be 6670 183e 93de a2bd
00000300: c56d 68be e7a2 24be 5d64 89bd a405 633e
00000310: cb99 2a3e 3923 703e 7a68 b0bc 7d93 8bbd
00000320: 882b 193d b9a5 f6bd e782 e03d 6e42 2ebe
00000330: 0836 763d ba79 873d 7bd2 193e cd59 fdbd
00000340: f8da e83d 37c3 0cbf 4526 313d e28a 41be
00000350: 809f 42bd 39aa 8ebc ca4e b1bd 1b6b a63d
00000360: d1f1 0d3e 10be 5b3e d3ce dd3d 4749 3ebd
00000370: 4695 4e3e fbcf 32be baac 133c b64b 383e
00000380: 4ddf 983e 5a43 c13d 593d 4ebe 4b7e d0bd
00000390: c5ec 3d3e 270b b3be bf73 12bc 930b 7dbd
000003a0: 7a63 a23c 1eed e4bd ec79 133d ee23 5bbc
000003b0: d0ad 37bd 1113 1ebe 525a 193e cd42 5c3d
000003c0: 220b 81be 64c5 a83d 868a 303e da83 6dbd
000003d0: 5b5a f53d 201f a73d 039e 61be ca24 603d
000003e0: 5e4e 4e3e b263 a53d cee7 ae3d cbaf 983d
000003f0: 339e 993d 6993 5bbe e424 aabd 16a5 6abe

linears.1.bias f4 [40]
-0.08897084 0.022960654 -0.05729398 0.0578857 0.00940551 -0.0870167 0.09022209 0.07027785
-0.010941524 -0.11767162 -0.05284579 0.023031987 0.030765524 -0.0466434 -0.05421679 0.086141124
-0.31061992 0.026850333 0.023473287 -0.0448867 -0.00055602595 0.08476862 -0.03056693 -0.05320067
0.06572651 0.04916999 -0.019458657 0.04443381 0.07982401 -0.03762964 0.039841425 -0.02671654
-0.12731339 0.032724585 -0.04565252 -0.062668085 0.06734256 0.05668415 -0.0508463 0.08500099
00000000: 5836 b6bd fb17 bc3c 18ad 6abd 8e19 6d3d
00000010: 9119 1a3c d035 b2bd 5cc6 b83d d5ed 8f3d
00000020: 1444 33bc d1fd f0bd d474 58bd 94ad bc3c
00000030: fb07 fc3c 260d 3fbd 6d12 5ebd c26a b03d
00000040: 9309 9fbe 3bf5 db3c 0d4b c03c 1edb 37bd
00000050: 45c2 11ba 2c9b ad3d 8067 fabc f2e8 59bd
00000060: 9f9b 863d 7966 493d c367 9fbc 3a00 363d
00000070: c57a a33d 8a21 1abd c330 233d a5dc dabc
00000080: 715e 02be 370a 063d 23fe 3abd 2058 80bd
00000090: e5ea 893d a42d 683d 3644 50bd 0015 ae3d

linears.2.weight f4 [40, 40]
-0.0012810769 -0.11696451 -0.06955113 0.15979661 0.18917766 0.06868897 0.39101872 0.039637744
0.06545947 -0.20598148 0.031436194 0.08971968 0.006289501 0.11024987 -0.071649075 -0.17408134
-0.011654033 0.08545921 -0.035077117 0.08918068 -0.24892077 0.033825837 0.12770315 -0.17170116
-0.17647916 0.07220358 0.031203838 -0.12487969 -0.058070008 -0.101626664 0.027953126 0.013223035
0.08171105 -0.012491824 0.23158303 0.0051008584 0.12956394 0.045263387 0.11206005 -0.1620455
-0.10484938 0.098030046 -0.056479223 -0.004827167 -0.087557666 0.093133174 0.11884881 0.3617302
0.06603328 -0.25045872 -0.18448253 0.0099228015 -0.028013311 -0.018378505 -0.2826431 0.08586486
-0.27043077 -0.16370118 0.18091643 -0.18448041 -0.029066196 -0.11999771 0.22627671 -0.07556268
0.23647308 -0.029818632 -0.010880827 0.061907396 0.044985857 -0.21679436 0.0024615591 -0.005907156
-0.37735733 0.2259253 0.19865625 -0.08461285 0.25440288 0.11472586 0.17382403 -0.08683238
-0.03148659 0.018344961 -0.01511101 0.07119203 0.16756058 -0.34935543 -0.04621755 0.2572534
-0.2197467 -0.057283904 0.05789351 -0.17735289 0.024122681 0.2513046 0.02569606 -0.40366203
-0.039782725 -0.061213616 0.0004008887 0.16818228 0.07639717 0.03148085 0.07638898 0.06477469
-0.14866225 0.11764404 0.16279972 0.06707541 -0.03759955 -0.0818024 0.106121674 -0.11293439
-0.0913927 -0.1903194 0.02222594 -0.033509687 -0.09467445 -0.041614607 -0.47672555 0.11823055
0.35543 0.08313313 0.08595262 -0.09840292 0.03168027 0.27643436 -0.0049127634 0.23539549
0.1501388 0.33446223 0.16148672 -0.16589522 0.06483361 0.22264393 0.16313522 -0.12206849
0.18409108 0.106158204 0.032498576 0.22079189 0.2161848 -0.30114096 0.37790558 0.012950768
-0.320257 -0.126814 0.0794955 -0.1984294 -0.41145238 0.023392774 -0.054193962 -0.27686092
0.092729226 0.18014222 -0.08617634 0.28177565 -0.07641426 0.040909402 0.40964946 -0.43541008
-0.016218156 0.18674503 0.14723475 0.11834336 0.05166256 0.26076868 0.005543741 -0.45457432
0.068173535 0.106022865 -0.12328919 0.0929173 0.14094369 -0.02555275 -0.32598642 -0.4183313
-0.03190326 0.12708075 0.00015144027 -0.15854919 -0.28318924 0.14007159 0.25284737 0.055303063
0.26159257 -0.0022553073 -0.027643126 0.02407671 0.027494388 0.1535025 -0.19681405 0.12703079
-0.14719121 0.16577458 0.21817496 0.019677484 -0.39242595 -0.15421097 0.03568601 -0.13535315
0.30428427 -0.04924117 0.12527752 -0.40092787 0.11105258 -0.06411792 0.16315794 -0.030576816
0.22818366 -0.0063646385 0.072318785 -0.1458255 0.11767404 0.21483229 -0.095134266 -0.10113173
-0.057516206 -0.10954227 -0.13112721 -0.10463284 -0.0541275 -0.16609606 0.045848656 0.06931169
-0.085578 -0.2226182 0.16863613 -0.14968804 -0.1683927 -0.14053516 0.019624317 0.10210463
-0.115762874 -0.099183075 0.05261223 -0.014442055 -0.06393432 0.24711828 -0.29025343 0.0941724
0.096960805 -0.07134303 0.2729041 -0.031928603 0.041648243 0.05454189 -0.29532146 -0.022497948
-0.019648032 0.10102292 0.062298488 -0.11608261 -0.0923877 0.21563946 -0.11123252 -0.05731891
00000000: cfe9 a7ba 178b efbd d370 8ebd b9a1 233e
00000010: cab7 413e cdac 8c3d 9b33 c83e 305b 223d
00000020: 9d0f 863d cfec 52be 3dc3 003d f4be b73d
00000030: 2918 ce3b afca e13d c0bc 92bd 6142 32be
00000040: 8ff0 3ebc 3d05 af3d 06ad 0fbd 5ca4 b63d
00000050: 16e5 7ebe f68c 0a3d 9dc4 023e 6ed2 2fbe
00000060: f4b6 34be 78df 933d 319f ff3c ecc0 ffbd
00000070: d1da 6dbd a421 d0bd f4fd e43c 6ea5 583c
00000080: 1f58 a73d 82aa 4cbc 1a24 6d3e 1a25 a73b
00000090: 69ac 043e 1a66 393d bd7f e53d 41ef 25be
000000a0: 46bb d6bd fac3 c83d c256 67bd 362d 9ebb
000000b0: 6f51 b3bd 9bbc be3d 0167 f33d b334 b93e
000000c0: 753c 873d 203c 80be fde8 3cbe 3f93 223c
000000d0: 2c7c e5bc 858e 96bc 99b6 90be ead9 af3d
000000e0: e775 8abe 48a1 27be 2842 393e 6fe8 3cbe
000000f0: 3b1c eebc 5cc1 f5bd 15b5 673e 9bc0 9abd
00000100: 0026 723e 3446 f4bc 7f45 32bc 9c92 7d3d
00000110: 1743 383d 57ff 5dbe 1c52 213b d190 c1bb
00000120: fb34 c1be f658 673e 8b6c 4b3e 8049 adbd
00000130: 1841 823e 64f5 ea3d edfe 313e 2dd5 b1bd
00000140: 15f8 00bd 2c48 963c 2b94 77bc 21cd 913d
00000150: 0095 2b3e b7de b2be 9d4e 3dbd b8b6 833e
00000160: 4705 61be 87a2 6abd bf21 6d3d ff9b 35be
00000170: ee9c c53c ffaa 803e 8b80 d23c caac cebe
00000180: 36f3 22bd 21bb 7abd 5f2e d239 fa37 2c3e
00000190: 1f76 9c3d 10f2 003d d371 9c3d 98a8 843d
000001a0: eb3a 18be 5cef f03d f8b4 263e d55e 893d
000001b0: fc01 1abd 0488 a7bd 5256 d93d 254a e7bd
000001c0: 192c bbbd 17e3 42be 2d13 b63c 7441 09bd
000001d0: aee4 c1bd 1474 2abd 5f15 f4be dc22 f23d
000001e0: ecfa b53e b441 aa3d ed07 b03d 7887 c9bd
000001f0: 2cc3 013d ce88 8d3e 3ffb a0bb 840b 713e
00000200: fcbd 193e a23e ab3e c65c 253e 70e0 29be
00000210: 7cc7 843d c5fc 633e eb0c 273e 0bff f9bd
00000220: 5f82 3c3e 7969 d93d 3a1d 053d 4517 623e
00000230: 8c5f 5d3e 262f 9abe d77c c13e 752f 543c
00000240: baf8 a3be 87db 01be 89ce a23d 1431 4bbe
00000250: e3a9 d2be 34a2 bf3c 7dfa 5dbd b7c0 8dbe
00000260: d2e8 bd3d 3477 383e 397d b0bd e644 903e
00000270: 147f 9cbd 9e90 273d 93bd d13e 12ee debe
00000280: f0db 84bc 173a 3f3e b5c4 163e 015e f23d
00000290: 1f9c 533d 7983 853e 45a8 b53b f7bd e8be
000002a0: 919e 8b3d 8422 d93d 0b7f fcbd 6d4b be3d
000002b0: 8b53 103e 0054 d1bc b1e7 a6be 852f d6be
000002c0: feac 02bd 7521 023e f0cb 1e39 b85a 22be
000002d0: 2efe 90be ed6e 0f3e 3675 813e 7785 623d
000002e0: 76ef 853e c7cd 13bb d673 e2bc 853c c53c
000002f0: e93b e13c c22f 1d3e 9f89 49be 5c14 023e
00000300: 4bb9 16be d0c0 293e 4269 5f3e ad32 a13c
00000310: 0eec c8be 7be9 1dbe 7e2b 123d 049a 0abe
00000320: 26cb 9b3e 1cb1 49bd c048 003e 6b46 cdbe
00000330: 896f e33d 4250 83bd e012 273e 3b7c fabc
00000340: faa8 693e 758e d0bb df1b 943d 4853 15be
00000350: 16ff f03d fffc 5b3e c1d5 c2bd 271e cfbd
00000360: 1d96 6bbd b357 e0bd 3646 06be be49 d6bd
00000370: ccb4 5dbd 1615 2abe cdcb 3b3d 4af3 8d3d
00000380: 8543 afbd 07f6 63be f3ae 2c3e d247 19be
00000390: 236f 2cbe 73e8 0fbe 2dc3 a03c 3b1c d13d
000003a0: 1615 edbd 7f20 cbbd ec7f 573d 5e9e 6cbc
000003b0: ffef 82bd 930c 7d3e 199c 94be 76dd c03d
000003c0: 6393 c63d 4b1c 92bd 16ba 8b3e 91c7 02bd
000003d0: 5997 2a3d 5167 5f3d 6034 97be 9e4d b8bc
000003e0: e9f4 a0bc 1be5 ce3d b32c 7f3d b8bc edbd
000003f0: c335 bdbd 97d0 5c3e e0cd e3bd 3cc7 6abd

linears.2.bias f4 [40]
0.001019102 0.040520106 0.027030995 -0.08980287 -0.0492545 -0.0250134 -0.041298393 0.02013869
-0.066886015 -0.043347687 0.002182849 0.006366754 -0.07485703 0.050745808 0.044115882 -0.034188475
0.07236222 0.085574806 0.028769681 0.053541895 0.07899863 0.0627659 -0.05921514 -0.042142473
0.03691361 -0.051582806 0.044227604 0.03652014 -0.0017014926 0.07219084 0.0031921358 0.023320409
-0.10960714 0.028265642 0.02992634 -0.023744319 0.041685253 0.03468427 -0.034268644 -0.05105535
00000000: 6493 853a 69f8 253d 1b70 dd3c 91ea b7bd
00000010: 16bf 49bd e7e8 ccbc 8128 29bd e5f9 a43c
00000020: 89fb 88bd 588d 31bd 210e 0f3b 34a0 d03b
00000030: a44e 99bd d6da 4f3d dbb2 343d 3709 0cbd
00000040: a532 943d d841 af3d 65ae eb3c bf4e 5b3d
00000050: 09ca a13d 688b 803d 938b 72bd 969d 2cbd
00000060: ba32 173d 7e48 53bd 0128 353d 2496 153d
00000070: 9e04 dfba cbd8 933d 2733 513b 710a bf3c
00000080: b579 e0bd 598d e73c 1528 f53c 7283 c2bc
00000090: 28be 2a3d 1811 0e3d 475d 0cbd 6a1f 51bd

linears.3.weight f4 [40, 40]
-0.073573135 -0.2775158 0.024923222 -0.13254909 0.14020589 0.03622339 -0.20314702 0.14807048
-0.027235618 0.14386271 -0.32102457 -0.19255829 -0.051626462 0.2526261 -0.04007606 -0.10986475
-0.18023375 -0.066135004 -0.10292208 -0.101476796 -0.15077084 0.026419738 -0.06594589 -0.039936744
-0.07498859 0.068340175 0.17440526 -0.16398872 -0.040725593 -0.16923134 -0.007103764 0.2431528
-0.06386634 0.105279595 -0.036522597 -0.14897642 0.332773 0.12054503 -0.058974985 0.13535903
0.0013310327 0.30761206 0.00867891 -0.07084229 -0.26189402 -0.030211637 -0.29504594 0.30628556
0.13584778 0.12542507 -0.273012 0.08834647 0.015769035 -0.18416661 0.13110185 -0.3108835
0.08952629 0.1395341 0.21021624 -0.11899041 0.05059405 0.15903214 0.034031067 -0.14572115
0.23323037 -0.075795345 0.15748027 -0.1500999 0.11896721 -0.3564227 0.31722757 0.023262965
-0.45826164 0.2929139 0.0057755555 -0.24486914 0.062359463 -0.017398288 -0.11776911 -0.3549185
0.36530682 0.16641034 -0.10588739 0.3537876 0.013799034 0.16624762 0.074480854 -0.22354047
0.13391101 0.08061499 -0.19888543 -0.07639471 -0.07637987 -0.18344185 0.042512335 -0.11758119
-0.22235 -0.13233677 0.07421235 0.29375586 -0.101146944 -0.15938681 -0.078204244 -0.19716197
0.35004854 -0.08044836 -0.15603025 0.034548726 0.15619588 -0.22575267 0.008035449 0.11917292
0.18757592 0.3378381 0.044134803 0.03535885 -0.12442258 0.038251605 0.13025448 -0.20045249
-0.030323017 -0.105187364 -0.106264345 0.041498996 0.059795234 -0.11181175 -0.12349682 0.17238791
0.058982857 -0.01749396 0.05041597 0.09137584 0.034570098 -0.60019535 -0.20678146 0.23513967
-0.004301264 -0.098681554 0.2665916 -0.3057509 -0.14005977 -0.09431408 0.24158181 -0.23371385
0.0026083966 -0.021659872 0.048194632 -0.19472724 -0.105108395 -0.2501656 -0.1903533 0.0019265161
0.20369743 -0.48478326 -0.117652275 0.054199733 0.07081443 -0.1380837 -0.10512277 0.15827352
-0.085236885 0.036572367 0.2168867 0.0017607353 0.080017306 0.0060797487 -0.017954314 -0.14672996
0.11700614 0.11361548 0.17242846 -0.07909946 -0.10206451 0.009451152 0.2953759 0.026123388
-0.0741022 -0.06847741 -0.13436522 -0.19178322 0.09159564 0.02478645 -0.042830445 -0.29806697
-0.1828783 -0.033883546 -0.12237565 0.30697975 -0.09065975 0.35446465 -0.1945508 0.024777144
-0.14763147 0.22335073 -0.15709098 -0.33699927 -0.13715436 -0.10268008 0.06237011 -0.21496922
0.040925052 -0.045240715 0.07744369 -0.12127519 0.3259299 0.002814525 -0.16335024 0.26988637
-0.40044826 -0.2561657 0.106152885 -0.0010351008 0.28812498 -0.23558971 -0.08815496 0.07806372
0.1919017 0.17207994 0.21769468 -0.034495853 0.06887718 0.09938324 -0.05600698 -0.24064557
-0.10501124 -0.22952728 -0.026701909 0.1092945 0.40584126 0.06536253 0.399379 -0.25234896
-0.3080497 -0.0050377976 -0.083653785 0.03257138 -0.011512059 0.03134495 0.043552026 0.039394166
-0.31855682 -0.4365028 0.014492317 0.020833544 0.15051816 -0.13003965 -0.09146884 -0.04218664
-0.05400675 -0.1305203 0.099680565 0.21177627 -0.026779225 -0.022642354 0.16196118 -0.065199524
00000000: 83ad 96bd 8d16 8ebe c92b cc3c f3ba 07be
00000010: 2292 0f3e fa5e 143d c605 50be ca9f 173e
00000020: 3b1d dfbc bf50 133e 555d a4be 002e 45be
00000030: 4576 53bd 3558 813e cb26 24bd c500 e1bd
00000040: 328f 38be ca71 87bd d0c8 d2bd 11d3 cfbd
00000050: ac63 1abe 356e d83c a40e 87bd b694 23bd
00000060: 9e93 99bd eff5 8b3d 4b97 323e a9ec 27be
00000070: e1cf 26bd fb4a 2dbe b1c6 e8bb 0cfd 783e
00000080: 5bcc 82bd d49c d73d b898 15bd 468d 18be
00000090: 3961 aa3e 50e0 f63d c18f 71bd 8f9b 0a3e
000000a0: 0c76 ae3a 547f 9d3e fd31 0e3c c315 91bd
000000b0: f916 86be 657e f7bc 4310 97be 76d1 9c3e
000000c0: ae1b 0b3e 6e6f 003e 3bc8 8bbe feee b43d
000000d0: 102e 813c 2c96 3cbe 903f 063e 1f2c 9fbe
000000e0: 8f59 b73d 07e2 0e3e ed42 573e 3eb1 f3bd
000000f0: b53b 4f3d 52d9 223e 2964 0b3d ed37 15be
00000100: f1d3 6e3e 973a 9bbd 8242 213e cab3 19be
00000110: 15a5 f33d 097d b6be a76b a23e f991 be3c
00000120: 45a1 eabe d0f8 953e df40 bd3b fabe 7abe
00000130: a36c 7f3d db86 8ebc ee30 f1bd e1b7 b5be
00000140: 7f09 bb3e 7967 2a3e 7ddb d8bd a623 b53e
00000150: 5815 623c d13c 2a3e 6b89 983d cbe7 64be
00000160: f81f 093e 7919 a53d 9fa8 4bbe d474 9cbd
00000170: 0d6d 9cbd 2ed8 3bbe 6a21 2e3d 68ce f0bd
00000180: b8af 63be 4a83 07be a5fc 973d 2b67 963e
00000190: 2126 cfbd 4c36 23be 8c29 a0bd d4e4 49be
000001a0: 9039 b33e 1cc2 a4bd 65c6 1fbe f782 0d3d
000001b0: d0f1 1f3e b52b 67be 1ea7 033c ef10 f43d
000001c0: e713 403e 1ef9 ac3e b2c6 343d 71d4 103d
000001d0: 44d1 febd b7ad 1c3d 6e61 053e 6b43 4dbe
000001e0: fa67 f8bc 796c d7bd 1fa1 d9bd dafa 293d
000001f0: d9eb 743d 8ffd e4bd e7eb fcbd 7586 303e
00000200: 0298 713d 7e4f 8fbc fa80 4e3d 4223 bb3d
00000210: 6099 0d3d 67a6 19bf 85be 53be 74c8 703e
00000220: 9ef1 8cbb 8e19 cabd b27e 883e 628b 9cbe
00000230: d46b 0fbe be27 c1bd 3961 773e af52 6fbe
00000240: a2f1 2a3b 0b70 b1bc bc67 453d 9466 47be
00000250: 1243 d7bd b515 80be faeb 42be 2783 fc3a
00000260: 0f96 503e 8335 f8be adf3 f0bd 8a00 5e3d
00000270: 2807 913d d065 0dbe 9b4a d7bd 7412 223e
00000280: ad90 aebd e8cc 153d 8c17 5e3e 79c8 e63a
00000290: 1de0 a33d a138 c73b ed14 93bc 6140 16be
000002a0: eaa0 ef3d 3caf e83d 1691 303e e6fe a1bd
000002b0: 3307 d1bd 01d9 1a3c 833b 973e b700 d63c
000002c0: e5c2 97bd e23d 8cbd 0997 09be d262 44be
000002d0: 7f96 bb3d f40c cb3c fa6e 2fbd 3c9c 98be
000002e0: 7344 3bbe 79c9 0abd 16a0 fabd 732c 9d3e
000002f0: d2ab b9bd 647c b53e 5338 47be 70f9 ca3c
00000300: b42c 17be 0eb6 643e 75dc 20be 2b8b acbe
00000310: 3172 0cbe ef49 d2bd cd77 7f3d e420 5cbe
00000320: 07a1 273d 544e 39bd cc9a 9e3d 205f f8bd
00000330: 49e0 a63e e573 383b 4945 27be 8c2e 8a3e
00000340: 8e07 cdbe 2728 83be af66 d93d 38ac 87ba
00000350: 1e85 933e 6e3e 71be 968a b4bd dfdf 9f3d
00000360: e181 443e b935 303e 5beb 5e3e 864b 0dbd
00000370: 7b0f 8d3d 7189 cb3d 9367 65bd cb6b 76be
00000380: 2210 d7bd 3309 6bbe f6bd dabc cbd5 df3d
00000390: 6dca cf3e cadc 853d 677b cc3e e233 81be
000003a0: b1b8 9dbe 1c14 a5bb ad52 abbd 9169 053d
000003b0: 139d 3cbc 9063 003d 9c63 323d c75b 213d
000003c0: e119 a3be 4c7d dfbe 2f71 6d3c 1cab aa3c
000003d0: 6f21 1a3e 1d29 05be 0454 bbbd e6cb 2cbd
000003e0: 2f36 5dbd 1da7 05be 5325 cc3d e1db 583e
000003f0: 1b60 dbbc 757c b9bc 27d9 253e 5487 85bd

linears.3.bias f4 [40]
-0.024437286 0.0318286 -0.044711735 -0.028949933 0.006738606 -0.0049033463 0.019864775 0.035869945
-0.030414823 0.029070795 0.025067834 -0.049662206 0.009404701 -0.027437307 0.02506564 0.07239935
-0.021861093 0.026609931 -0.026759718 -0.027401224 0.02580434 0.030491186 -0.011942805 -0.039715994
-0.036715854 0.020803966 -0.038703777 0.005211669 -0.045011528 0.14565463 0.05490637 0.07214773
0.017538268 0.0696334 -0.075156 0.017665032 -0.038049117 -0.011537451 0.052347604 -0.039361086
00000000: b430 c8bc b55e 023d a723 37bd 6928 edbc
00000010: 86cf dc3b 40ac a0bb 74bb a23c 5dec 123d
00000020: 8228 f9bc e025 ee3c 0f5b cd3c 996a 4bbd
00000030: 2d16 1a3c 34c4 e0bc 7556 cd3c 1c46 943d
00000040: 0916 b3bc 12fd d93c 3237 dbbc 8878 e0bc
00000050: a063 d33c a7c8 f93c c1ab 43bc 3dad 22bd
00000060: 5d63 16bd 146d aa3c da87 1ebd a6c6 aa3b
00000070: 025e 38bd 7d26 153e 80e5 603d 30c2 933d
00000080: 6aac 8f3c f59b 8e3d 64eb 99bd 42b6 903c
00000090: 64d9 1bbd 9407 3dbc 716a 563d 1739 21bd

linears.4.weight f4 [40, 40]
0.111321665 -0.16918851 0.11051081 -0.26481783 -0.07533451 0.1077182 0.015278106 0.02726749
-0.22755036 0.11723547 -0.08698516 0.05009644 0.114560924 0.16424164 0.13830312 0.0768127
0.12241684 0.16970493 0.24893193 -0.015030991 0.01395002 0.1201039 0.24492446 0.0113234725
-0.094133414 -0.113422975 -0.30289957 -0.1888533 -0.105392665 0.28063175 -0.081092246 0.3215405
-0.07324683 0.026501372 -0.27376127 0.058052506 0.056124967 0.10749492 0.11803958 0.16341984
-0.102789514 0.105092265 -0.12809478 -0.17111659 -0.2636742 0.036909286 0.16635503 -0.07981987
-0.0067668273 -0.22021301 0.05937195 0.018569035 0.273609 -0.023185285 0.15492216 0.048613038
-0.20442368 -0.18330029 -0.13069926 -0.066828154 -0.35673097 -0.12389781 0.13239385 -0.20428285
-0.10684851 0.16151132 -0.02618722 0.079835534 0.027929455 0.00484113 0.09215991 -0.3366551
-0.29625562 -0.077128336 0.30393738 -0.030969664 0.072850294 -0.20373115 -0.18244427 -0.057319667
0.07310343 -0.23990633 -0.04364927 0.032206602 0.25057977 0.07623571 -0.060816538 -0.13806625
-0.26594424 -0.2747839 -0.22500463 -0.018531313 -0.22015156 0.28495696 -0.17108503 0.10393309
0.02361598 -0.19741932 0.24620803 0.11022395 0.04647262 0.14366832 -0.077047475 -0.3203732
0.15361463 -0.09096879 0.08369509 0.051622353 0.0423421 -0.020427115 0.050233614 0.060079303
-0.044798516 0.17800823 0.12669322 0.11408857 0.048019554 0.048979696 0.1227529 0.0109125
0.020169241 0.15104352 -0.13648508 0.39560705 0.031283237 0.055947073 0.09617558 -0.23920774
0.034032 0.0773582 0.27954102 0.079633184 -0.032537084 0.06515627 0.030545836 0.05620748
0.1493325 0.010648199 -0.03997004 -0.2258317 -0.22147945 0.044698663 0.03719316 0.008408855
-0.03121987 0.18063739 0.20984624 0.34399962 0.05525123 0.20007715 -0.19815159 0.00066690176
-0.6246671 0.08794759 -0.06392669 0.41548815 0.16462754 0.17916204 0.022573816 0.06332135
-0.2829739 0.107187085 0.06974106 -0.19647998 0.25529242 -0.07194958 0.08638986 0.056697946
0.35020274 -0.42202076 -0.119820975 -0.21122862 0.20251633 0.15938139 0.25390667 -0.1297589
-0.31993994 0.042913027 -0.31027907 0.007517555 0.37247854 -0.13882829 -0.13590322 -0.32702705
-0.1056567 0.02451607 -0.26570654 -0.16929409 -0.059710786 0.07984867 0.3005914 0.10995691
0.033513602 0.16497539 -0.07886202 -0.13882504 -0.10967264 0.23489887 -0.13406496 -0.11338589
0.07634762 -0.24917671 0.25453278 0.09728225 0.1389683 0.15538776 0.22384839 -0.37229717
0.25565454 -0.24500814 -0.1838834 0.24663915 0.44919553 0.1792103 0.20902644 -0.045312792
0.16294335 -0.11088749 -0.09542585 0.100166716 -0.42752913 -0.06812286 0.1372094 0.0122547895
-0.037441637 -0.0010993399 0.059701752 0.015461928 0.06774838 -0.043673046 -0.13210706 -0.22670531
-0.1851387 0.14198452 0.15604348 -0.45778662 -0.12973434 0.20461997 -0.29364467 0.19691296
0.16195872 -0.11607598 0.026645625 -0.17530526 -0.033167575 -0.08225066 0.23765689 0.21754108
-0.073419444 0.11281671 -0.4298096 -0.20713072 0.080434345 0.005432831 0.23382984 -0.0032187996
00000000: 9dfc e33d c13f 2dbe 7e53 e23d 3496 87be
00000010: fb48 9abd 5c9b dc3d 0551 7a3c 1260 df3c
00000020: f602 69be 2619 f03d 4725 b2bd ed31 4d3d
00000030: eb9e ea3d f62e 283e 559f 0d3e fa4f 9d3d
00000040: aeb5 fa3d 21c7 2d3e 03e8 7e3e 8c44 76bc
00000050: a08e 643c 09f9 f53d 7acd 7a3e 1686 393c
00000060: 05c9 c0bd 4e4a e8bd a715 9bbe c262 41be
00000070: 1cd8 d7bd f7ae 8f3e b113 a6bd f5a0 a43e
00000080: 6f02 96bd 6819 d93c 702a 8cbe 77c8 6d3d
00000090: 4be3 653d 4c26 dc3d bcbe f13d 8857 273e
000000a0: 4f83 d2bd 9d3a d73d 472b 03be 3039 2fbe
000000b0: 4e00 87be 312e 173d f958 2a3e 9a78 a3bd
000000c0: 43bc ddbb 857f 61be 0030 733d 171e 983c
000000d0: 7b16 8c3e 11ef bdbc eaa3 1e3e 771e 473d
000000e0: 7154 51be 12b3 3bbe 07d6 05be 33dd 88bd
000000f0: 71a5 b6be 23be fdbd 4192 073e 862f 51be
00000100: 64d3 dabd 3963 253e 9586 d6bc d080 a33d
00000110: 50cc e43c 58a2 9e3b 56be bc3d 0f5e acbe
00000120: d1ae 97be 76f5 9dbd ae9d 9b3e 18b4 fdbc
00000130: 8932 953d e69e 50be acd2 3abe 07c8 6abd
00000140: 40b7 953d 01aa 75be 94c9 32bd 12eb 033d
00000150: fe4b 803e 7821 9c3d c31a 79bd 3d61 0dbe
00000160: d829 88be 7ab0 8cbe 9d67 66be fbce 97bc
00000170: 696f 61be e1e5 913e ea30 2fbe dfda d43d
00000180: 4d76 c13c 4a28 4abe f51d 7c3e 18bd e13d
00000190: 135a 3e3d ca1d 133e 11cb 9dbd f507 a4be
000001a0: 274d 1d3e d84d babd 5568 ab3d f671 533d
000001b0: e96e 2d3d c456 a7bc c3c1 4d3d b715 763d
000001c0: a67e 37bd ca47 363e debb 013e 45a7 e93d
000001d0: 27b0 443d ef9e 483d df65 fb3d 58ca 323c
000001e0: f739 a53c 27ab 1a3e bfc2 0bbe 028d ca3e
000001f0: da22 003d c228 653d b4f7 c43d e0f2 74be
00000200: 2365 0b3d fa6d 9e3d 0020 8f3e b916 a33d
00000210: 9b45 05bd a770 853d 433b fa3c d139 663d
00000220: 9eea 183e c975 2e3c a0b7 23bd 6d40 67be
00000230: 82cb 62be f215 373d db57 183d 4bc5 093c
00000240: d0c0 ffbc 02f9 383e efe1 563e b820 b03e
00000250: 1d4f 623d 06e1 4c3e 40e8 4abe 05d3 2e3a
00000260: 2fea 1fbf de1d b43d ffeb 82bd ddba d43e
00000270: 1f94 283e 4176 373e b9ec b83c a0ae 813d
00000280: f4e1 90be e784 db3d 67d4 8e3d 0c32 49be
00000290: b0b5 823e 4d5a 93bd 2bed b03d 1b3c 683d
000002a0: c64d b33e 1b13 d8be b364 f5bd 514c 58be
000002b0: 7160 4f3e e034 233e 0e00 823e 84df 04be
000002c0: 2bcf a3be 92c5 2f3d e6dc 9ebe d255 f63b
000002d0: 82b5 be3e 0129 0ebe 372a 0bbe 1770 a7be
000002e0: 8a62 d8bd edd5 c83c b00a 88be 6e5b 2dbe
000002f0: 4c93 74bd b387 a33d 1ee7 993e 1731 e13d
00000300: 8f45 093d 4fef 283e 6982 a1bd 2728 0ebe
00000310: 0d9c e0bd 5489 703e 5348 09be dd36 e8bd
00000320: 245c 9c3d 2e28 7fbe 1f52 823e eb3b c73d
00000330: b54d 0e3e f81d 1f3e 8338 653e bc9d bebe
00000340: 27e5 823e 6ae3 7abe ee4b 3cbe f98e 7c3e
00000350: f5fc e53e e882 373e 070b 563e e899 39bd
00000360: 9fda 263e fb18 e3bd a16e c3bd 3524 cd3d
00000370: 19e5 dabe ff83 8bbd 9f80 0c3e 50c8 483c
00000380: 675c 19bd ba17 90ba d389 743d 0754 7d3c
00000390: aabf 8a3d 82e2 32bd 1347 07be 7025 68be
000003a0: 0095 3dbe 6464 113e ddc9 1f3e 0263 eabe
000003b0: 14d9 04be e687 513e 9858 96be 8da3 493e
000003c0: 82d8 253e 3eb9 edbd ed47 da3c 3983 33be
000003d0: b9da 07bd 0973 a8bd 545c 733e 17c3 5e3e
000003e0: ef5c 96bd 720c e73d 0110 dcbe 131a 54be
000003f0: c3ba a43d e405 b23b 1771 6f3e 7ff2 52bb

linears.4.bias f4 [40]
0.019040797 0.04316368 -0.041579075 -0.018232247 0.09779699 -0.032571703 0.026862936 -0.14795218
0.024844736 0.03083265 0.037850905 0.049911592 -0.05488774 0.04284265 0.01422614 -0.0111364685
-0.0610971 -0.029055463 -0.020140715 0.07094211 0.0037645388 -0.015756529 -0.06334304 -0.0015916728
0.011976112 0.019248065 -0.008957009 0.032020442 -0.0238893 -0.030619854 0.009883239 -0.028556723
-0.19584088 -0.103428274 -0.015067007 -0.022167075 0.0262519 -0.046090398 0.012783608 0.033507
00000000: 72fb 9b3c 66cc 303d d24e 2abd cb5b 95bc
00000010: ca49 c83d e869 05bd a90f dc3c c780 17be
00000020: 3087 cb3c c194 fc3c 8d09 1b3d 1970 4c3d
00000030: f8d1 60bd c67b 2f3d c214 693c bc75 36bc
00000040: f440 7abd b905 eebc 24fe a4bc 194a 913d
00000050: 7bb6 763b d613 81bc ffb9 81bd ad9f d0ba
00000060: 7437 443c 1eae 9d3c 6bc0 12bc de27 033d
00000070: 7eb3 c3bc 7dd6 fabc 4fed 213c caef e9bc
00000080: 838a 48be 34d2 d3bd 9cdb 76bc ba97 b5bc
00000090: 390e d73c 49c9 3cbd 5772 513c a33e 093d

linears.5.weight f4 [40, 40]
0.031860355 -0.009977836 -0.19390447 0.005912584 0.14807902 -0.010076972 0.17246151 0.19838244
0.061914008 0.12606303 -0.0045843176 0.11699887 0.0074866223 -0.14297073 0.102034755 -0.14371543
0.020873357 0.05634102 -0.0076536313 0.11824771 -0.13184692 0.1522144 0.052432865 -0.32044274
-0.026828438 -0.023643197 -0.19020061 -0.07259462 -0.4564824 -0.12900372 0.13854611 -0.069729365
-0.022870684 -0.14509985 -0.22544582 -0.289577 0.2570013 -0.181236 -0.12599115 -0.0093585765
-0.13279663 -0.23693626 -0.01521377 -0.07049548 0.24251646 -0.5254569 -0.042934053 -0.15087168
-0.35665217 -0.1277526 0.18186976 0.20797804 -0.33963498 0.049967986 0.50182205 0.15045348
-0.24486099 0.24750398 0.0037594044 -0.030181814 0.0611342 0.12018026 -0.043507174 -0.4022554
-0.07816358 0.14620546 0.14101775 0.15438128 -0.008099092 -0.5347043 -0.10564614 -0.20687477
0.19709 0.073998414 0.11699194 -0.23221184 0.15949617 -0.45687762 0.1623378 -0.15788655
0.16621315 0.0029135854 0.048564862 -0.116195 -0.07728285 -0.03196792 -0.1160256 -0.08581884
0.18067758 0.15905008 0.117392406 0.10346777 0.02866249 0.15378174 -0.041907657 0.01532577
0.18046716 -0.34719464 -0.04805866 0.21352994 -0.2726813 -0.15746737 -0.01971918 0.14353193
0.039118942 0.044877402 0.14368773 0.044746876 -0.10295487 -0.0025859813 0.062235124 0.17900045
0.31457976 0.2499605 0.25572976 -0.012778808 0.05800966 -0.023544876 -0.07809036 0.079580165
-0.127621 -0.11184518 -0.06029798 -0.2615685 -0.17920808 0.052637093 -0.03661998 0.17883107
-0.010435471 0.29062808 -0.01025866 0.028388683 -0.21230014 0.0642463 0.064591534 0.11199236
0.17204048 -0.03956522 -0.19681264 0.33332768 0.077169016 0.09586592 0.1960099 0.28518584
0.18866526 -0.3218339 0.19153027 0.070614226 -0.14767806 -0.13635653 0.18393143 0.32474366
-0.2194894 0.06641657 -0.1021947 -0.0062414305 -0.09880503 -0.07866012 0.01297901 -0.017409477
-0.06893338 0.07189069 -0.3432547 -0.06673111 0.2669772 -0.013378874 -0.13696876 0.10747261
0.08724752 0.051315103 0.10017239 -0.019715995 0.07593341 0.1941086 -0.015190379 -0.22053225
-0.22696438 -0.29860696 -0.102975376 0.119345404 0.20827918 0.101186514 -0.44711548 -0.013625149
0.15156215 0.042384934 0.06055745 -0.12156105 0.06619467 0.054387294 0.11783197 -0.07005697
-0.36719424 -0.04176217 0.11472702 -0.15555209 -0.12880777 0.1095068 -0.16568989 -0.04986137
0.19478522 -0.020271594 0.10916543 0.114930384 0.23753919 -0.15700907 0.03731549 0.4114442
-0.12408182 -0.2127327 0.21389581 -0.16025718 0.103183284 -0.10729674 0.25498334 -0.09859458
0.20776626 -0.06691698 0.14163986 0.04922531 -0.015912646 -0.079816684 0.070100956 0.035013475
-0.21015367 -0.0627609 -0.02316667 -0.014397285 0.03956302 0.08664314 -0.28783414 0.20694107
-0.03366522 -0.15611725 0.20776176 0.24955928 -0.19506304 0.25073263 -0.06650553 -0.08211569
-0.3260916 0.023370266 0.20672281 0.01941183 0.059479933 -0.3177896 0.056173723 -0.25427827
-0.17310822 0.3093704 0.098272115 0.15096387 0.13026544 -0.1400918 -0.23766015 -0.07680053
00000000: 0180 023d 147a 23bc e58e 46be 59be c13b
00000010: 07a2 173e e219 25bc c099 303e c424 4b3e
00000020: 8b99 7d3d ab16 013e 0b38 96bb 1b9d ef3d
00000030: 5752 f53b eb66 12be 99f7 d03d 232a 13be
00000040: 9afe aa3c d7c5 663d 50cb fabb db2b f23d
00000050: e102 07be 17de 1b3e d8c3 563d 1211 a4be
00000060: 50c7 dbbc 61af c1bc f3c3 42be 7dac 94bd
00000070: 10b8 e9be 8d19 04be 08df 0d3e 45ce 8ebd
00000080: 4d5b bbbc 0e95 14be 45db 66be 7043 94be
00000090: ad95 833e ee95 39be d303 01be b754 19bc
000000a0: d7fb 07be 6b9f 72be 2d43 79bc ef5f 90bd
000000b0: 3c56 783e 5884 06bf 9edb 2fbd 1b7e 1abe
000000c0: 1d9b b6be 94d1 02be 113c 3a3e 32f8 543e
000000d0: a3e4 adbe 3bab 4c3d 6977 003f 7a10 1a3e
000000e0: d7bc 7abe af71 7d3e 5760 763b da3f f7bc
000000f0: db67 7a3d 1121 f63d 9434 32bd 6bf4 cdbe
00000100: 3a14 a0bd e2b6 153e f566 103e 2016 1e3e
00000110: 0eb2 04bc 62e2 08bf 015d d8bd fbd6 53be
00000120: f6d1 493e 7b8c 973d 7899 ef3d f1c8 6dbe
00000130: f752 233e ddeb e9be e13b 263e 03ad 21be
00000140: c833 2a3e daf1 3e3b f3eb 463d a5f7 edbd
00000150: 7946 9ebd cbf0 02bd d49e edbd cac1 afbd
00000160: 8b03 393e 06de 223e 6e6b f03d e9e6 d33d
00000170: 99cd ea3c f678 1d3e 5da7 2bbd f018 7b3c
00000180: 62cc 383e 7fc3 b1be 28d9 44bd 98a7 5a3e
00000190: e29c 8bbe 203f 21be 1e8a a1bc 09fa 123e
000001a0: 2f3b 203d 5ed1 373d e022 133e 8048 373d
000001b0: 01da d2bd 9179 29bb 42ea 7e3d e54b 373e
000001c0: 9910 a13e a5f5 7f3e 03ef 823e 355e 51bc
000001d0: 8a9b 6d3d 2fe1 c0bc d7ed 9fbd edfa a23d
000001e0: 14af 02be 160f e5bd 04fb 76bd 4eec 85be
000001f0: 5382 37be fe99 573d d5fe 15bd 7e1f 373e
00000200: 8af9 2abc 34cd 943e f013 28bc 628f e83c
00000210: 3565 59be 9093 833d 9148 843d 405c e53d
00000220: 612b 303e 240f 22bd 4189 49be eda9 aa3e
00000230: ca0a 9e3d 5a55 c43d d2b6 483e e103 923e
00000240: 7731 413e 6ac7 a4be 8320 443e 319e 903d
00000250: eb38 17be 0ca1 0bbe 8558 3c3e cd44 a63e
00000260: d4c1 60be 6905 883d 744b d1bd ea84 ccbb
00000270: 4b5a cabd 8f18 a1bd eaa5 543c 529e 8ebc
00000280: f22c 8dbd 6d3b 933d 14bf afbe 52aa 88bd
00000290: 3cb1 883e 1133 5bbc 8a41 0cbe 9a1a dc3d
000002a0: d4ae b23d c92f 523d 2f27 cd3d 7083 a1bc
000002b0: fa82 9b3d 68c4 463e 11e1 78bc 35d3 61be
000002c0: 5a69 68be 03e3 98be c1e4 d2bd 5d6b f43d
000002d0: 2347 553e e03a cf3d 52ec e4be 043c 5fbc
000002e0: 1c33 1b3e d39b 2d3d 170b 783d 00f5 f8bd
000002f0: 1291 873d 36c5 5e3d e351 f13d 077a 8fbd
00000300: e200 bcbe cf0e 2bbd 00f6 ea3d 0c49 1fbe
00000310: 2fe6 03be 1a45 e03d 9caa 29be 703b 4cbd
00000320: c775 473e 9d10 a6bc 2092 df3d 9f60 eb3d
00000330: 793d 733e fcc6 20be 21d8 183d d0a8 d23e
00000340: 9c1e febd 9ad6 59be 8107 5b3e 751a 24be
00000350: c251 d33d 65be dbbd 2d8d 823e f5eb c9bd
00000360: aec0 543e c50b 89bd 0a0a 113e 7ba0 493d
00000370: 3d5b 82bc ee76 a3bd 1791 8f3d 4a6a 0f3d
00000380: 8632 57be c988 80bd 07c8 bdbc 97e2 6bbc
00000390: d50c 223d f571 b13d ff5e 93be 5ce8 533e
000003a0: 8be4 09bd 33dd 1fbe 80bf 543e 788c 7f3e
000003b0: 9bbe 47be 0760 803e 0d34 88bd 452c a8bd
000003c0: 7af5 a6be 0073 bf3c 25af 533e 8f05 9f3c
000003d0: 3ba1 733d 52b5 a2be 6b16 663d c330 82be
000003e0: 4843 31be cc65 9e3e e442 c93d 4696 1a3e
000003f0: 4e64 053e 3a74 0fbe 2f5d 73be 9949 9dbd

linears.5.bias f4 [40]
-0.08268737 0.018385405 -0.05946084 -0.10304396 0.02934423 -0.07642633 -0.017164938 0.020800555
0.07020693 -0.13798027 -0.02419928 -0.032656536 -0.111719154 -0.0024004537 0.04319085 -0.025270443
0.12667702 -0.030826293 0.03612894 -0.04471775 -0.07498673 -0.06407521 -0.039965205 0.060226675
0.07110209 0.050688323 -0.09652532 0.07397959 0.0826133 -0.032940015 0.06465423 -0.016731732
-0.05387798 -0.07449924 -0.053439654 0.08032553 -0.0881073 0.049344983 -0.060879994 0.08102096
00000000: ff57 a9bd fd9c 963c 368d 73bd b608 d3bd
00000010: 5063 f03c 6885 9cbd 7c9d 8cbc ed65 aa3c
00000020: a7c8 8f3d b34a 0dbe 923d c6bc dcc2 05bd
00000030: 03cd e4bd ee50 1dbb e4e8 303d f603 cfbc
00000040: 9fb7 013e 6c87 fcbc f0fb 133d f629 37bd
00000050: a592 99bd dd39 83bd 8eb2 23bd 3fb0 763d
00000060: f99d 913d 8f9e 4f3d 11af c5bd 9c82 973d
00000070: 2931 a93d 1cec 06bd 7069 843d fc10 89bc
00000080: 28af 5cbd 0f93 98bd 8ae3 5abd b681 a43d
00000090: 9a71 b4bd f71d 4a3d 4d5d 79bd 51ee a53d

linears.6.weight f4 [1, 40]
0.04251335 -0.38043675 0.000121221725 0.0774074 -0.14157727 0.1874323 0.23706505 -0.253791
-0.00792056 0.03696104 0.23773469 0.15178716 0.23700841 0.7347192 -0.2357587 0.2517507
-0.31654906 0.12602949 -0.26501322 0.006556382 0.00075163017 0.10928142 0.038826715 -0.3665134
-0.1441121 -0.09522784 0.084729396 -0.17797214 -0.20764856 0.12733728 -0.32412544 0.115467496
0.21729961 0.029484114 0.10264017 -0.18745239 0.04920477 -0.12585399 0.04616019 -0.36774638
00000000: 7a22 2e3d 9bc8 c2be 6b38 fe38 c587 9e3d
00000010: a2f9 10be 41ee 3f3e 2ec1 723e e5f0 81be
00000020: 3dc5 01bc 7664 173d b970 733e 186e 1b3e
00000030: 55b2 723e 8f16 3c3f bb6a 71be 78e5 803e
00000040: b812 a2be e00d 013e d0af 87be ebd6 d63b
00000050: 0c09 453a f0ce df3d c308 1f3d a5a7 bbbe
00000060: 1f92 13be d006 c3bd 9b86 ad3d 543e 36be
00000070: d3a1 54be b464 023e c5f3 a5be 397a ec3d
00000080: ca83 5e3e ab88 f13c 0235 d23d 85f3 3fbe
00000090: f18a 493d dedf 00be 7812 3d3d 4149 bcbe

exp_avg f4 [40, 2]
-5.1350988e-05 6.6137372e-06 -2.9987061e-06 3.5511391e-06 1.6540422e-05 2.8974224e-05 -8.922747e-05 -2.5300244e-05
-4.1751578e-06 -2.4411767e-05 -2.5396168e-05 -2.8589234e-06 9.988101e-06 -4.3893837e-05 2.1044825e-05 4.90845e-05
-4.543051e-06 -6.9483885e-06 0.000121695164 7.840979e-05 -1.646091e-05 -2.2428512e-05 4.5982066e-05 1.4163812e-05
-5.3527132e-05 -1.9009256e-05 -5.0377537e-05 -3.8376937e-05 -2.7515096e-05 -4.1899697e-05 3.6660134e-05 2.0670344e-05
0.000101004916 7.165482e-05 -8.2647975e-06 7.84798e-06 -5.633032e-05 -4.0214294e-05 -5.379058e-06 -8.524449e-06
-4.4489254e-05 -1.2330311e-05 -2.4436265e-05 -2.4907744e-05 -4.6578938e-05 -3.4486064e-05 -2.164991e-05 -2.7812448e-05
-8.368347e-05 -4.49612e-05 1.4521028e-06 -7.2315493e-06 4.033354e-05 1.5137321e-05 -2.8369283e-05 -6.9438465e-05
-1.9803127e-05 -1.8928942e-05 -4.876886e-05 -5.7385972e-05 -8.712414e-05 -4.647716e-05 -8.442219e-05 -6.964602e-05
-9.365146e-05 -2.5290426e-05 -5.534696e-05 -5.8476588e-05 1.564705e-05 -1.6857219e-05 6.938957e-05 4.1544037e-05
5.7225334e-05 9.434101e-05 6.388267e-05 2.0607991e-05 -5.4978183e-05 -4.2276803e-05 9.7702305e-06 1.5087934e-05
00000000: b461 57b8 92eb dd36 613d 49b6 1b50 6e36
00000010: 49c0 8a37 ac0d f337 a21f bbb8 dc3b d4b7
00000020: 5518 8cb6 dfc7 ccb7 db09 d5b7 eedb 3fb6
00000030: 9192 2737 a61a 38b8 6b89 b037 15e0 4d38
00000040: 8370 98b6 3426 e9b6 9836 ff38 ef6f a438
00000050: 8915 8ab7 dd24 bcb7 dedc 4038 1ca1 6d37
00000060: 5282 60b8 1176 9fb7 784c 53b8 ecf6 20b8
00000070: 38d0 e6b7 75bd 2fb8 85c3 1938 3a65 ad37
00000080: 9ad2 d338 6345 9638 09a9 0ab7 d1aa 0337
00000090: 3844 6cb8 c5ab 28b8 c27d b4b6 3b04 0fb7
000000a0: f999 3ab8 48de 4eb7 7bfc ccb7 f9f0 d0b7
000000b0: c15d 43b8 21a5 10b8 d49c b5b7 c74e e9b7
000000c0: 397f afb8 b994 3cb8 dfe5 c235 89a6 f2b6
000000d0: cf2b 2938 4cf6 7d37 92fa edb7 7e9f 91b8
000000e0: e41e a6b7 98c9 9eb7 2a8d 4cb8 b8b1 70b8
000000f0: 6bb6 b6b8 78f0 42b8 d10b b1b8 ec0e 92b8
00000100: bf66 c4b8 c726 d4b7 5924 68b8 c244 75b8
00000110: c941 8337 9a68 8db7 3e85 9138 923f 2e38
00000120: 3c05 7038 f2d8 c538 bff8 8538 53df ac37
00000130: 6098 66b8 5f52 31b8 d2ea 2337 2f22 7d37

exp_avg_sq f4 [40, 2]
0.0004981684 1.697631e-06 7.143738e-06 1.8582055e-05 0.00023419628 7.595524e-08 0.0010939759 0.00010520642
7.750069e-06 7.1247528e-06 0.00028562837 8.429961e-06 1.9504361e-05 2.1000189e-05 6.423955e-06 0.000102377635
2.5499125e-05 3.139136e-05 0.0011358872 0.00018283246 0.0002884235 4.440457e-06 0.00030899516 6.170091e-05
0.00025407536 8.2547114e-05 0.00016446497 7.4704294e-05 0.00013342702 8.42e-06 0.00014962905 5.5835426e-05
0.0014222931 0.00021803596 1.2651115e-05 1.0775456e-05 0.00031539195 5.4263273e-05 1.7500497e-05 1.9266952e-05
0.0005342341 3.5826615e-06 0.00016733746 5.0160656e-06 9.6191216e-05 6.037225e-05 2.1926812e-06 7.900831e-06
0.0007142177 7.708684e-05 4.1654665e-05 3.1962422e-06 0.00020080594 3.0772644e-05 0.00024558432 3.7841517e-05
9.92736e-07 1.6229651e-05 0.0011615787 3.9671536e-06 0.00071042427 2.7876966e-05 0.0006910843 0.0001248349
0.0012497774 0.00011836762 0.00017575773 4.1524752e-05 1.3551074e-06 6.957284e-08 0.00088746013 5.2479495e-06
0.0003613485 7.510171e-05 0.00092943263 3.453332e-05 0.00034171753 2.5447196e-05 1.6068219e-06 4.9401126e-07
00000000: 8497 023a 28da e335 3eb4 ef36 a9e0 9b37
00000010: 9692 7539 d61c a333 bd63 8f3a 44a2 dc38
00000020: 4b06 0237 2911 ef36 64c0 9539 686e 0d37
00000030: 4c9d a337 9029 b037 5a8d d736 93b3 d638
00000040: f4e6 d537 37aa 0338 0de2 943a b7b6 3f39
00000050: 8c37 9739 3cff 9436 a100 a239 6c65 8138
00000060: 6b35 8539 251d ad38 3b74 2c39 90aa 9c38
00000070: 8be8 0b39 a043 0d37 bee5 1c39 d530 6a38
00000080: 3d6c ba3a 95a0 6439 2040 5437 3bc8 3437
00000090: 315b a539 bf98 6338 08ce 9237 779f a137
000000a0: d80b 0c3a a86d 7036 4f77 2f39 ad4f a836
000000b0: 44ba c938 3638 7d38 fa25 1336 d08d 0437
000000c0: 573a 3b3a afa9 a138 5bb6 2e38 067f 5636
000000d0: 6f8f 5239 e011 0138 c5c1 8039 05b8 1e38
000000e0: 263e 8535 e924 8837 1d40 983a 971d 8536
000000f0: c43b 3a3a 54d9 e937 e229 353a 1de6 0239
00000100: 92cf a33a 223c f838 9b4b 3839 dd2a 2e38
00000110: 23e1 b535 1368 9533 71a4 683a 8b17 b036
00000120: 6073 bd39 ec7f 9d38 2ba5 733a dfd7 1038
00000130: 8d28 b339 7077 d537 fba9 d735 329c 0435

exp_avg f4 [40]
-2.3745988e-05 1.6537013e-05 7.506096e-06 -6.033056e-06 6.4699393e-06 -3.19181e-05 -2.5611642e-05 -2.741561e-05
1.8928138e-05 3.0832023e-05 -2.728186e-05 -8.080164e-06 3.6331146e-06 -5.515331e-07 -4.696412e-06 -9.286293e-06
5.899896e-06 1.009591e-05 -1.5438574e-05 1.7742514e-05 -1.5918278e-05 -2.844599e-05 -6.2442805e-06 -4.3198515e-06
-2.1121721e-05 8.7645554e-07 -9.733541e-07 1.6951215e-05 2.723367e-06 -9.665808e-06 -3.973046e-05 -1.6686046e-05
-9.2654e-06 -1.286294e-05 1.4518375e-05 3.887432e-05 9.178764e-06 1.29832515e-05 -1.9487741e-05 7.707344e-06
00000000: 1f32 c7b7 f7b8 8a37 e0dc fb36 8e6f cab6
00000010: 5b18 d936 cddf 05b8 95d8 d6b7 93fa e5b7
00000020: dec7 9e37 a251 0138 59db e4b7 0a90 07b7
00000030: 6fd0 7336 110d 14b5 df95 9db6 53cc 1bb7
00000040: b9f7 c536 9a61 2937 1682 81b7 c2d5 9437
00000050: 3e88 85b7 4c9f eeb7 f685 d1b6 3ef3 90b6
00000060: 8d2e b1b7 9145 6b35 31a4 82b5 7532 8e37
00000070: 17c3 3636 542a 22b7 42a4 26b8 03f9 8bb7
00000080: 9772 1bb7 e8cd 57b7 f293 7337 fc0c 2338
00000090: 7efe 1937 a4d2 5937 9b79 a3b7 ca4e 0137

exp_avg_sq f4 [40]
1.7899061e-05 0.00011870903 5.50027e-06 0.00069780083 4.093388e-05 7.1496055e-05 0.00018605162 0.00058922713
0.00017632595 0.001151683 5.521135e-05 0.00042547227 0.0005213962 0.00048367266 4.3594755e-05 0.00032770983
0.0012567083 9.754498e-05 0.00034819555 0.00014494153 2.5828458e-05 4.294054e-05 0.00039428053 5.038583e-05
0.00046240218 2.5256873e-05 0.00021060123 0.00027989043 0.00010325759 1.92795e-05 0.00016933584 0.00073188584
0.0007570343 0.00029968514 3.891204e-06 2.7768396e-05 0.0004682411 0.00020847135 0.00014152707 2.2787538e-06
00000000: f125 9637 6df3 f838 f68e b836 9fec 363a
00000010: 6bb0 2b38 27f0 9538 da16 4339 5d76 1a3a
00000020: 23e4 3839 12f4 963a bc92 6738 ec11 df39
00000030: 4fae 083a 7295 fd39 83d9 3638 78d0 ab39
00000040: 22b8 a43a 1091 cc38 048e b639 72fb 1739
00000050: 31aa d837 0e1b 3438 70b7 ce39 5f55 5338
00000060: 926e f239 b9de d337 d6d4 5c39 42be 9239
00000070: ff8b d838 69ba a137 be8f 3139 07dc 3f3a
00000080: b673 463a 0f1f 9d39 3091 8236 2df0 e837
00000090: 427e f539 1a99 5a39 e266 1439 b1ec 1836
