pdebench/models/newly_trained_models1D_Advection_Sols_beta0.4_PINN.pt-15000.pt (torch, 120453 bytes, 39 tensors)

linears.0.weight f4 [40, 2]
00000000: 07b4 353d 6aab 8cbe acf1 83be 63c2 18be
00000010: f0a3 e2bd 38d6 b7bc 029b a9bd 9c8e 8a3d
00000020: 0cef 283e 0bdb 09be 543e dabb be00 34be
00000030: 0d46 d4bd 7c2e 973d 0a61 4c3e 7999 53bd
00000040: cae6 883d c200 513e a7a9 08be 333a e93d
00000050: ec1c 493d 1285 1b3e d459 873e 6721 9cbd
00000060: 67d1 9e3e a14d 73bd 8a23 ac3e 24f2 ae3e
00000070: 3742 83be 21d7 54be 1e91 4bbe 21b9 ba3e
00000080: 6039 d13e e1fa 39bd 475c 51bc 75e8 893e
00000090: f3a2 edbc 32ea 563e f297 cc3e 9791 a7be
000000a0: 516e f73e 7254 a73e 99c7 86be 9728 4fbe
000000b0: 46be 8e3e 9961 093e a1fa 7bbe 0f9c e33d
000000c0: 2e1a 5ebe a15c 003d ac1b 97be 847a 133e
000000d0: b116 babe da4f 133d 688f 833e 975e c1bd
000000e0: 0b14 cdbd b33f ed3d ef27 a43d c4a6 563e
000000f0: 10d9 df3c 27d2 d2be 60a2 61be b3ca a93e
00000100: 379b 653e a32b d2be 1547 4a3e f786 ce3d
00000110: 44d6 6ebd 3727 273e 1d98 7bbe 902d 2cbe
00000120: 878e 683e 1869 993d 96d8 c23d f5bd 583e
00000130: 12c0 b5bc 1c29 053e f861 a4bc bf1b 88bd
0.04436114 -0.2747453 -0.25770319 -0.14917903 -0.11066425 -0.022441015 -0.082815185 0.06765482
0.16497439 -0.13462465 -0.006660262 -0.17578408 -0.103649236 0.07381913 0.19958892 -0.051660035
0.066846445 0.20410445 -0.13345967 0.11388054 0.049099848 0.15187481 0.2643572 -0.076235585
0.31019136 -0.059400205 0.33620864 0.34169114 -0.25636455 -0.2078519 -0.19879577 0.36469367
0.40864086 -0.045405272 -0.012778348 0.26935163 -0.029008364 0.20987776 0.39959675 -0.32728264
0.48326352 0.32681614 -0.26324156 -0.20230328 0.27879542 0.13416137 -0.24607326 0.1111375
-0.21689674 0.031338338 -0.295133 0.14402205 -0.36345437 0.035964824 0.25695348 -0.0944187
-0.100135885 0.11584415 0.08015429 0.20962054 0.027325183 -0.4117596 -0.22034597 0.3316246
0.22422491 -0.41048917 0.19753678 0.10084336 -0.05830981 0.16323553 -0.24569745 -0.16814256
0.2271062 0.07490748 0.09513967 0.21166213 -0.022186313 0.13003963 -0.020066246 -0.06645917

linears.0.bias f4 [40]
00000000: 99c7 d53d c506 b0bd 6161 8f3d 35fc 493d
00000010: f603 4abd afef f93c 71a8 38bd b486 893d
00000020: 3e6f 71bd 4c4e c2bd eca1 f3bd 0b4e 663d
00000030: a57a 5dbd 500e c9bd 12d2 eb3d 5636 c53d
00000040: 310a 9c3c e4a5 8a3d e461 9c3b cdda 693d
00000050: a9d7 7bbd c27b ab3d 9614 a7bd 3dbb f33c
00000060: d4da 70bd deb7 65be 0ce2 a53c f252 a2bd
00000070: 92af 233d b133 3c3d 7cd8 d53d 86d1 0d3d
00000080: 7d00 95bd bc34 07be fe26 4b3d dd3b 06bd
00000090: 91cd d0bd 69fe 6a3d 83df 633d 448e 4f3d
0.10438461 -0.08595041 0.070009954 0.04931279 -0.049320184 0.030509798 -0.045082513 0.06715146
-0.05894398 -0.0948759 -0.118961185 0.05622677 -0.05407204 -0.09817183 0.11514677 0.096295044
0.019047828 0.067699224 0.0047724117 0.05709343 -0.061484966 0.08373214 -0.08158223 0.029752368
-0.05880244 -0.22433421 0.02024939 -0.07925977 0.03996236 0.045947734 0.10441682 0.034623645
-0.07275484 -0.1320371 0.049597733 -0.032771934 -0.10195459 0.05737153 0.05563308 0.050672784

linears.1.weight f4 [40, 40]
00000000: 1a1c 263e 88fb 263e adb1 f93d 275b 8a3c
00000010: 65a2 c0be bc25 30bd d28e 6d3d 90b1 343e
00000020: c9f8 923c c44a 613d 1eca 93be cba7 fabd
00000030: a7e4 273e 81b5 f0bd cf41 cf3d 78f4 7a3e
00000040: 9a34 81bd 1860 a63d 3455 793e a69b b43d
00000050: 0c96 19be e637 253e fdac 40be 672d 1b3e
00000060: e63b cebd 9393 573e 70cb 2f3c 81f9 70bd
00000070: 648f e5bd 3d79 40bd 7f52 a93d e84c 273b
00000080: a720 3bbe 612d a1bd 5c83 2d3d 27e7 2fbb
00000090: 52ab 81bd d950 c53d 5d68 f23d bc8e 20bd
000000a0: 032c 283e 79ff 18be 5f9a 55bc 7421 00be
000000b0: c5f9 393e ba1f bb3d 5668 f7bc b4a7 a5bd
000000c0: 6d5e cd3e b44e d43d 9ba3 49be b647 bc3d
000000d0: a850 35be be77 ea3c 0018 1a3e 280b 2d3e
000000e0: 5c8a d13d 43bb af39 da61 033e d449 a7bc
000000f0: 106a 4fbe 681f 20be 9331 a13d b6d7 d5be
00000100: 9dbc c7bd ddfc 0f3e 2bd5 29bd 1fe7 07be
00000110: 45d3 203e 43da f9bd e946 703d 70a3 95be
00000120: 9637 8b3e 082e 643e f8ff 463d 6a97 70be
00000130: 98e9 8bbe e463 513e bb37 5dbc 1f24 213d
00000140: 407e 283d 86f9 c13d 5852 81be 8f1c 96be
00000150: 6d11 ee3d 6add a1bd 07cf 3c3e 379e ec3d
00000160: d223 d0bd 5c4b e3bc 9ec0 dbbd dfba 3abd
00000170: c010 8a3d ac5b 46be 97e8 ba3c 9b66 38be
00000180: 5e68 533e 296c 3cbe 1e2f b3be bbbc 88be
00000190: ad30 2e3e 1700 c4bd d91e 613e 130d baba
000001a0: 575e 2dbe a72b 6fbc f8fe c7bd 8b17 1e3e
000001b0: 02d0 26bd 447c 15bc 63a5 60be f688 203c
000001c0: bcb9 4d3e 858a bb3d e345 5cbd 0644 903d
000001d0: 687e 013a 3381 c8be dd1b 0bbd aba4 c03c
000001e0: 4453 bc3d 30bb 13bc 0f5a d1bd 84ec ca3d
000001f0: 252e 9e3e 6eb7 f83d 84a1 17be cd0e b13d
00000200: 574c ee3d 2431 6ebe fa7d c93d d3d8 7cbc
00000210: e971 633e de31 0bbe f152 8fbe 5f78 a3be
00000220: 655e 933d fe9b 88bc 6db0 ecbd 9480 c3bd
00000230: fbc7 813e 61a0 983d 931c 563e 32bb 63be
00000240: f0ab 203d 9003 9ebe 9f0e 98bb cbde 20bc
00000250: f838 df3d 188a 213e c38a ee3c 9303 4ebe
00000260: df6b d8bd 1e10 093f d81f 223d 36b1 fcbd
00000270: 6466 613e 12e5 e83b 400a 213c 8eef 01be
00000280: 19e5 b8bc 9861 c3be adc6 60bb f5b9 bbbd
00000290: bb51 22be 7fa3 983e 97e8 9dbe 338d 243e
000002a0: 3f45 6fbe b098 a13d 225f 14bd 6a69 073d
000002b0: f321 cfbd b87c fbbe 5ba2 333e 1ef6 bfbd
000002c0: 0687 6ebe 2aa5 6bbc 808c 3ebe 9ec9 8bbc
000002d0: 8726 09bd 1bff d3bd 8ed1 2ebd 3464 8d3d
000002e0: 126e 83bd 6ba7 b5be 273f b73d 828b ebbd
000002f0: 3ef4 c83d e6cf 993d 527c 2a3e f382 d43d
00000300: 095e 07bf 42c3 03be 0610 bd3c 28a2 dfbc
00000310: 3216 b2be 1d4c 443d 9caf 93bd 546a efbd
00000320: 1afc 79be 4422 4ebe 879b 98bc cf4a a0bc
00000330: 5d3c 583d 6632 4f3e 7e23 d63d a3b8 7c3e
00000340: b447 883e 1fe9 28bd a753 093e d4d9 6c3e
00000350: e33e edb8 60e2 113e 677b 5cbd e6ba abbe
00000360: af97 99bd 2811 8ebe f8ce d9b9 4292 553c
00000370: 498f 963c f63b 6abd cd1b 9e3b 0f0a 95be
00000380: 1b17 56bd 386b b9bd b497 c4bd a54f 2c3e
00000390: 6fbe 7ebe eae4 5a3d cc30 633d e16d 1a3e
000003a0: 006a bfbc ef38 e73e fc2e c9bd 270a 113d
000003b0: 741d 813d 09ee 03bd b051 02be 6844 e9bd
000003c0: 8ab3 cf3c 0b58 a93d fbfe d3bd e483 0cbe
000003d0: 951b 0abe 65ce cabd 40da 8bbd df6a 103e
000003e0: be04 2c3e f43a 17be 6357 52be 2256 80be
000003f0: fc21 2bbc 0d67 113d 7a84 a33d 9db5 ebbd
0.16221657 0.16306889 0.12192092 0.016889168 -0.37623897 -0.043004736 0.057997532 0.1764586
0.017940896 0.055002943 -0.2886514 -0.12239035 0.16395818 -0.11753369 0.10119974 0.2450732
-0.06308861 0.08123797 0.24348909 0.0881875 -0.14998645 0.16134605 -0.1881599 0.15154038
-0.100700185 0.21052389 0.010729656 -0.058831695 -0.1120899 -0.04699062 0.08267688 0.0025528017
-0.18274175 -0.078699835 0.042361602 -0.0026840658 -0.06331505 0.09634561 0.11836312 -0.039198622
0.16423039 -0.14941205 -0.013037293 -0.12512761 0.18161686 0.09136911 -0.030201118 -0.080886275
0.40111104 0.10366574 -0.19691317 0.09193365 -0.17706549 0.02862155 0.15048218 0.16898787
0.10231468 0.00033518122 0.12830296 -0.020420946 -0.20255303 -0.1563698 0.07870784 -0.41766137
-0.09752772 0.14061303 -0.04146306 -0.1327176 0.15705593 -0.12199833 0.058661375 -0.29226255
0.27190846 0.22283185 0.048583955 -0.2349526 -0.27326655 0.20448261 -0.013502057 0.03934109
0.041136026 0.09471421 -0.25258136 -0.29318663 0.116244175 -0.079035595 0.1843835 0.115536146
-0.10163082 -0.027745895 -0.10730098 -0.04558837 0.06741476 -0.19370908 0.022815986 -0.18007891
0.20645282 -0.18400635 -0.34996885 -0.2670649 0.17010756 -0.0957033 0.21984424 -0.001419457
-0.16930519 -0.01459781 -0.09765428 0.15438668 -0.040725715 -0.0091238655 -0.2193809 0.009798279
0.20090383 0.0915728 -0.053777587 0.070442244 0.00049397955 -0.3916107 -0.03396212 0.02351602
0.09195569 -0.009016797 -0.102222554 0.09908393 0.3089458 0.121443614 -0.14807707 0.08645401
0.116356544 -0.23260933 0.09838481 -0.015432554 0.22211422 -0.13593242 -0.27992967 -0.31927773
0.07195739 -0.016675945 -0.11557088 -0.09546009 0.25347885 0.07452465 0.20909338 -0.22239378
0.039226472 -0.30862093 -0.004640415 -0.009818743 0.10899538 0.15775335 0.029118901 -0.20118551
-0.1056745 0.5354022 0.03958115 -0.12338488 0.22011715 0.0071073854 0.009829104 -0.12689039
-0.02257018 -0.38160396 -0.0034298107 -0.09166328 -0.1585149 0.29812238 -0.30841514 0.16069488
-0.23366259 0.07890451 -0.03622354 0.033059515 -0.10113897 -0.4911859 0.17542402 -0.09373115
-0.23293695 -0.01438264 -0.18608284 -0.017063912 -0.03348401 -0.10351392 -0.042680316 0.06903878
-0.064174786 -0.35479292 0.08947592 -0.115012184 0.098122105 0.075103566 0.16648987 0.10376539
-0.5287786 -0.12867454 0.02307893 -0.027299002 -0.3478256 0.04792415 -0.07211229 -0.11690202
-0.24412575 -0.20130259 -0.018628849 -0.019566922 0.052791942 0.20234069 0.10455988 0.24679808
0.26617205 -0.041237947 0.13410817 0.2312997 -0.00011312754 0.14246511 -0.053828623 -0.3354103
-0.074996345 -0.27747464 -0.0004154367 0.013035359 0.01837887 -0.05718609 0.0048250915 -0.29109237
-0.05226813 -0.090536535 -0.095992476 0.16827257 -0.24877332 0.053440966 0.05546646 0.15080978
-0.023365974 0.45160624 -0.09823415 0.035410073 0.06304446 -0.03220943 -0.12726474 -0.113900006
0.025354166 0.08268746 -0.10351368 -0.13722187 -0.13487084 -0.09902648 -0.06828737 0.14103268
0.16798684 -0.14768583 -0.20541148 -0.25065714 -0.010445114 0.035498668 0.07984252 -0.11509249

linears.1.bias f4 [40]
00000000: 6efa f03c 38bf 4fbd 541a 27bd fb1d 933c
00000010: 460b 823d d8c3 14be 9273 583d 4b90 953d
00000020: a3c7 4fbd efac 3abd ef1e bf3d f977 37bd
00000030: 4437 89bd 862c ccbb e545 0fbe 2a80 d03c
00000040: cafe 57bd b14c a8bd 620f 15bd 5d40 643c
00000050: ef46 35bc 0614 f7bd 9907 f8bb bd37 963b
00000060: 71c2 7a3d d1f9 a5bd 31de 13bd e140 7d3d
00000070: 4360 493c 7dcb e43d 8347 ddbc b31e a93d
00000080: 7a11 0cbe 5878 39be 296f a6bd 3e3e d53d
00000090: 62fa 9c3c baa9 cf3c 9986 a9bd 18ca 443a
0.02941629 -0.05071947 -0.040796593 0.017958632 0.063498065 -0.14527833 0.05284459 0.07302912
-0.050727498 -0.04557508 0.09332072 -0.04479215 -0.06699994 -0.0062308935 -0.13991506 0.025451738
-0.05273322 -0.08217753 -0.036391623 0.013931361 -0.011064275 -0.12064366 -0.007569265 0.0045842812
0.06122059 -0.08104289 -0.03610057 0.06182945 0.012291017 0.11171625 -0.027011639 0.082578085
-0.13678542 -0.18112314 -0.08126671 0.104122624 0.01916236 0.025349487 -0.082776256 0.0007506921

linears.2.weight f4 [40, 40]
00000000: 0ad5 133d e08b b8bd 9fdf 81bd 3d21 a63d
00000010: 6dcd 3cbe 675d 1abe 142d 35bb 73e5 1a3e
00000020: bb30 c1bc 81e0 c43d ce9b 803d 14da c43d
00000030: 1d05 343e 42d7 ecbb 0abd 313e 0245 103e
00000040: cbfb cebd 6c55 a8be 7768 7fbe db29 ed3d
00000050: 2e6a 32be 2d34 263e a54d 113e c9a8 afbe
00000060: 5747 d73c 2426 ee3d 4ebc 8cbe bde8 b13d
00000070: 35d6 553d 0291 e6bd 38e6 89bd 9f5d 133e
00000080: 6f2b cebd 14ca 56be b4db c5bd 901e 4a37
00000090: e4c6 1cbe 0495 203e e254 1e3e d3c3 a8bd
000000a0: 8492 f63c af0b 19be 1c3b b03e 3803 43bd
000000b0: 7302 9a3e 40d1 363e fbba 1e3e 69b9 f4bc
000000c0: 1783 82be 39d8 96be 76c7 793e 1352 67bd
000000d0: 7a2b 02be fb3a 1e3a baaf 993d acf2 0abd
000000e0: 3f69 4fbd 87ae 033c ea74 4e3e da5a c23d
000000f0: 6bd1 1cbe 5110 0a3c ca33 fbbd fffc 093a
00000100: a4d7 863d ad10 1e3e b902 25bd 8908 513e
00000110: 6591 913e 5fcc e73c 2959 95be b20c fe3d
00000120: 857b 84be 2d92 98bd 2097 1bbe 33c4 6c3d
00000130: fcb6 213f eb3f 05be 9222 0e3e 5d7b cebb
00000140: 1c9f a9bd 82ef 9bbd 8f6a 813d 7124 663c
00000150: 81e9 9c3d ea99 fa3b 21c2 d0bb 72ac ee3d
00000160: 8971 d7bd fa31 28be 78bc 5e3e 0fa8 88be
00000170: b7b8 10be 9d3e 513e 48d3 303c f062 5f3e
00000180: b6b0 653e 9918 3ebe ca8b 32bd a3c0 44be
00000190: 58c8 c73e 05df 483e d2f5 cc3c 220c 803d
000001a0: 9468 523d c326 13be 5c04 cc3b 1c53 feba
000001b0: e165 083e 24cf 08be e169 8abc 3737 cc3c
000001c0: 1090 453c db13 d23e 1353 09be b5d0 acbe
000001d0: 5bdb bbbe b95c 803e 8ffb 07be fc0b d1bd
000001e0: bedc 4fbe 2a07 7b3e 254f 1b3e 17d1 cebd
000001f0: 6a0c 25be 801e 083e d632 3d3e fe74 8fbd
00000200: 07dc f73d 0af9 72be 71cc a53c cce9 babd
00000210: 7c31 a83e a14a 3e3d 273e 44be 5735 3c3e
00000220: af8e 80bc 2c41 0f3d e096 1b3e 775b adbe
00000230: f31f 4a3e 9a29 f9bd 375e 253e 4cb2 6abe
00000240: 6353 52bd 55fa ca3d 4a4d cb3d b2bd 3aba
00000250: de1f e3bd fa7d b13e 3dae 193c f0a9 93be
00000260: 44f3 863e 6383 be3d dd05 0dbd 1ecb 9b3d
00000270: 47fc 87be cb1a d93d 70ac 6c3e fcbf 93be
00000280: 6faa 073e 21c4 0a3e 5834 903d e4a1 0cbc
00000290: be6f 343e efa4 38bc bbd6 6cbe 21d0 7a3d
000002a0: a2d3 e7bc f7b7 ba3d 38ea 3b3e 66fb 053e
000002b0: 5c3e 9cbe f72d d63d 3861 5f3e 4954 543e
000002c0: a89a ae3d 6900 6f3b 0407 8d3d cb8c 1bbe
000002d0: 709f 033e 2e1d c9bd 7ee2 57be b7ca 473d
000002e0: b2fb 7a3e 866b f1bd c96f 98b8 c280 ec3e
000002f0: 2d82 07bd 7a30 2c3e 4ee9 1d3e 9854 d53d
00000300: 4979 96be 23d4 e8bc 5cb9 12be c150 123e
00000310: 1287 923c f507 ac3c 16e6 b73d 9364 97be
00000320: f9bf eabc 7686 f23d 2190 1e3e 7395 87be
00000330: 8331 86be dbd2 c0bd 6a06 223e 9c96 80be
00000340: cc76 cbbd a7ac ad3d ebec 8fbe 8ad1 1d3e
00000350: 5e87 59be 6c3f 8abd 3e98 de3e 2c69 aabc
00000360: c507 bcbe 85f2 6d3f ed91 7dbd a86b 91bd
00000370: 17e6 9ebe 6a0b 12be 52fd a83d 69ed aabe
00000380: 54a0 133e 5287 003f 1016 b7be c1c9 5dbe
00000390: 4cc8 7fbe 1c90 63be 1a7c 66bd a027 ad3d
000003a0: 9a12 3b3e af39 f7bd ccfe 443e 4520 15be
000003b0: 7b75 253e 1ae6 5cbc 8316 2dbe 2e5a 11be
000003c0: 0de2 073e 97e6 31bd a316 2d3e 762e 39be
000003d0: c08e a5bd 3a9c 8dbc 098c 813c 22f7 e33d
000003e0: a0c4 763e 0f9a 7d3e 4767 97bd 7e2e 12bd
000003f0: 8025 6e3e eedf 30be 80c0 ed3e c7ec b53d
0.03609184 -0.09011054 -0.063414805 0.081118084 -0.18437739 -0.15074693 -0.0027645277 0.1512659
-0.023582807 0.09613133 0.062797174 0.096119076 0.17580076 -0.007227809 0.17357269 0.14088824
-0.101066194 -0.32877672 -0.24942194 0.11580249 -0.17423317 0.16230841 0.14189775 -0.3430846
0.026279135 0.116283685 -0.27487415 0.086869694 0.052206237 -0.11258127 -0.06733364 0.14391182
-0.10066878 -0.20975524 -0.09661046 1.2047254e-05 -0.15310246 0.15681845 0.15462068 -0.082404755
0.030099161 -0.14945863 0.34420097 -0.04761049 0.30079994 0.1785326 0.15501015 -0.029873567
-0.2549064 -0.2946184 0.24392495 -0.056474756 -0.12711897 0.00060360105 0.0750422 -0.033922836
-0.05063748 0.008037216 0.20161787 0.09489985 -0.15314262 0.008426742 -0.12265737 0.00052638346
0.06584099 0.15436049 -0.0402858 0.20413412 0.2843124 0.028295694 -0.29169586 0.12404765
-0.25875488 -0.07449756 -0.15194368 0.057804298 0.63169837 -0.13012664 0.13880375 -0.006301327
-0.08282301 -0.07614042 0.063191526 0.014046774 0.07661725 0.0076477425 -0.006370798 0.11653985
-0.10519702 -0.16425315 0.21751583 -0.2669072 -0.14132963 0.20434041 0.010792561 0.21815085
0.22430691 -0.18564071 -0.043590344 -0.1921411 0.39020038 0.19616325 0.02501956 0.06252314
0.051369265 -0.14370255 0.0062261056 -0.0019403431 0.13320114 -0.13360268 -0.01689619 0.024928672
0.012058273 0.41030774 -0.13410597 -0.3375298 -0.36690792 0.25070742 -0.13279556 -0.10207364
-0.2029905 0.24514452 0.1516691 -0.100984745 -0.16118017 0.13292885 0.18476424 -0.07004736
0.12102514 -0.23727813 0.020239087 -0.091266245 0.32850254 0.04645789 -0.19164334 0.18379723
-0.015693037 0.034974262 0.15194273 -0.33858845 0.1973875 -0.12166138 0.16149221 -0.22919577
-0.051349055 0.09911028 0.09926851 -0.0007123604 -0.110900626 0.34666425 0.009379921 -0.2884059
0.26357472 0.09302404 -0.03442942 0.07607101 -0.2655966 0.106008135 0.23112655 -0.2885741
0.13248609 0.1355138 0.07041234 -0.00858352 0.17620751 -0.011269792 -0.23128788 0.061233643
-0.028299157 0.0911712 0.18351066 0.13084182 -0.30516326 0.10457986 0.2181443 0.20735277
0.08525592 0.003646875 0.06886104 -0.15190427 0.1285379 -0.09820019 -0.21082494 0.04877731
0.24510077 -0.117880866 -7.2687464e-05 0.46191984 -0.03308313 0.16815367 0.1542103 0.104165256
-0.29389408 -0.028421467 -0.14328521 0.14288618 0.017886672 0.020999888 0.08979432 -0.2956892
-0.028655993 0.11842053 0.15484668 -0.26481208 -0.2620965 -0.094152175 0.1582276 -0.25114906
-0.09934768 0.084801964 -0.28110442 0.15411964 -0.21243045 -0.06750378 0.43475527 -0.020802103
-0.36724678 0.9294818 -0.061906744 -0.07100612 -0.3103492 -0.14262167 0.08251442 -0.33384255
0.14416629 0.5020648 -0.3575902 -0.21658994 -0.24978751 -0.22222942 -0.056270696 0.084548235
0.18268815 -0.12071549 0.19237822 -0.14563091 0.16158096 -0.013482595 -0.16903119 -0.14194557
0.13269825 -0.0434328 0.16903166 -0.1808413 -0.08083868 -0.017286409 0.015813844 0.11131121
0.24098444 0.247658 -0.073927455 -0.03568887 0.23256493 -0.17272922 0.46435928 0.08883052

linears.2.bias f4 [40]
00000000: 0686 85bc e5f2 efbc ef0a 37bd f775 b3bc
00000010: 5a0f 863d ff13 82bd f873 d8bd 4489 08bd
00000020: 421a debc e172 8f3d cac5 293d 25f2 623c
00000030: 68d4 ffbc 320a 73bd 73ea 683c 1347 88bd
00000040: b24b ffbc fc19 14bc 8f94 b4bb e656 d33a
00000050: 7059 01be f27d 1cbd 1989 273d ea89 2e3d
00000060: 4823 6a3d d092 29bd 12d0 703e f8c0 ba3d
00000070: 6a80 873d b772 bebd 7b86 cfbc 53e4 ba3b
00000080: a8d0 093c 7d59 283d ede2 4fbd 506b 45bd
00000090: 9fc7 113c 725e a0bd 073d 743c 3b8f 65bd
-0.016299259 -0.029290626 -0.04468816 -0.021906836 0.06545897 -0.0635147 -0.10568994 -0.03333403
-0.02711213 0.07004333 0.041448392 0.013851677 -0.031229213 -0.059335895 0.014216053 -0.06654181
-0.031164024 -0.009039398 -0.0055108736 0.001612392 -0.12631774 -0.03820605 0.04090223 0.042611994
0.057162553 -0.041399777 0.23516873 0.09118837 0.0661629 -0.09299224 -0.02533268 0.005703488
0.008411564 0.041100968 -0.050753523 -0.048198044 0.008897691 -0.07830514 0.014907128 -0.0560448

linears.3.weight f4 [40, 40]
00000000: 48a4 55bd c74a b3be 0126 46be 3eda 77bd
00000010: 3295 623d 24be f53d ad6e c63c c2a7 523e
00000020: 1016 713c f946 aebe 167b 433e d5bf 073e
00000030: 1c22 8ebd 329b e2bd 9b7c e73d 3a45 133e
00000040: 3fc9 9a3d e849 303d d333 cabe f716 9c3e
00000050: 1256 073d a4d8 5a3d 360b 993e 3f52 413e
00000060: 45c6 07be ec17 21be d5a7 07bf e93d 37bd
00000070: 145a 583d 4884 323e f15b 583d 6157 ffbe
00000080: 6f8b 873c 1da2 2cbe 0e87 4fbe a678 48be
00000090: 6edb 433e 88c4 1dbe 5cab 963c 8d6f 713e
000000a0: 26ab a3be 4896 893e 77e0 a93d 949c dcbb
000000b0: 8779 3bbe 11c2 07be e692 e0be 1c23 673e
000000c0: 2fec 73bd 8c23 bb3d e105 293d 81f9 c73e
000000d0: 56b9 90bd b228 ce3d 8f9e 81bd 7f73 c0bd
000000e0: 46e3 94bc 547f edbb 0b45 acbe cf55 2dbe
000000f0: ac4f 77be f8df 063e c993 2bbe 6899 863e
00000100: ec00 463d 8f2e 3c3e f935 143e b416 f83d
00000110: 38b4 a2be b2b7 9dbd 333e eebd 6132 fa3d
00000120: cf49 7a3d 9671 333e de24 3cbe d95f 463e
00000130: 562e c63d d29f 873e 0217 083e e6e4 1bbd
00000140: d017 8d3d 0478 2e3e 1997 dfbd be47 ea3c
00000150: 9f33 68bb f050 203e eef2 8ebe b896 283d
00000160: b923 ebbd 5b6c d4be 82bd f2be d0b0 6f3e
00000170: 9c61 72be 1363 09be d665 643d ba61 0cbe
00000180: 7aa9 5f3d ee79 1e3e 8ca4 1bbd 546a 423e
00000190: 931b 3dbd 0734 2f3d 36b0 9d3c 40ee e2bd
000001a0: 4b83 8cbe c661 473d c29c 81bd e478 6e3d
000001b0: 93a4 8ebe da69 863e 3c36 823e 2fb0 4cbe
000001c0: 8959 f1bd d239 583d 20bf 1fbe 1419 da39
000001d0: 9ff7 6f3e 6fb2 4a3c 4b77 a6bc a645 253e
000001e0: bfca 48be b4c1 b8bd 3d7d 92be e551 003e
000001f0: 07c8 bdbd 72d2 46be 25ff b33d be3d b0bd
00000200: 5adb c93e 5a86 243e fa6b 953e 01c2 f6bd
00000210: 918a 183e c228 cf3d 2468 1bbe 37c9 463e
00000220: b8cc c5bd 0984 573e 251c 663e 3ba8 f33d
00000230: a765 24bd 2948 123d 8c17 18be 9242 3b3e
00000240: 6240 f13c bd0f 013f 6ff1 34be 4b78 62be
00000250: e9f9 f739 7eaf 32be 3daf bcbd c7f5 85bd
00000260: 0e3c 693e eb10 063e 4526 683d 36f2 04be
00000270: 06a2 0c3e 699d 403e 037c 44be ea4c dc3c
00000280: d1f0 04bd 66f8 9dbe a087 f43e 9868 4ebe
00000290: 50b1 153e c743 85be ccec 34bd b942 c7b9
000002a0: a3b3 abbd 904d 2c3d 7988 9cbe bfcc 1cbe
000002b0: cfa2 753d 2e91 cd3d 7059 d5bd 25bf e1bc
000002c0: 3106 263e 39a6 da3c e7ad abbe 90aa ce3d
000002d0: 1fcf 2abe 694d 35be 7da1 203d 658e 953d
000002e0: 74a0 18bb af31 a9bc cac3 24bd 7b09 543e
000002f0: 10fb 50bc 6fcf 243e cf7e 6a3b 70b4 47be
00000300: 738c 87bd 5438 5dbe 5ab8 7c3d 5bbe 2d3e
00000310: 7988 6fbe 17d5 b4be dc07 2bbe b6f0 bd3e
00000320: 78e0 2b3e f3a4 88bd 946d b1bc e1bb e23d
00000330: a737 10bc 5d1d e43d 3407 0c3e 418b df3c
00000340: c947 a53e 1730 a13e 8103 8c3e 6a81 e23e
00000350: c0bc 26bd c326 aabe 0856 1abe 992a 80be
00000360: 9c4e 81be 019c 373e 503c 92bd 6bac c53e
00000370: 19e5 37be 4fe9 55bd b2b9 68bc 2e1b f63d
00000380: 5f35 31be 9354 d5be 1956 833e 6768 43be
00000390: 6d0a 503e 2e59 01bd 28fc 21be 9776 3f3e
000003a0: 53fc 1dbe 9b08 51bc cacb 7bbd 9ad0 d9bd
000003b0: b12a c33d 038b 073e e6d9 7abe dace 973e
000003c0: 8446 583e 96cc 703d 4f30 4f3b 788a 653e
000003d0: e74f 563e e167 14bd 67c1 dfbb 2c1c f0bd
000003e0: c199 883e 42d6 c2bd d461 b5bd 181b abbd
000003f0: d9c7 bdbb 3e79 433e 84a0 b3bd 8023 b1bd
-0.052158624 -0.35017988 -0.19350435 -0.060510866 0.055318065 0.11999157 0.024222696 0.20571807
0.014714733 -0.34038523 0.19089922 0.13256772 -0.069400996 -0.110647574 0.113030635 0.14381877
0.07557916 0.043039232 -0.39492664 0.3048627 0.033041067 0.05342926 0.29891366 0.1887903
-0.13259228 -0.15731782 -0.52990466 -0.044736777 0.05282028 0.17433274 0.052822057 -0.49871352
0.01654598 -0.16858716 -0.20266363 -0.19577274 0.19126675 -0.15407002 0.018392257 0.2357771
-0.31966513 0.26872468 0.082947664 -0.0067325328 -0.18308078 -0.13257624 -0.43862075 0.22571987
-0.059551414 0.091376394 0.041265372 0.39057544 -0.070666 0.10066356 -0.06329071 -0.09397029
-0.018174779 -0.0072478447 -0.33646426 -0.16927265 -0.24151486 0.13171375 -0.16755594 0.26288915
0.048340723 0.18377136 0.14473714 0.12113705 -0.3177812 -0.07701053 -0.11632957 0.1221664
0.061105546 0.17523798 -0.18373439 0.193725 0.09676807 0.2648912 0.13290027 -0.03806009
0.068893075 0.1703797 -0.109174915 0.028598662 -0.003543116 0.15655875 -0.27919716 0.04115936
-0.11481423 -0.4148892 -0.47410208 0.23407292 -0.23670048 -0.134167 0.05576118 -0.13709155
0.054604985 0.154762 -0.03799872 0.18985873 -0.046168875 0.042774227 0.019249063 -0.11080599
-0.2744392 0.04867723 -0.06328727 0.05822076 -0.27859935 0.26252633 0.25432003 -0.19989084
-0.117846556 0.052789517 -0.15600252 0.00041598885 0.23434304 0.012371643 -0.020320555 0.1613985
-0.19608591 -0.09021321 -0.28611174 0.1253124 -0.09266668 -0.19416216 0.08788899 -0.086055264
0.39425164 0.16066876 0.29183942 -0.12048722 0.14896609 0.10115196 -0.15176445 0.19412695
-0.09658188 0.21046461 0.22471674 0.11897322 -0.040136006 0.03571335 -0.14852732 0.18287113
0.029449645 0.5041464 -0.17670225 -0.221162 0.0004729771 -0.17449757 -0.092131115 -0.06541019
0.22776815 0.13092391 0.05667712 -0.12983021 0.13733682 0.18810047 -0.19187932 0.026892144
-0.032456223 -0.30853575 0.47759724 -0.20157087 0.1461842 -0.26028273 -0.04417114 -0.0003800595
-0.08383872 0.042066157 -0.3057287 -0.1531248 0.05996972 0.100374565 -0.104174495 -0.027556965
0.162133 0.02669059 -0.33531114 0.10091126 -0.16680573 -0.17705311 0.039216507 0.0730255
-0.0023288997 -0.020653574 -0.04022578 0.20706742 -0.01275517 0.16094755 0.003578115 -0.19502425
-0.066185854 -0.21603519 0.06169925 0.16967146 -0.23391904 -0.35318825 -0.16702217 0.3709771
0.16784847 -0.066720866 -0.021658696 0.11070991 -0.008802331 0.11138413 0.13674623 0.027288081
0.3228133 0.31482002 0.27346423 0.4423936 -0.04070735 -0.33232698 -0.15071881 -0.250325
-0.25255287 0.17930605 -0.0714041 0.38608107 -0.17958488 -0.052224454 -0.014204429 0.12016903
-0.17305516 -0.41666088 0.25651625 -0.19082795 0.20316477 -0.03157919 -0.15818846 0.18697582
-0.15428285 -0.012758399 -0.061473645 -0.10635491 0.09529627 0.13236623 -0.24497184 0.29650003
0.2112065 0.05878886 0.0031614488 0.22416103 0.20928918 -0.03623188 -0.0068284753 -0.11724123
0.26679805 -0.09513523 -0.0885655 -0.08354777 -0.005791646 0.19089219 -0.0877085 -0.08649349

linears.3.bias f4 [40]
00000000: 2ff1 033b bb73 303d 6001 e2bc fe7e f93c
00000010: f39f 2f3d 51c7 e73c d566 30bd c7ba 1cbd
00000020: e196 af3d 4b3e 41bd 2059 95bd 63d8 7f3c
00000030: 02d3 013d 2fc5 3f3d 025f 553d 05a6 28bd
00000040: 2a0e a53b b2ae 89bd 0d63 443d 241e f6bc
00000050: 6252 eebd ed98 ce3c 16ec 2a3c 1d08 ee3b
00000060: d03d 103d d29c c93b 52c0 06bc 55ea 7ebc
00000070: 4f1e 653a bf7f ae3c a16d d1bc 5fdb 723c
00000080: 2bb7 fe3c 140a 4c3c 685f 753c 5a1b ebbc
00000090: dd67 b63c 023e cc3c 4556 42bd 9ea1 98bc
0.002013277 0.04307912 -0.027588546 0.030456062 0.04287715 0.028293284 -0.04306682 -0.038264062
0.085737 -0.047178548 -0.0729239 0.015615555 0.031695373 0.04681891 0.05209256 -0.041173954
0.005037089 -0.067227736 0.047946025 -0.030043669 -0.11636807 0.025219405 0.010432264 0.007264151
0.0352152 0.0061527276 -0.008224564 -0.015558799 0.0008740173 0.021301148 -0.02556497 0.01482281
0.0310932 0.012453575 0.01497636 -0.028699566 0.022266323 0.024931911 -0.047445554 -0.018631753

linears.4.weight f4 [40, 40]
00000000: 99d9 e33d 3d7a 583e 9e5f 46be af3f 053c
00000010: e4c6 87bd 18cf 1e3d 0ed4 b1bc ce86 25be
00000020: 4d21 c0b9 ea21 70bd 4fee f7be 3d44 fe3c
00000030: a2d0 e53d 1571 07be 248c ed3d 3035 0abd
00000040: 7a2d 5ebe 62ce 33bc 8700 313e 7e1a 96be
00000050: 5bac f1be 71f7 ef3c 10b5 cc3d 7c83 583e
00000060: ccc5 743b ec75 973d 8f16 373d d9c2 a5be
00000070: bd46 3c3e 75a6 9e3d 1356 e0bb 2f9e a23c
00000080: 84e3 41be b5e0 123e 35cc 863e 22eb 1fbe
00000090: da2a 183e 8374 ba3d 2182 46be df9b 403e
000000a0: af5e a9bd c69e 88bd a6be e7bc 082d 0cbe
000000b0: 9573 86bd 09da cdbc ce37 22be 2cfa e73d
000000c0: aca1 7abc fc3a 0bbe 13e1 0bbb c618 093d
000000d0: 070a cd3d 20fd c03e 377f ae3d bab9 353e
000000e0: d95b 4dbd ccdf 50be 6673 3cbe 9562 3dbe
000000f0: fa81 c33d 4a60 103e 096e 81be a2b2 f43d
00000100: 01dd 773d 18cc 8b3e 01ce cc3d efb7 af3d
00000110: fcde 34be 0b52 71bd 26d5 033e 09ac 553e
00000120: 8a29 3cbd 4f4b 483e 3096 3ebe d24e 4a3e
00000130: ac70 963e 0e00 c6bd 356b d53d 7b9c 7a3e
00000140: 7feb 83be 1dac a8bc 3cc8 d4bc 38d9 913c
00000150: d4fb 653a ba12 a0be ed2e 9c3d 82b0 003e
00000160: 2aec 1f3e 156f 223e 21ca ffbd e7b6 85be
00000170: b8d1 ff3d 0032 72be 38c3 f1bd 3187 8abd
00000180: 74fc b1be 0a7b 223e c086 963e 4bc7 f9bd
00000190: bd3a d33d 003b 483e 63d2 72be 45df 9a3d
000001a0: 6b2f 94bd d488 ed3b f13f 3dbd 6ae3 20be
000001b0: 5472 9abd f393 74be fa32 92bc 1709 ad3c
000001c0: 7385 ba3c cb4a b43c 1060 be3d f0b1 c93d
000001d0: 5685 6ebd 9dab d7bd e75d cb3d 10d3 abbd
000001e0: b1d5 f7bd 520d b53c 9944 a93e ab24 01be
000001f0: 37f5 c9bd 063c 89bd 3e3c 2fbd 4acd d73d
00000200: 2746 403d 01a2 0c3c 4df0 5bbd 37a2 0c3d
00000210: bf9a 13bf 469b 193e 1271 3bbe f844 b43e
00000220: 589f f4bd 3bcc 83bd 412b 82be 9b23 863e
00000230: 2e09 283e d5fc 86be f703 94bd a97d 0a3e
00000240: 09db 6ebe 76ed 383e a160 9ebd 884e 073e
00000250: a6f0 343e 2468 b8bd 4bf8 14bd 79d6 a83e
00000260: 6f18 dabd d33b 99be 2252 de3c f3fd 9a3e
00000270: a866 0e3d f737 3ebe 336b 8f3e 966c a13c
00000280: af16 dd3d 7e67 d73d f677 a8be 2dec 33bd
00000290: 4a1e bb3b d174 d0bc 5889 733e 6be9 ed3c
000002a0: 3129 6c3d cb96 fcbd 2b46 913d 4660 34be
000002b0: a21b 0f3d 124b b4b8 dc7d 1dbf c1d8 5e3d
000002c0: 4419 a4bd a648 bbbe 6a58 eebd fb39 053e
000002d0: 7cdd b8be ad77 843d cf25 31bd 0ed3 3bbe
000002e0: ec0b 413d 11d6 be3e 434f d73d b18b b53d
000002f0: 858a b93d f4bd d73d 7953 423e 285f 6e3e
00000300: 6b4c 58be 20d6 8f3e bf36 22be c180 1f3e
00000310: f0a9 3f3d bc0b 3ebe 9a61 18bd 7010 0ebd
00000320: 341d 5dbe 65ee f33d 1f48 b83d f748 d93c
00000330: 3bf6 273e 30df 75bc d5ee f0bb 20e4 8cbd
00000340: f056 3dbe e316 143e cd6f 0c3e 72bc 963e
00000350: 99e5 2c3e 4750 3fbe 29aa b3be 5553 c43e
00000360: 5bbe 2a3e a526 7a3e 4978 35be 78a3 913c
00000370: 7cc6 e13d dd2b a13d e5f5 bbbe e33a 3f3d
00000380: 6b9d 433e d7af 87bd f79b 8abe 7b55 09bd
00000390: 8007 123e 8472 16bd fe48 8abd c1d2 d83d
000003a0: 825e 3a3c 9316 06be d295 7cbe ccc8 9a3c
000003b0: d8ea 52be 86fc 8c3e c0ea dbbd 7891 923e
000003c0: ad1a 6738 aec7 303e b589 3b3d f4fd 93bd
000003d0: 8396 ed3d 248d 7ebe 7b1d aa3d cc51 263e
000003e0: 2bab b83d 2a86 683c 1b9f 1cbe 991a 75be
000003f0: 1596 4abe 359d 9ebe e684 13be 8869 4ebe
0.11125488 0.2114038 -0.19372413 0.008132859 -0.06629732 0.03877172 -0.02170756 -0.16164705
-0.00036645905 -0.058626093 -0.48424003 0.031038398 0.11221434 -0.13226731 0.11598995 -0.03374213
-0.21697035 -0.010974498 0.17285357 -0.29317087 -0.4720181 0.029292794 0.099954724 0.21143907
0.0037349341 0.07395539 0.044699248 -0.3237522 0.1838636 0.07746593 -0.0068461983 0.019850818
-0.18934447 0.14343531 0.26327673 -0.1561704 0.14860097 0.09104254 -0.19385578 0.1880946
-0.082700126 -0.06670909 -0.02828915 -0.13689053 -0.06565014 -0.025128381 -0.158416 0.113270134
-0.015297335 -0.1359672 -0.0021343871 0.03347089 0.10011678 0.3769312 0.08520358 0.1774663
-0.05013642 -0.20397872 -0.18403396 -0.18494637 0.095462754 0.14099231 -0.25279263 0.11948134
0.0605135 0.2730415 0.100002296 0.085800044 -0.17663187 -0.058916133 0.12874278 0.20866407
-0.045938052 0.19559978 -0.1861198 0.1975663 0.29382837 -0.09667979 0.10420839 0.24473755
-0.25765607 -0.020589883 -0.025974385 0.017803773 0.0008773182 -0.31264287 0.07626138 0.12567332
0.15617433 0.15862687 -0.12489725 -0.26116106 0.124911726 -0.23651886 -0.11804813 -0.06764067
-0.3476292 0.15867248 0.2939968 -0.12196215 0.10313938 0.19553757 -0.23713069 0.075621165
-0.07235607 0.007248977 -0.046203557 -0.15711752 -0.075413376 -0.23884563 -0.017846573 0.021122498
0.022768712 0.02200832 0.09295666 0.09848392 -0.058232628 -0.105307795 0.0993002 -0.08389866
-0.12101305 0.022101078 0.33060148 -0.12611644 -0.09861224 -0.06700902 -0.04278206 0.10537203
0.046941902 0.008583547 -0.053695966 0.034334388 -0.57658 0.15000638 -0.18304852 0.3520887
-0.11944455 -0.06435438 -0.25423625 0.2619904 0.16409752 -0.2636477 -0.07227319 0.13524498
-0.23325743 0.18059334 -0.07733274 0.13213551 0.17669925 -0.09004238 -0.036369603 0.3297613
-0.106491916 -0.29928455 0.027138773 0.30271873 0.03476587 -0.18576036 0.28011474 0.019705098
0.10795342 0.105177864 -0.32904023 -0.043926407 0.005710398 -0.025446327 0.23782861 0.029041966
0.05765647 -0.12333449 0.070934616 -0.1761485 0.034938462 -8.597052e-05 -0.6152017 0.05440593
-0.080126315 -0.36578864 -0.116379574 0.13010399 -0.3610648 0.06468139 -0.043248948 -0.1834223
0.04713051 0.37272695 0.10513165 0.08864535 0.09059624 0.105342776 0.18977155 0.23278487
-0.21122901 0.28093052 -0.15841196 0.1557646 0.046792924 -0.18559164 -0.037202455 -0.034683645
-0.21593171 0.119107045 0.08998131 0.02652405 0.16402523 -0.015006825 -0.0073526897 -0.06879449
-0.18490195 0.14461856 0.13714524 0.29440647 0.1688446 -0.18682967 -0.3509076 0.38344827
0.16674177 0.24428804 -0.17721666 0.017778143 0.11024186 0.078696944 -0.3671104 0.046687018
0.19103019 -0.06625336 -0.27072117 -0.033528786 0.14260674 -0.036730304 -0.067522034 0.10587073
0.0113750715 -0.13094549 -0.24666527 0.018894576 -0.20597398 0.2753641 -0.107381344 0.2862661
5.5099536e-05 0.17263672 0.045785625 -0.07226172 0.116009735 -0.24858528 0.08306404 0.1624214
0.09017023 0.014192143 -0.15295069 -0.23935927 -0.19783814 -0.30979314 -0.14406165 -0.20157444

linears.4.bias f4 [40]
00000000: 4062 bd3c 563d 0d3d 964c e33c 617a ddbc
00000010: 0c87 ae3c 9016 07bc 4a6c 73bc 0ae1 07bc
00000020: de99 65bd 16fe d2bc e80e 9b3c 8dce 383c
00000030: 4215 c7bc ca9f 02be ac7e 6ebc f28e 413c
00000040: 582f 0e3d 8d97 8e3d 1dfa 11bd 8068 4b3d
00000050: 9242 0f3d a1f0 0e3d d2ae 86bb d54a 663d
00000060: ee80 053d 92cf 44bd c1a5 15bd e534 6e3c
00000070: 6b92 9c3c 20f8 003c 2a5d eb3c b487 30bd
00000080: 4f3a 12bd f95f 07bd 1936 bb3d f327 15bd
00000090: edcd 743d 0100 143d a255 f93c 6e53 38bc
0.023118138 0.034482323 0.02774648 -0.027035894 0.02130463 -0.008245125 -0.014857361 -0.0082934
-0.056054942 -0.025755923 0.018928006 0.011279714 -0.024302129 -0.12756267 -0.014556568 0.011813866
0.03471312 0.069625 -0.035638917 0.049660206 0.034975596 0.03489745 -0.0041101957 0.05622371
0.03259366 -0.048049517 -0.03653503 0.014538978 0.019112786 0.007871658 0.028730948 -0.043098167
-0.03570014 -0.03305051 0.09141178 -0.03641505 0.0597667 0.036132816 0.03043634 -0.01125036

linears.5.weight f4 [40, 40]
00000000: 98de a13c 2bb8 b6bd 9aad dbbd 2f84 37be
00000010: d8db f13b 1404 b53d 1315 fdbd 3893 653e
00000020: b291 18be 683e 85be ffb3 7c3d 21f8 663e
00000030: e969 d2bd 741c 863e 1b7d 003e 9ab9 41be
00000040: c5b6 a03e 6255 183d 3842 89be 373c 0a3e
00000050: 29ed 8a3e 646b 183e 95e0 7dbd 0c7f 3dbe
00000060: 9e8d 34be b7e2 aabd 209d 1e3e f34c 323d
00000070: 8aed b33e 9ad8 9a3d a364 43bc 194b e2bd
00000080: f05f 5abd 6097 98bd 52c0 22bd 4be0 863e
00000090: 47af 47bd f183 d2bd e1c1 9d3d 3809 4cbe
000000a0: 7056 623e acaf dfbc de79 2bbd 573e 2bbe
000000b0: 1d84 85be 6002 b23d b954 f1be df99 f13d
000000c0: 8f9b efbd 162c b6bd bef7 26be 4000 8cbb
000000d0: 59f9 80bb 0a90 8bbe 8f9d 18bf 51ad 9cbe
000000e0: 50e2 8d3e 6e62 273e e54f 053e 340b 943e
000000f0: df8c 8bbd e35d fa3d 6a11 e73d 40ce 703e
00000100: ae79 50bd 0a51 083e e190 773d 3a6f 713d
00000110: 4f87 40bd af29 8c3e f832 883e 9f7a c53d
00000120: c7c2 34be fdd7 11be 520c 56be db60 54be
00000130: 39a9 9abe 95db cfbb cee9 873e dc90 033e
00000140: 938d b63d d060 d9be cd9c cc3d d1b3 adbb
00000150: ef91 e0bc 60f1 9bbc eb29 e6bc 780f 723d
00000160: cbb6 443c 4daf 69be 1460 54bd b568 6dbe
00000170: 716a 99bc 5a0e 45bd 971b 5bbc 614a b83d
00000180: c157 113d 3140 76be 0b29 b03c 6634 45bd
00000190: c513 80bd 81fb aebb e5a3 40bd bfb6 d7be
000001a0: e7ac aebd 0265 623c a023 bd3a 7e79 0bbe
000001b0: 6965 3ebe 0108 cbbd bd75 6d3c 13fc d03d
000001c0: 00b8 283d f091 66be 4a25 173e 6e57 043e
000001d0: e92a a73d de54 483e f315 eb3d ce3d 873e
000001e0: b7c3 53bd 374e 213e 4f9a 2ebd dfe1 073c
000001f0: a0f0 c13d 3968 083e 2156 89bd 586e bebb
00000200: 08f7 943e d120 833e 1eee 343c 5668 25be
00000210: 06f8 613d 4b4a e53c cf6d ee3d cda8 81be
00000220: 4476 653e 11cf e43d 614f 00bd 0af8 ca3d
00000230: d3c8 14bd 5668 eebd a390 b43e e550 be3d
00000240: 1591 d6bd e589 adbe b02f 533e a7c3 013e
00000250: f3bd 27bd 0694 08bd fa76 873d ff41 f33d
00000260: d475 dabd 47cd 19bd b262 77bd c76a 70bc
00000270: 1d02 94be 3e0f 2bbe 02b3 e0bd 15f4 09bb
00000280: 70bb 0f3e 5f5b 543d b8e7 adbd 1e8f 603e
00000290: c934 233e 6928 de3d 5043 a73d 50f2 1a3d
000002a0: ebf8 2f3d 9f85 3ebe d527 a63d 8aaf 10be
000002b0: 005c a63a b017 bfbd c8df a6bd 2cd9 9abe
000002c0: 5fb5 03bd 0eaa eebb 4811 f1bc 9ad8 f0bc
000002d0: 9b1f 9a3c d4a0 083e 70e6 33bd 8391 cbbd
000002e0: 220d 093e 4bb7 2b3e ecb7 6bbe 1af7 5fbe
000002f0: b705 283d c528 de3c 401a 2f3e f73f 183e
00000300: ab4a 57be 7154 dabe 6330 973e 5537 3cbe
00000310: d315 d5bd ac53 04be ac07 613d 65c7 a1bd
00000320: c0f7 51be cfc1 be3d 4603 b93e 8664 7abd
00000330: eeeb 30be aa4f 9b3e 1316 18be e541 f0bb
00000340: e2e7 72bd e14a 243d 2ae2 62be f6de e13d
00000350: 7392 aa3d 6f31 56bd cfed cb3d 41c8 a63c
00000360: 5aee 21be 6db4 823b a02f 77bd 3723 d13d
00000370: 312c 593d 21df edbd 863a a8be 7180 d5bd
00000380: d6e3 e93d b7ae f13d dedb 493e ae73 04be
00000390: 9b51 d43d 0502 0f3d 00da 57bd 2ab5 e6bd
000003a0: 83e4 0ebe c878 48bc 41a5 993d e1d6 07be
000003b0: 3d5a 0b3d a6b1 29be 732f 55be e386 52bd
000003c0: 14c1 50bd cafe 60be cf2e c83d 8bef a13c
000003d0: 9ab6 283d db8b 6bbd e536 2abe 59d7 09be
000003e0: 8738 ab3d 5ea0 503e e7a4 8a3e cfe8 a6bd
000003f0: 8d4c 87bb 6c07 d73d 0a48 3a3d 44ea 31be
0.019759461 -0.08921846 -0.10726471 -0.17921518 0.0073809437 0.088386685 -0.12357535 0.22419441
-0.14899328 -0.26024175 0.061695095 0.22555591 -0.10274107 0.26193583 0.12547724 -0.18918458
0.31389442 0.037190802 -0.26808333 0.13499533 0.27134064 0.14884716 -0.061981756 -0.18505496
-0.17632148 -0.08344024 0.15489626 0.043530416 0.35142165 0.07560845 -0.011925849 -0.1104948
-0.05331415 -0.074507475 -0.039734192 0.26342997 -0.048751142 -0.10279072 0.07702995 -0.19925392
0.22103286 -0.027305447 -0.04186427 -0.16723 -0.26077357 0.08691859 -0.4713495 0.11796927
-0.11699592 -0.088951275 -0.16305444 -0.0042724907 -0.0039359746 -0.2725833 -0.59615415 -0.3060098
0.27711725 0.16346142 0.13018759 0.28914797 -0.068139784 0.12224939 0.11282618 0.23516178
-0.050897293 0.13312164 0.0604409 0.058943965 -0.04700404 0.27375552 0.26601386 0.09642529
-0.17652427 -0.14242549 -0.20903137 -0.20740072 -0.30207232 -0.006343315 0.26545566 0.12848228
0.08913722 -0.42456675 0.09990845 -0.005300977 -0.027413337 -0.019035995 -0.02809616 0.059096783
0.012006472 -0.22820778 -0.05184944 -0.23184474 -0.018727513 -0.04810939 -0.013373277 0.08998562
0.03548408 -0.24047925 0.021503946 -0.048145674 -0.06253771 -0.00534004 -0.047031302 -0.42131612
-0.08529072 0.013818027 0.0014430173 -0.13620564 -0.18593372 -0.09913636 0.014493403 0.10204329
0.0411911 -0.22516608 0.14760318 0.12923977 0.08162481 0.19563624 0.11478796 0.2641434
-0.05170032 0.15752493 -0.04262763 0.008293598 0.09469724 0.13321008 -0.06705881 -0.005811494
0.2909472 0.25610974 0.0110431 -0.16153082 0.055168174 0.027989527 0.11642038 -0.25324097
0.22408396 0.11172307 -0.0313257 0.09910591 -0.036324333 -0.11640994 0.352666 0.09292773
-0.10476891 -0.33894268 0.2062366 0.12672292 -0.040952634 -0.03334429 0.0661449 0.11877822
-0.10667005 -0.037549283 -0.060396858 -0.014673895 -0.28907862 -0.16705033 -0.10971643 -0.0021050025
0.14036345 0.05184495 -0.084914625 0.21929595 0.15938105 0.108475514 0.08167136 0.037828743
0.042961996 -0.1860566 0.08113066 -0.14129463 0.0012692213 -0.0933069 -0.08148152 -0.30243814
-0.03215539 -0.0072834557 -0.029427186 -0.029400159 0.018813899 0.13342601 -0.043920934 -0.099398635
0.13383916 0.1676914 -0.2301938 -0.21871606 0.041021075 0.02711905 0.17099857 0.1486815
-0.21024577 -0.4264255 0.29529104 -0.18380482 -0.10404553 -0.12922543 0.054938957 -0.078993596
-0.20504665 0.0931431 0.3613531 -0.061131023 -0.172775 0.30334216 -0.1485217 -0.007332074
-0.059303172 0.040110473 -0.22156587 0.110288545 0.08328714 -0.052293237 0.09957468 0.02035916
-0.1581358 0.0039887936 -0.060348153 0.10211795 0.05302066 -0.11614824 -0.3285715 -0.10424889
0.114204094 0.11800902 0.19712779 -0.12934753 0.103671275 0.034914035 -0.052698135 -0.11265023
-0.13954358 -0.012235828 0.07502223 -0.13265564 0.034021605 -0.16571674 -0.20818882 -0.05139817
-0.050965384 -0.21972194 0.09774553 0.019767543 0.041189767 -0.057506423 -0.16622503 -0.13461055
0.08360391 0.20373675 0.27078936 -0.081498735 -0.0041289986 0.104994625 0.045478858 -0.17374521

linears.5.bias f4 [40]
00000000: b165 a03b 0044 b43c 354b a13c cc91 233c
00000010: 2055 4e3d 569a 433d 7259 cb3c 950c 7f3d
00000020: f941 f23c 4b9d a13d 63aa 0ebd f81c aebb
00000030: dd63 8c3d 02fb b03c 105a b63c 507b 87bd
00000040: f8e2 9abd 8e40 e7bd 1d64 263d f23a 8a3d
00000050: 1f50 d6bc 838f d93c 178e cabc 8f2b 233c
00000060: d57a 8bbb 8aba 42bd 801c af3c 6aad 97bc
00000070: 7ef3 c43d 2951 db3b 69ab 0a3c f229 1bbc
00000080: 8203 933b 1c26 2d3c 595e 4cbd cad4 583b
00000090: fa7a 4a3d 51ac 98bb 170b 703d 283d 523d
0.004894935 0.022005081 0.019689182 0.009983491 0.05037415 0.047754608 0.024822924 0.06226786
0.029572474 0.078913294 -0.034830462 -0.005313512 0.06854985 0.021604065 0.022259742 -0.06615317
-0.07562822 -0.1129161 0.04062282 0.06749524 -0.026161252 0.02655769 -0.024725957 0.009959116
-0.004256586 -0.04754118 0.021375895 -0.018515307 0.09616755 0.0066930247 0.008463719 -0.00947045
0.004486502 0.010568168 -0.049894664 0.0033085817 0.049433686 -0.0046592136 0.058604326 0.051327854

linears.6.weight f4 [1, 40]
00000000: ed4f 3a3e f30f 95bd 6e23 f1bd d199 9839
00000010: 1bb7 f13a ef91 82be 397c 34be 8de8 633c
00000020: 5ef6 b9be 9092 bdbd 4823 823e db47 033d
00000030: 8988 6dbd 2a77 3cbe 4637 7dbd c403 a03d
00000040: 89d3 f23b 9768 933d 2f86 0fbe 3930 1abe
00000050: e698 273f 2f3d 83be 30ed 5b3d a0dd a2be
00000060: 2d2a e8be 10ee 4d3d 445a 0fbd f7e6 4a3e
00000070: 9467 d4be 41c8 acbe d97e 3c3e 0e3a eabd
00000080: 15c7 c53e b0d9 adbe 2a42 313d 8166 86bd
00000090: f4ca 86be c8ee 0f3f ec54 b73b c917 f7be
0.18194552 -0.07278433 -0.11774336 0.000291063 0.001844141 -0.25501963 -0.17625512 0.013910425
-0.36320776 -0.0925647 0.25417542 0.03205095 -0.05799154 -0.18404832 -0.06182029 0.07813218
0.007410471 0.07197683 -0.1401603 -0.15057458 0.6546768 -0.25632617 0.053692997 -0.3180971
-0.45344678 0.050275862 -0.034998193 0.19814669 -0.41485274 -0.33746532 0.18407764 -0.11436854
0.3862845 -0.33955145 0.04327599 -0.0656252 -0.26326716 0.56223726 0.0055948403 -0.48260334

exp_avg f4 [40, 2]
00000000: c203 b4b9 1e1d 27b9 52b0 7439 c3cc 5239
00000010: a62f a6b9 74bb c4b8 e1d1 97b9 da45 e0b8
00000020: b842 d839 0ecc 7a38 1db1 be37 654c bc36
00000030: e101 64b7 8b86 9f37 94d6 b937 d74a 52b8
00000040: d309 0c39 471c 8e38 53c8 ab37 9048 0239
00000050: b2a5 443a 1e06 a339 8b17 8e38 f260 f9b8
00000060: e35b e539 218f 2638 b766 153a b6fe 4839
00000070: fb5c feb9 1aa2 e3b8 4428 17ba f698 46b9
00000080: 306b c138 10f2 cdb8 4536 d1b9 ae08 dbb8
00000090: 7883 9fb8 a433 24b7 0e65 5b39 d045 34b8
000000a0: a8a0 6939 4525 7a35 166b 1bba 24d0 e3b8
000000b0: aee2 ab39 aaa7 7d38 f376 f7b9 9f2f 24b5
000000c0: 5f06 5938 9851 aa38 9683 a939 2cae 7739
000000d0: 36b8 dcb9 b513 9537 35ae 013a 75d1 c338
000000e0: ff11 aab9 d4d6 a8b8 0d32 fbb8 700c b5b8
000000f0: 1762 89b9 feb6 25b9 835c ebb9 4102 16b9
00000100: ef7a 233a 6fe1 9439 9e9f 5d3a df94 6a39
00000110: 177a 8cb8 b03b 37b8 b540 9638 9a3a 8d38
00000120: 950d 053a ef2f 0139 7308 2db9 dc8a 04b9
00000130: b357 80b9 e8fd 15b8 4f69 34b7 3de9 39b7
-0.00034335075 -0.00015937208 0.00023335338 0.0002010344 -0.00031697488 -9.380924e-05 -0.00028957336 -0.00010694163
0.0004124844 5.9794686e-05 2.273224e-05 5.61173e-06 -1.35902965e-05 1.9016928e-05 2.215364e-05 -5.01376e-05
0.000133551 6.776355e-05 2.0478072e-05 0.00012424798 0.0007501497 0.0003109434 6.775473e-05 -0.00011891303
0.00043746745 3.9710783e-05 0.00056992046 0.00019168374 -0.0004851593 -0.00010854397 -0.0005766193 -0.00018939734
9.2229224e-05 -9.8202494e-05 -0.0003990402 -0.000104443505 -7.606199e-05 -9.787185e-06 0.00020923113 -4.2980362e-05
0.0002228046 9.318649e-07 -0.0005928738 -0.00010862973 0.0003278455 6.047605e-05 -0.00047200135 -6.116406e-07
5.1742765e-05 8.12143e-05 0.0003233223 0.0002362064 -0.00042098918 1.7771361e-05 0.00049469183 9.337339e-05
-0.00032438335 -8.050879e-05 -0.00011977935 -8.633069e-05 -0.0002620376 -0.00015803796 -0.0004489162 -0.00014305954
0.0006236275 0.0002839672 0.0008454266 0.00022371438 -6.698461e-05 -4.368619e-05 7.16461e-05 6.734319e-05
0.0005075571 0.00012320255 -0.00016501713 -0.0001264023 -0.00024479404 -3.5760837e-05 -1.0753355e-05 -1.1081164e-05

exp_avg_sq f4 [40, 2]
00000000: 5d8e b139 dfcf 9438 5b54 2c39 f3b8 cc38
00000010: 0294 9b39 868c b937 1df0 8039 1fb1 eb37
00000020: b09b 073a acc6 3c37 149c d635 fd9b a832
00000030: aaab 3a34 ff27 a035 4f4b 6135 e279 e336
00000040: 9dc4 4938 e421 5237 cc53 4336 4d90 4738
00000050: 479b cb3a 72a2 8539 7630 4437 4e85 3138
00000060: 260a 113a f356 6536 e6bf 5b3a 9fab 6e38
00000070: a8e7 2c3a ffe4 bf37 cf92 743a 6d05 a538
00000080: c1c1 d637 1725 0638 1e80 fe39 2335 be37
00000090: 2315 f737 661e ad34 c2f3 fd38 affd 9c36
000000a0: 7a57 fb38 71ce 1636 0f92 863a 9e5a b837
000000b0: a9c5 9e39 eb42 b036 17d9 2d3a ebb4 cc35
000000c0: 7bda cf36 0658 a737 77cc 9d39 cf87 2c39
000000d0: 75cf 063a a6ac 0836 d0b8 3b3a 422d b737
000000e0: f1d1 9939 71cd 8f37 9177 4538 711e b237
000000f0: 842a 3339 9809 6c38 2a3c 133a fad0 7038
00000100: bdf7 853a c8c8 4139 df0f 0b3b 1f08 0539
00000110: 517a 9e37 9bfc b036 6b0b 8337 100d 2337
00000120: 7807 453a 497f 1538 4fd3 c138 65f7 2138
00000130: 1b78 4c39 90fb 8436 bf90 2534 c070 9135
0.0003386614 7.095909e-05 0.00016434623 9.7619275e-05 0.00029674178 2.2119155e-05 0.0002459296 2.8096661e-05
0.00051730406 1.125193e-05 1.5989667e-06 1.962871e-08 1.7385051e-07 1.1932569e-06 8.392862e-07 6.779316e-06
4.8105245e-05 1.2524866e-05 2.910604e-06 4.7579688e-05 0.0015533947 0.00025488768 1.1693794e-05 4.2324238e-05
0.0005532823 3.417427e-06 0.0008382782 5.6903456e-05 0.0006595799 2.2875609e-05 0.00093297375 7.868824e-05
2.5601012e-05 3.1982632e-05 0.0004854211 2.2674509e-05 2.9454537e-05 3.224588e-07 0.000121093835 4.678695e-06
0.000119849065 2.2471907e-06 0.0010266918 2.1976706e-05 0.00030283377 5.252999e-06 0.0006631775 1.5251838e-06
6.194515e-06 1.994894e-05 0.00030097712 0.00016453791 0.0005142608 2.0366074e-06 0.0007161023 2.1836375e-05
0.00029338853 1.7142595e-05 4.7079815e-05 2.1233429e-05 0.00017086609 5.627572e-05 0.000561657 5.7415084e-05
0.0010220926 0.00018480711 0.0021219177 0.00012686894 1.8892026e-05 5.274616e-06 1.5621734e-05 9.718598e-06
0.00075160665 3.5642912e-05 9.2423164e-05 3.8615795e-05 0.00019499699 3.9631923e-06 1.5419481e-07 1.0836156e-06

exp_avg f4 [40]
00000000: d704 e0b9 e15c 0c3a 76fc 65b9 3566 93b9
00000010: 5653 2439 40bb d9b6 7413 8838 513a 22b9
00000020: dc65 4f39 89e2 ba39 e8c0 623a 8b8e beb9
00000030: bd4f 8438 f3f2 db39 6bf9 74b9 ba30 f7b9
00000040: 64bb a9b9 3f4e 78b9 47d1 31b7 3ca8 12b9
00000050: 6834 98b8 7f2f 5cb9 3096 fd38 9f4f 8b37
00000060: 743e 7639 caf1 313a ed22 db38 8b66 7139
00000070: a4d7 4fb9 5662 80b9 c522 e1b9 8596 c5b9
00000080: aa60 453a 74b1 163a d584 eeb8 be37 2739
00000090: d8cc 9c39 8862 a5b9 5848 a7b8 7803 51b8
-0.00042728215 0.0005354416 -0.00021933191 -0.00028114175 0.00015671304 -6.4889027e-06 6.488609e-05 -0.00015471248
0.00019779004 0.00035645466 0.0008649961 -0.00036345827 6.309103e-05 0.00041951946 -0.00023362569 -0.00047147815
-0.0003237381 -0.00023680272 -1.0598748e-05 -0.00013986317 -7.257686e-05 -0.00020998529 0.00012091955 1.6607168e-05
0.00023483654 0.00067880435 0.00010449239 0.00023021751 -0.00019821391 -0.00024487328 -0.0004294125 -0.00037686914
0.00075293577 0.00057484885 -0.00011373466 0.00015947127 0.0002990726 -0.00031544664 -7.9766556e-05 -4.9832714e-05

exp_avg_sq f4 [40]
00000000: c858 ea39 14c6 413a 828c 0d39 c3ad 6039
00000010: e138 ad38 fb12 1834 cbc1 5037 7ae9 8238
00000020: b838 cd38 f081 ad39 4257 f13a 9ca8 aa39
00000030: 3fe1 8e37 e856 db39 b222 1839 d3cd 153a
00000040: 3306 7a39 80e9 2f39 f51b 9936 fd1d 3c38
00000050: 389c 8937 e62e 2039 464c 3338 38d6 a836
00000060: 89de 0339 38ea 963a 1994 ad37 b14f 1e39
00000070: 65f4 d438 1a0c 2439 e19a d939 9435 b839
00000080: d747 b13a f552 6f3a e7fa 3038 5ab9 9038
00000090: b417 8739 9d38 9439 8d10 da37 81b0 9e36
0.00044698105 0.00073918817 0.00013499151 0.00021427036 8.259877e-05 1.4163008e-07 1.2442887e-05 6.2423715e-05
9.7857264e-05 0.00033093942 0.0018412846 0.0003255055 1.7032608e-05 0.00041835685 0.00014508775 0.0005714569
0.00023844167 0.00016776286 4.56301e-06 4.485062e-05 1.6404418e-05 0.0001527626 4.274796e-05 5.0317285e-06
0.00012576034 0.0011513894 2.069217e-05 0.00015097742 0.0001015447 0.00015644767 0.0004150486 0.00035135134
0.0013525438 0.0009129488 4.219534e-05 6.9009795e-05 0.00025766867 0.0002827094 2.5995332e-05 4.7293147e-06
