pdebench/models/newly_trained_models1D_Advection_Sols_beta1.0_PINN.pt-10000.pt (torch, 120453 bytes, 39 tensors)

linears.0.weight f4 [40, 2]
0	0x3e54d4ca	0.20784298
1	0xbe72852b	-0.23683612
2	0xbe95a09e	-0.29224104
3	0x3d89fe59	0.06737966
4	0x3e8428a3	0.25812253
5	0xbe0c0bf2	-0.13676432
6	0xbdb89cdf	-0.09014296
7	0x3e293765	0.16525038
8	0xbe588878	-0.21145809
9	0xbd094e17	-0.033521738
10	0x3e347196	0.17621455
11	0xbe84fc85	-0.25973907
12	0xbeadaf05	-0.33922592
13	0x3dc41488	0.095742285
14	0xbdb3ec7e	-0.08785342
15	0xbd1aaa3e	-0.03776001
16	0x3f154c92	0.5831996
17	0xbd683873	-0.05669446
18	0xbe710e4e	-0.23540613
19	0xbcd64d03	-0.026159769
20	0xbeafa816	-0.34307927
21	0xbe867be1	-0.26266387
22	0x3e409cb8	0.18809783
23	0xbeb50113	-0.35352382
24	0xbda4db49	-0.08049638
25	0xbe09a13a	-0.1344041
26	0xbd58116d	-0.052750994
27	0x3e3a707d	0.18206973
28	0x3e4f9509	0.20271696
29	0xbe924126	-0.2856533
30	0x3e16f55b	0.14742033
31	0xbe1b35a8	-0.15157187
32	0xbe21b6f8	-0.15792453
33	0x3e1ec397	0.15504299
34	0x3eb83e4b	0.35985026
35	0xbed0af62	-0.40758806
36	0x3dc0cd30	0.094141364
37	0x3e2ca60d	0.16860218
38	0x3ea27b06	0.31734484
39	0xbdad5950	-0.08464301
40	0xbe0f589c	-0.13998646
41	0xbcf505c8	-0.029909983
42	0xbf2d1169	-0.6760469
43	0x3e9b88ba	0.30377752
44	0x3dda8305	0.10669521
45	0x3d08168a	0.03322462
46	0xbe016b66	-0.12638626
47	0x3de8f6a2	0.113751665
48	0x3df1d780	0.118086815
49	0x3e998481	0.29983905
50	0x3d8a82a1	0.06763197
51	0xbec5a397	-0.38601372
52	0xbe94eb2e	-0.29085678
53	0xbd8badf8	-0.06820291
54	0x3c9799b5	0.01850591
55	0xbe8c32cf	-0.27382514
56	0x3e369c9d	0.1783318
57	0xbf05d0b6	-0.5227159
58	0x3dbda94a	0.09260805
59	0x3d460642	0.04834581
60	0x3cff03e7	0.03112979
61	0xbdcb163b	-0.099163495
62	0x3e70ec14	0.23527557
63	0xbdc6e43e	-0.097115025
64	0x3ea0271b	0.31279835
65	0xbc8c9641	-0.01716149
66	0x3d88ef8c	0.06686315
67	0xbe661509	-0.22468962
68	0xbdf2da06	-0.11857991
69	0xbcd6a3cb	-0.02620115
70	0x3e881465	0.2657806
71	0xbc1fc542	-0.00975162
72	0x3e96d56f	0.29459712
73	0xbd891fcf	-0.0669552
74	0x3dd2850f	0.10279285
75	0x3da7a2f6	0.08185379
76	0xbe45b854	-0.19308597
77	0xbe17b007	-0.14813243
78	0xbc9c368d	-0.01906898
79	0xbe80622d	-0.25074902

linears.0.bias f4 [40]
0	0xbe015d43	-0.12633233
1	0x3d2135ea	0.039358057
2	0x3dcd3b95	0.1002113
3	0x3e29f4cc	0.16597289
4	0x3da13f92	0.07873453
5	0xbdd64b02	-0.10463525
6	0xbd2ad418	-0.041706175
7	0xbc83d7cb	-0.016094109
8	0x3d96973e	0.07353066
9	0xbd4fbe59	-0.05071864
10	0x3de8e1c7	0.113711886
11	0xbd642f81	-0.055709366
12	0x3d01a01f	0.031646844
13	0xbc932a73	-0.017964577
14	0x3d08de16	0.033414923
15	0xbd879230	-0.0661968
16	0xbd6891c9	-0.056779657
17	0xbbc48196	-0.005996893
18	0xbdb49352	-0.088171616
19	0x3c63c8b9	0.0139028365
20	0x3dbddd0b	0.09270676
21	0x3d3a0db3	0.04542322
22	0x3d639481	0.055561546
23	0xbdf6d124	-0.12051609
24	0x3d2fd910	0.042931616
25	0x3da9d916	0.08293359
26	0x3dc10284	0.09424308
27	0x3d578208	0.05261424
28	0xbd746161	-0.05966318
29	0xbc525389	-0.012837299
30	0xbbbdaaa1	-0.005788163
31	0xbd8dc2fc	-0.06921956
32	0x3d1766d5	0.036963303
33	0x3d786e1d	0.060651887
34	0xbd8fcab8	-0.070210874
35	0xbd857d51	-0.06518043
36	0xbdb2d8f2	-0.08732785
37	0xbda94729	-0.08265526
38	0x3db8aa7f	0.090168945
39	0xbd26f326	-0.04075923

linears.1.weight f4 [40, 40]
0	0x3e61671d	0.22011991
1	0xbe1700ae	-0.14746353
2	0x3d8b53a6	0.06803064
3	0x3cef3547	0.02920021
4	0xbeb4d795	-0.35320726
5	0x3da28a61	0.0793655
6	0x3b79e761	0.0038132297
7	0xbe948c1d	-0.29013148
8	0xbe43defd	-0.19128032
9	0xbe9706f4	-0.29497492
10	0xbeba361d	-0.3636941
11	0xbdffce5a	-0.1249053
12	0x3ef04631	0.46928552
13	0xbd15e905	-0.036599178
14	0x3e3355ba	0.17513171
15	0xbe80eaea	-0.25179225
16	0xbe09d294	-0.13459235
17	0x3d822cfa	0.06356235
18	0x3e80df41	0.2517033
19	0x3e572546	0.21010312
20	0x3cfb5865	0.030681798
21	0xbd7b6f78	-0.0613856
22	0xbdfaa12e	-0.12237774
23	0x3de4dab4	0.11174527
24	0x3d981841	0.07426501
25	0x3d13a112	0.03604228
26	0xbd66e5ec	-0.056371614
27	0x3ddeeee2	0.10885407
28	0xbe23e5dd	-0.16005655
29	0x3e305ab8	0.17222106
30	0xbde4ed5f	-0.111780874
31	0x3ec8a297	0.39186546
32	0xbe7cce1d	-0.24688001
33	0xbdbcd3b0	-0.09220064
34	0xbda9832b	-0.082769714
35	0x3c6a5b09	0.014303931
36	0xbe250fbe	-0.16119286
37	0x3e4e4a9a	0.20145646
38	0x3df400fd	0.11914251
39	0x3e487a8f	0.19578002
40	0x3eafa588	0.34305978
41	0xbd327d19	-0.043576334
42	0x3da599a2	0.08085944
43	0xbe4a5f6d	-0.19762965
44	0x3e8847aa	0.26617175
45	0xbcf367b5	-0.029712537
46	0xbe4cdaf7	-0.20005403
47	0x3df154b9	0.11783738
48	0x3dbb21d6	0.09137313
49	0xbe84b316	-0.25917882
50	0x3cb6fd81	0.022337677
51	0x3e22669a	0.15859452
52	0x3e8823ae	0.2658972
53	0x3dc0e057	0.094177894
54	0x3d97ef29	0.07418663
55	0x3e3dc528	0.1853224
56	0x3e957069	0.29187325
57	0x3e03a97f	0.12857626
58	0x3e05ffb6	0.13085827
59	0x3eb30e26	0.34971732
60	0x3cb37dca	0.021910567
61	0xbe21e4cd	-0.15809937
62	0xbe189bb2	-0.14903143
63	0x3e66fd1b	0.2255749
64	0xbd805eed	-0.06268106
65	0x3d84545d	0.064614035
66	0xbd4f221a	-0.05056963
67	0xbc13a7aa	-0.009012142
68	0x3e2269d3	0.15860681
69	0x3d56b015	0.05241402
70	0x3e43a44d	0.19105645
71	0x3dbf6e94	0.09347263
72	0xbedb71bc	-0.4286021
73	0x3e20c694	0.15700752
74	0x3d847a5f	0.06468653
75	0xbdf26bbe	-0.118369564
76	0x3db7a8f7	0.08967774
77	0xbd4d3cf1	-0.050106946
78	0x3d465033	0.048416328
79	0x3e5c5d2e	0.2151992
80	0x3de762e5	0.112981595
81	0xbcbc8c85	-0.023016224
82	0xbe28510d	-0.16437168
83	0xbe3f52f6	-0.18683991
84	0x3da3420d	0.079715826
85	0xbcd5bc64	-0.026090808
86	0xbdde09d0	-0.10841715
87	0xbe5d9ea1	-0.21642543
88	0x3e4bd8be	0.199069
89	0xbc07312c	-0.00825147
90	0xbd4b02ca	-0.049563207
91	0xbd40c66e	-0.047064237
92	0x3c92547d	0.017862553
93	0x3e469bd1	0.19395377
94	0xbcfe60f8	-0.031052098
95	0x3e2d29dd	0.16910501
96	0xbd778af7	-0.06043526
97	0xbbd9db63	-0.0066484674
98	0x3e457c14	0.19285613
99	0x3d364717	0.04450139
100	0xbd709436	-0.058735095
101	0xbe8317ac	-0.25603998
102	0xbd2c2367	-0.04202595
103	0xbd953680	-0.07285786
104	0x3e26359d	0.1623139
105	0xbe4a9441	-0.19783117
106	0xbe1c17b2	-0.15243414
107	0xbb73e49b	-0.0037215117
108	0x3c8afbcd	0.016965771
109	0x3dd2dcc9	0.10296018
110	0x3dd602ad	0.10449729
111	0x3d9128e7	0.0708788
112	0x3e239f53	0.15978746
113	0xbd29448f	-0.04132515
114	0x3dc2e4e5	0.095163144
115	0xbdb0fef4	-0.086423784
116	0x3e8d472d	0.27593365
117	0xbdde6187	-0.108584456
118	0xbe4dbe5e	-0.2009215
119	0xbe3be6db	-0.18349783
120	0xbdd19a63	-0.10234525
121	0x3c8d19bd	0.017224187
122	0xbe8e546e	-0.2779879
123	0xbd7d7cb6	-0.06188651
124	0x3e12ab7e	0.14323232
125	0x3eb1c093	0.34717235
126	0x3e9cc3d6	0.3061816
127	0x3d24cf98	0.04023704
128	0xbe91c51e	-0.284707
129	0x3dcb9577	0.099406175
130	0x3da35573	0.079752825
131	0x3e1b03bd	0.15138145
132	0x3e6bc632	0.23024824
133	0x3d0217fe	0.031761162
134	0xbd36091b	-0.044442277
135	0xbe825a80	-0.2545967
136	0x3e3b5d3c	0.18297285
137	0x3de3aa66	0.11116485
138	0xbd286f9f	-0.041122075
139	0xbeb7704d	-0.35827866
140	0x3ec06a13	0.37580928
141	0x3da99cfc	0.082818955
142	0x3da9b24a	0.08285959
143	0x3e0e80a9	0.13916267
144	0xbea51ed1	-0.32250074
145	0x3c496eb6	0.012294462
146	0x3d98642a	0.0744098
147	0xbdaa486c	-0.083145946
148	0x3eb9b1bd	0.36268416
149	0xbe535c03	-0.20640568
150	0x3e40329e	0.18769309
151	0x3e60d185	0.21954925
152	0x3e263e1a	0.16234627
153	0x3e1aa1ff	0.15100859
154	0x3e1308f4	0.14358884
155	0xbdc547f7	-0.09632867
156	0x3e173c66	0.14769134
157	0x3da53214	0.08066192
158	0xbe566f99	-0.20941009
159	0x3ce9cf82	0.02854133
160	0x3e20af28	0.15691817
161	0x3ed34617	0.41264412
162	0xbeaf3a18	-0.3422401
163	0xbd442d8c	-0.047895
164	0xbbb73e69	-0.0055921567
165	0x3dee53de	0.1163709
166	0x3ef6f61e	0.48234648
167	0x3db315cd	0.087443925
168	0xbec8f9d0	-0.39253092
169	0x3ecae3d5	0.39626947
170	0x3dfcc8ce	0.12342988
171	0xbda0f070	-0.0785836
172	0x3dd147e5	0.10218791
173	0x3e696e77	0.22796045
174	0xbe3521f3	-0.17688732
175	0x3dbe79af	0.09300553
176	0x3eec4f67	0.4615433
177	0xbdb0450c	-0.0860692
178	0xbe4741f8	-0.19458759
179	0xbe9eef12	-0.3104177
180	0x3e617a21	0.22019245
181	0x3eb7a511	0.35868123
182	0xbea61672	-0.32439
183	0x3e1a9aab	0.15098064
184	0xbdb6ddee	-0.089290485
185	0x3d072fdf	0.033004638
186	0x3e302016	0.1719974
187	0x3d6e4add	0.058176864
188	0x3d5739ce	0.05254536
189	0xbdc4ec3d	-0.096153714
190	0x3b9a47bf	0.00470826
191	0xbcecd8f2	-0.028912041
192	0xbeb811e7	-0.35951158
193	0xbdd764c6	-0.10517268
194	0x3e04f2b9	0.12983216
195	0xbe40e6e3	-0.18838076
196	0xbd62e414	-0.055393293
197	0xbe1473e2	-0.14497331
198	0x3ccc98f1	0.024975272
199	0x3e849684	0.25896084
200	0x3e2f79a5	0.17136247
201	0xbc1704e2	-0.009217473
202	0xbdbe3752	-0.09287895
203	0xbe0fed91	-0.14055468
204	0x3e32f332	0.17475584
205	0x3d248b03	0.040171634
206	0xbe4ca78b	-0.19985788
207	0xbc9db6c0	-0.019252181
208	0x3d947178	0.07248205
209	0xbe3996de	-0.18123958
210	0x3e9004da	0.281287
211	0xbc27f93c	-0.010252293
212	0xbd1c91a9	-0.03822485
213	0x3ddc47a8	0.10755855
214	0xbe88672d	-0.26641217
215	0xbd8bf5a5	-0.06833962
216	0xbd8cf4ff	-0.06882667
217	0xbe8b5e0e	-0.27220196
218	0xbcbc6bdc	-0.02300065
219	0xbe055997	-0.13022457
220	0x3d5fc726	0.054633282
221	0x3e751093	0.23932104
222	0x3e8ac1d2	0.27100998
223	0x3d8135f4	0.06309119
224	0xbe070e56	-0.13189062
225	0x3d140620	0.036138654
226	0x3d7087ec	0.058723375
227	0x3e87ead2	0.2654634
228	0xbe8dea3b	-0.27717766
229	0xbeeda52a	-0.46415073
230	0xbc4456c3	-0.011983576
231	0x3db8c80d	0.09022532
232	0xbd8f3ed1	-0.06994403
233	0x3e743536	0.23848423
234	0xbda88bfd	-0.08229826
235	0xbc6bbda5	-0.0143884765
236	0xbe15058e	-0.145529
237	0xbe1b6c18	-0.15177953
238	0xbe7ed35e	-0.24885318
239	0x3e8c6626	0.27421683
240	0xbe07630e	-0.1322138
241	0x3e37e521	0.179585
242	0xbe2cdddd	-0.16881509
243	0x3d088ce7	0.0333375
244	0x3e06404a	0.13110462
245	0xbd67a64c	-0.056555077
246	0xbb878c0f	-0.0041365693
247	0x3e56dcfa	0.20982733
248	0x3be6607a	0.007030544
249	0xbe80e90a	-0.25177795
250	0xbb6f80bd	-0.003654524
251	0x3e13e269	0.14441837
252	0x3de72395	0.112860836
253	0x3eb25bc3	0.34835634
254	0xbe44e087	-0.19226275
255	0xbdb09246	-0.086216494

linears.1.bias f4 [40]
0	0xbd6510bc	-0.055924162
1	0xbb36e42f	-0.0027907004
2	0xbd8b51fc	-0.06802747
3	0xbd630981	-0.055428986
4	0xbd91ad45	-0.07113127
5	0x3d46c9be	0.04853224
6	0xbc7f2813	-0.015573519
7	0xbd392680	-0.045202732
8	0x3d6ab259	0.05729899
9	0x3c621968	0.013800003
10	0x3ce65a20	0.028119147
11	0xbd4ffb80	-0.05077696
12	0xbdfc700e	-0.1232606
13	0x3db18017	0.08667009
14	0xbd9a6b00	-0.0753994
15	0x39c2d9e7	0.00037164913
16	0x3d551061	0.052017573
17	0x3d980429	0.074226685
18	0xbd48c529	-0.04901615
19	0xbd88487b	-0.066544496
20	0xbd29bd40	-0.04144025
21	0xbce67751	-0.028133066
22	0xbd619a02	-0.055078514
23	0x3ded5d4c	0.115900606
24	0xbd013ce2	-0.031552203
25	0xbcc04035	-0.023468116
26	0x3be88c40	0.007096797
27	0xbe248923	-0.16067939
28	0xbd3fb2c4	-0.046801344
29	0x3db0a948	0.08626038
30	0xbd794ead	-0.060866047
31	0x3e049d3e	0.12950608
32	0x3d05c4f9	0.03265855
33	0xbe1902f2	-0.1494253
34	0xbd242121	-0.040070657
35	0xbda5d59a	-0.08097382
36	0xbd9c8298	-0.07642096
37	0xbd683b27	-0.056697037
38	0x3d44a347	0.048007276
39	0x3e24f3f5	0.16108687

linears.2.weight f4 [40, 40]
0	0x3e4032e3	0.18769412
1	0xbe8dc05f	-0.2768583
2	0x3f06e676	0.52695405
3	0xbe28e4cd	-0.1649353
4	0x3e847d58	0.2587688
5	0xbddf5e51	-0.10906661
6	0xbdbdb8c6	-0.09263758
7	0x3e62939e	0.22126624
8	0xbd9ee572	-0.07758607
9	0x3ce3ed4f	0.027823118
10	0x3dd94fc1	0.10610915
11	0x3d30d148	0.043168336
12	0xbe06f6fe	-0.13180158
13	0x3e0d502f	0.13800119
14	0xbe656595	-0.22402032
15	0x3e696928	0.2279402
16	0xbcbb6cc3	-0.02287901
17	0x3da49a66	0.08037262
18	0xbaa407f5	-0.0012514578
19	0xbcc83f6d	-0.024444306
20	0xbcf4ae9b	-0.029868415
21	0xbe11d24a	-0.14240375
22	0xbddca6d2	-0.10774006
23	0xbe132ca7	-0.14372502
24	0x3ea5252d	0.32254925
25	0x3cca0bda	0.024663854
26	0x39a2c7e6	0.00031047984
27	0xbe608a14	-0.21927673
28	0xbdc54b35	-0.09633485
29	0xbe616885	-0.22012527
30	0x3dbdfc3f	0.09276628
31	0x3bc88ce9	0.0061203134
32	0xbe37fd9b	-0.17967837
33	0x3e1351bd	0.1438665
34	0x3d874a64	0.06605986
35	0x3e55220f	0.20813774
36	0x3c8ef1d9	0.017449306
37	0x3ce86bb5	0.028371671
38	0xbe35e827	-0.1776434
39	0xbe5d72b6	-0.2162579
40	0xbd397159	-0.045274112
41	0x3c02cb36	0.00798302
42	0x3ebc8b45	0.36825004
43	0xbe83bcf0	-0.25730085
44	0xbe51e55e	-0.20497653
45	0x3dd12441	0.10211993
46	0x3e41de25	0.18932398
47	0x3e56a23f	0.2096033
48	0xbea4e640	-0.32206917
49	0x3c19653f	0.009362518
50	0x3e36b752	0.17843369
51	0xbea8e5e3	-0.3298789
52	0xbe2459f9	-0.16049947
53	0xbc02ef5c	-0.007991638
54	0xbd6287ad	-0.05530517
55	0x3c848ec4	0.016181357
56	0x3e29c10f	0.16577552
57	0x3e114135	0.14185031
58	0x3df7af0f	0.12093937
59	0x3c15a431	0.009133385
60	0x3e6dcb5c	0.23222107
61	0x3ce34148	0.02774109
62	0xb9fe608b	-0.00048518585
63	0x387196e3	5.75994e-05
64	0xbc10aee7	-0.0088307625
65	0x3d2e7883	0.042595398
66	0x3e52c16f	0.20581602
67	0xbe65675f	-0.22402714
68	0x3e5cf1df	0.21576641
69	0x3e8c317e	0.2738151
70	0x3d1a3c57	0.0376552
71	0x3e4ee183	0.20203213
72	0x3ebbc521	0.36673835
73	0xbd489fd0	-0.048980534
74	0x3d20cbc5	0.03925683
75	0xbc0a73e4	-0.008450482
76	0x3d6b920b	0.057512324
77	0xbe806d4c	-0.25083387
78	0x3e40a971	0.18814637
79	0x3e4dbe1f	0.20092057
80	0x3dc7761d	0.09739325
81	0xbd36d683	-0.044638168
82	0x3e1ca77a	0.15298262
83	0x3c9db5e2	0.019251768
84	0xbd153e9f	-0.036436673
85	0xbb6d6b24	-0.003622719
86	0xbe284858	-0.16433847
87	0x3e95874e	0.29204792
88	0xbdc2715a	-0.09494276
89	0xbd8c81af	-0.06860673
90	0x3e139e46	0.14415845
91	0xbb93c955	-0.0045100846
92	0x3e47572e	0.1946685
93	0x3e1c2594	0.1524871
94	0x3ea9d4be	0.33170122
95	0xbdc1e82a	-0.0946811
96	0x3e132a58	0.14371622
97	0xbe17b7c9	-0.14816202
98	0x3e07a670	0.13247085
99	0x3e39d5f1	0.18148018
100	0xbde6ff09	-0.11279113
101	0xbc686c73	-0.014186013
102	0xbe0677a8	-0.13131583
103	0xbc9d6c78	-0.019216761
104	0x3e143f97	0.14477383
105	0x3e996198	0.2995727
106	0xbc81e459	-0.015855955
107	0x3ec11465	0.37710872
108	0x3ee66028	0.44995236
109	0xbdf7272b	-0.120680176
110	0xbbc1ff08	-0.0059202947
111	0xbdd14b8e	-0.10219489
112	0xbd20a291	-0.039217535
113	0x3ecb3087	0.3968546
114	0xbe1a7813	-0.15084867
115	0x3def85c1	0.116954334
116	0xbe315bbb	-0.17320149
117	0x3e74ab78	0.23893535
118	0xbe3a4da1	-0.18193676
119	0xbe9c762d	-0.3055891
120	0xbea9a637	-0.33134624
121	0x3deb2647	0.1148191
122	0xbea0133c	-0.31264675
123	0x3e8df93a	0.27729207
124	0x3d6681f7	0.056276288
125	0xbdf2ee63	-0.11861875
126	0x3e8d07f4	0.2754513
127	0xbda11357	-0.07865017
128	0xbe1f1dc7	-0.15538703
129	0x3d14df7c	0.036345944
130	0x3e8161bf	0.25269887
131	0x3e8a6efb	0.27037796
132	0xbcaa92f6	-0.02082203
133	0x3d81992e	0.06328045
134	0x3e1c4c35	0.15263446
135	0xbe6b740a	-0.22993484
136	0xbe169762	-0.14706185
137	0x3be0946b	0.0068536303
138	0x3df46c5c	0.119347304
139	0xbdde4e1c	-0.10854742
140	0xbcbdebf5	-0.023183802
141	0xbe15311f	-0.1456952
142	0xbe30f116	-0.17279467
143	0xbe06aa51	-0.13150908
144	0x3e5fd2f2	0.21857813
145	0x3d36f2ce	0.04466515
146	0xbd9e26d7	-0.07722252
147	0x3dc718f1	0.09721554
148	0xbd139013	-0.03602607
149	0xbc273881	-0.010206343
150	0x3ecb08f3	0.39655265
151	0xbe069db2	-0.13146093
152	0xbd928645	-0.07154516
153	0x3de1fd58	0.110346496
154	0x3e9ebba7	0.31002542
155	0x3dd92846	0.10603385
156	0xbde3c86d	-0.111222126
157	0x3e013e42	0.12621406
158	0x3e0cb724	0.13741738
159	0xbe4bffeb	-0.19921844
160	0xbdb32895	-0.08747975
161	0x3eb1cd67	0.34727022
162	0x3d054403	0.032535564
163	0x3dd53acb	0.104116045
164	0x3ea4e74a	0.3220771
165	0x3d3772ef	0.044787344
166	0xbca419fc	-0.020031922
167	0xbea73e2e	-0.32664627
168	0x3e0083ca	0.12550274
169	0xbcbd4c3e	-0.023107644
170	0x3db0ba71	0.08629311
171	0x3bd8306a	0.0065975683
172	0x3e84748c	0.25870168
173	0xbe2d2f12	-0.16912487
174	0x3e4bb523	0.19893317
175	0xbdfdf936	-0.12401049
176	0xbc8a2113	-0.016861474
177	0x3c9ba5db	0.018999984
178	0x3dfe5843	0.12419178
179	0xbec15dc0	-0.37766838
180	0x3dbcdeaa	0.09222157
181	0x3b99b949	0.004691277
182	0x3d00d20a	0.03145031
183	0xbc485e2a	-0.012229482
184	0x3e48f9f7	0.19626604
185	0x3df752f0	0.12076366
186	0x3e190384	0.14942747
187	0xbd68493b	-0.056710463
188	0xbe77210a	-0.24133697
189	0x3e9b11fc	0.30287158
190	0xbe6f6d34	-0.23381501
191	0xbe3a1957	-0.18173729
192	0x3ea4fcbc	0.3222407
193	0xbe52e628	-0.2059561
194	0x3d8527cb	0.065017305
195	0x3e10b6e5	0.14132269
196	0xbeb9f6f8	-0.36321235
197	0xbe2ca513	-0.16859846
198	0xbda00533	-0.07813492
199	0x3e4bd207	0.19904338
200	0x3db1fc0b	0.086906515
201	0x3d133eee	0.035948686
202	0x3e5c1c08	0.21495068
203	0xbe2b5710	-0.1673243
204	0x3d1eaff8	0.038742036
205	0x3e954cd0	0.29160166
206	0x3e2002b3	0.1562603
207	0x3cb204b5	0.02173076
208	0x3d9eac4a	0.07747705
209	0xbe27c1ac	-0.16382474
210	0x3e5c93c9	0.2154075
211	0x3d94fe7d	0.07275102
212	0x3dc7a4b3	0.09748211
213	0x3d757ad8	0.059931606
214	0xbcdc492b	-0.026890358
215	0xbe5cd4e6	-0.2156559
216	0x3d2aafe4	0.04167165
217	0x3e218a7b	0.15775482
218	0x3d9fc93e	0.07802056
219	0x3e8a4191	0.27003148
220	0x3e405609	0.1878282
221	0xbe3ceb82	-0.18449214
222	0x3dbd12a6	0.092320725
223	0xbde419f7	-0.11137765
224	0xbd0a5225	-0.033769745
225	0x3e348273	0.17627887
226	0x3e35849f	0.17726372
227	0x3e0e56e1	0.13900329
228	0x3e1b4cef	0.15166067
229	0x3e9022c0	0.28151512
230	0xbe8dbdef	-0.2768397
231	0x3e33601e	0.17517135
232	0xbddd56b5	-0.10807554
233	0x3ba59f1a	0.005054367
234	0xbd492bfb	-0.04911421
235	0x3e5dac1a	0.21647683
236	0xbe474865	-0.1946121
237	0x3da6a018	0.08136004
238	0x3e510b45	0.20414455
239	0xbbb9109e	-0.005647733
240	0x3d314e44	0.04328753
241	0xbd91ea36	-0.0712475
242	0xbdf18e27	-0.117946915
243	0xbd9ca066	-0.07647781
244	0x3e105c27	0.14097653
245	0xbd7f1cbc	-0.062283263
246	0xbe4fa6c4	-0.2027846
247	0x3e1748aa	0.14773813
248	0xbd6a017e	-0.05713033
249	0x3dc904f9	0.098154016
250	0x3e3323c0	0.17494106
251	0x3e21ec2d	0.1581275
252	0x3eda9ffb	0.4270018
253	0xbe0ba7db	-0.1363825
254	0x3d073bf2	0.033016153
255	0x3ec71259	0.38881186

linears.2.bias f4 [40]
0	0xbda49e56	-0.08038013
1	0x3d8517dc	0.064986914
2	0xbdb66ad4	-0.089070946
3	0xbd53b4df	-0.051686164
4	0xbbb52604	-0.0055282135
5	0x3d1c2484	0.03812076
6	0xbd2c7723	-0.042105805
7	0x3d7cbf5a	0.061705925
8	0xbb644867	-0.0034833194
9	0x3d1c1c7d	0.038113106
10	0x3cbaaf38	0.022788629
11	0xbcceb228	-0.025231436
12	0x3d8f376e	0.06992994
13	0x3d31dc03	0.04342271
14	0x3d1eb377	0.03874537
15	0x3d5ec7f1	0.054389898
16	0xbd5c8c6f	-0.053844865
17	0x3d0a6d9a	0.03379593
18	0xbdf57eb4	-0.11987057
19	0xbd0b95ef	-0.034078535
20	0xbcfc2964	-0.030781455
21	0xbb8599e7	-0.0040771845
22	0x3ba78af4	0.005113
23	0x3d58e5ba	0.05295346
24	0xbd309ea7	-0.043120053
25	0x3dab6bb8	0.08370155
26	0xbafc835d	-0.0019265224
27	0x3c76f62b	0.015073339
28	0xbd2086ff	-0.039191242
29	0xbd61f7ad	-0.055167843
30	0xbd0460c0	-0.03231883
31	0xbce67efe	-0.028136726
32	0xbb9aaf60	-0.0047206134
33	0xbd76e256	-0.060274445
34	0xbd3ec4ad	-0.046574283
35	0x3c80b64e	0.01571193
36	0x3d01426a	0.031557478
37	0xbaa22562	-0.001237076
38	0x3e5c9ed9	0.2154497
39	0xbd9b778d	-0.07591162

linears.3.weight f4 [40, 40]
0	0xbdbfece9	-0.09371359
1	0xbe2e5396	-0.17024073
2	0xbe16a2ac	-0.14710492
3	0x3d40e23f	0.047090765
4	0xbe53ef81	-0.20696832
5	0xbda2e215	-0.07953278
6	0xbe8a4b75	-0.27010694
7	0x3d93f7b6	0.072249815
8	0xbd818b4d	-0.06325398
9	0x3d54e33b	0.051974516
10	0x3cca9fc8	0.024734393
11	0x3dcd2354	0.10016504
12	0x3dff2eed	0.12460122
13	0x3e9babb6	0.30404443
14	0xbd9080b5	-0.07055799
15	0xbd984833	-0.07435646
16	0x3c185bc7	0.009299225
17	0x3df19c90	0.1179744
18	0xbdbee990	-0.09321892
19	0x3d8707be	0.065932736
20	0xbe89e04c	-0.26928937
21	0xbe1fe709	-0.15615477
22	0x3d55921d	0.052141298
23	0x3eef4cfb	0.4673842
24	0xbdaef17d	-0.08542154
25	0x3cde09d6	0.0271043
26	0x3d9c0a53	0.07619157
27	0xbccc0a70	-0.02490732
28	0xbca457cc	-0.020061396
29	0xbe2b150c	-0.16707247
30	0xbe018524	-0.12648445
31	0x3de20076	0.11035244
32	0x3d469916	0.048485838
33	0xbdbdcf71	-0.09268082
34	0xbe5f1571	-0.21785523
35	0x3e7dd1ff	0.24787138
36	0x3db94a94	0.09047428
37	0x3e09686a	0.13418737
38	0x3e5662b4	0.2093609
39	0xbebbbecc	-0.36669004
40	0x3e2c0116	0.16797289
41	0x3ecd2d34	0.4007355
42	0xbd381dd2	-0.044950314
43	0xbec15dba	-0.3776682
44	0x3ca688ce	0.020328905
45	0x3e3f36b5	0.18673213
46	0xbd991d8d	-0.074763395
47	0xbd7af6a1	-0.06127036
48	0x3e4f9e39	0.20275201
49	0x3de465e5	0.11152247
50	0xbdece585	-0.11567215
51	0xbc278668	-0.010224916
52	0xbd73f374	-0.059558347
53	0x3e8a7ac3	0.27046785
54	0xbe1ab8a6	-0.151095
55	0xbd35294c	-0.044228837
56	0xbdc49194	-0.09598079
57	0xbeaeb2b6	-0.3412072
58	0xbe8b39e1	-0.27192596
59	0x3d0d7fbf	0.034545656
60	0xbe04b6b2	-0.12960318
61	0x3d8225ff	0.063549034
62	0x3e0dc24b	0.13843648
63	0x3e4ac379	0.1980113
64	0x3d85ebae	0.06539093
65	0x3bce66b6	0.006298865
66	0xbe245e24	-0.16051537
67	0xbbe02bfd	-0.0068411813
68	0xbe983846	-0.29730433
69	0x3cd4ff05	0.026000509
70	0xbe365610	-0.17806268
71	0x3d974302	0.073858276
72	0xbd7085a0	-0.058721185
73	0xbe478b9b	-0.19486849
74	0xbe734705	-0.2375756
75	0xbc988ff3	-0.018623328
76	0x3e72abab	0.23698299
77	0x3ea179e7	0.31538317
78	0x3d995eb3	0.074887656
79	0xbea1db17	-0.31612465
80	0xbeacc80e	-0.3374638
81	0xbe91423e	-0.2837085
82	0x3dd99cc2	0.10625602
83	0x3e89b402	0.26895148
84	0xbdd1e82e	-0.10249363
85	0x3e2a6f16	0.16643938
86	0xbd7de5fa	-0.0619869
87	0xbe565768	-0.2093178
88	0xbafcf0a3	-0.001929779
89	0x3e12decc	0.14342803
90	0x3da0a800	0.078445435
91	0x3e280822	0.16409352
92	0xbe2957ba	-0.16537371
93	0xbd89baa9	-0.06725056
94	0x3dd3efb8	0.10348457
95	0x3dfa03ed	0.1220778
96	0xbe051329	-0.1299559
97	0xbc01c609	-0.00792075
98	0xbdcee9ff	-0.10103225
99	0x3e3fd2a0	0.18732691
100	0x3e413763	0.18868785
101	0x3ea1e285	0.31618133
102	0x3e671f77	0.22570597
103	0x3d676e4f	0.056501683
104	0x3e04bc05	0.12962349
105	0x3d1a08fa	0.037606217
106	0xbde26bd0	-0.1105572
107	0xbcd16119	-0.025558995
108	0x3e607cc3	0.21922593
109	0xbe7d95d6	-0.24764189
110	0xbe455654	-0.19271213
111	0xbd2f0058	-0.042724937
112	0x3dfc4045	0.12316946
113	0x3df84226	0.12121992
114	0xbd578142	-0.052613504
115	0xbd21d8d3	-0.03951342
116	0xbcec0b79	-0.028814064
117	0x3dc58112	0.09643759
118	0x3d8b7548	0.06809479
119	0x3e123a09	0.14279951
120	0x3de86336	0.11347048
121	0x3e64fbb7	0.22361647
122	0x3bc54eae	0.0060213422
123	0x3e05ae5f	0.13054799
124	0x3ebcaf58	0.36852527
125	0xbe12b89d	-0.14328237
126	0x3e82f211	0.25575307
127	0x3e1bc697	0.15212475
128	0xbe0368a5	-0.12832887
129	0x3dcada08	0.099048674
130	0x3e142317	0.1446651
131	0x3e8a8165	0.27051845
132	0x3e31731e	0.1732907
133	0xbd9b4fc7	-0.07583576
134	0x3e41aac4	0.18912798
135	0x3e46990f	0.19394325
136	0xbdb849fc	-0.089984864
137	0xbde059b5	-0.1095461
138	0x3d7b62ba	0.06137345
139	0xbdeb4266	-0.11487274
140	0xbce1a09b	-0.027542403
141	0x3df9ec40	0.12203264
142	0xbeb15dfe	-0.34642023
143	0x3e95d7b1	0.29266122
144	0xbc24cc63	-0.010058495
145	0xbe6b548b	-0.2298147
146	0xbead9cd1	-0.33908704
147	0xbe804499	-0.25052336
148	0xbdca0163	-0.09863546
149	0xbe551787	-0.20809756
150	0xbdf6854a	-0.120371416
151	0xbb4a96ee	-0.0030912715
152	0x3cf55645	0.029948363
153	0x3b5e80bc	0.0033951243
154	0xbe0e49d3	-0.13895349
155	0xbd9a0072	-0.07519616
156	0x3e4f6dac	0.2025668
157	0x3e91f4e6	0.28507155
158	0xbe882ddd	-0.2659749
159	0x3ea0c0e0	0.31397152
160	0x3d176377	0.03696009
161	0x3e269ab3	0.1626995
162	0xbea5f6bb	-0.32414803
163	0x3df80fbc	0.12112376
164	0xbd8e20d6	-0.06939857
165	0x3e265e4f	0.16246913
166	0xbe9b3927	-0.3031704
167	0x3cc9296e	0.024555888
168	0xbc8ccfbe	-0.017188903
169	0x3db2ccf6	0.087304994
170	0xbcab2ae2	-0.020894472
171	0xbeac7782	-0.33684927
172	0x3e85bc29	0.26120117
173	0x3d181022	0.03712476
174	0x3dbd6a7c	0.09248826
175	0x3ceb1009	0.02869417
176	0x3c009c1b	0.007849718
177	0x3e49f6d2	0.1972306
178	0xbdddded4	-0.10833517
179	0xbdef86a9	-0.11695606
180	0xbe1ba9c3	-0.15201478
181	0x3d0411c7	0.032243516
182	0xbe85f89e	-0.26166242
183	0x3dc48624	0.09595898
184	0xbeb16c6b	-0.3465303
185	0x3d8d1fdf	0.068908446
186	0xbdb5cea1	-0.08877302
187	0x3e631460	0.22175741
188	0xbeda5121	-0.4264002
189	0xbe36f0b4	-0.17865258
190	0x3d44d216	0.048051916
191	0x3e0cabac	0.13737363
192	0x3d3b3b0b	0.045710605
193	0xbe45ef3f	-0.19329546
194	0x3d7735a5	0.060353894
195	0x3dddfa46	0.108387515
196	0xbdf2cd5f	-0.11855578
197	0x3db394ff	0.08768653
198	0x3e576082	0.21032909
199	0xbda7aa00	-0.08186722
200	0xbc600ed5	-0.013675411
201	0x3e8c3b44	0.27388966
202	0x3dda40e5	0.10656909
203	0xbe05bf87	-0.13061343
204	0x3d89dcb8	0.06731552
205	0x3eff833b	0.49904808
206	0xbdec8738	-0.115492284
207	0xbe53ab1d	-0.20670743
208	0xbeb2c8c9	-0.34918812
209	0xbcf46caa	-0.029836971
210	0x3d6bf6e0	0.057608485
211	0x3d8fd92c	0.07023844
212	0xbea52870	-0.32257414
213	0xbe9bd18c	-0.3043331
214	0x3e4f6d63	0.20256571
215	0x3e012ccf	0.1261475
216	0xbc9d66ac	-0.019213997
217	0xbe51d401	-0.2049103
218	0xbe0c6d31	-0.13713528
219	0x3cd931d8	0.026513025
220	0x3da0adfa	0.078456834
221	0x3e6b624a	0.22986713
222	0x3e07cc93	0.13261633
223	0xbd7db1a5	-0.061936993
224	0x3e026fce	0.12737963
225	0x3e928d7f	0.28623578
226	0xbe43501f	-0.19073533
227	0xbb2400e5	-0.0025024947
228	0x3e537dbb	0.20653431
229	0xbe908ae1	-0.28230956
230	0xbe498cfe	-0.1968269
231	0xbc999e41	-0.01875222
232	0x3dba2560	0.0908916
233	0xbdfe5da2	-0.12420203
234	0xbe4517c4	-0.19247347
235	0xbe317171	-0.1732843
236	0x3e8d004f	0.27539298
237	0xbe257487	-0.16157733
238	0x3d1e26a2	0.038611062
239	0x3e6817c3	0.22665314
240	0x3d3a3ff2	0.04547114
241	0x3e51cc5f	0.20488118
242	0xbd85c113	-0.065309666
243	0xbe991733	-0.29900512
244	0x3d03f19d	0.032212842
245	0x3dbc42df	0.09192442
246	0x3d858ec2	0.065213695
247	0xbe64c694	-0.22341377
248	0xbeae46c6	-0.3403837
249	0x3ee124b9	0.4397333
250	0x3eae7e3f	0.34080693
251	0xbd97f364	-0.0741947
252	0xbe712612	-0.23549679
253	0xbe502d21	-0.20329715
254	0x3ebefc27	0.37301752
255	0xbd8e483f	-0.069473736

linears.3.bias f4 [40]
0	0x3d39e51d	0.045384515
1	0x3d7255f8	0.059164017
2	0x3dc4eaa1	0.096150644
3	0x3ba3ea02	0.005002261
4	0x3d4bbac6	0.049738668
5	0x3d248bed	0.040172506
6	0x3d050b5e	0.032481544
7	0xbd02acfb	-0.03190325
8	0x3b392c15	0.0028255035
9	0xbe147067	-0.14496003
10	0xbbddf1c0	-0.0067732036
11	0x3a9454dc	0.0011316794
12	0xbc14b2ae	-0.009075804
13	0x3b22e2b7	0.002485437
14	0x3bd0d688	0.0063732304
15	0x3c96ea89	0.018422382
16	0xbd28253c	-0.041051134
17	0x3c2feaed	0.010737163
18	0x3d03e607	0.032201793
19	0x3d1ba2dc	0.03799711
20	0xbd33fa5b	-0.04393993
21	0x3cdd4366	0.027009677
22	0xbc8f477c	-0.017490141
23	0xbcbfc587	-0.023409618
24	0xbcd0652e	-0.025438871
25	0xbd2c6fbd	-0.04209875
26	0x3c95f998	0.018307492
27	0xbd454211	-0.04815871
28	0xbc04d4f0	-0.008107409
29	0xbc980cfb	-0.018560877
30	0x3c4a46bf	0.012345969
31	0x3cc6dc3e	0.024274942
32	0x3c539c6a	0.01291571
33	0xbc0d29bf	-0.00861591
34	0xbd805746	-0.06266646
35	0xbd3c3395	-0.04594763
36	0x3c2ac224	0.010422263
37	0xbc908124	-0.017639704
38	0xbd5ea509	-0.05435661
39	0xbd84e643	-0.064892314

linears.4.weight f4 [40, 40]
0	0x3e262e8c	0.16228694
1	0xbd780f89	-0.06056169
2	0xbdbf8e72	-0.09353341
3	0x3db44f66	0.088042066
4	0xbd68a385	-0.05679657
5	0xbd0b03e3	-0.033939254
6	0xbdc4a0e3	-0.09600999
7	0xbe5263fb	-0.20545952
8	0x3d4f3597	0.050588217
9	0xbdc86666	-0.09785156
10	0xbe16ae80	-0.14715004
11	0x3d08cecd	0.033400346
12	0xbe84353b	-0.25821862
13	0xbc8657f4	-0.016399361
14	0x3d96bfef	0.07360827
15	0xbe526cbe	-0.20549294
16	0xbe1a4c43	-0.15068154
17	0xbe607634	-0.21920091
18	0xbdd429e4	-0.103595525
19	0x3d3f08b8	0.046639174
20	0xbd3a1b9b	-0.045436483
21	0x3e2d019c	0.16895145
22	0x3d27abf3	0.040935468
23	0x3e44c5b4	0.19216043
24	0xbe04d401	-0.12971498
25	0xbc8b745c	-0.017023258
26	0x3db866dd	0.090039946
27	0x3e9ba46b	0.30398878
28	0xbdd76e11	-0.105190404
29	0x3d9d66aa	0.07685597
30	0x3d57500c	0.052566573
31	0xbe985146	-0.29749507
32	0xbd8fc2ed	-0.07019601
33	0x3e3f2edb	0.18670218
34	0xbced74bc	-0.028986327
35	0x3b138105	0.0022507322
36	0xbe66e6d5	-0.22548993
37	0xbd7f2344	-0.06228949
38	0x3e61cbf6	0.22050461
39	0xbde6ae72	-0.112637416
40	0x3d20f2df	0.03929412
41	0x3e352d52	0.1769307
42	0x3e68a846	0.22720441
43	0xbdd4e5b8	-0.10395378
44	0x3e17ccdc	0.14824241
45	0xbe4b6bd4	-0.19865352
46	0xbe154b71	-0.1457956
47	0x3d5e6352	0.054293938
48	0x3ea391e4	0.31947243
49	0xbed00613	-0.40629634
50	0x3d5e5930	0.054284275
51	0x3ca22eab	0.019797644
52	0xbca4b051	-0.020103605
53	0xbb12bd7b	-0.0022390771
54	0x3cea95bf	0.028635858
55	0x3e876877	0.26446888
56	0xbecaa788	-0.3958094
57	0xbe0ad237	-0.13556753
58	0x3e4cad11	0.19987895
59	0x3e9d068e	0.30669063
60	0xbe917a36	-0.28413552
61	0x3dcbe999	0.099566646
62	0x3dbb13b3	0.09134617
63	0x3e17f15d	0.14838167
64	0xbe7f953a	-0.24959269
65	0xbeccc218	-0.39991832
66	0xbe0667e0	-0.13125563
67	0xbe34007f	-0.17578314
68	0xbdfab99a	-0.12242432
69	0xbe00a6b5	-0.12563594
70	0x3e32cf22	0.17461827
71	0x3c1602da	0.009155953
72	0x3bed92a0	0.007250145
73	0x3d3df4c4	0.046376005
74	0xbd62282f	-0.055214103
75	0xbe451eab	-0.1924998
76	0x3d71caa9	0.059031162
77	0xbe0dec4c	-0.13859671
78	0xbe68233e	-0.22669694
79	0x3c93817a	0.018006075
80	0xbe5c75ab	-0.21529262
81	0xbc7bddb0	-0.015372679
82	0x3e70ac59	0.23503245
83	0x3cf1060e	0.029421832
84	0xbe232257	-0.15931068
85	0x3ca067b9	0.019580709
86	0x3e1d35fb	0.15352623
87	0xbd845b42	-0.064627185
88	0x3d803fea	0.06262191
89	0xbdd4f1a0	-0.10397649
90	0x3e7e51bb	0.24835865
91	0xbeb830fd	-0.35974875
92	0x3e97df94	0.29662764
93	0x3e8961ac	0.2683233
94	0x3e269b47	0.16270171
95	0x3e07183a	0.13192835
96	0xbd119065	-0.035538096
97	0xbd4dde1b	-0.050260644
98	0x3e2e7441	0.17036535
99	0xbe61893f	-0.22025011
100	0xbec7b86a	-0.39007884
101	0xbe2994a9	-0.16560616
102	0x3d9f0720	0.07765031
103	0xbedddbd7	-0.43331787
104	0x3d25467b	0.04035042
105	0xbe59564b	-0.21224324
106	0x3d0ae39d	0.033908475
107	0x3d5e88fd	0.05432986
108	0x3d0a8d95	0.03382643
109	0xbe8e3b1e	-0.27779478
110	0xbd803a6c	-0.06261143
111	0x3e04890f	0.12942909
112	0xbd97fabb	-0.0742087
113	0xbec2e20e	-0.3806309
114	0xbdeb092f	-0.11476361
115	0x3e77fd15	0.24217637
116	0xbe3831f3	-0.17987804
117	0xbe4ca4d0	-0.19984746
118	0x3e0d2c93	0.13786535
119	0xbd95ab11	-0.07308019
120	0xbe253187	-0.16132174
121	0x3e7e94c9	0.24861445
122	0xbc8a3b03	-0.016873842
123	0xbd5719b4	-0.052514747
124	0xbbe1cde4	-0.006890999
125	0xbc1bdd00	-0.00951314
126	0x3d99dcc1	0.075128086
127	0xbd845801	-0.06462098
128	0xbd4bab88	-0.04972413
129	0x3e36e464	0.17860562
130	0x3e82d63b	0.2555407
131	0xbce5dc6d	-0.028059209
132	0xbe41733c	-0.18891615
133	0x3d21c32a	0.039492764
134	0x3d0837d0	0.033256352
135	0xbce1bbfa	-0.027555455
136	0x3dc5f075	0.09665004
137	0xbd6ac57a	-0.057317235
138	0xbcd435a1	-0.025904479
139	0x3e0b2ca5	0.1359125
140	0x3e169c3c	0.14708036
141	0xb9d5387a	-0.00040668604
142	0xbe344268	-0.17603457
143	0x3e06cf63	0.13165049
144	0x3dfd428c	0.123662084
145	0x3d4c84c4	0.049931303
146	0xbe4bc987	-0.19901095
147	0xbe350498	-0.17677534
148	0x3cec79e3	0.028866714
149	0xbe0aac8b	-0.13542382
150	0x3cc82417	0.024431271
151	0x3e7b130b	0.24518983
152	0xbdb0005b	-0.08593818
153	0x3e1579fe	0.14597318
154	0xbc122b19	-0.008921408
155	0xbc70e8e6	-0.014703965
156	0x3e8dafbd	0.2767314
157	0xbd970981	-0.073748596
158	0xbd9843d6	-0.07434814
159	0xbdc9b685	-0.09849266
160	0x3d604467	0.054752734
161	0x3e135566	0.14388046
162	0x3e67fb26	0.226544
163	0x3d936575	0.07197086
164	0xbd1479f6	-0.036249124
165	0x3de05823	0.10954311
166	0x3ea64367	0.324733
167	0xbd10ade1	-0.035322074
168	0x3e7ddff7	0.24792467
169	0x3d3c5f2c	0.0459892
170	0x3e812507	0.25223562
171	0x3d420ac6	0.047373556
172	0x3dbf4bc3	0.09340622
173	0x3d8c0b1e	0.06838058
174	0x3d5f408a	0.05450491
175	0x3d479322	0.0487243
176	0x3dbd3840	0.092392445
177	0xbe8f9988	-0.28046823
178	0xbe90c230	-0.28273153
179	0xbe8994d4	-0.2687136
180	0x3cc047ee	0.023471799
181	0xbd4c9770	-0.04994911
182	0xbd9e0c01	-0.07717133
183	0xbd591d12	-0.05300624
184	0x3e9e3882	0.30902487
185	0xb9b2798e	-0.0003404137
186	0x3e202bd6	0.15641722
187	0xbe08ad89	-0.13347448
188	0x3de6b468	0.112648785
189	0x3e96f777	0.29485676
190	0x3d885f7d	0.06658838
191	0xbe396913	-0.18106489
192	0x3db679fc	0.089099854
193	0x3eb1386a	0.34613353
194	0xbe1b30eb	-0.1515538
195	0x3e584976	0.21121773
196	0x3d598d68	0.05311337
197	0xbdaf8e7c	-0.085720986
198	0x3edd36aa	0.43205768
199	0x3def8793	0.116957806
200	0xbd62ece6	-0.055401705
201	0x3c4e0c1f	0.012576132
202	0x3e400aa7	0.18754064
203	0xbc8319dc	-0.016003542
204	0xbe10b17c	-0.14130205
205	0x3dbfad16	0.093591854
206	0x3d427e61	0.047483806
207	0xbdb2a594	-0.08722988
208	0x3cbe355b	0.023218801
209	0xbddd98ce	-0.10820161
210	0x3e9c8727	0.30571863
211	0x3d76e817	0.060279932
212	0x3df6f2a8	0.12058002
213	0xbe007520	-0.1254468
214	0x3d97106e	0.073761806
215	0x3e8c5e42	0.27415663
216	0xbe593317	-0.21210895
217	0xbe34ffd8	-0.17675722
218	0xbe09fc66	-0.13475189
219	0xbe6e19f2	-0.23252085
220	0xbdeb2a38	-0.11482662
221	0xbe9dbedb	-0.30809674
222	0xbdf37a87	-0.118886046
223	0x3d5bb9cd	0.05364399
224	0xbe75ccd3	-0.24003915
225	0xbdbac845	-0.0912023
226	0x3db16a9f	0.086629145
227	0xbd2a084a	-0.04151181
228	0x3e1e0450	0.15431333
229	0x3e9c6b98	0.30550838
230	0xbacaa77f	-0.0015461295
231	0x3cf1fe02	0.029540066
232	0xbd589a73	-0.05288167
233	0x3e3b0e42	0.18267158
234	0x3e30711b	0.17230646
235	0xbd0598eb	-0.032616537
236	0xbde78bd1	-0.11305965
237	0x3e698484	0.22804457
238	0xbe4af982	-0.19821742
239	0xbe5defdc	-0.2167353
240	0x3e327263	0.17426448
241	0xbee5f7f4	-0.44915736
242	0xbe2d0802	-0.16897586
243	0x3e776257	0.24158607
244	0xbc8408a2	-0.016117398
245	0xbd1be759	-0.038062427
246	0x3cb85ac5	0.02250422
247	0xbe29d7fb	-0.16586296
248	0xbdad44fe	-0.08460425
249	0x3e867e14	0.26268065
250	0x3acbf610	0.0015561003
251	0x3e19c017	0.15014683
252	0xbe017d69	-0.12645496
253	0xbd68c3f7	-0.05682751
254	0x3bf06c6b	0.007337143
255	0x3e9793eb	0.2960504

linears.4.bias f4 [40]
0	0x3be8241e	0.0070843836
1	0x3ccd0899	0.025028514
2	0xbc693bf1	-0.014235483
3	0x3d1440e3	0.036194693
4	0x3d05c1a6	0.03265538
5	0xbc9d917d	-0.019234413
6	0xbd0dda04	-0.034631744
7	0xbcc93bff	-0.024564741
8	0xbd7927fd	-0.06082915
9	0x3d325346	0.043536447
10	0x3d32413b	0.04351924
11	0x3d004f22	0.031325467
12	0x3c70f2ab	0.014706294
13	0x3b4a2ea2	0.003085055
14	0x3d606d2b	0.05479161
15	0xbd13ba88	-0.036066562
16	0xbe0e8d9c	-0.13921207
17	0x3ca5480b	0.020175954
18	0x3ca57723	0.02019841
19	0xbc9a2c99	-0.018820094
20	0xbc5792e8	-0.013157584
21	0xbc5f3f9e	-0.013626007
22	0xbcfb3365	-0.030664155
23	0xbba23cd3	-0.0049510985
24	0xbce2c5c5	-0.027682194
25	0x3b8b29e3	0.0042469366
26	0x3d23e12d	0.040009666
27	0xbcce5262	-0.025185768
28	0xbcd19e23	-0.0255881
29	0x3d408156	0.046998344
30	0x3c30882e	0.010774655
31	0x3daefa05	0.08543781
32	0xbd574cb5	-0.052563388
33	0xbba021dc	-0.004886849
34	0xbd0fec04	-0.03513719
35	0x3c38c327	0.011276997
36	0xbc2810f5	-0.010257949
37	0x3cc9fc60	0.024656475
38	0x3cb9d726	0.022685599
39	0x3d3737c3	0.044730913

linears.5.weight f4 [40, 40]
0	0x3ea069ac	0.3133062
1	0xbd946676	-0.072461054
2	0x3dd4e129	0.103945084
3	0xbd0f3b9e	-0.034968965
4	0x3da5bf17	0.08093088
5	0x3e38ce28	0.18047392
6	0xbe20e954	-0.15714008
7	0xbe99f894	-0.30072463
8	0xbec15671	-0.37761262
9	0xbe7e857a	-0.24855605
10	0xbe784c43	-0.24247842
11	0xbcaaea38	-0.020863637
12	0xbe5b02b6	-0.21387753
13	0xbd6c12b0	-0.05763501
14	0xbd417751	-0.04723293
15	0xbe51232e	-0.20423576
16	0xbd879c5f	-0.06621622
17	0xbd9439e5	-0.07237605
18	0x3c3fee41	0.011714519
19	0x3d398044	0.04528834
20	0x37f0f76c	2.8725444e-05
21	0x3de708b4	0.11280957
22	0x3e068fb7	0.1314076
23	0x3eb6e9c0	0.35725212
24	0xbe553019	-0.20819129
25	0xbe2848b5	-0.16433986
26	0xbd58aede	-0.05290114
27	0x3e2eb01e	0.17059371
28	0xbd52ba26	-0.051447056
29	0xbcffb476	-0.03121398
30	0x3e968ec4	0.29405797
31	0x3dc1ab61	0.09456516
32	0x3e4abcf8	0.19798648
33	0xbe1360a2	-0.14392331
34	0xbdeae558	-0.11469525
35	0xbe1eee8d	-0.15520687
36	0xbd9b449d	-0.07581446
37	0xbc8f6ddb	-0.017508438
38	0x3e2a665e	0.16640612
39	0x3ed0ef4e	0.40807575
40	0xbd13da45	-0.03609683
41	0xbc37c583	-0.011216524
42	0xbe27124a	-0.1631557
43	0x3cb9f0ec	0.022697888
44	0xbd3f0c80	-0.04664278
45	0x3e246605	0.16054542
46	0x3e75a956	0.23990378
47	0xbeb10939	-0.3457735
48	0xbe7df9a4	-0.24802262
49	0xbd7c2368	-0.061557204
50	0xbe8b9767	-0.27263948
51	0x3cf4cf20	0.029883921
52	0xbe061076	-0.13092217
53	0xbe8fdd79	-0.28098658
54	0xbe985648	-0.29753327
55	0xbcc0af25	-0.023521015
56	0xbe4bc0ae	-0.1989772
57	0x3a5f7fa2	0.00085257937
58	0xbc8ae80b	-0.01695635
59	0xbe2ee85e	-0.17080829
60	0xbeb8eb78	-0.36117148
61	0xbe24fb2b	-0.16111438
62	0xbd8c673e	-0.068556294
63	0x3e4359cb	0.19077222
64	0x3ebbaa71	0.36653474
65	0x3dfff073	0.12497034
66	0x3d6904d7	0.05688938
67	0x3cc98146	0.024597775
68	0x3ce04ea8	0.027381256
69	0x3e9161ce	0.28394932
70	0xbe7cd67f	-0.24691199
71	0xbcb74353	-0.02237097
72	0xbe7916de	-0.2432513
73	0xbe4ba9f5	-0.19889052
74	0xbe190a6f	-0.14945386
75	0x3d8ed512	0.06974234
76	0xbe4734bf	-0.19453715
77	0x3e5ffa0a	0.21872726
78	0xbea5d0b0	-0.32385778
79	0x3e007d53	0.12547807
80	0xbd53ddaa	-0.051725067
81	0xbe528b4b	-0.20560949
82	0x3c8183cc	0.015809916
83	0xbdfa037e	-0.12207697
84	0x3d5c331e	0.053759687
85	0xbc4aa165	-0.012367581
86	0xbe899d7d	-0.26877967
87	0xbbc6b6fc	-0.006064294
88	0x3e8a17b8	0.2697122
89	0x3e17d85c	0.14828628
90	0xbda0d5fd	-0.07853315
91	0xbe6204cd	-0.22072144
92	0xbd425a6a	-0.047449507
93	0xbdc917d5	-0.09818999
94	0x3d38a10b	0.045075458
95	0xbe05310a	-0.13006988
96	0x3d294a52	0.041330643
97	0x3e31c4e7	0.17360269
98	0x3d418613	0.047247004
99	0x3d954d95	0.07290188
100	0xbe6db7a5	-0.23214586
101	0xbd812785	-0.06306366
102	0x3e05eeea	0.1307942
103	0xbe4e46f4	-0.20144254
104	0xbcb168d6	-0.021656435
105	0x3e156098	0.14587629
106	0x3e44d8b8	0.19223297
107	0x3e0a6a9e	0.13517234
108	0x3e24bbbf	0.16087244
109	0x3d68f4b9	0.05687401
110	0x3e4f4e2a	0.20244661
111	0xbc048932	-0.008089351
112	0x3e67f96f	0.22653745
113	0x3e24f43b	0.16108792
114	0xbdc93509	-0.09824569
115	0x3e1dce52	0.15410736
116	0xbcf99991	-0.030468734
117	0x3ed97b67	0.4247696
118	0x3ddde2a7	0.10834246
119	0xbe8399c7	-0.2570326
120	0xbe11dd64	-0.1424461
121	0x3e9ae030	0.30249166
122	0xbd883e00	-0.066524506
123	0xbe3743e0	-0.17896986
124	0xbea6eadd	-0.3260106
125	0xbea9163b	-0.33024773
126	0xbd6def09	-0.05808929
127	0xbe0d5587	-0.13802157
128	0xbe49ff46	-0.19726285
129	0xbe587210	-0.21137261
130	0x3df5cdf8	0.12002176
131	0xbe2a5d41	-0.16637136
132	0xbd5fa28d	-0.05459838
133	0xbe717de2	-0.23583177
134	0x3e49559d	0.19661565
135	0xbed7e0e7	-0.42163774
136	0x3c514b47	0.012774295
137	0xbe8a5216	-0.27015752
138	0xbe26e105	-0.16296776
139	0x3c99248d	0.018694187
140	0xbe23c778	-0.1599406
141	0x3f1a1716	0.60191476
142	0x3e83d34c	0.25747144
143	0xbe980945	-0.29694572
144	0x3e187090	0.14886689
145	0xbda655e4	-0.08121851
146	0xbe57f89c	-0.2109093
147	0xbe916ffa	-0.28405744
148	0x3e2cacbd	0.1686277
149	0xbc3f69a4	-0.0116829015
150	0x3ebacf77	0.36486408
151	0x3e5c4c44	0.21513468
152	0xbec15d59	-0.3776653
153	0xbd52fd3a	-0.051511027
154	0x3d14e65d	0.036352504
155	0xbe93e198	-0.28883052
156	0x3c5aaaa6	0.01334635
157	0xbe951d76	-0.2912404
158	0x3e90f894	0.2831465
159	0xbd99c4cd	-0.0750824
160	0xbd83430e	-0.06409274
161	0x3e20b3b2	0.15693548
162	0x3d2028cd	0.03910141
163	0x3dc61872	0.09672631
164	0x3e1560be	0.14587685
165	0xbe2e601f	-0.17028855
166	0xbcd4f6ad	-0.02599653
167	0xbe09bb10	-0.13450265
168	0xbda00335	-0.07813112
169	0x3ea40543	0.32035264
170	0x3e734372	0.23756197
171	0x3eb27e06	0.34861773
172	0x3eaf805e	0.34277624
173	0x3e41f86a	0.18942419
174	0x3e183fa1	0.14868023
175	0xbe1226d1	-0.1427262
176	0x3d3549c8	0.044259816
177	0x3e41cdb9	0.18926133
178	0x3e104d38	0.14091957
179	0xbeca2996	-0.39484853
180	0x3c64bfc5	0.013961737
181	0x3e7aa8d7	0.2447847
182	0xbe8c0747	-0.27349302
183	0xbbbb3fee	-0.005714408
184	0xbd078eb8	-0.03309509
185	0xbe17d42b	-0.1482703
186	0x3e0407f9	0.12893666
187	0xbe5940d1	-0.21216132
188	0xbb45e3b1	-0.003019553
189	0xbc965e71	-0.01835558
190	0xbb5ae0d1	-0.0033398161
191	0x3e8991ff	0.268692
192	0x3c614eb2	0.013751673
193	0xbc7f8126	-0.015594756
194	0xbe067009	-0.13128676
195	0xbd9f68dc	-0.07783672
196	0x3d8b009c	0.067872256
197	0xbd123e87	-0.035704162
198	0x3d5f4eaf	0.054518398
199	0xbbf55e3c	-0.0074880403
200	0xbdf83de2	-0.12121178
201	0x3e660a85	0.2246495
202	0x3eb55335	0.35415044
203	0xbc0748cf	-0.008257105
204	0x3e14d52b	0.14534442
205	0x3dc089e0	0.094012976
206	0xbc93f3db	-0.018060615
207	0xbe132486	-0.14369401
208	0xbe30d637	-0.17269216
209	0xbe2f5e51	-0.17125823
210	0x3e06da3a	0.13169184
211	0x3d4c03d3	0.049808335
212	0x3e5f89c2	0.21829894
213	0xbe247168	-0.16058886
214	0xbd462151	-0.048371617
215	0x3e0c4c8a	0.13701072
216	0xbe901d79	-0.28147486
217	0xbdcca47c	-0.099923104
218	0xbabc317c	-0.0014358009
219	0x3df25bdf	0.11833929
220	0xbdabad68	-0.08382684
221	0x3bcddc05	0.006282332
222	0x3e044395	0.12916405
223	0x3e87570d	0.26433602
224	0x3c0ca6e0	0.008584708
225	0x3beb86c8	0.007187698
226	0x3da29dff	0.079402916
227	0x3e1406c7	0.1445571
228	0x3e51cd0a	0.20488372
229	0xbe44225c	-0.19153732
230	0x3e5652d3	0.20930032
231	0xbde1a8a8	-0.11018497
232	0xbe777fc3	-0.24169831
233	0x3dac187a	0.08403106
234	0xbb1672d5	-0.0022956629
235	0xbe8aa188	-0.27076364
236	0x3d78ff98	0.06079063
237	0xbd1ab512	-0.03777034
238	0xbdd880fd	-0.105714776
239	0x3e44f533	0.19234161
240	0xbdc199a0	-0.0945313
241	0xbe8ba254	-0.27272284
242	0xbce52a1c	-0.02797418
243	0xbdee0be6	-0.11623363
244	0x3e098f8b	0.13433664
245	0xbe813e61	-0.25242904
246	0xbe5ff8e4	-0.21872288
247	0xbdd52067	-0.10406571
248	0xbeadf8ef	-0.33978984
249	0xbd8876da	-0.06663294
250	0xbd38b9dc	-0.045099124
251	0x3cb5c9fb	0.022191038
252	0x3d84d53f	0.06485986
253	0x3bc52d8e	0.0060173934
254	0xbd1af948	-0.03783539
255	0xbda2ebca	-0.079551294

linears.5.bias f4 [40]
0	0xbc980dce	-0.01856127
1	0xbcd69f8d	-0.026199127
2	0x3d0fa2ed	0.035067488
3	0xbca7303f	-0.020408748
4	0x3c95b935	0.01827679
5	0xbd1b53d3	-0.037921738
6	0xbd249410	-0.040180266
7	0xbca216d6	-0.01978628
8	0xbd88503e	-0.0665593
9	0x3cc0ca27	0.023533894
10	0xbcf79eaa	-0.030227024
11	0x3d342ddf	0.04398906
12	0x3d457b99	0.048213575
13	0x3ce871ee	0.028374638
14	0xbd324d0b	-0.043530505
15	0x3c691f90	0.0142287165
16	0xbc9666c5	-0.018359551
17	0xbb4b5a63	-0.0031029216
18	0xbd1ef9f8	-0.038812608
19	0x3d63050b	0.05542473
20	0xbd444fd8	-0.047927707
21	0xbd83f5e3	-0.064433835
22	0xbcb5829d	-0.022157008
23	0x3d92bb75	0.07164661
24	0x3d0a331f	0.03374016
25	0xbcc951d4	-0.024575152
26	0x3ce5b0f5	0.028038481
27	0xbd688925	-0.056771416
28	0xbcd76e58	-0.026297733
29	0xbc886713	-0.016650712
30	0xbd1f87dd	-0.03894793
31	0x3d26240f	0.040561732
32	0xbd0d3162	-0.034470923
33	0xbcb50310	-0.022096187
34	0xbc90b77f	-0.017665623
35	0x3d8d5fef	0.069030635
36	0xbcc6338e	-0.024194505
37	0xbc4f68f0	-0.012659296
38	0x3cb01f53	0.021499312
39	0xbd9d95cf	-0.07694589

linears.6.weight f4 [1, 40]
0	0x3ded74a4	0.11594513
1	0x3e0c3e0b	0.13695543
2	0xbe34d3e0	-0.17658949
3	0x3e7b0430	0.24513316
4	0xbd3720c1	-0.04470897
5	0x3ec04a38	0.37556624
6	0x3e93498a	0.28767043
7	0x3e950721	0.29107
8	0x3e827755	0.25481668
9	0xbe9fcb6c	-0.31209886
10	0x3cce1f7e	0.025161501
11	0xbd60ad71	-0.054852907
12	0xbe097b54	-0.13425952
13	0xbe2394bb	-0.15974705
14	0x3df2865b	0.118420325
15	0xbe805feb	-0.2507318
16	0x3c7373d4	0.014859159
17	0x3f1795c9	0.5921293
18	0x3c616bf2	0.013758646
19	0xbc7774d8	-0.015103541
20	0x3e54c97d	0.20779987
21	0x3ec868fc	0.39142597
22	0x3e4a3054	0.19744998
23	0xbe2d3111	-0.16913249
24	0xbe770f8d	-0.24127026
25	0x3e74914c	0.23883551
26	0xbdb9e3b7	-0.09076636
27	0x3ebddf7d	0.3708457
28	0x3eb4cc5b	0.3531216
29	0x3e1e94a0	0.15486383
30	0x3e639bdf	0.22227429
31	0xbde25f04	-0.11053279
32	0x3e10856a	0.14113393
33	0x3d182e65	0.03715362
34	0x3de65d3c	0.11248252
35	0xbd25d4c3	-0.04048611
36	0x3da368b4	0.07978955
37	0x3e049a11	0.12949397
38	0xbedf1288	-0.43568826
39	0x3bcad449	0.006189857

exp_avg f4 [40, 2]
0	0x3aa41a4b	0.0012520043
1	0x39d6d42b	0.00040975338
2	0xba42908a	-0.00074220507
3	0xb790ea2e	-1.7275186e-05
4	0xb98e22cb	-0.00027110273
5	0xb96f727c	-0.00022835465
6	0xba65bb86	-0.00087636
7	0xb9a104ae	-0.000307118
8	0xba50e370	-0.0007968461
9	0xb969a619	-0.00022282488
10	0x3a9ba5b4	0.0011874945
11	0x3a00bd73	0.00049110426
12	0xb8891030	-6.535684e-05
13	0x397f284a	0.00024333704
14	0xb990816d	-0.0002756225
15	0x389f5f39	7.5994474e-05
16	0xb9a7772c	-0.00031941512
17	0xb9d7f622	-0.0004119138
18	0xb8e0c136	-0.00010717141
19	0x392f456d	0.00016715164
20	0xba54751c	-0.0008104609
21	0xb9046a15	-0.0001262802
22	0x3a03fd4e	0.0005034999
23	0x3930d226	0.00016862954
24	0xb9b304be	-0.00034145074
25	0x361c23bc	2.3266612e-06
26	0x370536e9	7.9402025e-06
27	0x38791a6e	5.939084e-05
28	0x38484af3	4.7753518e-05
29	0xb9070f2b	-0.00012880254
30	0x3a2967c4	0.00064623007
31	0x395d420c	0.00021100807
32	0x39002aa1	0.00012222912
33	0x393e2d3c	0.00018136663
34	0x3995a91a	0.00028545485
35	0xb837bbcc	-4.38055e-05
36	0x3a694160	0.0008897986
37	0x3989ef4e	0.00026308972
38	0x398f9e94	0.00027393235
39	0xb920a74e	-0.00015321115
40	0xbad3add1	-0.0016149824
41	0xba014978	-0.0004931907
42	0xb9b690a6	-0.00034821517
43	0x38b4ea92	8.626761e-05
44	0xb9621e8c	-0.00021564419
45	0xb985b638	-0.000255035
46	0x398cb665	0.00026838775
47	0x3978a742	0.00023713431
48	0x38bd44ba	9.0250236e-05
49	0xb8c21e07	-9.256234e-05
50	0xba1c6bb7	-0.00059669785
51	0xb9903158	-0.00027502584
52	0xba5eb5a3	-0.0008495694
53	0xb9740d5c	-0.0002327463
54	0xb9a9e012	-0.00032401137
55	0x35cc07d7	1.5201466e-06
56	0x380c7c3d	3.3494307e-05
57	0x3882ba87	6.2336265e-05
58	0x39908a0d	0.00027568676
59	0xb78caad4	-1.6768849e-05
60	0x38996838	7.315021e-05
61	0x37109bc4	8.619336e-06
62	0x3a85d605	0.0010210878
63	0x39ceec19	0.00039467288
64	0x396f13d4	0.00022800203
65	0xb89df1ca	-7.53138e-05
66	0xba15a6ae	-0.0005708736
67	0xb982b0bb	-0.00024927207
68	0x39afa72c	0.00033503154
69	0x39a49ad7	0.00031395882
70	0x3a36f111	0.0006978671
71	0x3812daa0	3.5012723e-05
72	0x3a91018c	0.0011063083
73	0x39b5b968	0.0003466115
74	0x3a8d8e38	0.0010799831
75	0x399ae5c6	0.00029544363
76	0xb95419d0	-0.00020227511
77	0xb76bb6f0	-1.4049685e-05
78	0xb7354c72	-1.08062395e-05
79	0x382d23e9	4.1279858e-05

exp_avg_sq f4 [40, 2]
0	0x3b0e67ee	0.0021729427
1	0x396e2fc8	0.00022715249
2	0x3a467d6f	0.00075717916
3	0x344d296e	1.9107185e-07
4	0x38dd4d1f	0.00010552466
5	0x389ee0aa	7.575874e-05
6	0x3a8bd33e	0.0010667813
7	0x38f806b9	0.00011826814
8	0x3a6f9bde	0.00091403525
9	0x3889b071	6.565534e-05
10	0x3afd5bbf	0.0019329711
11	0x39ae2b82	0.00033220282
12	0x36b6830f	5.43928e-06
13	0x38be2c26	9.068129e-05
14	0x38bf472a	9.120845e-05
15	0x373ce757	1.1259536e-05
16	0x39322566	0.00016989335
17	0x398c8db8	0.0002680847
18	0x37475ef7	1.1883435e-05
19	0x3838f53a	4.4097404e-05
20	0x3a662deb	0.0008780646
21	0x3711c35d	8.68816e-06
22	0x39ba5217	0.00035537846
23	0x382f742a	4.1831438e-05
24	0x392a9a04	0.00016269839
25	0x338d0d69	6.5682634e-08
26	0x369c3be3	4.656134e-06
27	0x37052d90	7.938026e-06
28	0x35de45b6	1.6560577e-06
29	0x37f0eeb5	2.8721386e-05
30	0x3a1796b2	0.0005782648
31	0x38861317	6.393174e-05
32	0x37e054eb	2.6742424e-05
33	0x384cf9a4	4.8869886e-05
34	0x38db2d43	0.000104511644
35	0x363fbc96	2.857099e-06
36	0x3a93239d	0.0011225824
37	0x38c0a228	9.1854774e-05
38	0x38d78780	0.00010277238
39	0x3815be0a	3.5701356e-05
40	0x3b7aa9c4	0.003824816
41	0x39bd48fd	0.0003610327
42	0x3933a380	0.00017131679
43	0x36ff3ad1	7.6064393e-06
44	0x38b10d58	8.442503e-05
45	0x38e8036f	0.000110632616
46	0x38e8310e	0.00011071759
47	0x38a9299f	8.0663005e-05
48	0x36ffaf02	7.619966e-06
49	0x37416b82	1.1528728e-05
50	0x3a029537	0.0004981341
51	0x38e9cd45	0.0001114854
52	0x3a84d74e	0.0010134967
53	0x38960374	7.1532006e-05
54	0x39159bef	0.00014267837
55	0x345cc614	2.0561157e-07
56	0x3615c2dd	2.2316156e-06
57	0x36ae1009	5.187471e-06
58	0x38d1ddb9	0.00010007196
59	0x35c4bfff	1.4659016e-06
60	0x374a8db2	1.2073129e-05
61	0x34d2a811	3.9237833e-07
62	0x3acc43a1	0.001558412
63	0x39803fb3	0.00024461522
64	0x388acc00	6.618351e-05
65	0x3735569d	1.0808607e-05
66	0x39efc00f	0.00045728727
67	0x38b9b011	8.854282e-05
68	0x3939076a	0.00017645737
69	0x391c1110	0.00014883676
70	0x3a2b951f	0.0006545353
71	0x34fa87a3	4.6664817e-07
72	0x3ae3011c	0.0017319056
73	0x392a4c4d	0.00016240888
74	0x3ad2f981	0.0016096086
75	0x38e667ea	0.0001098661
76	0x38543dbb	5.060223e-05
77	0x338a076c	6.427476e-08
78	0x33fcbb68	1.17687534e-07
79	0x3632319b	2.655294e-06

exp_avg f4 [40]
0	0x3a930e47	0.0011219465
1	0xb8b041b5	-8.404573e-05
2	0xba240a08	-0.0006257598
3	0xba581d52	-0.0008244115
4	0xba1b78ce	-0.0005930782
5	0x3aa98701	0.0012933911
6	0x3a1ad6f9	0.0005906667
7	0x392cc216	0.00016475501
8	0xba846e05	-0.0010103589
9	0x39e71e87	0.00044082498
10	0xb99b6334	-0.00029637816
11	0x39ed118a	0.0004521723
12	0xb7f6e3ff	-2.9431654e-05
13	0x391512b5	0.00014216716
14	0xb99caa7a	-0.00029881654
15	0x3a1c3479	0.0005958747
16	0x39f04d21	0.00045833833
17	0xb843d366	-4.6688503e-05
18	0x3a3ec674	0.00072774966
19	0xb9ba268c	-0.00035505404
20	0xbaad6117	-0.0013227788
21	0x393aad8d	0.00017802995
22	0xba2569e0	-0.0006310027
23	0x3a27a835	0.0006395609
24	0xb9674a26	-0.00022057499
25	0xba391458	-0.00070602214
26	0xba1f1369	-0.0006068261
27	0xb86eb311	-5.691039e-05
28	0x391e3332	0.00015087126
29	0xb80cd225	-3.3574313e-05
30	0xb6852bfb	-3.968829e-06
31	0x3a8595eb	0.0010191774
32	0xb946bf31	-0.00018953976
33	0xba36ffad	-0.00069808477
34	0x3a5acb74	0.0008346357
35	0x3930050d	0.0001678655
36	0x3a7b8df3	0.0009596042
37	0x3a5399e1	0.0008071941
38	0xb8888d0e	-6.511259e-05
39	0x38d11773	9.9702644e-05

exp_avg_sq f4 [40]
0	0x3ac8043c	0.0015260051
1	0x361cb921	2.335357e-06
2	0x3a04cb6c	0.00050657126
3	0x3a5aca60	0.0008346196
4	0x39e57bd8	0.00043770554
5	0x3b0b389b	0.0021243456
6	0x3a04cd6d	0.0005066011
7	0x388089fb	6.1292165e-05
8	0x3ac1b40f	0.0014778393
9	0x3994cdec	0.00028382184
10	0x38a7afe7	7.995945e-05
11	0x3987b2c0	0.00025882386
12	0x34a19d5f	3.010309e-07
13	0x38330390	4.2680243e-05
14	0x391915c7	0.0001459933
15	0x39e129e2	0.0004294655
16	0x3997cf6a	0.000289555
17	0x371a3535	9.1915035e-06
18	0x3a2839d5	0.0006417309
19	0x394f0f25	0.000197467
20	0x3b151731	0.002274942
21	0x385d8cc8	5.282162e-05
22	0x3a1bc7a0	0.0005942527
23	0x3a0b6e3c	0.00053188554
24	0x38ac2343	8.208167e-05
25	0x3a29eeed	0.0006482441
26	0x39f07cc5	0.00045869328
27	0x358260ca	9.713924e-07
28	0x380e2033	3.3885426e-05
29	0x36cebbad	6.1611267e-06
30	0x35b6e212	1.3625852e-06
31	0x3aba7d8b	0.0014228089
32	0x387f547b	6.0875416e-05
33	0x3a211116	0.00061442086
34	0x3a7aa809	0.00095617824
35	0x377e26a9	1.5148581e-05
36	0x3a965421	0.0011469164
37	0x3a4935b7	0.00076755456
38	0x3628dff6	2.5164313e-06
39	0x379bded2	1.8581199e-05
