pdebench/models/newly_trained_models1D_Advection_Sols_beta0.4_PINN.pt-5000.pt (torch, 120395 bytes, 39 tensors)

linears.0.weight f4 [40, 2]
00000000: 03ab 753e 00f3 b5bc ca83 52be 0de7 c8bd
00000010: 3f08 babe 0fbb 3f3c 063b 283e 666c e43d
00000020: 1cc0 3bbe 4288 d7bd bdf5 163f f57c 3bbe
00000030: 3349 4b3e 1681 5abe 7734 333e 4372 503c
00000040: 5d52 d8be 641f cd3d 0d99 c0bd 7231 543e
00000050: f889 0f3f ace5 cfbc 8443 c5bd 84d5 bfbd
00000060: deb8 8cbe e7fb 983d 7b96 e7bd 6b41 9f3e
00000070: 40bc ec3d 8eea 663e fb2f 123e 55c1 15bd
00000080: 275f 8dbe 4c91 d53c 0323 f9bd 6741 dc3d
00000090: 6c50 093e c4c3 58bd e4bf 17be 6ecd 22bc
000000a0: 532a ac3e c7f7 3e3c 22d2 883e 8e9c 9dbd
000000b0: f36d 18bd 8778 56be d4a6 0ebe b71b 5abe
000000c0: 492c 2b3d 0a3e 0b3d c143 b73e 2e85 9a3e
000000d0: 28ca 8fbc 7dd2 3ebe 94b7 59be 0480 16bf
000000e0: 5a00 7fbd 800a 3c3e 0b89 043f 2402 1a3e
000000f0: 5653 fb3c c125 8cbe efcb 1b3e 13a6 4cbe
00000100: 473c 4b3e fd36 c1bd a548 443d e7a5 933e
00000110: df4f 343d 2f74 d43e 6a56 81be ad4a 093e
00000120: 9f5b 3cbe 0c3b d9be 6ff6 f2be 79ff 213d
00000130: 37f4 ec3d 4681 03be fec2 843e bdb2 0a3f
0.23991017 -0.022210598 -0.20558086 -0.098096944 -0.36334416 0.011702313 0.16428766 0.11153488
-0.18335003 -0.10524036 0.58968717 -0.18309386 0.19852142 -0.21338305 0.17500482 0.012722555
-0.42250338 0.10015753 -0.09404192 0.20721987 0.560699 -0.02537807 -0.09632018 -0.09366897
-0.27484792 0.074699216 -0.11307999 0.31104597 0.11559343 0.22550413 0.14276116 -0.03656133
-0.27611658 0.02607026 -0.12164881 0.10754662 0.13409585 -0.05292107 -0.14819294 -0.009936674
0.3362604 0.011655754 0.2672282 -0.07695876 -0.03721423 -0.20944415 -0.13930827 -0.21299635
0.04179028 0.033994712 0.3579388 0.30179733 -0.01755245 -0.18634982 -0.21261436 -0.58789086
-0.062256195 0.1836338 0.5177161 0.15039879 0.030679386 -0.27372554 0.15214513 -0.19985227
0.19847213 -0.09434316 0.04792084 0.2883751 0.044021484 0.4149489 -0.2526124 0.13407393
-0.18394326 -0.42427862 -0.4745364 0.03955028 0.11570018 -0.12842283 0.25930017 0.5417898

linears.0.bias f4 [40]
00000000: a612 babc 541d 55bc 5041 f1bb e236 dbbd
00000010: 2279 60bc da74 83bc b933 a23d 8f28 063d
00000020: ecfa 9ebc 2aa6 da3d 06b5 1ebd 9ab5 a43d
00000030: f4e3 2ebe d555 a3bd 588f 7d3b 850b dd3d
00000040: 0105 ab3d 23a4 1dbd 2db5 3cbd 3865 02bd
00000050: 4852 85bd 7917 1d3d 22bb 8bbd 17f1 3a3c
00000060: be03 66bd 5c72 01bb 666c 753d 4d1f c3bd
00000070: 5c39 1dbd 7bce b1bd d5c8 5bbd a5f3 7dbd
00000080: b586 9fbd b232 50bd 367f 003d fa93 9e3c
00000090: 3171 8f3d d8fa ef3d a6fb 01bd c8d6 dcbc
-0.02271397 -0.013007481 -0.007362522 -0.107038274 -0.013700755 -0.01604693 0.079200216 0.032753523
-0.019406758 0.106762245 -0.038746856 0.0804245 -0.17079145 -0.079753555 0.0038690176 0.10793213
0.08350564 -0.03848661 -0.04607122 -0.03183481 -0.065098345 0.038352463 -0.06822802 0.011410019
-0.056155913 -0.0019752001 0.05991783 -0.095274545 -0.03838478 -0.08681961 -0.053658325 -0.061999936
-0.07789365 -0.050829597 0.031371318 0.01935767 0.070040114 0.117177665 -0.03173413 -0.026957884

linears.1.weight f4 [40, 40]
00000000: a17d 873d e94b 1e3e 36b0 66bd fc9a 3b3e
00000010: 9076 41bd a6a4 3bbe 96cc 97be a66d 273e
00000020: 2608 b8bd 94c6 4cbd 1691 813d c85f 79be
00000030: c0c5 983d f853 34bc 44dd f23d ff09 1dbe
00000040: 6e1d 493c af6c 763d a16c bf3e f956 1b3e
00000050: 8814 8c3e b707 933e efcd b9bc 24a5 2dbd
00000060: 7e3a 9c3d 89fe 843e 357e ed3c dd91 21bd
00000070: 7b3a 82be 0379 4e3d c912 013e 85c1 6f3e
00000080: 4974 573e 4301 b73c 6bc6 7bbe 44a3 4c3e
00000090: 2d1d f8bd 3584 4dbe 132c ecbd af18 65bc
000000a0: 7bb9 2e3e 7de2 31bc 8165 0d3e 60a3 343d
000000b0: 7327 613d 3d1c c3bc fafb aa3d fbe6 bbbd
000000c0: af0b bb3e dcd6 98bd 6264 0dbe 059a da3d
000000d0: a601 1c3d 78ee 51bc a4ec 943d 813a 843c
000000e0: a289 033e 64e5 aabd d440 7abd 6ce9 4b3d
000000f0: cd1b 4dbd 6922 a7bd 0814 b3bd c096 c63e
00000100: 5e07 9abe b50e 283c d3c4 903d a3dd 633e
00000110: 8dbb b73e 27ab 09be 25c7 39bd 0b67 a3be
00000120: 21f0 34bd 9e76 263e 6d32 bebe 1ea8 ae3d
00000130: d6f4 73be 85e9 16bd 6099 13bd a084 2ebd
00000140: e162 ad3d 4e0f 8dbc 9091 b9be 09c2 1d3e
00000150: ce14 00be 8d08 8cbd de5e d53d d772 50be
00000160: a57d 223e 5a68 d2bd fa55 2c3e 8a0a b53d
00000170: 58b3 593d 2208 8b3e 55d2 5a3d d2af de3b
00000180: 2310 27be 473b 923e 97fc 353d 9daa e4bd
00000190: 4347 2dbe 59a0 113e 802f ad3d 5d2b db3d
000001a0: f4ff ca3d 655c 70bc b2a1 143d f6c9 ac3e
000001b0: 20b7 7ebc 38c1 a63e 7bc8 043e 7191 413e
000001c0: 4c9c 8bbd bbbf 763d 33bf 443e e0d1 2fbd
000001d0: 5796 0dbe bc1a c7bd 5f44 943e d71a 64be
000001e0: 8560 3dbc 462b 6dbe 73c2 8ebd e8ef 6abb
000001f0: a642 1abd 4153 443e 5b85 9f3d 9bb0 b13d
00000200: a234 38bd 1ef2 0bbe a848 8bbe d1b2 11be
00000210: bfc9 8abe f327 91bd d3b5 013d 15d9 89bc
00000220: 665b 55bd 3ac7 46be 0052 b3be bdff 8c3e
00000230: ce8d 66be 1b02 27bd f364 83bd 6fc2 5d3e
00000240: eb73 8cbd 7680 7b3d 1f03 c13e 05a7 96bd
00000250: c968 333e 2979 f2bd 1886 993d 48d6 83be
00000260: 7a62 13be 5581 eb3c 3cb2 d33e 2d29 2dbe
00000270: 20e8 46be c8a3 633e b000 c3be d7ff 9d3d
00000280: 6c20 6dbe ed0c c9bc 54f8 bd3e 11a0 a1be
00000290: fbdb 5bbe bb2f e23c f483 fc3d 00f3 793d
000002a0: b6b9 7c3d 5d68 943e b3d9 c9bd 9233 eaba
000002b0: 99c3 43bd f9ed 30bd c22a 0d3e f03c ee3d
000002c0: 4cb8 37be bbe9 85bd a849 703d 3e04 0cbe
000002d0: 0c07 08be 24f9 44be c533 2a3e 48e7 23be
000002e0: 5faa 86be 2c27 96be 9240 a2bd 6675 81be
000002f0: bc25 4b3e 5713 94be f6f4 123e 9fd2 a5bd
00000300: 76e3 68be 3e91 10be 2fd6 49bd 65ce 633e
00000310: e912 233e a687 703e 3305 bcbc a595 79bd
00000320: 8b78 013d 5519 efbd 44d9 ea3d e8a3 49be
00000330: 9990 823d 7506 753d 2796 163e efbe 02be
00000340: 839d f23d 5606 0cbf 4729 193d dc5b 12be
00000350: a8cd 41bd cbdc aebc 742f b4bd ce33 a53d
00000360: e8e0 1e3e 8f71 5f3e e62c 3f3d 6259 31bd
00000370: 8939 463e 45c6 36be 8da7 1f3c c64a 3d3e
00000380: bfe4 943e 91ba ba3d f095 46be 46a2 ccbd
00000390: 28f6 453e 7006 b6be d374 08bc 9dcd 8abd
000003a0: eea8 2bbd bc7b ecbd 331c 0a3d b30a abbb
000003b0: 0e2b 23bd 1453 11be c5af 103e 5c72 493d
000003c0: d2ba 7ebe c9fc a23d 0754 2d3e 9465 4ebd
000003d0: 5788 ef3d cacc ac3d 6c1a 5fbe 543b 6e3d
000003e0: d081 4b3e 1ee7 9b3d c00d b53d be1d 883d
000003f0: e6ec 973d c15e 5cbe a041 a7bd 7e40 69be
0.06615759 0.15458645 -0.05632039 0.1832084 -0.04723221 -0.18324527 -0.29648274 0.16350421
-0.08985929 -0.049994066 0.06326501 -0.24352944 0.07459593 -0.011006348 0.11858609 -0.15335844
0.012275083 0.060162243 0.37387565 0.15169896 0.27359414 0.28716823 -0.022681205 -0.04239382
0.07628344 0.25975445 0.028990844 -0.039445747 -0.25435242 0.050408375 0.12604822 0.23413666
0.21040453 0.022339469 -0.24587409 0.19984156 -0.1211494 -0.20069964 -0.11531844 -0.013982936
0.17062943 -0.010857222 0.13808252 0.04410112 0.054969262 -0.023817176 0.08348842 -0.091749154
0.3653235 -0.07462856 -0.13807824 0.10673908 0.03808751 -0.012813203 0.07271698 0.016141178
0.12845472 -0.08344534 -0.06109698 0.049783155 -0.05007534 -0.0816086 -0.08744055 0.38786888
-0.30083746 0.010257413 0.07068791 0.22252516 0.35885277 -0.13444196 -0.045355935 -0.31914553
-0.044174317 0.16256186 -0.37147847 0.085281596 -0.23823866 -0.036843795 -0.03603494 -0.04260695
0.08466125 -0.017219212 -0.36243868 0.1540605 -0.12507936 -0.068375684 0.10418485 -0.20356308
0.15868242 -0.1027381 0.16829672 0.08839901 0.05314955 0.27154642 0.053423245 0.0067958618
-0.1631475 0.2856085 0.04443034 -0.111653544 -0.16921715 0.14221324 0.084563255 0.1070163
0.099121004 -0.014670466 0.036287017 0.33747834 -0.01554659 0.3256929 0.12967102 0.18903138
-0.06816921 0.060241442 0.19213562 -0.04292476 -0.13826881 -0.09721896 0.28958413 -0.22275864
-0.011558657 -0.23161039 -0.06970682 -0.0035848562 -0.037661217 0.19172384 0.077891074 0.08676263
-0.04497207 -0.13666579 -0.2720387 -0.1422837 -0.27107045 -0.07087698 0.03166754 -0.016827146
-0.052089117 -0.19411936 -0.350235 0.27538863 -0.22515032 -0.040773492 -0.06415739 0.21656202
-0.06858047 0.061401807 0.37697694 -0.07356075 0.17520441 -0.11839516 0.074962795 -0.2574942
-0.14393035 0.028748194 0.4134692 -0.16910239 -0.19424486 0.22230446 -0.38086462 0.07714813
-0.23156899 -0.024542296 0.37103522 -0.31567433 -0.21470635 0.02761065 0.123298556 0.06102276
0.061700545 0.28985873 -0.09855976 -0.0017868152 -0.04779396 -0.0431957 0.13785842 0.11632717
-0.17941397 -0.06538721 0.058663994 -0.13673493 -0.13283938 -0.19235665 0.16621311 -0.16006196
-0.26301858 -0.2932676 -0.07922472 -0.2528488 0.19838613 -0.28921005 0.14351258 -0.080968134
-0.2274302 -0.14117905 -0.049276527 0.22246702 0.15925182 0.23489246 -0.022951698 -0.060933728
0.0316091 -0.116747536 0.114672214 -0.19691432 0.06375236 0.05982061 0.14705716 -0.12768148
0.11846449 -0.5469717 0.03739288 -0.14292854 -0.04731527 -0.021345517 -0.087981135 0.080665216
0.15515482 0.21820663 0.046673678 -0.043298133 0.19357885 -0.17849071 0.009744537 0.18485555
0.2908077 0.09117616 -0.19393134 -0.09991889 0.19332182 -0.35551786 -0.008328634 -0.06777499
-0.04190915 -0.11547038 0.0337183 -0.0052197813 -0.039835982 -0.14191848 0.14129551 0.049181327
-0.24875954 0.07958371 0.16926585 -0.05038984 0.11695927 0.08437498 -0.21787423 0.05816205
0.19873738 0.076124415 0.08840513 0.06646298 0.07418232 -0.21520521 -0.08166814 -0.22778508

linears.1.bias f4 [40]
00000000: 86e6 adbd 443f b23c 6365 59bd 77d1 673d
00000010: 13c3 a03b ec14 a9bd 6027 b03d d3d3 793d
00000020: fe32 c7bb 24ae e7bd 1ebc 4ebd 2bad 0e3c
00000030: 47c2 003d 26dd 2fbd a46d 50bd e1df 973d
00000040: 057d 9cbe 5110 b73c 053a 8e3c 4cbc 1ebd
00000050: 2979 c0ba 34ae 9d3d 0148 d0bc 92a5 48bd
00000060: efe1 7b3d 1768 4c3d 3aac 95bc 6f86 273d
00000070: 80a7 9c3d 7d1b 03bd 9905 0e3d df24 aebc
00000080: b296 fabd 465a fa3c ce5f 01bd b8a5 60bd
00000090: 148a 843d 005a 463d f80d 2bbd 2c90 a53d
-0.084912345 0.021758683 -0.053075206 0.056596246 0.004906067 -0.08255944 0.0860126 0.060993027
-0.006079077 -0.113125116 -0.05047237 0.008708279 0.031435277 -0.042935513 -0.05088581 0.074157484
-0.30564132 0.022346647 0.01736165 -0.038753793 -0.0014684546 0.07699242 -0.02542496 -0.048986025
0.061494764 0.049903955 -0.0182706 0.04089969 0.076491356 -0.032008637 0.034673307 -0.021257816
-0.12235774 0.030560624 -0.031585507 -0.05484554 0.06471649 0.048425674 -0.04176137 0.08084139

linears.2.weight f4 [40, 40]
00000000: 1d46 023b 0b13 f2bd 1f87 8cbd a74c 283e
00000010: 6011 3f3e a299 823d 5421 c73e 7603 1b3d
00000020: c034 843d db22 49be 1ab4 f33c 2a4e c73d
00000030: 0e1d bf3c 8574 e23d 641c 8abd ab04 34be
00000040: e5a3 a7bb ed6e ad3d 8195 18bd 739f bc3d
00000050: b29e 7dbe ada0 ff3c c763 013e 3c3a 2ebe
00000060: 1b7e 37be acc8 8f3d fa26 f73c e19e febd
00000070: f12f 7cbd eedd d0bd 6204 f93c b8a2 433c
00000080: d6d9 af3d 1794 72bc 46ad 6b3e 886c ac3b
00000090: 95a5 083e 962c 363d 0d72 e93d e2e4 21be
000000a0: b6c9 b9bd 50a8 c33d e6b9 5abd 42a5 54bb
000000b0: 0930 bebd 8373 b53d 67af e13d b8bd b83e
000000c0: 1f62 7e3d f967 7abe aaf1 3fbe 7bb6 aa3c
000000d0: 1a28 c4bc 1f6f 90bc 0c65 6fbe bdb1 ae3d
000000e0: d7fa fbbd ea12 28be 975f 383e 3c7c 36be
000000f0: 00ff ccbc 28bc 02be 9add 643e 6b2a 98bd
00000100: 3d59 6a3e 9ba6 0bbd db7f 57bc d292 823d
00000110: cf3c 263d 6bf7 62be 3171 023c faef 14bc
00000120: 04d8 9cbe f4f8 623e 4672 483e e42c afbd
00000130: 49e3 833e 66ec eb3d 7e37 373e fbf1 aabd
00000140: ea0f 03bd 4dcd 943c 0367 85bc 5e1d 913d
00000150: a106 2d3e 3432 b2be 40c1 39bd 4da0 803e
00000160: 562b 63be 6649 66bd ef4a 8a3d 2487 37be
00000170: 6eb3 bf3c 8054 813e 9e31 cb3c f501 d4be
00000180: 6774 21bd 010c 7abd 56a5 50ba d261 2d3e
00000190: 1b47 9f3d 9c4e 043d 9c25 863d 4712 713d
000001a0: 4cb3 17be 9396 e93d d976 253e 4e51 873d
000001b0: 631d 1bbd bdc5 ddbd 10f8 e03d 69b1 eabd
000001c0: 0064 bbbd 3b3e 41be 0f09 ac3c defc ddbc
000001d0: 430a c5bd 9b5d 1ebd bce1 f4be 9a14 f83d
000001e0: f642 b23e 4500 ab3d 66ff a73d 6bd1 babd
000001f0: aeb7 073d 4ca8 8f3e 973d ebba 6cdd 743e
00000200: 016d 1a3e 4f04 a73e 5955 253e fb7d 2cbe
00000210: 367e 8b3d cd46 673e 7460 223e 4f22 f3bd
00000220: 0dcd 323e 1906 dc3d 2d4e bb3c 33cf 613e
00000230: d3c6 5a3e d344 98be 2e44 c73e 77b6 8f3c
00000240: 1fd0 a2be 2dd5 01be 7692 a23d 5483 4abe
00000250: cae7 cebe 77d0 203d 83cd 69bd 689f 8dbe
00000260: 2ef2 ad3d 16b9 393e 2e96 b1bd cc4a 8f3e
00000270: 420a 9ebd 45f5 303d b6d1 d03e 9799 debe
00000280: 9613 9cbc 8101 343e 958c 153e 8913 f73d
00000290: b59b 533d d898 833e 5a94 e63b 4f62 e1be
000002a0: 1dfa 693d 2bb8 d23d 59a2 04be 73e6 ac3d
000002b0: a2dc 0e3e 48a0 633c 4cf7 a7be 9068 d1be
000002c0: 4319 13bd bd82 033e a9da 5d3b 97ea 23be
000002d0: 989e 89be eef2 103e b876 843e 89d8 5f3d
000002e0: b4ce 853e 67a3 92bc a5ca 07bd e4da 063d
000002f0: 9bb1 f83c 52f8 153e 4e18 3dbe 6c67 bd3d
00000300: 883d 19be eaf9 293e 1836 423e 1177 403c
00000310: 6169 c7be 3d0d 0ebe 289e 173d 79d8 05be
00000320: 69c8 9b3e 6109 d0bc 4cac 013e c642 cebe
00000330: 700e e93d e3a1 71bd 0de7 263e 2988 52bd
00000340: 619f 703e cb02 bbbb 63c7 be3d 8dd8 12be
00000350: cd25 ef3d a8ba 513e 49c1 c1bd 26c2 f4bd
00000360: 32e0 6dbd 0ced d9bd a9f7 04be 3ee7 dbbd
00000370: ee36 86bd 7c00 28be 34bc 493d ba52 943d
00000380: a629 acbd 01d4 56be 1028 3c3e 5820 33be
00000390: 194f 2dbe acb6 eebd a1b0 903b 091d e53d
000003a0: 1ce9 edbd 9aef c8bd 2549 873d 6dc9 203b
000003b0: 35f5 89bd b5d7 643e 15b7 95be 8d62 b63d
000003c0: 9d0f bd3d 449c 8ebd 89ad 893e e7c7 0dbd
000003d0: 9203 373d 3486 733d eba5 95be a6f3 acbc
000003e0: 7dc9 8fbc acb7 973d b35f 833d 19df f8bd
000003f0: 474a d6bd b083 5c3e a52d f0bd d79d 65bd
0.0019878217 -0.118200384 -0.0686171 0.1643549 0.18658972 0.063769594 0.38892615 0.037845097
0.06455374 -0.19642203 0.029748965 0.097317055 0.023329284 0.110573806 -0.06743696 -0.17579906
-0.0051159733 0.08468423 -0.037251953 0.092101 -0.24767569 0.031204546 0.12635718 -0.17014402
-0.17919199 0.07020697 0.030169953 -0.124326475 -0.061569158 -0.1019858 0.030397598 0.011940651
0.08586471 -0.014805815 0.23015317 0.0052619614 0.13344415 0.044476114 0.113987066 -0.15809968
-0.090716764 0.095535874 -0.053399943 -0.0032447134 -0.09286506 0.08859923 0.110197835 0.36082244
0.062105294 -0.24453725 -0.18744531 0.020838967 -0.023944903 -0.017631112 -0.2337839 0.08529995
-0.12303703 -0.16413465 0.18005215 -0.17820829 -0.025023937 -0.12767088 0.2235016 -0.074299656
0.22885604 -0.034094434 -0.013153042 0.0637566 0.040585335 -0.22164695 0.007961557 -0.009090418
-0.30633557 0.2216528 0.19574842 -0.08553484 0.25759342 0.11519699 0.17892262 -0.08346935
-0.0319976 0.018164301 -0.016284471 0.070856795 0.1689706 -0.34803927 -0.045350313 0.251223
-0.221845 -0.056222342 0.06752574 -0.17922646 0.023400988 0.2525978 0.024803933 -0.41407743
-0.03941765 -0.061046604 -0.0007959207 0.16931847 0.07777234 0.03230153 0.06550142 0.05885532
-0.1481449 0.11405673 0.16158618 0.066073045 -0.037869822 -0.10828731 0.10984814 -0.114596196
-0.09149933 -0.18871395 0.021000413 -0.027098116 -0.09621098 -0.038663488 -0.47828472 0.121133044
0.34816712 0.08349661 0.0820301 -0.091219746 0.033134155 0.28058088 -0.0017947432 0.2391259
0.15080644 0.32620475 0.16145839 -0.16844933 0.06811182 0.22585602 0.15857106 -0.11871778
0.17461033 0.107433505 0.022864426 0.22051696 0.21364908 -0.2974001 0.38919204 0.01754306
-0.3179941 -0.12678976 0.079380915 -0.1977666 -0.40411216 0.039261308 -0.057080757 -0.2766068
0.08493458 0.18137011 -0.086712226 0.27986753 -0.077168 0.043202657 0.40784997 -0.43476555
-0.019052308 0.17578699 0.14604409 0.12064273 0.051662166 0.25702548 0.007036728 -0.44020316
0.057123292 0.102890335 -0.12952556 0.08442392 0.13951352 0.0138931945 -0.3280586 -0.40900087
-0.035912763 0.12842841 0.0033852255 -0.16007458 -0.2687881 0.1415517 0.25871825 0.054649863
0.26134264 -0.017900182 -0.03315224 0.032923594 0.030358126 0.14645508 -0.18466303 0.09248242
-0.14964879 0.16599241 0.18965948 0.011747138 -0.38947585 -0.13872238 0.037016064 -0.13070859
0.30426338 -0.025395097 0.12663382 -0.4028532 0.11379707 -0.058992278 0.16299076 -0.051399384
0.23498298 -0.00570712 0.09315374 -0.1434042 0.11677132 0.2048136 -0.09460694 -0.119510934
-0.058075137 -0.10640916 -0.129851 -0.10737465 -0.06553446 -0.16406435 0.04925175 0.07242341
-0.08406381 -0.2097931 0.18374658 -0.17492807 -0.16924705 -0.11655936 0.004415587 0.11187179
-0.11616728 -0.09811325 0.06605748 0.0024534122 -0.06736223 0.2234791 -0.29241243 0.08905516
0.092314936 -0.06963399 0.2689021 -0.03461447 0.04468114 0.059454158 -0.29228148 -0.021112274
-0.017552132 0.074080795 0.064147376 -0.121519275 -0.10463386 0.2153461 -0.11727456 -0.05605873

linears.2.bias f4 [40]
00000000: 500f ebba e0bd 1e3d b2e8 c53c 9eb3 adbd
00000010: 7067 2dbd 81ea debc e468 1fbd 7997 a03c
00000020: 91de 73bd 8dda 1cbd 1962 17bb a850 b139
00000030: 22a3 93bd 78b3 303d 18b6 1b3d 401b cbbc
00000040: acbf 8c3d 894c a73d 6ca7 de3c caac 433d
00000050: 4a52 863d 04e3 643d ee72 73bd aa37 0fbd
00000060: 846f 043d 31a8 44bd 0fe4 2b3d da3f 0c3d
00000070: 974c 7fbb 6435 6c3d de7c 043c e264 aa3c
00000080: 4293 d9bd e320 bf3c c878 d03c f565 bfbc
00000090: 00ab 1d3d 1b54 183d 05c7 06bd 9c09 45bd
-0.0017933641 0.038755298 0.02415881 -0.08481525 -0.042334974 -0.02721143 -0.03891839 0.019603478
-0.059538428 -0.038294364 -0.0023099242 0.00033820164 -0.072088495 0.043139905 0.038015455 -0.024793267
0.06872496 0.08168895 0.027179442 0.047772206 0.06558664 0.05588056 -0.059435777 -0.034965195
0.032332912 -0.048011962 0.04196554 0.03424058 -0.0038955563 0.057668105 0.008086411 0.020800058
-0.1062379 0.023331111 0.025448218 -0.023364047 0.038493156 0.037189584 -0.032904644 -0.048104867

linears.3.weight f4 [40, 40]
00000000: 015e 93bd fc36 8ebe d7fe f8bb 2dd0 0abe
00000010: 4e01 0f3e 9950 4b3d 5b50 52be 21d8 143e
00000020: 3e28 f5bc 7c12 113e a229 abbe 4da2 3cbe
00000030: 5f3e 57bd 6b2a 813e e888 30bd 3aa5 dbbd
00000040: b878 37be 9e48 83bd a05b c3bd 6eca ccbd
00000050: 36e3 13be 8d9f e93c 7737 73bd 72c3 2bbd
00000060: 7ac0 9ebd ccf4 853d 1343 343e 1355 2ebe
00000070: 8b65 23bd 78e8 18be 7d26 83bb 55d8 733e
00000080: d463 86bd bfaf cb3d ff4a 2ebd 531f 1bbe
00000090: 84aa ab3e 73e5 ad3d 4e43 69bd 6bc5 083e
000000a0: b0f5 e23a d52f 9e3e 7dd1 a93c da50 9cbd
000000b0: fe45 83be 02f2 febc 6b4b 98be ae12 963e
000000c0: 9f03 013e 4b37 f53d 263f 8dbe caa2 bc3d
000000d0: 7da4 083c d48f 41be e91e fc3d 8baa 9bbe
000000e0: 2f81 c73d c835 163e 97b1 573e 8c15 f8bd
000000f0: 136b 373d 00bf 273e 42a9 0d3d 0de5 14be
00000100: 72b6 693e d0b6 98bd 4763 2a3e 1ce2 18be
00000110: c935 003e 3aee b8be c7aa 9e3e 2bd6 a23c
00000120: 02eb e8be 50ee 953e 428b ef3a 26f3 80be
00000130: ada6 6b3d afe8 85bc dcb1 05be 6215 b6be
00000140: 14c1 bb3e 458d 1a3e e867 f1bd 8778 ba3e
00000150: bc9a 3c3c 8ba2 323e b4ee b43d 5328 63be
00000160: 9653 143e 7e13 b33d 9f6c 52be f478 96bd
00000170: ab26 84bd 9ce7 3bbe 3637 373d 6d5d ffbd
00000180: 235e 6fbe dbff 14be 845b a43d dc4f 943e
00000190: ae8d c6bd ed34 28be 6453 8cbd 6d12 42be
000001a0: cbdb b43e ea63 89bd 131a 2dbe d3ef e43c
000001b0: d8dd 163e adf9 67be 0af7 943c 971b f43d
000001c0: 62e0 473e b0cf aa3e a09b 363d ca7f 293d
000001d0: d2be fbbd aa89 f13c 85d1 1e3e 48fd 3fbe
000001e0: 25bf 03bd a0aa d0bd e75a e6bd 3da8 1a3d
000001f0: 815a 2d3d 39a1 e8bd 212a 01be 64f3 2e3e
00000200: a8eb 6e3d 90d0 96bc c769 553d 3765 a63d
00000210: c1bc 033d fd11 0cbf 5e7e e5bd 0487 713e
00000220: 8052 05bb 7e1d c4bd a96e 843e 57e5 97be
00000230: e8df 83bd faea bebd 5a60 743e e056 72be
00000240: 5f1b a33b c75e c5bc 93f0 4d3d a12f 52be
00000250: 6f3c d5bd 304d 72be c427 28be eff5 553b
00000260: 43f8 4c3e 8b39 e6be b423 afbd 2504 5a3d
00000270: 4cba 943d dde1 0abe d0a8 d5bd 5028 1e3e
00000280: d829 b1bd ddbf 933b 6c2b 543e 96b5 743c
00000290: 210d a43d 2221 823c 6cda 22bc feff e3bd
000002a0: 0998 f83d a54b f23d a592 283e 9b64 9bbd
000002b0: 9c61 b9bd 5a28 083c bcb7 983e 2088 ae3c
000002c0: 08d8 a7bd 67bb 9dbd b762 08be 5fb2 49be
000002d0: c34f b63d bce9 ab3c 36f4 0bbd c3cd 93be
000002e0: e28c 39be ec35 d0bc 653e 08be 15d3 9a3e
000002f0: b5a2 c3bd 6d8e b23e 96f5 34be c785 c63c
00000300: a3cc 0abe ea05 653e ded4 21be 5895 abbe
00000310: a7a2 12be d6fa d9bd 360f 0a3e ba1d 3abe
00000320: 4ebb d33c 515c 0cbd 2d89 903d bcda dcbd
00000330: 9b32 a03e 5f2a a3bb afb4 19be f295 873e
00000340: ee89 c6be fc56 78be 71c2 f93d 67a5 7ebc
00000350: a505 993e 5945 63be 7b47 96bd aa17 853d
00000360: a397 353e a4f1 233e f8cf 503e 0717 b5bc
00000370: 659a a53d b734 ad3d d5c3 90bd 82dc 68be
00000380: 666f bbbd 1ab9 61be e626 23bd 35bd fe3d
00000390: 88c9 c73e 61f0 9d3d ca26 c43e 18b8 74be
000003a0: 5c27 99be 3730 db3b 96fa 93bd 1258 3f3d
000003b0: 5ae9 bcbc c0b7 313d 7f37 263d c584 473d
000003c0: 774d a4be 0795 debe f55a b43c 0ebd a93c
000003d0: 9c95 173e 62e0 02be 5836 bbbd c28e 1cbd
000003e0: 8ef4 5dbd a33f 05be 281f d13d b9ee 563e
000003f0: 6261 f0bc 75da a3bc 4c86 283e b87c 89bd
-0.07195664 -0.27776325 -0.0075987387 -0.13555975 0.13965341 0.04963741 -0.20538466 0.14535572
-0.029926416 0.14167207 -0.334302 -0.18421288 -0.052549716 0.25227675 -0.043099314 -0.10724874
-0.17917144 -0.06410335 -0.095389605 -0.09999548 -0.14442143 0.028518463 -0.059379067 -0.041934438
-0.07751556 0.06540832 0.17603712 -0.1702464 -0.03989176 -0.1493243 -0.004002391 0.23812993
-0.065620095 0.0994563 -0.04255199 -0.15148668 0.3352853 0.084910296 -0.056948952 0.13356559
0.0017315652 0.30895868 0.020729775 -0.07632609 -0.25639337 -0.031121258 -0.2974504 0.29311126
0.12599038 0.11973437 -0.2758724 0.09210737 0.008339998 -0.18902522 0.12310583 -0.3040355
0.09741437 0.14668953 0.21063839 -0.12113485 0.04477985 0.16381454 0.034585245 -0.14540501
0.22823504 -0.07456744 0.16639434 -0.14930004 0.12520517 -0.36119252 0.30989668 0.019877514
-0.45491797 0.2928338 0.0018275755 -0.25185508 0.057532 -0.016346304 -0.13056129 -0.3556319
0.36670744 0.15092953 -0.11787397 0.3642008 0.011511501 0.17444818 0.088345915 -0.22183351
0.1448501 0.08743952 -0.20549248 -0.07347289 -0.06452688 -0.1835007 0.044730388 -0.124689914
-0.23375754 -0.14550726 0.08025268 0.28967178 -0.09694992 -0.1642644 -0.06851843 -0.18952341
0.3532394 -0.0670851 -0.16904478 0.027946388 0.14733064 -0.22653838 0.018184204 0.11919325
0.19519189 0.33361578 0.04458201 0.041381635 -0.122922555 0.029484589 0.15509613 -0.18748963
-0.03216471 -0.10188794 -0.11247807 0.0377581 0.04232264 -0.11358876 -0.12613727 0.17085034
0.058330208 -0.018409997 0.05210283 0.08124774 0.03216243 -0.5471495 -0.11205743 0.2358666
-0.0020343363 -0.09575938 0.25865677 -0.2966716 -0.06439191 -0.09322162 0.2386488 -0.23665953
0.004977628 -0.024093045 0.050278258 -0.20525981 -0.104119174 -0.23662257 -0.1642142 0.0032647809
0.2001658 -0.44965777 -0.08551732 0.05322661 0.07262096 -0.13562723 -0.10432589 0.15445065
-0.08650559 0.004508956 0.20719689 0.014935872 0.08010317 0.01588494 -0.009939771 -0.11132811
0.121383734 0.11830834 0.1646219 -0.07587548 -0.09051821 0.008310402 0.29827678 0.021305144
-0.081955016 -0.0770176 -0.13318907 -0.1969695 0.08901932 0.020985477 -0.034168445 -0.2886792
-0.18120149 -0.025416337 -0.13305052 0.30239168 -0.09552518 0.34874287 -0.17671809 0.024233712
-0.13554625 0.22365537 -0.15803859 -0.33512378 -0.1431986 -0.10643546 0.13482365 -0.18175402
0.02584615 -0.034267727 0.07057414 -0.10783908 0.3128861 -0.0049794163 -0.15010332 0.26481587
-0.38777107 -0.24251932 0.1219529 -0.015542365 0.2988712 -0.22194423 -0.073378526 0.06498654
0.17733626 0.16010147 0.20391834 -0.022105707 0.08086089 0.0845732 -0.07068602 -0.22740367
-0.09152107 -0.22043267 -0.03983202 0.12438432 0.39020944 0.07711864 0.38310844 -0.23898351
-0.2991284 0.0066890973 -0.0722553 0.04671485 -0.02306049 0.04338813 0.04058027 0.048710603
-0.3209035 -0.43473074 0.022016028 0.020720031 0.14803165 -0.12780908 -0.091412246 -0.038222082
-0.054188304 -0.13012557 0.10211021 0.20989503 -0.02934331 -0.02000163 0.1645748 -0.06713241

linears.3.bias f4 [40]
00000000: 4496 c1bc ab8e 053d 94c8 67bd eac2 c3bc
00000010: fce2 36bc e0f7 da3b 4f41 ae3c 6a3c 063d
00000020: 2b1d f5bc 4e37 e93c 0922 c53c e1a2 01bd
00000030: 8803 343c eabe e4bc 6112 cf3c f6eb 8a3d
00000040: 8539 d5bc 61e5 ff3c 0f3d c1bc 01b0 d8bc
00000050: 040a 653c c70a e83c ce67 48bc 4b65 e0bc
00000060: 3141 19bd fc6b ce3c 5ad7 0cbd 0f41 f83b
00000070: 56f9 30bd 6a7d 133e 0b12 5e3d b778 913d
00000080: c2b8 423c be9f 783d fbbd 94bd 2448 a93c
00000090: 3aa4 17bd 3a6e 8bbc e288 553d 22d0 19bd
-0.023631223 0.032606762 -0.05658777 -0.023896653 -0.011162516 0.006682381 0.021271376 0.03277246
-0.029921135 0.028468754 0.02406408 -0.031649474 0.01098717 -0.027923066 0.025277318 0.06783287
-0.026028404 0.031237306 -0.023588685 -0.026451113 0.013979439 0.028325452 -0.01223178 -0.02739205
-0.037415687 0.025197975 -0.034385063 0.007576115 -0.043206535 0.1440331 0.054216426 0.07103103
0.01188487 0.060699217 -0.072627984 0.020664282 -0.037021853 -0.017020334 0.052132495 -0.037552007

linears.4.weight f4 [40, 40]
00000000: c831 e73d a0ba 2abe 5420 d23d c055 80be
00000010: 0f55 adbd db2a e13d 1e2a ac3b c26b 893c
00000020: 2624 65be e71e e33d b197 acbd e2c7 833d
00000030: 717b ea3d 9215 1f3e ca46 073e cca3 a63d
00000040: 9cab 003e 1246 363e d178 6d3e ea5c 70bc
00000050: ac6a d339 ea68 ef3d d583 7c3e 4e4d cd3c
00000060: 02e6 d3bd 3c45 d7bd 3ef8 94be 7150 42be
00000070: ec92 d5bd 9bbc 8d3e dbf5 bebd 9fda a33e
00000080: a89f 9dbd 21a1 cf3c 59f7 8bbe 8962 623d
00000090: 254e 8c3d 8498 cb3d 0aa1 f83d 456a 363e
000000a0: 5490 e1bd 1256 ca3d f46c f9bd 06b5 35be
000000b0: cee1 82be 335d f73c b766 313e 7210 97bd
000000c0: ed48 edba 098d 6dbe 5e2c 513d 9d28 203c
000000d0: fd3d 8f3e ca8c 94bc 18a8 243e 3d65 2f3d
000000e0: a711 56be 113c 41be 7bff 06be 77cd 70bd
000000f0: 5a1b b4be 53be 02be 0dd3 0e3e 2abf 56be
00000100: f57e dbbd fd6b 203e f6c5 ffbc f94e 963d
00000110: 9715 053d e9fb 173b 777b c73d c148 b0be
00000120: a578 95be 45cc 8ebd 3b9f 9e3e 978b 18bd
00000130: d120 8a3d 3cdd 49be 5830 36be 5e4c 7fbd
00000140: 4d4e a93d 07ee 78be a0ff 27bd 2401 0c3d
00000150: 5c0f 793e 5018 993d b220 7cbd ec10 0dbe
00000160: 8e90 86be 226d 8abe e6f5 67be 1adb 10bc
00000170: 40c8 5cbe 67a5 933e bd9d 31be c575 d13d
00000180: 0b41 ed3c e64d 4bbe 169f 783e e8fe eb3d
00000190: 6d3f 423d 276c 0d3e 6845 9bbd 9268 a3be
000001a0: 4413 2a3e 6447 bebd 2dc2 a93d 154b 4f3d
000001b0: d5bd 413d b14b e3bc dbcf 4f3d dc0f 673d
000001c0: 2653 3cbd 818e 2f3e b4e3 063e 745f e53d
000001d0: ab20 413d 1fa5 4f3d 8672 f93d 60ec 263c
000001e0: 005d f83c 9a74 193e 5cf6 08be bd25 cc3e
000001f0: 7504 c53c 73e5 5d3d bcd0 c93d 2377 70be
00000200: c9b9 093d 6833 a83d 77d2 8e3e f595 a33d
00000210: 182e 03bd 4414 8f3d 4d02 783c 78e4 573d
00000220: 17a2 293e 95f0 303c 045d 0cbd 4bba 62be
00000230: 9ed9 5bbe 1849 363d ffae 1a3d 6bba e7ba
00000240: 6cb7 a4bc fd1d 343e d7ed 543e ee1f af3e
00000250: f11d 643d 9e6b 4c3e f790 49be 4fed 42b9
00000260: 63b9 20bf 4177 a93d cb54 82bd 16a1 d33e
00000270: 697b 273e 9ae9 3b3e c5a7 a03c abc6 853d
00000280: 522b 76be 2b8b aa3d d55d c63d 6143 63be
00000290: 032a 613e 1e76 c7bd d5cd ee3d 231f a83d
000002a0: 9240 c13e 10bf acbe a557 13be 33aa 43be
000002b0: f64b 683e 83d4 3b3e 3286 833e 80ae 24be
000002c0: af47 a8be 4e81 5c3c 114b 65be 3df4 063d
000002d0: 2048 d33e 0db3 26be 4644 e4bd 6f7d d6be
000002e0: 9c29 8cbd d1a7 3cbc 53ea 96be e87f 4abe
000002f0: 8c4f 07bd 0ceb 663d c423 ac3e 1725 ae3d
00000300: b9a4 0f3a b2ef 043e 28e1 5dbd 4851 25be
00000310: b0d1 15be 9ecb 823e 0c27 31be 925f 1abe
00000320: b794 913d 1617 80be 1405 833e 4d96 c03d
00000330: 9747 133e a91e 1d3e 9c6b 693e 6d2c bdbe
00000340: 7013 833e d47b 82be 7277 3fbe 002a 783e
00000350: 1061 e53e 1874 373e 35f7 573e f464 41bd
00000360: d284 233e 697a e6bd 5545 bcbd 76be e33d
00000370: 73bb d9be a083 76bd fd71 0e3e 8d6e 173c
00000380: 4f11 0abd 7f3e 38bb aab4 683d 52d0 583c
00000390: 5c17 853d 10dc 95bc cc87 04be f77d 69be
000003a0: 5bd3 3cbe fcba 143e 38c6 1b3e 19e7 eabe
000003b0: 24cb 06be 35f4 533e be96 95be b5b4 463e
000003c0: f476 023e e1a8 eabd 421e 8c3c 29e4 3bbe
000003d0: 83c1 a4bc 9bda 98bd fc5a 6a3e bb78 683e
000003e0: 00a6 a7bd ed96 b73d fb35 dabe faba 58be
000003f0: 475e 9c3d c819 9b3b 8e91 713e e893 3a3c
0.11288792 -0.16672754 0.10260072 -0.25065422 -0.08463489 0.10994502 0.005254044 0.016775016
-0.22377071 0.110898785 -0.0842737 0.06434609 0.11449326 0.15535572 0.13210598 0.081367105
0.12565464 0.17800167 0.23190619 -0.01467059 0.00040324533 0.11689933 0.24659665 0.025061276
-0.10346605 -0.10511252 -0.29095644 -0.18975998 -0.10428414 0.27682957 -0.09324237 0.32002732
-0.07696468 0.025345387 -0.2733715 0.05526975 0.068508424 0.099411994 0.12140091 0.17813976
-0.110138565 0.09879698 -0.12178984 -0.17744836 -0.255629 0.030195808 0.17324339 -0.073761836
-0.0018103399 -0.23198332 0.051067702 0.009775308 0.2797698 -0.01813354 0.16079748 0.042821158
-0.20905171 -0.1887057 -0.13183396 -0.058789697 -0.35177118 -0.12767915 0.13947697 -0.20971361
-0.107175745 0.15666194 -0.031222325 0.073392816 0.032491293 0.0023190922 0.09740346 -0.34430507
-0.29193607 -0.06972555 0.30980858 -0.0372425 0.067445405 -0.197133 -0.17791879 -0.06232869
0.08266888 -0.2430955 -0.041015267 0.034180775 0.24322265 0.0747534 -0.06155462 -0.13775986
-0.2628216 -0.27036387 -0.22652397 -0.0088413 -0.21560764 0.2883713 -0.17345329 0.10227541
0.028961679 -0.19853935 0.24279436 0.11523229 0.04742377 0.13810788 -0.075815976 -0.31915718
0.16608912 -0.092909604 0.08288989 0.050608713 0.04730018 -0.027746053 0.050735336 0.05641161
-0.045977734 0.17144205 0.131728 0.11199847 0.047150295 0.05069458 0.12180047 0.010188192
0.030317783 0.14985886 -0.13375229 0.39872542 0.024049977 0.054173898 0.09854266 -0.23482947
0.033624444 0.0821293 0.27894947 0.079875864 -0.03202638 0.06986287 0.015137267 0.05270812
0.16565739 0.010799547 -0.034268394 -0.22141378 -0.21469733 0.0445033 0.037764546 -0.0017679458
-0.020106994 0.17589565 0.20793854 0.34204048 0.055692617 0.19962928 -0.19684206 -0.00018589686
-0.6278288 0.08274699 -0.06363829 0.41333836 0.16355671 0.1835083 0.019611249 0.065320335
-0.24039963 0.083273254 0.09685866 -0.22193672 0.21988682 -0.09739326 0.11660353 0.08209064
0.37744576 -0.3373952 -0.14388902 -0.19107895 0.22685227 0.18342786 0.2568832 -0.16082191
-0.3286719 0.013458563 -0.22391917 0.032947768 0.41265965 -0.1627924 -0.111458346 -0.41892573
-0.06843874 -0.01151462 -0.2947565 -0.19775355 -0.033034846 0.056376502 0.33621037 0.08503168
0.00054795627 0.12982062 -0.054169804 -0.16144288 -0.1463077 0.25545973 -0.17300051 -0.1507552
0.07108443 -0.25017613 0.25589812 0.094036676 0.14382778 0.15343727 0.22794956 -0.36947957
0.25600767 -0.25485098 -0.18697909 0.24234772 0.44800615 0.1791538 0.21090396 -0.047215417
0.15968636 -0.11253817 -0.091929115 0.11120312 -0.42525825 -0.06018412 0.1391067 0.009242666
-0.033707913 -0.0028113422 0.05681292 0.013233261 0.06498596 -0.01829341 -0.12942427 -0.22801958
-0.1844 0.14524454 0.15212333 -0.4587944 -0.1316343 0.20698626 -0.2921657 0.19404872
0.1274069 -0.11457992 0.017104272 -0.18348755 -0.020111805 -0.07463571 0.2288627 0.22702305
-0.08185959 0.08964334 -0.4261931 -0.21165076 0.076351695 0.004733298 0.23590681 0.011387803

linears.4.bias f4 [40]
00000000: 83ce af3c b6aa 2e3d 48d9 2ebd b5f1 9bbc
00000010: 254d 9a3d 8fbb 0abd 2a31 f43c 7980 15be
00000020: e0a4 da3c 1aba 1e3d 3640 143d 6f5c 4f3d
00000030: cda0 3dbd 3f35 243d 4997 943c 4f6d a0bc
00000040: 5fcb 56bd b05b e8bc ff01 3fbc ddd2 7d3d
00000050: 7490 3a3c fea4 733a cc51 78bd ad55 7d39
00000060: a41f 363c cd5f af3c fd96 b53c b4bd f33c
00000070: 0714 0bbd 64e9 06bd bb70 bb3c 91c7 b7bc
00000080: e308 31be cecb c2bd c872 363c d43c cbbc
00000090: 7dcd 163d 96e2 27bd 503d 503c 65d3 ff3c
0.021460777 0.04264327 -0.042687684 -0.019036153 0.075342454 -0.033870276 0.0298086 -0.1459979
0.026689947 0.0387517 0.03619405 0.05062526 -0.04629593 0.040089842 0.018138545 -0.019583372
-0.052440044 -0.028364033 -0.011658191 0.061968673 0.011386979 0.00092943 -0.060624883 0.00024159877
0.011115942 0.021407986 0.022166723 0.029753543 -0.033954646 -0.032937422 0.022880903 -0.022434028
-0.17288546 -0.09511529 0.011135764 -0.024809279 0.036817063 -0.040987574 0.012709931 0.03122873

linears.5.weight f4 [40, 40]
00000000: 9ed6 1b3d 655b 32bc e1c1 2bbe a265 853b
00000010: 7897 1a3e bacb f0bb 449d 323e a69a 503e
00000020: cd7a 703d babd f83d 45a4 0fbc 0a78 f33d
00000030: 5df1 2d3c 5797 1fbe 9de8 d43d be6e 0fbe
00000040: defb b83c eaa4 723d a8ce 16bc 7b04 f03d
00000050: f1cf 0abe 47e5 183e caf1 8e3d 1606 a5be
00000060: 476e f1bc a5e9 e3bc 2cee 47be 3603 91bd
00000070: d0d0 e7be 68a9 05be 139c 0b3e abea 87bd
00000080: 616c abbc 90a2 0ebe 21d8 68be f1a3 92be
00000090: bab6 833e ab3c 3bbe 6406 00be f4ae 78bc
000000a0: 835b 05be 7b5c 74be c9a2 cbbc 21ab 89bd
000000b0: ee6f 743e 3181 07bf 1066 3fbd 9548 22be
000000c0: bece b3be 86b4 f5bd 567a 3e3e aabf 573e
000000d0: 7dd3 b0be f2d2 753d a756 013f ce8f 153e
000000e0: d3da 87be 8fff 773e 1e31 123c 0da2 f5bc
000000f0: ead0 853d de1e 023e d163 4dbd 82c6 cbbe
00000100: 0c16 99bd 9602 1b3e bd27 203e 7286 1e3e
00000110: 4467 46bc 0bba 07bf 908c cebd 4b65 59be
00000120: aa86 443e 6b76 833d 8f83 f63d 9749 73be
00000130: 0482 213e 758e e7be 4984 383e abb0 1cbe
00000140: 8865 2b3e b766 bb39 3c54 5e3d 5dee eabd
00000150: 75d8 9fbd 0c67 0abd f69f f0bd 6a81 a7bd
00000160: 1c15 3a3e 3940 233e cbd1 f33d 04c1 d13d
00000170: 02f4 fb3c 31ce 193e ff71 31bd 83d5 703c
00000180: 3926 3b3e a463 b2be 2d11 3ebd c206 583e
00000190: 2e63 8bbe 7c39 20be 73bf fabb d17b 143e
000001a0: c2d5 243d 7d5d 393d ec5b 133e 7961 313d
000001b0: b3d3 d5bd d5e4 74ba 754a 823d 7b6d 363e
000001c0: c03e a03e ce0a 803e f591 833e 1fb9 61bc
000001d0: b197 653d 0ea7 b3bc 6231 a3bd 7deb a13d
000001e0: 749f f7bd c479 ebbd 3d45 1bbd 519d 85be
000001f0: 42eb 36be 6945 563d 4816 18bd a046 3e3e
00000200: e953 35bc e1c3 933e 167f 32bc 684a e83c
00000210: 9c0b 55be cd30 573d 0d52 833d 4ae0 e73d
00000220: ccba 333e 9efc 20bd 7b8d 48be 8814 a93e
00000230: c442 9b3d fd58 c33d b547 5e3e b24d 923e
00000240: aae4 403e 6b99 a5be f394 413e 6b84 8f3d
00000250: 76c0 16be c3ac 0abe 2197 3c3e b1b5 a63e
00000260: e151 61be 356f 8e3d e604 d0bd 0abc b7bb
00000270: 5b56 cebd ed6b 9fbd 0ed3 3f3c 80ce a9bc
00000280: 8c1b adbd d875 af3d b9ff bfbe 2146 95bd
00000290: c4c0 8a3e 95c3 34bb 085f 06be 4e1e b63d
000002a0: 77c8 a03d 9a34 3e3d 7c72 b93d f377 90bc
000002b0: 86fa 983d 6af1 4d3e aadf 27bc 9c8a 56be
000002c0: e7a4 6fbe 310c 95be 6c84 dfbd e3ca 073e
000002d0: 236c 4b3e 881e bf3d f670 e3be b613 e2bc
000002e0: 76c2 103e 5dec e43c 2c6e 623d 3a2c eabd
000002f0: 2fed 9a3d 9665 353d d2cc da3d 5e84 73bd
00000300: 0a5b b5be c442 1dbd f05c d53d c33e 13be
00000310: 207b ecbd 55ef c93d bfda 23be b3aa 79bd
00000320: a96c 393e c97c b2bc 5e68 013e 66c8 ec3d
00000330: 0356 733e b6e2 1ebe 5dbf 163d 59af d63e
00000340: a604 ffbd 9293 5bbe e9b2 563e 5cd4 26be
00000350: 01c6 ec3d 5c2d 00be 76e1 813e 28f3 c7bd
00000360: c02c 5b3e e858 88bd a5ca 113e bca4 3c3d
00000370: 0a99 89bc 21ff a3bd ca61 b23d a0cb 113d
00000380: 2c0f 57be c96f 84bd 1c71 cdbc 86fa 79bc
00000390: e6a1 2e3d 1e0a b33d d43a 93be 328d 543e
000003a0: 66e9 0bbd 2c11 1dbe 097d 513e 852b 803e
000003b0: de69 49be 3cc3 803e 646d 8dbd c339 b0bd
000003c0: a725 a9be 4bcc c43c 986d 683e 0eb7 943c
000003d0: 854d 843d 1112 a1be e772 6f3d f8c4 7fbe
000003e0: 3ebf 31be 1f33 9c3e 4e90 c03d 5641 203e
000003f0: 33c5 073e f24a 1ebe 9b67 70be bb77 9bbd
0.03804647 -0.010886048 -0.16773178 0.0040709535 0.15096843 -0.007348505 0.17442805 0.20371494
0.058710862 0.121455625 -0.008767192 0.1188813 0.0106166275 -0.15585075 0.1039593 -0.14007089
0.022581037 0.059239306 -0.009204544 0.117196046 -0.13555886 0.14931212 0.06979711 -0.32231206
-0.02947153 -0.027821371 -0.19524449 -0.070806906 -0.452765 -0.13052905 0.13633756 -0.06636556
-0.020925703 -0.139292 -0.22738697 -0.28640702 0.25725347 -0.18284862 -0.12502438 -0.015178431
-0.1302319 -0.23863403 -0.024857895 -0.067220934 0.23870823 -0.52931505 -0.046728194 -0.15848
-0.3511867 -0.11997323 0.18601355 0.21069208 -0.34536353 0.060015626 0.50522846 0.14605638
-0.26534137 0.24218582 0.008922843 -0.029984498 0.06533988 0.12707087 -0.05014402 -0.39799887
-0.07474908 0.15137705 0.15640159 0.15480974 -0.012109581 -0.53018254 -0.10085404 -0.21230046
0.19191995 0.06419071 0.120368116 -0.23758541 0.15772253 -0.45225874 0.18019213 -0.15301768
0.1673795 0.00035743948 0.05427955 -0.114712454 -0.07804958 -0.03378968 -0.1174926 -0.08178981
0.18172115 0.15942468 0.11905249 0.10241893 0.030756 0.15020062 -0.043321606 0.014699343
0.182763 -0.34841645 -0.0464031 0.21096328 -0.27224106 -0.15646929 -0.007652217 0.14500357
0.040242918 0.045255173 0.14390534 0.043305848 -0.10440769 -0.000934196 0.06361858 0.17815201
0.31297874 0.25008243 0.25697294 -0.013777046 0.056052867 -0.021930244 -0.079684034 0.07906244
-0.1209096 -0.11497834 -0.037907828 -0.26096585 -0.17863181 0.05231229 -0.037130624 0.18581629
-0.011067369 0.2886038 -0.010894557 0.028355792 -0.2080521 0.052536774 0.06412134 0.113220766
0.17551726 -0.039303415 -0.1958522 0.33023477 0.07581094 0.095384575 0.21707042 0.28574902
0.18837228 -0.3234361 0.18904476 0.070076786 -0.14721856 -0.13542466 0.18417026 0.32560495
-0.2200389 0.06954805 -0.10157184 -0.005607133 -0.10075065 -0.07784257 0.011708034 -0.02072835
-0.0845252 0.08567399 -0.37499788 -0.07288767 0.27100194 -0.0027582396 -0.13122189 0.08892499
0.07850736 0.046436884 0.09055039 -0.017635321 0.074696586 0.20111623 -0.010246197 -0.20951313
-0.23402749 -0.29110864 -0.10913929 0.13260989 0.1986547 0.09331995 -0.4442212 -0.02759729
0.14136681 0.027944738 0.05528085 -0.11434217 0.075647704 0.044286333 0.106835976 -0.059452407
-0.3542102 -0.03839375 0.10418117 -0.1437941 -0.11546922 0.09860102 -0.16001414 -0.060953807
0.18107857 -0.021788018 0.12637469 0.115616605 0.2376328 -0.15516171 0.036803592 0.41930655
-0.124520585 -0.21443012 0.20966686 -0.16291946 0.11561204 -0.12517303 0.25367326 -0.09763175
0.2140379 -0.066575825 0.14237459 0.04605554 -0.016796608 -0.08007646 0.08710058 0.035594583
-0.21001881 -0.06466634 -0.025078349 -0.015257483 0.042634867 0.08742164 -0.2875582 0.20756987
-0.034158133 -0.15338582 0.20457853 0.25033203 -0.19669291 0.25148952 -0.0690563 -0.08604767
-0.3303654 0.024023196 0.22698057 0.018153694 0.06460098 -0.31459096 0.05845919 -0.24977481
-0.1735811 0.30507752 0.09402524 0.15649924 0.1325882 -0.15458277 -0.23477022 -0.07591196

linears.5.bias f4 [40]
00000000: c5a6 69bd 553d b73c 1045 57bd 442f 89bd
00000010: ea21 5c3c e0c4 94bd 43ce 98bc 596a bc3c
00000020: 9c2f 583d 5434 c7bd cb1f c6bc 7d96 07bd
00000030: cd07 a5bd 4d63 09bc 3b53 323d fca7 cdbc
00000040: 5956 9f3d e352 f1bc 463e 503d 6c9b 0ebd
00000050: bc2f 92bd 3a25 cfbd bd65 1abd e2d6 603d
00000060: 8571 783d b3fa 473d 11ec 80bd 5230 8a3d
00000070: 3421 7f3d f8b8 11bd 123b 873d e681 dbbc
00000080: a4c9 57bd 6698 6dbd c4b2 48bd 0ca0 8b3d
00000090: c182 61bd bbcc 383d e7ce 63bd 276c 903d
-0.05704381 0.022368113 -0.052556098 -0.06698468 0.01343582 -0.072641134 -0.01865304 0.02299993
0.05277978 -0.09726778 -0.024185082 -0.0331025 -0.080581285 -0.008385492 0.043536406 -0.025104515
0.077801414 -0.029458469 0.05084064 -0.03481619 -0.07138011 -0.10114522 -0.03769468 0.05489243
0.060655136 0.04882307 -0.06295026 0.067474976 0.062287524 -0.03557679 0.06603064 -0.026795339
-0.052682534 -0.058006667 -0.04899861 0.06817636 -0.055056337 0.04511712 -0.05561724 0.070518784

linears.6.weight f4 [1, 40]
00000000: a498 473d 9b26 c3be e5fc 553c b69a ca3d
00000010: d280 11be fcc4 5b3e 1d1d 733e 2f54 82be
00000020: 01b4 12bc 1fac 483d c093 763e fb5c 1b3e
00000030: 498f 923e aedc 3c3f 0cbb 7bbe 5be5 823e
00000040: 0bc1 aabe a50d 023e 8210 afbe 4759 573c
00000050: 727d e03d e2cc 033e 9d8e 1e3d f79d bdbe
00000060: 4b95 15be c2b6 c5bd 2b8c c03d 23b6 38be
00000070: 6504 5fbe bc2b 043e 893a a7be a8b5 f03d
00000080: 0675 693e b647 143d 3597 d33d d1ad 41be
00000090: 6f56 4f3d 7458 03be f187 643d b7c9 c0be
0.048729554 -0.3811539 0.013060783 0.0989279 -0.14209297 0.21461862 0.23741575 -0.25454852
-0.008954049 0.048992272 0.240798 0.15172188 0.28624943 0.7377423 -0.24583071 0.2556561
-0.33350405 0.12700517 -0.34192282 0.013143844 0.10961427 0.12871125 0.038710225 -0.3703458
-0.14607732 -0.09653999 0.09401735 -0.1803823 -0.2177902 0.12907308 -0.32661846 0.11753398
0.22798547 0.0362012 0.10331575 -0.18913962 0.05061954 -0.12826711 0.055793706 -0.37653896

exp_avg f4 [40, 2]
00000000: b679 26ba 4c50 b6b7 c38a 8338 fe08 34b9
00000010: 7c8c 003a 3718 62b8 6498 7eba 91b5 a3b9
00000020: 3fa9 9638 f092 e1b8 9ecf 0aba 8449 de37
00000030: f8a2 cf38 3e1b 2339 9392 2939 75d5 d039
00000040: 1a19 f638 3373 75b9 44dd 813a 2b94 ee39
00000050: 69d7 fdb9 6cda 9c38 6e03 f739 90c9 7a39
00000060: 0405 fbb9 425e a6b9 db21 e1b9 1445 99b9
00000070: eb96 afb9 e333 b4b8 eedb d239 7936 9739
00000080: 9b89 913a a5dd 073a 0e17 d238 5952 07b9
00000090: 45c8 f8b9 e836 8fb9 b913 f438 9472 21b9
000000a0: 131f 37ba c4ee 83b8 ab67 b8b9 aa19 ec38
000000b0: 53af 96b9 be61 7fb9 8837 beb8 d3eb a8b8
000000c0: 97e6 2cba f09f 66b9 84d3 3bb9 e353 cf38
000000d0: bfac d639 5b16 3b39 cf75 cab9 7bfd 8bb8
000000e0: 58a0 f2b8 1c7b 3fb9 e2f0 74ba 2dc0 d038
000000f0: d1a1 4aba c970 12b9 b765 2bba 288d b1b9
00000100: bf73 86ba 8035 d2b9 7ce7 b4b9 2f8d 0bb9
00000110: 2256 17b8 3d9d 0637 2dda 6e3a 311c a738
00000120: 1fbb 0b3a 8b9d 6b39 8454 613a 004f 3139
00000130: 383a 0bba 229d 3bb9 aa4f a138 537d 8e37
-0.0006350534 -2.1733482e-05 6.272413e-05 -0.00017169488 0.00049037463 -5.390515e-05 -0.0009712039 -0.0003122506
7.184082e-05 -0.00010756205 -0.00052952196 2.6498696e-05 9.9008845e-05 0.0001555504 0.00016171699 0.0003983189
0.000117348696 -0.00023407936 0.0009907861 0.0004550529 -0.00048416413 7.479344e-05 0.00047114067 0.00023916946
-0.00047878188 -0.00031732215 -0.00042940569 -0.000292339 -0.00033491044 -8.5927335e-05 0.00040218182 0.0002884155
0.0011103632 0.0005182869 0.000100178746 -0.0001290528 -0.00047451459 -0.00027315994 0.000116385 -0.0001539684
-0.00069855264 -6.29104e-05 -0.00035172453 0.00011258137 -0.00028740856 -0.00024355107 -9.0702495e-05 -8.05479e-05
-0.000659564 -0.0002199409 -0.00017912505 9.886154e-05 0.00040945967 0.00017842038 -0.00038616217 -6.675251e-05
-0.000115693256 -0.00018261041 -0.00093437557 9.9540084e-05 -0.0007729801 -0.00013965661 -0.0006538289 -0.0003386524
-0.0010257884 -0.00040094182 -0.00034504745 -0.00013308668 -3.6081423e-05 8.023632e-06 0.000911149 7.9684316e-05
0.00053303124 0.00022470036 0.00085956627 0.00016909465 -0.00053111045 -0.00017892246 7.691917e-05 1.6986078e-05

exp_avg_sq f4 [40, 2]
00000000: d22e 1f3a 7f82 3a36 bff8 9b36 f6f1 2838
00000010: 407d e539 2d37 3f35 5751 c43a 19a8 1f39
00000020: 0bf7 5337 5ea8 bb37 bdb7 ee39 c943 1737
00000030: a946 9b37 4bd2 a737 f8d2 7738 beea 9239
00000040: ff50 b937 daa0 ac38 f869 c53a 9b99 a139
00000050: 10d7 cf39 67d1 8e36 9a83 ad39 b9de a238
00000060: 6730 c639 1db8 0339 f843 b139 9f76 1039
00000070: d467 3b39 fd2f b137 c816 8d39 a795 0739
00000080: a502 f83a 1ec5 e139 cd2e 8737 1fd8 7537
00000090: 169e a039 32e4 c538 28ad c637 688d e237
000000a0: 486b 4d3a cd7b c436 3f8f 3a39 4e5e 5e37
000000b0: 34bd 0e39 8f50 b738 b569 9337 56a7 5037
000000c0: 2603 223a e0ea 6438 bf1e 7338 46bf f836
000000d0: 74cb 9a39 1eb2 4138 4609 b539 9890 5638
000000e0: e70d 1738 02a3 7838 f080 c63a 92bc 4036
000000f0: 9722 843a c800 ff37 b205 253a 0e21 2e39
00000100: fd2b c93a 4dc0 2339 bcbb 5139 6a1b 0538
00000110: 1894 6536 40c1 7334 6dfe ab3a e060 0337
00000120: 6a09 0d3a f6ce 1339 a799 9a3a 19ff 2d38
00000130: 4446 cb39 c21e 1438 a406 8137 23fd 0136
0.00060723454 2.7792119e-06 4.648318e-06 4.0279665e-05 0.00043771602 7.1233336e-07 0.0014977854 0.00015226043
1.2634099e-05 2.237054e-05 0.00045531793 9.016084e-06 1.8510344e-05 2.0005877e-05 5.908587e-05 0.00028022187
2.2091435e-05 8.23156e-05 0.0015061488 0.00030822758 0.0003964235 4.2563074e-06 0.00033095182 7.766247e-05
0.00037801565 0.00012561721 0.00033810711 0.000137771 0.00017872389 2.112239e-05 0.0002691059 0.00012930353
0.0018921687 0.00043062208 1.6115047e-05 1.4653458e-05 0.0003063536 9.436197e-05 2.3684071e-05 2.7007147e-05
0.00078361155 5.8556675e-06 0.00017791706 1.3254188e-05 0.00013612659 8.741125e-05 1.757299e-05 1.2436727e-05
0.0006180279 5.457818e-05 5.796435e-05 7.413243e-06 0.00029524753 4.618067e-05 0.0003452992 5.115624e-05
3.6014153e-05 5.927962e-05 0.0015144628 2.8719992e-06 0.0010081109 3.0398733e-05 0.0006295099 0.00016606247
0.0015348193 0.00015616529 0.0002000173 3.1735202e-05 3.420986e-06 2.2701443e-07 0.001312209 7.830764e-06
0.0005380126 0.00014096111 0.001179506 4.1483992e-05 0.0003877153 3.5314595e-05 1.538109e-05 1.9369843e-06

exp_avg f4 [40]
00000000: 2dbf 9836 cef3 bcb9 56e3 f7b8 7b97 2bba
00000010: fb6f 89b9 3891 8839 6425 b339 9e0d 623a
00000020: 7b91 fab9 5f97 743a 9e47 8e39 8451 063a
00000030: 10ee 21ba 48cf 27ba 7336 44b9 562f 113a
00000040: 51cb 813a 9d36 a2b9 c667 04ba 6cbc c7b9
00000050: 350c 94b8 5f7d 9039 0d4c 0eba b4ed 6cb9
00000060: baf0 d9b9 f1d5 4439 6cbf c039 2964 b2b9
00000070: 9d56 cbb9 da59 ad38 3926 7db9 aaef 29ba
00000080: a012 33ba 9e6a c8b9 d54e 1538 4d7f 7438
00000090: a66d 1a3a 86b4 8f39 6bf5 9db9 5778 6f38
4.552209e-06 -0.00036039803 -0.000118202224 -0.00065457047 -0.00026214108 0.00026048138 0.000341694 0.0008623245
-0.00047792107 0.00093304174 0.0002713771 0.0005123841 -0.00061771367 -0.0006401432 -0.000187123 0.00055383646
0.0009902512 -0.00030939738 -0.0005050864 -0.00038096623 -7.059464e-05 0.0002755923 -0.00054282026 -0.00022595265
-0.0004156882 0.00018771716 0.00036763714 -0.0003402543 -0.0003878371 8.266019e-05 -0.00024142199 -0.0006482551
-0.00068310834 -0.0003822641 3.5597786e-05 5.829269e-05 0.00058909727 0.00027409586 -0.00030128224 5.7094116e-05

exp_avg_sq f4 [40]
00000000: b683 6537 dc58 4439 8698 d736 4fdb 693a
00000010: fd8a b238 670d 7f38 8c2c 5839 afc6 9d3a
00000020: b056 ac39 da4d d53a f535 5f38 9504 fb39
00000030: fdf9 303a 0455 4a3a a5b0 a938 9114 133a
00000040: 77ab fa3a 5507 1039 912f f139 d884 3539
00000050: deda 4f38 a1e6 b938 7d3c 023a 19dd 9738
00000060: 14ec 9f39 d413 4b38 d6aa 9739 25ca ba39
00000070: 6998 9539 464f 8337 4956 3239 1fb3 423a
00000080: 113a 6a3a 26da 8339 470e 8c36 6e30 3938
00000090: b354 3c3a abb6 7139 2a19 3039 b0d2 3337
1.368013e-05 0.0001872512 6.4252554e-06 0.0008920924 8.51359e-05 6.080922e-05 0.0002061596 0.0012037362
0.00032870984 0.0016273812 5.3217595e-05 0.00047877865 0.00067511183 0.0007718357 8.0914506e-05 0.00056106696
0.0019124587 0.00013735642 0.00046002542 0.00017310993 4.9556482e-05 8.8644454e-05 0.000496812 7.241424e-05
0.00030502735 4.8417438e-05 0.00028928247 0.00035627294 0.0002853305 1.5653332e-05 0.00017007547 0.0007427204
0.0008935044 0.000251488 4.1739872e-06 4.415254e-05 0.0007184252 0.000230516 0.00016794042 1.0718286e-05
