pdebench/models/newly_trained_models1D_Advection_Sols_beta0.1_PINN.pt-10000.pt (torch, 120453 bytes, 39 tensors)

linears.0.weight f4 [40, 2]
000000 5c 48 5a bc cf d0 3b 3e 39 d6 ec bd ae 11 18 bd
       -0.013322916 0.18341373 -0.11564297 -0.037126236
000010 2c ee 2d 3f c2 d2 a8 3e 00 42 65 be 98 dc c3 bd
       0.67941546 0.32973295 -0.22388458 -0.09563559
000020 05 06 a6 3e cd 00 14 bd 7d 11 45 3e dd db b9 bd
       0.32426468 -0.036133576 0.19244952 -0.09075139
000030 aa 69 2c 3d c2 d9 db be 4a 45 79 3d 60 96 55 be
       0.042092957 -0.42939574 0.060857095 -0.20858145
000040 7c da 8c be ac fb ba be 98 f5 e7 3e 51 b4 3f 3e
       -0.2751044 -0.36520135 0.4530456 0.18721129
000050 b5 5e 9d 3d 44 a4 f4 3d 34 be 3c be ba 11 73 3e
       0.076840796 0.11945394 -0.18431932 0.23737231
000060 09 bc a5 3e 14 86 3e bd df 8c 73 3d 17 66 8e be
       0.32370022 -0.046514586 0.059460517 -0.27812263
000070 a7 0c ce bd e1 c9 b8 be bf 2d a5 be 5c f0 87 3d
       -0.10061007 -0.3609152 -0.32261464 0.06637642
000080 5b 1b 6c 3e c0 bd af bd 2e f4 f7 bd 85 a1 07 3c
       0.2305731 -0.08581114 -0.121071205 0.008278255
000090 4b d5 47 3e 5c fd c3 3e 38 ff 27 be c1 f8 80 3e
       0.19514959 0.38279235 -0.16405952 0.25189784
0000a0 3f e8 72 3e 93 f0 c3 be e2 dd 20 be f3 57 e4 bd
       0.23721407 -0.3826948 -0.15709642 -0.111495875
0000b0 57 a6 f2 be 45 2b 3c 3c 27 80 6f 3e 3f 69 d7 3d
       -0.47392532 0.011484926 0.2338873 0.10518121
0000c0 f5 a5 b0 bd e5 79 c1 be 2e 82 70 3e ca a6 b8 be
       -0.08625404 -0.3778831 0.2348716 -0.3606475
0000d0 3f 0a 4f 3d 9c d5 16 3d 27 8b f8 3b be e6 93 be
       0.05054688 0.036824808 0.0075849476 -0.2888698
0000e0 22 63 3f 3d ff 55 e5 3d ef b5 53 bd 11 5c 12 3e
       0.0467254 0.11198043 -0.051687177 0.14292933
0000f0 a9 52 89 3e 8f e8 80 3e e2 5c 31 3e a0 b2 0e be
       0.26820877 0.25177428 0.17320588 -0.13935328
000100 55 7d de be a2 5d 56 bd 2e 6d 88 be ec 64 0d bf
       -0.43454996 -0.05233539 -0.26645797 -0.5523212
000110 7f 27 87 be ad 82 21 be f9 73 a7 3d e4 9e a6 bd
       -0.2639732 -0.15772505 0.08176417 -0.08135775
000120 04 52 3b 3c 97 14 b5 3e 18 b2 21 3e f1 4c 82 3d
       0.011433128 0.3536727 0.15790594 0.06362332
000130 96 3a 98 3e de e7 a0 3d 10 0c 0a be 54 2e 85 be
       0.29732198 0.07856725 -0.13481164 -0.26011908

linears.0.bias f4 [40]
000000 ee 71 88 bd 87 9f 9d 3d a5 f0 ab 3d 49 5a 3f bd
       -0.06662355 0.07696443 0.08395509 -0.046716962
000010 6c 11 90 bc ad ab 34 3d 17 65 9a 3d 6f fc 64 3d
       -0.017586432 0.044109035 0.075388126 0.055904802
000020 b8 92 80 3d 06 48 17 3c e7 e2 0a 3e 1a 15 e9 3c
       0.062779844 0.00923348 0.13563119 0.028452445
000030 9c 6f 34 3c 97 29 6b 3d 6c cf e6 3d 25 e5 82 3d
       0.011012938 0.05741271 0.11270031 0.06391362
000040 c9 58 52 bd 2f 2f a8 3d e2 25 a9 3d d5 0a e3 bc
       -0.051354203 0.082121246 0.08259179 -0.027715126
000050 1f c5 00 3d ca 15 09 3d 62 7f a3 3d dd 2e 82 3d
       0.03143799 0.033468045 0.07983281 0.06356595
000060 f7 fc 5b bd 0e 3e 90 bd c1 e5 36 bd 59 0e 73 bd
       -0.053708043 -0.07043086 -0.044652704 -0.059339855
000070 29 32 49 3d 0f 61 b8 3d 8a 0a d5 bd 88 a4 87 bd
       0.049120102 0.090028875 -0.10402401 -0.06623179
000080 d3 8f bf bc 09 3f 32 3d ab 90 b3 bc 01 39 b2 bd
       -0.02338401 0.043517146 -0.021919569 -0.08702279
000090 2e f5 1b be ae f9 88 bd 8c 6e cf bd 4e 5a 90 3d
       -0.15230247 -0.066882476 -0.10128507 0.07048474

linears.1.weight f4 [40, 40]
000000 8f 26 83 be 30 a7 37 be c6 51 03 3e 98 06 89 be
       -0.25615355 -0.1793487 0.12824163 -0.26762843
000010 04 ac eb bd 69 c9 b5 be 24 b5 53 3e 62 91 0f bd
       -0.11507419 -0.35505226 0.20674568 -0.035050757
000020 c8 78 51 3e 37 63 d8 bd 88 59 88 be 63 94 cc 3d
       0.2045623 -0.10565799 -0.26630807 0.0998924
000030 20 24 e3 bc 7f b6 1b bd 1b 8d 29 3d 1e 41 13 3e
       -0.027727187 -0.03801584 0.041394334 0.14380309
000040 57 41 ad be 66 56 6a 3e 45 ef 19 bd 82 30 37 3d
       -0.33838913 0.22884521 -0.0375817 0.044723995
000050 83 92 c9 bd 5e 88 bf bd 74 1c 9e bc 21 cc 9c 3e
       -0.09842398 -0.09352182 -0.019300677 0.30624488
000060 d8 09 cd 3c 82 8e bc bd 08 36 0a be 4e 99 09 3e
       0.025029108 -0.09206869 -0.13497174 0.13437387
000070 64 2e 54 3e 35 dc fe 3d 9f fe f4 bd 04 e6 cc bd
       0.20720822 0.12444345 -0.119626276 -0.100048095
000080 a0 2b c2 bd 17 dc 6b 3d d1 46 ac 3e d9 e8 94 3a
       -0.09480977 0.05758294 0.3364778 0.0011360898
000090 ea e4 d8 3d 46 07 2a be 74 fb 7a bd 10 33 1d 3e
       0.10590537 -0.16604337 -0.06127496 0.1535151
0000a0 e1 e7 df bd 77 86 1a 3e 1c 15 3a bd d9 bf 08 be
       -0.10932899 0.15090357 -0.045430288 -0.13354434
0000b0 d1 7d c1 bd 5b 33 09 3e 56 e6 6f bc af 38 80 3e
       -0.09447826 0.13398497 -0.014642319 0.25043246
0000c0 c5 b1 d2 bd e9 10 db 3d cf ec 84 3e a0 3e 07 3e
       -0.10287813 0.10696585 0.2596192 0.13207483
0000d0 74 03 62 3e 76 63 4e 3d 22 fb 2c bd 8b cc 3f bd
       0.2207163 0.050387822 -0.042231686 -0.046825927
0000e0 b8 64 54 3e b4 53 3d 3e e5 8a 9f bd 4b 54 f8 bd
       0.20741546 0.18488961 -0.07790164 -0.121254526
0000f0 95 2f 2f bc 14 4e b9 3c c3 00 c4 bc e1 43 fc bd
       -0.010692497 0.022620238 -0.023926144 -0.123176344
000100 9f ed 98 be 66 07 25 3e 96 bf f4 bd 76 6b 28 be
       -0.2986879 0.16116104 -0.119506046 -0.16447243
000110 58 da a7 bd 09 7a 77 3d 28 4d e9 bc eb 94 e4 3d
       -0.08195943 0.060419116 -0.028479174 0.11161216
000120 dc 40 c2 be 77 2c 5a be c1 26 62 be f8 ec 4f be
       -0.3794011 -0.21306024 -0.22085096 -0.2030524
000130 77 64 b6 bd a3 3c 44 be cb 66 6a bd d0 15 2a 3e
       -0.08905881 -0.19163756 -0.057226937 0.16609883
000140 93 18 03 be f8 14 b1 bd 78 54 5a 3e e3 cd a8 bd
       -0.12802343 -0.086465776 0.21321285 -0.08242395
000150 d9 69 28 bc 62 53 ca 3c 69 86 36 3e e4 7b 23 bd
       -0.010279142 0.024697963 0.17824711 -0.039913073
000160 00 00 2c 3e 6b f0 55 3e e8 52 7e bd ad ec 47 ba
       0.16796875 0.20892493 -0.062090784 -0.0007626515
000170 6f 9c 19 3e 8d d4 74 3e 4f 59 c9 3c 19 8e 01 be
       0.15001081 0.23909207 0.024578718 -0.12651862
000180 3e 77 8e bc a8 c6 cb 3e 9f 00 53 3e 3a a8 b9 bd
       -0.017390843 0.398 0.20605706 -0.0906529
000190 cb a7 58 be 66 94 b7 3e 7b f0 9d 3e 10 a7 87 3e
       -0.21157758 0.35855407 0.30847535 0.26494646
0001a0 bb 53 5b 3d 90 a8 bb be 74 76 a1 3d fa 9d c2 bd
       0.05354665 -0.3665204 0.07883921 -0.09502788
0001b0 d6 11 7b bd e8 b0 5b be 49 7f 2c be 18 09 19 3e
       -0.061296307 -0.21454203 -0.1684543 0.14944875
0001c0 b5 3b 09 bd 70 8e f1 bd cb 91 bf bd 47 2d ce bd
       -0.033504207 -0.11794746 -0.0935398 -0.1006723
0001d0 a5 b6 69 3e 4d 67 80 3d 60 14 57 be bd 03 b6 3d
       0.2282358 0.06269703 -0.21003866 0.08887432
0001e0 06 65 aa 3c 9e 1d 05 3e 40 cd dd 3c f6 68 59 be
       0.020800125 0.1299958 0.02707541 -0.21231446
0001f0 99 2a e4 3d d6 20 e2 bd 77 f2 8b 3d 89 af 5d be
       0.11140937 -0.11041419 0.06833356 -0.21648993
000200 7b 59 ba 3e 0d 6a c4 3d b2 3d 95 3d 84 49 08 3e
       0.36396393 0.0959054 0.07287158 0.13309294
000210 3c c2 e7 bd 90 d9 39 3e 65 8e 83 3e b7 ea 75 3e
       -0.11316344 0.181494 0.25694576 0.24015318
000220 5d 84 db be c1 f6 b1 3d 99 91 82 3e f6 06 58 3e
       -0.42874423 0.08689643 0.25501707 0.21096405
000230 99 a6 1d 3d 3d 51 e3 bd a7 28 7b 3e 99 99 cf bd
       0.038488958 -0.11099479 0.24527226 -0.10136718
000240 28 1e c4 bc fe f7 5f be a7 fa eb bd f0 28 2b be
       -0.02394016 -0.21871945 -0.115224175 -0.16714835
000250 e9 d6 6b 3d d0 4f 34 3e a6 60 23 3b 6e f9 5f bd
       0.057578 0.17608571 0.0024929433 -0.054681234
000260 ac 78 ed 3d 9c 61 bc bd fd ac 5c 3e 9e 2e 53 bd
       0.11595282 -0.09198305 0.21550365 -0.05155813
000270 c4 3c fd be ff 39 45 be 11 fe 46 be 4a 84 72 bd
       -0.49460423 -0.19260405 -0.19432856 -0.059208192
000280 b9 4f 16 3e c2 70 a6 3b 1b ab 3c b9 af b6 a5 3e
       0.1467885 0.0050793597 -0.00017992819 0.3236594
000290 80 d4 b0 be 79 ff 98 bc fe 89 16 be 5b 19 5a bd
       -0.34537125 -0.018676506 -0.14701077 -0.053246837
0002a0 45 6e 79 be 78 3f 0c be 91 25 06 be d4 d9 3a be
       -0.2435847 -0.13696086 -0.13100268 -0.18247157
0002b0 db 59 99 be ce 9e a0 3d ee 64 39 be 2d 0b 17 be
       -0.29951367 0.078427896 -0.18104908 -0.14750357
0002c0 0b 7a 39 bd 21 07 5b bd e1 88 c3 3d 49 73 67 3e
       -0.045282405 -0.053473596 0.09547592 0.22602572
0002d0 ea b8 a4 3c 90 af 01 be 1e 51 f2 3c 0d 80 1e be
       0.020107705 -0.12664628 0.029579695 -0.15478535
0002e0 e3 90 dc bd 80 ef 4b 3e 1f 11 93 bd d4 9b 08 bd
       -0.107698224 0.19915581 -0.07181 -0.033351734
0002f0 cb 0f 03 3e d1 7b 13 3d 47 74 9a 3e d0 71 2a be
       0.12798993 0.036006752 0.30166838 -0.16644979
000300 de 21 0f 3d 36 fe 8e be fc 97 1f 3c bd a9 55 bc
       0.034944408 -0.27928323 0.009740826 -0.013040957
000310 e3 c0 26 bd e9 c1 97 3d d2 e8 97 bd e8 14 69 3d
       -0.040711295 0.07410032 -0.07417454 0.056904703
000320 2b 50 cb bd 27 50 f6 3d 67 bb fc 3d 36 d7 ca 3b
       -0.099274 0.120270066 0.12340432 0.006190206
000330 11 36 cb bd 18 c4 10 3d dc a4 12 3e 37 aa 1e 3e
       -0.09922422 0.03534326 0.14320701 0.1549462
000340 a4 f5 2c be c2 8d 76 bd 82 e1 98 3e 42 0b 91 3e
       -0.1689058 -0.060193785 0.2985955 0.28328902
000350 06 06 d1 bc 5a c7 9d 3e ba 0c 08 3d de 8c a9 3e
       -0.025515568 0.30816156 0.033215262 0.33115286
000360 ca ef e5 bc 52 dc 9a bd b6 41 9f bd 2b b3 2d 3e
       -0.028068442 -0.07561554 -0.07776205 0.16962878
000370 c7 78 98 be 6f cb 7d 3e a6 e5 97 3e ef d9 3b 3e
       -0.29779646 0.24784635 0.29667395 0.18344854
000380 cd ad f5 bd 7b 12 c4 3e bf 31 36 3d 06 74 1e 3e
       -0.119960405 0.3829535 0.044481035 0.15473947
000390 79 77 57 3e 8e 0b 02 3e 85 8a 4d bd ac 6e 81 be
       0.21041669 0.1269972 -0.05018093 -0.25279748
0003a0 4d d4 b2 3e 13 ff 8f 3d d3 69 08 bc e6 30 9c be
       0.34927598 0.070310734 -0.008326012 -0.30506057
0003b0 ce d3 f2 bd 92 46 21 be d3 fc 9f bd 83 08 92 bd
       -0.11856805 -0.15749577 -0.07811894 -0.0713053
0003c0 87 49 f4 bc a8 57 04 be 0c 12 df bd b5 75 99 3e
       -0.029820217 -0.12924063 -0.10892114 0.29972616
0003d0 76 08 cd 3e 12 42 88 3c 7f b3 ba bd c5 da 08 be
       0.40045518 0.016633067 -0.091162674 -0.13364704
0003e0 32 b8 24 be 1a 1d b5 3e d2 0c d7 3d 34 27 de bd
       -0.1608589 0.35373765 0.10500492 -0.10847321
0003f0 dd f5 23 bd 25 04 08 be 5c a8 04 3d 9e c6 5b bd
       -0.040029395 -0.13282831 0.032387123 -0.053656213

linears.1.bias f4 [40]
000000 03 f3 8a 3d 66 59 bb 3d db cc 2f 3d f0 0a f6 3d
       0.06784632 0.09147911 0.042919975 0.12013805
000010 25 1f 2b bd 26 4a 76 3d 4f 50 b7 3d 10 cb 8c bd
       -0.04177775 0.060129307 0.089508645 -0.068746686
000020 14 49 f6 3d 6c 3a 9b 3d bc 57 b1 3d 2e 33 71 bd
       0.12025657 0.075795025 0.08659312 -0.0588867
000030 91 54 36 bd ad 1f 59 3d fd 09 1f ba 97 56 7f bc
       -0.044514243 0.053008724 -0.0006066857 -0.0155846095
000040 1b 40 92 3d 30 5e 9c 3c f0 82 ab 3d 53 e5 2c bd
       0.071411334 0.01908788 0.08374584 -0.042210888
000050 8d d2 9f bc d6 70 82 bd ee e6 78 3d d6 b3 16 bd
       -0.019509578 -0.06369178 0.060767107 -0.0367926
000060 6e 54 f0 3c 06 22 37 3d 70 71 aa bd 6d 54 81 3d
       0.029337134 0.04471018 -0.08322418 0.06314931
000070 8c 78 5b 3d 9e 3f c5 3d 1a dd 31 3d c7 c7 47 bd
       0.05358176 0.09631275 0.04342375 -0.048774507
000080 be a7 7c 3d 9c e7 8f bd 36 4f 22 3c bd 29 12 3c
       0.06168341 -0.07026598 0.009906581 0.008921084
000090 49 8a 60 3d 2c 86 33 bd ec 57 40 bd 37 f6 22 bd
       0.05481938 -0.04382913 -0.04695885 -0.03978559

linears.2.weight f4 [40, 40]
000000 7f 4b 3f be 37 49 09 be de ce 39 3c 34 f4 b6 3c
       -0.18681143 -0.13406835 0.011340825 0.022333242
000010 35 2a 0a be 67 c8 26 be f9 21 94 3d 76 4d 55 3e
       -0.13492663 -0.16287385 0.07233042 0.2083033
000020 ad 93 22 3c 12 8a 04 3e 43 20 3a be 55 03 a1 3e
       0.009922904 0.12943295 -0.1817637 0.31447855
000030 a0 12 4e 3d eb 58 96 bd 7c f8 e2 bd 98 94 fc bd
       0.05031073 -0.073411785 -0.11082551 -0.123330295
000040 3f db 91 be 53 e3 5e be 42 cf 9b be 82 4b 97 bd
       -0.28487584 -0.21766405 -0.30431563 -0.07387449
000050 1b 50 5e 3e f4 c8 0f be 90 79 4d 3d f6 48 f0 3d
       0.21710245 -0.14041501 0.05016476 0.11732666
000060 43 47 52 be 47 4e 84 3c 06 bc 5b 3e a4 e5 4f bd
       -0.20534997 0.016150607 0.21458444 -0.05075611
000070 7f bb 78 be c1 08 25 3d 98 eb a1 bc a0 33 04 3e
       -0.24290274 0.04029155 -0.01976566 0.12910318
000080 5c 7a 59 bd c6 04 ea 3e 84 a8 87 3e 51 1b 18 3d
       -0.053095207 0.45706767 0.26495755 0.037135426
000090 2d 2b db bd 1b 8d dd 3c 64 c4 02 be 09 55 90 3e
       -0.107015945 0.027044823 -0.1277023 0.28189877
0000a0 c4 2a 06 3e 5e c8 2b bc 04 9e 5a 3d 0a 5c 50 be
       0.13102251 -0.010484783 0.05337335 -0.2034761
0000b0 0f 1a 01 be 00 38 a5 be 82 20 a2 3d c5 c4 74 3e
       -0.12607597 -0.32269287 0.079163566 0.23903187
0000c0 d2 bc 13 3e 99 2a bf 3d 23 f6 25 be 38 7a cb bc
       0.14427498 0.09334297 -0.16207175 -0.024838552
0000d0 d3 7c c8 bd fe 69 0f bd d2 5a 96 3c 65 2a 2c be
       -0.09789433 -0.03501319 0.018353853 -0.16813047
0000e0 12 a1 86 bd 37 d4 9e bd bd d6 c1 3e 88 20 47 be
       -0.065736905 -0.077553205 0.37859145 -0.19446003
0000f0 07 35 d6 3d 71 f5 87 bd ab b7 10 3e 74 a0 fd 3d
       0.10459333 -0.06638611 0.14132564 0.1238412
000100 27 4b f1 bd 7a 27 e6 3c 40 eb 76 3d 15 31 7b bd
       -0.11781912 0.028094996 0.060282946 -0.061326105
000110 7e dd 4a be 51 ba 92 3e 5b 69 ed 3c 50 ff 80 3d
       -0.19811055 0.28657773 0.028980901 0.06298697
000120 ec e5 8c 3d 36 0b 40 bc 43 e5 8d 3d 94 1d d4 be
       0.068797916 -0.011721423 0.06928494 -0.41428816
000130 8e e1 39 bd 1c da 2c be 59 27 34 3d 6a b6 f2 3e
       -0.04538112 -0.16880077 0.043982837 0.47404796
000140 b3 ad 8f bd 6b 12 3c bd c6 8f 91 3b 80 58 15 3e
       -0.07015552 -0.045916002 0.004442188 0.14584541
000150 ba 68 84 3d 1e 3d 37 3e 3f 17 6b 3e 39 81 fb bd
       0.064652875 0.17894408 0.22958086 -0.12280507
000160 23 cb 60 3e c2 13 bc bc 96 2a e5 3d 3f c3 8c bc
       0.2195249 -0.02295864 0.11189763 -0.017182944
000170 62 26 ea 3d 64 94 2c 3e 90 db 4c be 29 83 0f 3b
       0.11433102 0.16853482 -0.20005631 0.0021898246
000180 29 94 04 3d f0 ea b7 bd cb 4a 6b 3e 20 68 2e 3e
       0.03236786 -0.08980358 0.2297775 0.17031908
000190 21 60 2e be f0 6f 02 3e f0 b9 08 3e 44 2a 97 bd
       -0.17028858 0.12738013 0.1335218 -0.073811084
0001a0 b3 e8 a2 be 0b 66 25 bd c1 da 4c bd f2 65 20 bd
       -0.3181816 -0.04038052 -0.050013307 -0.039159723
0001b0 1b df e9 3c d0 c4 ed 3c a5 c3 b5 bc 09 16 37 3d
       0.028548768 0.029024512 -0.022188017 0.04469875
0001c0 e9 5d 52 be bd 90 44 be cd 4b a7 3e 3d ec e3 bc
       -0.20543636 -0.19195838 0.3267502 -0.027822608
0001d0 be 4b 8d 3e 00 d4 2d 3e 48 1f 31 3e b4 f6 83 3e
       0.2759685 0.16975403 0.17297089 0.25774157
0001e0 7f c8 81 3e b3 26 5d 3e 5e 74 1d 3d bd e1 8a 3e
       0.2534828 0.21596794 0.038441055 0.2712535
0001f0 46 2c cc bd 58 77 0e be cc cc 1a bd f2 b0 0a 3e
       -0.09969382 -0.13912714 -0.037792966 0.13544062
000200 ce 6b 87 3e 22 b7 f5 3d e6 cf 03 bb 26 3d 4d be
       0.26449436 0.119978204 -0.002011293 -0.20042858
000210 4d 5a 63 be 91 2f 66 3d df 08 25 be 93 be 8c bd
       -0.22202416 0.056197707 -0.16116665 -0.06872287
000220 ca 52 95 be 55 3b 81 3e 3f b6 63 3e fc d5 19 bd
       -0.29164726 0.2524058 0.2223749 -0.037557587
000230 76 a5 a4 be f0 39 a0 be 92 b9 d7 3d 93 6d 24 3c
       -0.32157487 -0.31294203 0.105334416 0.01003589
000240 09 e5 aa 3d bd a9 0c 3e f5 b2 33 be 86 52 f9 bd
       0.08344466 0.13736625 -0.17548735 -0.12173943
000250 62 d5 50 3d 44 2e 0d 3d 55 e8 ea 3d 05 4b 7d bd
       0.050984748 0.03446795 0.11470095 -0.061839122
000260 46 ad 29 3d 5d 28 9f be 19 59 3b bd 85 0a 8a 3d
       0.041425012 -0.31085482 -0.045739267 0.06740288
000270 9e 06 dd 3e 16 49 02 3e 92 56 1f 3e 42 91 01 bd
       0.4316911 0.12723193 0.15560368 -0.03163267
000280 18 f9 f1 bd 4d 86 52 be 2e ba b1 3d 46 e6 35 bd
       -0.11815089 -0.20559044 0.08678089 -0.04440906
000290 5d b3 c6 3d 3b 27 68 3e 86 d2 6e bd dd 89 c9 3d
       0.097021796 0.22671215 -0.05830624 0.098407485
0002a0 6c f4 74 be aa 6a 9b be d3 49 d1 3d 84 47 17 3e
       -0.23921365 -0.30354816 0.10219159 0.14773375
0002b0 9d 05 9c bd 3b f8 9b 3c 90 c3 10 3d bb 04 9d 3e
       -0.07618258 0.019039264 0.035342753 0.30667672
0002c0 aa 74 05 be ed 2a 31 bb d1 80 26 be 67 0a a5 bd
       -0.13032785 -0.0027033642 -0.16260077 -0.08058625
0002d0 26 c0 1b 3d 97 cb 65 be 5d b5 dd bd 5f 67 9b be
       0.038025044 -0.22440945 -0.10825608 -0.30352303
0002e0 3f 01 ba 3c 40 41 0e 3c 8f 11 a8 3e 51 7c 68 be
       0.022705672 0.008682549 0.32825896 -0.22703673
0002f0 ac 78 99 be a9 9e d3 bb ef 62 67 3d 13 8b ed bd
       -0.29974878 -0.0064581227 0.056490835 -0.11598792
000300 2f e0 c3 bd a3 0e c7 3e cd 70 9b 3c 7c 7b 63 3e
       -0.09564244 0.38878354 0.018974686 0.22215074
000310 0b c3 22 3e de f1 10 3d cc d0 be 3c 8c c6 79 3e
       0.15894715 0.035386913 0.023292921 0.24392146
000320 41 6e 39 be 35 ab 9b 3d c2 15 15 be 16 c8 df 3d
       -0.18108465 0.076010145 -0.14559081 0.10926835
000330 cd b8 1f be e4 93 61 3c cb 93 61 be a4 87 25 be
       -0.1559784 0.01376817 -0.22029035 -0.16165024
000340 ed c1 5e 3e 2a 15 64 3e b9 ed c3 3a 46 fe ca 3b
       0.21753664 0.22273698 0.0014948166 0.0061948625
000350 5f 94 05 3d 1d 7c 12 be b7 75 ca 3c 44 83 f8 bd
       0.0326122 -0.14305158 0.024714334 -0.12134412
000360 6a b8 8a bd 86 71 40 3e c8 6a 63 bd 2c 3f e1 bd
       -0.067734554 0.18793306 -0.055521756 -0.10998377
000370 77 a8 de bd 52 92 4f 3e 16 0c a7 3b db 03 c6 bd
       -0.10871976 0.2027066 0.0050978763 -0.09668704
000380 1d f8 fe bd 5c 48 90 3d 12 c8 a0 be cc 15 34 3e
       -0.124496676 0.070450515 -0.31402642 0.1758644
000390 8b ae c8 be 66 ca a9 3d 86 82 a8 bc 92 07 b9 3c
       -0.39195666 0.082905576 -0.02057005 0.022586618
0003a0 be b2 54 be 84 58 30 be 77 0f 38 be f4 1a a2 3e
       -0.2077131 -0.17221266 -0.1797465 0.3166119
0003b0 e1 ae 71 3e b1 e2 1c 3e cf 59 72 3e fb 44 9e 3d
       0.23601867 0.15320851 0.23667072 0.07728001
0003c0 3c 50 24 3e 3c 5f 36 3e 80 d4 0a 3d 78 98 63 3e
       0.16046232 0.17809767 0.033894062 0.22226131
0003d0 5f 2d 9a bd 90 e8 45 3d fa ff e3 bd da 97 af 3b
       -0.07528185 0.048317492 -0.11132808 0.0053586783
0003e0 2d 2c 08 be 5f b5 1f be e7 81 61 3e 40 af 63 3d
       -0.13298102 -0.15596531 0.2202221 0.055587053
0003f0 23 bb 62 bd 3c 27 36 be 04 5d 4e 3e 02 03 e1 3d
       -0.05535425 -0.17788404 0.2015267 0.10986902

linears.2.bias f4 [40]
000000 70 d0 2c bd cb e2 e3 bc 2a fe d5 3b ea 9d 1c 3d
       -0.04219097 -0.027818104 0.006530543 0.038236536
000010 19 1c 8d 3c 6e c0 96 bb 66 88 67 bc 3c 36 a6 bc
       0.017225312 -0.004600576 -0.014131641 -0.020289533
000020 b4 ae 4c bd 9b 27 a2 bd 5b 31 82 3d 10 93 ab 3d
       -0.049971297 -0.079177104 0.0635707 0.08377659
000030 d0 01 e3 bd 79 5d 2e bc 27 0e 57 bd 28 0a 63 3d
       -0.1108433 -0.010642403 -0.05250373 0.055429608
000040 4d 7c d0 3c 14 12 2b ba 2d f0 35 3d 90 c2 82 3d
       0.025449896 -0.0006525826 0.044418503 0.06384766
000050 35 3d 38 bd 93 f7 1e bd b9 f6 24 bd 59 01 53 bd
       -0.044980247 -0.038810324 -0.040274356 -0.051514957
000060 87 be 82 bc b9 dd 18 bd db 23 13 bd e9 fa e0 3c
       -0.015959991 -0.037320826 -0.035922866 0.027463393
000070 71 df eb bc c7 67 a1 3c 72 e1 04 bd 0c a7 7e bd
       -0.028793069 0.019702805 -0.032441564 -0.062171027
000080 03 eb 1d 3d 97 af 12 3d 76 81 86 3d c3 9d 7e bd
       0.038554203 0.035811987 0.065676615 -0.062162172
000090 9d 88 66 3d aa 2e 2e bd 49 40 0b 3c 24 bd 16 bd
       0.05628263 -0.04252497 0.0084992135 -0.036801472

linears.3.weight f4 [40, 40]
000000 35 a8 06 be 52 08 53 3d 07 ef 0e be bd 70 4b 3c
       -0.13150103 0.051521607 -0.13958369 0.012417016
000010 6d ad 6f 3e dd 14 49 be d1 83 9a bc db 43 88 3b
       0.23406 -0.19636865 -0.018861683 0.0041584796
000020 51 46 6a 3e 2d 65 91 3d b4 62 33 3e 31 00 05 be
       0.22878386 0.07099376 0.17518121 -0.12988354
000030 bd 01 0e 3e 74 22 a9 be 19 08 f8 3d 76 6c 3b bb
       0.1386785 -0.33034098 0.121109195 -0.0028598583
000040 51 a8 8a 3d 04 6e 19 be 17 3b 04 be 5e b2 0d be
       0.06770385 -0.14983374 -0.12913166 -0.13837573
000050 55 1c e7 bd 42 5a f4 3e 64 e5 a1 3e b7 2a ed 3d
       -0.11284701 0.4772511 0.31620324 0.11580413
000060 da da 90 bc a3 44 e0 bd 04 05 47 be 45 0d af be
       -0.017682482 -0.109505914 -0.19435507 -0.3418981
000070 30 a0 65 3d 34 b2 b2 3e 39 29 5b be 54 8d ac 3d
       0.05606097 0.34901583 -0.21402444 0.08425394
000080 e7 ce 33 bd 32 05 33 be 3b 48 35 bc 1e 47 1c be
       -0.04389849 -0.1748245 -0.011064584 -0.15261504
000090 23 75 39 3e af 86 3e 3d 64 91 6b bd ba bf 4b 3e
       0.1811109 0.046515163 -0.057511702 0.19897357
0000a0 9b b1 9f 3e bd bb 3b be 96 cb 33 3e 15 da 07 bd
       0.3119019 -0.18333335 0.1755813 -0.033166964
0000b0 9e 99 b0 bc 00 72 3a 3e 44 6c 73 3e b0 96 29 3e
       -0.021557625 0.1820755 0.23771769 0.16561389
0000c0 f6 de 65 3d 3b 68 08 3e 51 69 a0 be c9 a8 8a 3d
       0.056120835 0.13321011 -0.3133035 0.067704745
0000d0 a3 4f 0f 3e 30 87 cf bd 83 22 5e be 2d ad bd be
       0.13995223 -0.10133207 -0.21692853 -0.37046185
0000e0 03 6c df bd 30 d0 55 3e f0 58 3d 3e 12 e4 7b be
       -0.109092735 0.20880198 0.18490958 -0.2459872
0000f0 c7 95 8c bc 08 cf 69 3c 5c 6b 03 be 61 79 db bc
       -0.017161263 0.0142705515 -0.12833923 -0.026791276
000100 37 98 85 be b2 d7 62 3d 9a 52 f3 3d 83 41 e5 bd
       -0.26092693 0.055381484 0.118809894 -0.11194136
000110 57 1d 6c 3d 07 36 ca bd 5d 59 19 3e f6 ec b0 3d
       0.05764517 -0.09873586 0.14975496 0.08638947
000120 1b 67 d2 bc 51 fd 10 be 2b ae 1f 3e db 49 bf 3e
       -0.02568393 -0.14159133 0.15593784 0.37361035
000130 17 82 ff 3b 43 d6 ad bd b9 49 8c ba 3b 86 e9 bd
       0.0077974903 -0.08488133 -0.0010703123 -0.114025556
000140 a1 41 31 bd 19 17 cd bd 6d 2d b7 be 37 44 b2 be
       -0.04327548 -0.10014171 -0.35776845 -0.3481767
000150 14 e2 1d 3e 1b b0 02 be 0d 70 1b 3b 8c eb 1e 3d
       0.15418273 -0.12762491 0.002371791 0.038798854
000160 3f 6b e0 bc 43 bb 04 3e 1a d3 ea bd 14 b5 b9 bd
       -0.027394889 0.1296206 -0.11466046 -0.09067741
000170 a4 43 8c 3e 2d f5 4a be 81 bc b7 3e c2 f2 14 bd
       0.27395356 -0.1982009 0.35886005 -0.036364324
000180 25 ca 4c 3c 72 c9 a0 be bf 00 e6 bc 43 eb 64 bc
       0.012499367 -0.3140369 -0.028076528 -0.013972106
000190 ca b5 46 3e c4 bb ce 3e 30 e7 0e 3e c7 46 06 3e
       0.19405285 0.4037763 0.13955379 0.13112937
0001a0 af f8 38 be 1a 3f 25 3e 0b 8a e2 3d 84 0b 01 bf
       -0.18063615 0.16137353 0.11061486 -0.50408196
0001b0 f0 1f e0 bd 9d 1d 83 bd 40 c6 4e bd eb 42 c4 3c
       -0.109435916 -0.06402133 -0.050482035 0.02395769
0001c0 4d 0a df bd 84 e4 65 be d0 2c cf 3d ff 55 27 3e
       -0.108906366 -0.22450453 0.10115969 0.16341399
0001d0 37 a7 26 3d ce f7 d8 3a 29 e4 96 bc d7 32 28 bc
       0.040686812 0.0016553344 -0.018419342 -0.010266027
0001e0 2d de cd bc b4 30 58 3d 20 3f da 3c 24 43 2a 3c
       -0.025130356 0.052780822 0.026641428 0.010391984
0001f0 1f 4a 63 3e 82 52 3d 3d d6 b0 9f be 52 21 44 bc
       0.22196244 0.046221264 -0.31189603 -0.011970835
000200 d5 72 1a be a6 e9 40 3d 83 cd 05 3e 10 ad d9 bc
       -0.15082867 0.047097825 0.13066678 -0.02657178
000210 9b 52 8d bd 47 cb e3 be e0 d4 0e 3d 45 22 3b 3e
       -0.06900521 -0.44491026 0.034870982 0.18274792
000220 e2 86 cb 3c 72 3e a0 3d 08 7f b2 bd a4 40 8a bd
       0.02484459 0.078244105 -0.087156355 -0.067506105
000230 fc 44 90 3d 16 38 5a be 4b 53 86 be a2 90 c9 3e
       0.07044408 -0.21310458 -0.26235422 0.3936816
000240 e4 76 18 bd 89 81 92 bc 41 4a c1 bd 1b 7e f2 3d
       -0.037222758 -0.017884033 -0.09437991 0.11840459
000250 93 18 23 3d 7f 15 ba 3b 9e fe 9a 3d e0 1e 53 be
       0.039818358 0.005678832 0.075680956 -0.20617247
000260 44 68 78 3e 64 44 8a 3d 52 6e 40 3d 15 b8 57 be
       0.24258524 0.06751326 0.04698021 -0.21066315
000270 9d 1a 2a bc a1 4a f5 bd 2f e1 6a 3e 4c 8e 5f be
       -0.010382322 -0.11977125 0.22937463 -0.21831626
000280 34 ce 1a 3e d7 e3 69 3d 2d 4b af 3e 1b 25 99 be
       0.15117723 0.05710205 0.34237042 -0.29911122
000290 c4 8b 81 3e 33 84 cb 3c b8 96 88 3e 19 1a 66 3c
       0.25301945 0.024843311 0.2667749 0.014044308
0002a0 36 97 33 3e 70 08 a4 3c 46 eb 87 be c4 38 0e bd
       0.17538151 0.020023555 -0.26546687 -0.034722105
0002b0 5f 54 ac bc 09 fd d3 bd f1 5e ec 3d e3 5c f6 be
       -0.021036325 -0.10350997 0.11541546 -0.48117742
0002c0 c4 d6 3c be d4 30 fd 3c 8d 26 ec bd f0 2f a1 be
       -0.18441302 0.030907072 -0.115307905 -0.31481886
0002d0 c8 92 bf bd 2b 75 63 bd a0 53 01 3e 5d 74 8c 3e
       -0.09354168 -0.055531662 0.12629557 0.27432528
0002e0 6b d7 51 3e f1 28 8f 3e 64 d7 94 3e 96 d5 06 3e
       0.20492332 0.27960923 0.2907058 0.13167414
0002f0 0d b5 ca bc 44 c3 22 3a bb aa 66 be 6f 3b 43 3d
       -0.024744535 0.00062089064 -0.22526066 0.047664102
000300 26 24 ee 3d 7f f1 9c be d2 37 5d be d5 21 59 3e
       0.116279885 -0.30652997 -0.21603325 0.21204312
000310 21 56 5c 3d 74 77 12 be 31 2e dc bc 90 05 4b be
       0.053793076 -0.1430338 -0.026877495 -0.1982634
000320 cb 75 01 3e 04 03 21 3e 98 67 7e 3e 5b d3 10 3c
       0.1264259 0.15723807 0.24844205 0.008839454
000330 c2 e8 b8 3c 44 34 7d be 27 6b 47 3e 5e 78 88 be
       0.022571925 -0.24726969 0.19474469 -0.26654333
000340 43 fc da 3d 9a 3d f7 3d 8b 89 d3 3d 7c c9 be bd
       0.10692646 0.120722964 0.103289686 -0.09315774
000350 1f c6 4e be 7c b9 a6 be cf 71 89 bd 96 8e 88 3e
       -0.20192765 -0.32563388 -0.067111604 0.26671284
000360 92 07 23 be d7 8b 8b 3d 72 a3 e2 bd 27 7c 96 bd
       -0.15920857 0.06813782 -0.11066331 -0.07347899
000370 9d 33 db 3d 79 0d d4 3d 44 89 cb 3c 60 e2 ba 3c
       0.10703204 0.10354132 0.024845727 0.022813022
000380 4a c1 f9 3d fa 47 fd 3d 6a e3 e0 bd e3 b6 ce bb
       0.1219507 0.12367244 -0.10980876 -0.006308423
000390 09 cb bd 3e 2c 35 22 3d 24 70 b7 3d 79 b1 a3 bd
       0.37068966 0.03960149 0.08956936 -0.079928346
0003a0 53 c4 29 be 4a 5c 82 be f8 60 1d bd 7b 19 65 be
       -0.16578798 -0.25461036 -0.038422555 -0.22373001
0003b0 39 00 c3 bd 2c a6 a9 3e 67 9a 71 3e 2b 07 0c bd
       -0.09521527 0.33134592 0.23594056 -0.034186523
0003c0 bf 80 fd bd 72 b5 90 3e 17 10 1f bd b7 18 a5 bc
       -0.12378072 0.28263432 -0.038833704 -0.020153387
0003d0 70 c9 e8 bb b5 1c ca 3d a3 13 94 3d 8b 91 04 be
       -0.0071040913 0.09868757 0.07230308 -0.12946145
0003e0 c7 36 8e 3e 8f 7f a9 3e d6 aa 14 3e 99 e5 1d bb
       0.27776167 0.33105132 0.14518294 -0.002409315
0003f0 b5 27 00 be 6f 90 6a 3d 52 88 c5 3d 7b 4e 17 be
       -0.12515147 0.05726665 0.09645142 -0.14776032

linears.3.bias f4 [40]
000000 25 ee 86 bc c2 5c 35 bd 42 b6 90 bd a1 00 06 3d
       -0.016470978 -0.044277914 -0.07066013 0.032715444
000010 97 33 26 bd b3 1c 78 bc d1 3d 70 bc 34 b0 a2 bc
       -0.040576544 -0.015143561 -0.014663176 -0.01985941
000020 54 86 fc 3c c2 32 a7 bb 65 da 84 3c 28 b1 07 bd
       0.030825771 -0.0051024863 0.01621742 -0.033127934
000030 80 51 47 3d 7c a3 11 bd 47 ef 17 bc ba 11 88 bd
       0.04866171 -0.0355563 -0.009273357 -0.06644006
000040 40 bf 6f ba 4f 9a b7 bd cd 04 97 3b 84 09 26 bd
       -0.0009145625 -0.08964979 0.0046087266 -0.04053642
000050 f7 5f 98 bd 29 83 66 bc 29 2c 67 3c c6 1f a6 3a
       -0.07440179 -0.014069357 0.01410965 0.0012674264
000060 b3 14 9d 3d 75 7e e4 bc 74 cf 83 bd 58 14 df 3c
       0.07669964 -0.02789233 -0.06436053 0.02723138
000070 51 6c 5c 3d 00 1b 4c bc 94 d2 e9 3b aa a3 f1 bc
       0.053814236 -0.012457609 0.0071356986 -0.029496986
000080 fb 94 e1 3c 43 ca b1 bd 66 eb 10 3d 42 7b e8 bc
       0.02753686 -0.086811565 0.035380743 -0.028379086
000090 df 7e 13 3d d6 e1 27 bc c0 98 db 3c a9 e9 a0 bc
       0.036009666 -0.010246715 0.026806235 -0.019642668

linears.4.weight f4 [40, 40]
000000 9b af d8 bd ea d6 9f bd 42 8e 61 3e 81 d1 7a 3e
       -0.10580369 -0.078046635 0.22026923 0.24493982
000010 97 e3 53 3e 60 20 85 3d 94 85 c3 3d f2 00 30 3e
       0.20692287 0.06500316 0.095469624 0.1718786
000020 62 f7 5e 3e b2 57 83 bc c8 34 d8 bd 9a 52 4c 3e
       0.21774057 -0.016033027 -0.10556942 0.19953385
000030 04 5c 36 3e 93 45 29 3e 7a ea 76 3d 1c 3e bf 3c
       0.17808539 0.16530447 0.060282208 0.023345046
000040 9a 1e f2 bc e2 f1 9d ba c1 11 30 3d e6 84 a2 3d
       -0.029555608 -0.0012050236 0.04298568 0.079355046
000050 b4 fd 0c be 06 aa 38 3d 33 a0 04 3e f4 c7 97 3e
       -0.13768655 0.045084022 0.12951736 0.2964474
000060 a5 82 7d be d8 c8 9d bd a1 fb 2f be df 19 8d 3d
       -0.24756868 -0.077043235 -0.17185833 0.068897
000070 18 aa 2b 3d 71 b4 eb bd 82 cb 0f be b1 fe 0a 3e
       0.04191026 -0.11509026 -0.14042476 0.1357372
000080 dc 4a 86 3e 9a 7d a9 bc 7f 3d 3b bd 20 da f3 bd
       0.26228988 -0.020689774 -0.045712944 -0.119068384
000090 3e a9 4a be 20 59 71 be c4 a4 8a 3e 5e b2 f8 3d
       -0.19791123 -0.23569155 0.2707883 0.12143396
0000a0 00 93 b5 3d b0 c0 b3 3d 14 b1 4e bd ca f0 29 be
       0.08865929 0.087769866 -0.050461844 -0.1659576
0000b0 ea ff 2a be 45 28 13 3d 2e f2 7b be 18 bd 8c 3e
       -0.16699186 0.035927076 -0.24604103 0.27488017
0000c0 9c da 9c 3d c9 37 0c be 7a 25 31 3e a0 81 d2 bd
       0.07658884 -0.13693155 0.17299452 -0.1027863
0000d0 5f 89 06 3e 9f 2a 0b 3e e8 a7 2f bd 3e fe c3 bc
       0.1313834 0.13590477 -0.042884737 -0.023924943
0000e0 26 22 9e 3d a5 12 91 3d 53 54 8e 3d 02 e6 cf bd
       0.07721357 0.07083634 0.06949677 -0.101512924
0000f0 a1 50 26 3d b9 52 e5 bd fc a8 d5 3d 4b b8 38 3e
       0.040604237 -0.11197419 0.10432622 0.18039052
000100 3f 1a 8a be c7 5a 39 3d 9d 14 95 be 14 f7 c9 3e
       -0.2697315 0.045252588 -0.2911729 0.39446318
000110 a6 65 a6 3e dc 0f f0 bd 58 fa 66 3d 8f 26 e0 3c
       0.32499427 -0.11721775 0.05639109 0.027362136
000120 fa bf 75 3d e1 ba 8d be a0 cc 21 3e 40 4e 4d be
       0.059997536 -0.2768164 0.15800714 -0.20049381
000130 97 6d 05 bd b3 60 ed 3d 85 ab 2e be 12 68 b7 3d
       -0.032575216 0.115907095 -0.17057617 0.08955397
000140 0d 4e 82 be 3c f8 a7 3e b7 08 11 be cc b2 4e 3d
       -0.25450173 0.32806575 -0.1416348 0.050463483
000150 0d 79 5c 3d 7d e8 63 3e 7d 0e 48 3b 81 bb c6 3d
       0.05382638 0.22256656 0.0030526214 0.09703732
000160 f9 fe 3e bc bd 82 60 3d 9e 08 8c 3d c9 1b 8d 3e
       -0.01165747 0.05481218 0.06837581 0.2756026
000170 c6 a0 84 be 69 bb 01 be 6c 7a f8 3d 40 c2 4c be
       -0.2590391 -0.12669148 0.12132725 -0.19995975
000180 42 50 a6 3d e4 f6 d2 bd b3 82 3b 3c f8 99 af 3d
       0.08120777 -0.10300997 0.011444735 0.08574289
000190 b7 76 5b 3d 86 57 38 3d ae 9d d5 bc 62 07 e1 bd
       0.053580012 0.045005344 -0.026076164 -0.10987736
0001a0 be 2a 2b bd 19 3e 5f bd d2 b5 3e 3e d9 91 d0 3d
       -0.04178881 -0.05450258 0.18624046 0.10184068
0001b0 79 e3 47 3d b5 93 23 be 9f 07 9b 3d 5d 2d f8 3c
       0.04880092 -0.15974315 0.07569813 0.030295068
0001c0 21 b9 7f 3e 89 17 13 be 5c 99 d8 bc 36 d8 46 bd
       0.24972965 -0.14364447 -0.026440315 -0.04854604
0001d0 28 0b bf bd c1 44 fe 3d ba 94 15 3d 1a c9 01 3e
       -0.093283 0.124154575 0.03651879 0.1267437
0001e0 2c 04 b6 3c 01 21 57 be e8 39 80 be dd 81 85 3e
       0.022218786 -0.21008684 -0.2504418 0.2607564
0001f0 6a 4b 82 3e 87 d3 5e be be 92 83 3e 09 3d b0 3e
       0.2544816 -0.21760379 0.25697893 0.34421566
000200 56 63 18 bc d5 2c b9 3d ce d8 8f be dd cd e5 3d
       -0.009301027 0.09041754 -0.28095096 0.11220906
000210 96 cf 19 3e 8e f2 4c be a2 88 09 3f 97 00 71 be
       0.15020594 -0.20014402 0.5372411 -0.23535381
000220 fc 08 89 3e cb 99 bc bc 8b a3 9a be d4 a4 b2 3d
       0.26764667 -0.023022553 -0.30202898 0.08722845
000230 e9 83 dc be 00 41 aa bd 8c 12 70 bd b1 f7 77 be
       -0.4306939 -0.08313179 -0.058611438 -0.2421558
000240 04 96 aa 3d a2 df e8 bd 54 b0 ca 3d 72 84 1a 3e
       0.083293945 -0.113707796 0.09896913 0.15089586
000250 c9 e5 78 be 72 63 9a 3e 12 6b ad 3a 87 b0 25 3e
       -0.24306406 0.30153996 0.0013230762 0.16180621
000260 98 23 39 bd ec c1 8c 3d 26 17 00 bf be d4 ca 3d
       -0.04519996 0.06872925 -0.5003532 0.099038586
000270 9d ba c4 3d 97 ba 60 bd c2 49 0d be a5 98 60 3e
       0.09605906 -0.054865446 -0.13797668 0.2193323
000280 63 3f 24 3e bf 3f 2b bd 46 a8 20 3d a4 71 bc bd
       0.16039805 -0.04180884 0.039222978 -0.09201363
000290 c5 de e1 bd c4 78 64 3e cd 7a 55 be 5d 70 65 be
       -0.11028818 0.22311693 -0.20847626 -0.22406144
0002a0 ab 6a 9e 3d f9 5f a3 be d8 07 ca 3e 66 4c fd 3d
       0.07735189 -0.3190916 0.3945911 0.123680875
0002b0 84 b5 a7 bd 68 75 58 3d 65 6e 8f 3e a6 e9 65 bb
       -0.08188918 0.052846342 0.28013912 -0.0035081892
0002c0 88 b7 02 be bb 18 37 be a1 fb a8 bd da 43 09 3d
       -0.12765324 -0.17880528 -0.082511194 0.033511974
0002d0 f6 dc 51 be 1b f6 9d bc f9 10 4b be 20 4f 21 3c
       -0.20494446 -0.019282391 -0.19830693 0.009845525
0002e0 41 2a a7 3e 7c b9 1e be 38 45 06 be 0b 6e a2 be
       0.32649425 -0.15500444 -0.13112342 -0.3172458
0002f0 33 ee c7 3c 1d 9b 96 3d 5f cc 85 3d 0a dd 6d 3d
       0.024405574 0.07353804 0.06533121 0.058072127
000300 64 55 af 3d 1d 55 70 be b2 74 76 be a6 38 51 3b
       0.08561209 -0.23469968 -0.24067953 0.0031924634
000310 65 63 90 3e 14 02 17 3e a0 68 21 be de 9a 87 3d
       0.28200832 0.14746886 -0.15762568 0.066213354
000320 87 9d 56 3e 79 99 16 3e 93 be c0 3c 40 7b bb bd
       0.2095853 0.14706983 0.023528373 -0.091543674
000330 e3 4b f3 bd 4d 4a ae be 69 99 8b bd 05 07 80 3d
       -0.118797086 -0.34041062 -0.0681637 0.06251339
000340 7e 1a 65 be 2d 88 4d 3e d3 66 83 3e 70 a5 03 be
       -0.22373387 0.20071478 0.25664386 -0.12856078
000350 a3 5c 58 3e 31 95 ab bd a3 e9 4d be 3f c9 b3 bd
       0.21129088 -0.083780654 -0.20108657 -0.08778619
000360 a3 12 31 3e f4 a6 45 be eb 3a 84 be b0 05 c6 be
       0.17292266 -0.19301969 -0.258262 -0.38676214
000370 06 98 89 bd 00 23 5c be d6 ce 71 be b5 8d ea 3d
       -0.06718449 -0.21497726 -0.23614058 0.1145281
000380 4c 6f 8b 3e 19 04 4f bd fe 2b fe 3c 13 bc 85 3d
       0.2723335 -0.050541017 0.031026836 0.06530013
000390 78 48 95 3c 3a ef 5f 3e c4 34 11 3d 13 fd 94 3b
       0.018223032 0.21868601 0.03545071 0.0045467704
0003a0 b1 80 59 be 77 7a 0c be a0 ee 1f 3d b3 f1 70 be
       -0.21240498 -0.13718592 0.03904593 -0.23529701
0003b0 bd f3 30 be 07 c0 18 bd 2e 74 77 3c a3 1d 2a 3c
       -0.17280479 -0.037292507 0.015103383 0.0103830425
0003c0 d0 2d e2 bb 97 49 a4 be 21 ac 35 be 42 2e 24 bd
       -0.006902434 -0.32087395 -0.17741443 -0.040083177
0003d0 68 4c d1 be 5a fa 2f 3e 9d 49 c4 3d f6 15 68 3e
       -0.40878606 0.17185345 0.09584353 0.22664627
0003e0 67 46 88 3d 7f 6b f6 bd dd 4e 3f bd 3e 9d 36 3e
       0.06654053 -0.12032222 -0.04670607 0.1783342
0003f0 bb 5b 72 3e 84 40 77 3e eb 6d 32 3e 5e 9d 31 be
       0.23667805 0.24145705 0.17424743 -0.17345187

linears.4.bias f4 [40]
000000 f0 dd ed bc 61 7e 71 3d 6c c1 b4 3c 94 f0 5e bc
       -0.029036492 0.058958415 0.022064887 -0.013607163
000010 df fb 19 bb 33 af e3 3c cc a6 57 3d b5 84 a7 3d
       -0.0023496074 0.027793502 0.052649304 0.08179609
000020 7c 4a b7 3c 11 8b 00 3d db 7c 97 bc af b1 35 3c
       0.022374384 0.031382624 -0.018492153 0.011089726
000030 a8 5c 96 bd f1 00 25 bd d2 23 80 3d a6 fd 3e bd
       -0.073418915 -0.0402841 0.06256832 -0.046628617
000040 22 47 b2 bc e7 e7 58 bc 05 e7 1f bd dc fa c3 bc
       -0.021762434 -0.013238884 -0.039038677 -0.02392333
000050 61 de d1 3c 63 4f fa bc 79 c8 d8 3d b3 80 41 3d
       0.025618734 -0.030555433 0.10585112 0.047241878
000060 b7 c0 80 3c 95 6c 2d 3d 9d c6 22 bc 60 8f d5 3c
       0.015716894 0.04233988 -0.009935048 0.026069343
000070 0b 8d 84 3d 4b cd 03 bc 3f e1 67 3d d8 95 18 3d
       0.06472214 -0.008044551 0.056611296 0.037252277
000080 c6 a3 12 bb 82 1a ff 3c 96 28 bd 3c 7c bf 5e 3b
       -0.0022375449 0.03114057 0.023090642 0.0033988645
000090 83 7f 01 bd 69 86 bc bc 9f 0f dd bb c1 4a 68 37
       -0.031615745 -0.02301331 -0.006746247 1.3845683e-05

linears.5.weight f4 [40, 40]
000000 bb f5 03 3e 73 39 ed 3b 60 ac a6 bd ca 86 85 bd
       0.12886707 0.0072395145 -0.08138347 -0.065198496
000010 05 4d 84 3e 74 0b 6b 3e f1 bf 46 3e e4 28 1e 3e
       0.2584001 0.22953588 0.19409157 0.15445286
000020 34 4a c3 3d 21 90 e1 3e 70 8a 8c 3e e6 dd 69 bd
       0.095356375 0.44055274 0.2744937 -0.057096384
000030 06 9d ca 3e 1a e8 2e 3d 80 fd 39 be 7b 72 0e bd
       0.39572924 0.042701818 -0.18163109 -0.034777146
000040 09 18 86 be d8 ca fd bd a2 8c f5 bd 30 0a 9e bd
       -0.26190212 -0.12392205 -0.11989714 -0.07716787
000050 97 8e 2b 3e 1c 48 e6 bd ef 46 8d 3d e2 e9 9a bd
       0.16753612 -0.112442225 0.06898295 -0.07564141
000060 d4 a2 41 be e8 96 03 be 92 b1 f5 3c 00 b5 54 3c
       -0.1890977 -0.12850535 0.029991899 0.012982607
000070 12 e3 51 bd dd 41 27 be cd 85 3c be 03 52 a4 bd
       -0.05124194 -0.16333719 -0.18410416 -0.08023455
000080 e9 0f 05 be 63 0e f0 3c 45 4d d6 bd 98 46 04 bc
       -0.1299435 0.029303735 -0.10463957 -0.0080734715
000090 2a c8 8e 3d 73 cf 14 3e b4 8e 5a be 64 09 fb bd
       0.06971772 0.1453226 -0.213435 -0.122576505
0000a0 f4 ea ab bc a1 30 56 3e ce 30 92 3d 41 ef ac 3d
       -0.020986058 0.20916988 0.07138215 0.084440716
0000b0 d0 2e 49 be ee 23 30 bd bf 8b e1 3d bb 2a 54 3d
       -0.19646764 -0.043003015 0.110129826 0.051798563
0000c0 bc 53 b4 3c 39 5c fe 38 48 c1 1d 3d 0f 7d 2b bd
       0.022012584 0.000121288416 0.038514405 -0.041867312
0000d0 72 71 0e be 6c aa ba bc c3 d6 d2 bd 18 94 60 be
       -0.13910463 -0.022786342 -0.10294869 -0.21931493
0000e0 36 8b 91 3d 44 2b 2d 3e 44 31 bd bc 1f 79 24 3e
       0.071066305 0.16911036 -0.02309478 0.16061829
0000f0 a2 f0 60 bc e7 4a 1c 3e 90 49 a4 bb 46 c6 4c be
       -0.013729246 0.15262948 -0.005013652 -0.1999751
000100 ac 4e 8b 3e f4 10 d6 bd 2c 55 08 3e 4d 4e 89 3d
       0.2720846 -0.10452452 0.1331374 0.06704388
000110 3f 28 43 bd df ff 10 3f bb aa 66 3e c5 fc d3 3d
       -0.047645804 0.5664043 0.22526066 0.10350946
000120 7b af 64 3e ec 64 06 be 63 5e a2 3d dd 87 9f 3e
       0.22332565 -0.13124436 0.07928159 0.31158343
000130 73 c5 c2 bd d5 07 d8 3e ec 1a 4a be 47 82 a5 3e
       -0.09510317 0.42193475 -0.19736832 0.32325956
000140 e1 24 1a be ee a7 34 bd f0 ae 2c 3e 83 c6 cb be
       -0.1505313 -0.044105463 0.16863608 -0.3979989
000150 8d a6 9c bd 06 f6 22 3d 0b 91 15 bc 40 b4 66 3e
       -0.076489545 0.039785407 -0.009128819 0.22529697
000160 67 5b 9e 3d bd a8 a4 be 6d fc c4 bd db b8 c9 3e
       0.07732277 -0.32159987 -0.09618459 0.39398846
000170 95 df b8 3d e3 09 91 bd dd aa 7e be 02 8e a8 bd
       0.0902702 -0.07081964 -0.24869867 -0.08230211
000180 be d1 08 3e 43 e4 78 be cd 54 77 bd bd 64 02 be
       0.1336126 -0.24305825 -0.060383607 -0.12733741
000190 12 22 f4 bc 7f c5 c3 bd 4b fe 08 3e 0f 4a 85 bd
       -0.029801402 -0.09559154 0.13378255 -0.06508266
0001a0 34 81 f3 bd 58 fa 2f 3e d8 d6 75 be 42 14 e9 3d
       -0.11889878 0.17185342 -0.24007738 0.11380817
0001b0 25 fd cd 3e c4 bd 23 3d 9a 60 dd bd 7c 28 ef 3c
       0.40232196 0.039975896 -0.10809441 0.02919411
0001c0 3c 65 1f bd 43 07 17 bc d9 80 8a 3e cf 6b 9a be
       -0.038914904 -0.00921804 0.27051428 -0.30160376
0001d0 78 b7 8e 3a 79 90 26 3d b7 00 85 be 47 8f aa be
       0.0010888418 0.040665124 -0.25977108 -0.33312437
0001e0 2f 14 29 be 8c f7 86 3e 2b df f9 3d 5d e6 b4 3d
       -0.16511606 0.26360738 0.12200769 0.08833001
0001f0 62 c7 70 bd 4f c4 df bc e3 d5 d6 3e 88 e9 03 3d
       -0.058783896 -0.027315287 0.41960058 0.032205135
000200 c4 e6 ee 3d b2 56 48 be 1b 5e 81 be 55 da 63 3d
       0.11665109 -0.19564322 -0.2526711 0.05562814
000210 6c a1 a3 be 44 0c 6c bd a8 8a c2 bc d2 e7 97 3d
       -0.31959093 -0.057628885 -0.023747757 0.07417263
000220 12 6c d5 bb 88 cf 9e 3e 8d 64 8d 3e fa a4 28 3e
       -0.006513127 0.3101771 0.27615777 0.16469184
000230 ea 38 07 be ca f2 25 be 1b 47 21 3e 6c ec 97 3d
       -0.13205305 -0.16205898 0.15749781 0.07418141
000240 22 6e b4 3c 13 ab 5a 3e b0 65 77 bd 8d dc 00 3e
       0.022025172 0.21354322 -0.06039971 0.12584133
000250 a1 3e 6f 3e 4d 91 fb 3d 0a 22 88 3c a7 49 0a 3e
       0.23363735 0.12283573 0.016617794 0.13504659
000260 1e bc 77 bd 72 52 72 be 9c 05 0a be 84 28 c6 3c
       -0.060482137 -0.23664263 -0.13478702 0.024189241
000270 29 ab b4 3d 7d 4c 07 3e 3d a1 99 bd c5 4b c8 3d
       0.08821709 0.13212772 -0.07501457 0.09780077
000280 09 38 e8 3c c5 a0 34 be 91 8a b6 3d 73 8b 9a bd
       0.028347032 -0.17639454 0.08913148 -0.07546129
000290 bc a3 f5 bc 52 be a3 3d e3 ab 4d bc 66 7a a8 3c
       -0.029985301 0.07995285 -0.012553188 0.020566177
0002a0 f2 3a 2d be 4a 4d c8 bd c6 5c d3 bc 74 bc 55 be
       -0.16917017 -0.09780367 -0.025801074 -0.2087267
0002b0 c1 4a 56 be 2d 7c 04 3c b8 5c f5 bd 33 d8 08 3d
       -0.20926954 0.008086246 -0.11980575 0.03340931
0002c0 07 cb ea bd fa 26 13 be 64 e6 62 be 78 88 95 3d
       -0.11464506 -0.14370337 -0.221582 0.0730142
0002d0 42 f9 4e be 64 17 5d be 99 27 9d 3c f8 72 50 be
       -0.20212272 -0.21590954 0.01918392 -0.20356357
0002e0 e0 63 ec 3d 4d 2d 2f be 00 81 65 bd 10 7b a1 3e
       0.11542487 -0.17107125 -0.056031227 0.31539202
0002f0 34 91 9c 3e c2 0a 7c 3d ee 9b 0b 3e d4 c8 82 3d
       0.3057953 0.061533697 0.13633701 0.06385961
000300 56 4a b3 be 23 a8 ef 3d f8 97 74 be e7 6b 76 3e
       -0.3501765 0.117019914 -0.23886096 0.24064599
000310 e7 05 e4 bd b4 e2 d0 bd 97 66 01 3e 13 11 59 3e
       -0.11133938 -0.1019949 0.12636791 0.2119792
000320 5d 0c ad 3c d9 12 4a 3d 6b e2 90 3d 0f 6b 95 bd
       0.02112406 0.04933438 0.07074436 -0.072958104
000330 e1 f5 73 bd ff a9 58 be bb 62 f9 3d 5f 94 ac 3d
       -0.05956066 -0.21158598 0.121770345 0.08426737
000340 16 4e 68 bd 7a 22 ae 3c 76 a7 59 bd d9 8d 9a be
       -0.056715094 0.021256674 -0.05313822 -0.30186346
000350 9a 69 b3 bc 6c 4b 19 3d 39 c4 fb 3e a3 4a 6d be
       -0.02190094 0.037425444 0.49173144 -0.23173003
000360 1a ed 06 3e d1 9d 75 be 57 97 eb bd 1b 38 b0 3e
       0.13176385 -0.23985983 -0.11503475 0.34417805
000370 26 ec 1c be 74 ee e6 bc 06 21 f8 bc 4c da 2d 3d
       -0.15324458 -0.028189875 -0.030289184 0.042444512
000380 49 b0 d7 bd 10 83 e1 3d b2 db ff 3c e1 2a 2f 3e
       -0.105316706 0.11011326 0.031232689 0.17106201
000390 40 06 19 bd 10 ee 49 3c 5f f9 5a be 03 d2 84 3e
       -0.037359476 0.012324825 -0.2138419 0.25941476
0003a0 8b b6 9b 3d 6a 58 91 bd 80 7a aa 3d bd cf 75 bd
       0.07603177 -0.07096942 0.08324146 -0.060012568
0003b0 fc 94 e0 3d 6b a6 b9 be e2 05 cd bc 2b dc 29 3e
       0.109659165 -0.3625978 -0.02502722 0.16587894
0003c0 5f bc c1 3d 5e 34 de bd b5 0a 1d be 8f 70 09 3e
       0.09459757 -0.10849832 -0.15336116 0.13421844
0003d0 40 54 bf 3b 47 3f 4a 3d f6 7e ce 3d af 26 61 bd
       0.005838901 0.049376752 0.100828096 -0.054968532
0003e0 80 f8 bf 3d aa 4a 3f 3d bd 16 ec 3d f0 b9 4c 3e
       0.093735695 0.046702065 0.115277745 0.19992805
0003f0 15 5d 70 be f9 00 f4 bb c3 99 cc 3d d8 a3 38 bd
       -0.23473008 -0.007446405 0.09990265 -0.04507813

linears.5.bias f4 [40]
000000 7f 13 87 bd b7 e7 04 bd a1 ec 8f bd fc 7d 4b bc
       -0.065955155 -0.032447543 -0.07027555 -0.012420174
000010 63 13 05 bd d2 f7 05 3e d8 08 94 3d 86 3b b4 bc
       -0.03248919 0.13082817 0.07228249 -0.02200104
000020 17 3b 87 3c 50 e7 c0 3c 66 87 e0 bc eb c6 54 bd
       0.016507668 0.023547798 -0.027408313 -0.051947515
000030 56 2e cf bd bb 15 06 3e 07 4e c6 3c a3 c4 05 be
       -0.1011626 0.13094227 0.024207128 -0.13063292
000040 59 5b 98 bd 1f f8 7f bd 86 ad 08 bd 23 7f 95 bc
       -0.07439298 -0.062492486 -0.03336861 -0.0182491
000050 e5 45 44 3d 36 7b 07 3d 9d 0b 9d bc 36 4f 5f bd
       0.04791822 0.033076487 -0.019170577 -0.0545189
000060 8e e5 c7 bc 7d d4 65 bc 60 34 3e 3d be db 90 bc
       -0.024401452 -0.014027712 0.046436667 -0.017682906
000070 51 5e 8e 3d 1d 93 24 3d 05 4c 8e bd 56 33 cd 3c
       0.06951583 0.04017936 -0.06948093 0.025048893
000080 47 4e c2 bd 72 0b ec bb 35 c6 8d 3d 73 a5 9f 3d
       -0.094875865 -0.007203513 0.069225706 0.07795229
000090 08 df 5a bd 23 93 c1 3c 4e 0d 6a 3c a9 f3 be bd
       -0.053435355 0.02362973 0.014285399 -0.09323818

linears.6.weight f4 [1, 40]
000000 e6 75 26 3d 4c 4e f5 3d f0 e2 0f 3f 35 60 19 3e
       0.04063978 0.119778246 0.56205654 0.14978106
000010 cd 5a 1a 3e 08 26 88 bd e3 54 2f bd 9f 24 7e 3c
       0.150737 -0.06647879 -0.042805564 0.015511661
000020 52 1d e0 bd ce 5b 90 be d4 fb cc 3d fc 20 c1 3d
       -0.109430924 -0.2819504 0.1000897 0.094301194
000030 d6 91 0c 3e 66 30 b6 be 94 b1 7a be 77 10 30 3d
       0.13727507 -0.355838 -0.24481803 0.042984452
000040 29 2f 98 3e 6b 78 20 3e dd ec 7f bb b3 e2 98 3a
       0.2972348 0.15670936 -0.0039051094 0.0011664241
000050 2d 80 80 be 52 45 0a bf 01 39 44 3f e9 a9 a8 3d
       -0.2509779 -0.54012024 0.7664948 0.08235533
000060 06 0d b0 3e 65 4d 59 3e 23 f4 54 bd 6f b8 d1 3e
       0.34384936 0.2122093 -0.05199064 0.40961024
000070 28 64 13 bc c9 0e 6d be 5e 37 88 3d db ee b1 be
       -0.008996047 -0.23150171 0.066511855 -0.34752545
000080 b1 7f e5 b7 f7 96 c5 3d e8 6c 0d be 70 77 05 bd
       -2.7358388e-05 0.09647935 -0.13811076 -0.032584608
000090 42 37 dc 3d 0b 81 b0 39 92 80 4c bf 23 82 b2 3e
       0.10752727 0.0003366548 -0.7988368 0.3486491

exp_avg f4 [40, 2]
000000 87 30 e5 ba 3e 2b 59 ba 12 3b 85 3b 26 c6 aa 3a
       -0.0017485776 -0.00082843367 0.0040658796 0.0013029024
000010 dd 97 61 3a b2 c3 73 3a e5 54 27 b9 7a af 1c ba
       0.0008605698 0.0009298875 -0.00015957987 -0.0005977076
000020 e0 97 f5 ba ff 1e 69 39 ce 6c aa ba 06 38 05 3a
       -0.0018737279 0.00022232159 -0.0013002397 0.00050818955
000030 93 50 75 3a d3 2a 04 3a 99 38 a7 39 7e 71 37 3a
       0.0009358015 0.00050417817 0.0003189489 0.00069978076
000040 74 fb cd 3a cc 70 0d 3a f9 47 a0 ba 0b 77 99 39
       0.0015715198 0.0005395531 -0.0012228481 0.00029271128
000050 c0 6d f9 3a 14 36 75 3a 2c 90 37 3b d4 be d2 39
       0.00190299 0.00093540666 0.0028009517 0.000401965
000060 71 16 03 bb 71 a0 a6 39 40 27 30 b8 17 80 f2 38
       -0.002000239 0.00031781525 -4.1998224e-05 0.00011563318
000070 9b b3 37 3b 9b 87 89 3a 60 d4 12 3b 20 81 83 39
       0.0028030637 0.0010492684 0.0022404417 0.00025082473
000080 b8 9d 71 bb b5 8e ce b9 97 6c 99 3b 52 be ba 3a
       -0.003686769 -0.00039397707 0.0046821344 0.0014247394
000090 e8 59 f4 3a 2c 64 75 3a 62 cb b8 3a 9c 62 39 b9
       0.0018642517 0.0009360935 0.0014098699 -0.0001767971
0000a0 6e 32 92 b9 e2 5c b5 39 45 65 8f 3a 20 b8 fe b8
       -0.00027884863 0.00034592213 0.0010940215 -0.0001214596
0000b0 71 e0 38 3b 96 0b 46 39 33 98 25 3a 2f 3a 2e 3a
       0.002820995 0.00018887068 0.000631693 0.0006646243
0000c0 aa 7c c8 ba f2 26 27 ba a6 80 80 bb 79 fb 9b ba
       -0.0015295942 -0.0006376348 -0.003921586 -0.0011900506
0000d0 0e b1 19 ba 89 92 2f b9 43 cb e6 ba 56 0c 6f ba
       -0.000586287 -0.00016743889 -0.0017608184 -0.00091189647
0000e0 c0 c1 1d 3a b7 eb 03 3a 24 af b8 3a b3 85 13 3a
       0.00060179457 0.00050323777 0.0014090282 0.0005627528
0000f0 6f c3 05 bb 3d 2f 8d b9 f6 ab 87 bb d9 13 58 ba
       -0.0020410677 -0.0002692881 -0.0041403724 -0.00082427036
000100 17 ea 9b 3a 17 6e 03 ba d0 cc 18 b8 a7 7a c5 b8
       0.0011895326 -0.0005013658 -3.643037e-05 -9.416538e-05
000110 b1 eb 91 39 98 68 bb b9 1f 6e 82 bb f1 23 8e ba
       0.0002783216 -0.00035745348 -0.0039804126 -0.0010844452
000120 f5 14 76 bb a1 9a e7 ba 41 09 3c bb 57 1e 91 ba
       -0.0037549112 -0.0017669984 -0.002869204 -0.0011071664
000130 34 e4 9d bb 7a 65 b5 ba 8c 68 c6 3a b6 ee 54 3a
       -0.0048184637 -0.0013839446 0.0015137359 0.0008122729

exp_avg_sq f4 [40, 2]
000000 d9 31 d6 39 b6 56 c6 38 98 af 0c 3b 1a a2 94 39
       0.000408544 9.457527e-05 0.0021466967 0.00028349535
000010 ea b5 d4 38 0a b0 84 38 8c 81 78 36 d6 7f 50 38
       0.00010142832 6.32704e-05 3.7030286e-06 4.971012e-05
000020 66 cd e7 39 f7 90 80 36 dd 4f 39 39 88 4e 38 38
       0.00044212787 3.8315734e-06 0.00017672726 4.3942156e-05
000030 7d 85 cd 38 54 d7 e8 37 47 34 a7 37 4b b9 99 38
       9.800026e-05 2.7756825e-05 1.9932295e-05 7.330122e-05
000040 6f 63 93 39 15 a7 c4 37 04 3a 28 39 75 18 a8 37
       0.0002811211 2.3442824e-05 0.00016043341 2.003855e-05
000050 d3 aa f2 39 3a 51 00 39 21 a9 78 3a 4b f3 01 38
       0.0004628511 0.0001223729 0.00094856514 3.098258e-05
000060 cc 3b f8 39 43 78 55 37 2f 6c 60 33 22 1f e9 35
       0.00047346798 1.272379e-05 5.2252457e-08 1.7368914e-06
000070 44 b3 67 3a 18 99 fd 38 45 53 1e 3a 90 68 06 37
       0.00088386633 0.00012092496 0.000603963 8.011368e-06
000080 d3 d8 da 3a 36 db ce 37 2c 1e 3a 3b 25 28 a5 39
       0.0016696699 2.4659192e-05 0.0028399331 0.00031501162
000090 8d 4d ca 39 18 8e 93 38 5b 2d 6e 39 0b f1 3c 36
       0.00038586222 7.035973e-05 0.00022714345 2.8154489e-06
0000a0 7e db bb 36 77 51 c4 37 41 71 31 39 a8 07 5a 35
       5.5985865e-06 2.3402956e-05 0.00016922226 8.122247e-07
0000b0 90 19 80 3a 2f 97 14 36 92 e3 53 38 f3 2f 60 38
       0.0009773243 2.214172e-06 5.051826e-05 5.3450418e-05
0000c0 47 aa 8f 39 24 82 2a 38 d3 9d ee 3a d3 99 52 39
       0.00027401952 4.065236e-05 0.0018204994 0.00020084465
0000d0 7f 34 38 38 ea 41 54 36 09 7c c8 39 b0 9d d4 38
       4.391791e-05 3.1628829e-06 0.00038239386 0.00010138319
0000e0 f3 8b 77 38 ed 88 3c 38 73 18 7e 39 bd 92 34 38
       5.9019727e-05 4.4950215e-05 0.00024232436 4.3052005e-05
0000f0 23 db f1 39 a9 bb db 35 cc a8 0d 3b f5 09 fa 38
       0.00046130372 1.6371388e-06 0.0021615503 0.000119227836
000100 91 d3 21 39 76 0a 35 38 f3 96 a5 33 8e 64 ef 35
       0.00015432971 4.3163505e-05 7.710869e-08 1.7836153e-06
000110 a9 a7 17 37 83 05 9f 37 61 01 01 3b d4 6e 3c 39
       9.039338e-06 1.8956844e-05 0.001968466 0.00017970364
000120 9e 9a cc 3a 1c 3d d7 39 2a a4 8f 3a 58 45 38 39
       0.0015610044 0.00041053526 0.0010958959 0.0001757344
000130 81 db 3f 3b f6 a4 8c 39 8c 6d a7 39 24 26 d1 38
       0.0029275122 0.00026825786 0.0003193434 9.973001e-05
