pdebench/models/newly_trained_models1D_Advection_Sols_beta4.0_PINN.pt-5000.pt (torch, 120395 bytes, 39 tensors)

linears.0.weight f4 [40, 2]
000000 1c 76 a5 3e bc f9 22 be e3 05 6e 3d 00 0a 60 3e
       0.32316673 -0.15915579 0.058111083 0.21878815
000010 64 86 81 be 9e 4f 26 3d 38 aa db 3d 61 9d 29 be
       -0.25297844 0.040603273 0.10725826 -0.16563942
000020 32 14 06 3d 87 28 59 be e3 44 b9 bc 0b d6 7f 3e
       0.032734104 -0.21206866 -0.022615856 0.24983995
000030 98 f5 5a 3e 66 a4 5c bd dd 5c 17 3e 50 eb 58 be
       0.21382749 -0.05386772 0.14781518 -0.21183515
000040 a5 22 b0 be 9f 5e 06 3e 7d 06 8b 3e 83 eb fe be
       -0.34401432 0.13122033 0.27153388 -0.49789056
000050 6b 7e aa 3e b9 56 0d 3d fe 80 18 3e 16 76 6e 3d
       0.33299574 0.034506533 0.14892957 0.058218084
000060 aa 41 ff bd 2a 95 da bb e9 b9 57 be 48 aa 22 be
       -0.12463696 -0.006670614 -0.21067013 -0.1588527
000070 4b ff 49 be b1 1e ad 3e ad 78 04 3d 70 75 7d 3e
       -0.19726293 0.33812478 0.032341648 0.2475183
000080 92 30 08 3f 69 6c bc be 4a 0a 26 bd ef 8e 67 3e
       0.5319911 -0.3680146 -0.040537156 0.22613119
000090 c3 a0 d5 be 2c cd ff 3d 35 4d 81 3c 87 e7 b9 3d
       -0.41724214 0.12490305 0.015783885 0.090773635
0000a0 e6 e9 da 3e ef 4e 93 be 83 3d c9 3e 19 ae ac bc
       0.42756575 -0.2877116 0.39304742 -0.02107911
0000b0 c4 0c ef be c4 20 28 3e f2 f7 df be a7 21 56 3e
       -0.46689427 0.16418749 -0.43743855 0.20911275
0000c0 9d e8 7e ba 10 7b a1 3d bf 07 44 3e fd cb c3 3d
       -0.0009723993 0.078848004 0.1914358 0.09560392
0000d0 5a 8c 56 3e b9 8e 3f 3d f5 78 ba 3e f3 54 4a 3e
       0.20951977 0.04676697 0.36420408 0.19758968
0000e0 bb 8a 11 3e 66 d2 da 3e 4f 2d cb 3c ce 25 fd be
       0.14213078 0.42738646 0.024801878 -0.49442905
0000f0 db 66 96 be 57 85 a1 be a5 ff 6c be 79 d8 1a be
       -0.29375347 -0.31547043 -0.23144396 -0.1512164
000100 ba 8f 5a 3e b5 f5 e6 3d 91 89 ec 3e 99 eb ce bc
       0.2134389 0.11277334 0.46198705 -0.025258826
000110 26 c0 82 be 6f 49 2d be 8b 0b b3 be 9b 2d 1c 3e
       -0.25537223 -0.16922544 -0.34969744 0.15251772
000120 63 84 0f be 09 6a a8 be ab 64 c7 3b 4a f8 df be
       -0.14015345 -0.32893398 0.0060849986 -0.43744117
000130 df 72 3a 3c 8f dd cf 3d 93 2c af 3e 01 8f 69 be
       0.011379926 0.10149681 0.34213695 -0.22808458

linears.0.bias f4 [40]
000000 84 b4 25 3e 7a da 21 be 2c 81 fe 3d e9 3e e0 3d
       0.16182142 -0.15805998 0.12426981 0.10949499
000010 d3 4b cb 3d 08 63 1f be f5 58 b5 bd d8 36 1d 3d
       0.09926572 -0.15565121 -0.08854858 0.03838238
000020 e8 d6 29 bd 2c ba ba bd e2 1c b0 be 9a c2 3e 3c
       -0.041464716 -0.09117541 -0.34397036 0.011643076
000030 c8 3d a4 3e 08 47 53 bc a4 3d 9b bd 2e e1 85 3d
       0.32078385 -0.012895353 -0.075801164 0.0653709
000040 b1 77 c1 bc 74 72 60 3d 8a e8 97 3d 7e 37 11 be
       -0.023616644 0.05479665 0.074174 -0.14181325
000050 f7 a8 0a bd 5d eb a0 3d 78 a0 1a be 82 f6 7f 3e
       -0.033852544 0.07857392 -0.15100276 0.24996379
000060 c0 1c 54 3d 94 ab 8e bd eb 3e e3 3b 71 06 41 bb
       0.05178523 -0.0696632 0.0069349906 -0.0029453302
000070 0d b7 4c 3d d9 f5 ad bd 7c cd 9f 3c 4d 74 36 3b
       0.04997926 -0.08494157 0.019507162 0.0027840317
000080 ea f4 e2 bd 49 b8 07 bd a8 12 bc 3d c7 ca c8 bd
       -0.1108187 -0.033134732 0.09183246 -0.09804302
000090 c2 2e 26 bd f3 d2 6a 3d 16 04 1c 3d c6 4b 84 be
       -0.040571935 0.057330083 0.038089834 -0.2583906

linears.1.weight f4 [40, 40]
000000 77 b8 4a be 5f 21 18 3e 29 47 5b 3c 6e a4 9e 3e
       -0.1979693 0.1485648 0.013383665 0.30984825
000010 1a fe 48 be cf 23 e6 3d df 76 d0 bd 79 b4 c8 bd
       -0.19628182 0.11237299 -0.10178923 -0.098000474
000020 26 88 e3 3c 30 5b 10 be f0 7c 70 bd 7b 20 47 bc
       0.027774882 -0.14097285 -0.0587129 -0.01215374
000030 e9 84 1d be fc 46 5f be 53 1b b6 bb ef 5b f2 3d
       -0.15382732 -0.21804422 -0.0055574565 0.11833941
000040 ca 9f d4 3d f3 b9 3f 3e 3d 98 39 3e f9 17 1b bc
       0.1038204 0.18723278 0.1812448 -0.009466165
000050 90 c5 a7 bd 76 9e 08 be e5 91 7c 3e 5e 5b 63 3e
       -0.08191979 -0.13341698 0.2466503 0.22202823
000060 c2 61 9a bd 25 6d 0b 3d 9a f6 24 be f9 4f ac be
       -0.07538177 0.034039635 -0.16109696 -0.33654764
000070 4f 47 2e 3d 6d 6d 68 be 7b 79 67 bd db 5e 5f 3e
       0.042548474 -0.22697993 -0.056512337 0.21813528
000080 2c 89 8a 3d 5a ea c3 3d f6 b8 72 be 8a 17 51 3e
       0.06764445 0.095661834 -0.2370337 0.20419136
000090 9e ca 05 be 0a 73 16 bd 43 40 3d bd 5c 08 b8 3e
       -0.13065574 -0.036730804 -0.046203863 0.35943878
0000a0 ca 58 2e 3e bd dc 70 bd e4 9e 25 be 0c 93 8b 3e
       0.17026058 -0.058804262 -0.16173893 0.27260625
0000b0 36 94 e5 3d de a6 ab bc 11 2c 5f 3e b5 4a 95 be
       0.112099096 -0.020953592 0.21794154 -0.2915856
0000c0 8e 36 63 be 47 79 e6 bd 87 12 6b 3d 5d 99 d7 bc
       -0.2218878 -0.112536006 0.057390716 -0.026318246
0000d0 6e 81 5e 3e 36 26 a1 bd 16 97 df bc 62 16 b7 bd
       0.21729061 -0.07868616 -0.027293723 -0.08939816
0000e0 7d 54 83 3e c9 71 60 be 91 7a 7e bb b0 e8 15 be
       0.25650397 -0.21918406 -0.003883038 -0.14639544
0000f0 06 2d 05 3e ef d9 2f 3e c2 1d 4b be c7 66 d8 3b
       0.13005456 0.17172979 -0.1983557 0.006604049
000100 9a c7 1a be a4 3d 49 3e b6 a1 3d 3e 2a d9 71 3d
       -0.15115204 0.1965242 0.18518719 0.059044994
000110 d5 a2 c5 bd aa 4b 08 3e 8a 45 00 be d8 f4 7f be
       -0.09650198 0.13310114 -0.12526527 -0.24995744
000120 f1 a5 5f 3e e6 54 e0 3c c0 a4 eb 3c ab dc 6d be
       0.21840645 0.027384233 0.028765082 -0.2322871
000130 3f 66 2a 3c 82 47 72 be 7d db 67 3d 50 e5 8b bd
       0.010400354 -0.2366009 0.056605805 -0.06830847
000140 52 0a 12 be 56 d7 1e 3e fe 13 a8 3e f2 c4 2c be
       -0.1426175 0.15511832 0.32827753 -0.16872004
000150 21 78 b5 be 51 c7 3c 3e 5a c0 a3 be 10 d3 b5 bd
       -0.35443214 0.18435408 -0.3198269 -0.088781476
000160 3c 7b ae 3e 59 e9 41 3d 1e 09 85 3d 80 fc 80 3e
       0.34078395 0.04734168 0.064958796 0.25192642
000170 c1 0f 68 be 38 81 46 3d ed 09 8a bc 19 a0 bc 3d
       -0.2266226 0.048463076 -0.016850436 0.09210224
000180 0b 71 0e be 4e 0c 18 be 41 91 6a 3e 32 7a 20 3e
       -0.1391031 -0.14848444 0.22906972 0.15671614
000190 90 70 93 3d b0 f5 c5 be cd dc e8 3e d3 52 61 be
       0.07199204 -0.38664007 0.45480958 -0.22004251
0001a0 0e 81 26 3c ad 30 bd 3d dc ca 30 be 53 79 3d bd
       0.010162605 0.092378 -0.17264885 -0.046258282
0001b0 28 99 c4 be 92 cf 70 be 81 04 9a 3c 55 d1 20 3e
       -0.383981 -0.23516682 0.018800976 0.15704854
0001c0 b4 9a 2e 3d b5 94 73 be 19 60 64 3b 65 7b 95 3e
       0.042628005 -0.23787196 0.0034847318 0.29195705
0001d0 d8 1a 83 3e 33 f2 2b 3d d3 ba 3f be 5c 93 90 bd
       0.25606418 0.041979026 -0.18723612 -0.070593566
0001e0 6e cb 8f 3e 39 40 82 be 4d 93 e8 3c 96 cb 44 bc
       0.28084892 -0.25439623 0.028390551 -0.012011429
0001f0 89 a8 31 bd 91 de 1c 3d 06 d9 d4 3d 2e 33 33 3d
       -0.04337362 0.038298193 0.103929564 0.04374998
000200 41 be 85 bd 82 38 97 3d da cc fb 3d 4c e0 a5 3e
       -0.06530429 0.07383825 0.12294932 0.32397687
000210 e4 15 10 3d af 95 4c bd d6 e9 7c be 8b f8 bc 3e
       0.035177127 -0.049947437 -0.24698576 0.36908373
000220 a0 35 65 bd e8 8c 02 3e 59 36 a4 3d 4c 0c c1 bd
       -0.055959344 0.12749064 0.080181785 -0.094261736
000230 1a cd 9d 3d 97 e7 57 3d 51 2a 7a 3c 16 35 9a 3d
       0.07705136 0.052711096 0.015268878 0.075296566
000240 b5 3f dd bc 87 0c a4 3e 18 46 99 3d e8 55 49 3e
       -0.027007917 0.32040808 0.074840724 0.19661677
000250 28 41 27 3e 7b 0d e0 bd 52 29 0f be 8f ad f2 bd
       0.16333449 -0.10940071 -0.13980606 -0.1184951
000260 03 13 8d 3d 42 4b 00 3e 02 b8 86 3d 3a 07 03 be
       0.06888392 0.12528709 0.065780655 -0.12795725
000270 37 f0 e8 bd 5a 01 39 be 97 c9 12 be 42 d2 ab 3e
       -0.11373942 -0.18066922 -0.14334713 0.3355885
000280 60 53 67 3e a9 f6 39 3d 68 fb e8 3c 23 de 0c 3e
       0.22590399 0.04540125 0.028440192 0.13756613
000290 b8 5b 0a be b1 44 f6 3c 80 0a 38 3e cb 2b 27 3f
       -0.1351155 0.030062051 0.17972755 0.653012
0002a0 58 27 e3 3d 1a d3 ec 3d d5 84 99 3d 78 67 03 3e
       0.110914886 0.11563702 0.07496039 0.12832439
0002b0 ef a7 ef bd 3a 9f 49 3d d9 48 8c bd a7 4c a1 bc
       -0.11701953 0.049224116 -0.06849832 -0.019689871
0002c0 56 86 92 bd d0 7b 41 be 9f 8a 4d bd c5 e5 3f 3e
       -0.07154529 -0.18894887 -0.050181028 0.18739994
0002d0 51 60 f0 3d 97 d6 ab 3e 83 e6 68 be 29 57 f1 3d
       0.11737121 0.33562157 -0.22744183 0.117842026
0002e0 19 d2 c9 3e 89 46 41 bd 0d 73 93 3d 91 8b 97 3d
       0.39418104 -0.04718641 0.071996786 0.07399667
0002f0 bd b7 4a be f0 d9 31 be 34 6a ed bd ee 27 8a bc
       -0.19796653 -0.17368293 -0.11592522 -0.016864743
000300 25 be 99 bb 59 e0 43 3c b3 11 82 3e 18 d7 a7 3d
       -0.0046918564 0.011955344 0.25404128 0.08195323
000310 49 af 36 be c0 3a 4e 3e b8 16 b1 bd 97 4d b5 bd
       -0.17840303 0.20139599 -0.086469114 -0.0885269
000320 19 56 20 3d 8d cc 4f be 17 9c ad be 01 d7 4d 3b
       0.03914461 -0.20292874 -0.3390815 0.003140867
000330 a7 82 24 3e da 8a d8 bd 32 2f ad 3d c7 bb 8d 3e
       0.16065465 -0.10573359 0.084562674 0.27682325
000340 3c 98 78 bd 75 1d 9b 3d d7 57 bd 3d 04 ac 37 be
       -0.060692057 0.07573978 0.0924527 -0.17936713
000350 8e bf 6b be ae 8f ee bd 84 9e 63 bd 0e fe f8 3d
       -0.23022291 -0.116484985 -0.055571094 0.12157832
000360 c2 21 92 bc 0d 92 61 3e 72 01 24 be 87 cf 2d 3c
       -0.017838363 0.2202837 -0.16016176 0.01060856
000370 c0 9e 74 3e a3 b1 c0 3d 18 1d 6c bd 42 fc d9 bc
       0.23888683 0.094088815 -0.057644933 -0.026609544
000380 8b 1a 6f be c6 53 b8 bd 11 5b 64 bd dd 9a b4 3d
       -0.23349969 -0.090003535 -0.05575091 0.088186
000390 18 58 60 bd db 2f 03 be 52 41 76 3d 78 c9 dc bd
       -0.054771513 -0.12811224 0.060120888 -0.107806146
0003a0 e4 e5 25 3e 29 a5 1b 3d b8 90 58 be 37 6e 10 3e
       0.16200978 0.037999306 -0.21148956 0.14104544
0003b0 4c 5b 9a bd 30 da 12 3d 7a dc 51 3e d4 eb 1a 3e
       -0.07536945 0.03585261 0.20494261 0.15129024
0003c0 9f d8 49 bd bc 62 91 be 61 3d c1 3e 42 d0 91 3e
       -0.04927885 -0.2839564 0.3774214 0.284792
0003d0 65 e2 d6 bd b9 80 ec bd bf c3 2c be b1 31 84 be
       -0.104924 -0.115479894 -0.16871546 -0.25819162
0003e0 1c 05 c2 bc 24 5a e6 3d 0b 92 8d be e6 86 06 3e
       -0.023684077 0.11247662 -0.27650484 0.13137397
0003f0 56 1e cb 3e 69 20 0e 3e 56 bb 27 3e d2 55 93 bd
       0.39671582 0.13879551 0.16380057 -0.07194103

linears.1.bias f4 [40]
000000 5b 22 4f bd de 57 eb 3c 74 3c f2 bd a2 ca 9e 3c
       -0.050569873 0.028728422 -0.11827937 0.019383732
000010 ae eb 04 3c 71 d0 e5 3a fa 2f eb 3c 14 60 6e 3e
       0.008112831 0.0017533434 0.0287094 0.23278838
000020 a8 37 b4 3d 63 f7 e0 3d c3 59 56 bc bb ac 9c 3d
       0.08799678 0.10984685 -0.013082924 0.07650133
000030 28 db 6d be 74 0d 69 3d d6 9a 74 bc f1 a8 0a bd
       -0.23228133 0.056897596 -0.014929494 -0.03385252
000040 29 5b 1f 3c 40 da d0 3d 48 bc c0 bb 26 f6 2b bd
       0.009726324 0.10197878 -0.00588182 -0.041982792
000050 ef 37 31 bd dc 37 3b 3d d2 5d a1 bd 4b b6 02 be
       -0.043266233 0.04570757 -0.07879223 -0.12764852
000060 b0 29 2f be 27 50 b8 bd 72 e3 8b 3d dd a0 f7 bd
       -0.17105746 -0.08999663 0.06830491 -0.12091229
000070 18 e2 c9 bd ab cc 80 3e ec 2e 87 3d e7 fe e5 3c
       -0.09857577 0.2515615 0.066007465 0.028075648
000080 06 fe 4c 3e 06 75 ec 3c a0 88 56 3d 24 88 93 bc
       0.20018777 0.028864395 0.05237639 -0.018009253
000090 66 48 86 bd ab 5e 5f bd 76 24 19 be 7f e4 89 bd
       -0.06556778 -0.05453364 -0.14955315 -0.06733035

linears.2.weight f4 [40, 40]
000000 8a 4c 27 3e b7 72 a2 ba e1 81 da 3e f4 02 b9 bc
       0.16337791 -0.0012393807 0.42677215 -0.022584416
000010 36 36 c5 bc dc 30 6b be ce b7 ac 3e 46 39 a8 3d
       -0.024073701 -0.22967857 0.33733982 0.08214049
000020 9e f9 01 3e c8 9d bb be 27 3f 44 bc 7f a0 13 3e
       0.12692878 -0.36643815 -0.011977947 0.14416693
000030 dd 56 de bd a3 64 d8 bc 01 79 7d 3c dc 78 0e 3d
       -0.108564116 -0.026415175 0.015470744 0.03478323
000040 fc c6 6a 39 57 91 af be b8 eb b1 be ec 81 d1 3e
       0.00022390106 -0.34290573 -0.34750152 0.40919435
000050 b3 8d e6 bd 3c 35 e3 3d 98 28 aa 3d 7c f1 70 3d
       -0.11257496 0.11094138 0.08308524 0.058824047
000060 41 4f 0a bd 93 da 9a be c6 39 77 3d 43 8c a9 3d
       -0.03376699 -0.30244884 0.06035783 0.08278706
000070 72 f6 38 3f 79 ab 40 3d e2 7f 89 3e 4c 2e 12 be
       0.72251046 0.04703853 0.2685538 -0.14275473
000080 83 fd f5 be a6 9c 76 be 22 0c 8a bd af 7b 11 3e
       -0.48044977 -0.24083194 -0.067405954 0.14207338
000090 e8 57 c3 bc 7c 36 21 3e 86 1c 62 3e 28 50 85 3e
       -0.023845628 0.1574344 0.22081193 0.26037717
0000a0 5f 70 47 be 8f c6 d0 3b 37 22 ad 3d 36 1f 0c bd
       -0.1947646 0.0063713263 0.084537916 -0.034209453
0000b0 4b 96 a3 3b 66 cb 37 be 9f 02 be be 0b 20 47 bf
       0.0049922816 -0.17948684 -0.37111375 -0.7778327
0000c0 27 5b 72 bd 55 f3 94 bd f9 70 85 bd 8a 5c 87 3d
       -0.05916896 -0.072729744 -0.065156884 0.06609447
0000d0 ff 99 b5 3e cd 19 2d be 8f 48 3c be ef ba 7a 3e
       0.35469052 -0.16904373 -0.18387054 0.24485372
0000e0 c3 18 c0 3e 97 67 c9 bd 43 7f 7a 3e d5 96 66 3d
       0.37518892 -0.09834211 0.24462609 0.05629619
0000f0 0b e1 85 3d 30 67 ba 3c 8c 04 3b 3e f1 79 27 3f
       0.06537064 0.022754282 0.18263453 0.6542044
000100 f0 eb af 3e 2c e3 5a 3e fd d5 17 be 19 8c 95 3e
       0.34359694 0.21375722 -0.14827724 0.2920845
000110 80 2d e9 bd 01 22 0c be 18 66 cf be b8 fc df be
       -0.113856316 -0.13684846 -0.4050758 -0.43747497
000120 64 b2 e7 be 39 be 79 bb 53 a4 0b be de 64 73 3e
       -0.4525329 -0.0038107766 -0.13636903 0.23768947
000130 72 94 84 3e 1f af 2a 3e 63 7e 53 3e f6 a2 64 bd
       0.25894505 0.16668366 0.20653681 -0.055819474
000140 f1 56 68 3e 82 e5 61 be 9f 6e ea 3d 9b 83 a3 bd
       0.22689416 -0.22060207 0.114468805 -0.07984086
000150 a4 fd 34 3d 3a b1 56 be c1 c6 b2 3e 8f 77 bf 3e
       0.044187203 -0.20966044 0.34917262 0.37395903
000160 d9 1b ad bd 2f ee b0 be f1 d4 b8 3d 14 52 c0 bd
       -0.08452577 -0.3455672 0.0902499 -0.09390655
000170 ee 0a df 3d 4d 20 67 be e7 e2 1f 3e d9 d0 03 be
       0.108907565 -0.22570916 0.156139 -0.12872638
000180 44 89 15 3d f8 4a 19 bf fd a2 04 bf 30 78 64 3e
       0.03650786 -0.5988002 -0.518112 0.22311473
000190 ae 77 66 be 9f 95 bc 3d 82 5f 09 be ed 3b 29 be
       -0.22506592 0.092082255 -0.1341534 -0.16526766
0001a0 89 7d fc bd 77 c1 10 be 30 7d 19 3e eb 21 cc 3e
       -0.123286314 -0.14136301 0.14989161 0.39869627
0001b0 be 08 07 3f 88 6a 43 3e df ec 36 3e 7a 51 8d 3c
       0.52747715 0.19083607 0.17863797 0.017250765
0001c0 6a 8d f3 bd 2c 44 4c 3e e5 3e cf 3c d0 0e e4 be
       -0.11892207 0.1994788 0.025298545 -0.4454255
0001d0 97 dc e9 3d fe 99 ee 3d 38 f9 6e 3e 7f 97 05 3f
       0.11419027 0.116504654 0.23337257 0.5218429
0001e0 96 5c eb 3c f5 8e c3 3d c4 36 59 bc 0c ed f8 bc
       0.028730672 0.09548751 -0.013257686 -0.03038647
0001f0 19 e8 a4 be bb a8 8f be fb f9 82 3e 0f ad 8e 3e
       -0.32208326 -0.2805842 0.25581345 0.27866408
000200 97 5a dd bd 22 f2 c2 be 3b 99 fc 3d 14 c3 a0 bd
       -0.10808294 -0.38075358 0.12333914 -0.07849708
000210 8f a0 00 3e 20 0c 0f 3d 54 bb dd be 13 1f 9b 3e
       0.12561248 0.034923673 -0.43306983 0.30297145
000220 35 8a 33 be 1e ed 97 3c 03 c4 49 be 09 85 da bc
       -0.1753319 0.018545683 -0.19703679 -0.026674764
000230 65 e7 18 be fe ab f5 bd c6 89 3a be 82 16 07 bd
       -0.1493202 -0.119956955 -0.18216619 -0.03298045
000240 31 c9 41 3e 32 aa 8f 3d 95 1f ca bb cc a5 72 bd
       0.18924405 0.07014884 -0.0061683157 -0.059240147
000250 66 37 61 be 79 69 a7 3e 0f 0a f0 bc 1d 21 c9 bd
       -0.21993789 0.32697657 -0.029301671 -0.09820769
000260 7d 1d 2a be 02 24 56 3d dc 14 b4 3e c7 b9 d6 3d
       -0.16612811 0.052280433 0.35172164 0.10484653
000270 9b 67 34 3e 75 76 b9 3e 36 1f fe bd aa f2 c0 3e
       0.17617647 0.36223188 -0.12408297 0.37685138
000280 2e ad 9d 3e f5 2a 73 be 25 82 32 3e b7 42 61 bd
       0.30796188 -0.23746856 0.17432459 -0.054995265
000290 a7 fd e6 bd 0d 5a 24 be 8b 08 65 3d 16 76 25 be
       -0.11278849 -0.16049977 0.05591635 -0.16158327
0002a0 52 e1 b7 be f3 5e 98 be 5c b3 a5 3e 49 6c 96 3d
       -0.35914093 -0.2975994 0.32363403 0.073448725
0002b0 7e 7b 53 be c5 8e f9 bd 57 6d 54 3e 7b 96 95 3d
       -0.20652577 -0.12185434 0.20744835 0.073040925
0002c0 65 ca 4d 3e 7e 29 bd bd e1 68 0b bd 98 77 28 3e
       0.20096739 -0.0923643 -0.034035567 0.16451871
0002d0 42 e1 41 3d 61 78 38 3e 36 17 03 be 47 28 b0 3b
       0.047333963 0.18014671 -0.12801823 0.005375895
0002e0 db ad c2 3d fc a4 10 3e bd 5e 00 be cf e5 a3 3d
       0.095058165 0.14125437 -0.1253614 0.08002817
0002f0 0a 91 0c 3e c2 63 a4 3d a6 c0 94 3e 7d d4 54 3b
       0.13727203 0.0802684 0.2905323 0.0032475286
000300 0c 1d d7 3a 11 1c ef 3d 2e 03 d8 3d 67 41 9b bd
       0.0016411855 0.11675275 0.105474815 -0.07580834
000310 19 c3 b5 3e 85 8f 1f be e9 ee c9 3e 52 80 86 3e
       0.3550041 -0.15582092 0.39440086 0.26269776
000320 96 68 c2 3c 28 5d 8e bd 1e 85 84 bd d1 99 d6 bd
       0.023731511 -0.06951362 -0.064707026 -0.10478557
000330 7d 4f 1b be 2d f0 db 3d 80 c0 e9 3e d6 b6 58 3e
       -0.15167041 0.10739169 0.45654678 0.21163496
000340 01 f1 80 3c 06 b1 56 bc 50 53 76 bd a8 49 b8 3d
       0.01573992 -0.013103729 -0.060138047 0.08998424
000350 2e b6 90 bd 7a a1 7a 3d b3 65 0d bd 41 72 11 3e
       -0.07065998 0.061189152 -0.034520816 0.1420374
000360 b4 5b e1 3d dd 4a 1c be 5b 7d 13 bd 95 99 43 3e
       0.11003819 -0.15262933 -0.03600822 0.19101556
000370 dc b7 96 3d 20 42 88 3d 28 6b b1 bc af 58 f4 bd
       0.07359287 0.06653237 -0.021657541 -0.119309776
000380 91 e8 64 be 02 30 ad be 41 d9 a7 bd 94 94 28 be
       -0.22354342 -0.3382569 -0.08195735 -0.16462928
000390 2c 3b f3 3c 23 78 70 3d d6 94 7a 3c 60 8d c4 bd
       0.029691301 0.05870832 0.015294274 -0.09597278
0003a0 8d 7d d2 bb 6a 26 bf 3e aa dd b6 bb fe 8a b1 bd
       -0.006423658 0.37333995 -0.0055806236 -0.08669089
0003b0 a3 33 ae 3d 1c c8 eb bc fa 6e 37 3d 96 0d a2 bd
       0.08505943 -0.028781943 0.04478357 -0.079127476
0003c0 dc 09 45 bd 69 5b 20 be ec fc 94 3e 02 b5 da bc
       -0.048105106 -0.1565987 0.29099214 -0.02669764
0003d0 a4 b8 82 be 4b 85 f6 bd c7 e9 09 be 5d 4c 0c 3e
       -0.25531495 -0.12037142 -0.13468085 0.13701005
0003e0 a5 ee ce bd 80 65 8f be 51 2d 1c be cc ed d0 be
       -0.101041116 -0.28007126 -0.15251662 -0.40806425
0003f0 5c 1a b2 3c fc 72 24 bc cc 19 6a be 32 00 6f 3d
       0.021741085 -0.01003718 -0.22861403 0.058349796

linears.2.bias f4 [40]
000000 3e 0d 82 bd 7a fc 57 be fc 08 60 bd 46 80 08 bd
       -0.06350182 -0.21092406 -0.05469607 -0.033325456
000010 30 c7 95 bd 14 c4 11 3b 9e 69 26 bd f6 f9 cf bd
       -0.073133826 0.0022242116 -0.04062807 -0.10155098
000020 8e 92 07 3d 2a bd 36 3d 21 02 25 3d e7 fe 4f 3d
       0.03309875 0.044613995 0.040285233 0.050780203
000030 0a 09 0e bd a1 dd a9 bc 8d ca 34 bc e6 fb 48 be
       -0.03467659 -0.020735564 -0.01103462 -0.19627342
000040 4a 3f 20 3d bb 88 45 bd 79 da b4 3c 82 35 35 3d
       0.039122857 -0.0482261 0.022076832 0.044240482
000050 01 ef 03 bb 6c 08 9d bc f7 3e 95 3d d3 c2 2b bd
       -0.002013147 -0.019169055 0.072874 -0.041933846
000060 42 3b 04 3d b0 ad 35 bd 72 ca 84 bd a5 08 74 3d
       0.032283075 -0.044355094 -0.06483926 0.059578557
000070 11 9f 74 3d 3e f4 19 bd 35 3e dc 3b 46 ba e4 bc
       0.05972201 -0.037586443 0.006721283 -0.027920853
000080 84 68 f0 bc c0 43 96 3c 82 ea 88 bd 62 ea 32 bc
       -0.029346712 0.018342853 -0.06685354 -0.010920139
000090 70 71 da 3c bd 30 c0 bd ff 48 1a bd 07 96 99 bd
       0.02666542 -0.09384296 -0.03766727 -0.074993186

linears.3.weight f4 [40, 40]
000000 72 d1 bc bc 7a 23 e2 bd 08 4f 07 be d2 4f 26 3e
       -0.02304909 -0.11041923 -0.13213742 0.16241387
000010 b2 57 94 3e 60 87 96 3d 8e 35 36 be 31 69 7d be
       0.28973156 0.073500395 -0.17793867 -0.24747159
000020 7a fe b9 be bc 82 c9 3d f9 5c 88 3a 0d e7 20 be
       -0.36326963 0.09839389 0.0010403685 -0.15713139
000030 d4 fd 32 3e 9e fe 22 3d 14 70 4a 3e 7b da 4e be
       0.1747964 0.039793603 0.19769317 -0.20200531
000040 cc 61 d0 39 d2 c1 13 be 18 11 12 be ee 94 34 3e
       0.00039745716 -0.14429405 -0.14264333 0.17634937
000050 0c 90 fa 3c 5d f2 37 3e 11 64 f7 3e 84 12 7b 3d
       0.030586265 0.17963548 0.48318532 0.061296955
000060 4b e6 c2 bd 3d 8d 5c 3d d5 e8 b6 bd c2 86 88 3d
       -0.09516581 0.053845633 -0.08931128 0.06666328
000070 e8 0f 55 be c0 5b 1d 3d 53 d3 22 bd 6a 57 ac bc
       -0.20806849 0.038417578 -0.039752316 -0.021037776
000080 10 23 21 bd 12 38 94 bd 09 9d 80 3d ed 98 3a bd
       -0.03934008 -0.07237257 0.06279952 -0.045555998
000090 01 c6 0b be 31 50 ce be 1e fe 62 be 66 4b 70 bd
       -0.13649751 -0.40295556 -0.2216725 -0.058665656
0000a0 ab 32 61 be f3 a5 8a bd c5 4b 7e bd 57 90 95 be
       -0.21991985 -0.067699336 -0.06208398 -0.29211685
0000b0 0e 6f 9a be 8e 86 8f 3e dd 9a 63 3d a0 5e 7c 3e
       -0.30162853 0.28032345 0.05556761 0.24645472
0000c0 3d a8 43 3d d3 90 70 be 18 a3 85 bd e8 15 8d 3e
       0.047767866 -0.23492746 -0.06525248 0.27555776
0000d0 dd fa 30 be 4e 36 13 3e f4 e4 20 be ac 27 63 be
       -0.17283197 0.14376184 -0.15712339 -0.22183102
0000e0 b3 5f 38 be f3 1b 1f be 48 f8 18 bd eb 91 cf bd
       -0.18005256 -0.15538006 -0.037346154 -0.101352535
0000f0 ed b9 25 be 7f 00 7f 3d 93 92 6e 3e cb 8a 59 bc
       -0.16184206 0.062256332 0.23298101 -0.01327772
000100 83 89 3d 3e 8c 25 46 3e 7f 08 93 be 69 a7 4f 3e
       0.18509488 0.1935026 -0.2871742 0.20278706
000110 2d f9 e4 3e 21 a8 33 3e 08 af 77 bd c7 a9 3f be
       0.44721356 0.17544605 -0.060469657 -0.18717109
000120 2e c2 85 be ae 01 a1 3d c1 6d 0d be 14 94 b6 be
       -0.2612471 0.078616485 -0.13811399 -0.3565985
000130 21 00 4f be c4 b9 c7 3c 1d 3a 1e 3e cf ba 9f bd
       -0.20214893 0.024380572 0.15451856 -0.07799303
000140 55 3c 60 3d 0d fb 19 3e b8 6a 3a be d2 c2 3e 3e
       0.054745037 0.15037175 -0.18204772 0.18629006
000150 16 dd 85 be b8 f9 18 be 29 58 24 3e e7 c0 1d bc
       -0.26145238 -0.1493901 0.16049255 -0.009628511
000160 f0 32 aa 3e ff 6c 44 bd d6 28 40 3d c3 df 84 3e
       0.33241987 -0.04795551 0.046913944 0.25951967
000170 ae 93 70 be 91 2c c5 3e 75 73 d9 3d e7 e5 15 be
       -0.23493835 0.38510564 0.10617725 -0.14638482
000180 d3 74 26 bd bc 21 e8 3c ee d2 e2 be d7 05 1e be
       -0.040638756 0.028336398 -0.44301552 -0.15431915
000190 54 b0 36 bd 10 9d c5 be f5 56 fa 3d 7d a9 0a 3e
       -0.044601753 -0.38596392 0.12223617 0.13541217
0001a0 55 c1 19 3e 24 ae af bd ca cc 9e be bb 6d 09 3e
       0.15015157 -0.085781366 -0.31015617 0.13420765
0001b0 36 eb 8f 3e 57 2e 89 3d 8d 2e ba 3e fe 45 13 be
       0.2810914 0.06698292 0.3636364 -0.14382169
0001c0 c4 3a f8 3d 56 79 6e be ea a1 da bd 82 0e 96 bd
       0.12120584 -0.23288473 -0.10675414 -0.07326986
0001d0 72 b0 34 bd 75 12 de bd ee 3e b2 be c6 3d 14 be
       -0.044113584 -0.10843364 -0.34813637 -0.1447669
0001e0 6b a1 07 3e 02 bb 4d 3c f9 6d db 3b 02 37 14 be
       0.1324517 0.012556793 0.0066964594 -0.14474109
0001f0 82 ed 36 be 10 ed d1 3d b0 e5 f1 3d 14 cd 6b 3e
       -0.1786404 0.10250294 0.118113875 0.2302745
000200 94 4a bd 3d 7d 6b 32 be 55 5d c1 bc 21 fe d4 bd
       0.0924274 -0.17423816 -0.023604074 -0.10400034
000210 39 40 26 be 61 db 1b 3e 73 bd 48 3d b6 7e 4c 3e
       -0.16235436 0.15220405 0.049008798 0.19970211
000220 f6 c4 66 3d 0b f2 5f be 09 78 e6 3b d2 99 83 3e
       0.05634018 -0.21869676 0.0070333523 0.25703293
000230 f3 d3 bb bd 19 27 0e be 59 44 0b be f4 be cf bd
       -0.091712855 -0.13882102 -0.13600291 -0.10143843
000240 58 90 db 3d 5c 39 6b 3e 2c 86 92 3d 4e 3b 7b 3c
       0.10720891 0.229711 0.071544975 0.015333964
000250 a8 2c e9 bd 19 3d b3 3e 2c d0 e3 bd df 48 a8 be
       -0.11385471 0.3500755 -0.1112369 -0.32868096
000260 0b cc 34 be fc fc 96 3e 6b 4a 9f be b4 2c 47 bd
       -0.17655961 0.29489887 -0.31111464 -0.048626617
000270 30 2f 86 3d 44 1d 0b 3e 88 48 bf 3e c8 68 b4 bd
       0.06551969 0.13585383 0.37360024 -0.08809048
000280 c9 3a 27 bd 18 e0 79 be d2 08 c1 3d e3 0f 0e 3e
       -0.040827546 -0.24401891 0.094255105 0.13873248
000290 de f4 1a 3e ec 88 21 3e 17 7b 6b 3e 5b ab f4 bd
       0.15132472 0.15774888 0.22996174 -0.11946746
0002a0 b1 9f 11 be ae f8 55 be dc 28 9a bd 17 3f 4b be
       -0.14221074 -0.20895645 -0.075273246 -0.19848286
0002b0 ee 03 6f bd 8a 3f e9 bd 7a 9e e1 3d 90 99 81 be
       -0.058353357 -0.11389072 0.11016555 -0.2531247
0002c0 80 2d 35 3f 1a 20 80 3e 64 b7 98 3d 67 8d 29 3d
       0.7077255 0.25024492 0.07456854 0.041394617
0002d0 f9 95 83 3d 78 48 48 3d 56 16 ac 3d bf 73 79 3d
       0.064250894 0.048897237 0.08402698 0.0609014
0002e0 03 8a b1 be fc da e8 be 2b e6 22 3e 4d ce ab bd
       -0.34675607 -0.45479572 0.15908115 -0.08388958
0002f0 da 43 c3 be 4d fd a3 3d f9 7e 9c bd de b5 f3 3c
       -0.38137704 0.08007298 -0.076414056 0.029749807
000300 b1 29 c4 be db bc 33 be e4 41 04 be fd 64 42 3e
       -0.38313058 -0.17552511 -0.1291576 0.18983836
000310 c1 21 d8 3c 10 1e e8 bd 79 0c fd bd 75 73 63 3e
       0.026383283 -0.11333859 -0.123558946 0.22212012
000320 70 fc 2e bf 62 5c 4d 3d bf 08 8c be 6e 6f 68 be
       -0.6835394 0.05013693 -0.27350423 -0.22698757
000330 5b b1 f8 3b 2e ad 5b 3e f7 86 88 be 6a d4 0d be
       0.007589502 0.21452782 -0.2666547 -0.13850561
000340 7f 39 08 be 47 5a 7c 3e 5a 79 08 3e 41 c2 aa 3e
       -0.13303183 0.24643813 0.13327542 0.3335133
000350 7f 82 02 be 38 c2 ea 3d 0b 9b c7 bd d3 ce 55 3e
       -0.12745093 0.114628255 -0.09746369 0.20879678
000360 a3 da de bd 0d 63 72 3e bf c5 60 39 e5 65 52 3d
       -0.108815454 0.23670597 0.00021435971 0.051366705
000370 90 32 fc bc 9c 96 a5 3b 83 12 09 3e a3 1f 38 3d
       -0.030785829 0.0050533544 0.13385968 0.044952046
000380 f4 15 c8 3d 93 ad b4 3d 95 ff 96 be 52 6f d1 3e
       0.09769812 0.08822169 -0.2949187 0.40905243
000390 08 a6 93 3d f7 f4 8c bd d4 2c f1 3d 64 2f 87 bd
       0.07209402 -0.06882661 0.117761284 -0.06600836
0003a0 d5 d5 89 be 1e 7e 54 bb f0 31 82 3d d0 89 15 be
       -0.26920953 -0.0032423805 0.06357181 -0.14603353
0003b0 21 ff f7 3d 45 6c a3 bc cf da 67 bd c6 aa 28 be
       0.12109209 -0.019949088 -0.056605157 -0.16471395
0003c0 8e 6d 26 be 8a f1 71 3e e2 f4 28 bf 2b 80 0f be
       -0.1625273 0.23627296 -0.6599866 -0.14013736
0003d0 45 0b 3b 3d b8 0c e1 bd 24 68 8e be 0d 75 1a ba
       0.045665044 -0.10988754 -0.27813828 -0.0005892076
0003e0 71 b0 45 bc 20 f2 04 be 37 01 14 bd 28 8d bc 3e
       -0.012065993 -0.12982988 -0.03613397 0.36826444
0003f0 a7 43 10 bf fa 0a e6 3e 80 88 06 bf 2c 21 8f 3e
       -0.5635323 0.4493025 -0.5255203 0.27954996

linears.3.bias f4 [40]
000000 8d b3 45 3c 68 63 4c 3d 54 30 8e 3c 5f 61 06 3d
       0.012066734 0.04989949 0.017357029 0.032807704
000010 b6 c8 26 3b 18 6c b0 ba ee b2 cb bd b0 1b 8c 3d
       0.0025449223 -0.0013459949 -0.099462375 0.068412185
000020 c4 d5 d1 bc 3e a8 52 3d e1 58 15 bb 57 fb ab 3c
       -0.025614627 0.05142998 -0.0022788572 0.020993872
000030 0e 62 9c 3c d3 27 a4 bc 4d bc af 3c cb 65 d8 bc
       0.019089725 -0.02003852 0.021452093 -0.026415726
000040 27 17 6f 3c fd b0 d9 bc 8b cb eb 3c 48 a0 ce 3c
       0.014592922 -0.026573652 0.02878358 0.025222912
000050 fd 08 1b 3d 40 3c b6 bc 38 8d 41 3c eb 77 b7 3c
       0.03785037 -0.022245526 0.011813454 0.022396049
000060 1b 37 38 bd 20 0e 38 3c 20 d0 ca 3c fd 6d 33 bd
       -0.044974428 0.011233836 0.024757445 -0.043806065
000070 7f 7e 89 ba 31 9d 11 bd 62 8c b0 bc 82 81 bf bd
       -0.0010489969 -0.0355503 -0.021551315 -0.093508735
000080 56 0c e4 bc 06 79 05 bc 8d 72 34 3b b9 a9 9c 3c
       -0.027837913 -0.00814653 0.0027534098 0.019123899
000090 7e 60 4f bd f6 3e ea 3c b4 00 f8 bd c0 ef 0e bd
       -0.05062913 0.028594475 -0.12109509 -0.034896612

linears.4.weight f4 [40, 40]
000000 82 15 27 3d bd 40 3f be b2 4c 75 be e0 df 33 be
       0.040791996 -0.1867704 -0.23955038 -0.1756587
000010 72 0a 2f 3d d1 a1 ba bd 2e db 2e be 85 48 b9 bd
       0.04273457 -0.09112895 -0.17075798 -0.09047035
000020 d2 f0 48 be 04 b9 26 bc 0a 91 9b 3e 34 c2 25 3d
       -0.19623116 -0.010175947 0.30384094 0.04046841
000030 51 b9 af 3d 86 39 a1 bc 15 a0 00 be 05 7a 05 3e
       0.08580268 -0.01968075 -0.12561066 0.13034828
000040 4c bc 41 3e 39 2a 20 bc 67 54 87 be 4b ad 7c be
       0.18919486 -0.009775692 -0.2643158 -0.24675481
000050 da 06 b2 bd f7 58 9b 3e f0 98 4c 3d 2f 5c 8b bd
       -0.08692713 0.30341312 0.04995054 -0.06804692
000060 9e ab f5 bd 40 08 25 be a5 58 55 bd 9c d5 bc bc
       -0.11995624 -0.16116428 -0.05208649 -0.023051076
000070 65 c7 d0 bc f9 d7 35 be a1 0c de 3e d1 0d d2 3c
       -0.025485704 -0.17758168 0.4336901 0.025641354
000080 fb 02 7f 3e ad f6 9f bd 9a a2 0c 3c cb eb 48 be
       0.2490348 -0.078107215 0.008583689 -0.19621198
000090 8d 21 14 3e f5 a1 fc ba 9d 4b b2 bb 91 ec e3 3c
       0.14465924 -0.0019274341 -0.0054411427 0.027822765
0000a0 3b 28 56 be a4 06 6f bc 37 0c 12 be 5d 21 a2 3e
       -0.20913784 -0.014588986 -0.14262472 0.3166608
0000b0 c9 90 d3 be 7e e7 85 3e d7 69 27 3e 80 e9 ab 3d
       -0.413214 0.26153177 0.16348968 0.08394146
0000c0 d3 90 73 3c 4c 95 66 3d 45 70 22 3d 30 42 e8 3d
       0.014866072 0.056294724 0.03965785 0.11340749
0000d0 f4 ba 99 bd dd 4a 2a 3b 07 e2 67 be f6 91 2f 3c
       -0.075063616 0.0025984563 -0.22644816 0.010715952
0000e0 59 4f 96 bd 60 33 e6 3d 03 9b 21 3d 1c 58 15 bb
       -0.07339353 0.11240268 0.03945447 -0.0022788113
0000f0 15 0a b2 3d ae f2 39 be 13 0e ca bd e7 02 81 bc
       0.08693329 -0.18158981 -0.09865966 -0.015748454
000100 96 78 b1 3c d7 8e be 3d 12 b2 27 3d e1 cb 1c bd
       0.021663945 0.09304588 0.040941305 -0.03828037
000110 19 30 64 bc a5 d4 9f 3d 8e b0 10 be 0c 09 26 3d
       -0.013927483 0.078042306 -0.1412985 0.04053597
000120 6b ca 1b bc 7c 4c e4 3d a9 bf 87 3e 2a 5a a0 3e
       -0.009508709 0.11147401 0.26513413 0.3131879
000130 f0 c6 fe 3d 81 f6 e7 bd fd 30 d0 bd c0 bd ad be
       0.12440288 -0.11326314 -0.10165594 -0.3393383
000140 3d 62 95 3c c1 a5 31 3e 43 78 3c bc ee e4 a5 3e
       0.01823532 0.17348386 -0.011503282 0.32401222
000150 62 03 9a bc 72 a9 29 bd 28 5f 60 3d 94 ae 18 be
       -0.018800441 -0.04142136 0.054778248 -0.14910346
000160 59 eb 95 be d6 32 13 be 48 cb 84 be 7f 44 8f be
       -0.2928112 -0.14374861 -0.2593634 -0.27981946
000170 28 5c ad 3d 47 0d 4c bd 1d 06 e9 3d 92 df 3a be
       0.08464843 -0.04981735 0.11378119 -0.18249348
000180 6d b9 13 3d 73 22 8e bc 23 75 f3 bc 77 0b 8b 3d
       0.036065508 -0.017350411 -0.029718941 0.06789296
000190 09 d9 4c 3c ef c8 11 3e d9 7e 95 bd 15 2f f9 3d
       0.012502917 0.14236806 -0.07299585 0.12167183
0001a0 72 5b 31 be 13 02 58 3e 4e e7 26 3e a2 fa b0 3d
       -0.1732004 0.21094541 0.16299173 0.086415544
0001b0 d1 e7 3f 3d df 1e 81 3e 14 65 ea be 77 66 e3 bd
       0.046851937 0.25218865 -0.4578024 -0.11103528
0001c0 c4 5e e1 3c 3f 93 fd 3d 41 2b 8b 3e cd a1 83 3d
       0.027511008 0.123816006 0.27181438 0.064273454
0001d0 4b 81 ed bc a4 bf 16 bd 5c 46 79 3e 1e a8 2b 3d
       -0.028992316 -0.036803856 0.24343246 0.041908376
0001e0 58 4c e7 bd f6 f9 dc 3e 32 ab 12 be 3c d1 79 3d
       -0.11293858 0.43159455 -0.14323118 0.060990557
0001f0 f7 20 02 be b1 03 97 3e 04 c2 30 3d 26 f9 b3 3e
       -0.12707888 0.29495004 0.043153778 0.35151023
000200 0d 62 8a be d8 12 5e bc f0 05 3d bd 92 d0 49 bc
       -0.27027932 -0.013554297 -0.04614824 -0.012317793
000210 3c 37 98 3e 0a 34 b4 bc 1c 6a 18 3e c2 35 94 bc
       0.2972964 -0.02199747 0.14884228 -0.01809204
000220 0c 8c 3f be b9 ce 3f bd ba c8 74 be f0 a4 50 3d
       -0.18705767 -0.046828005 -0.23904696 0.050938547
000230 9b 76 ac 3e 47 6c a5 39 29 06 64 3c f7 e8 7e bd
       0.3368424 0.00031551925 0.013917484 -0.06223389
000240 13 41 07 3e 32 a5 26 3e 6f 44 3b 3e 90 1c 19 be
       0.13208418 0.16273955 0.18287824 -0.14952302
000250 74 e0 26 3e ae 47 ac bd b8 d0 9c bd fa 22 34 be
       0.1629656 -0.08412109 -0.076569974 -0.17591467
000260 6f 9f b5 3b 74 7f ae bc 69 b9 0b be bf 75 96 3e
       0.0055426876 -0.021301009 -0.13644947 0.29386708
000270 e7 42 8e 3d f0 a4 f8 bd 85 3f 01 bf c7 49 ac 3d
       0.06946354 -0.12140834 -0.5048755 0.084125094
000280 a2 08 85 bc 30 a5 5f be 18 84 24 3a 6f c1 bd bd
       -0.016239468 -0.21840358 0.0006275787 -0.0926541
000290 ff c4 1e be d5 9f 2b be 5b d4 b9 3e 06 ac 17 be
       -0.15504836 -0.1676019 0.36294827 -0.14811715
0002a0 7f 0b 0d be cf 51 85 3e 9c 44 21 be 86 fb 8a 3d
       -0.13773917 0.26038978 -0.15748829 0.067862555
0002b0 ad 96 2a 3e 5f a4 e0 3d 44 f1 1f 3e f3 7c 17 3e
       0.16659041 0.10968851 0.1561938 0.14793758
0002c0 e1 e1 0e 3e 5d 37 8b be df f4 35 3c 54 7d 2b bd
       0.13953353 -0.27190676 0.011105745 -0.04186757
0002d0 52 7e 67 3e 64 52 97 3e 6a b4 6a be 50 ec be bd
       0.22606781 0.29555047 -0.22920385 -0.09322417
0002e0 3b 15 01 3d 4b 86 d3 3d 5e e9 67 bd b2 1b 67 bd
       0.031514388 0.10328349 -0.05661904 -0.056422897
0002f0 76 ad b8 bc ac 1d 25 3c ad 2d 1b 3d ae ff 74 bd
       -0.02254365 0.010077875 0.037885357 -0.059814148
000300 a4 04 71 3e 26 7c bc 3e 58 04 2f 3e 9a 50 f4 3c
       0.23536927 0.36813468 0.17091501 0.02982359
000310 1f 24 cf 3d 3d 72 5a bd 97 1b f6 3d e9 aa 56 3d
       0.101143114 -0.053331602 0.12016981 0.052409086
000320 bd ee 6f be dc dc 42 ba 0c b9 ac bc 0e 97 31 be
       -0.23430915 -0.00074334233 -0.021084331 -0.17342779
000330 b8 16 83 3d a8 b2 97 3e 49 6e 18 3f 8d bf a8 3c
       0.06400818 0.2962849 0.5954328 0.020599151
000340 31 82 77 bd b0 a9 d4 bd 83 78 6f be f6 b3 94 3d
       -0.060426895 -0.10383928 -0.23385815 0.07260887
000350 31 ff 89 be e0 75 dd bd 76 b1 fb bd eb 40 e7 3e
       -0.26952508 -0.108134985 -0.12289707 0.45166716
000360 b7 ce 45 be 5c 6a 75 3e c9 6b a4 bd 08 67 cd 3c
       -0.19317137 0.23966354 -0.08028371 0.025073543
000370 b8 ee c0 3d 60 6a b0 3a 56 91 62 3e e8 be 9c 3d
       0.09420532 0.0013459437 0.22125754 0.076536
000380 51 9e ca 3d 58 29 5b 3d f8 f8 4a 3e 4d 0e 00 be
       0.09893478 0.053506225 0.19821537 -0.12505455
000390 97 2f 9f 3e ef 24 4d be e7 52 2a 3d e9 8a ab be
       0.31090996 -0.2003362 0.041582968 -0.33504418
0003a0 dd b9 c1 3e 4a ab 97 bc ac 4c 4f 3c 68 07 51 3c
       0.37837115 -0.018514294 0.012652557 0.012758113
0003b0 2d 5d 0f bd 22 85 9b be 14 65 94 bd 1e 26 a7 bd
       -0.03500097 -0.3037501 -0.072458416 -0.08161567
0003c0 86 d8 73 3c db 84 81 be 6e 78 4e 3d 44 47 b9 3c
       0.014883166 -0.25296673 0.05040782 0.02261699
0003d0 b4 5e 4e be 00 40 10 be c4 0a 8a bd d2 a7 57 3c
       -0.20153314 -0.14086914 -0.06740335 0.01316257
0003e0 48 f2 e0 3d 80 17 44 be f8 f4 20 bd 79 30 0a 3d
       0.109837115 -0.1914959 -0.03929612 0.033737633
0003f0 e1 6b 8d bd 2a 0a 32 bd ba 9f a7 bc f1 2d 1f ba
       -0.06905342 -0.043466724 -0.020461906 -0.00060722145

linears.4.bias f4 [40]
000000 8b 3f b2 3c 17 e3 5a 3c 38 4f 2b bc b6 61 40 3d
       0.021758815 0.0133598065 -0.010455899 0.046968184
000010 a1 8c 14 3d 0a e5 e4 ba e4 e2 84 bc b8 f8 d1 3a
       0.036266927 -0.0017463278 -0.016221471 0.0016019559
000020 08 c7 e6 bc 42 36 7e 3d d6 88 81 3b 45 65 2b bc
       -0.028171077 0.062063463 0.0039530797 -0.010461156
000030 cb 4e c3 bc 71 24 8e 3d 05 aa 80 3d 3a 85 03 3d
       -0.023841282 0.069405444 0.06282429 0.032109477
000040 55 e2 ab bc 5c 1e b7 3c 08 22 1a bd 0a a3 07 be
       -0.020981947 0.022353344 -0.03763011 -0.13245788
000050 3f 4e c9 bc 83 fa 29 bc 08 e5 04 3d ef 9a 90 bc
       -0.024573443 -0.010374668 0.032444984 -0.017652003
000060 17 9c c0 3b 0d b1 bc bc 57 9e 78 3c c1 f0 90 bc
       0.0058779824 -0.023033643 0.01517447 -0.017692925
000070 e1 8f a6 3d c8 69 09 bd 67 ca 3e bc 16 a3 d7 3c
       0.081329115 -0.033548146 -0.011644936 0.026322883
000080 55 89 64 bd 88 75 c5 3c 1b 0e 5f 3d c9 19 01 3c
       -0.055795033 0.024103895 0.05445681 0.007879683
000090 89 eb 0f 3d bf 83 85 3d 98 84 db 3d 75 7c 67 bd
       0.035136733 0.06519269 0.107186496 -0.056515176

linears.5.weight f4 [40, 40]
000000 d7 c5 ce bd 81 e3 17 bd a1 a3 b0 3e 15 21 db 3e
       -0.10096329 -0.0370822 0.3449984 0.42798677
000010 bd 81 c5 bc 76 90 43 be 12 83 6b 3e e3 6f 16 3e
       -0.024109716 -0.19098076 0.22999218 0.14691119
000020 9d 89 ab 3d fa d1 9e bb 53 c7 76 be 26 ee c8 3c
       0.08375857 -0.0048468085 -0.24099474 0.02452762
000030 69 e4 34 be 95 3b 90 3d a0 e4 23 3d 7e cd 8c be
       -0.17665257 0.07042614 0.040012956 -0.27500528
000040 6d 24 60 3e 12 47 ff 3c 84 f4 b0 3e 6f c0 5d bd
       0.21888895 0.031161819 0.3456155 -0.054138597
000050 ac 1a 60 be a0 8a 77 bd b8 15 b6 3d 86 32 56 be
       -0.21885175 -0.060434937 0.08890861 -0.2091771
000060 43 63 c6 3d 7f b0 81 3d 75 b3 08 3c 76 1c ea bd
       0.096869014 0.06332492 0.008343567 -0.1143121
000070 44 b3 a9 bd 77 62 43 3e 6b 94 fc 3c 2c 43 ac bd
       -0.08286145 0.1908053 0.03083249 -0.084112495
000080 10 48 4d bb 27 0d b9 bd fb 55 23 bd 51 08 14 3d
       -0.003132347 -0.09035712 -0.03987692 0.036140744
000090 e7 66 48 bd 92 9b c2 3d b6 df 73 bd 63 f1 4f be
       -0.04892626 0.09502329 -0.05953952 -0.20306925
0000a0 cd f8 4f be 10 05 a3 3e 40 85 39 be 19 e0 12 bb
       -0.20309754 0.318398 -0.18117237 -0.0022411405
0000b0 ee da 57 bb 9d 39 a9 bd 2d b9 ea 3d 04 11 81 3e
       -0.0032936889 -0.08262942 0.11461101 0.25208294
0000c0 ce bc 6e bd 10 10 04 bc 11 3e 27 3e 5d d1 2f bc
       -0.058285527 -0.00806047 0.1633227 -0.010731068
0000d0 ae 44 39 be 94 57 d0 bb 56 ce c8 3c 34 98 03 3d
       -0.18092605 -0.0063580964 0.024512451 0.032127574
0000e0 92 8c 08 3e f8 5e 8f 3e 24 c8 ba bb d7 05 3e 3d
       0.13334873 0.28002143 -0.005700128 0.046392288
0000f0 b4 b7 90 bd b7 81 52 3e bc 31 38 bd 16 ad 99 bd
       -0.070662886 0.20557295 -0.044969305 -0.07503717
000100 8c 33 3d bd 53 07 de bd ad 67 46 3e d0 d8 80 3c
       -0.046191737 -0.10841241 0.19375487 0.015728384
000110 73 b8 81 bd 58 f0 89 3e 43 e4 12 bd 00 aa a7 3c
       -0.06334009 0.2694118 -0.03586222 0.020466805
000120 79 17 89 3d 36 ab 47 3d b1 cf 82 3d 70 ca 3a bd
       0.0669393 0.048747264 0.0638727 -0.045603216
000130 17 71 cc 3d 4f df 6c 3d 14 b3 d9 3d 2f 8e 42 bd
       0.09982508 0.05783015 0.106298596 -0.047498878
000140 84 45 e6 3d e6 8c cd be 28 c4 ed 3e 5f 6a 9c bd
       0.11243728 -0.4014656 0.46438718 -0.07637476
000150 80 cd 92 3e ac f2 46 be 50 b8 12 bd e8 3a 9a 3e
       0.2867241 -0.1942851 -0.035820305 0.30123067
000160 d3 dc 4b be 08 d5 11 be 10 ef e0 3c 24 0f 2c be
       -0.19908457 -0.14241421 0.027457744 -0.1680265
000170 90 76 24 be cb 8b 77 3e aa 92 55 bd ae de 57 3d
       -0.16060853 0.2417442 -0.052141823 0.0527026
000180 4a db 1a be d5 74 84 3d 01 db b7 3d a0 b0 62 3d
       -0.15122715 0.064675964 0.089773186 0.055344224
000190 1c a5 40 be 0b f4 8a 3e 27 5b 51 bc 36 3a a4 be
       -0.18812984 0.27139315 -0.01277808 -0.3207566
0001a0 7c f4 69 be 47 55 df 3d 76 86 7e be 82 44 50 be
       -0.2284717 0.10904937 -0.2485598 -0.20338634
0001b0 fe a5 88 bd f8 20 b6 3e 26 5f ae 3c b4 c9 8c 3e
       -0.066722855 0.35572028 0.021285605 0.27497637
0001c0 9f af 98 3b 11 63 b2 3e a0 8c 06 be 0b 35 61 be
       0.0046596075 0.34841207 -0.13139582 -0.2199289
0001d0 75 23 1a 3e c6 dd 66 3e c7 3f c9 3d ac d5 b1 bd
       0.15052588 0.22545537 0.09826618 -0.08683333
0001e0 9b 4c db bc 13 0d a2 bc df 1c ff bd 0e ef 51 be
       -0.026769927 -0.019781625 -0.124566786 -0.20501348
0001f0 a0 c0 54 3e 59 a4 fc 3c 9f 73 81 bd 74 7b ae be
       0.20776606 0.030840086 -0.06320881 -0.34078562
000200 c0 c4 3a bd 19 fc bc 3d 22 81 3a bb 70 70 16 3e
       -0.04559779 0.09227771 -0.0028458317 0.14691329
000210 a3 8b e9 bd 5e 66 f2 3b d2 2b 35 bd 74 ba d5 3c
       -0.11403587 0.007397457 -0.044231243 0.026089884
000220 4f 4d 90 be 73 18 50 3e f7 a1 87 3e fe a7 85 3d
       -0.28183982 0.20321827 0.26490757 0.065261826
000230 38 29 da be 97 55 f3 bc 59 27 24 3d 43 4e c6 3d
       -0.42609572 -0.029703898 0.040076587 0.09682896
000240 5f 20 3f be 4f 9f ae bd a9 9b f1 3d db 18 03 be
       -0.18664692 -0.085264795 0.11797268 -0.1280245
000250 f5 81 25 3e 19 b0 ff 3d 3b 5b b9 bc 4f c5 8f bc
       0.16162856 0.1248476 -0.02262651 -0.017550139
000260 81 3e 88 3d 1d a3 88 bd 2a 76 f0 3d 7a 9b 6b 3c
       0.06652547 -0.066717364 0.11741288 0.01438033
000270 24 2e 8e 3b 8b 4a c6 3d 36 48 fb bd 7c 2a c4 3d
       0.0043389965 0.09682187 -0.122696325 0.09578416
000280 ad ac 57 3e 24 b8 40 3d 67 15 7e 3d 1c e9 a4 be
       0.21061964 0.04705061 0.06203213 -0.32209098
000290 27 d2 34 be 33 6f b7 be a4 44 ad be 69 2f c5 3b
       -0.17658292 -0.35827026 -0.3384143 0.0060176146
0002a0 d7 6b 9d 3d 33 0e 46 3d 3d 8f ad bd fb cd 85 3d
       0.076865844 0.048353385 -0.08474586 0.06533428
0002b0 9f 4c 62 3c 27 4c 51 3e 1b 02 e1 bd 08 79 05 3c
       0.013812213 0.20439206 -0.1098673 0.008146532
0002c0 bd c4 8e bd ab 01 51 3e e8 90 1e 3e 26 27 26 bd
       -0.069711186 0.20410793 0.15484965 -0.04056468
0002d0 89 eb 22 be 90 42 17 be 3b 1e aa 3e 07 e3 85 3e
       -0.15910162 -0.14771485 0.3322619 0.2614977
0002e0 ce 13 e5 3d 91 11 ea 3c 5c b2 f9 3d 5b 25 91 be
       0.11185418 0.02857283 0.121922225 -0.28348812
0002f0 d6 a3 68 3e 29 1d ee bc 6c 70 cf bd ba 8c a2 bd
       0.22718748 -0.029066639 -0.10128865 -0.07936998
000300 f4 ca e5 3c 94 b7 e4 3e e3 9d 59 bd 70 a9 3c 3e
       0.028050877 0.4467131 -0.053129088 0.1842401
000310 05 35 ba bd ab 01 07 3e ae dd 9c 3e 9b fc 2e be
       -0.09092144 0.1318423 0.30637878 -0.17088549
000320 f0 49 9b 3d bd fe 6f be 76 d2 74 3d f5 1b fa 3d
       0.07582462 -0.23437019 0.059771024 0.12212364
000330 7b 3a 0d 3e 01 f7 76 bd c2 4d 9b bd 7e f2 7f bd
       0.1379184 -0.060294155 -0.075831905 -0.062487118
000340 7b e0 f9 bc c1 e1 69 3e 13 7d 95 3d 10 3f e6 3c
       -0.030502548 0.22840025 0.07299247 0.028106242
000350 3f 46 0f be b4 a8 b9 bd 6b b3 9c bd da dc 9d 3e
       -0.1399164 -0.09065381 -0.07651409 0.3083256
000360 e6 ac c8 3d 0b a8 f1 bd 4b 10 81 be 9d 81 09 3d
       0.09798603 -0.1179963 -0.25207743 0.033570874
000370 7e ce 9d 3c db 39 98 bd 16 f9 4f 3d 3c 28 ea bc
       0.019263502 -0.0743291 0.050774656 -0.028583638
000380 64 b9 97 3e ab 7b 59 3d e0 fd 25 3e 99 e3 6f 3d
       0.2963363 0.053096455 0.16210127 0.058566663
000390 8c 4f 66 be 09 0b dc 3d ce e1 be bd 3e 38 a3 bc
       -0.22491282 0.10744292 -0.093204126 -0.01992428
0003a0 46 09 91 bd da 30 4c bd 92 2a ad be c0 61 2d 3e
       -0.07081847 -0.049851276 -0.3382154 0.1693182
0003b0 94 ba 12 3d 54 2a 4f bd 3c 9b 44 be 9b be 3d 3c
       0.035822466 -0.050577477 -0.19199842 0.011581088
0003c0 ff 64 4c bd fe 8f 2b 3e 21 cf aa 3e 02 a5 df bc
       -0.049901005 0.16754147 0.33361152 -0.027300362
0003d0 d3 57 3b be 0b f9 de bc e6 5a 9d bc 98 94 91 bd
       -0.18295221 -0.027218362 -0.019208383 -0.0710842
0003e0 da ad d9 3d 31 d2 a2 be 27 25 2f be 08 93 8d 3e
       0.10628863 -0.31800988 -0.17104016 0.27651238
0003f0 1c 7a 94 bd 27 2a 1c 3e 46 e9 e3 3d b0 8f e0 bb
       -0.07249853 0.15250455 0.11128478 -0.0068530664

linears.5.bias f4 [40]
000000 cb 1b 4f 3c 8f 24 bd 3c 44 96 a0 3c 79 9d 6e 3c
       0.012640904 0.023088722 0.019602902 0.014563912
000010 e1 95 15 bd 9f 38 03 bd 2c 7d 89 bb 9c 56 10 3c
       -0.03651989 -0.03203642 -0.00419583 0.008809712
000020 80 20 be 3c 0a 6e c1 3c b6 aa 39 3c 71 56 98 bc
       0.023208857 0.023612041 0.011332205 -0.018595906
000030 6a 6f 21 bd 12 ff 3a bd 57 21 a9 bc ad 37 86 3c
       -0.039412893 -0.04565341 -0.02064578 0.01638397
000040 4b c0 32 bd bd e9 86 3d b1 2e de 3c e2 57 14 3d
       -0.043640416 0.06587551 0.027121874 0.036216624
000050 06 04 95 3e 41 b0 58 3d 92 6f ef 3c 40 55 ac bc
       0.29104632 0.052902464 0.029228006 -0.021036744
000060 9f 12 0c be b3 08 00 bd 9d eb dd 3c e4 44 88 3c
       -0.13678978 -0.031258296 0.027089888 0.016634412
000070 ac be 6d bd fd c6 06 3d 5b 2f cc 3c ee 86 07 bd
       -0.058043167 0.032904614 0.024924925 -0.033087663
000080 ee eb 51 3d 09 2e 89 3c 06 b5 00 bc d5 5b d5 3c
       0.05125039 0.016745584 -0.007855659 0.026044765
000090 ee f3 0b 3d 5f 48 1c 3c 52 45 5b 3d 00 be 9a 3c
       0.034168176 0.009538739 0.053532906 0.018889427

linears.6.weight f4 [1, 40]
000000 99 fe 6b 3e 81 50 11 be b6 1f c2 3e e0 c4 9c 3e
       0.2304634 -0.14190866 0.3791482 0.30618954
000010 b4 a8 04 3f 43 3c 00 3e e0 ed c1 3d 97 ee 65 3d
       0.5181992 0.12522988 0.09469199 0.05613574
000020 d8 ee 80 be 0b 28 69 be a1 da 9c be 2f 85 63 3c
       -0.25182223 -0.22769181 -0.3063555 0.013886734
000030 de df 08 be a5 1a b5 bd 18 a2 02 be 39 ae 3d be
       -0.13366649 -0.08842973 -0.12757146 -0.18523492
000040 58 9b 4d 3e c0 ea 0c bf 7c 5c 21 bf 2e 15 dc 3e
       0.2007879 -0.550457 -0.63031745 0.4298491
000050 d5 f0 5c be 8a aa 10 bf 9e 5c cc be 10 25 6c be
       -0.21576245 -0.5651022 -0.3991441 -0.23061013
000060 4d 48 08 3e 6a c4 9e 3e 8e f5 31 3e e6 9a 70 3c
       0.1330883 0.31009227 0.17378828 0.014685368
000070 fd 16 fd 3d 74 44 99 be d9 7f 1c 3e 3e 15 54 3e
       0.123579 -0.29935038 0.15283145 0.20711228
000080 06 eb 48 be 53 47 c5 3e ac 03 71 3e bb 0c 6a 3e
       -0.19620904 0.3853098 0.23536557 0.22856419
000090 e6 1b 03 3e 2c 56 60 3d a5 33 86 bc d1 b8 a5 3e
       0.12803611 0.05476968 -0.016382048 0.32367566

exp_avg f4 [40, 2]
000000 72 46 27 3a 3d b7 e6 3b 2c 0a bb ba fa 20 48 bb
       0.00063810416 0.0070408867 -0.0014269999 -0.0030537234
000010 7a 68 aa 3b a2 2a de 3b 1b 68 6a 3a a1 37 94 3b
       0.005200443 0.0067799846 0.00089419045 0.004523233
000020 77 d4 86 3a 42 fc 61 3b 5a d2 e1 ba 55 32 a0 bb
       0.0010286708 0.0034482633 -0.0017228827 -0.0048888125
000030 88 f6 6f bb ac 93 6e bb 42 bb 8c ba 57 1f b8 3a
       -0.003661545 -0.0036403937 -0.001073696 0.0014047426
000040 da f7 8a 3a da 89 3c bb 62 32 9e ba 25 c4 0c bb
       0.001060243 -0.002876869 -0.0012069459 -0.0021479216
000050 f8 96 27 bc 63 ed 8e bc de 15 f1 b9 7b 0f 06 3b
       -0.010228865 -0.01744718 -0.00045983394 0.0020456004
000060 ba 5b d8 3b 98 25 6c 3c 29 1d 27 3a e4 d2 ac ba
       0.0066027315 0.01441326 0.00063748896 -0.0013185409
000070 b0 e5 cf 39 7e 8e da ba 8b 8b e7 39 18 92 c5 3a
       0.00039653247 -0.0016674546 0.0004416372 0.0015073447
000080 ae 0c 8f ba 47 bd 79 38 0d df 42 3a 22 72 e2 3a
       -0.0010913813 5.9542504e-05 0.000743375 0.0017276446
000090 31 a8 38 3b 09 06 b2 3a 3e 6e e8 ba c9 23 7f bb
       0.0028176422 0.0013582121 -0.001773305 -0.0038931242
0000a0 2c 11 fe ba bd 22 5d ba 87 68 eb b9 cb d3 13 3c
       -0.001938378 -0.00084356574 -0.00044900572 0.009022663
0000b0 7d b4 5a b8 02 50 b7 bb 55 85 7f 3b 76 1f df 3b
       -5.2143343e-05 -0.0055942545 0.0038989384 0.0068091704
0000c0 9e b6 5d 3a 0b 99 4e 3b 7b c6 0a bb 38 ff 7f ba
       0.0008457693 0.0031524326 -0.0021175432 -0.00097655086
0000d0 4f b5 90 ba c0 88 6e 3b 29 25 17 ba 9a 62 50 3b
       -0.0011040362 0.0036397427 -0.000576573 0.0031797052
0000e0 f5 a6 0e b9 fb 1c d4 3a 6f 2a 63 b9 72 0a 28 ba
       -0.00013604372 0.0016182953 -0.00021664215 -0.0006410248
0000f0 ab 4e 27 3a 09 9f c4 ba 61 f2 04 3a ad 6a 63 ba
       0.0006382267 -0.001500101 0.00050715177 -0.0008675259
000100 aa 60 1c bb 73 0f de ba a4 6a b4 ba 83 54 58 3b
       -0.0023861327 -0.001694186 -0.0013764692 0.0033009357
000110 e4 f1 e4 3a 2b 67 1e 3a 8f bd 8c 39 f2 ff b7 bb
       0.0017467109 0.0006042595 0.00026844113 -0.005615228
000120 4b 76 55 39 5c 7b 4e bb 9e c7 05 39 47 e7 3c 3a
       0.0002035733 -0.0031506633 0.00012758232 0.0007206094
000130 dd 94 46 3a 32 12 02 3b 62 ea 86 bb 78 04 ed bb
       0.0007575283 0.001984727 -0.004117296 -0.0072331987

exp_avg_sq f4 [40, 2]
000000 23 53 04 3a d6 ae be 3c d3 97 1d 3b ec b4 b4 3b
       0.0005047789 0.023276728 0.0024046793 0.0055147316
000010 12 65 d3 3c d9 5a cc 3c ab 3b 35 3a cd 6e 2b 3c
       0.02580503 0.024945663 0.0006913493 0.010463429
000020 04 a8 ad 3a 9c a1 e8 3b 53 eb 5d 3b da 76 60 3c
       0.0013248925 0.0070993435 0.0033862188 0.013700211
000030 ef 29 54 3c ec 05 07 3c 5e 70 69 3a e5 0d 9a 3a
       0.012949451 0.008241158 0.00089049886 0.0011753408
000040 13 35 58 3a 85 6c 76 3b 57 8c ed 3a ab 6d 18 3b
       0.0008247655 0.0037601304 0.001812349 0.0023258727
000050 12 ee d2 3d 8c 6f 2c 3e cd 7d 40 39 b9 c8 fc 3a
       0.102993146 0.16839427 0.00018357411 0.0019285894
000060 f3 48 32 3d 73 43 e3 3d 5b 1c fa 39 01 3b 29 3a
       0.0435266 0.11096849 0.00047704842 0.00064556306
000070 7e 1a 0d 39 2c 7c de 3a 73 64 a5 39 0f 2d 9c 3a
       0.00013456677 0.0016974262 0.00031546093 0.0011915284
000080 0e e5 8d 3a 2d fe 57 38 4b 5f 24 3a 18 8d aa 3a
       0.001082571 5.1496714e-05 0.0006270303 0.001301202
000090 30 4b e6 3b 75 56 90 3a d2 cc 65 3b 3a b6 06 3c
       0.007028006 0.0011012094 0.003506471 0.008222157
0000a0 f7 fa 5f 3b fe bd bc 39 2c b3 25 39 31 48 1b 3d
       0.0034176686 0.0003599971 0.00015802373 0.037910644
0000b0 fd d0 25 38 4d 7c 7c 3c fb a4 77 3c e5 21 c2 3c
       3.95337e-05 0.015410495 0.015115018 0.023697803
0000c0 f0 bb 42 3a 6a 8b bd 3b ea 77 93 3b 5a ac 80 3a
       0.00074285176 0.0057844417 0.004500379 0.000981699
0000d0 1a 27 88 3a 4b 20 ca 3b ba 24 fb 39 e7 07 a9 3b
       0.001038763 0.0061684004 0.00047901814 0.0051584127
0000e0 7a 4d b4 38 a3 10 d0 3a 2a 66 32 39 86 fc 25 39
       8.5975e-05 0.0015874099 0.00017013462 0.00015829699
0000f0 e6 ff 4a 3a e2 02 88 3a 17 a5 8c 39 37 b2 b9 39
       0.00077438203 0.0010376836 0.00026825882 0.0003541873
000100 28 65 c8 3b 37 23 18 3b 76 d0 df 3a 09 f3 8f 3b
       0.0061155744 0.002321435 0.0017075676 0.0043929857
000110 5f 74 59 3b 39 3e fb 39 e8 68 24 38 a7 fc 6c 3c
       0.0033180935 0.0004792081 3.919835e-05 0.014464534
000120 19 81 d6 38 84 c9 b0 3b 86 c0 b0 38 29 9f b3 39
       0.000102283615 0.0053951163 8.428194e-05 0.00034260124
000130 0a 8c 18 3a c3 9e 0d 3b 23 23 99 3c 71 f3 e5 3c
       0.0005819207 0.0021609522 0.018693512 0.028070183
