pdebench/models/newly_trained_models1D_Advection_Sols_beta4.0_PINN.pt-15000.pt (torch, 120453 bytes, 39 tensors)

linears.0.weight f4 [40, 2]
0.33577058 -0.15696698 0.056635972 0.21485126 -0.25769112 0.039126933 0.10836154 -0.1638448
0.036988463 -0.20767827 -0.022103304 0.24776585 0.21968202 -0.049192384 0.16025291 -0.20021297
-0.35509527 0.12772077 0.2759146 -0.4862928 0.33753115 0.03496273 0.15627606 0.055205554
-0.12866423 -0.007143963 -0.21093465 -0.14430447 -0.21981218 0.33500713 0.029620057 0.24520443
0.53884894 -0.31880924 -0.04413702 0.21765047 -0.42279187 0.116172 0.018371684 0.09061776
0.43370786 -0.26508856 0.4319763 -0.019972304 -0.51407444 0.15963963 -0.44232956 0.20658407
-0.011790168 0.07614474 0.19620246 0.08468072 0.21486202 0.043876685 0.363717 0.18760134
0.14385563 0.420313 0.02177931 -0.48944867 -0.2883794 -0.28882226 -0.22713032 -0.13464583
0.21563557 0.10450264 0.46971962 -0.0224278 -0.25768283 -0.15057774 -0.39206305 0.15050957
-0.1384208 -0.32115677 0.030664643 -0.42378104 0.001136807 0.09543096 0.34771532 -0.22378035
00000000: 1fea ab3e f4bb 20be 1ffb 673d f801 5c3e
00000010: 17f0 83be 9043 203d a8ec dd3d eec6 27be
00000020: 3781 173d 9da9 54be fd11 b5bc 55b6 7d3e
00000030: 53f4 603e f47d 49bd 5719 243e a104 4dbe
00000040: 0ccf b5be 3cc9 023e ae44 8d3e 5ffb f8be
00000050: e2d0 ac3e 1435 0f3d d506 203e 381f 623d
00000060: 8ec0 03be e817 eabb 41ff 57be 8dc4 13be
00000070: 7216 61be 0e86 ab3e c3a5 f23c df16 7b3e
00000080: 01f2 093f f73a a3be 05c9 34bd c4df 5e3e
00000090: 2d78 d8be 96eb ed3d 3780 963c ce95 b93d
000000a0: f50e de3e b0b9 87be ff2b dd3e f59c a3bc
000000b0: 629a 03bf 9278 233e 0579 e2be c68a 533e
000000c0: 8c2b 41bc c6f1 9b3d 4ce9 483e 166d ad3d
000000d0: ca04 5c3e 0ab8 333d 1d39 ba3e 911a 403e
000000e0: e44e 133e 4433 d73e 866a b23c 0499 fabe
000000f0: 77a6 93be 83e0 93be da94 68be 99e0 09be
00000100: 92cf 5c3e 7b05 d63d 177f f03e 81ba b7bc
00000110: 01ef 83be 0d31 1abe 7dbc c8be 2e1f 1a3e
00000120: 2fbe 0dbe a96e a4be 6b34 fb3c d4f9 d8be
00000130: ea00 953a 4f71 c33d be07 b23e ad26 65be

linears.0.bias f4 [40]
0.16929726 -0.1704233 0.12989932 0.11750032 0.109867625 -0.16487287 -0.092908636 0.055864893
-0.048414513 -0.09704567 -0.35038412 0.011422778 0.32665423 -0.0054708887 -0.0886808 0.07334957
-0.0025410492 0.058338527 0.07756334 -0.14841343 -0.02471867 0.08453959 -0.15906802 0.2552803
0.053827062 -0.086257175 0.0073984303 -0.0063505378 0.055886697 -0.09638158 0.0403456 0.014653694
-0.12621218 -0.028647078 0.11728141 -0.10479137 -0.04542507 0.0789418 0.039212976 -0.26315016
00000000: 435c 2d3e 7283 2ebe 5404 053e 02a4 f03d
00000010: 4702 e13d 6fd4 28be e246 bebd 96d2 643d
00000020: 4c4e 46bd e1bf c6bd 8c65 b3be 9a26 3b3c
00000030: 393f a73e 2445 b3bb 479e b5bd 4d38 963d
00000040: bb87 26bb 61f4 6e3d 87d9 9e3d b1f9 17be
00000050: cf7e cabc 1823 ad3d bae2 22be 19b4 823e
00000060: c479 5c3d 9aa7 b0bd 886e f23b 2c18 d0bb
00000070: 73e9 643d b563 c5bd 6e41 253d 0c16 703c
00000080: c43d 01be 47ad eabc 3c31 f03d dc9c d6bd
00000090: a30f 3abd 3dac a13d c99d 203d 9ebb 86be

linears.1.weight f4 [40, 40]
-0.20045063 0.14918353 0.013923643 0.31002808 -0.19593707 0.11335163 -0.10295771 -0.096763454
0.02707593 -0.14149986 -0.056720868 -0.0063300175 -0.15652262 -0.22022216 -0.005158833 0.11910845
0.10431398 0.18788815 0.18230666 -0.009907357 -0.08263644 -0.13582608 0.24928267 0.22045258
-0.07421406 0.019347923 -0.15407573 -0.33396187 0.044740684 -0.22827813 -0.059887975 0.21500215
0.05838072 0.096748 -0.23314264 0.20470366 -0.13257451 -0.038232334 -0.044947516 0.3610153
0.18014611 -0.056314904 -0.16527228 0.2720217 0.11015208 -0.02037946 0.22206868 -0.2929239
-0.22515814 -0.11128659 0.057095125 -0.022848716 0.2203738 -0.08163052 -0.0279923 -0.088679045
0.2572778 -0.21889082 -0.0086301835 -0.14266175 0.13236949 0.20012793 -0.21143498 0.0076069906
-0.15105434 0.21910538 0.19258885 0.06295865 -0.09727319 0.13405876 -0.12556987 -0.2532095
0.24019304 0.03991722 0.01785036 -0.23835582 0.010368326 -0.23557612 0.0568702 -0.06978055
-0.16741954 0.1502701 0.3358215 -0.1681187 -0.35120997 0.18208343 -0.32767025 -0.08750869
0.350755 0.04772006 0.06274423 0.24524595 -0.22946374 0.05395368 -0.017032828 0.08985379
-0.14071774 -0.14978442 0.23876338 0.14698578 0.06843827 -0.41512546 0.49303234 -0.22018996
0.009543192 0.07092097 -0.18339013 -0.053266082 -0.38581455 -0.23392645 0.022275902 0.16315763
0.019993395 -0.33576953 0.016475933 0.30770633 0.25850007 0.043406997 -0.18825765 -0.06930633
0.29452628 -0.26698002 0.023035076 -0.0016297485 -0.03391731 0.026527205 0.110465445 0.0507369
-0.07193603 0.0812531 0.12364794 0.311317 0.03519412 -0.040510654 -0.25564903 0.3614555
-0.049665935 0.11976506 0.07311836 -0.11602845 0.08474822 0.061503306 0.0035642092 0.07118612
-0.03443247 0.3187728 0.06172854 0.1868808 0.15412457 -0.10131712 -0.12889381 -0.10817887
0.06353202 0.1282569 0.07321513 -0.1368973 -0.104658015 -0.17113316 -0.15140525 0.3397562
0.22883901 0.04066492 0.026158424 0.14032805 -0.13185363 0.025723392 0.18248951 0.6543311
0.110013194 0.1182455 0.07556811 0.077857874 -0.11710061 0.063264884 -0.07123762 -0.024060382
-0.07023264 -0.19265807 -0.05256549 0.18690582 0.11972037 0.33524385 -0.2299954 0.11705654
0.39001182 -0.04482823 0.061503205 0.04650587 -0.20477116 -0.16933711 -0.10411273 0.00579682
-0.003922978 0.01149918 0.26260734 0.08044568 -0.17149962 0.20634356 -0.0909281 -0.08765629
0.047815327 -0.22570872 -0.34219882 0.01955478 0.2122497 -0.1794272 0.08798308 0.2868801
-0.066684544 0.08218757 0.09382732 -0.17724103 -0.2246519 -0.11622205 -0.06719133 0.1122144
-0.010711644 0.20963567 -0.1647732 -0.051519748 0.24514452 0.09831702 -0.06434762 -0.030929334
-0.22282605 -0.08945935 -0.05287421 0.08754211 -0.07306109 -0.1089716 0.066039786 -0.10799335
0.16222036 0.041679516 -0.21124233 0.13456045 -0.063295595 0.076062165 0.20669594 0.1554713
-0.04825971 -0.29433218 0.3783259 0.29063472 -0.089111745 -0.13480507 -0.1685118 -0.25018573
-0.024581984 0.11197008 -0.28174505 0.12906861 0.40765896 0.14060135 0.15731055 -0.075392425
00000000: ee42 4dbe 91c3 183e fe1f 643c 00bc 9e3e
00000010: baa3 48be e624 e83d 7edb d2bd eb2b c6bd
00000020: 57ce dd3c 57e5 10be 2454 68bd 096c cfbb
00000030: 7747 20be eb81 61be 6e0b a9bb 22ef f33d
00000040: 91a2 d53d c065 403e 99ae 3a3e 7852 22bc
00000050: 4b3d a9bd fe15 0bbe f543 7f3e 52be 613e
00000060: 8bfd 97bd 897f 9e3c 07c6 1dbe 0dfd aabe
00000070: 0242 373d bec1 69be 184d 75bd 8629 5c3e
00000080: 9f20 6f3d d123 c63d f2bc 6ebe d69d 513e
00000090: 9dc1 07be 8299 1cbd e31a 38bd ffd6 b83e
000000a0: 3978 383e 75aa 66bd 233d 29be 6e46 8b3e
000000b0: 6a97 e13d d3f2 a6bc f965 633e 1ffa 95be
000000c0: db8f 66be 39ea e3bd 94dc 693d 3b2d bbbc
000000d0: aba9 613e e72d a7bd 1c50 e5bc 5c9d b5bd
000000e0: eab9 833e ea24 60be 9d65 0dbc ec15 12be
000000f0: de8b 073e 56ee 4c3e 6982 58be 1044 f93b
00000100: fdad 1abe 295d 603e 0336 453e 77f0 803d
00000110: 2b37 c7bd b346 093e 6395 00be ada4 81be
00000120: 2af5 753e 3d80 233d eb3a 923c 8c13 74be
00000130: e9df 293c de3a 71be baf0 683d 1be9 8ebd
00000140: 0770 2bbe 68e0 193e ccf0 ab3e 4f27 2cbe
00000150: cbd1 b3be 1474 3a3e 65c4 a7be c237 b3bd
00000160: 2996 b33e 1c76 433d 0c80 803d c121 7b3e
00000170: 8bf8 6abe 89fe 5c3d 6e88 8bbc 4405 b83d
00000180: 5018 10be 1661 19be 637e 743e 7183 163e
00000190: 5d29 8c3d 538b d4be bc6e fc3e 7a79 61be
000001a0: 0c5b 1c3c 033f 913d 9fca 3bbe 892d 5abd
000001b0: 7c89 c5be 6a8a 6fbe f47b b63c cb12 273e
000001c0: 30c9 a33c fce9 abbe 89f8 863c af8b 9d3e
000001d0: 1f5a 843e 89cb 313d 9dc6 40be 7af0 8dbd
000001e0: 26cc 963e 9bb1 88be 0eb4 bc3c 499d d5ba
000001f0: e1ec 0abd 954f d93c b53b e23d 7fd1 4f3d
00000200: 3353 93bd 0668 a63d 223b fd3d f164 9f3e
00000210: b627 103d 80ee 25bd 6ee4 82be b210 b93e
00000220: 826e 4bbd 6247 f53d 14bf 953d 53a0 edbd
00000230: 7a90 ad3d e4ea 7b3d 8295 693b 07ca 913d
00000240: 1009 0dbd 3036 a33e 11d7 7c3d ae5d 3f3e
00000250: d5d2 1d3e 5a7f cfbd bdfc 03be e28c ddbd
00000260: 131d 823d c755 033e d0f1 953d ce2e 0cbe
00000270: f156 d6bd 883d 2fbe fa09 1bbe 86f4 ad3e
00000280: c654 6a3e 4290 263d 314a d63c 28b2 0f3e
00000290: a304 07be ddb9 d23c 88de 3a3e 3e82 273f
000002a0: 994e e13d b22a f23d 74c3 9a3d f373 9f3d
000002b0: 72d2 efbd 0591 813d 08e5 91bd 471a c5bc
000002c0: 21d6 8fbd 2848 45be e94e 57bd 3d64 3f3e
000002d0: f42f f53d 15a5 ab3e ea83 6bbe 57bb ef3d
000002e0: a1af c73e ce9d 37bd c9ea 7b3d f07c 3e3d
000002f0: 88af 51be b566 2dbe 0e39 d5bd 40f3 bd3b
00000300: 538c 80bb 0f67 3c3c 7874 863e b4c0 a43d
00000310: 999d 2fbe ba4b 533e 8338 babd 2485 b3bd
00000320: 01da 433d 3020 67be af34 afbe 5931 a03c
00000330: fc57 593e c4bb 37be 7930 b43d f3e1 923e
00000340: e891 88bd f551 a83d 8a28 c03d ac7e 35be
00000350: 260b 66be d305 eebd 9c9b 89bd aad0 e53d
00000360: e47f 2fbc bcaa 563e 4eba 28be 5f06 53bd
00000370: 2a07 7b3e 6f5a c93d afc8 83bd 845f fdbc
00000380: 832c 64be 7736 b7bd a192 58bd 4749 b33d
00000390: 0ea1 95bd 812c dfbd de3f 873d 9e2b ddbd
000003a0: 181d 263e 24b8 2a3d e94f 58be 37ca 093e
000003b0: 1fa1 81bd 7bc6 9b3d 1aa8 533e de33 1f3e
000003c0: f9ab 45bd b5b2 96be efb3 c13e 13ce 943e
000003d0: 3880 b6bd 570a 0abe 5b8e 2cbe 5818 80be
000003e0: 2860 c9bc 9250 e53d e340 90be 902a 043e
000003f0: adb8 d03e cdf9 0f3e 0416 213e 5867 9abd

linears.1.bias f4 [40]
-0.0552825 0.03531208 -0.12559465 0.021918064 0.009415284 0.015337024 0.03829883 0.24067219
0.09028087 0.11715021 -0.01527982 0.08530625 -0.23906027 0.06322491 -0.022716412 -0.033978757
-0.015299305 0.11054563 0.003290656 -0.044970546 -0.050220143 0.050277498 -0.08554786 -0.13187625
-0.17975126 -0.08747274 0.07173326 -0.12709908 -0.10430904 0.26137868 0.0882592 0.022099698
0.20636258 0.03305846 0.049692195 -0.020047259 -0.07397127 -0.06428631 -0.16018571 -0.0777119
00000000: e76f 62bd 66a3 103d e29b 00be 838d b33c
00000010: 9042 1a3c 2448 7b3c 3cdf 1c3d c572 763e
00000020: 2de5 b83d 73ec ef3d 3658 7abc 0bb5 ae3d
00000030: 37cc 74be 107c 813d c517 babc 4f2d 0bbd
00000040: f0a9 7abc bf65 e23d 0ca8 573b 0933 38bd
00000050: a3b3 4dbd c7ef 4d3d b733 afbd 910a 07be
00000060: b710 38be e824 b3bd e3e8 923d 4326 02be
00000070: fa9f d5bd 6dd3 853e 3dc1 b43d 6d0a b53c
00000080: b650 533e 4f68 073d 0b8a 4b3d 263a a4bc
00000090: 407e 97bd 8aa8 83bd b907 24be 6b27 9fbd

linears.2.weight f4 [40, 40]
0.16566396 -0.011505311 0.45263082 -0.018673735 -0.022998169 -0.23500356 0.34325764 0.08002811
0.12400171 -0.43251446 -0.010461308 0.14493193 -0.10461584 -0.027048541 0.016337514 0.03168269
-0.001239664 -0.37200713 -0.35801223 0.4439217 -0.12264388 0.112252876 0.07161008 0.060892515
-0.033177692 -0.3073937 0.09174426 0.082691416 0.8561166 0.04906414 0.27076605 -0.13656318
-0.48284483 -0.2370517 -0.062377077 0.13355432 -0.023530206 0.15738499 0.22505368 0.29875118
-0.19718625 0.022694305 0.07317466 -0.020509144 0.021647362 -0.16940494 -0.39123946 -0.8333355
-0.0541592 -0.064063 -0.04970832 0.047998503 0.3467587 -0.1588125 -0.16871302 0.26013333
0.38536105 -0.088626176 0.25661784 0.042903207 0.082303815 0.036880605 0.202445 0.713857
0.38635436 0.23027171 -0.14673749 0.27798772 -0.12505597 -0.16365726 -0.42399487 -0.4227092
-0.44866976 0.0058552935 -0.13067009 0.25236663 0.24658433 0.15339471 0.1964795 -0.06431169
0.2360603 -0.23486616 0.11701974 -0.08670816 0.03871845 -0.2159897 0.35225648 0.37277117
-0.08473791 -0.3526487 0.04532773 -0.095178425 0.10911215 -0.22516754 0.15526298 -0.13145278
0.024576409 -0.61756563 -0.5332508 0.24312708 -0.22852083 0.09342835 -0.13721089 -0.16414112
-0.122513674 -0.14374286 0.14764546 0.3970348 0.56374836 0.19131018 0.18000746 -0.008499721
-0.120388225 0.20339559 0.033167157 -0.45111758 0.11550677 0.11870838 0.23526305 0.57974565
0.03370273 0.0915863 -0.00951849 -0.01832829 -0.32295504 -0.28605843 0.25892332 0.27719373
-0.10876684 -0.39081722 0.11888536 -0.08226935 0.12635909 0.035882764 -0.42638054 0.29998577
-0.17335351 0.010919003 -0.19982813 -0.025444055 -0.15367723 -0.11760134 -0.18643911 -0.031706396
0.19009471 0.06760153 0.005411549 -0.061332997 -0.20978928 0.32748628 -0.02910794 -0.07235815
-0.16737024 0.05720867 0.3583341 0.09798142 0.17459346 0.35992387 -0.122610375 0.38923568
0.31021017 -0.24015883 0.1863939 -0.045856368 -0.110971324 -0.1649 0.062129024 -0.16188774
-0.36013848 -0.32552737 0.32805923 0.07395898 -0.20458227 -0.12092396 0.20903718 0.069586374
0.20192914 -0.101592585 -0.038123753 0.16560711 0.038335383 0.18257691 -0.14075954 0.005633686
0.0940974 0.1369189 -0.09900807 0.07853043 0.15592502 0.08364932 0.2929104 0.014552582
0.0013786774 0.121089645 0.11047196 -0.08315319 0.35311273 -0.15912518 0.39409173 0.27754763
0.04232431 -0.07005487 -0.06763712 -0.09982247 -0.16031022 0.106258474 0.45318374 0.21349083
0.016115617 -0.0063686557 -0.05584425 0.07823597 -0.06588181 0.05702552 -0.024763506 0.14220995
0.114988096 -0.14606172 -0.03015166 0.1869092 0.07706965 0.058331795 -0.01600986 -0.12028953
-0.22257346 -0.33665138 -0.08846925 -0.15725109 0.023121236 0.05573597 0.012561062 -0.09048297
-0.0049026175 0.37471816 0.00084140874 -0.08454143 0.08134427 -0.032396205 0.04012058 -0.08803451
-0.04576413 -0.16803484 0.3353308 -0.023680827 -0.25454506 -0.1251046 -0.13009836 0.13353148
-0.10537941 -0.40352607 -0.15109898 -0.4082265 0.027233256 -0.0119276475 -0.22716436 0.056274597
00000000: d0a3 293e c680 3cbc 3abf e73e a9f9 98bc
00000010: a866 bcbc c6a4 70be 77bf af3e c7e5 a33d
00000020: 9cf4 fd3d 8972 ddbe e865 2bbc 0969 143e
00000030: d440 d6bd e794 ddbc 40d6 853c b5c5 013d
00000040: 397c a2ba b877 bebe 614d b7be b449 e33e
00000050: b72c fbbd d6e4 e53d 4ea8 923d 6e6a 793d
00000060: 55e5 07bd b562 9dbe 6ae4 bb3d 1e5a a93d
00000070: 752a 5b3f 7bf7 483d d9a1 8a3e 38d7 0bbe
00000080: 7037 f7be aebd 72be 1b7f 7fbd 77c2 083e
00000090: 6bc2 c0bc 8829 213e 7974 663e eaf5 983e
000000a0: 31eb 49be 68e9 b93c 99dc 953d cb02 a8bc
000000b0: cf55 b13c 7d78 2dbe 8a50 c8be 7a55 55bf
000000c0: 0ad6 5dbd 7633 83bd f49a 4bbd 149a 443d
000000d0: 5b8a b13e be9f 22be 1bc3 2cbe 3230 853e
000000e0: 0b4e c53e a481 b5bd 6a63 833e 46bb 2f3d
000000f0: e78e a83d 1e10 173d be4d 4f3e 55bf 363f
00000100: 3dd0 c53e 59cc 6b3e 5a42 16be 6854 8e3e
00000110: ac0e 00be c595 27be db15 d9be 576d d8be
00000120: 0bb8 e5be c3dd bf3b 61ce 05be 3336 813e
00000130: 9a80 7c3e 8113 1d3e ec31 493e d9b5 83bd
00000140: cbb9 713e c180 70be 0ca8 ef3d 0c94 b1bd
00000150: 3d97 1e3d 672c 5dbe f65a b43e dddb be3e
00000160: 128b adbd 5f8e b4be 92a9 393d e8ec c2bd
00000170: 3176 df3d 5292 66be 42fd 1e3e 8f9b 06be
00000180: 7754 c93c c818 1ebf 2083 08bf 4ef6 783e
00000190: 5d01 6abe 5d57 bf3d 0381 0cbe 9c14 28be
000001a0: 73e8 fabd 5431 13be 5f30 173e 2548 cb3e
000001b0: d051 103f d1e6 433e e053 383e 6a42 0bbc
000001c0: 1a8e f6bd ef46 503e 49da 073d e2f8 e6be
000001d0: d08e ec3d 611d f33d cce8 703e 366a 143f
000001e0: e00b 0a3d 9991 bb3d 71f3 1bbc 3625 96bc
000001f0: 5d5a a5be 4076 92be 9991 843e 56ec 8d3e
00000200: 26c1 debd 3219 c8be 2b7a f33d d57c a8bd
00000210: 4764 013e cef9 123d 8d4e dabe bc97 993e
00000220: 9583 31be 9ee5 323c bf9f 4cbe 0d70 d0bc
00000230: 905d 1dbe f9d8 f0bd e5e9 3ebe 91de 01bd
00000240: 30a8 423e ac72 8a3d 5d53 b13b 4f38 7bbd
00000250: 00d3 56be 48ac a73e c673 eebc 8230 94bd
00000260: 1b63 2bbe a353 6a3d 9177 b73e 7caa c83d
00000270: a1c8 323e f147 b83e 261b fbbd e649 c73e
00000280: ded3 9e3e 32ec 75be 0bde 3e3e e3d3 3bbd
00000290: ef44 e3bd 8cdb 28be 017b 7e3d e6c5 25be
000002a0: 1264 b8be 86ab a6be 61f7 a73e ce77 973d
000002b0: 047e 51be fba6 f7bd d80d 563e 4d83 8e3d
000002c0: 83c6 4e3e c60f d0bd a727 1cbd e994 293e
000002d0: 9005 1d3d 71f5 3a3e 4523 10be c99a b83b
000002e0: 23b6 c03d 7834 0c3e bec4 cabd 90d4 a03d
000002f0: cfaa 1f3e 5650 ab3d 5af8 953e f46d 6e3c
00000300: bdb4 b43a d9fd f73d 1f3f e23d 384c aabd
00000310: 31cb b43e b6f1 22be 64c6 c93e b91a 8e3e
00000320: 415c 2d3d ed78 8fbd 5585 8abd b96f ccbd
00000330: 5d28 24be 0b9e d93d b307 e83e 579d 5a3e
00000340: e604 843c 28b0 d0bb f1bc 64bd 2e3a a03d
00000350: 0bed 86bd 9793 693d d6dc cabc 7c9f 113e
00000360: e17e eb3d 3491 15be 9d00 f7bc 2065 3f3e
00000370: b1d6 9d3d 52ed 6e3d 1c27 83bc 5b5a f6bd
00000380: 4cea 63be 925d acbe 5e2f b5bd 6e06 21be
00000390: bf68 bd3c 674b 643d eacc 4d3c 234f b9bd
000003a0: 23a6 a0bb 0fdb bf3e fc91 5c3a 0f24 adbd
000003b0: d397 a63d e2b1 04bd 7a55 243d 704b b4bd
000003c0: 2b73 3bbd 5311 2cbe 7bb0 ab3e 4bfe c1bc
000003d0: bb53 82be 6c1b 00be 8138 05be 7abc 083e
000003e0: 29d1 d7bd f89a cebe b1b9 1abe 1003 d1be
000003f0: 4718 df3c 2e6c 43bc c69d 68be 3180 663d

linears.2.bias f4 [40]
-0.069222584 -0.20418507 -0.057820234 -0.03691588 -0.07602682 0.009325334 -0.04779385 -0.11019155
0.04181959 0.047769573 0.06122862 0.07918123 -0.036354706 -0.020497909 0.0008545734 -0.19638872
0.047253266 -0.061739866 0.02900024 0.039429765 0.014287826 -0.012804194 0.07797221 -0.05199787
0.039518364 -0.053341307 -0.06899866 0.066758014 0.07414712 -0.04001121 0.007290879 -0.03404997
-0.038283248 0.011338567 -0.067995705 -0.016107926 0.03732264 -0.09741064 -0.047266897 -0.07687702
00000000: 92c4 8dbd e415 51be e9d4 6cbd 1b35 17bd
00000010: f3b3 9bbd 49c9 183c 7cc3 43bd 1bac e1bd
00000020: 054b 2b3d 07aa 433d ddca 7a3d c529 a23d
00000030: ace8 14bd 3beb a7bc 7305 603a 201a 49be
00000040: a48c 413d f1e2 7cbd e991 ed3c 1b81 213d
00000050: 7c17 6a3c afc8 51bc e5af 9f3d b8fb 54bd
00000060: 02de 213d 6a7c 5abd 2b4f 8dbd 6db8 883d
00000070: 72da 973d cbe2 23bd 53e8 ee3b fb77 0bbd
00000080: e5ce 1cbd 66c5 393c 5541 8bbd c5f4 83bc
00000090: a0df 183d 3b7f c7bd ef9a 41bd b371 9dbd

linears.3.weight f4 [40, 40]
-0.02532526 -0.14511733 -0.13442498 0.16059807 0.2894736 0.08047046 -0.18019864 -0.30384418
-0.40073326 0.11641195 0.0039593633 -0.166686 0.17251736 0.038116198 0.20584038 -0.22417513
0.0011900313 -0.14644073 -0.1378523 0.17469436 0.09831294 0.18219124 0.5323457 0.053978916
-0.09295023 0.047561735 -0.09157354 0.06842575 -0.20752065 0.030501826 -0.032290433 -0.021338986
-0.041383207 -0.07456825 0.06235209 -0.04488893 -0.12737088 -0.4478559 -0.33758473 -0.059973173
-0.24285106 -0.06810214 -0.11082849 -0.2908624 -0.30904892 0.27771038 0.03870945 0.2462203
0.06494074 -0.23503114 -0.066334575 0.2823414 -0.20341317 0.14435485 -0.1568718 -0.22222592
-0.17944273 -0.20449163 0.0263279 -0.10074268 -0.16599445 0.049471058 0.23332737 -0.013721463
0.24758922 0.19518965 -0.29524577 0.21610397 0.4587413 0.17528701 -0.067696944 -0.19027495
-0.2633295 0.07775287 -0.14766356 -0.36033976 -0.19553283 0.024034938 0.15456484 -0.081118576
0.04230544 0.14655748 -0.18732297 0.17710061 -0.27059898 -0.14947549 0.14952393 -0.010813588
0.31615394 -0.041688457 0.056991834 0.26022258 -0.23296642 0.38845223 0.10646417 -0.14751561
-0.03974502 0.0116498545 -0.41666365 -0.15399398 -0.033395976 -0.39749962 0.12412125 0.13460271
0.16553539 -0.085952856 -0.31975564 0.14511682 0.28319836 0.059472375 0.3593336 -0.15297085
0.111634284 -0.23257428 -0.114713795 -0.07707883 -0.03031714 -0.11168646 -0.34931067 -0.15199417
0.13277805 0.036059823 0.006876142 -0.14486463 -0.17946315 0.09844987 0.11857026 0.25204602
0.07407693 -0.18519536 -0.024056442 -0.10041438 -0.16204275 0.15484172 0.044876896 0.22177164
0.055753697 -0.21868542 0.0036981406 0.25680038 -0.08543558 -0.1394171 -0.1785339 -0.09865848
0.10697003 0.23275025 0.07194363 0.015138003 -0.11265135 0.3534248 -0.11477642 -0.3289687
-0.17614622 0.29487258 -0.31192175 -0.05078672 0.0627758 0.16260207 0.40143985 -0.088168405
-0.041031834 -0.24524839 0.0949313 0.13574797 0.163277 0.22756617 0.22996 -0.12920694
-0.19380637 -0.20437706 -0.066600695 -0.31912845 -0.056325585 -0.09983355 0.13855852 -0.2547387
0.7675127 0.25044313 0.15422677 0.21891586 0.027914243 0.0662371 0.08941593 0.030747786
-0.3473175 -0.5091562 0.15861268 -0.08645951 -0.40573105 0.07879375 -0.064894706 0.03793325
-0.3802734 -0.1623603 -0.116646476 0.18540534 0.03683437 -0.117430665 -0.13094033 0.22511688
-0.7444309 0.0435788 -0.2755077 -0.25479606 -0.026024802 0.218526 -0.39303097 -0.14487712
-0.13267207 0.25268862 0.13345204 0.32892886 -0.12565863 0.10887707 -0.0911261 0.20226553
-0.102316774 0.22595344 -0.005209897 0.057896785 -0.02726624 0.017060265 0.14030711 0.038426347
0.107240446 0.083414145 -0.3312547 0.4994007 0.069849744 -0.075233586 0.12831609 -0.073539995
-0.26988715 0.0031222224 0.027010275 -0.1444125 0.11962936 -0.026404351 -0.06273282 -0.17110611
-0.16798156 0.23123384 -0.6646932 -0.14905162 0.040532853 -0.13090836 -0.28390652 -0.0005907128
0.0078350315 -0.12468723 -0.027620735 0.45432743 -0.5671826 0.4656584 -0.5304666 0.27458775
00000000: eb76 cfbc a399 14be b4a6 09be d273 243e
00000010: e235 943e b2cd a43d fe85 38be 7791 9bbe
00000020: e92c cdbe 6369 ee3d 8cbd 813b bcaf 2abe
00000030: 64a8 303e bb1f 1c3d d2c7 523e 2a8e 65be
00000040: d3fa 9b3a 8ff4 15be 2729 0dbe 14e3 323e
00000050: 4b58 c93d 5790 3a3e cf47 083f ff18 5d3d
00000060: b15c bebd 18d0 423d e88a bbbd cd22 8c3d
00000070: 4b80 54be f7de f93c f942 04bd 19cf aebc
00000080: 7081 29bd 3db7 98bd e864 7f3d 74dd 37bd
00000090: 836d 02be 5e4d e5be e8d7 acbe 6ea6 75bd
000000a0: f3ad 78be 2379 8bbd 0cfa e2bd ebeb 94be
000000b0: a93b 9ebe 0e30 8e3e cd8d 1e3d 2d21 7c3e
000000c0: a7ff 843d 01ac 70be 6cda 87bd 0d8f 903e
000000d0: 8b4b 50be c2d1 133e 00a3 20be 318f 63be
000000e0: d6bf 37be 4166 51be 9cad d73c 2e52 cebd
000000f0: 73fa 29be 2aa2 4a3d 5fed 6e3e fdcf 60bc
00000100: 0788 7d3e ccdf 473e 742a 97be 5c4a 5d3e
00000110: 24e0 ea3e 707e 333e b2a4 8abd 70d7 42be
00000120: 20d3 86be e63c 9f3d 1e35 17be 747e b8be
00000130: c239 48be ebe4 c43c 3f46 1e3e 7f21 a6bd
00000140: 7848 2d3d 2a13 163e 98d1 3fbe dd59 353e
00000150: f38b 8abe 1a10 19be cd1c 193e 7a2b 31bc
00000160: eede a13e 84c1 2abd 4570 693d e53b 853e
00000170: c08e 6ebe 36e3 c63e e309 da3d 550e 17be
00000180: adcb 22bd 08df 3e3c f054 d5be 99b0 1dbe
00000190: 38ca 08bd 1285 cbbe 4833 fe3d 4bd5 093e
000001a0: 1c82 293e 0d08 b0bd 03b7 a3be 8199 143e
000001b0: 60ff 903e 4e99 733d 93fa b73e 64a4 1cbe
000001c0: 84a0 e43d f427 6ebe 11ef eabd 81db 9dbd
000001d0: a75b f8bc dfbb e4bd d9d8 b2be 5ca4 1bbe
000001e0: f8f6 073e 77b3 133d 4351 e13b 6557 14be
000001f0: 30c5 37be 16a0 c93d f7d4 f23d 2d0c 813e
00000200: a5b5 973d daa3 3dbe 0412 c5bc 0ea6 cdbd
00000210: 89ee 25be d48e 1e3e d6d0 373d 1b18 633e
00000220: fd5d 643d 12ef 5fbe 815c 723b 577b 833e
00000230: d9f8 aebd 5bc3 0ebe 97d1 36be 750d cabd
00000240: 1a13 db3d 1556 6e3e 2f57 933d 6305 783c
00000250: c0b5 e6bd 18f4 b43e e60f ebbd 966e a8be
00000260: ad5f 34be 8af9 963e 35b4 9fbe bc05 50bd
00000270: 9990 803d 2881 263e 8689 cd3e a391 b4bd
00000280: ff10 28bd 6522 7bbe 576b c23d 8401 0b3e
00000290: 1632 273e 1b07 693e a27a 6b3e d34e 04be
000002a0: 2d75 46be 3848 51be f265 88bd ce64 a3be
000002b0: a8b5 66bd 8875 ccbd 49e2 0d3e 1c6d 82be
000002c0: b67b 443f 153a 803e 9fed 1d3e 7b2b 603e
000002d0: 69ac e43c 51a7 873d b31f b73d c8e2 fb3c
000002e0: 99d3 b1be 1058 02bf 5d6b 223e af11 b1bd
000002f0: fbbb cfbe 9e5e a13d 84e7 84bd e55f 1b3d
00000300: 32b3 c2be c741 26be 59e4 eebd e6da 3d3e
00000310: a3df 163d 7d7f f0bd 3915 06be 0a85 663e
00000320: 0693 3ebf af7f 323d 580f 8dbe a174 82be
00000330: f731 d5bc 48c5 5f3e 5b3b c9be ab5a 14be
00000340: 30db 07be 6760 813e a7a7 083e 5d69 a83e
00000350: a8ac 00be f1fa de3d 52a0 babd b21e 4f3e
00000360: 758b d1bd 5760 673e c9b7 aabb 2e25 6d3d
00000370: 735d dfbc f8c1 8b3c abac 0f3e f264 1d3d
00000380: e1a0 db3d 09d5 aa3d 379a a9be 73b1 ff3e
00000390: 620d 8f3d 1114 9abd 4b65 033e 239c 96bd
000003a0: a62e 8abe 339e 4c3b a744 dd3c dfe0 13be
000003b0: 3d00 f53d f04d d8bc 117a 80bd 7136 2fbe
000003c0: 5c03 2cbe 90c8 6c3e 5529 2abf fda0 18be
000003d0: c705 263d d70c 06be 325c 91be 11da 1aba
000003e0: 815e 003c 055c ffbd e144 e2bc 9b9d e83e
000003f0: e132 11bf c76a ee3e a9cc 07bf c496 8c3e

linears.3.bias f4 [40]
0.014347216 0.05003731 0.025446616 0.032298833 0.0015471017 0.0051621036 -0.094311595 0.07530773
-0.022793068 0.06480652 -0.0076966747 0.011500268 0.01810689 -0.0197521 0.0127244145 -0.03140618
0.02054371 -0.030812023 0.031454127 0.010178893 0.03072788 -0.050915405 0.004774787 0.025389712
-0.07488941 0.010085908 0.031791788 -0.0396562 0.011714532 -0.030693306 -0.02325559 -0.10278717
-0.021717276 -0.009121036 3.9401333e-05 0.023971805 -0.057549194 0.01979499 -0.11226889 -0.02793914
00000000: 9610 6b3c ecf3 4c3d 6c75 d03c c84b 043d
00000010: 1ec8 ca3a dd26 a93b 7026 c1bd f03a 9a3d
00000020: 87b8 babc 48b9 843d 6334 fcbb 9f6b 3c3c
00000030: e754 943c 28cf a1bc 107a 503c c4a3 00bd
00000040: 484b a83c 7f69 fcbc 0bd6 003d 5fc5 263c
00000050: 09b9 fb3c ac8c 50bd d175 9c3b 16fe cf3c
00000060: 9e5f 99bd 5d3f 253c 1b38 023d 8a6e 22bd
00000070: 4fee 3f3c 8770 fbbc 8282 bebc 1482 d2bd
00000080: 6ee8 b1bc 6670 15bc dc42 2538 8560 c43c
00000090: b4b8 6bbd 1a29 a23c 3bed e5bd a0e0 e4bc

linears.4.weight f4 [40, 40]
0.08537607 -0.168857 -0.22234277 -0.24191172 0.007887165 -0.07323025 -0.14354901 -0.07265963
-0.2690276 -0.017082084 0.29633167 0.058892068 0.09899823 -0.045267317 -0.1543295 0.11202032
0.17400736 -0.0046122456 -0.24262092 -0.24185465 -0.06970459 0.30727687 0.08021754 -0.102888234
-0.1262319 -0.18073046 -0.03675611 -0.029925724 -0.0077752564 -0.20296456 0.4848322 0.007700057
0.26806718 -0.06256214 0.080659345 -0.17646365 0.13333686 -0.017008638 -0.02247555 -0.0071047577
-0.2092135 0.0046724672 -0.12428945 0.32629648 -0.42436028 0.2752984 0.18665165 0.095216535
0.026768511 0.10746142 0.015058705 0.1360295 -0.061236825 -0.0070220213 -0.23227215 -0.005599431
-0.09360644 0.0643919 0.0596426 -0.0050692135 0.10544276 -0.19634023 -0.09030969 -0.0064207725
0.003631723 0.08589553 0.04824525 -0.048797764 0.0012587862 0.069826536 -0.14976686 0.025891647
0.011972819 0.12234851 0.2503226 0.33247548 0.10411321 -0.13285224 -0.115873404 -0.35194007
0.014945624 0.17567104 -0.008369376 0.32465473 -0.02158369 -0.03624114 0.05638619 -0.14243972
-0.29601184 -0.14164829 -0.25911888 -0.27801 0.08564482 -0.03958106 0.11251883 -0.18649457
0.033763133 -0.015151625 -0.02815194 0.062240638 0.015225992 0.14637667 -0.07100976 0.119968586
-0.17734031 0.2122903 0.18279745 0.08771116 0.047146756 0.2500834 -0.45697615 -0.11597072
0.028984359 0.13310085 0.2743601 0.066463046 -0.029010082 -0.039587956 0.24050698 0.0395618
-0.119372964 0.44548574 -0.12966906 0.072856046 -0.1333175 0.28900152 0.049342845 0.3457524
-0.263189 -0.03812095 -0.056969732 0.013248207 0.3040981 -0.016022982 0.14254594 -0.015719991
-0.1960279 -0.041172955 -0.23243795 0.04867903 0.34787276 0.0010754378 0.020276692 -0.05552963
0.14058779 0.16890241 0.17623422 -0.18422897 0.17185025 -0.09462828 -0.083486095 -0.17297834
0.018681705 -0.027182024 -0.14338027 0.30749103 0.055998586 -0.16649775 -0.49988264 0.07773099
-0.023486208 -0.21415895 0.0001467493 -0.09013709 -0.15903057 -0.17399709 0.3695813 -0.1554208
-0.1504822 0.2569639 -0.15654378 0.075493224 0.16361386 0.11786542 0.15949562 0.1512677
0.13669744 -0.2684099 0.017919488 -0.04274902 0.226729 0.3043287 -0.22950701 -0.10657854
0.034854695 0.10440324 -0.054216713 -0.06224339 -0.023037974 0.0022667667 0.03989532 -0.05409106
0.23554862 0.36609468 0.19225088 0.03477966 0.09771371 -0.04892794 0.118437484 0.05080644
-0.24029122 0.00940999 -0.016081797 -0.16257693 0.05320808 0.30056804 0.60711205 0.023929551
-0.049796596 -0.09911857 -0.24805747 0.08611343 -0.25227672 -0.10700398 -0.12595816 0.4448525
-0.20272748 0.23769891 -0.057388194 0.025951732 0.10416887 0.0039469847 0.22684465 0.08203435
0.10939976 0.05587706 0.19324444 -0.15011632 0.32429385 -0.21310957 0.03106157 -0.3407895
0.38902488 -0.019873569 0.0007460826 0.02129525 -0.061050326 -0.31480843 -0.081461504 -0.09163729
0.015357391 -0.2555119 0.04722548 0.023747569 -0.19967207 -0.14495713 -0.06944524 0.008684756
0.10880599 -0.20386475 -0.03873867 0.031221582 -0.07097352 -0.040954765 -0.018931221 0.0030713598
00000000: a6d9 ae3d d9e8 2cbe d3ad 63be b5b7 77be
00000010: 2b39 013c bef9 95bd 83fe 12be 92ce 94bd
00000020: fcbd 89be baef 8bbc c9b8 973e cf38 713d
00000030: 96bf ca3d 396a 39bd 8d08 1ebe e96a e53d
00000040: fc2e 323e 5222 97bb 9e71 78be bfa8 77be
00000050: 48c1 8ebd 6553 9d3e 1849 a43d 11b7 d2bd
00000060: ef42 01be 6811 39be 938d 16bd cb26 f5bc
00000070: 94c7 febb f1d5 4fbe ed3b f83e c250 fc3b
00000080: 1a40 893e 9420 80bd ba30 a53d e3b2 34be
00000090: 7589 083e b355 8bbc a51e b8bc 07cf e8bb
000000a0: 103c 56be 7f1b 993b 788b febd 5510 a73e
000000b0: c045 d9be e9f3 8c3e 9c21 3f3e e300 c33d
000000c0: a349 db3c bc14 dc3d c9b8 763c 514b 0b3e
000000d0: 77d3 7abd fc18 e6bb c0d8 6dbe 6f7b b7bb
000000e0: bcb4 bfbd e7df 833d cd4b 743d a51b a6bb
000000f0: 60f2 d73d 6a0d 49be 49f4 b8bd 5865 d2bb
00000100: 3402 6e3b ffe9 af3d d09c 453d 2ae0 47bd
00000110: dbfd a43a 3701 8f3d 7c5c 19be b81a d43c
00000120: a529 443c db91 fa3d 492a 803e 3a3a aa3e
00000130: 4f39 d53d 6b0a 08be 094f edbd 7d31 b4be
00000140: 7ede 743c 1ce3 333e b51f 09bc 2539 a63e
00000150: 47d0 b0bc 9771 14bd 35f5 663d b8db 11be
00000160: dd8e 97be 400c 11be 3bab 84be 5457 8ebe
00000170: 8d66 af3d c01f 22bd 4670 e63d 6ff8 3ebe
00000180: 364b 0a3d 853e 78bc e69e e6bc 0af0 7e3d
00000190: 7076 793c c4e3 153e 916d 91bd 17b2 f53d
000001a0: b398 35be a162 593e 412f 3b3e e9a1 b33d
000001b0: f51c 413d ee0a 803e c7f8 e9be 0f82 edbd
000001c0: 9b70 ed3c 974b 083e ed78 8c3e c71d 883d
000001d0: 8da6 edbc fb26 22bd 7647 763e 8e0b 223d
000001e0: d079 f4bd b516 e43e f7c7 04be 8d35 953d
000001f0: 6284 08be 02f8 933e b91b 4a3d 7506 b13e
00000200: b5c0 86be b724 1cbd 1859 69bd 020f 593c
00000210: bfb2 9b3e a142 83bc 90f7 113e 36c7 80bc
00000220: 8abb 48be f9a4 28bd 3704 6ebe aa63 473d
00000230: 611c b23e b4f5 8c3a 4e1b a63c 0a73 63bd
00000240: 3ff6 0f3e c1f4 2c3e be76 343e 85a6 3cbe
00000250: 83f9 2f3e 79cc c1bd c2fa aabd 3c21 31be
00000260: 600a 993c d6ac debc 47d2 12be 776f 9d3e
00000270: c65e 653d 637e 2abe 9ef0 ffbe 6d31 9f3d
00000280: 2666 c0bc 7c4c 5bbe b7e0 1939 cb99 b8bd
00000290: e9d8 22be 4b2c 32be c339 bd3e a126 1fbe
000002a0: 0118 1abe c690 833e 034d 20be 319c 9a3d
000002b0: 648a 273e 6d63 f13d d252 233e ece5 1a3e
000002c0: 6afa 0b3e 066d 89be e4cb 923c 9919 2fbd
000002d0: a62b 683e f9d0 9b3e e303 6bbe d945 dabd
000002e0: ccc3 0e3d 5ed1 d53d 5812 5ebd edf2 7ebd
000002f0: 22ba bcbc 098e 143b 4669 233d 968e 5dbd
00000300: a833 713e c370 bb3e 6add 443e 1e75 0e3d
00000310: 201e c83d aa68 48bd 5a8f f23d 6a1a 503d
00000320: e70e 76be 5c2c 1a3c f9bd 83bc 917a 26be
00000330: b7f0 593d 0ee4 993e b26b 1b3f e807 c43c
00000340: 84f7 4bbd adfe cabd c702 7ebe 3d5c b03d
00000350: 6a2a 81be e724 dbbd 2dfb 00be b5c3 e33e
00000360: cb97 4fbe 5867 733e e20f 6bbd ba98 d43c
00000370: 7d56 d53d b555 813b f749 683e a001 a83d
00000380: fb0c e03d 58df 643d dfe1 453e 18b8 19be
00000390: d809 a63e 6539 5abe d574 fe3c f67b aebe
000003a0: 452e c73e e5cd a2bc c194 433a 6073 ae3c
000003b0: e80f 7abd 922e a1be 4ad5 a6bd 55ac bbbd
000003c0: 919d 7b3c 75d2 82be 816f 413d 438a c23c
000003d0: d676 4cbe a46f 14be 4e39 8ebd 824a 0e3c
000003e0: add5 de3d ecc1 50be 71ac 1ebd 67c4 ff3c
000003f0: 915a 91bd 2fc0 27bd a615 9bbc de48 493b

linears.4.bias f4 [40]
0.0365753 0.025348395 -0.008689241 0.040610254 0.03437748 0.0007869453 -0.01939756 -0.011888973
-0.04096018 0.012499194 -0.02135551 0.013260005 -0.0182732 0.073156096 0.025104893 0.025692154
-0.012122807 0.016956871 -0.04361528 -0.12870236 -0.02596432 0.006337005 0.03278247 -0.023552967
-0.012407379 -0.012587414 -0.04218769 -0.026251981 0.080291376 -0.031499445 -0.00510959 0.03816213
-0.04025174 0.027352264 0.07389885 0.018562607 0.030348985 0.0838545 0.15167217 -0.057875596
00000000: fbcf 153d 70a7 cf3c 515d 0ebc f056 263d
00000010: 67cf 0c3d 014b 4e3a a2e7 9ebc f8c9 42bc
00000020: ddc5 27bd 6bc9 4c3c c0f1 aebc 7e40 593c
00000030: aeb1 95bc ddd2 953d c7a8 cd3c 5a78 d23c
00000040: bd9e 46bc 23e9 8a3c f0a5 32bd 8dca 03be
00000050: 20b3 d4bc a7a6 cf3b e946 063d 27f2 c0bc
00000060: 5248 4bbc 713b 4ebc 00cd 2cbd 650e d7bc
00000070: ce6f a43d 9005 01bd 596e a7bb e54f 1c3d
00000080: 02df 24bd db11 e03c 4858 973d 9c10 983c
00000090: 6f9e f83c e8bb ab3d f34f 1b3e f60e 6dbd

linears.5.weight f4 [40, 40]
-0.09202495 -0.04420382 0.3137875 0.42042628 -0.023527807 -0.1986713 0.23329428 0.13868763
0.09199909 -0.0083424775 -0.24082588 0.039788317 -0.1853771 0.064862855 0.057073742 -0.28306416
0.22097836 0.013106318 0.3536965 -0.046320606 -0.2273161 -0.046025738 0.076991126 -0.15814753
0.089646585 0.052446663 0.020425973 -0.10726038 -0.090032585 0.17912956 0.022905251 -0.07663926
-0.014858332 -0.099900715 -0.05821319 0.043589413 -0.034566265 0.07959296 -0.010885499 -0.21138854
-0.20623168 0.32114002 -0.15470216 0.0015023217 0.0068390854 -0.079293415 0.09905483 0.2569937
-0.06745641 -0.012951347 0.1639849 -0.01938025 -0.18013626 -4.5051827e-05 -0.015029088 0.035618413
0.1427179 0.3054279 -0.009165176 0.042504616 -0.071164116 0.1971673 -0.04393712 -0.08530203
-0.0434824 -0.09065347 0.19514002 0.0052290144 -0.059457723 0.27820846 -0.03524383 -0.0023494796
0.06764973 0.04827173 0.064822674 -0.040900804 0.07869784 0.06733181 0.091375425 -0.04396028
0.11293818 -0.40074936 0.38903078 -0.07631751 0.2846785 -0.19438533 -0.040895395 0.30081904
-0.21213713 -0.1352386 0.025055997 -0.16333602 -0.1598967 0.24500802 -0.05232864 0.052194513
-0.12793998 0.06158995 0.09029608 0.055248834 -0.18834572 0.2742531 -0.0323237 -0.31645152
-0.22821464 0.11182183 -0.2557745 -0.20575956 -0.065283716 0.35237637 0.022933125 0.28947213
-0.0006584141 0.33935028 -0.13249363 -0.22803545 0.1529145 0.21984191 0.12792076 -0.08702381
-0.019099232 -0.0250255 -0.16119012 -0.21103607 0.2024875 0.025176847 -0.05344876 -0.34787184
-0.012690127 0.08860344 0.005083512 0.15975392 -0.12063862 0.0012150814 -0.024480436 0.019966654
-0.2860854 0.18707547 0.27096477 0.07123928 -0.43057516 -0.016630787 0.034798432 0.14169686
-0.19208926 -0.09735548 0.13826345 -0.118496016 0.15629691 0.114686415 -0.029418616 -0.01447771
0.056317426 -0.07536133 0.099039674 0.024141593 0.018969739 0.07525528 -0.08795423 0.08921688
0.21190342 0.047424853 0.030015852 -0.32193932 -0.15532449 -0.35847196 -0.35446543 0.005247851
0.08581978 0.055079233 -0.08361263 0.07325205 0.0125800045 0.20653431 -0.102320984 0.0074915295
-0.063096195 0.19776104 0.15556388 -0.04032807 -0.1607414 -0.14125916 0.3234499 0.2793269
0.11239636 0.026795221 0.124513 -0.28719625 0.22659834 -0.034487877 -0.10069624 -0.055078983
0.025646187 0.4424426 -0.056149885 0.18101735 -0.08604172 0.12573472 0.35950583 -0.17183995
0.07788478 -0.23559842 0.027569732 0.120086156 0.11896503 -0.061901074 -0.04870522 -0.065397575
-0.0058232746 0.2317697 0.07791152 0.035670117 -0.13954845 -0.097979166 -0.024789106 0.30636916
0.074231 -0.15711537 -0.25021333 0.0356976 0.02256287 -0.066569634 0.053020183 0.006216508
0.29516608 0.034013838 0.17581128 0.07168284 -0.22729078 0.10078464 -0.09297876 -0.0048785903
-0.08135703 -0.048065715 -0.3455277 0.17170648 0.05521341 -0.06143715 -0.18004787 0.009601689
-0.05143163 0.17011084 0.30553782 -0.025099127 -0.17886896 -0.025249835 -0.031217579 -0.07025145
0.114620365 -0.30832362 -0.1675585 0.2805077 -0.07032446 0.1538711 0.1332979 -0.0051958887
00000000: 9477 bcbd 110f 35bd c1a8 a03e 1d42 d73e
00000010: 63bd c0bc 7d70 4bbe b2e4 6e3e 2104 0e3e
00000020: 056a bc3d e3ae 08bc 0f9b 76be 13f9 223d
00000030: 7fd3 3dbe d1d6 843d 28c6 693d c9ed 90be
00000040: 2748 623e e2bb 563c b517 b53e adba 3dbd
00000050: 8dc5 68be 7c85 3cbd 86ad 9d3d 6df1 21be
00000060: a198 b73d 50d2 563d 5f54 a73c 55ab dbbd
00000070: 0163 b8bd bd6d 373e cba3 bb3c 0bf5 9cbd
00000080: 5d70 73bc bf98 ccbd f470 6ebd d08a 323d
00000090: 5b95 0dbd a201 a33d 1859 32bc 3d76 58be
000000a0: 662e 53be 776c a43e 3e6a 1ebe 8de9 c43a
000000b0: 681a e03b 9664 a2bd 42dd ca3d ae94 833e
000000c0: 9626 8abd e331 54bc a8eb 273e 54c3 9ebc
000000d0: a475 38be 08f6 3cb8 903c 76bc 9de4 113d
000000e0: a424 123e 0c61 9c3e 8929 16bc 5219 2e3d
000000f0: 7ebe 91bd 3ae6 493e 69f7 33bd d5b2 aebd
00000100: 9a1a 32bd 87a8 b9bd c9d2 473e 2758 ab3b
00000110: f189 73bd 5771 8e3e d65b 10bd baf9 19bb
00000120: f18b 8a3d 94b8 453d c0c1 843d 9a87 27bd
00000130: 552c a13d 43e5 893d 0a23 bb3d b20f 34bd
00000140: 224c e73d 052f cdbe 0b2f c73e 5b4c 9cbd
00000150: 61c1 913e f30c 47be ee81 27bd f404 9a3e
00000160: 7a3a 59be fd7b 0abe 3c42 cd3c 8f41 27be
00000170: f6bb 23be 62e3 7a3e 8e56 56bd eac9 553d
00000180: b302 03be be45 7c3d 27ed b83d 9a4c 623d
00000190: b3dd 40be e76a 8c3e db65 04bd ef05 a2be
000001a0: 19b1 69be d802 e53d e0f4 82be a2b2 52be
000001b0: 78b3 85bd ad6a b43e 40de bb3c b135 943e
000001c0: 6c99 2cba 52bf ad3e 69ac 07be 2082 69be
000001d0: 9e95 1c3e 3d1e 613e a9fd 023e 8a39 b2bd
000001e0: fe75 9cbc 4702 cdbc 060f 25be d719 58be
000001f0: e258 4f3e ad3f ce3c 16ed 5abd 421c b2be
00000200: 40ea 4fbc b875 b53d 9793 a63b 8896 233e
00000210: 6111 f7bd 5e43 9f3a 328b c8bc 1c91 a33c
00000220: c979 92be b690 3f3e e5bb 8a3e e6e5 913d
00000230: 5974 dcbe 4a3d 88bc cd88 0e3d fb18 113e
00000240: 0cb3 44be 4f62 c7bd ef94 0d3e 0aae f2bd
00000250: 4c0c 203e b6e0 ea3d 4fff f0bc eb33 6dbc
00000260: 1aad 663d 0a57 9abd 50d5 ca3d 97c4 c53c
00000270: 6d66 9b3c 711f 9a3d 5921 b4bd 57b7 b63d
00000280: 36fd 583e 9040 423d cee3 f53c 3bd5 a4be
00000290: 620d 1fbe a389 b7be 7e7c b5be 2af6 ab3b
000002a0: 48c2 af3d c39a 613d 193d abbd 2c05 963d
000002b0: 5d1c 4e3c bb7d 533e aa8d d1bd 817b f53b
000002c0: 9438 81bd df81 4a3e 234c 1f3e 0c2f 25bd
000002d0: 6599 24be 3ea6 10be 3a9b a53e ef03 8f3e
000002e0: 1030 e63d a781 db3c ac00 ff3d 630b 93be
000002f0: 6509 683e 2943 0dbd d539 cebd 809a 61bd
00000300: f417 d23c d687 e23e 6cfd 65bd 9d5c 393e
00000310: a436 b0bd 9ac0 003e 2611 b83e d0f6 2fbe
00000320: 0e82 9f3d b640 71be ebd9 e13c bbef f53d
00000330: f0a3 f33d fb8b 7dbd 207f 47bd 2aef 85bd
00000340: 2bd1 bebb 0955 6d3e 1390 9f3d d41a 123d
00000350: cae5 0ebe 4da9 c8bd 8612 cbbc 6bdc 9c3e
00000360: 6c06 983d dae2 20be f61b 80be a637 123d
00000370: c5d5 b83c a955 88bd b12b 593d d9b3 cb3b
00000380: 0220 973e 1852 0b3d df07 343e 74ce 923d
00000390: eabe 68be 2d68 ce3d a66b bebd 95dc 9fbb
000003a0: 849e a6bd 8ee0 44bd 02e9 b0be d3d3 2f3e
000003b0: 7527 623d 85a5 7bbd 785e 38be 6750 1d3c
000003c0: f9a9 52bd 8931 2e3e 746f 9c3e af9c cdbc
000003d0: 6d29 37be bed8 cebc 02bc ffbc fedf 8fbd
000003e0: 15be ea3d 98dc 9dbe 7594 2bbe b59e 8f3e
000003f0: 4506 90bd 6390 1d3e 3f7f 083e 4642 aabb

linears.5.bias f4 [40]
0.002542686 0.080016404 0.020608647 0.0011028777 -0.03080688 -0.07158812 -0.008724575 0.0037885825
0.04034517 0.0037258458 0.011650548 -0.05726468 -0.037623893 -0.056954455 -0.003814776 0.02330345
-0.07126734 0.059434615 0.013360916 0.04907535 0.23112251 0.07673716 0.015286336 -0.022596605
-0.14855225 -0.047224578 0.035594795 0.036001638 -0.10114481 0.053590104 0.019538188 -0.04674132
0.073100686 0.012367282 -0.024982914 0.014238147 0.04584341 0.015289187 0.07463749 0.010740657
00000000: 31a3 263b a4df a33d 77d3 a83c 6f8e 903a
00000010: b65e fcbc cb9c 92bd 85f1 0ebc de49 783b
00000020: fa40 253d 522d 743b f1e1 3e3c 5e8e 6abd
00000030: 831b 1abd 1349 69bd 5201 7abb e0e6 be3c
00000040: 9cf4 91bd b671 733d bee7 5a3c 3c03 493d
00000050: 61ab 6c3e 5f28 9d3d 8a73 7a3c 841c b9bc
00000060: 151e 18be 8f6e 41bd d9cb 113d 7476 133d
00000070: 0325 cfbd 4c81 5b3d 8d0e a03c d473 3fbd
00000080: d0b5 953d 24a0 4a3c f8a8 ccbc 1e47 693c
00000090: 4dc6 3b3d 807f 7a3c 8adb 983d 95f9 2f3c

linears.6.weight f4 [1, 40]
0.21891637 -0.13344257 0.36644283 0.30246463 0.49517962 0.10523473 0.078734666 0.057628714
-0.21438602 -0.18243776 -0.28645343 0.007894023 -0.13120928 -0.086669795 -0.12718293 -0.18032514
0.19621783 -0.5466401 -0.57703257 0.40702403 -0.18633638 -0.56341505 -0.37736088 -0.21655107
0.12083836 0.3015816 0.17403235 0.005400573 0.12089004 -0.27980345 0.15119468 0.18878242
-0.17200416 0.37255988 0.23311701 0.227998 0.12695277 0.03871321 -0.0027494049 0.31258777
00000000: 9d2b 603e 2ba5 08be 659e bb3e a5dc 9a3e
00000010: 2f88 fd3e 4e85 d73d a43f a13d 160c 6c3d
00000020: 0288 5bbe f7d0 3abe 06aa 92be ef55 013c
00000030: ba5b 06be ef7f b1bd 3e3c 02be 27a7 38be
00000040: 54ed 483e 9bf0 0bbf 68b8 13bf 7465 d03e
00000050: f7ce 3ebe f83b 10bf 7235 c1be 90bf 5dbe
00000060: 1a7a f73d e768 9a3e 8935 323e 4af7 b03b
00000070: 3395 f73d 6642 8fbe c7d2 1a3e 2e50 413e
00000080: dc21 30be 2bc0 be3e 3ab6 6e3e 4f78 693e
00000090: e8ff 013e be91 1e3d 5c2f 34bb 810b a03e

exp_avg f4 [40, 2]
-2.1967597e-05 0.0021461316 -8.1639424e-05 -0.0011310437 0.0005848621 0.0023589605 5.6522786e-05 0.0014579258
5.6756344e-05 0.0010598468 -0.00011547424 -0.0015643203 -0.00035166115 -0.0013078913 -0.00023737672 0.00044669764
0.0002600383 -0.00077840325 2.5590925e-05 -0.0006835096 -0.0008482752 -0.0062313676 -4.3095668e-05 0.000540754
0.0004953189 0.004579315 0.0001273768 -0.00036468572 0.00012523314 -0.00067507254 -5.9444123e-05 0.00056282664
-0.0001616815 0.00012930538 2.2641829e-05 0.0005662088 0.0004226634 0.0005794661 -4.811057e-05 -0.0012983624
-0.00033400554 -0.00022549104 -0.00024109591 0.0027894033 0.00015355798 -0.0016499007 0.00040415925 0.0022841801
-1.9986195e-05 0.0008358553 -0.00024671396 -0.0003410603 -0.00023732765 0.00092633214 -7.998825e-05 0.0008813245
9.401366e-06 0.0007764474 5.741793e-05 -0.00019309878 2.1580243e-05 -0.00040287772 0.00012521583 -0.0001996272
-0.0001981807 -0.00048849604 -0.0002317359 0.0010571344 0.00012772792 0.00019283801 0.0001698546 -0.0016722631
6.1826715e-05 -0.0012137453 -3.8784183e-06 0.00038897642 1.2925773e-05 0.00054294383 -0.00022209283 -0.002434692
00000000: 0e47 b8b7 1da6 0c3b d535 abb8 873f 94ba
00000010: 6e51 193a ca98 1a3b e112 6d38 df17 bf3a
00000020: a90d 6e38 8fea 8a3a c32a f2b8 e109 cdba
00000030: 295f b8b9 8d6d abba 54e8 78b9 be32 ea39
00000040: c055 8839 c20d 4cba 18ac d637 8e2d 33ba
00000050: c95e 5eba 8030 ccbb 9fc1 34b8 63c1 0d3a
00000060: 4ad8 013a 140e 963b 7390 0539 4a33 bfb9
00000070: 0451 0339 5af7 30ba a453 79b8 a88a 133a
00000080: 0c89 29b9 2696 0739 f5ee bd37 a16d 143a
00000090: ec98 dd39 50e7 173a 55ca 49b8 d02d aaba
000000a0: 771d afb9 ca71 6cb9 b1ce 7cb9 6cce 363b
000000b0: 6804 2139 7b41 d8ba 56e5 d339 2fb2 153b
000000c0: 07a8 a7b7 4d1d 5b3a 6359 81b9 57d0 b2b9
000000d0: 28db 78b9 19d5 723a 5dbf a7b8 b008 673a
000000e0: 8fba 1d37 818a 4b3a 08d4 7038 8f7a 4ab9
000000f0: 3807 b537 5539 d3b9 5e4c 0339 0553 51b9
00000100: bace 4fb9 6a0e 00ba 22fe 72b9 8b8f 8a3a
00000110: b4ee 0539 8f34 4a39 ff1a 3239 d72f dbba
00000120: f7a8 8138 8916 9fba 5c23 82b6 88ef cb39
00000130: c6db 5837 5854 0e3a 97e1 68b9 5b8f 1fbb

exp_avg_sq f4 [40, 2]
0.00039639696 0.021821937 0.0027317796 0.0053982288 0.029016852 0.026071046 0.0005825823 0.0093321595
0.0011414945 0.0052011176 0.003478765 0.011759065 0.014566931 0.0080098435 0.0009104254 0.0009783744
0.0010229718 0.002900852 0.001849431 0.002073404 0.126379 0.17719075 0.00021815281 0.001608785
0.046512417 0.09754301 0.00048558286 0.00058810826 0.00012216896 0.0016197223 0.00037739155 0.001319192
0.001421779 3.8439324e-05 0.0005592262 0.0009928396 0.007813898 0.0015089854 0.0037528004 0.008088032
0.0037141007 0.0003535466 0.000111966394 0.03861222 1.8434841e-05 0.014275608 0.018173883 0.025513573
0.0007350743 0.003636517 0.005063093 0.00055870984 0.0011613964 0.0047568437 0.0005693878 0.0035305505
6.2380925e-05 0.0017532215 0.00018580949 0.0001601175 0.0009595294 0.0006356321 0.00029255013 0.0002151267
0.006324335 0.000979364 0.001864338 0.006081186 0.0036720107 0.00017432586 8.211232e-05 0.013140978
5.7592963e-05 0.005115354 7.9059086e-05 0.0005825891 0.00043659584 0.0014144472 0.020981435 0.02748415
00000000: 80d3 cf39 ebc3 b23c a807 333b a0e3 b03b
00000010: c0b4 ed3c f292 d53c 70b8 183a eae5 183c
00000020: 339e 953a 236e aa3b fefb 633b 18a9 403c
00000030: 23aa 6e3c b83b 033c 9da9 6e3a cc3c 803a
00000040: 3d15 863a 381c 3e3b 9b68 f23a f2e1 073b
00000050: 7f69 013e 7e71 353e f3bf 6439 dedd d23a
00000060: ce83 3e3d a1c4 c73d d495 fe39 472b 1a3a
00000070: 7b1a 0039 dd4c d43a a3dc c539 bde8 ac3a
00000080: fd5a ba3a e939 2138 0999 123a 2b22 823a
00000090: dd05 003c 26c9 c53a 8bf1 753b aa83 043c
000000a0: 4568 733b 395c b939 80cf ea38 d927 1e3d
000000b0: 85a4 9a37 3de4 693c 65e1 943c d701 d13c
000000c0: 00b2 403a a252 6e3b 4de8 a53b 6276 123a
000000d0: ff39 983a 4cdf 9b3b f842 153a cf60 673b
000000e0: 81d2 8238 5acc e53a dbd5 4239 37e5 2739
000000f0: ee88 7b3a 8ca0 263a 6a61 9939 a293 6139
00000100: 5e3c cf3b 015e 803a cd5c f43a af44 c73b
00000110: 1ea6 703b 3ecb 3639 b733 ac38 424d 573c
00000120: f98f 7138 b39e a73b 86cc a538 e5b8 183a
00000130: e7e6 e439 f964 b93a 42e1 ab3c 7126 e13c

exp_avg f4 [40]
0.00065655663 -0.00016102342 0.00028668143 0.00035775627 0.00021133375 -0.00023200692 -1.569995e-05 -6.824268e-06
-0.00023154818 4.436185e-06 -0.0005606153 0.0001603528 0.0007020398 -0.00012811818 -9.3672985e-05 -3.7998077e-05
-3.3269273e-05 0.00016241761 3.0438488e-05 -4.9372135e-05 -0.00014089193 0.00074171217 -0.00036032245 0.0003848388
4.1260388e-05 0.00014943433 0.0002698983 0.00026893 9.18511e-05 -2.2261296e-05 -0.0002486962 1.1934952e-05
0.00013434286 0.00040283534 -0.0001858822 -0.0005111223 -0.0001518094 4.406623e-05 3.444602e-05 -0.00015435682
00000000: c51c 2c3a 65d8 28b9 bb4d 9639 3c91 bb39
00000010: 7999 5d39 e246 73b9 63b3 83b7 04fc e4b6
00000020: becb 72b9 8ada 9436 42f6 12ba 6124 2839
00000030: 1809 383a 7657 06b9 4d72 c4b8 2060 1fb8
00000040: 9c8a 0bb8 a54e 2a39 2856 ff37 ed14 4fb8
00000050: 64bc 13b9 766f 423a a9e9 bcb9 30c4 c939
00000060: 010f 2d38 79b1 1c39 2381 8d39 2cff 8c39
00000070: 2fa0 c038 c5bd bab7 7063 82b9 3b3c 4837
00000080: 63de 0c39 a533 d339 60e9 42b9 d6fc 05ba
00000090: 072f 1fb9 c1d3 3838 227a 1038 d8da 21b9

exp_avg_sq f4 [40]
0.010147149 0.0031434787 0.014768207 0.0045839394 0.00284959 0.0066066626 0.0051679434 0.00057051383
0.0013310374 0.0015474727 0.1036698 0.0007095437 0.053219937 0.00023760257 0.0008670165 0.0008424434
3.672315e-05 0.0005504212 0.0009950221 0.004926376 0.00021768232 0.017954497 0.006979734 0.0139118545
0.0019295157 0.00050537335 0.0021462769 0.0016090064 0.0010138222 9.828293e-05 0.0001843324 0.00010900466
0.00086363027 0.0025625306 0.00022633305 0.0061126016 0.0027902392 0.0003548409 0.0007893567 0.016829103
00000000: 3a40 263c d202 4e3b 5af6 713c df34 963b
00000010: 30c0 3a3b b47c d83b da57 a93b 898e 153a
00000020: 3476 ae3a 91d4 ca3a d550 d43d ac00 3a3a
00000030: 26fd 593d f424 7939 7e48 633a 6bd7 5c3a
00000040: 2f07 1a38 244a 103a 676b 823a 706d a13b
00000050: a741 6439 4f15 933c 41b6 e43b 8cee 633c
00000060: cee7 fc3a 087b 043a 8da8 0c3b 4ce5 d23a
00000070: 3ae2 843a 3f1d ce38 5a49 4139 6e99 e438
00000080: 3f65 623a 21f0 273b d153 6d39 384c c83b
00000090: 72dc 363b f009 ba39 d5ec 4e3a 30dd 893c
