pdebench/models/newly_trained_models1D_Advection_Sols_beta0.1_PINN.pt-15000.pt (torch, 120453 bytes, 39 tensors)

linears.0.weight f4 [40, 2]
00000000: 1a8e 20bc b17f 3b3e c0fe f0bd 5b25 1bbd
00000010: 832d 2f3f d2db a83e eddf 59be 5389 bfbd
00000020: a95f a63e ba61 0fbd eb38 473e a52d bbbd
00000030: d0f0 2c3d 05e1 dabe f758 603d ca46 54be
00000040: 0d49 8cbe 1478 b8be 68e1 e63e 0ec5 383e
00000050: 2cd8 953d 59e4 f13d c404 3fbe 8771 713e
00000060: 151b a63e efc5 46bd aba1 393d b002 88be
00000070: ec1c d1bd 3b87 b8be d4a2 a5be 7a2b 873d
00000080: 9a81 6d3e 3b72 b0bd d260 fcbd ffdd de3b
00000090: b3e3 443e 3886 c33e ff2f 29be 138b 7d3e
000000a0: 9c5d 6b3e 81f8 c3be 7d18 21be db67 e1bd
000000b0: 0ee3 f2be a5a7 863c de77 663e 3950 d13d
000000c0: 2e48 a7bd 50e0 bfbe f6b5 723e a55b b8be
000000d0: c5a0 463d c407 173d ab39 3c3c 2be5 92be
000000e0: b4af 293d 4d79 e23d 8b58 5fbd 647f 0f3e
000000f0: 542a 893e e5fb 743e 2f73 333e 67b9 0dbe
00000100: 354e ddbe fca4 48bd c98d 59be b4bc 0bbf
00000110: e985 82be 7d53 1cbe 1a2f ad3d 4ea2 a1bd
00000120: 4ce7 603c 6099 b43e 740a 233e cc2a 823d
00000130: cdeb 983e cea4 9e3d a266 09be 8394 83be
-0.009799505 0.18310429 -0.1176734 -0.03787742 0.6842882 0.3298021 -0.21276827 -0.093523644
0.32494858 -0.03500531 0.19455306 -0.091395654 0.042221844 -0.427498 0.054772343 -0.20730129
-0.27399483 -0.36029112 0.45093846 0.1804392 0.07316622 0.11811132 -0.18654162 0.23578463
0.32442537 -0.048528608 0.045320194 -0.2656455 -0.102105945 -0.36040673 -0.3235079 0.06600089
0.2319397 -0.08615538 -0.123231545 0.0068013663 0.19227485 0.38188338 -0.16522215 0.24760084
0.22984928 -0.3827553 -0.15731998 -0.11006137 -0.47438854 0.016437361 0.22506663 0.102203794
-0.08168064 -0.37475824 0.23702225 -0.3600742 0.048493166 0.03687264 0.0114883585 -0.28690466
0.04142733 0.110582925 -0.0545278 0.1401344 0.26790106 0.23924215 0.17524408 -0.13840257
-0.4322373 -0.048985466 -0.21245493 -0.54584813 -0.2549279 -0.15266223 0.084562495 -0.07892285
0.0137270205 0.35273266 0.15921956 0.06355819 0.29867402 0.07746278 -0.13418058 -0.25699243

linears.0.bias f4 [40]
00000000: ee8a 8ebd e24a a63d a241 b73d aed1 44bd
00000010: 74de b2bc 45f9 3c3d 9c35 a93d b609 743d
00000020: 5aea 923d 542e b83b c978 0d3e bdf8 043d
00000030: f538 0c3c 890a 7e3d dc84 f23d aab1 973d
00000040: d0cd 6ebd 8d18 b03d 7506 b03d e4f9 e9bc
00000050: 7ffc 0d3d 0866 453d 5d8f c03d 27b1 833d
00000060: f848 60bd 64c1 97bd eccd 4bbd 0bc4 7bbd
00000070: 9356 503d d92f bd3d d67f fabd be39 91bd
00000080: a8e4 b8bc 3313 3a3d 8901 a4bc 68b4 b8bd
00000090: 4d02 20be 32d2 91bd 6952 dabd 5ced 9b3d
-0.069600925 0.081197515 0.08948065 -0.04805153 -0.02183459 0.04613616 0.08262178 0.059579574
0.07173605 0.005620757 0.13815607 0.032463778 0.0085585015 0.062021766 0.11841747 0.074069336
-0.058301747 0.08598433 0.085949816 -0.02856154 0.034664627 0.048193008 0.094023444 0.064302735
-0.05475709 -0.07409933 -0.04975693 -0.061466258 0.050863814 0.09237642 -0.12231414 -0.070910916
-0.02256997 0.045428466 -0.020020263 -0.09018785 -0.15625878 -0.0712017 -0.1066025 0.07613632

linears.1.weight f4 [40, 40]
00000000: a769 7dbe 3c5c 34be b4dc 043e dca3 88be
00000010: a3e8 eebd ab26 b6be cc82 4b3e 7df7 25bd
00000020: 4e95 513e 4627 d8bd f3aa 87be e6e6 d23d
00000030: c716 ecbc 1672 2cbd 8937 2d3d fe41 153e
00000040: b559 aebe d368 6f3e f06b 17bd 9aa6 413d
00000050: a4c9 cfbd 8ead bcbd 15e6 92bc c298 9c3e
00000060: 8103 c93c 7e73 cdbd 0782 09be 1f08 083e
00000070: d7df 533e 320f 043e 6ba9 f7bd be17 d6bd
00000080: d5b8 c1bd 6e9c 6e3d fb57 ac3e 1249 d4bc
00000090: 0c08 c73d 69ce 2bbe e5a8 81bd 447d 1d3e
000000a0: 6d50 f8bd 1e09 203e fe38 31bd 0dff 08be
000000b0: 8218 c5bd 1929 0a3e 3fb6 63bc 3f82 803e
000000c0: 4479 d3bd a972 dc3d 00d7 853e ae48 063e
000000d0: cbd8 613e c690 553d 5dd1 21bd 0705 37bd
000000e0: c5c7 523e 5f8a 403e 99b8 9dbd 8f8b f2bd
000000f0: a59b 3ebc eb20 cf3c 2712 bfbc a1e2 fabd
00000100: 141f 99be 00dc 233e 5abf efbd beea 28be
00000110: cfb1 a7bd ba2b 7d3d 8e94 fabc afdf e13d
00000120: ffb0 c2be 374f 59be b165 62be caaa 51be
00000130: 8c84 27be e4bb 47be 3a0f 7cbd 839d 2a3e
00000140: 8243 08be add1 71bd 135c 573e d7bd 9ebd
00000150: a8a7 86bc 1042 a93c cda6 3a3e bdfb 2dbd
00000160: 6df6 303e 5d81 513e cf10 85bd 1b5b 603a
00000170: 9752 143e c61d 823e a93c 053d 44cb f5bd
00000180: 30c9 c2bc 90de db3e 97d3 4e3e 53cf afbd
00000190: 0a74 5fbe 1b44 bb3e d2fc a03e f65d 853e
000001a0: f29f 6d3d 3f69 bcbe 2276 933d 7612 babd
000001b0: 77ab 87bd ac75 5ebe 0da3 33be 6b00 ff3d
000001c0: 6593 eebc d424 e5bd 3ef2 b5bd 24aa cbbd
000001d0: 4e29 5e3e f0df 5e3d de6e 5fbe 6f64 c23d
000001e0: ac75 ef3c 7c44 0a3e 2e01 e63c f2f7 57be
000001f0: 4e1d df3d d8e1 e4bd dec7 843d e708 64be
00000200: a3c8 ba3e ac30 c33d d1f5 963d c7d6 0c3e
00000210: 5b92 ebbd f2b8 353e 6eaf 843e b5e5 783e
00000220: 561f ddbe 3eeb c13d 5199 823e 9b9c 5b3e
00000230: f5f4 0c3d 994f debd 0179 7d3e 82ab d1bd
00000240: cad8 c2bc 84ed 6fbe 6453 edbd 84dd 2bbe
00000250: 250a 683d eea5 373e 2ae3 2a39 eab1 7bbd
00000260: b15c ef3d ebb3 b9bd e191 5d3e 725c 81bd
00000270: accd 03bf e821 48be 592e 4abe 023b 6dbd
00000280: 2bcb 103e adfb 1c3b 380e cb39 71e6 a43e
00000290: 09d9 a7be 86f0 55bc 281c 17be 2e40 43bd
000002a0: de68 7bbe e50b 0abe b6cc 06be edf4 3bbe
000002b0: 976e 95be df40 a43d 5599 3cbe da0a 20be
000002c0: 6f16 29bd ae05 64bd 8c94 c53d 3d05 623e
000002d0: 3d90 bd3c 90eb 07be ea8b c7ba 606b 1dbe
000002e0: 48c0 debd 8302 4d3e a198 97bd 5484 09bd
000002f0: 58b6 033e 78e0 0f3d e774 9d3e 2b7f 28be
00000300: f07e 043d a7f9 90be 5bea 003c 2728 41bc
00000310: 329d c1bc a4fe b23d ceb3 3cbd dc8e 633d
00000320: a51e d3bd 0ad5 fd3d 38ad fd3d 4940 073c
00000330: 6f97 cfbd a842 0c3d 0c48 143e 5018 1d3e
00000340: 1b54 2bbe dab2 7abd dea1 983e 0696 913e
00000350: c305 dfbc 0898 a03e 77d0 163d ccb1 aa3e
00000360: b0fc f6bc a08c 92bd 733c a1bd afc7 2e3e
00000370: d640 99be 9c4f 803e 7de7 983e 7814 3a3e
00000380: 1879 f2bd c656 c23e cc61 323d 842a 203e
00000390: 85d8 543e 8ba5 023e 73ae 58bd d2b9 82be
000003a0: c36d b33e 660f 943d 1c10 e1bb f14d abbe
000003b0: 7925 14be af19 24be c8de a5bd 5811 8dbd
000003c0: 12c3 253b ad73 02be 1212 dfbd 9d68 993e
000003d0: a9c6 c93e d6c3 15bb 1d38 c1bd e9f2 0ebe
000003e0: d53d 27be 05c6 b23e e7cc db3d 42e5 dabd
000003f0: b212 44bd 02e6 0cbe a02d d93c 084a 52bd
-0.24747334 -0.1761331 0.12974817 -0.26687515 -0.11665466 -0.35576376 0.19874114 -0.040519226
0.20467111 -0.10554366 -0.2649761 0.10297947 -0.028819455 -0.04210099 0.04228929 0.14575955
-0.34052816 0.23379831 -0.03696817 0.047278024 -0.10145882 -0.092127904 -0.017931977 0.30585295
0.024537804 -0.10031794 -0.13428508 0.13284348 0.20690857 0.12896422 -0.12092861 -0.10453747
-0.09459082 0.05825465 0.33660874 -0.025913749 0.09718332 -0.16777958 -0.06331042 0.15379816
-0.12124715 0.15628478 -0.043267243 -0.13378544 -0.09623815 0.1349224 -0.013898431 0.2509937
-0.10325864 0.10764057 0.26140594 0.13113663 0.22055356 0.05214002 -0.039506305 -0.04468253
0.20584019 0.18802784 -0.07701225 -0.11843025 -0.011633788 0.025284251 -0.023324085 -0.12250257
-0.29906523 0.16001892 -0.11706419 -0.16495797 -0.08188211 0.06180928 -0.030588415 0.110289924
-0.38025662 -0.21221624 -0.22109105 -0.20475307 -0.16359156 -0.19505268 -0.06153796 0.16661648
-0.13307002 -0.059037853 0.21031217 -0.07751053 -0.016437367 0.020661384 0.18227692 -0.042476404
0.17281504 0.20459504 -0.064973466 0.00085584976 0.1448463 0.2541334 0.032528553 -0.120016605
-0.023777574 0.4294324 0.20197903 -0.08584466 -0.21821609 0.36575398 0.31442887 0.2604825
0.058013864 -0.36799046 0.072002664 -0.090855524 -0.06624501 -0.21724576 -0.17542668 0.124512516
-0.029123018 -0.11188665 -0.08884095 -0.09944561 0.21695444 0.054412782 -0.21819636 0.094918124
0.029230915 0.13502687 0.028076734 -0.21090677 0.10894261 -0.11175889 0.06483434 -0.22269021
0.364812 0.09530768 0.073711045 0.13753806 -0.115025245 0.17746332 0.25915092 0.24306376
-0.4318797 0.09468697 0.25507596 0.21446459 0.034413297 -0.10855026 0.2475319 -0.10237791
-0.023785014 -0.23430449 -0.11588171 -0.1678372 0.0566503 0.17934391 0.00016297089 -0.06144897
0.11687601 -0.0906752 0.2163768 -0.06316461 -0.51485705 -0.19544184 -0.19744243 -0.057917602
0.14140002 0.0023953721 0.0003872977 0.32207063 -0.32782772 -0.013057834 -0.14756835 -0.04766863
-0.24551722 -0.134811 -0.13164029 -0.1835515 -0.29185936 0.08020186 -0.18417867 -0.1562914
-0.04128116 -0.05566948 0.09647474 0.22072311 0.023140067 -0.13273454 -0.0015224193 -0.15372992
-0.108765185 0.2002049 -0.074021585 -0.033573464 0.12862527 0.03512618 0.30753252 -0.1645476
0.03234762 -0.2831547 0.007868375 -0.011789358 -0.023634527 0.08739975 -0.046069913 0.055556163
-0.10308579 0.123941496 0.123865545 0.008255073 -0.101363055 0.034243256 0.14480609 0.15341306
-0.16731302 -0.061205722 0.29810995 0.2843477 -0.027224427 0.3136599 0.0368199 0.33338773
-0.030149788 -0.07155728 -0.07872858 0.17068361 -0.29932278 0.25060737 0.29864112 0.1817187
-0.11839503 0.37956828 0.043550298 0.15641218 0.2078572 0.12758462 -0.052900743 -0.25532395
0.3504468 0.072294995 -0.0068683755 -0.33457902 -0.1446742 -0.16025423 -0.08099133 -0.06888074
0.0025293273 -0.1273944 -0.108921185 0.29962626 0.39409378 -0.0022852323 -0.09434531 -0.1395985
-0.16332181 0.34916702 0.107324414 -0.10688259 -0.04786939 -0.13759616 0.026511014 -0.051340133

linears.1.bias f4 [40]
00000000: 875f 953d 4dde c33d ed53 313d 35a1 ff3d
00000010: eaeb 35bd 5327 833d 73ab be3d 6302 95bd
00000020: 356d ff3d 870e a33d 888b ba3d df6a 79bd
00000030: dbed 46bd 78fa 603d d5b6 a7bb 127e acbc
00000040: 3e82 9a3d 7ee2 a73c 57b7 b23d 02ed 30bd
00000050: 0726 c0bc 73bf 94bd 39d2 833d e2ad 11bd
00000060: c836 e63c dc63 3e3d 74b0 b5bd 9797 8c3d
00000070: 83d0 6d3d e734 cb3d bc97 433d bccf 5bbd
00000080: 6fb2 863d c0cd 96bd 883b ad3c 1caa d53b
00000090: 4214 743d e221 3cbd b215 40bd e7b9 31bd
0.07293611 0.09563885 0.04329293 0.1248192 -0.04441444 0.06403985 0.09310045 -0.07275846
0.124720015 0.07961755 0.09108645 -0.060892936 -0.04856668 0.054926366 -0.005118231 -0.021056209
0.07544373 0.020493742 0.087263756 -0.04319478 -0.023455633 -0.072630785 0.06436581 -0.03556622
0.028102294 0.046481952 -0.088715464 0.06864851 0.05806018 0.099222 0.047752127 -0.053664908
0.06577002 -0.073634624 0.02114655 0.0065205228 0.05958963 -0.04593075 -0.04689569 -0.04339018

linears.2.weight f4 [40, 40]
00000000: 7884 43be 93bb 06be d4ee 643c 0c41 153c
00000010: 12ca 0bbe 3108 2ebe f913 9c3d 2612 5e3e
00000020: e9b6 06bb 4c9f 083e b7f7 40be db8a 9f3e
00000030: b75e 563d 6e88 90bd 71e5 ebbd 44ab ffbd
00000040: 8c47 96be 80d8 62be 4979 a1be 190a 9dbd
00000050: 3501 623e 5acc 0bbe a921 603d 1db5 f63d
00000060: 10f6 4fbe a48a a03c 0f51 643e 8917 4ebd
00000070: af07 76be d1bf 2c3d f68c b0bc fc70 053e
00000080: 808c 4ebd 1def ea3e bd63 843e 9cc4 083d
00000090: af56 e4bd 6752 e13c 6f67 cbbd 4ac9 8e3e
000000a0: af13 083e 4d95 0fbc 3266 6f3d 311f 4dbe
000000b0: ff9f 02be 16f5 a3be 8bc0 a23d 2253 713e
000000c0: 0b6b 153e 13fc c43d da37 23be 76f7 ffbc
000000d0: e6a7 cdbd e24b 0ebd b165 0a3c c77e 2abe
000000e0: 99b9 7cbd 6385 a1bd 46f7 cf3e f641 47be
000000f0: a312 cf3d ec0a 89bd 39f3 213e 2a66 fc3d
00000100: bfae eebd 38a3 0e3d 043b 773d 1a19 81bd
00000110: 0288 4abe ed7c 923e b8c1 003d 7f24 613d
00000120: bc99 8d3d 9497 e6bc 22d2 5b3d 797d d3be
00000130: 8585 34bd bc1c 29be aa15 4a3d 3e29 f23e
00000140: 26bd 8dbd cdab 53bd 94f5 85bc 5bd6 143e
00000150: 45e0 5a3d dc42 373e 9dbb 6b3e dba1 f9bd
00000160: 6808 603e bcd4 d9bc ebb2 e43d c881 cfbb
00000170: c299 ee3d 5362 2c3e c227 4bbe 100f 0c3b
00000180: a7c9 003d b215 b0bd 75ef 673e 31f0 2e3e
00000190: b1c6 2cbe 9e1a 013e a2d8 033e 867f 96bd
000001a0: df91 a5be 03a9 69bd 8657 4bbd 5f8a 20bd
000001b0: 87f2 ef3c de8b ef3c 0c13 c6bc cfb4 3e3d
000001c0: 9628 53be bb2f 41be d2b3 aa3e 27c4 e6bc
000001d0: a2f2 8c3e 292a 273e eede 1a3e 04d1 843e
000001e0: 85ca 823e fcf9 5b3e 4dce 193d eb7d 923e
000001f0: c9b1 bbbd 76db 08be 5a8e 29bd 993f 013e
00000200: da2c 8d3e 89a3 ef3d 80c8 7d3b b08b 4bbe
00000210: 741c 62be c9e6 5c3d 10d4 19be 391d 8cbd
00000220: 9320 91be e00e 823e 9b39 6e3e 9b06 12bd
00000230: f484 a6be 4f48 a1be bb2a d23d 7b6b 023c
00000240: ce98 a93d a1aa 0b3e e82f 3bbe 7db4 f7bd
00000250: 93b5 473d 64cd 093d dcac ed3d 1039 85bd
00000260: b723 223d 3d21 a0be ae6a 95bd 3f4e 8f3d
00000270: 68bd de3e 867d 033e a871 373e 7948 f5bc
00000280: 8f56 eebd 862f 56be 2c9d ae3d 4b1b 3bbd
00000290: 8952 e13d de9a 673e b909 8ebd cac8 ca3d
000002a0: 8de4 75be ef4a 9dbe b87f d03d f20a 193e
000002b0: 6595 a3bd 15c6 0f3c 78a4 003d 57e7 ba3e
000002c0: c72e 06be aad9 60bb 1a78 28be d0c8 8fbd
000002d0: 5446 173d 9633 6abe 669c dbbd 8402 a1be
000002e0: 1ce5 ac3c 5690 ec3b 6853 a83e 2dbc 73be
000002f0: 2f1a a0be 91c7 9ebc b3aa 843d 795f eebd
00000300: bd62 dbbd 4011 c83e 6f63 8d3c 534c 663e
00000310: c8c7 233e dbee 843d eafc ce3c d277 7e3e
00000320: 7d87 38be a64f 983d bf68 19be 18e3 e33d
00000330: 5963 1fbe fb43 763c 7874 63be 3607 27be
00000340: 0303 613e 64a2 603e 257e 2e3b d958 6c3c
00000350: 667d 0a3d a679 13be 09cd e03c 85a0 f9bd
00000360: 039d 88bd 9784 413e b979 5dbd 1747 dfbd
00000370: 662e dfbd 4dbf 4e3e 2d41 543a 5e6c c7bd
00000380: 58de ffbd d17d 813d f623 a2be f687 353e
00000390: 4835 c9be b520 a93d 0f69 a9bc 8a9f c33c
000003a0: 26e6 55be 8533 2dbe 3fb5 32be 3480 a23e
000003b0: 4b7a 723e dd95 193e d009 713e 1001 a13d
000003c0: b5fb 253e e792 343e 4a8f fc3c 8372 673e
000003d0: e10b 9abd 0fd2 4f3d 0f98 e8bd f951 2d3b
000003e0: cb3b 04be 15fc 22be 34e8 633e 51cc 763d
000003f0: a9fe 60bd 5f6d 37be 7c85 503e 451d e13d
-0.19093502 -0.13157491 0.013972957 0.009109747 -0.13651302 -0.16995312 0.07620997 0.2168661
-0.00205558 0.13342017 -0.18844496 0.31160626 0.05233642 -0.07057272 -0.11518372 -0.12483838
-0.2935146 -0.221529 -0.31537846 -0.076679416 0.22070773 -0.13652173 0.0547196 0.12046263
-0.20308709 0.019597359 0.22296546 -0.050315414 -0.24026369 0.042175118 -0.02155159 0.13031381
-0.05042696 0.45885554 0.25857344 0.033390626 -0.11149346 0.027505113 -0.09931838 0.27887946
0.13288759 -0.008763623 0.05844707 -0.2003143 -0.12756346 -0.32022923 0.07946881 0.23566869
0.14591615 0.09618392 -0.15939274 -0.031245928 -0.1004179 -0.034740336 0.008447097 -0.16649924
-0.061700437 -0.078867696 0.40618342 -0.19458756 0.101109765 -0.06691536 0.15815438 0.12324174
-0.11654424 0.034823626 0.060359016 -0.06303616 -0.19778445 0.28610936 0.031434745 0.054966446
0.06914088 -0.02814845 0.053667195 -0.41306666 -0.044072647 -0.16514868 0.049337067 0.4729709
-0.06920843 -0.051677514 -0.016352452 0.14534895 0.053436536 0.17896599 0.23020788 -0.121890746
0.21878207 -0.026590697 0.111669384 -0.00633261 0.11650421 0.16834383 -0.19839385 0.0021371283
0.03144231 -0.08597888 0.2264994 0.17083813 -0.1687267 0.1260781 0.12875608 -0.07348542
-0.32337853 -0.057045948 -0.049644016 -0.03919446 0.02929045 0.029241499 -0.024179004 0.04655915
-0.20620951 -0.18865864 0.33340317 -0.028169705 0.27528864 0.16324677 0.15124103 0.25940716
0.25545135 0.2148208 0.03755026 0.28611693 -0.09164769 -0.13364968 -0.041395523 0.12621917
0.27573282 0.11701114 0.0038724244 -0.19877505 -0.22081167 0.05393103 -0.15022302 -0.06841511
-0.28345165 0.25401974 0.23264162 -0.03565083 -0.3252331 -0.3150048 0.102620564 0.007960196
0.08281098 0.13639309 -0.18279994 -0.12094972 0.048757147 0.03364314 0.11605236 -0.065050244
0.03958484 -0.3127536 -0.07295738 0.06997346 0.4350388 0.12840852 0.1791445 -0.029941784
-0.116376035 -0.20916566 0.08526072 -0.045680325 0.110020705 0.22617671 -0.06935448 0.09901579
-0.24012966 -0.30721232 0.101806104 0.14945582 -0.07987479 0.008775254 0.03140685 0.36504623
-0.13103782 -0.0034309425 -0.16452065 -0.07020724 0.036932305 -0.22871241 -0.1072319 -0.31447232
0.021105342 0.0072193546 0.32876134 -0.23802252 -0.31269976 -0.01938227 0.06477871 -0.11639304
-0.10712192 0.3907566 0.017259328 0.22490053 0.15994179 0.064908706 0.025267083 0.24850395
-0.18020435 0.07437067 -0.14981364 0.11127299 -0.15565242 0.015030856 -0.22212398 -0.16311345
0.21973805 0.21936947 0.002662548 0.01442548 0.033810996 -0.14401874 0.027441518 -0.1218882
-0.066705726 0.18898235 -0.054071162 -0.10902231 -0.10897522 0.20190163 0.000809687 -0.09737466
-0.124935806 0.06322826 -0.3166806 0.17727646 -0.39298463 0.082581915 -0.020679979 0.023879785
-0.20888576 -0.16914184 -0.17451952 0.31738436 0.23679464 0.14998575 0.235389 0.07861531
0.162093 0.17634164 0.030830044 0.22602277 -0.07521797 0.050737437 -0.11357128 0.0026446565
-0.12913434 -0.15916474 0.22256547 0.060253445 -0.054930363 -0.17912816 0.2036342 0.10991911

linears.2.bias f4 [40]
00000000: 0617 36bd 851b e9bc 7e20 b038 3712 2a3d
00000010: 6d12 423c 5429 05bb 7ecb 3ebc 2fae 68bc
00000020: 6f0c 5abd 57c2 abbd 818d 8c3d bb72 b63d
00000030: 9217 e8bd 5e92 edbb 5fd5 4cbd 3ff2 793d
00000040: 928d e13c bab9 f33a 687d 463d 6d55 8e3d
00000050: 6cb7 42bd bdbc 29bd fac4 33bd 078d 64bd
00000060: 6b29 90bc abf8 24bd a37d 28bd e3d9 f83c
00000070: 70de d0bc 9f87 863c 8dfe 0ebd 3594 89bd
00000080: b118 283d 87b4 1a3d 71d1 923d a6f0 89bd
00000090: 3c3f 823d a9f7 41bd 1ae1 8d3c 97da 5abd
-0.04445555 -0.028455505 8.398386e-05 0.041521277 0.011845213 -0.0020318823 -0.011645196 -0.014201685
-0.053234514 -0.08386677 0.06862927 0.08908602 -0.11332621 -0.0072501143 -0.050008174 0.06102204
0.027533326 0.001859478 0.04845944 0.069498874 -0.047538206 -0.04143976 -0.043889023 -0.055798557
-0.017597875 -0.04027621 -0.04113544 0.030377334 -0.025496691 0.016422091 -0.034910727 -0.067177214
0.041039173 0.03776982 0.07168854 -0.06735353 0.06359717 -0.047355328 0.01731925 -0.05343112

linears.3.weight f4 [40, 40]
00000000: 56c0 03be ec45 5c3d 6d47 13be 53f8 1b3c
00000010: 91c3 6f3e e0aa 4cbe 1b99 a3bc e762 49ba
00000020: f2e6 753e 959a a93d 0afa 323e a7c9 16be
00000030: 808c 113e c573 aebe e337 053e 7506 2bbb
00000040: 6c04 713d 32eb 23be a2ef 0cbe 6d4c 0ebe
00000050: c368 c9bd 4d71 fa3e 164b a53e 66f5 ed3d
00000060: 5f1e a4bc cc46 e3bd 0554 49be f080 b0be
00000070: 3936 6c3d 6492 b23e eaff 5dbe a1b0 ab3d
00000080: 5bd6 38bd 4115 32be 556f 30bc 8ca2 1dbe
00000090: 9e96 2b3e cce4 5e3d 68cf 5cbd 1721 523e
000000a0: e496 9f3e ba7a 3ebe 0ee1 363e 36e5 02bd
000000b0: 3020 b0bc 0ef0 393e e91b 793e e0fc 2c3e
000000c0: a399 5a3d 69d9 083e 226e a2be da79 8c3d
000000d0: 0daa 0f3e bd9b c4bd ca8c 5ebe 7745 cdbe
000000e0: 1a31 debd c254 573e e789 413e b671 80be
000000f0: 77fa 98bc ea50 4a3c 1993 04be 9a26 c0bc
00000100: ae1b 89be 45a8 873d 440a ef3d 5e5b e4bd
00000110: 4065 6e3d 9f87 cdbd 7a43 1d3e a46b b23d
00000120: 3aab cabc 1b60 0bbe 55e1 203e 08e9 c53e
00000130: a404 1f3c 630f b0bd 7f42 55bb 09fc 18be
00000140: df0b b7bc 8cf1 c9bd 365c b8be ee64 b3be
00000150: f960 1d3e 2e5f 06be 3a34 293b 3d40 143d
00000160: c719 cfbc 4df1 113e 77a7 ebbd f641 c3bd
00000170: 426e 963e 28d9 4dbe ebca b93e ae76 17bd
00000180: a645 0b3c 64d7 a1be 65c5 f3bc 6aac 6cbc
00000190: 683c 4d3e b1cd cf3e b5f8 113e f8bb 063e
000001a0: 674f 36be 5927 243e 3cb2 de3d fd33 01bf
000001b0: 742d dfbd 4b24 80bd e1b6 57bd 1cd7 b83c
000001c0: 3727 98bd b84f 64be 7d69 d13d 50e8 263e
000001d0: 5704 173d bc5d b43b d26c 89bc f13b 7dba
000001e0: b1f0 c9bb eccd 573d 3f07 cf3c 6776 123c
000001f0: 6df0 643e 03aa 373d f3c9 9fbe df9d 5fbc
00000200: 27cf 18be cf41 723d 0b45 033e e909 f9bc
00000210: 5975 2abd ecb7 e5be 4886 193d f59c 383e
00000220: edb3 b93c 7f2b 9e3d 8649 b4bd 833d 8fbd
00000230: 78f0 9c3d 95f1 57be 1956 85be 3ce2 ca3e
00000240: 8943 09bd e748 8dbc b65b c1bd 1cda e83d
00000250: aa66 1d3d 608a a23b 18a1 993d 6398 52be
00000260: b038 703e 6d6e 893d 1b45 3c3d 314b 56be
00000270: f2a9 59bc 5b89 f0bd 25c1 6a3e fce3 57be
00000280: fff0 1f3e d832 703d 3ae8 ad3e 314f 9bbe
00000290: 73ac 843e 4398 a73c 2a6d 883e ebdc 403c
000002a0: 0b9d 363e d2db d23c c5c0 8dbe 6aa0 1fbd
000002b0: 2e3a 7cbc b3b6 d7bd 08d0 f53d 43f8 05bf
000002c0: bc4d 41be 7c07 df3c 08aa f0bd b5ad a6be
000002d0: a0fc b6bd 649c 55bd 9fba 053e 0d55 923e
000002e0: 4db3 483e a268 a33e 6997 923e 880e 023e
000002f0: 7b9b a7bc 03f6 3239 2cbf 67be ffb1 5c3d
00000300: 2744 e53d 43c5 9fbe bd93 62be bd81 833e
00000310: a677 4d3d 7e75 0ebe ffdf cabc 5ed2 69be
00000320: 8459 f73d 0ee7 2e3e e46a 773e 5d96 233c
00000330: 7b1b 763c 4b12 89be 66e2 3f3e e2a7 8abe
00000340: 00a5 eb3d ce83 dd3d 52fb e43d 589c b7bd
00000350: e574 56be c998 a0be 2c8c 7dbd b955 8d3e
00000360: 8b6b 2dbe 5e75 6d3d 478d f9bd 4334 85bd
00000370: b457 c73d 279b cd3d 28b2 bb3c 1c2b 6a3c
00000380: fc2b 023e 7c4b ed3d b2fe f1bd 12d2 1dbb
00000390: 2eb6 c83e de9b 543d a56c a63d 9f7d b2bd
000003a0: c7d4 24be a087 7cbe 2345 ffbc 8eac 6dbe
000003b0: 2418 bcbd cc88 b03e 3cbd 7c3e 896f 09bd
000003c0: 222f 05be 1e34 973e aea5 7fbd 29d8 9dbc
000003d0: 859f 85bc 7e7c bb3d bd96 3c3d fdfa 12be
000003e0: fe6d 903e 5e4b a73e 195d 203e 88e8 60bb
000003f0: a844 06be 9d30 4e3d f2a4 d43d cda4 08be
-0.12866339 0.05377762 -0.14382716 0.009519654 0.23414446 -0.19987059 -0.019970467 -0.0007682279
0.2401388 0.08281437 0.17478195 -0.14725362 0.14213753 -0.340727 0.130096 -0.0026096378
0.058842108 -0.16007689 -0.13763288 -0.13896342 -0.09834435 0.48914567 0.3228385 0.11619072
-0.020034013 -0.11097488 -0.19660957 -0.34473372 0.0576689 0.34877312 -0.21679655 0.08383299
-0.0451263 -0.1739092 -0.010768731 -0.15394038 0.16756675 0.054417416 -0.053908736 0.20520435
0.31169808 -0.18601504 0.17859289 -0.031956874 -0.021499723 0.1815798 0.24327053 0.16893339
0.053369176 0.13364185 -0.3172465 0.06859179 0.14029713 -0.09600017 -0.21733394 -0.4009206
-0.10849209 0.21028426 0.18900262 -0.25086755 -0.018674118 0.012348393 -0.12946738 -0.023455907
-0.2677893 0.06623892 0.1167188 -0.111502394 0.05820203 -0.10035633 0.15357772 0.08711937
-0.02473985 -0.1361088 0.15710957 0.3865435 0.009705696 -0.08596685 -0.0032540855 -0.14939894
-0.022344528 -0.098605245 -0.3600785 -0.3503794 0.15369023 -0.13122246 0.0025818483 0.036194075
-0.025280846 0.14252205 -0.11506551 -0.095340654 0.29380995 -0.2010237 0.36287627 -0.036978416
0.008500492 -0.31609643 -0.029757211 -0.014445404 0.20042574 0.40586618 0.1425503 0.13157642
-0.17803727 0.16030635 0.10873839 -0.5046995 -0.10897341 -0.06256922 -0.05266464 0.02256351
-0.07429355 -0.22296035 0.102251984 0.16299558 0.036869373 0.005504338 -0.016775522 -0.0009660116
-0.006162726 0.052686617 0.02527201 0.008939362 0.2235734 0.04483987 -0.31208763 -0.013648479
-0.14922772 0.05914479 0.12819307 -0.030400233 -0.041615818 -0.44866884 0.037481576 0.18028624
0.022668803 0.0772314 -0.08803086 -0.06994154 0.07663053 -0.2108825 -0.2604225 0.39625728
-0.033511672 -0.017246677 -0.094413206 0.11369726 0.038427986 0.0049603432 0.07501429 -0.20565943
0.23459125 0.06710515 0.04596434 -0.20927121 -0.013285147 -0.117449485 0.22925241 -0.21083063
0.15619276 0.05864224 0.33966237 -0.30333856 0.25912818 0.020458346 0.26645786 0.011771421
0.17833345 0.025739584 -0.27686134 -0.038971342 -0.0153947305 -0.10532894 0.120025694 -0.5233194
-0.1887731 0.027225249 -0.11751181 -0.32554403 -0.08934903 -0.0521511 0.13059472 0.28580514
0.19599648 0.31915766 0.28631142 0.12700856 -0.020459881 0.0001706705 -0.2263152 0.053880688
0.1119464 -0.31205186 -0.2212667 0.2568492 0.050162934 -0.13912007 -0.024765013 -0.22834155
0.120776206 0.17080328 0.2416187 0.00998458 0.0150212 -0.2677177 0.18738708 -0.2708121
0.115060806 0.108161554 0.11180748 -0.08965367 -0.20943029 -0.31366566 -0.061901256 0.27604464
-0.16935556 0.05797326 -0.1218515 -0.06504109 0.09733525 0.100393586 0.0229121 0.014292505
0.12712091 0.11586663 -0.118161574 -0.002408151 0.39201492 0.05190646 0.08126191 -0.087153666
-0.16096793 -0.24661112 -0.031160897 -0.23210356 -0.09184292 0.34479368 0.24681562 -0.033553634
-0.13006261 0.2953195 -0.062413864 -0.019268112 -0.016311416 0.091546044 0.046042193 -0.14353557
0.28208917 0.32674688 0.15660514 -0.0034318287 -0.13112128 0.05033933 0.10383023 -0.13344117

linears.3.bias f4 [40]
00000000: 517d 9ebc a535 3bbd 687b 92bd 3576 f43c
00000010: aa63 42bd 1f98 e5bb fadd edbb 3fba aabc
00000020: 7e1a 153d 06dd 003c ecf4 993c 230f 03bd
00000030: 551c 633d 57eb 08bd bebe fbbb c6f8 92bd
00000040: fa14 9f3a 1dbd bbbd c2d5 0e3c f0cc 2cbd
00000050: 9865 aabd 8997 17bc 5e87 133c 37ff 673b
00000060: 4fab a23d 467a fabc 82de 90bd f7d8 ed3c
00000070: 0932 733d ac82 2dbc 3720 283b 323f 09bd
00000080: 64dd 0d3d 3d6f d5bd bdd2 1e3d 489b 04bd
00000090: 57ee 2d3d ab1c 9ebb 0e9a e53c a388 adbc
-0.019346865 -0.045705456 -0.07152444 0.029841522 -0.04745833 -0.0070066596 -0.0072591277 -0.020840762
0.036402218 0.007865196 0.018793546 -0.031996857 0.05544694 -0.033427563 -0.0076826504 -0.07176356
0.0012136989 -0.0916693 0.008717956 -0.04218763 -0.08320159 -0.009252437 0.009004442 0.0035399923
0.07942831 -0.030575883 -0.0707369 0.029034121 0.05937389 -0.010590237 0.0025653967 -0.033507533
0.034634963 -0.10421608 0.038775194 -0.03237465 0.042463627 -0.004825195 0.02802756 -0.021183318

linears.4.weight f4 [40, 40]
00000000: dcd5 d9bd 1264 98bd 40bb 623e 2ec9 773e
00000010: c27a 573e 57c6 773d 42e6 b43d 465f 483e
00000020: 4592 5a3e c055 aabc 0da6 d9bd 59af 4c3e
00000030: 0c80 333e 896c 233e f6d2 7d3d a234 cc3c
00000040: 29d4 edbc 8d8a cab9 dc82 093d 9699 a33d
00000050: a404 0cbe 14fa 553d a194 0c3e 929e 963e
00000060: 63cd 7dbe df95 9bbd 183d 23be e3ea 803d
00000070: cf40 183d 7f1e ecbd dcb2 07be 472a 0f3e
00000080: 58ec 863e 8d53 92bc 54a8 39bd 5f78 f1bd
00000090: 87df 4ebe 123f 71be 89bc 8a3e d888 fb3d
000000a0: 974d ad3d bb2e be3d 29d7 80bd ed27 27be
000000b0: 2d2b 35be 0da3 113d 477c 7dbe ae6b 8a3e
000000c0: 7ab6 953d 487b 0cbe 4431 373e 0792 e4bd
000000d0: c243 213e 295b 073e fbd6 15bd 8e99 2abd
000000e0: 0d1b ab3d a90a 803d 76d9 8e3d d103 debd
000000f0: a356 c03c c163 dcbd 5032 cc3d 1a6b 2b3e
00000100: 1600 85be 669c f13c 9d6c 93be 2765 cd3e
00000110: f922 a83e 0525 e0bd 51a1 683d f473 353c
00000120: 8644 793d f26d 99be 71a4 283e 0c2f 5cbe
00000130: bfb4 9b3c 0ff8 f93d ea02 29be 64d6 a43d
00000140: b8fa 7abe b3fa 9d3e a255 15be 5f68 853d
00000150: 1e72 0e3d 6487 6b3e 7e20 033c 4d2d ff3d
00000160: c898 a73b 4c20 763d da4d 7f3d de58 8d3e
00000170: 217c 79be 2d0a f3bd b44c f43d 0756 58be
00000180: 3c24 9d3d bcca d2bd a72d 963c 6c8f b73d
00000190: 1616 1f3d f209 163d e77e 15bd 3d4e bdbd
000001a0: d638 2abd ac33 7ebd 4397 2f3e 5400 f83d
000001b0: 3dec 773d a1aa 23be 5551 953d c389 403c
000001c0: 9a48 843e bbc2 22be 44ed fcbc ed2e 58bd
000001d0: 7a82 99bd 66b0 f43d 7257 fa3c 0d5b 013e
000001e0: d58f cd3c 0844 55be 5da7 7dbe 682f 853e
000001f0: d2a8 833e b3c6 59be 3a7f 863e 58bb af3e
00000200: 9fa7 f8ba d7a6 c03d 381c 91be 32af eb3d
00000210: 926b 173e 0aed 44be 41e9 083f c590 6ebe
00000220: 5971 873e c226 a4bc aa24 96be 71ba b83d
00000230: 464f dbbe a60e b5bd 490d 6fbd 430c 7abe
00000240: c836 a53d 6552 dcbd e96c c53d 8076 193e
00000250: 2c0d 7dbe 8f80 983e 63cf 99bb 3c5d 273e
00000260: 5036 47bd dae0 8f3d 47f6 00bf 9b8f cd3d
00000270: aabf c13d 22aa 69bd c87d 0fbe 99e1 623e
00000280: 7ef7 2b3e 373a 48bd 456c 2a3d 53a0 abbd
00000290: 8d15 e1bd 208d 6b3e 7f91 4dbe 400a 5cbe
000002a0: 99d3 b23d 08cc 9fbe b0ab c63e 69c4 033e
000002b0: ce5f a4bd 70e2 773d 9ffc 8c3e 4536 25bb
000002c0: a128 09be ca9f 32be 23d8 99bd dd52 213d
000002d0: 3302 52be abf1 dfbc a800 51be 8719 883c
000002e0: 4a18 a53e d3f8 13be f9b8 0fbe 4b42 9ebe
000002f0: 4542 e43c e592 8b3d 1255 683d f2fc 593d
00000300: 5043 b83d 3063 72be cbe2 7dbe d1f4 bb3b
00000310: cf22 923e 1dc6 103e b1f7 28be 8fd6 8f3d
00000320: c898 583e 7176 133e 6f49 7a3c 3683 acbd
00000330: 1afd f9bd db98 adbe 06e4 85bd 51bf 7f3d
00000340: 411c 62be 2559 503e 653e 823e 118b 04be
00000350: 8c5e 5c3e 2ce5 a6bd 4d41 50be c6d8 b7bd
00000360: 01d8 303e e289 4abe 701c 83be bbcb c5be
00000370: 525a 8fbd 9010 60be ac7c 74be bdfa f03d
00000380: ce23 8c3e a9c3 5ebd 9478 e63c 18cf 8b3d
00000390: 3dd2 ae3c 62cd 6b3e 6599 043d f2b8 eb3a
000003a0: 5150 56be 4ffb 0fbe f081 223d 2558 6fbe
000003b0: f5d2 2dbe 6361 26bd e21e 4f3c c9f0 5e3c
000003c0: b0ad 8fbb 5eec b9be 53ba 33be 1db5 41bd
000003d0: 7eba d0be d009 343e f605 ca3d 9c69 6a3e
000003e0: dd6a 8b3d d23d efbd 19ec 49bd 0ead 383e
000003f0: 059a 6f3e ab0a 7a3e 5262 2f3e c798 2fbe
-0.106364936 -0.07440962 0.22141743 0.24197838 0.21042922 0.060491886 0.08832981 0.19567594
0.2134486 -0.020792842 -0.10627375 0.19988765 0.17529315 0.15959372 0.061968766 0.024927441
-0.02903183 -0.0003863167 0.033572063 0.079882786 -0.13673645 0.052240446 0.13728572 0.29417855
-0.2478538 -0.07596945 -0.15941274 0.06294801 0.03717118 -0.11529254 -0.13251823 0.13980971
0.2635219 -0.017862106 -0.045326546 -0.11790537 -0.20202456 -0.23559216 0.27096966 0.1228196
0.08462065 0.09286257 -0.062910385 -0.16323824 -0.17692252 0.035555888 -0.2475444 0.27035278
0.07310195 -0.13718903 0.17889887 -0.11160665 0.15748504 0.13218369 -0.036581974 -0.041650347
0.08354769 0.06252033 0.06975071 -0.10840572 0.023478812 -0.10761214 0.09970534 0.16740075
-0.25976628 0.029493522 -0.28793803 0.40116236 0.32839182 -0.10944561 0.05679447 0.011075009
0.060856365 -0.29966694 0.1646898 -0.21502322 0.019007085 0.122055165 -0.16505018 0.08048704
-0.24509704 0.3085533 -0.14583448 0.06514048 0.0347768 0.23000866 0.008003352 0.12459812
0.0051146485 0.060089394 0.062330104 0.27606863 -0.24363758 -0.11867175 0.119286925 -0.21126567
0.07672927 -0.10292575 0.018332316 0.089629024 0.038839422 0.03663058 -0.036497977 -0.092434384
-0.04155811 -0.062060997 0.17147546 0.121094376 0.06052803 -0.15983059 0.072909035 0.011751595
0.2583664 -0.15894596 -0.030874856 -0.052779127 -0.074955896 0.11947708 0.030559275 0.1263239
0.025092999 -0.20826733 -0.24770875 0.2601273 0.25714737 -0.21267204 0.2626894 0.3432262
-0.0018970853 0.09406822 -0.28341842 0.11508025 0.14787129 -0.19231048 0.5348092 -0.23297413
0.26453665 -0.020038012 -0.29324847 0.09019936 -0.42833918 -0.088406846 -0.05836228 -0.2441874
0.08067089 -0.10757903 0.096399136 0.1498661 -0.24712056 0.29785582 -0.004693912 0.1634416
-0.04863578 0.07025309 -0.5037579 0.10037156 0.09460385 -0.057047017 -0.14012825 0.22156371
0.1679363 -0.048883643 0.04160716 -0.08380189 -0.109904386 0.23003054 -0.20075034 -0.21488285
0.08731765 -0.3121035 0.38802862 0.12867893 -0.08026086 0.060518682 0.27536485 -0.002520935
-0.13394405 -0.17443767 -0.07511928 0.039385665 -0.20508651 -0.027336916 -0.20410407 0.016613735
0.32245094 -0.14450388 -0.14035405 -0.30909953 0.027863631 0.06815127 0.056721754 0.053219743
0.08997214 -0.2367065 -0.24793546 0.0057359715 0.28542182 0.14138074 -0.16500737 0.07023346
0.21152031 0.1440065 0.015276297 -0.08423464 -0.122064784 -0.33905682 -0.06537633 0.062438313
-0.2208109 0.20346506 0.25438228 -0.12943675 0.21520442 -0.0814918 -0.2033741 -0.08976893
0.17269899 -0.1977916 -0.25607634 -0.38631997 -0.06999649 -0.21881318 -0.23875684 0.117665745
0.27371067 -0.054385815 0.028133668 0.068266094 0.021340484 0.23027566 0.03237285 0.0017984195
-0.20929076 -0.1406071 0.0396747 -0.23373468 -0.16975005 -0.04062022 0.01264164 0.013607212
-0.004384719 -0.36313146 -0.17551546 -0.047291864 -0.40767282 0.17581868 0.09864418 0.2289185
0.06807492 -0.11681713 -0.049297426 0.18034765 0.23398598 0.24418132 0.1712735 -0.17148124

linears.4.bias f4 [40]
00000000: 35e6 fdbc 2737 9c3d 4cb2 213d 2814 89bc
00000010: e4d0 e4ba ac94 fc3c 46a6 503d b0b4 b13d
00000020: b909 e23c 3b08 a93c e581 bcbc 2c7b 8f3c
00000030: 7c35 e9bd 9e31 2dbd ce2c 8c3d ff39 f0bc
00000040: 8b16 1dbd 4b9a 30bc b508 38bd f343 d3bc
00000050: 9dfe e53c 8c73 e8bc ef85 f03d ae64 2e3d
00000060: c97a 643c 69a7 2a3d 66d8 23bc 8303 ef3c
00000070: fa7e 843d d80d c4bb cb84 5c3d 048d 0a3d
00000080: cdf8 c6bb 5168 db3c 15c0 d73c edc2 07bc
00000090: fcfa 12bd 395d 85bc 9a57 33bc 55b9 15bb
-0.03099356 0.07627707 0.039476678 -0.016733244 -0.0017457274 0.030832611 0.05093982 0.086770415
0.027592527 0.020633807 -0.023011157 0.017514788 -0.113871545 -0.042283647 0.06844483 -0.02932453
-0.038351577 -0.010778974 -0.04493018 -0.025789237 0.02807551 -0.02837541 0.11744296 0.042576484
0.01394529 0.04166356 -0.010000324 0.02917648 0.06469531 -0.0059830956 0.05383758 0.03382589
-0.00607214 0.02678314 0.026336709 -0.00828622 -0.03588389 -0.016279804 -0.010946179 -0.0022846062

linears.5.weight f4 [40, 40]
00000000: b1b4 033e 4c7c c73b 5b39 a5bd 797d a9bd
00000010: 45ae 7d3e 3565 6b3e 9afa 453e 2534 1a3e
00000020: f4d8 be3d 76d8 e23e d562 8c3e fddd 6bbd
00000030: 9d4f cc3e a3fa 423d 0964 3cbe 8686 12bd
00000040: 5b0e 86be 4453 00be 083c f1bd 5042 97bd
00000050: 4f62 2b3e 7026 e6bd 5111 883d 69a5 96bd
00000060: 48e9 41be e448 01be ff1b ff3c adab 663c
00000070: 469c 4fbd db68 27be 33e0 37be 33b9 a3bd
00000080: e594 04be 28c4 e23c ebd4 d7bd 8d18 cabb
00000090: 1f66 8a3d b52d 153e dcab 59be 0ac2 f6bd
000000a0: c87d a7bc b9a8 573e 8897 983d 13fa a63d
000000b0: 5d76 4bbe 3ab4 2ebd c3f5 e23d 6a4e 553d
000000c0: 054a b13c 56d8 34bb 8658 1a3d 138f 32bd
000000d0: 00bc 0ebe fdcc bbbc f18d cdbd 6067 61be
000000e0: 93bf 903d 60cf 2b3e 15ea c1bc d332 243e
000000f0: 7e18 65bc 3c53 1c3e 663e 6bbb df3b 54be
00000100: 15ae 8a3e e67a cabd 51ae 083e 6913 833d
00000110: 8bd2 40bd 06d8 103f ba22 6c3e c652 d23d
00000120: bab4 643e 546a 0abe f677 a83d 7c06 a03e
00000130: cd41 c5bd 589d d83e 7c54 50be 586e a53e
00000140: 8ec0 19be e7da 25bd 6614 2a3e a635 cbbe
00000150: 06b3 9bbd 9636 243d d168 d1bb f69d 883e
00000160: a074 9e3d c5a4 a9be 4873 c6bd bbcf c83e
00000170: cf7f a73d f4e6 99bd 9b87 69be 8641 acbd
00000180: d24a 083e 2a8e 79be 1ccb 8abd dcce 06be
00000190: 9606 efbc 9412 c5bd 0b10 123e cb39 46bd
000001a0: 94fa f4bd a192 383e 4e53 75be a705 e53d
000001b0: 8c41 ce3e c995 1f3d 0a8c d3bd 4998 ed3c
000001c0: c592 20bd 8e25 fabb 307a 8c3e f500 9abe
000001d0: 630b 2c3a f68d 293d 51b0 88be 1c76 abbe
000001e0: ed48 29be 1ac9 893e aeb0 053e a761 b23d
000001f0: e07a 74bd 81e5 d6bc 01aa d93e adb0 0d3d
00000200: 7572 f03d 3d75 49be 7076 81be 1364 5b3d
00000210: bfb2 a4be 957a 70bd a267 a8bc 9731 953d
00000220: f328 cdbb 8fa8 9d3e 78bb 8c3e ee79 273e
00000230: 8c34 07be 2417 26be 6766 203e 9fc4 973d
00000240: d149 b43c 7645 5a3e 2b6e 72bd c576 f23d
00000250: bb82 703e ed1e fa3d 9dce c03c d38c 0a3e
00000260: 9714 74bd fcde 77be 5905 02be a61f d43c
00000270: e272 b13d 445e 073e 90dc adbd 6f2d c63d
00000280: a235 e83c 0c2d 33be de85 bc3d 036c 9ebd
00000290: 8444 03bd 4001 a63d c3d0 35bc d681 ab3c
000002a0: 2d0d 2dbe ccd6 cbbd c14d d8bc 6f8d 57be
000002b0: 9ff0 57be c7ea eb3b e6ba ecbd 4ba4 013d
000002c0: ac2d ebbd 471a 15be 0c66 64be 4861 933d
000002d0: 33bd 4ebe 856c 5dbe 4219 8d3c 3795 51be
000002e0: 9542 eb3d 5c19 2bbe 9fc5 61bd fe37 a03e
000002f0: 3f52 9d3e 0dba 783d 1710 113e 9ab3 823d
00000300: 430e b3be f166 e43d 93b9 70be 092f 783e
00000310: 3b26 e8bd b7af cfbd 10cd f73d ea26 583e
00000320: ee1c bb3c a72f 5c3d 8cda 893d 8bd1 85bd
00000330: af98 52bd 050f 5abe 8fc4 003e 8edb d63d
00000340: e7fb 63bd c6d3 483c 6d81 5ebd 2c25 9bbe
00000350: d503 0bbd 1644 093d 9f26 023f f3eb 6bbe
00000360: 256b 053e 7f9e 72be f2fb f1bd 26b5 ae3e
00000370: 3b2c 1bbe db12 f4bc d158 abbc 698d 2d3d
00000380: 99fd d9bd 12f3 e53d 7eb2 ea3c 1e0a 2c3e
00000390: 2ecb 1ebd 8bbf 313c 4790 61be f7ea 833e
000003a0: ce89 973d c408 8ebd 8c18 b33d d8cf 81bd
000003b0: 000e e83d 5b10 b9be e7af cabc 8747 283e
000003c0: bf1d c53d 9486 d7bd bb94 1fbe 9bcc 183e
000003d0: 5705 953c 8527 433d ba72 d43d 205f 3cbd
000003e0: 2cbc c23d 2fc9 2a3d 3a09 ea3d 49c4 4b3e
000003f0: 1b7a 76be 7fd7 5bbc 4351 d83d 5d7e 2fbd
0.12861897 0.0060878154 -0.0806758 -0.08275885 0.2477351 0.22987826 0.19333878 0.15058954
0.09318724 0.44305772 0.27419153 -0.05758475 0.3990449 0.047602307 -0.18397535 -0.035772823
-0.26182827 -0.12531763 -0.11779028 -0.07385695 0.1673672 -0.112378 0.06643928 -0.07355768
-0.18936646 -0.12625462 0.03114128 0.014079017 -0.050686143 -0.16348593 -0.17956619 -0.07994308
-0.12947424 0.027681425 -0.10538658 -0.0061674775 0.06757759 0.14568217 -0.21256965 -0.12048729
-0.02044572 0.21060456 0.07450777 0.081531666 -0.19869371 -0.042652346 0.110820316 0.052076735
0.02164174 -0.0027594767 0.03768208 -0.043593477 -0.13938904 -0.022924894 -0.10036839 -0.2201209
0.0706779 0.16778326 -0.02367119 0.16035013 -0.01398289 0.15266126 -0.0035895347 -0.20725964
0.2708594 -0.09886722 0.13347746 0.064001866 -0.04707579 0.56579626 0.23060122 0.10269694
0.22334567 -0.13517123 0.08226006 0.31254947 -0.09631691 0.42307544 -0.20344728 0.32310748
-0.1501486 -0.040491965 0.16609344 -0.39689368 -0.076025054 0.04009112 -0.006390669 0.26683015
0.07737088 -0.33133522 -0.09689957 0.39220986 0.081786744 -0.07514754 -0.22805636 -0.08410935
0.13309792 -0.24370638 -0.06777021 -0.13164848 -0.029177945 -0.09622684 0.14263932 -0.04839496
-0.119618565 0.18024684 -0.2395756 0.11182719 0.40284383 0.038961206 -0.10329445 0.02900328
-0.03920247 -0.0076338714 0.27436972 -0.30078855 0.0006562976 0.04139515 -0.2669702 -0.33488548
-0.16531725 0.2691124 0.13055679 0.08710032 -0.059687495 -0.026232483 0.42512515 0.03459232
0.11740581 -0.19673629 -0.25285673 0.053562235 -0.32167622 -0.058710653 -0.020557228 0.07284849
-0.006260985 0.30792663 0.27486777 0.16355106 -0.13203639 -0.16219765 0.15664063 0.07410549
0.022007855 0.2131556 -0.059187096 0.1183906 0.2348737 0.1221293 0.02353602 0.13530283
-0.05958995 -0.24206156 -0.12697352 0.025893997 0.0866449 0.13219553 -0.084893346 0.096766345
0.028345887 -0.17497653 0.09205221 -0.07735445 -0.032047763 0.08105707 -0.011097136 0.020935934
-0.16899557 -0.09953079 -0.026404263 -0.21050046 -0.21087883 0.0071996185 -0.115590855 0.031650823
-0.114833206 -0.14560805 -0.22304553 0.07196289 -0.20189361 -0.21623428 0.017223958 -0.20467077
0.11487309 -0.16708893 -0.055120107 0.3129272 0.3072681 0.060724307 0.14166294 0.063819125
-0.34971818 0.11152447 -0.23508291 0.24236692 -0.11335417 -0.10140937 0.120996594 0.21108595
0.022840943 0.053756382 0.06731138 -0.06534108 -0.05141514 -0.21294792 0.12574981 0.104910955
-0.055660155 0.012257522 -0.05432265 -0.30301797 -0.0339392 0.033512197 0.5084018 -0.23039226
0.13029154 -0.23693274 -0.11815633 0.3412258 -0.15153591 -0.029794147 -0.020916374 0.042371187
-0.10644073 0.112280026 0.028649565 0.16800734 -0.038767986 0.01084889 -0.22027694 0.257652
0.07399331 -0.06935266 0.08744916 -0.06338471 0.11330795 -0.3614529 -0.02474208 0.16433536
0.09624814 -0.105237156 -0.1558408 0.14921801 0.018191023 0.04764511 0.10373445 -0.045989156
0.09508547 0.04169577 0.11427541 0.19899096 -0.24070017 -0.0134180775 0.105623744 -0.04284512

linears.5.bias f4 [40]
00000000: ab15 91bd 61df 0bbd 6008 82bd 215d 3abc
00000010: ffc7 0abd 6852 173e e107 a43d e156 fbbc
00000020: 2550 943c fcec cd3c 21ce d4bc d78f 71bd
00000030: dc60 e2bd 0377 353e 1809 a73c e5fa 27be
00000040: 568f 93bd eeb6 88bd 8a21 5fbd db2f bcbb
00000050: f922 133d 4d67 ca3c 4c29 75bc 9e9a 70bd
00000060: e5ba 03bd 7c9a 65bc 63f2 4b3d f690 75bc
00000070: 58b8 d23d bfa0 3d3d f561 82bd 56f0 cb3c
00000080: 38c8 c3bd 8f62 33bc 85d3 983d cf1e db3d
00000090: 2a85 93bd 2582 353d eec9 0d3c cc7c d7bd
-0.07084211 -0.034148578 -0.06349254 -0.011374743 -0.033882137 0.14777529 0.08009315 -0.030681076
0.018104622 0.025137417 -0.025977196 -0.058975067 -0.11053631 0.1772118 0.020390078 -0.16404302
-0.072050735 -0.06675516 -0.054475345 -0.0057430095 0.035922024 0.02470746 -0.014963459 -0.058741204
-0.03216066 -0.014013883 0.049791705 -0.014988175 0.10289067 0.046295878 -0.0636634 0.024894875
-0.09559673 -0.010948791 0.07462219 0.10699236 -0.072031334 0.04431357 0.008654101 -0.1052185

linears.6.weight f4 [1, 40]
00000000: bb19 1c3d a400 f43d 44c9 0c3f 6ad4 133e
00000010: 544c 173e b264 6fbd e905 22bd ced1 5a3c
00000020: f640 dbbd 14c6 8fbe 4e4e ca3d 7fff ba3d
00000030: b4f1 063e daa4 a2be a399 79be dd73 f13c
00000040: c325 973e 20ab 1b3e c0a9 9ab9 8508 743a
00000050: 37a6 71be bca0 06bf c9e8 433f 62e0 993d
00000060: 6a62 af3e c14b 563e 0dab 4fbd 9cf2 d03e
00000070: ace0 013a 0cb4 6bbe 30db 343d ef76 b0be
00000080: d73d 8b39 2660 c13d aeae 09be 1654 e7bc
00000090: 66a4 d33d 787a 8639 fff6 4bbf 186d b03e
0.038110476 0.11914185 0.54994607 0.14436498 0.1477521 -0.05844564 -0.039556418 0.013355685
-0.1070575 -0.2808081 0.09878217 0.09130763 0.1317814 -0.31766397 -0.24375014 0.029474193
0.29520997 0.15201998 -0.00029499643 0.0009309131 -0.23598562 -0.5258901 0.76527077 0.07513501
0.3425477 0.20927335 -0.050700236 0.40810096 0.0004954438 -0.23017901 0.044154346 -0.3446574
0.0002655822 0.09442167 -0.13445541 -0.028238337 0.10334091 0.00025649718 -0.7967376 0.34458232

exp_avg f4 [40, 2]
00000000: 944c ffb7 0f8b 1cb6 9a8c 9f38 aa04 1538
00000010: 4e14 4fb7 a8ed 1c38 bc56 5bb7 9db8 08b6
00000020: 64b9 19b7 11ba 11b8 2717 b136 edca 10b8
00000030: 0e73 9137 d1c9 c337 be89 b037 e8c8 86b7
00000040: 7e74 6137 3395 0338 5d6e 3537 682f 03b8
00000050: 01a8 4638 d035 7937 6964 4d38 d58e 0b38
00000060: b01c b535 400a 06b8 8ea8 96b6 af07 84b7
00000070: d1d8 7938 026a 8e38 6356 8437 64cf 0b38
00000080: 0704 b2b7 69ce 9db7 0c1d 9c38 de14 3538
00000090: 1f97 0938 e419 7738 1183 3d37 627a 4037
000000a0: 0efc 6c37 b6c4 8837 66bf c336 552b 2fb6
000000b0: 16e4 3bb3 a31e c237 e75c 8437 0a28 a837
000000c0: 4817 31b8 85f9 2db8 d65f c7b8 8c55 57b8
000000d0: 3eff 1eb5 9645 fb35 9b58 4ab8 b1ea 22b8
000000e0: 8095 b037 2230 94b6 090e db37 118f b037
000000f0: 9b0f bcb6 0717 d6b7 b294 9fb8 30ef 35b8
00000100: e39e 59b7 357f cf37 9e73 67b7 1e26 e8b6
00000110: b4ff 8db7 2c26 c536 8afb 9bb8 88a8 45b8
00000120: 4f3b f2b8 f397 9bb8 e553 28b8 2b2a 9cb7
00000130: 399a 8eb8 4128 54b8 64f6 f937 59c2 3937
-3.0434028e-05 -2.3326754e-06 7.6079e-05 3.5528712e-05 -1.2342889e-05 3.7414633e-05 -1.3073612e-05 -2.0373038e-06
-9.162675e-06 -3.474398e-05 5.2777064e-06 -3.4521265e-05 1.7338923e-05 2.333979e-05 2.1044976e-05 -1.6067599e-05
1.3438168e-05 3.1371786e-05 1.0814137e-05 -3.1276984e-05 4.7363344e-05 1.4854086e-05 4.8969323e-05 3.3273205e-05
1.34939e-06 -3.1957636e-05 -4.4899707e-06 -1.5739204e-05 5.9568152e-05 6.790833e-05 1.5775853e-05 3.333333e-05
-2.1221129e-05 -1.8811976e-05 7.44407e-05 4.3173197e-05 3.2804088e-05 5.89135e-05 1.1295794e-05 1.1472586e-05
1.4125382e-05 1.6304064e-05 5.8337346e-06 -2.6102255e-06 -4.3746773e-08 2.3140869e-05 1.5778887e-05 2.0045805e-05
-4.222177e-05 -4.1478797e-05 -9.50691e-05 -5.1339666e-05 -5.9231013e-07 1.872121e-06 -4.8243073e-05 -3.8842383e-05
2.1050451e-05 -4.416347e-06 2.611337e-05 2.1047455e-05 -5.6046533e-06 -2.552151e-05 -7.6094075e-05 -4.3376524e-05
-1.2971202e-05 2.4735558e-05 -1.3795592e-05 -6.918576e-06 -1.692758e-05 5.8755013e-06 -7.437829e-05 -4.7125417e-05
-0.00011550506 -7.419279e-05 -4.0132454e-05 -1.8616285e-05 -6.799814e-05 -5.0582228e-05 2.9797848e-05 1.1072109e-05

exp_avg_sq f4 [40, 2]
00000000: 5287 6d39 dd94 8738 d827 c93a 131d 6b39
00000010: fe29 9438 4c37 3838 43da fc35 8e5c 1a38
00000020: 9fe7 b439 1693 b136 d724 0739 0d3f 2c38
00000030: c93e 7238 ac7e 9437 544d cf36 1907 6238
00000040: ca84 5639 a16b 7a37 0137 0139 10fe 8d37
00000050: 02ce a439 ee5f bc38 d91f 403a 5adb ca37
00000060: 570a b939 d5a4 6937 e469 de33 1ab5 dd35
00000070: f411 1e3a 5cc1 a138 e696 ed39 452c 7136
00000080: a700 9c3a f1b4 8b37 7e6d 0a3b 3796 7339
00000090: db85 8239 28be 5538 85df 3439 35d7 3f36
000000a0: 9659 0f37 7df8 5e37 c6c2 0039 8968 1834
000000b0: 09ca 413a 68fc b935 56de 9237 0dff f837
000000c0: 1594 4439 9b41 de37 9d4d be3a 7d0c 2f39
000000d0: 9712 2638 2ebe 4636 2425 8339 3b0c 9538
000000e0: 86f5 cc37 2d97 fa37 66e2 2739 373f f037
000000f0: ac50 af39 4e2d a235 5e16 db3a 1ec2 da38
00000100: fbed de38 48e3 0d38 c6b5 c233 6567 0e36
00000110: 9cb1 3b37 f44f 6637 f536 d03a 81f6 2139
00000120: 622c bf3a 989a c739 a1f8 4b3a e233 f538
00000130: c8f3 023b 8c6c 4e39 c136 5c39 5204 8638
0.00022652492 6.4650296e-05 0.0015346957 0.00022422177 7.0650116e-05 4.3920518e-05 1.8838986e-06 3.680266e-05
0.00034504847 5.292134e-06 0.00012888327 4.1066716e-05 5.775577e-05 1.7701961e-05 6.178083e-06 5.388921e-05
0.00020458098 1.49262205e-05 0.00012322889 1.6926817e-05 0.00031434005 8.982407e-05 0.00073289644 2.418242e-05
0.00035293653 1.392626e-05 1.0356942e-07 1.6518491e-06 0.0006029897 7.713094e-05 0.0004531659 3.5937567e-06
0.001190205 1.6654349e-05 0.0021122391 0.00023230245 0.00024895262 5.0960254e-05 0.00017249405 2.8586485e-06
8.544323e-06 1.3290087e-05 0.0001227959 1.4194133e-07 0.00073924713 1.3857034e-06 1.750809e-05 2.9682671e-05
0.00018747181 2.6495012e-05 0.001451898 0.00016693953 3.9594797e-05 2.9614998e-06 0.0002501394 7.107152e-05
2.4433026e-05 2.987272e-05 0.00016010701 2.8639666e-05 0.00033438706 1.2083126e-06 0.001671504 0.00010431207
0.00010630112 3.382869e-05 9.0668934e-08 2.1219832e-06 1.11874215e-05 1.3727684e-05 0.0015885519 0.00015445986
0.0014585371 0.0003807142 0.0007780884 0.00011692174 0.001998173 0.00019686128 0.00021001232 6.390423e-05

exp_avg f4 [40]
00000000: 1345 0c38 6d11 21b8 85bc 83b8 dff5 a637
00000010: 6155 a5b7 3cb7 02b8 6884 2cb7 4e50 f9b7
00000020: e8cd c5b7 5647 2ab6 ddd2 a2b7 6450 0937
00000030: 3d9d 25b7 3238 c7b7 60e6 dcb6 4eb2 0436
00000040: 70f1 c137 e068 3fb8 03f0 c8b7 c761 4d37
00000050: 7b97 3137 799e 76b6 9320 deb7 b486 a1b7
00000060: ee7f 7335 c466 af35 4e79 7237 89ef 1a37
00000070: d85a 79b7 2ce7 09b7 383a b537 dfd2 7936
00000080: 2909 9c37 f1fe 8eb7 0e8b b8b5 ec8a b637
00000090: 4d1c 6837 9ebe 3e38 ae4f 4f38 b352 d4b7
3.344293e-05 -3.840162e-05 -6.281681e-05 1.9903235e-05 -1.970929e-05 -3.1165066e-05 -1.0282827e-05 -2.9720508e-05
-2.3580113e-05 -2.5373497e-06 -1.9410096e-05 8.184554e-06 -9.871376e-06 -2.3748817e-05 -6.58333e-06 1.977332e-06
2.3119821e-05 -4.563562e-05 -2.3953622e-05 1.2241718e-05 1.0585291e-05 -3.67491e-06 -2.647963e-05 -1.9255422e-05
9.0710716e-07 1.3068425e-06 1.44525675e-05 9.234886e-06 -1.4862708e-05 -8.21966e-06 2.1603992e-05 3.7226635e-06
1.8600915e-05 -1.7046435e-05 -1.3749539e-06 2.1760781e-05 1.3834867e-05 4.5477056e-05 4.9426853e-05 -2.531088e-05

exp_avg_sq f4 [40]
00000000: ef4e d239 7865 b73a 0965 9839 8a64 6139
00000010: 95c6 df37 f9c1 7a39 571a de38 a267 a739
00000020: 0257 de38 2d2f bf38 5544 0c3a 2362 1739
00000030: 7f27 a238 d562 3237 5c36 013a 3215 ad37
00000040: 1f04 e738 4a58 bf3a 865c bb39 dda1 8e37
00000050: 40f9 b638 6311 f035 f1c1 6b37 6cbf 3f39
00000060: 535a 3a39 327d 873a b179 a037 46ae f039
00000070: 7e0c 3e39 ed65 3639 fe7e 3037 2789 2d3a
00000080: 4544 4939 0a65 7937 80b4 a538 0af2 803a
00000090: fe99 1a3b c1e7 3c3a 4115 a43a f351 da39
0.0004011313 0.0013992032 0.00029066976 0.00021495126 2.6676144e-05 0.00023914118 0.00010590691 0.00031929935
0.000106019914 9.116377e-05 0.00053507584 0.00014437041 7.732119e-05 1.0632638e-05 0.00049290597 2.0633077e-05
0.00011015706 0.0014598456 0.00035736355 1.7003093e-05 8.724863e-05 1.7886454e-06 1.4052247e-05 0.0001828649
0.0001777199 0.0010336994 1.9130153e-05 0.0004590621 0.00018124466 0.00017394843 1.0519985e-05 0.00066198636
0.00019194286 1.48650815e-05 7.901434e-05 0.0009837758 0.0023590322 0.0007206165 0.0012518541 0.00041641257
