pdebench/models/newly_trained_models1D_Advection_Sols_beta1.0_PINN.pt-5000.pt (torch, 120395 bytes, 39 tensors)

linears.0.weight f4 [40, 2]
00000000: c5a0 523e 50b0 75be 8e4f 94be 1b09 e43d
00000010: bb04 853e 3856 08be f6fd b2bd 9268 2b3e
00000020: 1101 57be 77db 0dbd edb2 323e f80e 86be
00000030: 475d b0be baba c23d 569b b7bd ee0a 2dbd
00000040: f599 143f 0b06 6cbd a045 6ebe a034 eabc
00000050: 7d5c b0be f9fc 92be 3075 3e3e d45c b8be
00000060: de7a a2bd dead 0cbe 3709 4fbd 16cb 3c3e
00000070: 2e79 5e3e a36b 94be 8537 153e f746 1dbe
00000080: 393c 28be c43b 1d3e cdb8 b83e 1c01 d9be
00000090: 1e3c be3d 3a86 2c3e 4362 a13e ae9f aebd
000000a0: d252 0cbe 6707 dfbc cc58 2dbf e50d a73e
000000b0: d713 df3d f65a 0b3d ca1a 04be f581 e63d
000000c0: 68cc 023e 06bb 9c3e fff6 8d3d bcf0 c4be
000000d0: 1c4b 94be 06f2 92bd e74e 9f3c 6fbb 8cbe
000000e0: dac2 363e c692 0abf 80ce bc3d 4a0b 463d
000000f0: 85b1 c53c 3ab0 dabd fe31 6f3e d13e ccbd
00000100: d9f0 9f3e 996b 3fbc 77be 8f3d 1bf4 65be
00000110: 2eaa fabd 8031 f1bc 9556 873e ba4d 1abc
00000120: 2b04 963e 3cd0 8ebd f20d ce3d 9d82 a53d
00000130: ac0c 4bbe b789 26be 7a7d 58bd f7fd 86be
0.20569141 -0.23993039 -0.28966945 0.11134549 0.25980172 -0.1331414 -0.087398455 0.16739109
-0.209965 -0.034633126 0.17451067 -0.26183295 -0.34446165 0.095082715 -0.08965175 -0.04224675
0.5804742 -0.05762295 -0.23268747 -0.028589547 -0.34445563 -0.28708628 0.18599391 -0.36008322
-0.07933591 -0.137382 -0.050545897 0.18436846 0.21725914 -0.2898837 0.1457196 -0.15359102
-0.16429223 0.1535483 0.36078492 -0.4238366 0.0928881 0.16848078 0.3152028 -0.0852655
-0.13703468 -0.02722521 -0.6771362 0.32627788 0.10892456 0.034022294 -0.12900844 0.11255256
0.12773287 0.30611438 0.069318764 -0.38464916 -0.28963554 -0.071750686 0.019446803 -0.2748675
0.17847767 -0.5413021 0.09219074 0.04835061 0.0241325 -0.10678144 0.23358914 -0.09972919
0.3123844 -0.011683368 0.0701875 -0.224564 -0.122394904 -0.029442549 0.26433244 -0.0094179455
0.29300055 -0.06973311 0.100612536 0.08081553 -0.19829053 -0.16263472 -0.05285404 -0.26365635

linears.0.bias f4 [40]
00000000: a0df fabd 0abf 273d 7a76 c23d 37b6 263e
00000010: 5400 973d d63c cdbd 6da5 19bd c6af 8bbc
00000020: 7e0f 8a3d 5f56 3fbd 2dbd cc3d 1d17 59bd
00000030: 3b0c 443b b069 12bc b4fe e93c 6c82 7fbd
00000040: 5fc3 59bd 512e 00bc e6b3 a9bd 092e 193c
00000050: 9ea5 b63d 004c 463d 6639 543d 1895 eebd
00000060: bd4c 303d 150b 9f3d d0da b53d 26a9 7e3c
00000070: 00df 6bbd 9518 0fbc 6d9b 90bc 7515 85bd
00000080: 493b 153d c575 673d 2641 88bd eb6f 61bd
00000090: 65a9 a8bd b14f a0bd 27a7 373d 4e63 3abd
-0.12249684 0.040953673 0.09495254 0.16280447 0.073731095 -0.10021369 -0.037511278 -0.017051589
0.06741236 -0.04671323 0.0999702 -0.05300056 0.0029914516 -0.008936331 0.028563835 -0.06238024
-0.053164836 -0.007823543 -0.08286266 0.009349355 0.08918308 0.048412323 0.051812552 -0.11649531
0.043041933 0.077657856 0.08879626 0.015543258 -0.057585716 -0.008733888 -0.017652238 -0.06498233
0.03643349 0.0565088 -0.06653051 -0.055038374 -0.082354344 -0.078277 0.044837143 -0.04550486

linears.1.weight f4 [40, 40]
00000000: 05f8 473e 53c9 14be c80d 893d cdcd 083d
00000010: 6170 b3be 86cf 073d f6e8 a63b 1cf2 93be
00000020: 2b4b 44be 6996 96be 63bd b9be 22b4 05be
00000030: 988e f03e bbb1 17bc ea54 323e a3af 83be
00000040: 75a0 07be 50aa 7e3d 4cb8 7e3e ba51 553e
00000050: 24bb 113d fb8b 75bd a123 febd 3e6e e53d
00000060: 0bba 983d fb04 563d 23ec 5cbd 7861 de3d
00000070: 8a1d 20be 7c0c 2e3e dd7a dbbd 0a16 c73e
00000080: 6af2 7dbe df9c c2bd 7bb5 a6bd 746a 433c
00000090: 1c36 28be 0d53 4a3e f197 f73d cbe9 483e
000000a0: 18ed b13e bb5a 29bd 37af 9d3d 2501 64be
000000b0: 4d2b 8a3e eb12 c1bc 0162 49be ed52 fe3d
000000c0: 01f5 b23d 8bf6 81be 1e60 ef3c 9e53 293e
000000d0: 54ad 8d3e 4de0 b33d 6d8e 9a3d e5c5 403e
000000e0: 3aa9 963e cd3e 053e 1b6b f43d e068 b13e
000000f0: b032 c73c 4f96 20be 1822 21be 587e 6b3e
00000100: ceee a0bd abc9 973d ec92 3dbd 7b31 413c
00000110: 6f6c 323e b2d3 3d3d 7c59 573e d20d bd3d
00000120: 70b0 ddbe 04a6 233e 15d8 943d 2109 f9bd
00000130: ef48 b33d cf61 61bd 89cd 603d 5af4 7b3e
00000140: 6e07 e93d 334a c2bc 4479 27be 8040 3fbe
00000150: a381 a23d e047 ccbc 0886 e0bd b1af 5fbe
00000160: c996 4d3e 05ff 1ebc eadf 4ebd b742 37bd
00000170: a014 863c 04c6 453e 0960 eabc f312 2e3e
00000180: 7ad8 79bd 3d4d 86bb 5d34 453e 51a4 3a3d
00000190: bc57 71bd 770d 84be 8e5c 2cbd f02e 97bd
000001a0: e7ea 283e 72a7 44be cc94 1cbe 2207 75b9
000001b0: a7f2 a83c 5af2 d53d c913 dd3d b23b 923d
000001c0: 3fee 243e f321 22bd 5396 c23d 3ade afbd
000001d0: bf7e 8d3e 1ef5 ddbd 905b 4ebe f7f3 39be
000001e0: bba2 d5bd c9c8 503c ecb5 89be 99c0 6fbd
000001f0: 8214 143e d8fc b03e 6d2b 973e fe71 1f3d
00000200: 7f6f 8dbe ed7e c23d 2bbf a13d 3285 1b3e
00000210: a630 6a3e dad4 053d 043c 24bd 23b4 82be
00000220: 0d82 253e c538 e93d 0daa 99bd 45ca b0be
00000230: dc29 c23e a4ab a23d 6134 b03d b50c 073e
00000240: 334c a4be d38b 963c eab2 9b3d 157a a7bd
00000250: a674 ba3e 23f3 56be e706 413e f0c4 603e
00000260: da50 2c3e 464d 233e 5a3d 0f3e 3587 c1bd
00000270: 4cac 163e cfca 9a3d ef08 55be d65d e03c
00000280: 5dcf 1e3e af03 c83e 633c a6be 053d 33bd
00000290: 171b 8bbc 945f ea3d c883 e83e d888 a43d
000002a0: eb66 bebe d3c8 c43e 92a2 c93d 7fed a3bd
000002b0: 5ed0 c33d a637 6a3e ecce 2cbe 7cc1 c03d
000002c0: 1a41 d83e ec46 adbd 2a07 46be e4ac 83be
000002d0: 381c 613e ab9e af3e 7824 a2be 425a 0e3e
000002e0: 7f00 aabd 9bb8 fe3c c070 193e cf08 663d
000002f0: 81c5 483d f418 b6bd 2b4a bd3b 3af2 b7bc
00000300: 312f afbe 0421 babd d157 f93d 4e0b 28be
00000310: 2aaf 41bd 23bc 14be b8d1 a83b 7255 823e
00000320: 7ee3 323e 33c6 48bc dea0 b7bd 477d 18be
00000330: f43d 303e 51be 323d bd67 4fbe 1556 a1bc
00000340: 130e 983d b5fb 3abe e324 923e ac93 01bc
00000350: d019 0cbd 158d cb3d 0e73 87be 7f57 84bd
00000360: bd06 95bd 634c 8bbe 66d4 dcbc f969 02be
00000370: 80a1 523d d071 743e 440f 8c3e 82c4 743d
00000380: 80ba 10be 60d6 2e3d 7716 693d c8d7 8f3e
00000390: 0cac 8dbe 8c37 edbe 06d3 dfbb a7e1 bf3d
000003a0: 5dfe 8abd ec9d 7a3e 8586 adbd 99e5 3bbc
000003b0: 207b 11be f426 1abe cf8a 7dbe ba71 923e
000003c0: 3643 06be f531 333e 2c24 1cbe ef53 0a3d
000003d0: 3306 033e 5473 62bd c295 47bc 9834 4d3e
000003e0: 42a0 8f3c 323b 8abe 3c69 32ba 16f2 153e
000003f0: f370 e73d 4bc4 b03e a550 41be 5ca7 abbd
0.19528206 -0.14529924 0.06692082 0.033399392 -0.35046676 0.033156894 0.005093689 -0.28895652
-0.191693 -0.2941163 -0.36277303 -0.13056996 0.4698379 -0.009258683 0.17415205 -0.25719938
-0.13244803 0.06217414 0.24874991 0.20831957 0.03557886 -0.05994795 -0.124091394 0.11202668
0.0745736 0.052250843 -0.053936135 0.108584344 -0.15636268 0.1699695 -0.10716794 0.38884002
-0.24799505 -0.09502577 -0.081400834 0.011927236 -0.16426891 0.19758244 0.120895274 0.19620435
0.347512 -0.041346293 0.07699435 -0.22266062 0.2698616 -0.023568591 -0.19666292 0.124181606
0.08738137 -0.2538341 0.029220637 0.16535804 0.276713 0.08783016 0.07546697 0.18825491
0.29425985 0.13012238 0.11934491 0.34650326 0.024316162 -0.15682338 -0.15735662 0.22997415
-0.078580484 0.07411512 -0.046282694 0.011791582 0.17424177 0.046344467 0.2103023 0.09231152
-0.43298674 0.15981299 0.07267777 -0.12159944 0.08754145 -0.05502492 0.054883514 0.24604931
0.1137837 -0.023717022 -0.16354853 -0.18676949 0.079348825 -0.024936616 -0.109630644 -0.21844365
0.20077051 -0.009704356 -0.05050651 -0.04474136 0.016367257 0.19313818 -0.028610246 0.16999416
-0.060997464 -0.004098563 0.19258256 0.04556686 -0.05892156 -0.25791523 -0.042080455 -0.073819995
0.16495858 -0.192045 -0.15291137 -0.00023367678 0.020623518 0.104466155 0.10794789 0.07140292
0.16106509 -0.039583158 0.09501328 -0.08587308 0.27635762 -0.10837768 -0.20152116 -0.18159471
-0.10431429 0.012743183 -0.26896608 -0.058533285 0.14460948 0.34567904 0.2952532 0.03892707
-0.27624127 0.094968654 0.078977905 0.15187529 0.2287012 0.032673694 -0.040096298 -0.25528058
0.16162892 0.11387781 -0.07503138 -0.3452932 0.3792256 0.07942894 0.086037405 0.13188441
-0.32089385 0.01837722 0.076024845 -0.08177582 0.3641712 -0.20991187 0.1885029 0.21950126
0.16827717 0.15947446 0.13988248 -0.09449617 0.14714164 0.07558214 -0.20804189 0.027388494
0.1550879 0.3906531 -0.32467946 -0.043759365 -0.01698069 0.11444011 0.4541304 0.080339134
-0.37187895 0.38434467 0.09845461 -0.08004283 0.09561227 0.2287279 -0.1687581 0.09411904
0.4223717 -0.08460793 -0.1933867 -0.25717843 0.21983421 0.34300742 -0.31668448 0.13901618
-0.08300876 0.031093886 0.14984417 0.056160744 0.04901648 -0.08891478 0.005776664 -0.02245437
-0.34215692 -0.090883285 0.12174953 -0.16410562 -0.04728619 -0.14524893 0.0051519535 0.25455815
0.17469594 -0.012254286 -0.0896623 -0.1489154 0.17211133 0.04363853 -0.20254417 -0.019694367
0.074245594 -0.18260081 0.28543767 -0.007908743 -0.034204304 0.09939019 -0.26454967 -0.06462001
-0.07276676 -0.27206716 -0.026956748 -0.12735738 0.05142355 0.23871541 0.27355397 0.059757717
-0.14133644 0.042684913 0.05690619 0.28094316 -0.27670324 -0.4633144 -0.006830576 0.09369212
-0.06786797 0.24474305 -0.08472923 -0.011468315 -0.14207125 -0.15053922 -0.24759983 0.2860239
-0.13111576 0.17499526 -0.15248173 0.03377145 0.12795334 -0.055285767 -0.012181701 0.20039594
0.017532472 -0.26998287 -0.0006805842 0.1464313 0.1130084 0.3452476 -0.1887842 -0.08381531

linears.1.bias f4 [40]
00000000: 9124 54bd 64b1 84bc 8f00 4cbd aaf3 4abd
00000010: bea0 82bd 5cab 313d 4645 39bc e996 01bc
00000020: 7eab 553d d7f7 a73c b2ae b33c 5ef9 41bd
00000030: c885 00be ccd9 a73d e48e 95bd 4c80 803c
00000040: dc69 443d 1277 8e3d f9b9 3bbd c665 82bd
00000050: 0ea3 1bbd 2ca6 bebc d4e7 46bd 9946 e03d
00000060: 2010 b8bc 8caa a3bc 4a85 a93a 6107 1fbe
00000070: 6208 43bd 002f a83d 3847 63bd 9e8a fe3d
00000080: 7137 f23c 69c3 15be 471f 0ebd 88bf 9cbd
00000090: 3674 a5bd bb7f 57bd 5021 423d 19d3 203e
-0.051792685 -0.016197868 -0.04980522 -0.049548782 -0.063783154 0.04337631 -0.01130802 -0.007909515
0.0521655 0.020503921 0.021933887 -0.047356956 -0.12551033 0.08195838 -0.07302645 0.015686177
0.047952518 0.069563046 -0.045831654 -0.06367068 -0.037997298 -0.023272596 -0.048560932 0.109509654
-0.022468626 -0.019978784 0.00129334 -0.15530159 -0.047615416 0.082120895 -0.05548784 0.12428783
0.029567452 -0.14625324 -0.034697797 -0.07653719 -0.08078806 -0.052612048 0.04739505 0.15705527

linears.2.weight f4 [40, 40]
00000000: 903d 403e 3fc4 63be cef9 063f fcb5 2abe
00000010: ca26 813e 6694 e4bd 93ef c0bd e3bc 5f3e
00000020: dcb0 99bd 1e8c cb3c ce55 e33d 12b7 793d
00000030: 9fae e5bd 513b 0b3e 345e 5fbe c460 5f3e
00000040: 8ce3 a5bc a26e ae3d 81b1 c83a 9a78 aabc
00000050: 2902 a1bc a8d7 14be 46e2 dcbd 3153 12be
00000060: 3384 a13e e5b1 cf3c 2aa9 563b aabf 63be
00000070: e4a4 c1bd 92ff 5ebe d81d b73d 2129 063c
00000080: 6776 31be ad12 cf3d aa34 863d 7841 543e
00000090: 3eb6 a03c a2ce 2c3c 2dda 41be 3ba2 4abe
000000a0: 0b71 1fbd 6e58 483c b5a4 bf3e 45c1 80be
000000b0: 1010 59be 1157 c43d 13ce 373e 3a42 4d3e
000000c0: a354 a1be 83b8 103b ee7f 3e3e 2461 a5be
000000d0: 9f16 1cbe 1c72 74bc 263c 49bd b6a4 443c
000000e0: aee3 213e 662c 173e 184b 023e 37da 813c
000000f0: be1e 743e ca70 a33c e68f cb3b 9a55 eabb
00000100: 0254 9dbc b550 4d3d 8764 5a3e 52cd 5dbe
00000110: 1a7b 633e 72d5 883e a866 023d 23d5 433e
00000120: 570d bf3e 0bf7 2bbd 9c79 053d 90ff c3ba
00000130: 5761 833d f655 7abe cea0 3a3e 0385 463e
00000140: 075c c33d f10f 66bd bafa 1b3e 1467 913c
00000150: 764e 1dbd e018 45bb e7e8 25be e050 973e
00000160: ace9 c6bd 3a21 89bd 6f2f 133e de20 fdbb
00000170: 9b80 353e d685 1e3e 6bfb a63e c5dc b6bd
00000180: 4956 153e bc07 19be 4dd1 053e fe6a 333e
00000190: 9d5e e2bd 2f5e 54bc c484 09be 114e 53bc
000001a0: 996b 163e 9f3a 9b3e bcce 8fbc 6db5 bd3e
000001b0: ede0 e53e e180 ecbd f348 84bb f013 d0bd
000001c0: a639 28bd 18aa b13e 451c 18be d228 e83d
000001d0: e5cc 32be 3e24 733e b6eb 3cbe ccfb 8fbe
000001e0: d9fb a7be c435 e63d f172 9abe f526 8b3e
000001f0: ca29 423d 4f5f 2cbe 5a24 8c3e bb83 93bd
00000200: 9ab4 1abe 81a9 fa3c 0c55 853e d1cf 883e
00000210: 248e d4bc 883b 3f3d ec29 173e 268e 66be
00000220: 2dce 12be 2074 933c 3a45 fc3d 6a82 e4bd
00000230: d9ee abbc 04e3 1bbe 3ae0 32be e025 03be
00000240: ef2b 623e 03f0 c53d d3b7 8fbd a5bd ba3d
00000250: 294e dfbc 5c32 d3bb 3452 c83e 59ac 00be
00000260: 7ab3 86bd c17a d83d 9055 9c3e 3fee d33d
00000270: 8ab2 d7bd e1a9 fd3d 5448 093e bd47 48be
00000280: 0e44 b5bd 4f5c aa3e d5c8 fd3c 72bb dd3d
00000290: 3b5b a73e 8d41 413d 1da2 9cbc 37dc a8be
000002a0: 7259 ff3d d94f b0bc cb49 ab3d d94a e73a
000002b0: 9aa8 863e 55fe 2bbe 95ce 4e3e cb08 02be
000002c0: 279d 9cbc b3d4 8a3c c9be fa3d 5896 c1be
000002d0: 9323 af3d 888b d63b 9aff fd3c f834 51bc
000002e0: b6b5 4b3e 75cf ee3d f362 173e b1f3 5fbd
000002f0: 6aea 78be 5e7a 9a3e dd26 6ebe 6eab 3cbe
00000300: 0ed8 a33e 9e5f 1fbe a42f 863d a2a4 103e
00000310: d1cd babe 8a53 2bbe bad2 99bd 7c0e 463e
00000320: a9a9 b73d 0809 283d 92d5 5a3e cfda 27be
00000330: c8d3 3b3d 2789 943e 61ef 0e3e 8df5 433c
00000340: d8f8 b13d a970 33be 7c50 663e a7e4 9e3d
00000350: 1df0 d43d 685f 693d c683 b3bc 6f15 62be
00000360: c37b 1f3d 9fa7 2f3e 5293 a43d f892 8b3e
00000370: 3467 423e 9919 46be 690d c13d ac66 e8bd
00000380: 68a6 74bd 70f3 2f3e 51c9 3a3e 9e63 123e
00000390: 2f1d 1e3e 29be 8e3e ef7b 8dbe 0675 2e3e
000003a0: 714d 39bd 2a3b 053c 32c9 48bd 4bfe 5f3e
000003b0: e877 41be 734b a73d caf0 573e 69a6 efbb
000003c0: 450a 113d b351 8cbd 8a8a f8bd 12ac 9bbd
000003d0: 1c05 0e3e 2eae 6ebd 7aef 4abe 1688 163e
000003e0: 9f45 74bd c1c6 ce3d 159f 323e 6b32 233e
000003f0: 08d4 d83e 1d1c 06be 4bd4 063d a558 c63e
0.18773484 -0.2224283 0.5272492 -0.16670984 0.25224906 -0.11161117 -0.09420695 0.21849398
-0.075044364 0.024847087 0.1110035 0.060965605 -0.11214947 0.13596846 -0.2181328 0.21814257
-0.020250104 0.08517195 0.0015311689 -0.02080946 -0.01965435 -0.14535391 -0.10785346 -0.14289548
0.31546172 0.025353381 0.0032754638 -0.22241083 -0.094552785 -0.2177718 0.08941239 0.008188517
-0.17330323 0.10110984 0.065530136 0.207281 0.01961815 0.010547312 -0.18930884 -0.19788449
-0.038926166 0.0122281145 0.3743035 -0.25147453 -0.21197534 0.09586919 0.17949705 0.20044795
-0.31509885 0.0022082634 0.18603489 -0.32300675 -0.15243004 -0.014919784 -0.049129628 0.012002161
0.15809509 0.1476303 0.12723958 0.015851123 0.23839852 0.019951243 0.0062122224 -0.007151318
-0.019205097 0.050125796 0.2132741 -0.21660355 0.22214928 0.26725346 0.031836182 0.19124274
0.37314865 -0.041983645 0.03258668 -0.0014953483 0.064150505 -0.24446854 0.18225405 0.19386677
0.09539037 -0.056167547 0.15232363 0.017749347 -0.038404904 -0.003007464 -0.16202126 0.2955389
-0.09712538 -0.066957906 0.14373563 -0.0077248653 0.1772484 0.15480742 0.32613692 -0.08928827
0.14583696 -0.14944357 0.13068123 0.17521283 -0.11053202 -0.012961908 -0.13429552 -0.01289703
0.14689483 0.30318162 -0.017554633 0.3705248 0.44898167 -0.11548019 -0.0040370165 -0.10160053
-0.041070603 0.34700084 -0.14854534 0.11335911 -0.17460974 0.23744294 -0.18449292 -0.28121793
-0.32809332 0.11240724 -0.30165818 0.2717816 0.047403134 -0.16833232 0.27371484 -0.0720286
-0.15107957 0.030598404 0.26041448 0.2672105 -0.025946684 0.046687633 0.14762086 -0.22515163
-0.14336462 0.017999709 0.123178914 -0.11157687 -0.020987915 -0.15223318 -0.17468348 -0.12807417
0.22087072 0.09664919 -0.070174836 0.09118203 -0.02725895 -0.0064452123 0.39125216 -0.12565745
-0.06577201 0.105702884 0.3053403 0.10348176 -0.105321005 0.123859175 0.13406497 -0.19558616
-0.08850871 0.3327355 0.030979553 0.10826768 0.3268679 0.047181655 -0.01912027 -0.3298051
0.12468232 -0.02152245 0.08363684 0.0017646208 0.26300508 -0.16796239 0.20195992 -0.12698667
-0.019117905 0.016947126 0.12243421 -0.37810016 0.08551707 0.006547395 0.03100567 -0.012768976
0.19893536 0.11660663 0.1478384 -0.05467576 -0.24308172 0.30171484 -0.23257013 -0.1842477
0.32000774 -0.15563819 0.065520555 0.14125302 -0.3648515 -0.16731086 -0.07510896 0.19341463
0.08967907 0.041024238 0.21370533 -0.16392063 0.045856267 0.2901089 0.13958503 0.011960399
0.08690041 -0.17523445 0.2249164 0.07758456 0.103973605 0.056975752 -0.02191342 -0.22078489
0.038936388 0.17153786 0.080359116 0.27260566 0.18984681 -0.19345702 0.09426386 -0.11347708
-0.05972901 0.17182708 0.18240859 0.14295813 0.1544082 0.27879456 -0.27633616 0.17036828
-0.04523987 0.008131782 -0.04902 0.21874349 -0.18893397 0.08168688 0.21087947 -0.007313539
0.035410184 -0.068515204 -0.12135799 -0.07601179 0.13869137 -0.05827158 -0.19817916 0.1470035
-0.05963671 0.10096503 0.17443497 0.15937202 0.42349267 -0.13096662 0.032917302 0.38739505

linears.2.bias f4 [40]
00000000: d097 97bd 2bda 643d bbc6 afbd 3617 37bd
00000010: 236c 30bc 0671 083d a6ff 1fbd 33b4 623d
00000020: 52ea 873b 39b5 053d 1873 9e3c 4cd3 e1bc
00000030: 79f2 973d cb2c 1e3d f0f7 083d f46d 533d
00000040: 3508 4cbd d0f1 db3c 4398 ddbd efe9 05bd
00000050: 293b efbc 50ae 57ba eacd cbba b77f 403d
00000060: d7ed 15bd 91a7 993d 803b 91bb 88fb 533c
00000070: 0eae 21bd af3f 54bd f452 edbc c868 453b
00000080: 8cbd 7ebc 2ffe 62bd 9b27 28bd 9ebe 613c
00000090: 32c4 ed3c 7f54 923b 1754 5a3e 7941 91bd
-0.07402003 0.055872124 -0.08582827 -0.04469987 -0.010767969 0.033310913 -0.039062165 0.055347633
0.004147806 0.03264353 0.01934199 -0.027566575 0.07419295 0.038616937 0.033439577 0.05161853
-0.049812514 0.026848704 -0.10820057 -0.0326938 -0.029203014 -0.00082275737 -0.0015549038 0.0469968
-0.036603775 0.07502664 -0.004432142 0.012938388 -0.039472632 -0.051818546 -0.02897022 0.003012227
-0.015548121 -0.05541819 -0.041053396 0.013778357 0.029024217 0.004465639 0.2132114 -0.07092566

linears.3.weight f4 [40, 40]
00000000: 5118 dcbd a9f1 3abe 9fb2 10be e116 723d
00000010: 39a4 2fbe f337 b5bd d3b3 7bbe ec9b a33d
00000020: f60d 57bd dd90 1f3d 77c0 503c 4716 ca3d
00000030: f447 043e efce 9d3e cd47 a7bd 10f0 aebd
00000040: 97c0 e13b 7280 073e f129 a3bd 1608 633d
00000050: d9d2 8dbe 6200 24be 1faf 243d 964c ee3e
00000060: 9b50 b9bd 2ffb 833c d7c2 b73d a1f4 7bbc
00000070: 88ba 2ebd 8f95 30be 638c ecbd 6c4d fe3d
00000080: bd85 233d 4a34 aabd 9de3 52be ec9a 833e
00000090: 25fb b53d 4295 013e 4d3b 523e 6b99 c0be
000000a0: 6131 3a3e 0704 c53e d3c5 23bd 8d3f b6be
000000b0: ca5d 383c 46ec 3e3e 0b0c 7fbd 6418 83bd
000000c0: e1fa 4e3e 0587 e43d 2b50 ecbd 4cc3 16bc
000000d0: 69e3 78bd ff5d 893e df7a 1bbe c5cc 40bd
000000e0: 9bd9 b9bd 5307 aebe ab0a 75be 5caf 0d3d
000000f0: d07d 02be 00f6 8a3d eea7 0c3e 0d7d 473e
00000100: 6b7d 8b3d 59a1 ac3b 96d3 25be 883e 1bbc
00000110: 321c 96be c6b8 003d 8a9e 35be faf5 973d
00000120: 095e 6bbd bc8d 3fbe b53e 72be bc86 babc
00000130: 8953 473e 8825 a23e 995d 903d 147f a0be
00000140: 0b2f adbe 10e9 94be f808 e53d 0e12 8d3e
00000150: 59d6 c4bd fbdb 223e a8a1 66bd d125 55be
00000160: bd4e 033c 4009 093e 774d 933d fa10 213e
00000170: 0fa3 29be dbb7 80bd de6b bf3d f0f3 003e
00000180: 9190 ffbd c422 97ba 0415 c0bd d716 363e
00000190: d8a8 303e df74 a63e b938 603e 6532 493d
000001a0: 0be7 0b3e e30f e53c a715 d2bd 8acd 09bd
000001b0: ae6d 5e3e e84f 76be 58bd 3bbe 98e7 09bd
000001c0: 2e7c f03d 193f 043e 382c 31bd 739e 41bd
000001d0: 1d80 0ebd 9814 ae3d 2370 6f3d 5761 0e3e
000001e0: f620 ec3d 8124 683e afdf ae3b 8c85 033e
000001f0: e450 ba3e 7e84 12be 2a91 783e 54fb 1b3e
00000200: 2530 05be b17f ce3d e4c2 193e feb5 8a3e
00000210: 71a6 323e 126a 9bbd f528 443e 1ed1 433e
00000220: 0dcd b5bd 4e55 debd 98ed 6d3d e942 e9bd
00000230: dd07 d4bc 4fd9 f73d 0a35 b1be 6da5 963e
00000240: 5402 3bbc 127f 67be 7c64 adbe f75b 7ebe
00000250: bc34 c7bd dd61 58be fff7 fcbd 5879 77bb
00000260: a2ae f33c 83c7 62bb 6b9b 10be 17fa 93bd
00000270: b711 503e f74d 933e 9289 7fbe 2a01 a13e
00000280: d631 ad3c a65f 253e 70f1 a7be c533 ff3d
00000290: abc1 66bd c4b7 263e 04dc a5be 7af7 f63c
000002a0: f65c 8bbc 90a1 ad3d 4421 bbbc a2d0 a3be
000002b0: 9edd 853e d1b0 053d 85cf c03d a825 0c3d
000002c0: 6ca7 98bc d30d 543e c38b dbbd 311c f9bd
000002d0: 0e8d 1cbe a92f f63c 920a 87be 2f6a ae3d
000002e0: 6840 b4be 204e 923d 3204 a3bd 11fb 5e3e
000002f0: 966a e5be 992f 4dbe c564 3e3d 22a4 123e
00000300: adc1 333d e5c8 42be f304 753d b1a1 e03d
00000310: 8f5b e8bd a4cc b93d 9de7 553e 2177 bebd
00000320: 9eee 843c 0f8d 8b3e fd6b db3d a033 06be
00000330: 844b 6a3d 77b6 fd3e fbc6 e9bd 48d2 53be
00000340: dc41 b0be 0ca6 32bd 4922 7a3d a347 8f3d
00000350: e846 a5be 74b2 9bbe f309 223e d68b f53d
00000360: be4e efbb ae8c 4bbe ec45 0bbe 77b2 b63c
00000370: ab58 9c3d ac8b 6c3e 1165 023e 0f2d 81bd
00000380: 8bed 033e c8df 8c3e 41e1 41be 27e8 28bb
00000390: 8452 5a3e e60b 90be aa64 3bbe 4966 5ebc
000003a0: 18a9 b83d 995b fabd 3e6b 36be 2381 32be
000003b0: 6f94 8c3e 8ea4 27be 82ec 143d 7d32 683e
000003c0: 3298 1c3d 507c 4d3e 84ae 7dbd 5e91 97be
000003d0: 9590 123d 5cd2 c03d db1c 8c3d d43c 68be
000003e0: 5629 aebe a6e5 de3e c688 ae3e d1ea 90bd
000003f0: 78cb 74be d95e 53be 73ef 9e3e 2613 86bd
-0.107468255 -0.18256249 -0.14130639 0.05910385 -0.1715249 -0.08848562 -0.24580316 0.07988724
-0.05250355 0.03895651 0.0127412 0.0986753 0.12918073 0.3082194 -0.08167992 -0.08541882
0.0068894136 0.13232592 -0.07966984 0.055427633 -0.27699926 -0.16015771 0.04020607 0.46542805
-0.090485774 0.016110985 0.089727096 -0.015378148 -0.04265836 -0.17244552 -0.11550214 0.12417111
0.039922465 -0.083107546 -0.2059464 0.25704134 0.08885793 0.12654594 0.20530434 -0.3761705
0.18182899 0.38479635 -0.03998358 -0.3559536 0.01125283 0.18644819 -0.062267344 -0.064011365
0.2021289 0.111585654 -0.11538728 -0.009201836 -0.06076375 0.26829526 -0.1518359 -0.047070283
-0.09074708 -0.33989963 -0.23929851 0.034591064 -0.12743306 0.06785202 0.13735935 0.19481297
0.06811031 0.0052682576 -0.16193995 -0.009475358 -0.29318386 0.031426214 -0.17736259 0.07419963
-0.057462726 -0.18706411 -0.23656733 -0.022769324 0.1946546 0.3166926 0.07049102 -0.31346953
-0.33824953 -0.29084063 0.11183351 0.27552837 -0.09611196 0.15904228 -0.05630651 -0.20815207
0.008014378 0.13382435 0.071925096 0.15729132 -0.16566108 -0.06285068 0.09346746 0.12593055
-0.12478746 -0.0011530747 -0.093790084 0.1778215 0.17251909 0.3251104 0.21896638 0.049120326
0.13662355 0.027961677 -0.10258036 -0.033643283 0.21721527 -0.2405392 -0.18333948 -0.03366813
0.117424354 0.12914695 -0.04325506 -0.04727025 -0.034790147 0.08500022 0.05845655 0.1390432
0.11529724 0.22670175 0.0053367238 0.12843913 0.3638984 -0.14308354 0.24274126 0.15232593
-0.13006647 0.10082949 0.15015751 0.27091974 0.17446305 -0.07588591 0.19156249 0.1912274
-0.08877001 -0.10856114 0.058087915 -0.11389715 -0.025882656 0.12101995 -0.34610778 0.29423085
-0.011414129 -0.22607067 -0.33865726 -0.2483977 -0.09726855 -0.21131082 -0.12351989 -0.0037761535
0.029746357 -0.0034603782 -0.14121787 -0.07225435 0.20319258 0.2877042 -0.24954823 0.314462
0.021141928 0.16149768 -0.3280139 0.12461046 -0.05633704 0.16281039 -0.3239442 0.030147303
-0.0170121 0.08478081 -0.02284301 -0.31995112 0.26145643 0.03263933 0.09414581 0.0342156
-0.01863452 0.20708399 -0.10720017 -0.1216358 -0.15288183 0.030052023 -0.26375252 0.08516347
-0.35205388 0.071438074 -0.079597846 0.21775462 -0.4480788 -0.20037688 0.04648282 0.14320424
0.043885875 -0.19021948 0.059819173 0.1096834 -0.113455884 0.09072235 0.20889135 -0.09300066
0.016227063 0.27256057 0.107139565 -0.13105631 0.057200924 0.49553272 -0.11414906 -0.20685685
-0.34425247 -0.043615386 0.061067853 0.069960855 -0.3228066 -0.30409586 0.15824108 0.11989562
-0.007303088 -0.19877884 -0.13600892 0.022301896 0.076340996 0.23100156 0.12733866 -0.06307422
0.12883584 0.27514482 -0.18933584 -0.002577314 0.2132054 -0.28134078 -0.18300119 -0.013574191
0.09016627 -0.12224502 -0.17814347 -0.17432074 0.27456996 -0.16371366 0.036358364 0.2267551
0.038231082 0.20066953 -0.06193401 -0.29603094 0.035782415 0.09415123 0.06841441 -0.22679454
-0.34015912 0.43534583 0.34088725 -0.07076038 -0.23905742 -0.2064165 0.3104206 -0.06546621

linears.3.bias f4 [40]
00000000: 2371 183d 7390 1b3d c766 b43d 40b7 0d3c
00000010: 46c4 563d 74c5 183d 23e6 da3c a95e c8bc
00000020: e878 17bc 264b 12be d649 70bc e14e 403b
00000030: 635d 81bc 83fc 7f3b c067 4e3b b627 ef3c
00000040: 5d31 25bd 95f9 513c c77a e73c 43e1 f13c
00000050: ed3d 2ebd 3a26 e53c 0865 b6bc d3b4 85bc
00000060: 3a25 e5bc 4049 1bbd a44d 853c 2061 27bd
00000070: 0d3a 4bbc f8a3 b7bc fc8c 8a3c 4e4c c23c
00000080: e09d d53c 8500 54bb 75ab 63bd 893e 36bd
00000090: 3218 473c 3cb2 76bc 05c8 62bd 390d 79bd
0.03721727 0.037979554 0.08808666 0.008649647 0.052433275 0.03729768 0.026721066 -0.0244592
-0.009245135 -0.1428648 -0.014666041 0.002934389 -0.0157916 0.003906042 0.0031494945 0.02919374
-0.04033028 0.012815853 0.028256787 0.029526358 -0.042539526 0.02797233 -0.022264972 -0.016321575
-0.027971853 -0.037911654 0.016272373 -0.04086411 -0.012403977 -0.022417054 0.01691293 0.023718026
0.026076257 -0.0032348942 -0.055583436 -0.044493232 0.012151765 -0.015057143 -0.055366535 -0.060803626

linears.4.weight f4 [40, 40]
00000000: 404d 293e e9bf 86bd 8afb c4bd 07fa ac3d
00000010: dc23 61bd 85b7 16bd 85fc cbbd 8f8c 4dbe
00000020: a766 453d d3e4 c3bd effa 1cbe 0621 053d
00000030: cb07 85be 64f4 4dbc 8b29 8e3d 760f 4dbe
00000040: 0d86 15be 8f7c 5cbe d03d d0bd 956e 5e3d
00000050: d58e 2cbd a849 283e cf2a 1a3d fa09 433e
00000060: 3545 eebd e020 7cbc 5295 b03d a595 a03e
00000070: 4a2d ccbd 900c 983d ceba 5e3d b63c 9dbe
00000080: 1101 8bbd dea4 433e c65c cabc 605d 6ebb
00000090: 2ad8 62be 64fd 6ebd 6115 5f3e 1e16 f5bd
000000a0: 00ee 303d 4e7c 253e 8927 593e 1648 efbd
000000b0: c6e5 1f3e e66e 5abe 1c4b 24be 1143 8e3d
000000c0: 540c 9c3e deca b3be 3f43 343d 7afb 8bbb
000000d0: caea 6cbd 055f 433c 4e2b 643c bdeb 8e3e
000000e0: ff84 bfbe 6b56 f6bd f113 453e bb36 9c3e
000000f0: 8262 81be b187 b53d a51e 9f3d e02d 0b3e
00000100: 3d6e 67be 2102 cbbe 3db6 13be b845 22be
00000110: 4f34 dfbd b27f 10be 15b2 433e 4ead f13c
00000120: 225a ac3c 0a78 7a3d 8250 25bd fef2 44be
00000130: 60eb 973d c834 fdbd 623c 72be 906c b23c
00000140: e1b4 61be 0ed1 77bc 7295 623e 569b 39bc
00000150: 61e3 2bbe 112f 673c ba69 183e 142b 7bbd
00000160: fc88 5a3d 7c98 cabd 41e5 973e 660f babe
00000170: dfcc 973e ac1c 8c3e 87bd 243e c257 123e
00000180: 8cc5 00bd 0225 42bd 5ee8 313e f68a 5cbe
00000190: 1b41 c6be 7d23 23be ac11 a93d 540c debe
000001a0: 6f6e 1e3d 5d7f 50be 1188 133d c5c7 603d
000001b0: 5a5f 223d c4ad 97be e6ac 80bd bb53 073e
000001c0: c287 8bbd 8a96 bfbe a19e ecbd 69da 783e
000001d0: 33f9 28be c8f7 47be d676 123e 7dbf 9abd
000001e0: 82e0 24be 947e 7c3e ca99 80bc 4ddb 45bd
000001f0: 7058 a0bb 40a7 02bc 96c3 9d3d 448b 87bd
00000200: 9754 47bd 85e6 243e e047 833e 2327 d6bc
00000210: a794 41be 7953 1c3d 9959 0e3d 4611 f6bc
00000220: 615c c73d 1d8f 6dbd a931 e9bc db6d fd3d
00000230: ee26 0f3e 4d5f be3a c0db 33be 6689 063e
00000240: eccd fe3d cf97 393d 8f86 4abe 5301 36be
00000250: 1aa8 d63c 8468 09be 58ad 013d 21a5 813e
00000260: 1cf6 b0bd 6be2 123e 8851 d5bb b362 29bc
00000270: 3ce6 8c3e e42a 9bbd 8758 99bd 5507 b4bd
00000280: d1f5 b23d 9b39 223e 6fdd 673e 5600 963d
00000290: e8c1 4fbc 4b9a ea3d 531b a93e 0e4f 21bd
000002a0: 37dc 7e3e 31a6 ca3c a1e0 5c3e a0c3 863d
000002b0: 071e d03d 2058 973d eeb8 563d 4841 773d
000002c0: 85b4 a53d 92d8 92be 3fff 70be f2f2 7dbe
000002d0: df3a 233b 567e 6bbd 6b1a c5bd 2710 86bd
000002e0: 7d5c 933e 3b59 5dbc 58e6 133e 4a51 15be
000002f0: 4f14 fb3d fefb 963e 80c4 cd3d fb82 57be
00000300: 4868 bc3d 03e4 ae3e ddce 2abe aa97 303e
00000310: d14d 803d b6a4 b8bd adaa d23e d3ef b33d
00000320: 301c 6bbd fb23 abbc 15c4 403e 274b 78bc
00000330: 4159 13be 8838 bf3d 3a53 373d 445f a7bd
00000340: 827c c13c e1cd d1bd 6513 9c3e a75c 5d3d
00000350: f074 ec3d 2319 01be 61ee 933d 0b36 8c3e
00000360: f24c 4cbe 0791 30be 4a49 0fbe a5b5 6bbe
00000370: b6ba debd de76 9dbe 9dae f0bd a45c 663d
00000380: a01f 62be 6265 b1bd 7a97 b23d dbec 253c
00000390: f4de 1f3e f5db 9c3e f0b1 3a3a ed1e 043d
000003a0: ce1a 5ebd 799c 403e 450f 483e 6fdc ffbc
000003b0: 04dc e8bd 73ca 6b3e f8cc 48be b8da 5cbe
000003c0: 07d5 353e cc7e e4be 33b5 30be 5f04 723e
000003d0: 1b2f 54bc c04f 2fbd cd0d 0b3c 1500 92bd
000003e0: d834 b4bd e2e9 843e bc6a b6ba ad58 193e
000003f0: e9f5 fbbd b824 5abd 1eab bf38 a42e 993e
0.16533375 -0.06579573 -0.0961829 0.084461264 -0.05496584 -0.03679611 -0.09960274 -0.2007315
0.0481936 -0.09565129 -0.15330099 0.032502197 -0.25982508 -0.012570474 0.069415174 -0.20025429
-0.14601918 -0.2153189 -0.1016804 0.054304678 -0.042128403 0.16434348 0.03763848 0.19046775
-0.11634294 -0.015388697 0.086222306 0.3136417 -0.09969576 0.07424271 0.05437737 -0.3071038
-0.06787313 0.1910586 -0.024702441 -0.0036371574 -0.22152773 -0.05834712 0.21785499 -0.11967109
0.043195724 0.161607 0.21206488 -0.11683671 0.15614995 -0.21331367 -0.16044277 0.06946386
0.30478156 -0.35115713 0.044009443 -0.0042719217 -0.0578411 0.01192451 0.01392634 0.2791423
-0.37406155 -0.12028202 0.19245888 0.30510506 -0.25270468 0.08863772 0.07769517 0.13591719
-0.22600646 -0.39650062 -0.14424987 -0.15846908 -0.10898649 -0.14111212 0.19110902 0.029501583
0.021039072 0.061149634 -0.04035998 -0.19233319 0.07417941 -0.12363583 -0.23655847 0.021780282
-0.22041656 -0.015125526 0.22127321 -0.011328539 -0.16785957 0.014110343 0.14884081 -0.06132038
0.053353295 -0.09892365 0.29667094 -0.36339873 0.29648492 0.27365625 0.16087924 0.1429129
-0.031438395 -0.047398575 0.17373797 -0.21537384 -0.38721547 -0.15931506 0.08255324 -0.4336878
0.038679536 -0.20361085 0.036018435 0.054878015 0.039641716 -0.2962476 -0.06282978 0.13215534
-0.06813003 -0.3741954 -0.115536936 0.24302067 -0.16501312 -0.19528115 0.14303145 -0.07556055
-0.16101268 0.2465766 -0.015698332 -0.048304845 -0.004893355 -0.007974446 0.07703321 -0.0661836
-0.048664656 0.16103561 0.25640774 -0.026141709 -0.18904363 0.038165543 0.034753416 -0.030037533
0.09734417 -0.05799781 -0.028466063 0.12374469 0.13979694 0.0014524251 -0.17564297 0.13138351
0.1244162 0.04531079 -0.19777893 -0.17773943 0.026203204 -0.13418776 0.031659454 0.25321296
-0.08640692 0.14344184 -0.0065099634 -0.010338473 0.27519405 -0.0757654 -0.074875884 -0.08790461
0.08738292 0.15842287 0.22643064 0.07324283 -0.012680508 0.1145521 0.3302866 -0.039382033
0.24888693 0.02473745 0.21570064 0.06580281 0.10161977 0.073898554 0.052422456 0.06036499
0.08091072 -0.28680855 -0.23534869 -0.24799708 0.0024906916 -0.05749353 -0.096241795 -0.065460496
0.287815 -0.013510044 0.14443338 -0.1458179 0.12259733 0.2948913 0.10047245 -0.21046059
0.091995776 0.34158334 -0.16680475 0.17245355 0.06264842 -0.09015791 0.4114584 0.08785977
-0.05739993 -0.02089118 0.188248 -0.015154636 -0.14389516 0.09336954 0.044757105 -0.08172467
0.02361894 -0.102443464 0.30483547 0.05404344 0.115457416 -0.12607245 0.072232015 0.27384982
-0.19951227 -0.17242824 -0.13992801 -0.2301851 -0.10875456 -0.3075475 -0.11752055 0.056240693
-0.22082376 -0.08661915 0.08720298 0.0101272715 0.15612394 0.30636564 0.00071218517 0.032256056
-0.05422478 0.1880969 0.19537075 -0.03123304 -0.1137009 0.23026447 -0.1960944 -0.2156781
0.17757045 -0.44627988 -0.17256622 0.2363448 -0.012950684 -0.042800665 0.008487177 -0.07128922
-0.08799142 0.25959688 -0.0013917307 0.14975233 -0.12302763 -0.053257674 9.139463e-05 0.29918396

linears.4.bias f4 [40]
00000000: 5e10 4e3b 3aa2 2d3c 7d1a 66bc 975b 073d
00000010: 563e 463d 126f f9bc 204e f7bc 0dc1 e4bc
00000020: ee15 04bd 231e e73c 1928 80bc 2222 053d
00000030: 9e9b 553c b717 77ba bbc6 3e3d 48cb 0bbd
00000040: 0ccf 08be 9a61 b63c 99b7 b93c dd7d aebc
00000050: d155 31bc 980f 9dbc 7217 cebc e175 8fbb
00000060: 64b2 cfbc e72f ffbb a0b2 043d d2be d4bc
00000070: 1bd2 d8bc b08a 293d 51f2 cc3b 1679 b43d
00000080: 9b7c 25bd 0867 193c f100 d3bc 6263 963c
00000090: f4b5 71bc 497a ea3c a663 b73c 7a6e 413d
0.003144286 0.01059776 -0.014044401 0.03304633 0.048399292 -0.03044847 -0.03018862 -0.027924085
-0.032247476 0.028212612 -0.01564412 0.032503255 0.01303759 -0.0009425836 0.046576243 -0.03412941
-0.13360232 0.022263337 0.022670554 -0.02130025 -0.010823683 -0.019172475 -0.025157664 -0.004378066
-0.025353618 -0.007787693 0.032396913 -0.025969896 -0.026467374 0.04139203 0.0062544723 0.08812158
-0.040402036 0.0093629435 -0.025757285 0.018357936 -0.014752854 0.028622763 0.022386383 0.0472245

linears.5.weight f4 [40, 40]
00000000: 81d5 a13e 1e95 9dbd 3bb9 cb3d 2668 3ebd
00000010: f01d a83d 30e1 3f3e 2455 1fbe e54e 95be
00000020: 0f0d 94be 2360 80be 670e 7ebe a138 b6bc
00000030: fe39 5dbe e839 69bd 330b 44bd 1af4 45be
00000040: 1fad 7ebd 6043 92bd fe74 383c 3ec3 493d
00000050: a709 8539 edb1 e53d a9bc 153e 9f0c b23e
00000060: 6770 51be bcac 2dbe 7747 8ebd 4fa8 313e
00000070: bcbb 50bd e02a 06bd 131d 963e 75f9 bf3d
00000080: 05a3 503e a719 15be add1 ddbd 2e11 20be
00000090: 825b 99bd d343 8ebc 4b83 303e 34fb d13e
000000a0: 7ab0 04bd 5c58 56bc fa05 3ebe 8739 483c
000000b0: 741e 39bd d134 353e f140 793e d671 91be
000000c0: 4696 78be b996 84bd cbf0 8dbe 7fa2 e53c
000000d0: e168 08be 5296 8fbe 203d 98be 324f 92bc
000000e0: 2fd5 35be ad07 e13a 8241 95bc 0dba 2bbe
000000f0: b946 b8be 98b4 25be 92bb 79bd 1371 3f3e
00000100: e63b bd3e cf61 fb3d 85c6 523d c52d e83c
00000110: de64 d73c 25f1 8e3e fb27 7ebe c68c c6bc
00000120: a643 76be 2d4d 4ebe c5e4 a2bd 6760 8e3d
00000130: 7d7a 45be 4624 603e 1ce7 97be 659a ff3d
00000140: 3c1d 66bd 9f96 4ebe e194 8a3c e7c0 d8bd
00000150: 051e 513d c179 aabc 5256 89be 76d6 88bc
00000160: 2522 733e f832 1b3e e223 93bd d855 60be
00000170: 033e 44bd f926 cebd bddb 433d 79d7 16be
00000180: 7bf0 263d 0221 2f3e 744d 3b3d fec7 8c3d
00000190: d377 6fbe 47a8 78bd c25e e33d 6ad1 3ebe
000001a0: 2a1c d9bc e017 1d3e 6cb6 623e 246e 053e
000001b0: abc0 253e 734d 653d 8aad 513e d008 d0bb
000001c0: 9421 683e 0417 283e df4d ccbd f18e 1d3e
000001d0: e0b1 06bd ee8d d83e c39e dd3d 5cc9 85be
000001e0: 6354 04be af41 9a3e cd50 67bd 2bfb 8bbe
000001f0: 7d0f 9ebe dc78 8bbe 9df0 abbd fd7f d5bd
00000200: ccce 45be 9a19 60be 621e 033e 3f9a 2abe
00000210: 2cc8 84bd 8b13 5ebe ce2f 303e 3e68 d8be
00000220: 46d7 193c 2f16 7bbe 3e92 0bbe ae3c a13c
00000230: 04c9 1cbe 43a5 123f bea5 833e a76e 98be
00000240: ccc8 1b3e 20e0 acbd 4821 5ebe 3843 86be
00000250: 60d6 263e 6026 7cb9 9a12 b23e 538e 5c3e
00000260: 9f09 c1be c09a 83bd c90c 0e3d dc1d 92be
00000270: 7c9a c83c 07a0 8bbe 7d83 883e e770 98bd
00000280: 08b2 82bd eace 1f3e deaf 2e3d 3d29 d23d
00000290: 7123 183e df35 2ebe 4f5d efbc 6b87 09be
000002a0: 2343 afbd c74c a33e 2e3a 793e 2684 b23e
000002b0: 8543 b03e 0535 443e 48ba 163e 4614 34be
000002c0: 9a64 263d 301c 453e 91e8 133e 2e5a ccbe
000002d0: 8cb7 883c f53b 773e 2eb1 91be 97f1 4f3b
000002e0: 2f01 11bd 98d3 0cbe 2612 113e b910 59be
000002f0: 68be dabb 64a6 74bc 815f dabb 41c8 873e
00000300: ead3 2a3c 808c 91bc f918 0abe 6b1c 97bd
00000310: 5c66 8f3d 7dba 04bd c188 563d 87ce 18be
00000320: 8387 f6bd 6889 613e a595 b43e 38e3 4cbc
00000330: e134 143e 26b7 c83d 7664 8fbc 7f0b 0fbe
00000340: 551d 2fbe 85ab 2fbe 0285 003e 6ffa 4b3d
00000350: 5138 5c3e ee76 24be b2a1 44bd be5e 313e
00000360: 132d 8fbe 7b7a cebd d166 3dbb 0fc3 fa3d
00000370: 6c85 aebd 17b9 f33b bf51 0a3e 5e87 823e
00000380: 5a1c 463c c326 5a3b 7b98 9d3d 5ea3 143e
00000390: 4312 543e 277d 45be 969c 573e b2ff e0bd
000003a0: 8d9b 78be 2e75 ac3d 6969 4bba 5e25 8cbe
000003b0: da27 763d 50f0 1fbd a0c5 d4bd 6567 593e
000003c0: c3a2 bcbd a2b5 88be f8d4 e7bc 9504 01be
000003d0: 6e8d 0a3e 57a5 79be 8b59 61be f889 c0bd
000003e0: 8802 b1be dfca 8bbd c143 4abd e532 ba3c
000003f0: 3a2e 813d 03cc f53b 1030 1fbd d7de 88bd
0.31608203 -0.076944575 0.09947439 -0.046486042 0.08208835 0.18738246 -0.15559822 -0.29161754
-0.28916213 -0.25073346 -0.24810182 -0.0222438 -0.21604154 -0.05693999 -0.047862243 -0.19331399
-0.06217682 -0.07141757 0.011258362 0.049258463 0.00025374928 0.11215577 0.1462275 0.34775254
-0.20453034 -0.16960424 -0.069472246 0.17349361 -0.050960287 -0.032755733 0.29319057 0.09373752
0.20374687 -0.14560567 -0.10831008 -0.15631554 -0.07488157 -0.017366325 0.17237584 0.41011965
-0.032394864 -0.01308259 -0.18556967 0.012220747 -0.045195058 0.17695929 0.2434118 -0.28407162
-0.24276075 -0.064740606 -0.27722773 0.028031586 -0.13321258 -0.28044373 -0.29734135 -0.017860029
-0.17757104 0.0017168425 -0.018219713 -0.16770191 -0.35991457 -0.16182172 -0.060969897 0.18695478
0.3695976 0.12274515 0.051458854 0.028342137 0.026293214 0.27918354 -0.24819939 -0.024237048
-0.24049243 -0.20146628 -0.079537906 0.06951981 -0.19285007 0.21888837 -0.2966851 0.1248062
-0.056180224 -0.20174645 0.016916694 -0.10583668 0.05105402 -0.02081001 -0.2682367 -0.016703825
0.23743494 0.15156162 -0.071845785 -0.21907747 -0.0479107 -0.10066027 0.04781698 -0.14730634
0.040756684 0.17102435 0.045728162 0.06874083 -0.23385553 -0.060707357 0.11102058 -0.18634573
-0.026502687 0.15341139 0.22139901 0.13030297 0.16186778 0.055982064 0.20476356 -0.006348707
0.22669059 0.1641503 -0.0997579 0.15386559 -0.03288448 0.42295784 0.10821297 -0.26130188
-0.12922816 0.30128238 -0.056473542 -0.27340063 -0.30871192 -0.27240646 -0.08395503 -0.104248025
-0.19317168 -0.21884766 0.12804559 -0.16660403 -0.06483492 -0.21687143 0.17205736 -0.4226703
0.009389704 -0.24520181 -0.13630006 0.019682255 -0.15311056 0.5728342 0.2571239 -0.2977192
0.15213317 -0.08441186 -0.21692383 -0.2622316 0.16292715 -0.00024046889 0.34779817 0.21538667
-0.37702653 -0.064260006 0.03468016 -0.28538406 0.024487726 -0.2727053 0.26662818 -0.074434094
-0.06381613 0.15606275 0.04264819 0.10261772 0.1485727 -0.17012738 -0.029219298 -0.13430564
-0.08557727 0.31894514 0.243386 0.34866446 0.34426513 0.1916085 0.14719498 -0.17585859
0.040623285 0.19249034 0.14444186 -0.39912552 0.016689084 0.24143966 -0.2845549 0.0031729692
-0.03540152 -0.13752592 0.1416708 -0.21197785 -0.00667553 -0.014932249 -0.006664217 0.2651997
0.010426501 -0.017767191 -0.13486089 -0.07378467 0.070019454 -0.03240441 0.052376512 -0.14922534
-0.120375656 0.22025073 0.3527042 -0.012505345 0.14473297 0.09800558 -0.017503958 -0.13969229
-0.17101033 -0.17155273 0.12550738 0.04979938 0.21505858 -0.16060993 -0.048005767 0.17321298
-0.27964076 -0.10081955 -0.0028900395 0.12244236 -0.08521542 0.007437836 0.13507746 0.25493902
0.0120917205 0.0033287264 0.07695099 0.14515445 0.20710091 -0.19286023 0.21055827 -0.1098627
-0.24278088 0.08420788 -0.0007759543 -0.2737226 0.0600966 -0.03904754 -0.103892565 0.21230848
-0.09210732 -0.26701075 -0.028299794 -0.12599404 0.13530514 -0.24379478 -0.22006814 -0.094013155
-0.34572244 -0.06825804 -0.04938102 0.022729347 0.06307645 0.0075011267 -0.038864195 -0.06683128

linears.5.bias f4 [40]
00000000: b614 76bc 8520 bfbc ff5f f43c 9716 a8bc
00000010: eeaf a43c 1616 0dbd abec f3bc 5d4a 94bc
00000020: 9143 3dbd cd4b a43c 1061 cabc 7613 ed3c
00000030: 675e 3a3d cef4 de3c 3365 09bd 250b a13c
00000040: 854b 9dbc 0b71 a8bc 030f a7bc f81f ce3c
00000050: 8773 14bd 3ae9 33bd cc54 9dbc 2772 3f3d
00000060: d712 de3c f5e6 fabc c536 da3c 1728 42bd
00000070: 703f 02bd 34ec 9dbc 0c05 fbbc 9158 073d
00000080: 41f0 08bd d1c6 b1bc 0bd9 92bc dbd2 1f3d
00000090: 6382 adbc 6cc6 67bc b81b 9a3c 67bb 35bd
-0.015019586 -0.023330936 0.02983093 -0.020518584 0.020103421 -0.03444489 -0.029775938 -0.018101865
-0.046207014 0.020055676 -0.024704486 0.028939944 0.045500185 0.027216341 -0.033543777 0.019658634
-0.01920105 -0.020561716 -0.0203929 0.025161728 -0.036242988 -0.043923594 -0.019205473 0.046739724
0.027108593 -0.030627707 0.026637444 -0.047401514 -0.03179878 -0.01927767 -0.030642055 0.033043448
-0.03343225 -0.021701248 -0.01792576 0.039019447 -0.021180337 -0.014146429 0.018812045 -0.044368174

linears.6.weight f4 [1, 40]
00000000: c976 083e 470d 143e 19a1 3cbe d552 793e
00000010: b802 4fbd 4152 c43e 5bc4 943e 1da6 953e
00000020: f234 883e f9b4 a0be 86d1 d03c dd0f 62bd
00000030: b370 0fbe 548d 36be c532 f53d 4a96 7fbe
00000040: 61b0 923c 7ccf 1f3f 98c2 883c 5fb9 b5bc
00000050: 56c4 6a3e cb0c d13e 61bf 493e f2be 38be
00000060: 70f9 7abe 69a1 783e 44c5 bcbd 25bc c03e
00000070: c287 b53e 181d 2f3e 98e7 683e 2cc2 f7bd
00000080: 01c5 123e 0419 143d eac2 e63d 854f 30bd
00000090: 9690 a53d 2aa6 033e 307d e1be f847 7b3d
0.13326563 0.1445819 -0.18420829 0.24348004 -0.050539702 0.38344005 0.29056057 0.29228297
0.26602894 -0.3138807 0.025490534 -0.05519091 -0.14007835 -0.1782735 0.11972574 -0.24959674
0.01790637 0.6242597 0.016694352 -0.022183118 0.22926459 0.40830073 0.19701912 -0.1804159
-0.24509215 0.24280323 -0.09217313 0.37643543 0.35455137 0.17100942 0.22744596 -0.12097582
0.14332964 0.03615667 0.11267646 -0.043044586 0.08084218 0.12856355 -0.44040823 0.06134793

exp_avg f4 [40, 2]
00000000: 5dba b3ba 16b2 e8b9 b6b1 5c3a 6bab fc38
00000010: 47e3 8b39 a2c0 1639 db56 7e3a 6032 c739
00000020: 943e 643a 0035 7939 0f83 a3ba 84ef 2aba
00000030: 138c fe38 52dc 48b9 fe53 5e39 f73a 68b8
00000040: 9e79 b639 8419 dc39 a9e3 0139 12e0 aab8
00000050: 16b9 6b3a 5289 8139 f12a 15ba 3db2 79b9
00000060: 4367 b539 2f04 2a38 4e62 1bb9 1af9 a7b8
00000070: e0a3 e9b7 9f86 4239 35fe 2dba b944 75b9
00000080: ad81 33b9 345b 12b9 f6a8 a4b9 1db5 e338
00000090: 6c4e 83ba 42bc 95b9 86f8 c2b9 5a7c a638
000000a0: 21f8 f33a b603 3a3a e44b d339 2571 97b6
000000b0: f744 9a39 488f a939 7c04 bcb9 11e8 17b9
000000c0: 36a4 64b8 b089 bc38 2746 393a c12d b939
000000d0: 7795 723a ecaa cb39 2807 b039 2214 51b8
000000e0: b58e a3b8 3709 d2b8 dff1 87b9 0b00 a936
000000f0: 14b6 75b9 e988 0db9 7c0b a0ba 3cd1 1aba
00000100: 8d68 48b9 7e4c 2537 1547 263a 9680 4239
00000110: 2438 c7b9 3245 7bb9 d7f0 3bba 9337 d6b7
00000120: 45dc 9fba 5540 d1b9 cc42 97ba 1a5e c1b9
00000130: ab91 2639 5471 0a38 aaa5 b6b8 b026 b1b8
-0.0013712157 -0.00044383173 0.0008418815 0.000120482255 0.0002668148 0.00014376876 0.00097022735 0.0003799377
0.00087068346 0.00023766235 -0.0012474972 -0.0006520676 0.00012137755 -0.00019155562 0.0002120286 -5.5368026e-05
0.00034804357 0.0004198068 0.00012387209 -8.147968e-05 0.00089921185 0.0002470711 -0.00056902977 -0.0002381289
0.00034599946 4.0535055e-05 -0.00014818573 -8.009579e-05 -2.7852075e-05 0.00018551432 -0.0006637306 -0.00023390622
-0.00017119078 -0.00013957621 -0.00031406403 0.000108579385 -0.0010017878 -0.00028559758 -0.00037187728 7.938659e-05
0.0018613377 0.000709589 0.000403016 -4.5133224e-06 0.00029424552 0.00032340945 -0.00035861495 -0.00014486934
-5.451237e-05 8.990185e-05 0.00070676435 0.0003532004 0.00092538394 0.00038846524 0.00033574668 -4.9848233e-05
-7.799027e-05 -0.00010015297 -0.00025929415 5.0365975e-06 -0.0002343285 -0.00013497811 -0.0012210454 -0.0005905812
-0.00019112435 9.852576e-06 0.00063429895 0.00018549184 -0.00037998066 -0.00023963003 -0.0007169372 -2.5536667e-05
-0.0012196383 -0.00039911518 -0.0011540293 -0.0003688194 0.00015885259 3.300731e-05 -8.7092936e-05 -8.447224e-05

exp_avg_sq f4 [40, 2]
00000000: fd5d 3a3b dbea 9839 9d8a 823a 267a ef35
00000010: d33f 1d39 4d13 bd38 6127 b83a 3bd8 2039
00000020: 92fc b93a 70b3 c738 ea70 213b 03b8 093a
00000030: 5236 8e37 0d4a 1d39 c8eb 9a38 bc25 0f38
00000040: 5ec3 bb39 67c5 083a ee34 f336 8032 6638
00000050: 9a3f ae3a 7e72 7937 4da1 ff39 a64e 8938
00000060: 557d 7539 52be 4535 44d5 a338 a0f2 ea37
00000070: db0b b435 830a a838 01de 4b3a 7ca0 b238
00000080: 75e7 4938 a94f 6938 2f3d 1039 3406 7437
00000090: 1d85 d53a f3f9 f738 1a3f 2c39 d8be 6338
000000a0: bc32 b93b e6cb 183a 0181 8b39 4dcd 6037
000000b0: 5492 6c39 409a 6f39 2cb2 6b39 abcd ee38
000000c0: a5bb ab36 0c92 a437 fd8c 473a 2d0c 5a39
000000d0: 9e81 bf3a 5938 1239 1bfb 4c39 455f a636
000000e0: 8f4e 7c36 3392 f536 598b df38 59e6 4d37
000000f0: 8824 6038 6870 1b37 29c0 283b 1ab0 0b3a
00000100: cd7b 7038 698a c637 5b93 2e3a d370 0639
00000110: 9f79 ac39 cbdc 6139 6fc8 5a3a e20f 0b37
00000120: fc13 243b d56c 8439 c652 0b3b fd7a 1739
00000130: 4db6 4b38 609a 3235 1828 7336 af22 1f37
0.002843737 0.0002916668 0.0009959523 1.7842438e-06 0.00014996463 9.015817e-05 0.0014049822 0.00015339341
0.0014189652 9.522482e-05 0.0024633952 0.0005253555 1.6953014e-05 0.00015000273 7.38721e-05 3.4129e-05
0.0003581298 0.00052174035 7.248126e-06 5.4883305e-05 0.0013294101 1.4868214e-05 0.0004875757 6.5473185e-05
0.0002341171 7.366517e-07 7.8121695e-05 2.8007955e-05 1.3414495e-06 8.012822e-05 0.00077769166 8.517594e-05
4.8137696e-05 5.562572e-05 0.00013755703 1.4544978e-05 0.0016290281 0.000118244345 0.00016426705 5.4298755e-05
0.0056518 0.0005828723 0.0002660826 1.3399241e-05 0.00022561225 0.00022850279 0.0002247772 0.00011387033
5.118042e-06 1.9618332e-05 0.00076122564 0.00020794636 0.0014610772 0.00013944636 0.000195485 4.9582763e-06
3.7596653e-06 7.318589e-06 0.00010659424 1.2272584e-05 5.3439784e-05 9.264892e-06 0.0025749302 0.00053286704
5.7335757e-05 2.3667892e-05 0.0006659531 0.00012821266 0.0003289701 0.00021539924 0.0008345907 8.288744e-06
0.0025036326 0.00025258088 0.0021259054 0.00014446299 4.8568752e-05 6.653481e-07 3.623316e-06 9.485214e-06

exp_avg f4 [40]
00000000: ec5d 8fba 3915 6c39 9b92 033a 85ab 563a
00000010: 400b 103a 46a0 9fba dd81 05ba 38bd 4fb9
00000020: a411 643a 6135 8db9 1d88 af39 c3b8 e4b9
00000030: faed 2eb7 f7a5 0fb9 f901 9539 a8ff 0aba
00000040: 0fac b4b9 4880 1438 1402 35ba a457 3139
00000050: e6f7 af3a 2dcc 24b9 12ac 123a 8354 1cba
00000060: 9e7d 7a39 f83d 3b3a bd2e 2c3a aeb5 d9b7
00000070: d3c0 56b9 cbe6 8338 d1f9 66b9 7192 92ba
00000080: 6f04 6639 9174 2f3a 80ab 32ba 90db 37b9
00000090: d95e 82ba 06d4 5eba 11e9 ce36 3a3d 6db9
-0.0010938025 0.0002251462 0.00050190993 0.00081890106 0.00054948404 -0.0012178503 -0.00050928985 -0.00019811548
0.00087001384 -0.00026933386 0.00033480013 -0.00043625207 -1.0426616e-05 -0.0001369937 0.00028420964 -0.0005302378
-0.0003446047 3.540542e-05 -0.0006904912 0.00016912684 0.001342532 -0.0001571632 0.00055950985 -0.0005963521
0.00023888654 0.0007142718 0.0006568244 -2.5953017e-05 -0.00020480463 6.289555e-05 -0.00022027573 -0.0011182559
0.00021936161 0.000669309 -0.00068157166 -0.00017534033 -0.000994648 -0.0008500222 6.166411e-06 -0.0002262489

exp_avg_sq f4 [40]
00000000: 1657 fb3a ce68 5237 4cea 273a 7f19 903a
00000010: d3a4 303a 44b7 443b 6336 453a 035a 2539
00000020: 7db8 203b 6adb b539 afef 1439 d348 bb39
00000030: 13ad 5036 eb2c 0f39 c3e8 a039 855c 0e3a
00000040: c84c a139 a2e0 2238 9a61 593a ec8a 8539
00000050: ef7e 5a3b ee35 c038 c2a1 853a d495 3e3a
00000060: a77e 1339 10a2 8b3a 230c 553a 7ad4 c036
00000070: 6e44 4d38 49de 1b38 2a3d 2138 94a8 2a3b
00000080: 23ac f538 0449 753a f8a1 b23a 6c73 5c37
00000090: 045e eb3a f1d2 8a3a db89 c335 eb1a 5c38
0.0019175734 1.2541377e-05 0.00064054574 0.0010993927 0.0006738428 0.0030016461 0.0007523058 0.00015769158
0.0024524026 0.00034686486 0.00014203669 0.00035721678 3.1095158e-06 0.00013654276 0.00030691 0.00054306566
0.0003076552 3.8833015e-05 0.0008292437 0.00025471242 0.0033339818 9.1653186e-05 0.0010195302 0.0007270251
0.00014066194 0.0010653157 0.00081271137 5.7467814e-06 4.893954e-05 3.71619e-05 3.8442355e-05 0.0026040422
0.00011714573 0.00093568885 0.0013628593 1.3139896e-05 0.0017957096 0.001059143 1.4568753e-06 5.2477157e-05
