pdebench/models/newly_trained_models1D_Advection_Sols_beta1.0_PINN.pt-15000.pt (torch, 120453 bytes, 39 tensors)

linears.0.weight f4 [40, 2]
-0.38597736 -0.0248482 -0.22332522 0.25569934 -0.3318668 0.2405414 0.8713737 -0.14059417
0.17382745 -0.7089181 -0.21097608 0.09667074 0.27021378 0.07975243 1.0289812 -0.3265806
-0.45150548 0.09681984 0.2875562 -0.26929417 0.24400535 0.33866116 0.12518004 0.07090102
0.21596175 -0.3990859 -0.15400639 -0.14638712 -0.07726924 0.2396775 -0.25609678 -0.05180402
-0.15098895 0.21058388 -0.19130266 0.26503447 0.15664624 0.38722226 -0.13069732 -0.28755927
0.027171476 -0.30833164 -0.30858308 0.27212703 0.21189046 -0.035149734 -0.30394992 -0.119598195
-0.048057366 0.4154248 -0.211198 -0.02483941 -0.2699809 -0.18191156 0.1414898 0.018845027
-0.2874891 0.30586335 -0.092555024 0.33950034 0.16885726 0.30736965 0.22157608 0.2357851
-0.22122632 -0.2921928 -0.16097555 0.14928389 -0.043866597 0.4067953 0.23013815 -0.7510665
0.0897299 0.38891968 0.26438245 -0.050209578 -0.9429534 -0.20715782 0.3284389 0.16184507
00000000: d39e c5be 748e cbbc 5eaf 64be 06eb 823e
00000010: 72ea a9be 7c50 763e 5912 5f3f ebf7 0fbe
00000020: d3ff 313e a87b 35bf 1d0a 58be 4ffb c53d
00000030: 7659 8a3e 3e55 a33d a8b5 833f 9335 a7be
00000040: ba2b e7be 7b49 c63d 913a 933e ede0 89be
00000050: 8adc 793e ff64 ad3e 322f 003e 8e34 913d
00000060: 1425 5d3e fd54 ccbe dab3 1dbe 81e6 15be
00000070: 563f 9ebd 056e 753e 1e1f 83be 7430 54bd
00000080: d99c 1abe 4da3 573e d8e4 43be 99b2 873e
00000090: df67 203e ff41 c63e 85d5 05be f83a 93be
000000a0: b796 de3c a5dd 9dbe 9afe 9dbe 3c54 8b3e
000000b0: d0f9 583e 2bf9 0fbd 539f 9bbe e6ef f4bd
000000c0: cdd7 44bd 8fb2 d43e 4a44 58be 057c cbbc
000000d0: f03a 8abe 0647 3abe b4e2 103e e360 9a3c
000000e0: c531 93be 1f9a 9c3e 7d8d bdbd fdd2 ad3e
000000f0: ebe8 2c3e 8e5f 9d3e d7e4 623e a671 713e
00000100: 2789 62be 4b9a 95be c6d6 24be e0dd 183e
00000110: 76ad 33bd 7947 d03e 56a9 6b3e e545 40bf
00000120: 4fc4 b73d 7b20 c73e 235d 873e 8fa8 4dbd
00000130: 6565 71bf 2e21 54be 2529 a83e b7ba 253e

linears.0.bias f4 [40]
0.2043874 0.082662575 0.14388576 0.31544548 0.009408378 0.1207942 -0.13181219 0.2620346
-0.07529146 -0.10456361 -0.117178634 -0.09897051 -0.14201756 0.048168834 0.13152292 0.13472463
0.117496565 0.014311704 -0.08621723 -0.110561505 -0.09876895 0.044075366 -0.11841499 0.14142968
0.16389278 0.08584278 0.064742975 -0.12713514 0.09904544 -0.116074435 -0.19693819 -0.13259909
0.1231814 0.056975603 0.044304572 -0.09007256 -0.11312053 -0.019881282 -0.13429514 -0.16864061
00000000: ee4a 513e ff4a a93d ca56 133e 1282 a13e
00000010: 9925 1a3c f362 f73d c6f9 06be 6629 863e
00000020: 6932 9abd 7225 d6bd 5afb efbd 0db1 cabd
00000030: 0d6d 11be af4c 453d f2ad 063e 41f5 093e
00000040: 0aa2 f03d a37b 6a3c a992 b0bd 126e e2bd
00000050: 6047 cabd 5f88 343d 8f83 f2bd f1d2 103e
00000060: 82d3 273e 57ce af3d f797 843d b72f 02be
00000070: 56d8 ca3d 6fb8 edbd 2aaa 49be 0ec8 07be
00000080: 8846 fc3d 405f 693d b678 353d f677 b8bd
00000090: bdab e7bd 12de a2bc aa84 09be 20b0 2cbe

linears.1.weight f4 [40, 40]
0.3402011 0.10683467 0.3381079 0.25707814 -0.10481102 0.17503835 -0.18219551 -0.1014029
0.12724438 -0.044650335 -0.17426226 -0.1274757 -0.09888173 -0.24147323 0.19377576 0.20757772
0.22163665 -0.01579309 -0.28441352 0.21306373 0.15437792 0.2193123 -0.38012558 -0.057326272
-0.112687886 -0.022630716 0.065743655 -0.43507797 0.36151662 -0.009031373 0.056180593 -0.11371715
-0.08323002 0.0531564 -0.13855304 0.14362283 0.08175272 -0.31162837 0.015496891 -0.196398
-0.39906076 -0.08008439 0.024558982 -0.121352024 0.29310173 -0.003334619 0.13283584 -0.008402191
0.21253587 0.16687866 0.19791946 0.22391918 0.07135366 -0.047366716 -0.07037414 -0.11372751
-0.44764113 0.06466394 0.3887392 -0.14945269 0.25068387 -0.053150747 0.31315783 0.018266633
-0.13253754 0.07838633 -0.028933864 0.3938857 -0.15186484 -0.053565573 0.17378856 0.18083777
-0.25544244 -0.12120274 0.17899576 -0.00072439015 0.05408579 -0.0769085 0.08277356 0.19090307
0.0878429 0.18885092 0.34836555 0.25706416 -0.05147461 0.23747396 -0.40143877 0.22195536
-0.020571947 -0.24724095 -0.117242165 -0.0006231078 -0.14635746 -0.008979627 -0.056973338 0.07940507
-0.15312572 0.25932622 -0.27547643 -0.06873221 0.18271275 0.18710014 -0.20426567 0.03689664
0.090496965 0.4137288 0.14703983 -0.673171 0.25453344 -0.037437238 -0.24228615 0.04105275
-0.32931694 0.09248335 -0.037732676 -0.025260327 -0.021104049 -0.19711536 0.037279088 0.017909613
0.08348359 0.11266173 -0.040759947 -0.07796208 0.23284319 -0.09272595 -0.11888232 0.03422431
-0.24298246 -0.0510937 0.09298543 -0.23264833 0.11443789 -0.05353965 0.13795169 -0.027890217
-0.2872788 0.24483381 -0.06284568 0.0077144336 -0.039876744 -0.052936573 0.25608435 0.05634669
-0.020694576 -0.19635901 0.09401602 0.20308347 -0.13235477 0.2542935 0.43946707 0.22459081
-0.4386963 -0.04387008 0.23705758 -0.14485064 0.23691589 0.12021607 0.20457943 -0.16269356
-1.13653 -0.47892305 -0.63374263 1.1685607 0.4595577 -0.6439054 1.4937727 1.7594837
-2.5598314 0.6175664 0.40307364 0.9065616 0.10691613 -1.0123813 0.21259913 -1.1380177
-0.29136944 -0.6853488 0.13756594 -0.33797526 -0.111122616 -0.926689 0.5775814 -1.2879552
0.22416931 -1.3327386 -0.9129605 0.59520817 -0.55809027 -0.6936756 0.14763376 0.7251085
-0.54372144 -0.896373 0.17189531 0.10454925 0.01977304 1.4561076 -0.832571 1.3952609
0.35459575 0.4554263 0.28366542 0.09877544 0.039891504 0.45501134 -0.27206087 -0.19354203
-0.047919303 -0.4651698 -0.37154448 -0.6330881 -0.13671148 0.12951085 0.15810162 0.3531241
0.340616 0.45900014 -0.1625333 -0.15498394 -0.21064423 0.18471962 -0.41303822 0.27579117
-0.103617504 0.13332158 -0.031861242 -0.69010025 0.17950404 -0.105713174 -0.14872505 -0.40263245
0.19704539 0.31413057 -0.17295991 0.035855595 -0.053703625 -0.15976198 0.16724561 0.12252531
0.1252686 -0.16482335 -0.056733746 0.07927795 0.1730608 -0.08642848 -0.34336177 0.19516774
0.11301075 -0.059688758 -0.18248835 -0.2467 0.008022539 0.27254078 0.0036901925 0.0069024134
00000000: d72e ae3e 23cc da3d 7b1c ad3e bf9f 833e
00000010: 29a7 d6bd 413d 333e 7691 3abe 53ac cfbd
00000020: 5a4c 023e 45e3 36bd ce71 32be fd88 02be
00000030: 8182 cabd c244 77be 276d 463e 418f 543e
00000040: b8f4 623e 8360 81bc a69e 91be 612d 5a3e
00000050: 3f15 1e3e 6793 603e d29f c2be f4ce 6abd
00000060: e8c8 e6bd 0d64 b9bc 9ca4 863d 8ac2 debe
00000070: b518 b93e 53f8 13bc 9f1d 663d 8ae4 e8bd
00000080: 8074 aabd 86ba 593d d9e0 0dbe dd11 133e
00000090: f86d a73d c18d 9fbe ace6 7d3c 8f1c 49be
000000a0: b151 ccbe 4903 a4bd eb2f c93c 6987 f8bd
000000b0: 6e11 963e a089 5abb 1e06 083e 58a9 09bc
000000c0: 01a3 593e 3de2 2a3e 66ab 4a3e 124b 653e
000000d0: de21 923d 9a03 42bd 5120 90bd f8e9 e8bd
000000e0: 3831 e5be 876e 843d d308 c73e 200a 19be
000000f0: a359 803e 99b4 59bd 3956 a03e e8a3 953c
00000100: ecb7 07be 0389 a03d b606 edbc 63ab c93e
00000110: 7582 1bbe 9367 5bbd a1f5 313e 892d 393e
00000120: 5ac9 82be 2439 f8bd aa4a 373e 00e5 3dba
00000130: 1089 5d3d 3482 9dbd 2f85 a93d 187c 433e
00000140: fae6 b33d 2362 413e f85c b23e ea9d 833e
00000150: 0ad7 52bd 602c 733e 6289 cdbe 4448 633e
00000160: 8086 a8bc bb2c 7dbe a91c f0bd 0e58 23ba
00000170: bbde 15be 491f 13bc e05c 69bd 209f a23d
00000180: fdcc 1cbe 68c6 843e 3f0b 8dbe 79c3 8cbd
00000190: 0d19 3b3e 2e97 3f3e 052b 51be ee20 173d
000001a0: 7956 b93d 43d4 d33e 9c91 163e ef54 2cbf
000001b0: 3552 823e ca57 19bd dc19 78be ee26 283d
000001c0: 3b9c a8be e967 bd3d 948d 1abd bfee cebc
000001d0: 66e2 acbc 9cd8 49be f5b1 183d 2eb7 923c
000001e0: 72f9 aa3d 31bb e63d e7f3 26bd 95aa 9fbd
000001f0: 726e 6e3e 1ae7 bdbd 9378 f3bd ca2e 0c3d
00000200: 65d0 78be a147 51bd 256f be3d 5d3b 6ebe
00000210: 6a5e ea3d 644c 5bbd 3543 0d3e 067a e4bc
00000220: 3516 93be b7b5 7a3e 3cb5 80bd 5cc9 fc3b
00000230: cc55 23bd 05d4 58bd 7d1d 833e c9cb 663d
00000240: ac87 a9bc 5612 49be 798b c03d 1df5 4f3e
00000250: 0288 07be c232 823e d401 e13e 22fb 653e
00000260: cd9c e0be 1db1 33bd 39bf 723e ba53 14be
00000270: 149a 723e d833 f63d 457d 513e 2499 26be
00000280: d179 91bf 6735 f5be f53c 22bf 6693 953f
00000290: 264b eb3e fcd6 24bf f233 bf3f c336 e13f
000002a0: 47d4 23c0 d518 1e3f ab5f ce3e 6c14 683f
000002b0: d8f6 da3d b695 81bf 96b3 593e 90aa 91bf
000002c0: 602e 95be 0573 2fbf 16de 0c3e 180b adbe
000002d0: 4194 e3bd 7e3b 6dbf 60dc 133f b7db a4bf
000002e0: a48c 653e 2e97 aabf c8b7 69bf 905f 183f
000002f0: 01df 0ebf b994 31bf 4e2d 173e b6a0 393f
00000300: 5431 0bbf b378 65bf 5305 303e eb1d d63d
00000310: 12fb a13c bc61 ba3f 6023 55bf e997 b23f
00000320: 938d b53e a32d e93e 983c 913e c74a ca3d
00000330: 4665 233d 3ff7 e83e 904b 8bbe e22f 46be
00000340: 0847 44bd bc2a eebe 143b bebe 1012 22bf
00000350: 18fe 0bbe 7e9e 043e 64e5 213e afcc b43e
00000360: 3865 ae3e 1102 eb3e 216f 26be 1cb4 1ebe
00000370: 1fb3 57be 2427 3d3e bf79 d3be 8034 8d3e
00000380: 6a35 d4bd 7485 083e ef80 02bd 69aa 30bf
00000390: e8cf 373e 2680 d8bd 614b 18be d725 cebe
000003a0: 44c6 493e b9d5 a03e 671c 31be 51dd 123d
000003b0: 55f8 5bbd a598 23be 6f42 2b3e 8dee fa3d
000003c0: 6946 003e 74c7 28be a561 68bd 7a5c a23d
000003d0: da36 313e 6a01 b1bd 1dcd afbe 0dda 473e
000003e0: 2e72 e73d 337c 74bd 3ade 3abe ed9e 7cbe
000003f0: f870 033c 778a 8b3e 28d7 713b a42d e23b

linears.1.bias f4 [40]
0.06648363 -0.12570268 0.11923028 -0.1038982 0.43998608 0.13257937 0.057387438 -0.11625375
0.10720974 -0.10146535 -0.06285006 0.058229767 -0.010109008 0.13852778 -0.06381675 0.1200636
-0.078335255 -0.070120946 -0.16432904 0.03830132 -0.5319733 0.14430942 0.13044758 0.15450712
0.06157057 0.010468707 0.1309225 -0.3325906 -0.108544625 -0.07525982 0.090007275 -0.1286774
-0.027949134 0.12935519 0.11501284 0.13543236 0.07413178 -0.08082825 -0.05153912 -0.11411497
00000000: 9228 883d 34b8 00be 012f f43d 94c8 d4bd
00000010: db45 e13e e3c2 073e 170f 6b3d 7216 eebd
00000020: c890 db3d 11cd cfbd 88b7 80bd 5682 6e3d
00000030: 41a0 25bc 3ada 0d3e 5bb2 82bd e8e3 f53d
00000040: 3c6e a0bd 929b 8fbd df45 28be d8e1 1c3d
00000050: 672f 08bf d9c5 133e 0d94 053e 1d37 1e3e
00000060: 6c31 7c3d f184 2b3c 8c10 063e 5149 aabe
00000070: a54c debd d221 9abd bc55 b83d 02c4 03be
00000080: 95f5 e4bc b075 043e da8b eb3d c8ae 0a3e
00000090: 67d2 973d 4889 a5bd af1a 53bd 1cb5 e9bd

linears.2.weight f4 [40, 40]
0.015330102 -0.14356633 -0.084811054 0.047690522 -0.11434228 0.09290068 -0.012354161 -0.19772184
-0.20834291 0.16259935 -0.27886945 0.034048352 0.21017192 0.29441747 -0.16421281 0.16395198
0.015937552 -0.0138481865 -0.11452212 0.3353223 0.19050483 -0.042913016 0.19677804 0.15749778
-0.014373942 0.045521326 -0.20782644 0.16468449 -0.01193255 -0.12553285 0.26364148 0.1287487
-0.0020925712 0.15226059 -0.17831916 0.18244162 -9.774546e-05 0.13191102 0.15439485 0.027798543
0.030636355 -0.20077509 0.22217517 -0.11867089 0.0114450175 0.15710293 0.026103204 -0.4672854
0.111362934 0.04685098 -0.3274283 0.18716149 0.056703176 0.32967398 -0.24236105 -0.0038718758
-0.17307232 -0.03941817 0.1696553 0.044380616 0.02644952 -0.026823077 0.22419299 -0.031310648
0.10093654 0.038838416 0.33743897 -0.10877637 -0.020093452 0.13560742 0.31948474 -0.042776387
-0.019550152 0.14026353 0.3046643 0.1729841 0.059276555 -0.15000378 0.14946574 -0.3756376
0.6721205 -0.40108183 0.098796174 -0.1783675 -0.7424711 1.1312852 -0.23836091 -0.2439538
1.2809204 -0.34647 -0.51505315 0.35692522 -0.6212244 0.18919033 -0.5925229 0.14868999
1.0969175 -0.61578137 -0.028203243 1.0587814 1.1541344 -0.6414062 0.7043827 0.485527
1.2271882 0.10879259 0.3606286 1.3785653 -0.13629529 -0.2695667 0.6353392 1.3060555
-0.9891709 0.1803786 -0.102528684 1.1511692 -1.1237919 -0.6856315 -0.28583035 -0.7711187
0.29525355 -0.7637648 0.55645734 -0.26888573 0.25201204 0.51357496 0.080467045 -0.29631615
-0.10609243 -0.16463667 -0.35176116 -0.22569266 0.032252204 0.344485 -0.031676527 0.22293358
-0.08096419 0.10912267 -0.3229903 0.3906655 0.099428296 0.007950113 0.4565489 0.3773022
-0.14474338 -0.035295717 0.7277161 -0.11250413 0.16735645 -0.13318945 0.71900964 0.0131635675
-0.07929434 0.614893 0.0989061 0.3985896 -0.0062709567 -0.3835829 -0.044730626 -0.39035743
0.26805323 0.16151151 0.037117958 -0.055714466 -1.042647 0.017756747 -0.29636624 -0.039818376
0.46209672 -0.011366252 0.20970295 0.0061827363 -0.44467297 -0.1881649 0.24559164 -0.41113818
0.015988223 -0.3514997 -0.044912398 0.42217502 1.6291857 0.023612063 0.22974856 -0.009910772
0.45710382 0.22290733 -0.04403516 0.8211602 0.112098634 0.2030179 0.13700078 0.96603185
0.18246971 -0.39503762 -0.2897058 0.18274619 -0.41769436 0.2551843 -0.28536704 0.011831379
0.14818805 -0.033392925 0.07745101 -0.27158633 0.1686241 0.41776514 0.19985181 0.13062964
0.058642097 -0.0132926805 -0.57487035 0.14147165 0.104104035 0.3427871 -0.12563495 0.1325765
-0.28132078 0.14802952 -0.20994994 0.048469488 -0.10613946 0.049474854 0.2562694 0.06019153
0.0990945 0.15197268 0.07211706 0.31180722 0.18459995 -0.11482534 0.19562508 0.16569783
-0.14654443 0.4519801 0.16011564 0.06887499 0.14841306 -0.15726 0.14031021 -0.40192086
-0.33301038 0.41391325 -0.42657965 0.08881297 -0.059405394 -0.096781604 -0.0001014454 0.584262
0.05927825 0.22481242 0.22061469 -0.3610625 -0.19483891 -0.33880365 0.29883862 -0.49548176
00000000: 1c2b 7b3c 0d03 13be 6bb1 adbd 2357 433d
00000010: 492c eabd b642 be3d 1b69 4abc 9877 4abe
00000020: d857 55be 7280 263e fac7 8ebe 4976 0b3d
00000030: 4f37 573e e3bd 963e 6727 28be 07e3 273e
00000040: 788f 823c 81e3 62bc 938a eabd 5daf ab3e
00000050: b313 433e 8fc5 2fbd 2f80 493e 1947 213e
00000060: af80 6bbc 9274 3a3d 74d0 54be 0da3 283e
00000070: be80 43bc af8b 00be 04fc 863e b3d6 033e
00000080: 8523 09bb 33ea 1b3e 4c99 36be fad1 3a3e
00000090: b2fc ccb8 af13 073e af19 1e3e c5b9 e33c
000000a0: 18f9 fa3c fc97 4dbe e381 633e b909 f3bd
000000b0: e283 3b3c 97df 203e 63d6 d53c 0840 efbe
000000c0: 4012 e43d d0e6 3f3d afa4 a7be 43a7 3f3e
000000d0: 9741 683d 07cb a83e 7f2d 78be 4cbf 7dbb
000000e0: df39 31be f274 21bd 1eba 2d3e 73c8 353d
000000f0: aaac d83c 12bc dbbc d992 653e 983f 00bd
00000100: d1b7 ce3d 0815 1f3d cdc4 ac3e 25c6 debd
00000110: 069b a4bc acdc 0a3e 8193 a33e 4b36 2fbd
00000120: a427 a0bc 3ea1 0f3e f6fc 9b3e be22 313e
00000130: f9cb 723d 979a 19be 8c0d 193e 9253 c0be
00000140: 1710 2c3f 995a cdbe a655 ca3d f8a5 36be
00000150: 9612 3ebf f4cd 903f e214 74be 06cf 79be
00000160: 33f5 a33f 8464 b1be 86da 03bf e7be b63e
00000170: 9008 1fbf 1cbb 413e 95af 17bf 3042 183e
00000180: cb67 8c3f d9a3 1dbf 7d0a e7bc 2686 873f
00000190: adba 933f 3233 24bf 6d52 343f ff96 f83e
000001a0: 8114 9d3f a6ce de3d 50a4 b83e d474 b03f
000001b0: fe90 0bbe a604 8abe 97a5 223f d42c a73f
000001c0: 4e3a 7dbf 2bb5 383e 8ffa d1bd 8359 933f
000001d0: 6ad8 8fbf 8c85 2fbf 5b58 92be 0968 45bf
000001e0: 792b 973e 1786 43bf fd73 0e3f 64ab 89be
000001f0: b907 813e a679 033f e8cb a43d c0b6 97be
00000200: fd46 d9bd 8496 28be 0a1a b4be fa1b 67be
00000210: e31a 043d 5760 b03e 3fbf 01bd b348 643e
00000220: 8ed0 a5bd b57b df3d fc5e a5be 4f05 c83e
00000230: 10a1 cb3d 3141 023c c7c0 e93e c12d c13e
00000240: 9c37 14be 3e92 10bd 9a4b 3a3f 9168 e6bd
00000250: 7d5f 2b3e d162 08be 0411 383f 01ac 573c
00000260: 1265 a2bd a169 1d3f 488f ca3d f013 cc3e
00000270: 997c cdbb fa64 c4be 7637 37bd eedc c7be
00000280: 463e 893e 4663 253e 0009 183d da34 64bd
00000290: 7575 85bf 9976 913c 51bd 97be 9818 23bd
000002a0: f197 ec3e 8439 3abc 5fbc 563e 8d98 ca3b
000002b0: 2dac e3be 4dae 40be 607c 7b3e b480 d2be
000002c0: bcf9 823c c5f7 b3be 10f6 37bd 5327 d83e
000002d0: 2889 d03f 166e c13c 3543 6b3e ca60 22bc
000002e0: 8309 ea3e d241 643e 365e 34bd 8e37 523f
000002f0: f893 e53d ede3 4f3e ef49 0c3e dd4d 773f
00000300: 57d9 3a3e 5f42 cabe 5254 94be d121 3b3e
00000310: 09dc d5be 84a7 823e a11b 92be 66d8 413c
00000320: 9cbe 173e 05c7 08bd a39e 9e3d 5d0d 8bbe
00000330: ccab 2c3e 50e5 d53e f4a5 4c3e c7c3 053e
00000340: b232 703d 8bc9 59bc b42a 13bf f2dd 103e
00000350: 7f34 d53d ca81 af3e 73a6 00be 22c2 073e
00000360: 4709 90be 0d95 173e 1efd 56be f187 463d
00000370: a55f d9bd 25a6 4a3d be35 833e 658b 763d
00000380: 0ff2 ca3d ba9e 1b3e 1cb2 933d 32a5 9f3e
00000390: c507 3d3e 8c29 ebbd f151 483e b1ac 293e
000003a0: be0f 16be f069 e73e 5bf5 233e 550e 8d3d
000003b0: 98f9 173e c408 21be 7bad 0f3e 92c8 cdbe
000003c0: 5680 aabe 70ec d33e a668 dabe 93e3 b53d
000003d0: 1253 73bd 6f35 c6bd 16bf d4b8 3292 153f
000003e0: c0cd 723d 3a35 663e d1e8 613e 2fdd b8be
000003f0: da83 47be ac77 adbe 6001 993e c9af fdbe

linears.2.bias f4 [40]
0.027378442 0.07932282 0.04563739 0.15942468 -0.07343294 0.08492402 -0.035059594 -0.19519393
0.08015149 -0.07268463 0.029951012 0.051922716 -0.07788469 0.1153924 0.12954824 0.07929144
0.10065499 0.019687729 0.07101016 -0.14280954 -0.11741177 -0.059229743 -0.03790377 0.016553568
0.079807885 0.071049795 0.061030354 0.027219612 -0.08635144 0.038434494 0.024076588 -0.066502124
-0.036550533 -0.12519464 -0.09971799 0.09915078 0.17063904 0.19642672 -0.34492686 -0.018174486
00000000: c148 e03c 0174 a23d 46ee 3a3d 3940 233e
00000010: 0264 96bd a5ec ad3d a69a 0fbd ebe0 47be
00000020: 7726 a43d aedb 94bd d35b f53c eaac 543d
00000030: 0282 9fbd da52 ec3d 4ba8 043e 8d63 a23d
00000040: 3424 ce3d 2948 a13c c66d 913d aa3c 12be
00000050: 9575 f0bd e39a 72bd fc40 1bbd 599b 873c
00000060: 5172 a33d 8e82 913d f7fa 793d aafb de3c
00000070: 06d9 b0bd 7d6d 1d3d 443c c53c 4432 88bd
00000080: 03b6 15bd 0633 00be f238 ccbd 900f cb3d
00000090: 00bc 2e3e 1624 493e 419a b0be a9e2 94bc

linears.3.weight f4 [40, 40]
-0.13492101 -0.3030919 -0.05234457 -0.26442832 0.21414709 -0.13858508 0.061568785 -0.09143828
0.016055917 0.19622536 0.26898754 0.12765513 -0.03307884 -0.22088996 -0.31051666 -0.38246432
0.13730136 -0.16609931 -0.20989847 0.08634096 -0.010866834 -0.0630281 0.056681532 -0.35929778
-0.053215537 -0.02844139 -0.19017732 0.46949318 0.24078256 -0.54269433 0.089762606 0.85507333
0.10532089 0.073056035 -0.035465255 0.06703775 -0.08269661 0.21782945 -0.13904324 0.2916051
0.045682557 0.43723807 -0.110182144 0.10397842 -0.059283353 0.12587592 -0.3018355 0.1669758
0.254832 -0.13762374 0.061948057 0.21059504 -0.25368956 -0.045464378 0.29451674 0.28622633
0.082206726 0.022348741 0.485515 0.044967595 0.102259316 0.21156438 -0.22618988 -0.11232381
0.5024587 0.17488118 0.10851022 -0.15552501 -0.023911558 -0.046514805 -0.13409106 -0.18672
-0.10861595 -0.26182175 0.2806676 0.38008276 -0.017790265 0.40418628 0.10825107 0.040661804
-0.2650511 -0.4135428 0.018001286 -0.21239339 0.08893343 -0.2811033 0.42077476 0.10865874
-0.685098 -0.045497857 0.16163588 0.03386931 -0.123027526 -0.2045068 -0.136772 -0.029138386
0.016033331 -0.02401703 -0.24304497 0.2268118 -0.06633194 0.12760413 -0.396707 -0.11952905
-0.76814824 -0.21452335 -0.30617413 0.25955483 0.18694936 0.056162726 -0.2658119 0.19342907
-0.22299564 0.24000226 -0.1977863 -0.124953195 0.11147749 -0.17714277 -0.025755085 0.034771804
0.10553148 0.21881479 0.012979235 -0.00031137967 0.15968616 -0.03898816 -0.05387918 -0.18448946
0.15509231 -0.2916026 0.05939568 -0.27014336 -0.2774474 0.13639623 0.038158 0.27764115
0.479283 0.26322243 0.35637364 -0.4911209 -0.5412354 0.15346189 0.25707301 0.4849588
0.52356654 0.1184447 0.30675548 -0.25402445 0.03185492 0.15804474 0.21667537 -0.14682941
-0.39638454 -0.3716519 -0.13178636 0.5362703 -0.01750741 0.2272702 0.08376289 0.07885324
-0.24454129 0.19076967 -0.024160992 -0.045365755 -0.013470786 -0.05681952 0.1246485 -0.63195765
0.14483301 -0.23117751 -0.37867036 -0.42589462 -0.033001024 -0.112043716 -0.053933125 -0.004565406
-0.16075964 0.16724925 -0.10941378 -0.36061054 0.061747964 0.047755532 0.022771535 0.73156893
-0.060012896 0.08896401 0.29507288 -0.63518924 -0.027697794 0.35030982 -0.024067871 -0.29658183
-0.11030431 0.022459188 -0.12251915 -0.24338233 -0.68019235 0.013348633 0.67269844 -3.540901e-05
0.36259225 0.5114392 -0.09585223 0.13180535 -0.083571605 0.05816171 -0.08522289 0.106186904
0.04205185 0.17904022 -0.07024878 0.25606903 -0.12775262 0.44354045 0.13903654 0.10496136
0.14959978 0.055248942 1.0702226 -0.26956415 -0.6400116 -0.0707839 0.15801378 0.41151816
0.21804628 -0.16409199 0.5008174 0.014861393 -0.2563403 0.2525417 0.56595623 -0.6313679
-0.21833579 -0.11124458 -0.07149708 0.5959878 -0.09329 0.41683137 0.12169772 -0.12595423
0.20575175 0.33161238 0.115613244 -0.040159415 0.07592878 0.0725429 0.109732695 -0.005003968
0.11352522 -0.29984945 -0.6270353 -0.49198514 0.023266153 0.029014165 0.0054520094 -0.21105675
00000000: bc28 0abe dd2e 9bbe 4367 56bd 2663 87be
00000010: 6049 5b3e 3fe9 0dbe 8d2f 7c3d fe43 bbbd
00000020: b387 833c 4def 483e bcb8 893e 07b8 023e
00000030: ad7d 07bd fa30 62be 0afc 9ebe 5dd2 c3be
00000040: ba98 0c3e f015 2abe a0ef 56be 87d3 b03d
00000050: ce0a 32bc e014 81bd e52a 683d e1f5 b7be
00000060: 89f8 59bd ebfd e8bc d8bd 42be 6961 f03e
00000070: b48f 763e 04ee 0abf 75d5 b73d 16e6 5a3f
00000080: 7bb2 d73d 679e 953d 0444 11bd 164b 893d
00000090: d75c a9bd af0e 5f3e 5a61 0ebe 434d 953e
000000a0: a21d 3b3d abdd df3e 2da7 e1bd a3f2 d43d
000000b0: 1ad3 72bd 9ee5 003e 2f8a 9abe b4fb 2a3e
000000c0: 5779 823e 3ded 0cbe 3fbd 7d3d 3aa6 573e
000000d0: 99e3 81be db38 3abd e6ca 963e 428c 923e
000000e0: 005c a83d b514 b73c 6c95 f83e f12f 383d
000000f0: 556d d13d 55a4 583e 529e 67be 070a e6bd
00000100: 22a1 003f 0d14 333e 9b3a de3d f341 1fbe
00000110: 2ce2 c3bc 4f86 3ebd 2b4f 09be 8733 3fbe
00000120: 0a72 debd 800d 86be aab3 8f3e 359a c23e
00000130: e4bc 91bc 81f1 ce3e bdb2 dd3d fe8c 263d
00000140: c7b4 87be e2bb d3be 6f77 933c a77d 59be
00000150: bb22 b63d c6ec 8fbe ca6f d73e 7988 de3d
00000160: 9562 2fbf f65b 3abd e083 253e 8cba 0a3d
00000170: dbf5 fbbd 3b6a 51be f60d 0cbe a0b3 eebc
00000180: 5558 833c 5dbf c4bc c8e0 78be 5a41 683e
00000190: 0ad9 87bd a8aa 023e 2e1d cbbe a6cb f4bd
000001a0: 5da5 44bf 02ac 5bbe dbc2 9cbe 5fe4 843e
000001b0: a76f 3f3e e30a 663d 7f18 88be 4512 463e
000001c0: f858 64be 27c3 753e 7e88 4abe 76e7 ffbd
000001d0: 4f4e e43d ea64 35be 54fc d2bc e16c 0e3d
000001e0: e320 d83d fc10 603e dba6 543c ac40 a3b9
000001f0: c584 233e 0db2 1fbd 6ab0 5cbd ceea 3cbe
00000200: 85d0 1e3e f04c 95be e248 733d 3b50 8abe
00000210: 960d 8ebe 74ab 0b3e 904b 1c3d fb26 8e3e
00000220: 9564 f53e 17c5 863e 9b76 b63e 3374 fbbe
00000230: 678e 0abf 1d25 1d3e 139f 833e 854c f83e
00000240: 7508 063f 2393 f23d 0e0f 9d3e 7e0f 82be
00000250: 4e7a 023d 7bd6 213e 26e0 5d3e 735a 16be
00000260: eaf2 cabe 2849 bebe 01f3 06be 0349 093f
00000270: b36b 8fbc 85b9 683e e18b ab3d cf7d a13d
00000280: 0869 7abe 2059 433e 46ed c5bc 71d1 39bd
00000290: 92b4 5cbc 96bb 68bd b647 ff3d fac7 21bf
000002a0: 1b4f 143e ccb9 6cbe 15e1 c1be dc0e dabe
000002b0: 152c 07bd 2d77 e5bd fbe8 5cbd 6799 95bb
000002c0: 2d9e 24be 6343 2b3e 5514 e0bd f2a1 b8be
000002d0: 6feb 7c3d 4e9b 433d 5f8b ba3c 1a48 3b3f
000002e0: 15d0 75bd c332 b63d cb13 973e c39b 22bf
000002f0: 7ce6 e2bc cf5b b33e fc29 c5bc 93d9 97be
00000300: 3ae7 e1bd 55fc b73c 52eb fabd 3839 79be
00000310: 1621 2ebf 3ab4 5a3c f735 2c3f 2384 14b8
00000320: b1a5 b93e aeed 023f 2d4e c4bd fbf7 063e
00000330: 9727 abbd f93a 6e3d 5789 aebd 8578 d93d
00000340: 903e 2c3d 5256 373e 98de 8fbd 7b1b 833e
00000350: 95d1 02be bc17 e33e 985f 0e3e fbf5 d63d
00000360: af30 193e b74c 623d 0efd 883f 5004 8abe
00000370: cdd7 23bf 26f7 90bd 5dce 213e 82b2 d23e
00000380: 8647 5f3e bb07 28be 9235 003f 337d 733c
00000390: 093f 83be 254d 813e 82e2 103f 54a1 21bf
000003a0: 6b93 5fbe 33d4 e3bd 106d 92bd a892 183f
000003b0: d40e bfbd ec6a d53e a73c f93d 25fa 00be
000003c0: 96b0 523e 19c9 a93e a3c6 ec3d 337e 24bd
000003d0: 8c80 9b3d 5f91 943d 89bb e03d 53f8 a3bb
000003e0: e97f e83d de85 99be 6385 20bf 7ae5 fbbe
000003f0: a998 be3c 1daf ed3c c5a6 b23b 431f 58be

linears.3.bias f4 [40]
-0.024216875 0.12984823 -0.022990685 0.032089006 -0.08011025 0.12398401 -0.03088349 -0.053461663
-0.1415574 -0.04599893 0.0066311373 0.03587366 0.08348444 0.07189681 0.07251207 0.039706886
-0.009572087 -0.07864792 0.03561039 0.12280622 -0.112722345 0.062697574 0.09145028 -0.14011559
-0.0893935 0.053126656 0.07592212 -0.087769225 0.026508486 -0.11173814 0.0049599824 -0.03741217
-0.053319726 0.11612943 -0.026223453 -0.04364572 0.067304656 0.00409981 0.028598458 0.015249238
00000000: 7862 c6bc eff6 043e f656 bcbc c36f 033d
00000010: d810 a4bd 54eb fd3d 5fff fcbc 9efa 5abd
00000020: 6cf4 10be 6069 3cbd 034a d93b 42f0 123d
00000030: e4f9 aa3d a23e 933d 3581 943d b0a3 223d
00000040: 3ed4 1cbc 2912 a1bd 33dc 113d d481 fb3d
00000050: f9da e6bd 9667 803d 494a bb3d 767a 0fbe
00000060: f013 b7bd 569b 593d 0e7d 9b3d 5ac0 b3bd
00000070: 5328 d93c f7d6 e4bd 5987 a23b 813d 19bd
00000080: c965 5abd 44d5 ed3d 91d2 d6bc dbc5 32bd
00000090: 06d7 893d b357 863b 5047 ea3c f1d7 793c

linears.4.weight f4 [40, 40]
0.099928364 0.08753939 -0.039634727 0.2157997 0.02775847 -0.12316974 -0.3712702 -0.15909098
-0.09798592 0.15603353 -0.43458453 -0.04911833 -0.09648409 0.09514473 -0.037466303 0.38498655
0.08121279 0.24277341 -0.0039414065 -0.36430955 -0.083877735 0.069047146 0.068229936 0.19968809
0.0045675244 0.16371778 -0.14962657 -0.19811442 0.06164792 -0.08313878 0.0065555866 0.23293412
-0.015577636 0.11021501 -0.005782386 0.14535548 0.33870393 0.219524 0.22691523 -0.08117478
0.29472348 -0.18306209 0.0091425795 -0.20893633 -0.18381588 -0.3511856 0.002911064 0.20970817
-0.044500858 0.19393167 0.16294456 0.33933675 -0.026444286 0.046221472 -0.0934828 0.09236008
0.1053109 -0.21300349 0.04915476 0.16415906 -0.20700343 -0.06876154 0.21139854 -0.04376709
-0.10483368 0.022787483 -0.2253478 0.19143854 -0.063693374 0.25683042 -0.3348839 0.16681603
0.15638953 -0.12981431 0.41455117 -0.18139905 0.22032885 -0.10917311 0.08114698 -0.11343031
0.07205965 0.124396116 -0.016338432 0.09963217 -0.15007651 0.37247396 0.17308718 -0.2720925
-0.264449 0.43540913 -0.33282983 -0.17205063 0.0014858132 -0.03663705 -0.30936563 -0.2685397
0.40110144 0.028243266 0.24971402 0.39377877 -0.16919154 0.184649 0.18214059 -0.49462733
-0.03339466 0.16502856 0.05754325 -0.0983243 0.115157664 -0.24535808 0.26729178 -0.29695272
0.18616968 0.37196642 -0.11509308 0.029785322 -0.17532259 -0.054126773 0.027881693 0.008559535
-0.07634705 0.047004886 0.0875292 0.03611792 0.17248122 -0.15810038 0.28919843 -0.14327532
-0.06309861 -0.13000168 -0.12322994 -0.06775615 0.0920132 0.10295703 0.077466026 0.13673972
-0.015353057 0.27792943 0.052064802 0.24363823 0.013699747 0.041695535 0.3728441 -0.2135597
0.2246606 -0.21798384 -0.15012679 -0.19087113 -0.19672146 -0.102076545 0.17980108 -0.11190304
-0.078028135 0.17627993 -0.28517085 0.58917487 0.18472058 -0.07177588 -0.1995451 -0.37780413
0.30372572 -0.52867645 0.21659228 -0.16552718 -0.30449077 -0.010976815 -0.26161888 0.40975156
-0.18960282 0.54556894 0.24259418 0.0071711866 -0.20390765 0.10390061 -0.23785715 0.40339795
0.4211877 -0.17972255 0.21474689 -0.011681364 -0.21827301 -0.22146308 0.053952742 0.100219175
0.30562332 -0.14834502 0.04074217 0.18591985 0.011637614 0.12912878 -0.078785084 0.21049194
0.397536 0.121861 0.37897864 0.027959837 0.18975556 -0.15539224 0.043894906 0.131906
0.054305274 0.063696295 0.23866305 -0.08998986 0.055498127 0.13454203 0.146411 0.3161129
0.26034868 -0.12406797 -0.23383151 0.0571479 -0.09631881 0.1893504 0.12396699 0.22402805
-0.05162104 0.13297856 -0.11844421 -0.1225962 -0.2579177 -0.05691259 -0.23077388 -0.18105878
-0.09322242 -0.3833338 -0.10056704 0.075818054 0.38912898 -0.36108634 0.07787814 0.012022391
-0.17925519 0.3150139 0.16254012 0.21286784 0.007645077 -0.18553197 -0.31834915 0.0965404
0.33560842 0.10786468 0.06924837 -0.11907362 -0.102522135 0.11331811 -0.055348564 0.07393798
0.18100001 0.28431994 0.2169077 0.17606995 0.098288335 0.18490095 -0.14497623 0.28831205
00000000: 3ea7 cc3d da47 b33d 0658 22bd 99fa 5c3e
00000010: bb65 e33c 6b40 fcbd 2117 bebe bfe8 22be
00000020: d8ac c8bd 41c7 1f3e dd81 debe 4d30 49bd
00000030: 7399 c5bd 3ddb c23d 4476 19bd f51c c53e
00000040: e452 a63d 9899 783e ea26 81bb c886 babe
00000050: 17c8 abbd 9768 8d3d 23bc 8b3d 097b 4c3e
00000060: 2cab 953b a2a5 273e b537 19be 82de 4abe
00000070: 8882 7c3d aa44 aabd 3fd0 d63b 4886 6e3e
00000080: 5739 7fbc 68b8 e13d 2b7a bdbb 11d8 143e
00000090: 9a6a ad3e e6ca 603e 775c 683e f73e a6bd
000000a0: ffe5 963e a174 3bbe c2ca 153c 68f3 55be
000000b0: 3b3a 3cbe 99ce b3be 8dc7 3e3b bdbd 563e
000000c0: 8846 36bd 0696 463e f0da 263e 8cbd ad3e
000000d0: b0a1 d8bc ba52 3d3d e973 bfbd 4827 bd3d
000000e0: 3ead d73d 961d 5abe 8056 493d 5019 283e
000000f0: b5f8 53be dad2 8cbd dc78 583e 1f45 33bd
00000100: 0ab3 d6bd d1ac ba3c 93c1 66be 7708 443e
00000110: ac71 82bd 477f 833e e775 abbe d2d1 2a3e
00000120: 9424 203e 0bee 04be 0d40 d43e acc0 39be
00000130: e39d 613e 2796 dfbd 6330 a63d 264e e8bd
00000140: 0394 933d 64c3 fe3d 2dd8 85bc f30b cc3d
00000150: a8ad 19be e8b4 be3e c43d 313e b54f 8bbe
00000160: dc65 87be f2ed de3e ac68 aabe 0a2e 30be
00000170: 9ebf c23a bb10 16bd 2c65 9ebe 097e 89be
00000180: 2b5d cd3e 6c5e e73c 08b5 7f3e 5f9d c93e
00000190: 8c40 2dbe a114 3d3e 1083 3a3e cb3f fdbe
000001a0: d7c8 08bd 3ffd 283e 79b2 6b3d 405e c9bd
000001b0: c8d7 eb3d 263f 7bbe 78da 883e 300a 98be
000001c0: 44a3 3e3e 6272 be3e ecb5 ebbd 5900 f43c
000001d0: c487 33be 09b4 5dbd 2668 e43c 4b3d 0c3c
000001e0: d85b 9cbd 3288 403d 8242 b33d 62f0 133d
000001f0: eb9e 303e 11e5 21be d111 943e c4b6 12be
00000200: d839 81bd 291f 05be fb5f fcbd bdc3 8abd
00000210: 6b71 bc3d 23db d23d 82a6 9e3d 7f05 0c3e
00000220: 638b 7bbc c44c 8e3e e741 553d 4d7c 793e
00000230: e774 603c f0c8 2a3d 6ce5 be3e 65af 5abe
00000240: 6e0d 663e 2837 5fbe d6ba 19be b973 43be
00000250: 5a71 49be 820d d1bd c61d 383e 6c2d e5bd
00000260: 37cd 9fbd ba82 343e ea01 92be 2ad4 163f
00000270: 6427 3d3e 3cff 92bd 8d55 4cbe 8b6f c1be
00000280: f081 9b3e 5757 07bf 5eca 5d3e f57f 29be
00000290: 37e6 9bbe 19d8 33bc e9f2 85be f5ca d13e
000002a0: 3e27 42be 68aa 0b3f 9c6a 783e 46fc ea3b
000002b0: 2bcd 50be d8c9 d43d d390 73be 2d8a ce3e
000002c0: eaa5 d73e 3009 38be 9ce6 5b3e 3163 3fbc
000002d0: f682 5fbe 38c7 62be 8dfd 5c3d b63f cd3d
000002e0: a97a 9c3e c2e7 17be 43e1 263d c661 3e3e
000002f0: b1ab 3e3c 563a 043e 135a a1bd 338b 573e
00000300: d789 cb3e 4392 f93d 7d09 c23e 070c e53c
00000310: 484f 423e 251f 1fbe 25cb 333d 5e12 073e
00000320: 356f 5e3d 3473 823d 1664 743e 9b4c b8bd
00000330: 0152 633d 63c5 093e c4ec 153e 8dd9 a13e
00000340: 6c4c 853e 5917 febd 8771 6fbe eb13 6a3d
00000350: cc42 c5bd 12e5 413e 68e2 fd3d 9c67 653e
00000360: 9570 53bd 882b 083e e192 f2bd b713 fbbd
00000370: ca0d 84be 2d1d 69bd fd4f 6cbe 7967 39be
00000380: 65eb bebd 5444 c4be 18f6 cdbd 7f46 9b3d
00000390: ea3b c73e 4fe0 b8be 937e 9f3d 90f9 443c
000003a0: ac8e 37be 8049 a13e eb70 263e 07fa 593e
000003b0: 8e83 fa3b 18fc 3dbe a9fe a2be f9b6 c53d
000003c0: ded4 ab3e 28e8 dc3d 17d2 8d3d dfdc f3bd
000003d0: 20f7 d1bd 5313 e83d 2db5 62bd cc6c 973d
000003e0: 1158 393e 6292 913e 0d1d 5e3e ae4b 343e
000003f0: 654b c93d ad56 3d3e a674 14be a39d 933e

linears.4.bias f4 [40]
0.06192366 0.0024220394 0.03677339 0.05634156 -0.044746418 0.021636598 0.035771765 -0.112836115
0.04350205 0.024185926 0.12469349 -0.090946935 0.0017327807 0.04834074 -0.03196863 -0.07132705
-0.11452137 -0.06704425 -0.008556242 -0.052236516 0.012634493 0.046937674 -0.11411421 -0.012774696
0.030561311 -0.05486523 -0.026024766 -0.017294513 0.06895266 -0.14270061 -0.03339473 -0.06424435
0.026313128 0.0034352876 -0.10392046 0.11261398 -0.037107706 0.009986619 -0.03229119 -0.027650483
00000000: aaa3 7d3d 14bb 1e3b b29f 163d 68c6 663d
00000010: 0548 37bd 3c3f b13c 6a85 123d 9f16 e7bd
00000020: 352f 323d 9021 c63c 4d5f ff3d 6342 babd
00000030: 791e e33a f100 463d 8af1 02bd eb13 92bd
00000040: 2e8a eabd 7f4e 89bd 7b2f 0cbc f5f5 55bd
00000050: e800 4f3c b841 403d b6b4 e9bd f54c 51bc
00000060: b75b fa3c 5dba 60bd e431 d5bc 39ad 8dbc
00000070: 0d37 8d3d 1c20 12be eac8 08bd 8b92 83bd
00000080: a18e d73c 9022 613b 40d4 d4bd 29a2 e63d
00000090: 40fe 17bd eb9e 233c c443 04bd 4483 e2bc

linears.5.weight f4 [40, 40]
-0.30164313 -0.19677621 0.47744915 0.19154193 0.25138476 0.06328666 -0.20779447 0.016897075
-0.2808276 -0.06838519 0.21060048 0.08122911 0.060618196 -0.27994826 -0.21221775 -0.42141464
-0.13657124 0.14932303 -0.06218513 -0.1603236 -0.09512784 -0.024166334 -0.24844112 0.290912
-0.048210658 0.3336169 0.027141057 -0.08764523 -0.28252596 -0.12887205 0.036536854 -0.09359628
0.07787418 -0.05707548 -0.22155145 0.22835493 -0.121351205 0.18772994 -0.19445413 -0.07465335
0.066586316 0.0955883 0.024762422 -0.327347 0.20272334 0.18823074 0.1567272 0.06290019
0.29502064 -0.14904012 0.11057038 -0.030327067 -0.1427052 -0.1664245 0.17048414 0.076560006
-0.035708282 0.018576626 0.08753861 -0.02573255 0.0845157 -0.29956108 -0.24995804 -0.1951274
0.16570917 -0.07047587 -0.12703651 0.14616024 0.015807297 -0.07734069 -0.110397734 -0.09524027
-0.077458926 -0.17720196 0.23036236 0.32255107 0.060039118 -0.52356774 0.108996555 0.15869823
-0.09011339 -0.042886674 -0.071639575 -0.117201835 -0.10530766 0.31215015 0.17240912 -0.057756227
0.3646406 0.38188753 0.18190494 0.1541628 -0.008518678 0.22944613 -0.120582856 0.05772946
-0.32626426 -0.1513911 0.12211476 -0.052073322 -0.117119476 -0.25546023 0.20853287 -0.23398519
0.075063 -0.30628443 0.05320608 0.05111449 -0.117645934 -0.14986233 -0.11803788 0.066717945
0.058598127 0.12291486 0.27949026 -0.18444721 -0.17352237 0.32187808 -0.18063721 -0.06753077
0.20532592 0.28898385 0.16532962 -0.0013107707 0.011412516 -0.19652447 0.3404018 0.28499347
-0.23534174 -0.05396992 -0.3417374 0.11527748 0.058264498 0.13810465 0.002877411 0.029389495
-0.08141659 -0.016411686 -0.4201787 0.046810318 -0.4041539 -0.1625181 0.26457712 0.03180325
-0.25806537 0.03843018 -0.1460915 0.043576818 -0.017650805 -0.030827837 0.19653656 0.19552247
0.0050754114 0.1819698 -0.10801659 -0.14119844 -0.32346424 -0.20734444 0.1856719 -0.02063484
-0.10839186 0.42174485 -0.20022309 0.2836339 0.2548746 0.09222119 0.41312242 0.07836946
-0.51797557 0.08476216 0.37473932 0.12063227 0.313478 0.044272903 -0.14117743 -0.0043779593
-0.22422035 -0.23602562 0.034000657 -0.09586076 0.06400793 0.2764205 0.1408932 0.011762434
-0.1011166 -0.39884028 -0.077526405 0.3244162 -0.2921203 0.14263633 0.018261887 -0.04506538
-0.22214438 -0.042794067 0.026358953 0.059764963 0.16407283 0.35289723 -0.15744868 -0.20921776
0.2784145 -0.23792998 -0.09557925 0.4922298 -0.28774205 -0.25337294 0.022961264 -0.24271913
-0.3142868 0.35052758 -0.020153752 -0.26829168 0.12676342 0.24354717 0.1463868 -0.077455
0.07416127 -0.008189382 -0.26030278 -0.19527212 -0.20555711 -0.11771131 -0.08269628 0.23421799
-0.1692322 0.13611412 -0.09597363 0.012352217 0.16267018 0.13968404 -0.1557769 0.11103369
-0.006894611 0.051884517 0.27893284 -0.039401885 -0.10709237 0.84725624 0.07539273 0.088511825
-0.18036705 0.25370082 -0.30877042 -0.02626024 0.111811444 0.043562617 -0.11777816 0.1542531
0.058661636 -0.18233599 -0.17013916 0.18204524 -0.031116163 -0.025754675 0.2549102 0.4540554
00000000: f870 9abe b47f 49be 3774 f43e 9123 443e
00000010: 81b5 803e 709c 813d 13c8 54be bc6b 8a3c
00000020: a3c8 8fbe 890d 8cbd a7a7 573e 735b a63d
00000030: c94a 783d 6155 8fbe 9c4f 59be a9c3 d7be
00000040: 55d9 0bbe 23e8 183e d6b5 7ebd df2b 24be
00000050: 63d2 c2bd 7af8 c5bc 5967 7ebe 6bf2 943e
00000060: 8a78 45bd d6cf aa3e ec56 de3c 587f b3bd
00000070: 3ea7 90be 09f7 03be aba7 153d 68af bfbd
00000080: 807c 9f3d fbc7 69bd 62de 62be e0d5 693e
00000090: fb86 f8bd 473c 403e fc1e 47be dbe3 98bd
000000a0: 685e 883d ccc3 c33d 90da ca3c 079a a7be
000000b0: b596 4f3e 8fbf 403e 187d 203e d1d1 803d
000000c0: f20c 973e f99d 18be b972 e23d 7870 f8bc
000000d0: 5021 12be 2f6b 2abe 6593 2e3e 7ecb 9c3d
000000e0: d942 12bd 022e 983c 7147 b33d 12cd d2bc
000000f0: 9116 ad3d 1260 99be 00f5 7fbe 7acf 47be
00000100: aaaf 293e a755 90bd dc15 02be 08ab 153e
00000110: 4e7e 813c cc64 9ebd 3518 e2bd 550d c3bd
00000120: c9a2 9ebd 6e74 35be 1ce4 6b3e 6a25 a53e
00000130: 94eb 753d 8908 06bf 9639 df3d ca81 223e
00000140: 5e8d b8bd f0a9 2fbd c5b7 92bd 8407 f0bd
00000150: 8bab d7bd 25d2 9f3e 048c 303e cb91 6cbd
00000160: 2cb2 ba3e c386 c33e 4a45 3a3e dadc 1d3e
00000170: ed91 0bbc edf3 6a3e 25f4 f6bd ba75 6c3d
00000180: 1c0c a7be 4506 1bbe 4e17 fa3d d64a 55bd
00000190: 56dc efbd afcb 82be a489 553e d099 6fbe
000001a0: a1ba 993d 50d1 9cbe 9eee 593d 6d5d 513d
000001b0: 5af0 f0bd 8375 19be d8bd f1bd 6ba3 883d
000001c0: 9704 703d c9ba fb3d 5919 8f3e bbdf 3cbe
000001d0: d9af 31be 34cd a43e f6f8 38be 934d 8abd
000001e0: f540 523e b1f5 933e 2b4c 293e 2bce abba
000001f0: 90fb 3a3c b63d 49be 2549 ae3e aaea 913e
00000200: 6dfd 70be 900f 5dbd 34f8 aebe 9916 ec3d
00000210: c1a6 6e3d 4e6b 0d3e f292 3c3b 3dc2 f03c
00000220: bebd a6bd cd71 86bc aa21 d7be 2dbc 3f3d
00000230: 43ed cebe 256b 26be a776 873e 2044 023d
00000240: 2521 84be f768 1d3d 0399 15be 9b7d 323d
00000250: 6c98 90bc a98a fcbc e140 493e 0b37 483e
00000260: a34f a63b 4b56 3a3e cd37 ddbd 5396 10be
00000270: 1b9d a5be 1a52 54be c620 3e3e 650a a9bc
00000280: 8dfc ddbd f1ee d73e 4807 4dbe 7638 913e
00000290: ec7e 823e 77de bc3d c884 d33e 2b80 a03d
000002a0: 0c9a 04bf c997 ad3d d5dd bf3e 0d0e f73d
000002b0: 3080 a03e 8157 353d d190 10be fc74 8fbb
000002c0: 059a 65be b3b0 71be 4644 0b3d a552 c4bd
000002d0: 9716 833d fd86 8d3e 4f46 103e 39b7 403c
000002e0: 3816 cfbd cb34 ccbe 2ac6 9ebd e119 a63e
000002f0: cb90 95be 420f 123e f499 953c 7a96 38bd
00000300: d179 63be d548 2fbd bbee d73c 1bcc 743d
00000310: b502 283e f2ae b43e 3a3a 21be 2e3d 56be
00000320: 588c 8e3e eba3 73be 0ebf c3bd 8b05 fc3e
00000330: ed52 93be 19ba 81be 4319 bc3c 5d8b 78be
00000340: 33ea a0be 5a78 b33e 7b19 a5bc 875d 89be
00000350: 45ce 013e 6e64 793e 6ce6 153e baa0 9ebd
00000360: dde1 973d c22c 06bc 6846 85be 6af5 47be
00000370: 907d 52be a112 f1bd ab5c a9bd d7d6 6f3e
00000380: 354b 2dbe 8061 0b3e d38d c4bd f460 4a3c
00000390: 0393 263e 5509 0f3e fb83 1fbe a265 e33d
000003a0: 30ec e1bb dc84 543d 49d0 8e3e df63 21bd
000003b0: 3f53 dbbd c9e5 583f 8167 9a3d b045 b53d
000003c0: 24b2 38be 13e5 813e 2817 9ebe b71f d7bc
000003d0: 66fd e43d b76e 323d ad35 f1bd 86f4 1d3e
000003e0: 2f47 703d 49b6 3abe f638 2ebe 116a 3a3e
000003f0: 53e7 febc 78fb d2bc 9783 823e f379 e83e

linears.5.bias f4 [40]
-0.023726644 0.010379954 -0.010439345 0.0046955324 0.09758447 -0.021762636 -0.015851542 -0.10234801
-0.02992264 -0.14261264 -0.03579169 0.00727952 0.005507043 0.016259052 -0.00053697475 0.031630404
-0.025992446 -0.053125896 -0.012863321 0.025158226 -0.012182696 0.043340426 -0.028251383 -0.055974685
-0.034090925 -0.008239225 0.06654688 0.02786983 0.009988571 0.033603147 -0.038031835 0.037814464
0.0022543112 -0.11849599 -0.01344141 -0.0334931 -0.058626954 -0.01227348 -0.020312995 -0.024683222
00000000: 615e c2bc af10 2a3c c909 2bbc fbdc 993b
00000010: 5eda c73d 8e47 b2bc 18db 81bc d59b d1bd
00000020: 5320 f5bc 0c09 12be 4f9a 12bd 0a89 ee3b
00000030: 6d74 b43b b431 853c c4c3 0cba e28e 013d
00000040: 1cee d4bc 8a9a 59bd aec0 52bc a018 ce3c
00000050: ee99 47bc bb85 313d 726f e7bc b645 65bd
00000060: eda2 0bbd d0fd 06bc bb49 883d 454f e43c
00000070: 1aa7 233c 74a3 093d 45c7 1bbd 57e3 1a3d
00000080: 11bd 133b 07ae f2bd 5c39 5cbc 1030 09bd
00000090: d122 70bd b516 49bc 7067 a6bc 7834 cabc

linears.6.weight f4 [1, 40]
0.2704135 -0.20440729 0.029502379 0.42681018 0.21633317 0.57319695 -0.5464124 -0.19371866
0.0108010555 -0.25782728 -0.27855733 0.2296453 0.2553153 0.21571499 -0.34474254 -0.023677548
-0.24280839 -0.3111723 -0.21263215 0.11706018 0.17689754 0.16656326 -0.13713425 -0.14313063
0.1453402 -0.19468328 -0.10784798 0.0026308817 -0.24959265 0.40364993 -0.16790955 0.46220997
-0.1566442 -0.19955869 -0.0035561586 -0.347296 -0.16128322 -0.32547727 0.17924705 0.19351916
00000000: a373 8a3e 2550 51be f9ae f13c dd86 da3e
00000010: 7186 5d3e 09bd 123f afe1 0bbf 2f5e 46be
00000020: e9f6 303c f001 84be 119f 8ebe 2328 6b3e
00000030: b0b8 823e 64e4 5c3e 1882 b0be 6bf7 c1bc
00000040: c3a2 78be fa51 9fbe 3ebc 59be 3fbd ef3d
00000050: a124 353e 8f8f 2a3e ec6c 0cbe d690 12be
00000060: 10d4 143e 0e5b 47be 67df dcbd df6a 2c3b
00000070: 3795 7fbe 34ab ce3e 7bf0 2bbe c9a6 ec3e
00000080: 5667 20be 1d59 4cbe 710e 69bb c8d0 b1be
00000090: 6e27 25be f5a4 a6be 8a8c 373e e329 463e

exp_avg f4 [40, 2]
4.418613e-05 6.378655e-05 -3.5179888e-05 1.896645e-06 -4.5422094e-06 0.0001000929 -0.00023019548 -1.3766785e-05
6.9314825e-05 -8.4551475e-06 -2.6955197e-05 6.158908e-05 -4.630316e-05 4.4251524e-06 -0.0002072032 -1.538669e-05
0.00031635424 0.00012498649 3.14178e-06 -8.4050895e-05 2.4568344e-05 9.401573e-05 2.8904706e-05 2.5818534e-05
0.000113312184 3.0138604e-05 8.456474e-05 2.245596e-05 -3.5677887e-05 4.9599275e-06 4.3402582e-05 1.2342122e-05
-4.5263107e-05 4.5963432e-05 -4.5798486e-05 -4.680801e-05 5.487923e-05 5.303614e-05 1.2562175e-05 9.677617e-06
2.9364028e-05 1.10445035e-05 6.3907384e-05 6.129496e-05 -4.9262628e-05 -0.00011890108 3.376689e-05 -5.8810747e-05
-3.537133e-05 2.0314012e-05 9.687815e-05 1.8674129e-05 3.0565207e-05 -5.7410623e-05 -3.6744023e-06 -0.00011589262
-2.2091877e-05 3.828629e-05 6.1412946e-05 -1.0918565e-05 0.0001065169 6.302964e-05 9.547658e-06 5.1679795e-05
-3.7304042e-05 -7.1089424e-05 1.804955e-05 1.5560881e-05 -6.0475e-05 -9.910197e-06 8.6939246e-05 0.000117333846
1.0446795e-05 1.26430805e-05 -0.0001480341 -2.1083644e-05 0.00012642382 -0.00012554588 -6.125928e-05 4.8040474e-05
00000000: 7f54 3938 25c5 8538 1e8e 13b8 3a90 fe35
00000010: 4869 98b6 f7e8 d138 a160 71b9 e4f7 66b7
00000020: 1d5d 9138 95da 0db7 d81d e2b7 6329 8138
00000030: a435 42b8 c57b 9436 af44 59b9 aa12 81b7
00000040: 59dc a539 ce0e 0339 5fd7 5236 7b44 b0b8
00000050: 1e18 ce37 502a c538 6278 f237 e194 d837
00000060: 04a2 ed38 29d2 fc37 5958 b138 cf5f bc37
00000070: d7a4 15b8 746d a636 2b0b 3638 0311 4f37
00000080: e4d8 3db8 dcc8 4038 c017 40b8 b853 44b8
00000090: 202e 6638 1f73 5e38 21c2 5237 0c5d 2237
000000a0: c552 f637 c84b 3937 0406 8638 7b8b 8038
000000b0: 589f 4eb8 885a f9b8 eca0 0d38 8fab 76b8
000000c0: ad5b 14b8 0268 aa37 102b cb38 63a6 9c37
000000d0: 2433 0038 30cc 70b8 c095 76b6 600b f3b8
000000e0: f251 b9b7 9795 2038 d3ca 8038 e12e 37b7
000000f0: d361 df38 c82e 8438 e12e 2037 c2c2 5838
00000100: e976 1cb8 d815 95b8 1d69 9737 bd88 8237
00000110: 89a6 7db8 f943 26b7 2753 b638 2111 f638
00000120: a544 2f37 9e1d 5437 9a39 1bb9 c8dc b0b7
00000130: a390 0439 f7a4 03b9 5378 80b8 117f 4938

exp_avg_sq f4 [40, 2]
0.10879043 0.031314466 0.01773615 0.0062817615 0.058371056 0.015446196 0.010143693 0.0066799205
0.0015593199 0.00014817058 0.10150805 0.031387944 0.06911418 0.015716748 4.9570866e-05 0.0021526301
0.0005803509 0.0039913105 0.035433993 0.009166967 0.026181115 0.0050173006 0.036986668 0.009925483
0.04602352 0.013543497 0.008965816 0.0012877531 0.008934584 0.003611084 0.060915433 0.018560076
0.045345392 0.014600228 0.0037968182 0.0006019119 0.02492027 0.0056998646 0.0008007776 0.0005363414
0.009592253 0.0030782705 0.008370848 0.00147951 0.11506346 0.030378232 0.049135435 0.013774102
0.0013505992 0.0004708089 0.039790444 0.009149418 0.009433014 0.0016103057 0.28379723 0.08680164
0.03333949 0.007892646 0.0020498892 0.0017561341 0.04618633 0.012859686 0.028666297 0.0068442877
0.018766832 0.0049356017 0.020310558 0.0054602493 0.0019448863 0.00055650505 0.0034311053 0.0005530849
0.0212835 0.0044131507 0.0061475257 0.0008580419 0.00013717555 0.0014556855 0.038021393 0.008817582
00000000: 84cd de3d 9943 003d 674b 913c 3cd7 cd3b
00000010: 7d16 6f3d 0b12 7d3c bb31 263c 3ce3 da3b
00000020: 1862 cc3a 3d5e 1b39 74e3 cf3d a590 003d
00000030: bc8b 8d3d 69c0 803c 50ea 4f38 2413 0d3b
00000040: b122 183a 8ac9 823b 3c23 113d 0c31 163c
00000050: c779 d63c 2b68 a43b 557f 173d 7e9e 223c
00000060: 2983 3c3d 8be5 5d3c 5ce5 123c d3c9 a83a
00000070: 5d62 123c f0a7 6c3b 7682 793d 4d0b 983c
00000080: 17bc 393d cb35 6f3c 0ad4 783b a0c9 1d3a
00000090: 9825 cc3c eec5 ba3b 46eb 513a 4399 0c3a
000000a0: d328 1d3c cfbc 493b e225 093c 1eec c13a
000000b0: 64a6 eb3d c5db f83c 3d42 493d c5ac 613c
000000c0: 9706 b13a e7d6 f639 4efb 223d 71e7 153c
000000d0: ee8c 1a3c e510 d33a df4d 913e 0fc5 b13d
000000e0: fd8e 083d 2850 013c 6f57 063b 152e e63a
000000f0: e12d 3d3d 6fb1 523c 95d5 ea3c 0c46 e03b
00000100: e6bc 993c d4ba a13b 5462 a63c e4eb b23b
00000110: 8eeb fe3a 6ce2 113a 65dc 603b e6fc 103a
00000120: bc5a ae3c 319c 903b 2f71 c93b 38ee 603a
00000130: c8d6 0f39 b3cc be3a 52bc 1b3d 9f77 103c

exp_avg f4 [40]
2.4142919e-05 6.7802193e-06 1.4629412e-05 -0.00030005933 7.809321e-05 -6.8891524e-05 -8.9931935e-05 -0.00043586205
0.0006563956 -7.0907386e-06 6.643131e-05 0.00012251176 0.00013953766 0.00014436406 -7.644366e-05 6.087788e-05
-5.481316e-05 7.3733963e-06 2.867711e-05 6.14504e-05 7.9992074e-05 0.00011049932 8.052149e-05 7.6845965e-05
-9.036805e-05 9.100214e-05 2.6380098e-05 0.00018236447 4.5574194e-05 0.00016460901 0.00019293679 2.0091293e-05
2.3514005e-05 4.9587943e-05 2.398626e-06 0.0001162069 3.8650935e-05 -0.0003347591 0.00019214855 -0.0001415382
00000000: 8686 ca37 a481 e336 d970 7537 4851 9db9
00000010: f9c5 a338 db79 90b8 d799 bcb8 6a84 e4b9
00000020: f711 2c3a fbec edb6 0a51 8b38 8076 0039
00000030: db50 1239 6f60 1739 6150 a0b8 2057 7f38
00000040: 2fe7 65b8 fe68 f736 a08f f037 efde 8038
00000050: 6bc1 a738 dfbb e738 a5dd a838 5d28 a138
00000060: fa83 bdb8 67d8 be38 d44a dd37 1739 3f39
00000070: eb26 3f38 e59a 2c39 134f 4a39 b989 a837
00000080: f13f c537 a6fc 4f38 15f8 2036 1bb4 f338
00000090: 201d 2238 9b82 afb9 7c7b 4939 df69 14b9

exp_avg_sq f4 [40]
0.12638141 0.023228958 0.06398684 0.024410319 0.001829612 0.12093054 0.07078959 0.0072832378
0.011970272 0.038440075 0.028960265 0.04145236 0.059515268 0.007690105 0.013830353 0.07196976
0.057112 0.0041906913 0.030917838 0.0017315523 0.012220661 0.0069733514 0.123640485 0.05368071
0.002933876 0.037874095 0.007860372 0.34901842 0.03292935 0.0062638544 0.061594035 0.03206576
0.023256065 0.022699645 0.0028650211 0.0037476853 0.025799632 0.0047436394 0.0055425027 0.039642178
00000000: 216a 013e a84a be3c 880b 833d 26f8 c73c
00000010: 97cf ef3a 6eaa f73d 22fa 903d 3aa8 ee3b
00000020: f61e 443c 5773 1d3d 143e ed3c f3c9 293d
00000030: 48c6 733d 47fd fb3b b498 623c e264 933d
00000040: 46ee 693d 1152 893b 6847 fd3c 41f5 e23a
00000050: 2b39 483c b680 e43b 3937 fd3d 4ee0 5b3d
00000060: 4546 403b de21 1b3d cac8 003c 8bb2 b23e
00000070: ede0 063d 0541 cd3b 074a 7c3d 6357 033d
00000080: 8183 be3c 9bf4 b93c 14c3 3b3b ba9b 753b
00000090: c059 d33c 8870 9b3b e29d b53b d65f 223d
