pdebench/models/newly_trained_models1D_Advection_Sols_beta4.0_PINN.pt-10000.pt (torch, 120453 bytes, 39 tensors)

linears.0.weight f4 [40, 2]
0.3304233 -0.15780534 0.0569206 0.21646576 -0.25577796 0.039855607 0.10804146 -0.16452362
0.03549214 -0.20958872 -0.022427533 0.24880621 0.2172124 -0.051123455 0.15570474 -0.20482185
-0.35101968 0.12874839 0.27329272 -0.4909609 0.33553517 0.03462254 0.15383455 0.057175063
-0.12687749 -0.006789329 -0.21106037 -0.15019518 -0.21010065 0.3365678 0.03158996 0.24656722
0.53621584 -0.33313027 -0.04183406 0.22212236 -0.42059815 0.11930411 0.016883865 0.09030676
0.43117192 -0.27363777 0.41452017 -0.02032043 -0.49350348 0.16131021 -0.4402376 0.20768633
-0.007277307 0.07756426 0.19431442 0.0893145 0.21283236 0.04538238 0.36396638 0.19142103
0.14304389 0.42365873 0.021848926 -0.49270016 -0.29021177 -0.29892275 -0.22909713 -0.14145015
0.21454167 0.10765253 0.4666693 -0.023155881 -0.25659728 -0.15815392 -0.376656 0.15120949
-0.13847928 -0.32380116 0.021106908 -0.4276803 0.006075352 0.098287724 0.34517583 -0.2257449
00000000: 3e2d a93e b997 21be 9325 693d 33a9 5d3e
00000010: 54f5 82be a23f 233d d744 dd3d e178 28be
00000020: 3560 113d 6d9e 56be f2b9 b7bc 0ec7 7e3e
00000030: ed6c 5e3e d466 51bd 1071 1f3e d2bc 51be
00000040: dab8 b3be 9ed6 033e 06ed 8b3e 3a5f fbbe
00000050: 44cb ab3e 5dd0 0d3d ce86 1d3e 6630 6a3d
00000060: 2cec 01be 0579 debb 3620 58be c4cc 19be
00000070: a024 57be 9d52 ac3e 7964 013d 1e7c 7c3e
00000080: 7145 093f 0d90 aabe 315a 2bbd 0b74 633e
00000090: a458 d7be b755 f43d 0850 8a3c c0f2 b83d
000000a0: 91c2 dc3e 401a 8cbe fd3b d43e 0877 a6bc
000000b0: 7dac fcbe 812e 253e d366 e1be baab 543e
000000c0: 7a76 eebb 03da 9e3d 5cfa 463e 85ea b63d
000000d0: baf0 593e e0e2 393d cd59 ba3e e003 443e
000000e0: 197a 123e cce9 d83e 85fc b23c 3243 fcbe
000000f0: a396 94be 670c 99be 7098 6abe 4fd8 10be
00000100: d0b0 5b3e ee78 dc3d 47ef ee3e 67b1 bdbc
00000110: b860 83be 1af3 21be 0ed9 c0be a9d6 1a3e
00000120: 83cd 0dbe 44c9 a5be 65e8 ac3c eaf8 dabe
00000130: bf13 c73b 134b c93d e3ba b03e ac29 67be

linears.0.bias f4 [40]
0.16626947 -0.16522996 0.12728366 0.114159875 0.10513108 -0.16074762 -0.09089016 0.048824053
-0.04586374 -0.09556367 -0.34762195 0.011824113 0.32417274 -0.009813148 -0.08331405 0.070736066
-0.0119856335 0.05849717 0.07561846 -0.14595361 -0.028170938 0.08211156 -0.15576565 0.25300863
0.052749503 -0.07868341 0.007478269 -0.004968325 0.054122534 -0.094050825 0.03032 0.008703924
-0.11963037 -0.030290592 0.106266685 -0.10217621 -0.04349773 0.07036414 0.039318953 -0.26130745
00000000: 8b42 2a3e 0b32 29be a656 023e a7cc e93d
00000010: f74e d73d 069b 24be 9f24 babd bbfb 473d
00000020: 9edb 3bbd e3b6 c3bd 81fb b1be edb9 413c
00000030: f8f9 a53e 53c7 20bc 8fa0 aabd 12de 903d
00000040: 645f 44bc bb9a 6f3d dadd 9a3d dd74 15be
00000050: bdc6 e6bc 1b2a a83d 0881 1fbe 598a 813e
00000060: dd0f 583d c524 a1bd 440c f53b 55cd a2bb
00000070: 97af 5d3d b89d c0bd a661 f83c e79a 0e3c
00000080: c400 f5bd fa23 f8bc 59a2 d93d c341 d1bd
00000090: ad2a 32bd 131b 903d e90c 213d 17ca 85be

linears.1.weight f4 [40, 40]
-0.20001619 0.14907515 0.014186267 0.30951098 -0.19645905 0.11324949 -0.102906324 -0.097854346
0.028065734 -0.14177996 -0.057991702 -0.010312136 -0.15508935 -0.21868806 -0.0047616246 0.118938185
0.10337841 0.18786387 0.18238617 -0.00977158 -0.0828738 -0.13611919 0.24888103 0.22165738
-0.07460083 0.027767431 -0.15914564 -0.33607253 0.043693803 -0.22787647 -0.05784279 0.21732649
0.061540753 0.09522816 -0.23508768 0.20516479 -0.13167511 -0.037849884 -0.045410644 0.35984454
0.17434353 -0.057058297 -0.16348873 0.271748 0.11070478 -0.020293199 0.21988842 -0.2926529
-0.22315401 -0.11181442 0.05731214 -0.023814665 0.2190396 -0.08059111 -0.027499128 -0.0888947
0.2566631 -0.21881333 -0.0060585886 -0.14344846 0.13090801 0.18725495 -0.20397466 0.0073779994
-0.15065204 0.20799057 0.19002448 0.06128508 -0.097114645 0.13377512 -0.12532997 -0.25209728
0.23000097 0.0338815 0.022980155 -0.2347257 0.010459923 -0.23592284 0.05721697 -0.06929992
-0.1554078 0.15256074 0.33216012 -0.16832508 -0.3526304 0.18314491 -0.3237646 -0.08790593
0.34600082 0.04769444 0.063991904 0.24787794 -0.22854736 0.051678665 -0.017041761 0.090697594
-0.13969009 -0.14941964 0.2340322 0.15184875 0.07043174 -0.40281382 0.4740259 -0.22042893
0.009381568 0.08185093 -0.17892934 -0.050195668 -0.38502836 -0.23439161 0.020701773 0.16060428
0.03161024 -0.2920169 0.010079971 0.29996362 0.25746697 0.042743612 -0.18821263 -0.0695971
0.289234 -0.26200095 0.02518847 -0.005577096 -0.037529256 0.031104857 0.10780796 0.048180427
-0.069636166 0.07853651 0.123355195 0.31766766 0.035298932 -0.044742644 -0.25242585 0.36444288
-0.051935073 0.122820705 0.07590478 -0.10909213 0.081738845 0.05898379 0.008007784 0.072691455
-0.031213187 0.31861246 0.06882282 0.19112207 0.15760747 -0.10427505 -0.13336009 -0.112960845
0.06497637 0.1276002 0.07038297 -0.1336791 -0.10819087 -0.17471373 -0.14794463 0.3382296
0.22757292 0.042648565 0.027478179 0.13916951 -0.13334456 0.027657004 0.18097843 0.6536543
0.1104518 0.11603974 0.07480718 0.10184984 -0.11642729 0.0555064 -0.069738194 -0.021532021
-0.071091466 -0.19056386 -0.051277284 0.18608242 0.11838841 0.33533105 -0.22887824 0.11780332
0.3922554 -0.047110353 0.06579557 0.062961236 -0.20041321 -0.17263949 -0.11074412 -0.0078073833
-0.0052836915 0.011550031 0.26156956 0.081088595 -0.17553942 0.20323852 -0.08856478 -0.08851799
0.04492564 -0.22061868 -0.34137037 0.01356828 0.18534115 -0.13865763 0.087139055 0.28382286
-0.064825356 0.081466466 0.09335715 -0.17797688 -0.22748822 -0.11608152 -0.063585244 0.11207438
-0.012927232 0.21100006 -0.16343774 -0.025529463 0.2433962 0.09713511 -0.062241796 -0.02976481
-0.23190238 -0.08960806 -0.05379837 0.08771371 -0.07020138 -0.11207799 0.064864665 -0.10776457
0.16213323 0.04058135 -0.21119879 0.13650815 -0.065097205 0.06340358 0.20231618 0.15452757
-0.048689555 -0.29061952 0.37800887 0.2888865 -0.094617404 -0.12777369 -0.16865213 -0.25314552
-0.024143025 0.11086355 -0.27951834 0.1295652 0.40133142 0.14017749 0.16010033 -0.073895365
00000000: 0bd1 4cbe 28a7 183e 846d 683c 3978 9e3e
00000010: 902c 49be 59ef e73d 8dc0 d2bd dc67 c8bd
00000020: 1cea e53c c42e 11be b588 6dbd 3cf4 28bc
00000030: becf 1ebe c3ef 5fbe 6707 9cbb dd95 f33d
00000040: 0fb8 d33d 635f 403e 71c3 3a3e fa18 20bc
00000050: bdb9 a9bd d462 0bbe abda 7e3e 27fa 623e
00000060: 52c8 98bd 8678 e33c 13f7 22be b311 acbe
00000070: 46f8 323d 7358 69be 90ec 6cbd d68a 5e3e
00000080: 2812 7c3d fb06 c33d d3ba 70be b816 523e
00000090: d7d5 06be 7b08 1bbd 8300 3abd 8b3d b83e
000000a0: 1c87 323e f6b5 69bd 9769 27be 8e22 8b3e
000000b0: 30b9 e23d ec3d a6bc 6e2a 613e 9ad6 95be
000000c0: 7c82 64be f5fe e4bd 22c0 6a3d f916 c3bc
000000d0: eb4b 603e f40c a5bd da45 e1bc 6d0e b6bd
000000e0: 5969 833e 9a10 60be 2087 c6bb 27e4 12be
000000f0: c00c 063e c3bf 3f3e bcde 50be 25c3 f13b
00000100: 8744 1abe 7bfb 543e c795 423e 1006 7b3d
00000110: 0be4 c6bd 58fc 083e 8056 00be e512 81be
00000120: 6085 6b3e 54c7 0a3d e140 bc3c ef5b 70be
00000130: 1960 2b3c c295 71be 575c 6a3d 1eed 8dbd
00000140: 3923 1fbe e238 1c3e e410 aa3e 695d 2cbe
00000150: f98b b4be 578a 3b3e 79c4 a5be 0608 b4bd
00000160: 0527 b13e 3f5b 433d 300e 833d b7d3 7d3e
00000170: 5208 6abe 02ad 533d 2a9b 8bbc a9bf b93d
00000180: eb0a 0fbe 7601 19be 23a6 6f3e 3d7e 1b3e
00000190: 843e 903d 9d3d cebe 86b3 f23e 1fb8 61be
000001a0: 26b5 193c 76a1 a73d 4139 37be f999 4dbd
000001b0: 7022 c5be 5b04 70be c496 a93c 7375 243e
000001c0: bd79 013d 3d83 95be 7626 253c d594 993e
000001d0: b6d2 833e ed13 2f3d d0ba 40be ed88 8ebd
000001e0: 7b16 943e fd24 86be 0d58 ce3c 12c0 b6bb
000001f0: 47b8 19bd 9dcf fe3c 6bca dc3d d758 453d
00000200: 689d 8ebd c0d7 a03d a6a1 fc3d 56a5 a23e
00000210: 9d95 103d 1044 37bd f63d 81be 4298 ba3e
00000220: dfb9 54bd 6c89 fb3d f773 9b3d b26b dfbd
00000230: b266 a73d fd98 713d 1533 033c 42df 943d
00000240: ccb2 ffbc 2c21 a33e fbf2 8c3d 81b5 433e
00000250: da63 213e 288e d5bd 8c8f 08be 0458 e7bd
00000260: 5512 853d a0a9 023e f224 903d 2de3 08be
00000270: 2d93 ddbd 28e8 32be cc7e 17be 6e2c ad3e
00000280: e008 693e 43b0 2e3d eb19 e13c 7482 0e3e
00000290: 7a8b 08be f190 e23c 6952 393e e355 273f
000002a0: 8e34 e23d 3ea6 ed3d 8234 993d a696 d03d
000002b0: 6e71 eebd ae5a 633d e6d2 8ebd ec63 b0bc
000002c0: 6798 91bd 2c23 43be 2108 52bd 648c 3e3e
000002d0: 9f75 f23d 83b0 ab3e 0f5f 6abe de42 f13d
000002e0: b3d5 c83e c9f6 40bd d4bf 863d d2f1 803d
000002f0: 1f39 4dbe 68c8 30be d0cd e2bd 14d5 ffbb
00000300: d122 adbb 573c 3d3c 72ec 853e c711 a63d
00000310: 9bc0 33be c21d 503e 7461 b5bd ec48 b5bd
00000320: f303 383d dde9 61be 19c8 aebe 7e4d 5e3c
00000330: 12ca 3d3e 44fc 0dbe f675 b23d 3b51 913e
00000340: 28c3 84bd e4d7 a63d 0932 bf3d 923f 36be
00000350: acf2 68be 26bc edbd fb38 82bd 4187 e53d
00000360: becc 53bc 6610 583e 395c 27be 2a23 d1bc
00000370: da3c 793e c6ee c63d 41f1 7ebd 55d5 f3bc
00000380: d177 6dbe 6e84 b7bd ae5b 5cbd 3fa3 b33d
00000390: bec5 8fbd 2589 e5bd c4d7 843d acb3 dcbd
000003a0: 4106 263e a138 263d 7f44 58be cbc8 0b3e
000003b0: af51 85bd bcd9 813d f92b 4f3e 7a3c 1e3e
000003c0: b36e 47bd 15cc 94be 618a c13e eee8 933e
000003d0: c5c6 c1bd 1bd7 02be 25b3 2cbe 4a9c 81be
000003e0: 98c7 c5bc 6e0c e33d 071d 8fbe bdac 043e
000003f0: 507b cd3e b08a 0f3e 57f1 233e 7456 97bd

linears.1.bias f4 [40]
-0.053017214 0.032399673 -0.12263475 0.020934058 0.009345916 0.0106136305 0.03223891 0.2371268
0.089494035 0.11440859 -0.013194261 0.082440905 -0.23690748 0.06080796 -0.01862957 -0.034267075
0.0012900226 0.106888 -0.00057125435 -0.04385748 -0.04697368 0.048859347 -0.08318193 -0.12981805
-0.1758288 -0.08900615 0.07016207 -0.12507701 -0.10170581 0.25786024 0.07939044 0.025379637
0.20353726 0.031126361 0.050360028 -0.018662792 -0.07030318 -0.06022119 -0.15532164 -0.07358785
00000000: 9428 59bd 85b5 043d ee27 fbbd e77d ab3c
00000010: 9d1f 193c cbe4 2d3c f30c 043d 5ed1 723e
00000020: a648 b73d 0d4f ea3d be2c 58bc c7d6 a83d
00000030: e097 72be c411 793d 0a9d 98bc a25b 0cbd
00000040: fa15 a93a 19e8 da3d 3bc0 15ba e7a3 33bd
00000050: 7967 40bd bd20 483d 4a5b aabd 06ef 04be
00000060: 770c 34be db48 b6bd 22b1 8f3d 3014 00be
00000070: 234b d0bd 4206 843e 7497 a23d f5e8 cf3c
00000080: 126c 503e b6fc fe3c 5146 4e3d b6e2 98bc
00000090: 1dfb 8fbd 7faa 76bd a30c 1fbe 3ab5 96bd

linears.2.weight f4 [40, 40]
0.16470064 -0.0073364233 0.4446411 -0.020919733 -0.023715077 -0.23217951 0.34011802 0.08056458
0.12490013 -0.4053784 -0.011931835 0.14404233 -0.106008016 -0.02714657 0.016331961 0.033467036
0.00041286295 -0.35810685 -0.35280934 0.4299901 -0.1180062 0.111285865 0.07721666 0.06039238
-0.033104703 -0.30484754 0.07688158 0.08310526 0.8016844 0.04779609 0.26947135 -0.13978307
-0.48219895 -0.23913181 -0.064926066 0.1376937 -0.023248646 0.15795591 0.22389804 0.28009325
-0.19316757 0.016470704 0.07690342 -0.025389837 0.013700173 -0.17346399 -0.38365486 -0.80721426
-0.053133532 -0.06645967 -0.053223476 0.053300906 0.3476126 -0.16102722 -0.17306249 0.25237292
0.38175884 -0.09153096 0.25264782 0.047614902 0.076053865 0.0335488 0.19578914 0.67770517
0.36707547 0.2236929 -0.14846696 0.2817028 -0.12144889 -0.1522955 -0.41632473 -0.4281201
-0.44859895 0.004881865 -0.129986 0.24661522 0.25063786 0.15797025 0.19953364 -0.06198602
0.23264222 -0.22774561 0.11395488 -0.08205222 0.041439634 -0.21432395 0.35314974 0.3749037
-0.08281239 -0.34756678 0.06950377 -0.09293949 0.107020974 -0.22354384 0.1542504 -0.13202143
0.032068957 -0.60853124 -0.527433 0.23425138 -0.22894603 0.09462551 -0.13817239 -0.16619328
-0.12460811 -0.14430074 0.14870088 0.39574447 0.55029094 0.19321792 0.18127201 -0.0029274714
-0.11820796 0.20362958 0.031383526 -0.4506411 0.11333689 0.11638427 0.23277953 0.5484983
0.03408415 0.09269812 -0.010914685 -0.02067231 -0.32503 -0.28450817 0.2566253 0.277943
-0.107971825 -0.38500264 0.118627094 -0.08506703 0.12538294 0.035934873 -0.42432 0.30115426
-0.16944548 0.0155107705 -0.19722211 -0.027685376 -0.15037246 -0.118203826 -0.1823833 -0.032424685
0.18977599 0.06898171 -0.0019512774 -0.060993567 -0.21774378 0.32673088 -0.02958958 -0.0746843
-0.1666011 0.05576841 0.35704908 0.10097242 0.17460597 0.3603319 -0.12336337 0.38012186
0.3086316 -0.23838699 0.1808156 -0.051399555 -0.11124892 -0.16199188 0.058641832 -0.16233376
-0.3603296 -0.30912244 0.3251074 0.07406507 -0.20482324 -0.12203083 0.20783016 0.07184686
0.20212017 -0.09618078 -0.035402402 0.16523404 0.0428415 0.1807768 -0.13463235 0.006123035
0.095061496 0.13953194 -0.112010725 0.07991006 0.14743033 0.08159555 0.2912392 0.0069393055
0.00087117386 0.118389785 0.10749562 -0.0790818 0.3547383 -0.15675096 0.3949245 0.26940712
0.035804726 -0.07068158 -0.06533236 -0.102208495 -0.15788038 0.10531755 0.45500392 0.21373871
0.017568668 -0.009922061 -0.061783273 0.083658695 -0.06808346 0.061368436 -0.029006748 0.14103818
0.111920506 -0.14952652 -0.033316135 0.18917935 0.075202554 0.06446275 -0.01838052 -0.12133175
-0.22377089 -0.3382456 -0.0841773 -0.16190381 0.026246447 0.057384264 0.014357211 -0.0926297
-0.0008322445 0.3758965 0.00024621966 -0.08625481 0.08269977 -0.030688288 0.042869378 -0.08390683
-0.04600797 -0.16457625 0.32261583 -0.02509092 -0.25592852 -0.12320616 -0.13230671 0.13505962
-0.10347964 -0.350554 -0.15195179 -0.40963277 0.024815658 -0.011052929 -0.22662486 0.057118844
00000000: 49a7 283e 6166 f0bb 00a8 e33e dc5f abbc
00000010: 1f46 c2bc 77c0 6dbe f323 ae3e 0bff a43d
00000020: a4cb ff3d c28d cfbe be7d 43bc d57f 133e
00000030: bb1a d9bd 7c62 debc 9bca 853c bb14 093d
00000040: 8775 d839 c859 b7be 6da3 b4be aa27 dc3e
00000050: 3cad f1bd d8e9 e33d c523 9e3d 005e 773d
00000060: cc98 07bd fa14 9cbe 1774 9d3d 1733 aa3d
00000070: 303b 4d3f d5c5 433d 26f8 893e 4b23 0fbe
00000080: c8e2 f6be f8de 74be f5f7 84bd 94ff 0c3e
00000090: f273 bebc 32bf 213e 8745 653e 6268 8f3e
000000a0: b8cd 45be 92ed 863c 8a7f 9d3d 59fe cfbc
000000b0: b176 603c 8ba0 31be 696e c4be 98a5 4ebf
000000c0: 8ca2 59bd 021c 88bd dc00 5abd 0d52 5a3d
000000d0: 47fa b13e 52e4 24be 4b37 31be 0637 813e
000000e0: e575 c33e 9574 bbbd 0e5b 813e d807 433d
000000f0: 21c2 9b3d 776a 093d f37c 483e 167e 2d3f
00000100: 51f1 bb3e c00f 653e b907 18be 593b 903e
00000110: 32ba f8bd 5af3 1bbe 8428 d5be 8f32 dbbe
00000120: c3ae e5be 0df8 9f3b 0d1b 05be b388 7c3e
00000130: 9b53 803e f4c2 213e 8c52 4c3e 0ee5 7dbd
00000140: c339 6e3e 2536 69be 2d61 e93d ff0a a8bd
00000150: 9bbc 293d bd77 5bbe 0bd0 b43e 61f3 bf3e
00000160: 8b99 a9bd 46f4 b1be fe57 8e3d 0f57 bebd
00000170: d02d db3d ade8 64be d1f3 1d3e a030 07be
00000180: bd5a 033d b4c8 1bbf d905 07bf 98df 6f3e
00000190: d470 6abe 05cb c13d 107d 0dbe 922e 2abe
000001a0: 8932 ffbd 93c3 13be 0b45 183e 059f ca3e
000001b0: dedf 0c3f ebda 453e 5f9f 393e d2da 3fbb
000001c0: 0417 f2bd 4684 503e 038c 003d 6eba e6be
000001d0: 2c1d e83d e05a ee3d c25d 6e3e 626a 0c3f
000001e0: d29b 0b3d 83d8 bd3d 82d3 32bc fa58 a9bc
000001f0: 556a a6be 0eab 91be 6464 833e 8b4e 8e3e
00000200: 5520 ddbd 111f c5be c3f2 f23d 9f37 aebd
00000210: 6364 003e 7230 133d 7940 d9be e430 9a3e
00000220: 1e83 2dbe e320 7e3c 98f4 49be 71cc e2bc
00000230: 3dfb 19be d914 f2bd b0c2 3abe bfcf 04bd
00000240: a354 423e 4846 8d3d 01c2 ffba 64d4 79bd
00000250: 3af8 5ebe 4549 a73e d965 f2bc 15f4 98bd
00000260: 7b99 2abe 6b6d 643d 23cf b63e a1ca ce3d
00000270: e8cb 323e 6c7d b83e efa5 fcbd 559f c23e
00000280: f604 9e3e b81b 74be ba27 393e 5788 52bd
00000290: 79d6 e3bd 33e1 25be 6b32 703d d23a 26be
000002a0: 1f7d b8be 4c45 9ebe 7a74 a63e 6daf 973d
000002b0: 2fbd 51be 4deb f9bd 6ed1 543e 7224 933d
000002c0: 97f8 4e3e 6efa c4bd 1c02 11bd 1d33 293e
000002d0: 927a 2f3d 8e1d 393e 10dd 09be bea3 c83b
000002e0: 9aaf c23d 76e1 0e3e e165 e5bd e3a7 a33d
000002f0: faf7 163e 911b a73d 4e1d 953e 1d63 e33b
00000300: 7d5f 643a 5876 f23d aa26 dc3d a4f5 a1bd
00000310: 42a0 b53e 5383 20be 8b33 ca3e bbef 893e
00000320: faa7 123d 81c1 90bd f9cc 85bd b052 d1bd
00000330: 65ab 21be bab0 d73d 46f6 e83e 52de 5a3e
00000340: 2bec 8f3c 2490 22bc 7510 7dbd 4055 ab3d
00000350: 576f 8bbd 785d 7b3d 8f9f edbc 506c 103e
00000360: 9436 e53d 7b1d 19be 8076 08bd 3bb8 413e
00000370: cc03 9a3d 0c05 843d bf92 96bc c87c f8bd
00000380: 3224 65be 872e adbe 2665 acbd 1dca 25be
00000390: ca02 d73c c30b 6b3d 823a 6b3c a4b4 bdbd
000003a0: fc2a 5aba 8275 c03e 0b17 8139 5da6 b0bd
000003b0: 7f5e a93d 0166 fbbc cd97 2f3d 58d7 abbd
000003c0: da72 3cbd ad86 28be e72d a53e 798b cdbc
000003d0: 1009 83be 8353 fcbd 697b 07be 124d 0a3e
000003e0: 22ed d3bd d07b b3be 4099 1bbe 63bb d1be
000003f0: 354a cb3c 5817 35bc 5910 68be 73f5 693d

linears.2.bias f4 [40]
-0.067125686 -0.20574574 -0.05500567 -0.034900334 -0.07534959 0.0060586184 -0.04469469 -0.10562006
0.034606107 0.0463834 0.050818894 0.06828403 -0.032697637 -0.019731332 -0.005495866 -0.19610564
0.045948748 -0.05685351 0.025879858 0.04073605 0.008161402 -0.01712504 0.07567839 -0.05421321
0.036176693 -0.04835438 -0.06759551 0.06377024 0.068131395 -0.0404842 0.0050151767 -0.027644299
-0.03362075 0.012142113 -0.06814538 -0.013609367 0.031058507 -0.09569102 -0.043736234 -0.07696845
00000000: 3179 89bd 03af 52be a04d 61bd a7f3 0ebd
00000010: e350 9abd 6087 c63b c711 37bd 544f d8bd
00000020: 22bf 0d3d 85fc 3d3d 7927 503d 7fd8 8b3d
00000030: f5ed 05bd 9aa3 a1bc aa16 b4bb ebcf 48be
00000040: c134 3c3d 3adf 68bd ff01 d43c d8da 263d
00000050: 67b7 053c d049 8cbc 46fd 9a3d ac0e 5ebd
00000060: 032e 143d 3e0f 46bd 846f 8abd f999 823d
00000070: 7988 8b3d c3d2 25bd 5a56 a43b 4c76 e2bc
00000080: e9b5 09bd b7ef 463c ce8f 8bbd d3f9 5ebc
00000090: 696e fe3c a7f9 c3bd c424 33bd a2a1 9dbd

linears.3.weight f4 [40, 40]
-0.024535714 -0.12712815 -0.1336145 0.16125256 0.28956383 0.07791904 -0.17941631 -0.2739017
-0.3861432 0.1089661 0.0028834166 -0.16387601 0.17332873 0.03931957 0.20210907 -0.21481518
0.0011116687 -0.14567582 -0.1402457 0.17541511 0.07858594 0.18136549 0.51447845 0.056821506
-0.093734205 0.04991602 -0.09078834 0.067795 -0.2077387 0.034009743 -0.034962803 -0.021294523
-0.04065854 -0.07377976 0.062416855 -0.045196995 -0.13169387 -0.4301262 -0.25124696 -0.059597448
-0.23715207 -0.069009 -0.09187495 -0.29993886 -0.30562073 0.27916718 0.043154947 0.24536373
0.05618308 -0.23402378 -0.06499761 0.2789135 -0.19314295 0.14515282 -0.15603204 -0.2231265
-0.17867814 -0.18852738 -0.0026847196 -0.09990608 -0.16657111 0.054752443 0.23420054 -0.014584864
0.21736422 0.19405812 -0.29355133 0.21240243 0.45404145 0.17435 -0.064821266 -0.18946424
-0.26338518 0.07929593 -0.14431858 -0.36124158 -0.19884506 0.023130057 0.15373933 -0.0814761
0.050091535 0.14798754 -0.17773144 0.1835093 -0.2648146 -0.14903736 0.15580423 -0.0104739135
0.3210145 -0.044418123 0.053316183 0.25949267 -0.227372 0.38667446 0.1067025 -0.147026
-0.039442204 0.0262143 -0.4265576 -0.1535129 -0.035590436 -0.391868 0.123404235 0.1345247
0.15483415 -0.086213216 -0.31456846 0.13875525 0.28034765 0.06264734 0.3603815 -0.14815983
0.11562844 -0.23213722 -0.109409705 -0.07526509 -0.031614766 -0.110299625 -0.34881553 -0.14779013
0.13236095 0.02287785 0.0063184835 -0.14520198 -0.17938739 0.09945449 0.11817717 0.24054265
0.08259306 -0.18075025 -0.02380277 -0.10110478 -0.16268003 0.15383106 0.04638406 0.21134329
0.05541437 -0.21911459 0.005607167 0.25625664 -0.089334376 -0.1396584 -0.16039228 -0.09944591
0.10745271 0.2321368 0.071567744 0.015463201 -0.11253133 0.35172096 -0.114370815 -0.32893038
-0.17637753 0.29428858 -0.3118409 -0.050467633 0.064581156 0.15120053 0.38426813 -0.08832733
-0.043149393 -0.24752735 0.09273067 0.13445926 0.15894888 0.2127226 0.22779292 -0.12926267
-0.18030208 -0.20273712 -0.066100344 -0.28854042 -0.058942955 -0.10324433 0.1369516 -0.25657845
0.76172394 0.24817866 0.12856539 0.13690045 0.038470823 0.060442172 0.09041929 0.029672008
-0.3451187 -0.5012122 0.15650712 -0.08381049 -0.3977215 0.07667581 -0.0656226 0.03398822
-0.3832927 -0.16981897 -0.121686436 0.18415953 0.026362699 -0.119254075 -0.1313373 0.22203563
-0.72337127 0.046385664 -0.27456608 -0.25034314 -0.012022024 0.21673475 -0.35594103 -0.14212254
-0.13248715 0.2499789 0.13314037 0.33095977 -0.12663496 0.11153637 -0.09387299 0.20507012
-0.10511483 0.2308384 -0.0033804579 0.05507952 -0.029228507 0.006432728 0.13753217 0.041229323
0.10394626 0.08557153 -0.31559345 0.46170267 0.070871055 -0.07247659 0.12411823 -0.071152456
-0.26994658 0.0003757002 0.038332824 -0.14528239 0.119937845 -0.02362888 -0.06005553 -0.1729634
-0.16712822 0.2322017 -0.6641914 -0.14798544 0.041062396 -0.12274798 -0.28307155 -0.0007942375
-0.00019497276 -0.12607285 -0.028650211 0.41605693 -0.56713647 0.45860705 -0.52848107 0.27550814
00000000: 1fff c8bc e22d 02be 3dd2 08be 641f 253e
00000010: b641 943e 0594 9f3d e9b8 37be d83c 8cbe
00000020: 90b4 c5be 9e29 df3d b4f7 3c3b 1dcf 27be
00000030: 167d 313e 8f0d 213d aef5 4e3e 83f8 5bbe
00000040: 69b5 913a 0b2c 15be 929c 0fbe 05a0 333e
00000050: aaf1 a03d e0b7 393e dcb4 033f abbd 683d
00000060: b8f7 bfbd be74 4c3d 3def b9bd 1bd8 8a3d
00000070: 74b9 54be cd4d 0b3d 2835 0fbd da71 aebc
00000080: 9289 26bd d819 97bd d1a8 7f3d 7c20 39bd
00000090: c2da 06be 8039 dcbe 71a3 80be 741c 74bd
000000a0: fed7 72be 9754 8dbd ef28 bcbd 9691 99be
000000b0: 527a 9cbe 00ef 8e3e 3ec3 303d a140 7b3e
000000c0: 3b20 663d eea3 6fbe 781d 85bd c0cd 8e3e
000000d0: 44c7 45be f1a2 143e ddc6 1fbe 467b 64be
000000e0: 67f7 36be 520d 41be 1ff2 2fbb 8f9b ccbd
000000f0: 9e91 2abe 1944 603d 44d2 6f3e 5af5 6ebc
00000100: ba94 5e3e 2cb7 463e 5c4c 96be 0680 593e
00000110: 1f78 e83e ce88 323e 03c1 84bd ea02 42be
00000120: 6cda 86be e865 a23d 40c8 13be a8f4 b8be
00000130: 0a9e 4bbe 3f7b bd3c d86d 1d3e f1dc a6bd
00000140: c82c 4d3d 0c8a 173e 3bff 35be dde9 3b3e
00000150: c795 87be 409d 18be 258b 1f3e c79a 2bbc
00000160: 035c a43e c7ef 35bd 1262 5a3d 39dc 843e
00000170: 35d4 68be 32fa c53e d786 da3d fc8d 16be
00000180: 268e 21bd 5fbf d63c c265 dabe 7c32 1dbe
00000190: 47c7 11bd eca2 c8be 5cbb fc3d d8c0 093e
000001a0: d88c 1e3e 8e90 b0bd 1e0f a1be db15 0e3e
000001b0: ba89 8f3e 404d 803d ed83 b83e 36b7 17be
000001c0: 9bce ec3d 61b5 6dbe 3212 e0bd 9524 9abd
000001d0: 7c7e 01bd c5e4 e1bd f397 b2be 4c56 17be
000001e0: a189 073e 546a bb3c 480b cf3b d4af 14be
000001f0: 54b1 37be ccae cb3d df06 f23d d050 763e
00000200: 8d26 a93d 9816 39be 07fe c2bc 0610 cfbd
00000210: 9895 26be e485 1d3e 36fd 3d3d 606a 583e
00000220: 2efa 623d 935f 60be 53bc b73b 1234 833e
00000230: f1f4 b6bd 9d02 0fbe e03d 24be 4caa cbbd
00000240: 2b10 dc3d 45b5 6d3e 1c92 923d 5e59 7d3c
00000250: d376 e6bd c514 b43e 3f3b eabd 9069 a8be
00000260: 509c 34be feac 963e 9ca9 9fbe 26b7 4ebd
00000270: 2043 843d 50d4 1a3e cbbe c43e f6e4 b4bd
00000280: 6bbd 30bd cf77 7dbe 94e9 bd3d b0af 093e
00000290: 7fc3 223e f4d3 593e 8c42 693e 6f5d 04be
000002a0: 1ca1 38be 529a 4fbe 9e5f 87bd 92bb 93be
000002b0: 2b6e 71bd c371 d3bd 0a3d 0c3e 405e 83be
000002c0: 5700 433f 8c22 7e3e a5a6 033e a22f 0c3e
000002d0: 9593 1d3d 3692 773d c02d b93d b612 f33c
000002e0: 66b3 b0be 714f 00bf 6743 203e d6a4 abbd
000002f0: 27a2 cbbe 3508 9d3d 2465 86bd 3b37 0b3d
00000300: f13e c4be 06e5 2dbe bd36 f9bd 5194 3c3e
00000310: 96f6 d73c 7b3b f4bd 497d 06be 4f5d 633e
00000320: dc2e 39bf e5fe 3d3d ed93 8cbe fa2c 80be
00000330: 06f8 44bc b7ef 5d3e e73d b6be 9288 11be
00000340: b6aa 07be 78fa 7f3e f355 083e 8f73 a93e
00000350: 98ac 01be 2e6d e43d 7b40 c0bd e7fd 513e
00000360: 7246 d7bd e760 6c3e ac8a 5dbb 109b 613d
00000370: 9f70 efbc a2c9 d23b 3cd5 0c3e 14e0 283d
00000380: c7e1 d43d 2040 af3d 7795 a1be 4b64 ec3e
00000390: d824 913d 9b6e 94bd b331 fe3d 61b8 91bd
000003a0: 7036 8abe a1f9 c439 e102 1d3d e8c4 14be
000003b0: f9a1 f53d 5a91 c1bc cafc 75bd 511d 31be
000003c0: a923 2bbe 48c6 6d3e 7308 2abf 7f89 17be
000003d0: 0b31 283d 4b63 fbbd c1ee 90be 6034 50ba
000003e0: 9a71 4cb9 3e19 01be d9b3 eabc 6a05 d53e
000003f0: db2f 11bf 8bce ea3e 894a 07bf 670f 8d3e

linears.3.bias f4 [40]
0.013569148 0.050961714 0.021765571 0.03257256 0.003754397 0.002363167 -0.09532479 0.07192535
-0.022826793 0.06010793 -0.0046470566 0.014932738 0.018110922 -0.018906755 0.0096638845 -0.029624179
0.018391477 -0.027593877 0.032028858 0.018016929 0.03555497 -0.032209232 0.008777279 0.022672273
-0.05972293 0.010798131 0.02819134 -0.041335534 0.003080877 -0.0319673 -0.022268476 -0.098652445
-0.02943636 -0.007891351 0.0017368657 0.023199514 -0.058327526 0.024331791 -0.11589925 -0.032350536
00000000: 2251 5e3c 3bbd 503d b64d b23c ce6a 053d
00000010: 540c 763b 5ddf 1a3b a539 c3bd 994d 933d
00000020: 41ff babc bc33 763d 5646 98bb 71a8 743c
00000030: 5b5d 943c 57e2 9abc 4555 1e3c 68ae f2bc
00000040: b9a9 963c 8e0c e2bc b130 033d 3d98 933c
00000050: 17a2 113d d4ed 03bd 94ce 0f3c 34bb b93c
00000060: 08a0 74bd a5ea 303c 86f1 e63c 734f 29bd
00000070: 8ae8 493b 25f0 02bd 616c b6bc 4b0a cabd
00000080: 8524 f1bc ba4a 01bc 8ba7 e33a e80c be3c
00000090: d8e8 6ebd 7753 c73c 965c edbd ff81 04bd

linears.4.weight f4 [40, 40]
0.067223094 -0.17645259 -0.23037627 -0.21169178 0.025011579 -0.07989228 -0.15439324 -0.07938317
-0.23716514 -0.011054337 0.29981992 0.05174902 0.092863195 -0.03382735 -0.14083764 0.118811935
0.18081316 -0.0075311195 -0.250766 -0.24083076 -0.077097744 0.30514175 0.06518465 -0.08253955
-0.1257029 -0.17221291 -0.042841308 -0.02782018 -0.016251804 -0.19022986 0.4621315 0.014325489
0.26055405 -0.06873949 0.041212253 -0.18408707 0.13622963 -0.010564851 -0.015609356 0.008411697
-0.21207592 -0.0051383693 -0.13438328 0.32407954 -0.4211426 0.2677244 0.1760468 0.08887412
0.023734814 0.07497066 0.027212827 0.12436727 -0.066563986 -0.0005723419 -0.23197334 0.0023334527
-0.08423289 0.08912098 0.05051357 -0.00076753175 0.09640344 -0.18521212 -0.09184569 -0.008810109
0.016048333 0.0917122 0.042932384 -0.045640618 -0.005189551 0.0721448 -0.14843476 0.033327404
0.0018560962 0.11562585 0.25503477 0.32246542 0.112870626 -0.12297286 -0.10813055 -0.34799317
0.016799768 0.17426169 -0.010186083 0.32414588 -0.019738544 -0.039487604 0.055145346 -0.1467156
-0.29532564 -0.14301889 -0.25896078 -0.27926615 0.08478169 -0.044344097 0.11357216 -0.18352108
0.03521684 -0.015166526 -0.02935003 0.067620955 0.013619044 0.14560832 -0.072403476 0.120316006
-0.17351277 0.21210618 0.17316669 0.087838106 0.046445087 0.25138453 -0.45697513 -0.112670645
0.027865501 0.12752059 0.2736489 0.06508249 -0.028524505 -0.037830085 0.24174412 0.04115101
-0.119498946 0.44341132 -0.13186733 0.07144302 -0.13347934 0.28721482 0.04946845 0.3449063
-0.263356 -0.03476723 -0.05384377 0.005565368 0.30475467 -0.015735142 0.14239796 -0.014054964
-0.19502687 -0.037234366 -0.23245686 0.053296 0.34672552 0.0048115356 0.02044121 -0.05560529
0.14039299 0.16916215 0.17611821 -0.17304483 0.17082825 -0.09430524 -0.08335659 -0.17085826
0.016445404 -0.027766883 -0.14319827 0.30493525 0.059608042 -0.14105815 -0.49664414 0.07763825
-0.022163 -0.21719256 -0.0010219067 -0.09014866 -0.15659565 -0.17159407 0.36563465 -0.15234174
-0.1452774 0.25797337 -0.15516423 0.070670374 0.16473599 0.11628517 0.15786332 0.15016307
0.13919131 -0.26959887 0.013423695 -0.04234117 0.22532126 0.3021661 -0.22921318 -0.10023444
0.034316048 0.10495047 -0.055851117 -0.060912915 -0.023078417 0.0057460126 0.038312525 -0.056361668
0.23464087 0.36630788 0.18209271 0.03144932 0.099665314 -0.049837183 0.12179798 0.05164804
-0.23962805 0.0037247825 -0.02012863 -0.16556351 0.058042448 0.29688564 0.6012741 0.020907382
-0.052708223 -0.1052633 -0.24098231 0.07875919 -0.260943 -0.10559864 -0.12633468 0.4490396
-0.19771473 0.24376178 -0.06954856 0.02637363 0.098770656 0.004377746 0.22613922 0.08077389
0.10679357 0.056963302 0.19282122 -0.13885298 0.31763253 -0.20661017 0.033683963 -0.33694395
0.38346192 -0.021721378 0.0042831423 0.016073588 -0.04784644 -0.3085311 -0.07544835 -0.0885122
0.01324149 -0.25231043 0.050968092 0.02520732 -0.20265356 -0.14062053 -0.06640539 0.013355933
0.11148221 -0.1986711 -0.041135553 0.03437769 -0.06794034 -0.039776973 -0.021789815 -0.0012187611
00000000: 43ac 893d fdaf 34be c2e7 6bbe bbc5 58be
00000010: 15e5 cc3c 909e a3bd 4319 1ebe a593 a2bd
00000020: 6bdb 72be 401d 35bc ff81 993e c8f6 533d
00000030: 0f2f be3d 8c8e 0abd be37 10be ac53 f33d
00000040: 1627 393e 9cc7 f6bb 6764 80be 579c 76be
00000050: 6ce5 9dbd 8a3b 9c3e 887f 853d 7f0a a9bd
00000060: 43b8 00be 9558 30be 5e7a 2fbd 25e7 e3bc
00000070: 8122 85bc 9ecb 42be 809c ec3e 75b5 6a3c
00000080: 5767 853e 4ac7 8cbd 2ece 283d 5281 3cbe
00000090: c87f 0b3e 3218 2dbc 62be 7fbc 37d1 093c
000000a0: 6e2a 59be c45f a8bb c59b 09be c1ed a53e
000000b0: 01a0 d7be 2c13 893e 9d45 343e a203 b63d
000000c0: 836f c23c 388a 993d 6fed de3c 44b4 fe3d
000000d0: b352 88bd 3709 16ba 6b8a 6dbe d7ec 183b
000000e0: 4b82 acbd 0f85 b63d 51e7 4e3d 2f34 49ba
000000f0: 2b6f c53d 3fa8 3dbe 9819 bcbd 4758 10bc
00000100: cb77 833c 9bd3 bb3d ded9 2f3d a8f1 3abd
00000110: 1c0d aabb a7c0 933d 48ff 17be 5182 083d
00000120: 4148 f33a 3fcd ec3d eb93 823e 301a a53e
00000130: b728 e73d 32d9 fbbd 8d73 ddbd 292c b2be
00000140: ab9f 893c a871 323e 87e3 26bc 73f6 a53e
00000150: bab2 a1bc c1bd 21bd 16e0 613d 9d3c 16be
00000160: ec34 97be 8b73 12be 8296 84be f9fb 8ebe
00000170: 06a2 ad3d 28a2 35bd 8598 e83d f3ec 3bbe
00000180: 893f 103d 057d 78bc 796f f0bc db7c 8a3d
00000190: 6922 5f3c 591a 153e 4648 94bd 3d68 f63d
000001a0: 55ad 31be 5d32 593e 9c52 313e 77e4 b33d
000001b0: 343d 3e3d 79b5 803e a5f8 e9be debf e6bd
000001c0: 3146 e43c c294 023e b51b 8c3e f849 853d
000001d0: 39ac e9bc b8f3 1abd c58b 773e f68d 283d
000001e0: ddbb f4bd cf06 e33e 3b08 07be b850 923d
000001f0: cfae 08be d20d 933e 6e9f 4a3d 8f97 b03e
00000200: 99d6 86be 1568 0ebd 498b 5cbd b15d b63b
00000210: ce08 9c3e fce6 80bc c5d0 113e cb46 66bc
00000220: 20b5 47be 1083 18bd 2c09 6ebe e84c 5a3d
00000230: 0286 b13e 16aa 9d3b 5374 a73c 5fc2 63bd
00000240: 2ec3 0f3e d838 2d3e 5558 343e aa32 31be
00000250: 9aed 2e3e 1b23 c1bd dcb6 aabd 78f5 2ebe
00000260: 83b8 863c 6077 e3bc 91a2 12be 7920 9c3e
00000270: 9027 743d 8c71 10be 2448 febe ce00 9f3d
00000280: 2e8f b5bc ba67 5ebe 80f1 85ba dc9f b8bd
00000290: 9c5a 20be 5bb6 2fbe 7734 bb3e 79ff 1bbe
000002a0: 99c3 14be 1615 843e 5fe3 1ebe a1bb 903d
000002b0: 8db0 283e eb26 ee3d eca6 213e 59c4 193e
000002c0: 2b88 0e3e dd08 8abe 0fef 5b3c ef6d 2dbd
000002d0: 9eba 663e 84b5 9a3e dcb6 6abe b747 cdbd
000002e0: fc8e 0c3d 46f0 d63d 24c4 64bd d27f 79bd
000002f0: f30e bdbc 0c49 bc3b 98ed 1c3d 7edb 66bd
00000300: b245 703e b58c bb3e 8376 3a3e 01d1 003d
00000310: 541d cc3d 1322 4cbd 3871 f93d e58c 533d
00000320: 0e61 75be 7b1b 743b cce4 a4bc 7b89 29be
00000330: ebbd 6d3d 6501 983e 19ed 193f f545 ab3c
00000340: 94e4 57bd 4994 d7bd 11c4 76be 804c a13d
00000350: 529a 85be 1a44 d8bd e15d 01be 85e8 e53e
00000360: bb75 4abe b09c 793e 7a6f 8ebd 830d d83c
00000370: 4548 ca3d 3273 8f3b 0a91 673e c86c a53d
00000380: 96b6 da3d 5a52 693d ed72 453e 7a2f 0ebe
00000390: bba0 a23e 9e91 53be 32f8 093d eb83 acbe
000003a0: 1f55 c43e 08f1 b1bc 9a59 8c3b c2ac 833c
000003b0: a1fa 43bd caf7 9dbe aa84 9abd e245 b5bd
000003c0: d6f2 583c d52e 81be ebc3 503d 957f ce3c
000003d0: 6a84 4fbe d4fe 0fbe 8dff 87bd d8d2 5a3c
000003e0: c950 e43d 7070 4bbe c17d 28bd 9fcf 0c3d
000003f0: 4e24 8bbd 2eed 22bd 8e80 b2bc d6be 9fba

linears.4.bias f4 [40]
0.029581305 0.0176531 -0.010989085 0.040382497 0.03458873 -0.002347748 -0.015724473 -0.0017227499
-0.03432374 0.05333799 -0.0042654723 -0.0039513293 -0.020200986 0.07274859 0.039347492 0.032170754
-0.015245734 0.019242652 -0.042530566 -0.12922175 -0.024128068 -0.0038806286 0.03295466 -0.020744836
-0.005954961 -0.016766945 -0.020855563 -0.022499086 0.07849081 -0.033202376 -0.0068851653 0.031705286
-0.046902448 0.026351716 0.06593414 0.014994227 0.034858197 0.07444013 0.1230598 -0.05981441
00000000: 7e54 f23c 3c9d 903c 900b 34bc 1e68 253d
00000010: eaac 0d3d addc 19bb 9cd0 80bc e5cd e1ba
00000020: 0d97 0cbd f078 5a3d 60c5 8bbb 277a 81bb
00000030: 8a7c a5bc 36fd 943d d62a 213d 7bc5 033d
00000040: 3ec9 79bc c4a2 9d3c 8834 2ebd b552 04be
00000050: 3aa8 c5bc 2552 7ebb 77fb 063d 13f1 a9bc
00000060: d521 c3bb d55a 89bc 49d9 aabc 0150 b8bc
00000070: cabf a03d 37ff 07bd f49c e1bb 67dd 013d
00000080: c81c 40bd 8edf d73c 7a08 873d 59aa 753c
00000090: 78c7 0e3d 1174 983d c706 fc3d f4ff 74bd

linears.5.weight f4 [40, 40]
-0.09593583 -0.041340146 0.33441785 0.4236453 -0.027377358 -0.19558066 0.23220368 0.14205398
0.082615435 -0.0075938655 -0.23887998 0.0330231 -0.18188885 0.06677428 0.05132164 -0.2797732
0.22217731 0.020037208 0.35039872 -0.049563337 -0.22427598 -0.05252789 0.082879916 -0.1847076
0.092614174 0.055416666 0.008058187 -0.10956422 -0.08714987 0.18414904 0.025878184 -0.08080745
-0.009161178 -0.09598151 -0.050834436 0.040212665 -0.04051936 0.086058445 -0.03402192 -0.2079745
-0.20495394 0.32003385 -0.16862962 -0.00014645747 0.003989006 -0.080643326 0.10424017 0.2550941
-0.06230095 -0.010663665 0.16175528 -0.0151715055 -0.18046893 -0.0018406152 -0.0042770565 0.03413318
0.13663769 0.2978561 -0.0077192765 0.04396455 -0.07074363 0.20105612 -0.04525641 -0.0814039
-0.044603836 -0.094873756 0.19403236 0.008171593 -0.06090926 0.27414188 -0.035104603 0.008628997
0.0690993 0.048606835 0.06425844 -0.042082906 0.08683137 0.06408605 0.096677504 -0.04542107
0.113077 -0.40152588 0.43966132 -0.07677945 0.28579697 -0.19482833 -0.03879312 0.3005288
-0.20903423 -0.1403513 0.033903237 -0.16520172 -0.16098973 0.24314491 -0.051195435 0.051943786
-0.14029206 0.061101586 0.09053255 0.055768214 -0.18977146 0.27335888 -0.021802219 -0.3175403
-0.22877263 0.10941231 -0.24834527 -0.20434697 -0.06632871 0.3534902 0.021348115 0.28079224
0.0015419266 0.34461775 -0.13371694 -0.22358909 0.1519948 0.22239 0.11606648 -0.08734268
-0.02342132 -0.022373477 -0.13900194 -0.20803083 0.20286497 0.027987042 -0.05842704 -0.34445018
-0.030852117 0.09029591 0.002243572 0.1531089 -0.11669101 0.003799893 -0.03223289 0.023109298
-0.28101155 0.19204533 0.2678724 0.06844406 -0.4278561 -0.023635533 0.03890943 0.12391593
-0.18928228 -0.09301837 0.120745525 -0.122926146 0.15893048 0.11968925 -0.025836365 -0.014364327
0.061482467 -0.06998749 0.10889919 0.018124847 0.012397651 0.08723563 -0.1012553 0.09256151
0.21108758 0.047313858 0.049375046 -0.32181856 -0.17011374 -0.35837567 -0.34935975 0.005639282
0.07899575 0.051602513 -0.08167295 0.06945872 0.012959431 0.20584162 -0.10446252 0.007841536
-0.06739687 0.20114635 0.15520655 -0.04046381 -0.16055606 -0.14453638 0.32752994 0.2674236
0.11232906 0.026639957 0.12273771 -0.28586173 0.22676471 -0.031949997 -0.10107436 -0.06745429
0.027278557 0.44412655 -0.055028386 0.18207315 -0.08905955 0.12884218 0.33552757 -0.1713354
0.076583125 -0.23478763 0.04541658 0.121409096 0.12580758 -0.060975377 -0.062007755 -0.063926384
-0.022106806 0.23054747 0.07664364 0.031654235 -0.13918816 -0.0945967 -0.04482074 0.30748168
0.093624935 -0.14308944 -0.25127423 0.034442503 0.021054747 -0.070718005 0.052661262 -0.014380958
0.29600376 0.04107748 0.16453655 0.06544329 -0.22614445 0.104162894 -0.09277931 -0.010190306
-0.0734455 -0.048519388 -0.34051305 0.16834009 0.0466129 -0.055631697 -0.18127961 0.010725772
-0.051084455 0.16920802 0.31857175 -0.025599862 -0.18317047 -0.025880266 -0.023570128 -0.07045117
0.11117139 -0.31218943 -0.16684482 0.27797282 -0.07088012 0.15237181 0.13030337 -0.005675831
00000000: 017a c4bd 4954 29bd d138 ab3e 09e8 d83e
00000010: 7b46 e0bc 4c46 48be cdc6 6d3e 9976 113e
00000020: 4832 a93d f6d5 f8bb f49c 74be 3b43 073d
00000030: 1241 3abe f4c0 883d a436 523d 6f3e 8fbe
00000040: 7382 633e 1225 a43c 7667 b33e ed02 4bbd
00000050: 9aa8 65be 7c27 57bd f2bc a93d fd23 3dbe
00000060: 80ac bd3d 96fc 623d 7c06 043c 3563 e0bd
00000070: a27b b2bd 9191 3c3e 7cfe d33c 607e a5bd
00000080: c418 16bc f491 c4bd c537 50bd 09b6 243d
00000090: a1f7 25bd 693f b03d 925a 0bbd 44f7 54be
000000a0: 72df 51be 7adb a33e 3ead 2cbe 6192 19b9
000000b0: 35b6 823b 5428 a5bd df7b d53d b29b 823e
000000c0: 482f 7fbd a7b6 2ebc 2da3 253e e891 78bc
000000d0: d9cc 38be cc40 f1ba 8d26 8cbb 3ccf 0b3d
000000e0: c0ea 0b3e 9880 983e fcf1 fcbb 2c14 343d
000000f0: 09e2 90bd a8e1 4d3e c95e 39bd 17b7 a6bd
00000100: 83b2 36bd 2c4d c2bd 6bb0 463e 25e2 053c
00000110: fd7b 79bd 535c 8c3e d8c9 0fbd a360 0d3c
00000120: ef83 8d3d f617 473d ee99 833d 205f 2cbd
00000130: a5d4 b13d 8c3f 833d dbfe c53d 720b 3abd
00000140: ea94 e73d cd94 cdbe 4a1b e13e 8b3e 9dbd
00000150: fb53 923e 1481 47be 89e5 1ebd e9de 993e
00000160: 120d 56be 40b8 0fbe 1fde 0a3d a42a 29be
00000170: 7eda 24be fbfa 783e 4eb2 51bd 02c3 543d
00000180: b9a8 0fbe a845 7a3d 2169 b93d 366d 643d
00000190: 7353 42be b2f5 8b3e 919a b2bc a494 a2be
000001a0: 5f43 6abe 9013 e03d 394e 7ebe 5540 51be
000001b0: 59d7 87bd abfc b43e 3ee2 ae3c 00c4 8f3e
000001c0: 791a ca3a bd71 b03e 18ed 08be 8af4 64be
000001d0: 86a4 1b3e 34ba 633e 43b4 ed3d b8e0 b2bd
000001e0: 11de bfbc 9548 b7bc 8656 0ebe 0906 55be
000001f0: d6bb 4f3e 1545 e53c 3151 6fbd c65b b0be
00000200: 94bd fcbc 10ed b83d e408 133b 94c8 1c3e
00000210: b2fb eebd a007 793b a306 04bd b64f bd3c
00000220: bfe0 8fbe 88a7 443e 9226 893e 662c 8c3d
00000230: f40f dbbe 4e9f c1bc 7f5f 1f3d a3c7 fd3d
00000240: 37d3 41be 6a80 bebd 6e49 f73d b4c0 fbbd
00000250: acbe 223e a31f f53d c9a6 d3bc 5b58 6bbc
00000260: 0ad5 7b3d 9a55 8fbd 8a06 df3d 8f7a 943c
00000270: 841f 4b3c 98a8 b23d f05e cfbd e490 bd3d
00000280: 5827 583e 2dcc 413d 7d3d 4a3d 67c5 a4be
00000290: 4c32 2ebe 047d b7be 48df b2be bac9 b83b
000002a0: 86c8 a13d 285d 533d 2644 a7bd 6040 8e3d
000002b0: cb53 543c 25c8 523e 72f0 d5bd c979 003c
000002c0: 5f07 8abd 4ff9 4d3e 77ee 1e3e 61bd 25bd
000002d0: cf68 24be 5801 14be 01b2 a73e bfeb 883e
000002e0: c70c e63d 0a3c da3c e95d fb3d 785c 92be
000002f0: 0235 683e 00de 02bd 1300 cfbd 7a25 8abd
00000300: 4877 df3c 8e64 e33e 7265 61bd 6271 3a3e
00000310: da64 b6bd 34ef 033e 45ca ab3e 8c72 2fbe
00000320: 9dd7 9c3d 2b6c 70be bc06 3a3d 55a5 f83d
00000330: b4d3 003e 51c1 79bd d8fb 7dbd d6eb 82bd
00000340: 5519 b5bc a314 6c3e 57f7 9c3d dfa7 013d
00000350: 5787 0ebe eabb c1bd f495 37bd 3d6e 9d3e
00000360: 6ebe bf3d 0a86 12be 04a7 80be 9513 0d3d
00000370: 017b ac3c 9ad4 90bd 56b3 573d 1c9e 6bbc
00000380: ce8d 973e dc40 283d 457c 283e 2207 863d
00000390: 6992 67be 5b53 d53d 1403 bebd 3ef5 26bc
000003a0: 986a 96bd 44bc 46bd ba57 aebe 5861 2c3e
000003b0: 2bed 3e3d 10de 63bd 5da1 39be 26bb 2f3c
000003c0: ef3d 51bd de44 2d3e d61b a33e cdb6 d1bc
000003d0: 0a91 3bbe da02 d4bc 2416 c1bc b448 90bd
000003e0: d3ad e33d 4bd7 9fbe 5ed9 2abe 7452 8e3e
000003f0: 9929 91bd 5b07 1c3e 3f6e 053e 52fc b9bb

linears.5.bias f4 [40]
0.0059495615 0.058429528 0.01979358 0.0074765384 -0.03312591 -0.054603998 -0.0116579775 0.0034451257
0.03426292 0.013833545 0.012653399 -0.04223583 -0.038485665 -0.053080007 -0.01132059 0.019942787
-0.055130415 0.061648317 0.020486087 0.041699965 0.27383304 0.06443867 0.015137502 -0.019151956
-0.14707118 -0.04575258 0.03177873 0.022911794 -0.09221051 0.04518012 0.027231181 -0.0417195
0.06619764 0.013616852 -0.023273654 0.01773424 0.03942812 0.011180359 0.077571005 0.014055731
00000000: 8af4 c23b cd53 6f3d 2526 a23c c0fd f43b
00000010: 09af 07bd 71a8 5fbd 1a01 3fbc 9ec7 613b
00000020: 4757 0c3d 18a6 623c 3450 4f3c 7aff 2cbd
00000030: 25a3 1dbd 6c6a 59bd ff79 39bc 0e5f a33c
00000040: 6ed0 61bd f282 7c3d 70d2 a73c 95cd 2a3d
00000050: d833 8c3e 6cf8 833d 4903 783c 90e4 9cbc
00000060: d499 16be 0f67 3bbd 6a2a 023d 84b1 bb3c
00000070: ddd8 bcbd ca0e 393d ed13 df3c 11e2 2abd
00000080: a192 873d 3819 5f3c 64a8 bebc 6647 913c
00000090: 617f 213d d32d 373c 8cdd 9e3d 024a 663c

linears.6.weight f4 [1, 40]
0.22400525 -0.13757773 0.3731265 0.30344337 0.5040587 0.11655456 0.08513423 0.05693648
-0.22973444 -0.19857049 -0.2967366 0.011575309 -0.13214037 -0.08733924 -0.12726259 -0.18270081
0.19790848 -0.5482568 -0.5999223 0.41659045 -0.19789247 -0.5643303 -0.38477346 -0.22479475
0.12638065 0.30532387 0.17402251 0.009673574 0.121827744 -0.29402786 0.1520941 0.19561294
-0.18121132 0.37951028 0.23421611 0.22835703 0.1276005 0.04704851 -0.01231048 0.3173062
00000000: a261 653e 2de1 0cbe 700a bf3e ee5c 9b3e
00000010: fe09 013f 28b4 ee3d db5a ae3d 3a36 693d
00000020: 813f 6bbe 1056 4bbe dced 97be 5da6 3d3c
00000030: ce4f 07be eade b2bd 2051 02be ec15 3bbe
00000040: 85a8 4a3e 8f5a 0cbf 8294 19bf 584b d53e
00000050: 53a4 4abe f377 10bf 0701 c5be 9830 66be
00000060: ee69 013e 6953 9c3e f532 323e e97d 1e3c
00000070: d380 f93d d28a 96be 8ebe 1b3e c24e 483e
00000080: 768f 39be 2c4f c23e 59d6 6f3e 6dd6 693e
00000090: b5a9 023e f0b5 403d e5b1 49bc f575 a23e

exp_avg f4 [40, 2]
0.0005372368 -0.0003918847 -0.0017016701 0.00025097106 0.004349923 -0.0009963867 0.0005871298 -0.00025380906
0.0010718902 -0.00026348486 -0.0018902863 0.00039983637 -0.0033504 0.00060266326 -0.00033575308 0.00026332535
0.0004416616 -0.00014926998 -0.0019511514 1.8293409e-05 -0.01011842 0.0017488544 -0.00044418397 9.4289835e-06
0.006187628 -0.0013055996 0.00041795828 -0.00015442097 0.0001046537 -5.4421624e-05 0.00086965866 0.00011176744
-0.00096455874 0.00029732476 0.0007995979 -4.1757656e-05 0.001911727 -0.0005014677 -0.0021467921 0.00017316909
-0.0013125208 0.0004400636 -8.536024e-05 -0.00024621497 -0.000341347 0.00011781239 0.003593378 -0.0009444942
0.0010625082 -0.0002107495 -0.0018710418 0.00033494402 -0.00058910635 5.370971e-05 -0.0006353642 1.352283e-05
-0.00035458556 7.075264e-05 -0.0006346937 9.575017e-06 0.0010110715 6.681935e-05 0.00025592197 -0.00015576876
-0.0023988388 0.00023911988 -0.0010715603 0.00010934648 0.0018596264 -0.00021366095 -6.4648666e-06 3.6614736e-05
0.0002446395 -5.520058e-05 0.00032679833 -4.6128473e-05 0.0006449389 -0.00010793686 -0.004738235 0.0005474659
00000000: 5ad5 0c3a e075 cdb9 930a dfba c494 8339
00000010: cd89 8e3b 3199 82ba 9de9 193a ad11 85b9
00000020: ab7e 8c3a 5724 8ab9 7cc3 f7ba 21a1 d139
00000030: 6292 5bbb 0cfc 1d3a 0408 b0b9 ee0e 8a39
00000040: d18e e739 5b85 1cb9 c7bd ffba cc74 9937
00000050: bbc7 25bc d139 e53a 5de1 e8b9 2d31 1e37
00000060: 96c1 ca3b a720 abba 6921 db39 10ec 21b9
00000070: 8779 db38 c642 64b8 cef9 633a b064 ea38
00000080: 71da 7cba 41e2 9b39 1b9c 513a f124 2fb8
00000090: ea92 fa3a ed74 03ba 32b1 0cbb b994 3539
000000a0: e408 acba 56b8 e639 6e03 b3b8 6a16 81b9
000000b0: d2f6 b2b9 0c12 f738 e17e 6b3b ef97 77ba
000000c0: dc43 8b3a a3fc 5cb9 bf3d f5ba 6d9b af39
000000d0: 426e 1aba 5d46 6138 928e 26ba 1de0 6237
000000e0: abe7 b9b9 0961 9438 9361 26ba 63a4 2037
000000f0: ee85 843a 5e21 8c38 442d 8639 dc55 23b9
00000100: d635 1dbb 41bc 7a39 9973 8cba f250 e538
00000110: b5be f33a 2d0a 60b9 c8ec d8b6 c692 1938
00000120: f542 8039 2c87 67b8 2156 ab39 127a 41b8
00000130: 1e11 293a 295c e2b8 3243 9bbb d183 0f3a

exp_avg_sq f4 [40, 2]
0.0005377011 0.026990978 0.0031406519 0.0063827923 0.03385695 0.030599393 0.00078359 0.011923159
0.0014819404 0.0069755 0.0042309766 0.014929311 0.016935633 0.009448841 0.0010619625 0.0013426164
0.0011359823 0.00384335 0.002186627 0.0025132548 0.14038543 0.20274436 0.0002281207 0.0022392834
0.05488591 0.12174578 0.0005574236 0.0007735689 0.00015047856 0.0020343352 0.00043355796 0.0015294548
0.0014996888 5.196369e-05 0.0006925642 0.0013305104 0.00904463 0.0015715796 0.004550315 0.009944475
0.0043220995 0.0004062243 0.00015261787 0.046195403 3.0355972e-05 0.017285476 0.020452825 0.029355342
0.00091555854 0.005182376 0.0058166385 0.000806624 0.0013456687 0.00640879 0.00063523755 0.004977354
7.762864e-05 0.0020662493 0.00021848906 0.00018870566 0.0010574496 0.0009594064 0.00034382884 0.00030976956
0.0075560217 0.0016425593 0.0021655734 0.0065603266 0.0042978264 0.00031859073 7.111296e-05 0.016541028
8.238371e-05 0.006303098 8.76857e-05 0.0006070733 0.0005942768 0.001989654 0.024293318 0.032737333
00000000: 83f4 0c3a 2f1c dd3c 65d3 4d3b be26 d13b
00000010: 96ad 0a3d 94ab fa3c d669 4d3a 5a59 433c
00000020: ab3d c23a bc92 e43b 01a4 8a3b 129a 743c
00000030: 99bc 8a3c 50cf 1a3c 8c31 8b3a bbfa af3a
00000040: 3ee5 943a b7e0 7b3b 834d 0f3b 6bb5 243b
00000050: 33c1 0f3e 389c 4f3e af33 6f39 f1c0 123b
00000060: 0cd0 603d da55 f93d 1120 123a 55c9 4a3a
00000070: c8c9 1d39 7b52 053b 2a4f e339 fd77 c83a
00000080: 3591 c43a 96f3 5938 328d 353a 8564 ae3a
00000090: ee2f 143c 76fd cd3a cf1a 953b 27ee 223c
000000a0: 66a0 8d3b 81fa d439 0c08 2039 6437 3d3d
000000b0: f4a4 fe37 459a 8d3c af8c a73c 9d7a f03c
000000c0: 1802 703a ecd0 a93b 8099 be3b 9f73 533a
000000d0: 2661 b03a d400 d23b 1286 263a 1219 a33b
000000e0: 8fcc a238 e969 073b 361a 6539 4adf 4539
000000f0: 1f9a 8a3a ac80 7b3a ed43 b439 9168 a239
00000100: 8198 f73b 254b d73a 4bec 0d3b 02f8 d63b
00000110: c8d4 8c3b 8608 a739 7b22 9538 0d81 873c
00000120: 6bc5 ac38 388a ce3b e7e3 b738 0024 1f3a
00000130: 3ec9 1b3a db64 023b c802 c73c 9517 063d

exp_avg f4 [40]
0.0015806914 -0.0014632132 0.002935952 0.0011746219 0.0012209815 -0.002050531 -0.0020388227 0.00086408545
-0.00067929906 -0.0015705412 -0.008221959 0.0004559147 0.005348237 -0.0003170877 -0.0006483503 0.0010076086
0.000229692 0.00048798046 0.0008053445 -0.002130509 -0.00015673239 0.002113152 -0.0015969183 0.002647478
0.0011256338 -0.0008878184 0.0008088184 0.0006522327 0.00077158 -0.00033747256 -4.0217383e-06 -0.0003533554
-0.0012220877 0.0005323069 0.0007843813 -0.0013145102 -0.0011459251 0.00051403965 0.0006727852 -0.0037828085
00000000: 342f cf3a 4ac9 bfba 1a69 403b c5f5 993a
00000010: 5709 a03a 3462 06bb c59d 05bb cb83 623a
00000020: fd12 32ba 9eda cdba 65b5 06bc d607 ef39
00000030: 4440 af3b ca3e a6b9 0df6 29ba bc11 843a
00000040: 7ad9 7039 a1d7 ff39 c11d 533a 02a0 0bbb
00000050: 8858 24b9 cf7c 0a3b b04f d1ba 4f81 2d3b
00000060: 018a 933a 7cbc 68ba e206 543a 98fa 2a3a
00000070: db43 4a3a cdee b0b9 78f2 86b6 8f42 b9b9
00000080: 752e a0ba 838a 0b3a f09e 4d3a a54b acba
00000090: de32 96ba 9ec0 063a da5d 303a ffe8 77bb

exp_avg_sq f4 [40]
0.01201564 0.0035883582 0.016831828 0.0055711186 0.0036600553 0.008043389 0.0058885673 0.0007407264
0.0016704223 0.0018205541 0.114316575 0.000943558 0.06355857 0.00029445183 0.001013903 0.0009541685
6.3534215e-05 0.0007146339 0.0010543405 0.0058234027 0.00026363242 0.020333529 0.008045678 0.015429921
0.0025500942 0.0006759935 0.0027197925 0.0021210741 0.0011636887 0.00011743812 0.0002774477 0.00014436345
0.0012833627 0.0026256223 0.00032513557 0.0073487977 0.0032409567 0.00036388586 0.0010441495 0.019308459
00000000: 3fdd 443c a92a 6b3b e7e2 893c ee8d b63b
00000010: 8add 6f3b 6bc8 033c e2f4 c03b 4f2d 423a
00000020: 12f2 da3a a99f ee3a cf1e ea3d 1b59 773a
00000030: ff2a 823d a860 9a39 f0e4 843a 2a21 7a3a
00000040: ac3d 8538 4556 3b3a cc31 8a3a 3ed2 be3b
00000050: 2538 8a39 8092 a63c 05d2 033c c8cd 7c3c
00000060: 7b1f 273b 2835 313a 8c3e 323b b801 0b3b
00000070: ea86 983a 1c49 f638 6676 9139 4560 1739
00000080: 8236 a83a a212 2c3b f576 aa39 2fce f03b
00000090: 3b66 543b efc7 be39 d8db 883a c62c 9e3c
