pdebench/models/newly_trained_models1D_Advection_Sols_beta0.1_PINN.pt-5000.pt (torch, 120395 bytes, 39 tensors)

linears.0.weight f4 [40, 2]
00000000: 5073 8abc 636b 3d3e ae18 e8bd 6dd0 12bd
00000010: 1669 2c3f 851d a73e 00c4 6fbe 36db cbbd
00000020: 0077 a53e f209 2dbd 0e27 413e 27a1 b9bd
00000030: dd2f 283d 4114 ddbe 0d27 853d d5e7 57be
00000040: 1686 8dbe 1de6 bebe 478c e93e eb91 4a3e
00000050: acba a53d f883 f63d f825 3abe 44ae 753e
00000060: dc45 a53e 2c4c 3ebd 1eb0 d73d cc68 99be
00000070: 071f cbbd 2ff4 b8be 557a a4be 1ff1 8d3d
00000080: a736 6a3e ff37 afbd d3bc f2bd c6eb 2f3c
00000090: cc5e 4a3e c2d9 c23e b21d 26be b2da 893e
000000a0: 8821 803e 7c2f c7be ce6f 1fbe 8a57 edbd
000000b0: 1146 f2be 0625 333c 2a64 753e 1968 dd3d
000000c0: 2109 bbbd 4bb7 c3be cb0c 6e3e 430a b8be
000000d0: dc6b 5c3d ea65 0e3d 4069 653b 1380 94be
000000e0: 19ad 503d 4487 e93d 259c 46bd 2fc9 143e
000000f0: 3a90 893e 9de3 973e 31e1 2e3e af50 10be
00000100: 3297 dfbe 0062 73bd f5fb a0be a003 10bf
00000110: 564e 91be 6e07 29be 8fbe a03d a651 acbd
00000120: bb61 263c 4a7a b73e 5ee2 1f3e a95d 803d
00000130: cb74 973e b0a5 a53d 117e 0bbe 6051 88be
-0.016900688 0.18497996 -0.11332832 -0.0358433 0.6734785 0.3263971 -0.23414612 -0.099539205
0.32317352 -0.042245813 0.18862554 -0.090639405 0.04106127 -0.43179515 0.06501589 -0.2108453
-0.27641362 -0.37284938 0.45614836 0.19782226 0.080922455 0.1203689 -0.18178546 0.23992258
0.3227986 -0.046459362 0.105316386 -0.29962766 -0.09918027 -0.36123797 -0.32124582 0.06930756
0.2287241 -0.08555602 -0.118524216 0.010737365 0.19762725 0.3805676 -0.16222265 0.26924664
0.25025582 -0.38903415 -0.15569994 -0.115889624 -0.4731908 0.01093412 0.23963991 0.10810871
-0.091326006 -0.3822578 0.23247068 -0.3594533 0.0538138 0.03476516 0.003500536 -0.29003963
0.05094633 0.11402753 -0.048488755 0.1452987 0.2686785 0.29665843 0.17078091 -0.14093278
-0.4367004 -0.059419632 -0.31442228 -0.5625553 -0.28380078 -0.1650674 0.07848846 -0.08414011
0.010155137 0.35835487 0.15613696 0.06267864 0.29581293 0.08088243 -0.1362231 -0.26624584

linears.0.bias f4 [40]
00000000: 1212 7fbd aeb1 923d fd76 9d3d 8d2c 34bd
00000010: cbf7 9bbc 12ca 1e3d 56c8 873d 90d7 4d3d
00000020: 2e30 5c3d 0805 423c 4e85 073e 366a cf3c
00000030: 686b 173c 69c0 523d 18ce d83d 9eb5 6e3d
00000040: f122 3bbd 061d 9f3d ffdf 9d3d e495 8fbc
00000050: f84d d53c dda8 163d 944c 903d 310e 763d
00000060: 411a 57bd 97f6 87bd 000e 1abd dd33 65bd
00000070: e848 3a3d ed51 b23d bc06 a6bd 000d 7cbd
00000080: bffa b5bc 2aba 2b3d 93c8 abbc 44d2 aabd
00000090: 6d9d 15be 534e 7ebd a1f5 c1bd 1b7b 813d
-0.062273093 0.07162796 0.07688711 -0.0439878 -0.019039055 0.038766928 0.06630008 0.050254405
0.053756885 0.01184202 0.13234445 0.0253192 0.009241916 0.051453028 0.10586184 0.058278672
-0.04568762 0.07769208 0.077087395 -0.017527528 0.026038155 0.036782134 0.07045856 0.060072128
-0.052515272 -0.0663883 -0.037611008 -0.055957664 0.045479685 0.08707032 -0.08106753 -0.061535835
-0.022214292 0.041925587 -0.020969665 -0.08340886 -0.14610834 -0.062086415 -0.09470678 0.06322309

linears.1.weight f4 [40, 40]
00000000: d9b2 82be 8d4b 3cbe f702 013e 606c 89be
00000010: 8a5a e8bd 029b b5be 8afa 5a3e 0534 04bd
00000020: 0cee 513e 6551 d9bd f623 89be 9146 c83d
00000030: f0ef dabc eab0 10bd 75b1 253d 6355 113e
00000040: 3940 acbe 04b3 633e 5f17 1fbd 634c 303d
00000050: c7ec c4bd 130c c4bd d1a4 a8bc b4f9 9c3e
00000060: 263a d63c 3948 a9bd eb0a 0abe b261 0b3e
00000070: 53b8 543e c083 f63d ba75 f3bd 020d c4bd
00000080: 2071 c2bd f8ca 6a3d 3947 ac3e bf21 8c3c
00000090: 2a87 003e d485 27be 5ab3 70bd ffcd 1c3e
000000a0: c9fd bebd 2198 033e a1a4 43bd fe4a 08be
000000b0: 21b5 c0bd 00b9 053e c1e7 8abc 7f79 763e
000000c0: c42d d3bd 91c5 d93d 78b3 833e 7189 0a3e
000000d0: 67c2 603e 611c 343d 6392 41bd c2bf 3cbd
000000e0: 6b4e 4e3e 78ef 363e 2ea9 a1bd 84ac f2bd
000000f0: f5d5 60bc ab5f 983c 60bf bfbc ae25 febd
00000100: 03bc 98be 43fc 253e 9697 f1bd e523 28be
00000110: c600 a8bd f8a2 703d 3d2d d8bc c617 e63d
00000120: df99 c1be 386e 5abe 9ced 61be d48c 4dbe
00000130: f6f9 3dbd d9e9 3ebe 4123 56bd 20c6 273e
00000140: 492c c5bd 75b8 f6bd c596 5d3e 4a95 b4bd
00000150: 77f9 9bbb 480f d83c 481e 2a3e bbf4 69bd
00000160: be00 253e 3f0b 5b3e 500f 70bd 2b8e bb3c
00000170: da07 1e3e f28f 593e 0441 273c c8bc 06be
00000180: 7a80 67bc 7f03 af3e 148f 583e 8903 a9bd
00000190: bd6c 5abe 760c b23e e00c 9b3e f051 8a3e
000001a0: da8e 413d 8aa4 c0be 222e c63d 57ec d0bd
000001b0: f31e 5ebd 5666 56be 27b0 23be 2a9b 043e
000001c0: dbe3 1bbd 947f 01be 2659 cbbd df31 d5bd
000001d0: 4282 823e 8872 993d 924c 4cbe 6a9f a03d
000001e0: 400a 8a3b 17f5 fd3d ed66 d13c 0adf 5abe
000001f0: 1222 ea3d 4885 debd a40b 983d 4d80 53be
00000200: 133d ba3e 561c c53d 65b6 923d 9339 013e
00000210: 4042 e3bd 4ee1 443e aa04 833e d16c 723e
00000220: 6e8e d9be 79c6 9d3d 5c35 823e 36e5 513e
00000230: 658f 353d 3e21 e9bd 7e9d 783e 199b cdbd
00000240: 2439 bebc c7ab 44be 4b7c eabd 604e 29be
00000250: ab3b 6e3d e8bb 2f3e 5807 803b 7c64 3abd
00000260: 0b5b eb3d 4534 bebd fefd 5b3e 25b0 1bbd
00000270: d1ed f8be 93cb 41be 3658 43be f34d 75bd
00000280: 9e79 2a3e 759f 1e3c 37be 143b ae4b a53e
00000290: 0d18 b7be 5719 d7bc d8fa 1ebe 6f12 91bd
000002a0: c80e 7dbe d53d 0bbe b3e7 02be 94d7 32be
000002b0: 7d70 9cbe 29f3 873d 1232 40be fb78 dcbd
000002c0: f74e 73bd f064 45bd c35a c93d 2f9c 753e
000002d0: f665 dc3b 6f21 00be 517a 2c3d 8028 1dbe
000002e0: e561 e3bd 6fcf 443e 0330 7cbd 8c93 19bd
000002f0: 05b1 053e 057e 253d 15bd 9b3e d1c1 31be
00000300: 2723 113d f91a 90be 23a1 0a3c b152 90bc
00000310: ba98 aebc de44 823d fb1f c0bd a266 543d
00000320: 5637 b4bd e177 ed3d f474 fb3d 0405 783b
00000330: 2858 c6bd 3498 153d 7cad 103e 9872 1e3e
00000340: 2e8e 2ebe 9063 72bd e85a 993e 6109 913e
00000350: 0b4f c1bc a64a 9c3e 2d5d f23c a65d a83e
00000360: cd09 d5bc f822 a4bd 56ee 9cbd 5177 2d3e
00000370: a303 98be bd2f 7a3e c3d5 963e 30f5 3d3e
00000380: 6045 f9bd 724c c53e b998 3b3d 9b3d 1c3e
00000390: 31b1 5a3e 97d5 023e 31d3 43bd ed65 80be
000003a0: b61d b23e 08de 8a3d 9ec3 22bc 969b 92be
000003b0: 4784 b9bd f5df 1dbe f441 99bd b25c 97bd
000003c0: 6ddf 51bd 82f8 05be c535 e5bd 7f73 9c3e
000003d0: 9178 ce3e 8d2a a53c b88d a8bd afeb febd
000003e0: 6124 1cbe 7749 b23e eff3 cc3d 9526 e5bd
000003f0: c371 22bd b934 ffbd 65e6 503d 5fc0 60bd
-0.25527075 -0.18388195 0.12598787 -0.26840496 -0.11345394 -0.35469824 0.21384636 -0.032276172
0.20500964 -0.10611228 -0.2678525 0.097790845 -0.02672574 -0.03532497 0.04045244 0.14192729
-0.33642748 0.22236258 -0.038840648 0.043041598 -0.09615474 -0.095726155 -0.020586403 0.30659258
0.026150774 -0.082657285 -0.13480727 0.13611487 0.20773439 0.12036848 -0.11887689 -0.095727935
-0.09494233 0.057322472 0.3364809 0.017105935 0.12551561 -0.16359645 -0.058764793 0.15312956
-0.093257494 0.12851001 -0.047764424 -0.13309857 -0.094095476 0.13058853 -0.016956212 0.24069785
-0.103114635 0.10633386 0.2572286 0.13528992 0.21949159 0.043972377 -0.047258746 -0.046081312
0.20147102 0.17864788 -0.078935966 -0.11849311 -0.013722886 0.018600306 -0.023406684 -0.124095306
-0.29830942 0.16209511 -0.11796491 -0.16419943 -0.082032725 0.05874917 -0.026388759 0.11235003
-0.37812707 -0.21331108 -0.22063297 -0.20073253 -0.04638096 -0.18643893 -0.052279714 0.16384172
-0.09627587 -0.12046901 0.21639545 -0.08817537 -0.004759963 0.026374474 0.16613114 -0.05711816
0.16113564 0.21391009 -0.058608353 0.02289494 0.15432683 0.21246317 0.010208372 -0.13157952
-0.014129752 0.34182355 0.2114833 -0.082526274 -0.21330543 0.34775132 0.3028326 0.27015638
0.047255374 -0.37625533 0.09676768 -0.10201328 -0.054228734 -0.20937476 -0.15985166 0.12949815
-0.038059097 -0.12646323 -0.09929113 -0.10409903 0.25490004 0.07492548 -0.19951084 0.07842906
0.0042126477 0.12400263 0.025561774 -0.21374145 0.1143228 -0.10865265 0.07424095 -0.20654412
0.3637472 0.09624545 0.07163695 0.12619619 -0.110966206 0.19226572 0.25589496 0.23674323
-0.42491478 0.07703871 0.25431335 0.20497593 0.044326205 -0.113832936 0.24278829 -0.10039348
-0.023220606 -0.19206153 -0.11449488 -0.16533804 0.058162373 0.17161524 0.0039071254 -0.045505986
0.114919744 -0.09287313 0.21483609 -0.03800978 -0.4861894 -0.18925314 -0.19076619 -0.05988879
0.16647956 0.009681572 0.0022696385 0.32284302 -0.35760537 -0.0262572 -0.15525377 -0.07083594
-0.2471267 -0.13597806 -0.12783699 -0.17465049 -0.30554572 0.06638176 -0.187691 -0.10765263
-0.05940148 -0.048191965 0.098317645 0.2398536 0.006726022 -0.12512754 0.042108838 -0.15347481
-0.11102656 0.19219755 -0.061569225 -0.037494227 0.13055809 0.040403385 0.30417696 -0.17359091
0.035433915 -0.28145579 0.00846127 -0.017617555 -0.02131306 0.063607916 -0.093811 0.05185569
-0.08799617 0.11595131 0.122781664 0.0037844786 -0.09684783 0.036522105 0.14128679 0.15473402
-0.17046425 -0.05917698 0.29952168 0.28327468 -0.023597261 0.30525702 0.029585445 0.32883948
-0.02600565 -0.08014482 -0.076626465 0.16940047 -0.29690275 0.24432273 0.29459962 0.18550563
-0.12171435 0.38534886 0.045799945 0.15257876 0.21356656 0.1277679 -0.04780883 -0.25077763
0.34788293 0.0678063 -0.009934334 -0.28634328 -0.09058433 -0.15417464 -0.07483283 -0.07390727
-0.051238466 -0.1308308 -0.11191896 0.30556867 0.4032636 0.020161891 -0.08230156 -0.12447297
-0.15248252 0.34821674 0.10007464 -0.111889996 -0.039659273 -0.12461228 0.05100097 -0.05487096

linears.1.bias f4 [40]
00000000: 68c8 7d3d aa87 af3d 3541 293d 73f5 ea3d
00000010: 62be 18bd 627e 673d 5cfb ab3d 993d 84bd
00000020: 2cb2 eb3d cc69 8f3d b77d a83d 6907 61bd
00000030: d594 1fbd 3b11 433d 094b 9f3b 4da9 dabb
00000040: 2573 893d 621a c33c acfb a13d f33e 1fbd
00000050: b9f0 72bc 3a6d 58bd 29d8 673d 1756 49bd
00000060: fdb6 e93c a60d 2a3d 4ef3 9dbd 3d71 653d
00000070: 3e8f 3f3d 9706 bb3d 9926 2a3d 5f5e 30bd
00000080: d9f1 623d b38f 86bd 9428 1cbd 2821 a73c
00000090: 63a1 503d d005 18bd 5fd3 2cbd 3091 0fbd
0.0619587 0.08570798 0.041321952 0.11472597 -0.03729094 0.056517012 0.08397552 -0.06457061
0.11508593 0.07002601 0.08227103 -0.054938708 -0.038960297 0.047623854 0.00486124 -0.0066730143
0.06711415 0.023816291 0.07909331 -0.038878392 -0.014827901 -0.05283854 0.05660263 -0.049154367
0.028529638 0.041516922 -0.07712422 0.056016196 0.046767466 0.09132116 0.041540716 -0.04305875
0.055406425 -0.06570377 -0.038124636 0.020401552 0.05093516 -0.03711492 -0.042193767 -0.03505057

linears.2.weight f4 [40, 40]
00000000: 6813 3bbe 9151 0bbe 25c9 0d3c 476c 1b3d
00000010: 6d23 0dbe d6ac 1ebe d85b 8d3d 1449 4b3e
00000020: 1655 bf3c b2f8 003e 1115 33be 9f6e a23e
00000030: 9a1b 453d 241a 9bbd 8f22 dabd 4f9b fabd
00000040: 55ee 8cbe 58e1 59be a952 97be c9ea 92bd
00000050: 0b3e 5b3e 959c 13be 1d5a 323d db71 ea3d
00000060: bef9 53be 39c5 533c 7983 533e 63b8 4fbd
00000070: a1bf 7abe 3974 203d 6479 9abc 4be7 023e
00000080: 671d 62bd d177 e83e 69e7 903e 41a5 273d
00000090: b88b d1bd 2d73 d43c 66bc 14be c78f 913e
000000a0: 4ba7 033e 37f3 4ebc 018e 483d ceb4 58be
000000b0: e618 f7bd bcca a6be ad99 9f3d 3248 7b3e
000000c0: 614b 113e 85e2 b73d d85a 2abe c43d a0bc
000000d0: 1086 c4bd eee3 12bd 1ac5 fa3c 6c5c 2dbe
000000e0: cad5 96bd dec4 9abd 12f0 bc3e a73b 46be
000000f0: 045a e23d f833 86bd 5be7 dd3d ef6e fe3d
00000100: e9b0 f3bd 9e36 bc3c c520 743d 1c9f 76bd
00000110: bfdd 4bbe 2ad3 923e caab d93c d2ac ab3d
00000120: 26e3 8a3d 6674 02bb 15db a73d c1a9 d4be
00000130: 22a8 3fbd 5711 2ebe f8dc 443d 9b6c f33e
00000140: d4ce a0bd 0135 89bc a0f2 e83c b2fd 153e
00000150: d4b4 d43d 59c5 343e 6355 643e 86a9 ffbd
00000160: c6ee 613e 8639 29bc 21e4 e43d 26c5 eabc
00000170: 2fa1 043e d5ba 2e3e 7f95 4abe eae8 f6ba
00000180: 9c74 0d3d bd35 05be f8e7 723e 3cf3 2c3e
00000190: 9d20 33be c65d 0d3e b662 0e3e a096 97bd
000001a0: 06dc 8cbe 73a9 b8bc 1524 49bd dabc f9bc
000001b0: 82f4 bb3c 47e8 d83c b938 76bc 26a1 293d
000001c0: 4381 51be 1d5c 47be 0c01 963e 1fe1 eebc
000001d0: 3218 8d3e c261 3f3e c11d 773e fcc7 7b3e
000001e0: 10b8 803e 58b9 5d3e 45c3 183d 7b65 823e
000001f0: 8d4a f7bd 518e 16be 169d 02bd 82be 173e
00000200: 9d32 7f3e 7284 fc3d f93d 25bc 283e 4ebe
00000210: 916e 63be 4aa0 703d aca6 2cbe fb6a 8ebd
00000220: 7ad8 9bbe f85f 803e a805 473e b2e2 23bd
00000230: 152d a1be f32d 9fbe 1d4b cf3d 1ed8 5d3c
00000240: fd61 a83d c519 0d3e c4ca 2abe 03da fabd
00000250: 0266 5e3d fc5e 143d c210 e23d 212a 69bd
00000260: c924 343d 17a3 9cbe 6157 2bbd 1344 813d
00000270: f930 da3e 7451 fa3d 83ab e33d 6455 08bd
00000280: e1f1 fabd e20b 4dbe 703d b73d e475 2fbd
00000290: 6a1d c63d 0d64 683e 26cd 43bd 3ce2 c73d
000002a0: 3290 73be ac00 98be a9c8 d13d d546 143e
000002b0: 23ab 8ebd 19e4 0f3d b2bd 253d 8aea 5e3e
000002c0: b070 04be f056 81bb d7d1 23be f378 c8bd
000002d0: 195d 213d 9428 57be 5d05 e1bd 7791 95be
000002e0: 3391 d63c ff31 393c 7314 a83e fcd8 5bbe
000002f0: ef70 8bbe 5744 773c e4a0 443d efc1 ecbd
00000300: 7b0a 9bbd 3442 c53e d05e a13c 8f92 5f3e
00000310: 3517 213e 6eda eb3c 23e0 b43c c022 733e
00000320: b28e 39be b92c 9e3d fb4d 13be 57ed db3d
00000330: 33a2 2bbe 04cf 523c c1e0 5dbe e7b1 23be
00000340: f944 5d3e 00dc 673e 734f ce39 75c3 b83a
00000350: cddb ee3c bb54 11be 8f4b a53c 3be5 f7bd
00000360: c29c 8cbd fa3e 403e e47e 72bd 2fd5 e3bd
00000370: 6a08 ddbd c540 4f3e d4cf 113c 4fa9 c4bd
00000380: b2e4 00be 073d 973d 37aa 9fbe 9c29 323e
00000390: b7c4 c7be 3ad7 aa3d 6224 acbc bee8 b93c
000003a0: 6de0 52be a41d 46be 540e 3dbe dfdb a13e
000003b0: b73c 713e a198 1c3e 6b79 563e 0ecf 9c3d
000003c0: 86c9 223e f94f 383e 23d3 193d 86a1 5f3e
000003d0: 30f2 96bd 3882 3c3d 9ea2 debd 6163 073c
000003e0: 8cb4 0bbe 261b 1cbe 2609 5f3e 9aad 4e3d
000003f0: 11b6 68bd f7c3 34be 56f0 4b3e 51e7 e03d
-0.18269122 -0.13605334 0.008653914 0.03794506 -0.13783045 -0.15495619 0.069022834 0.19852096
0.023356002 0.1259487 -0.17488505 0.31725022 0.048122026 -0.07573345 -0.10651123 -0.12236654
-0.27525583 -0.21277368 -0.29555252 -0.07173688 0.21410386 -0.144152 0.04354297 0.114474975
-0.20700738 0.0129254395 0.20655622 -0.050712954 -0.24487163 0.03917334 -0.018856712 0.12783544
-0.05520382 0.45403913 0.28301552 0.040929083 -0.10231727 0.025933826 -0.14524993 0.28430006
0.12856786 -0.012631229 0.04896355 -0.21162722 -0.12065296 -0.3257655 0.07792983 0.24539259
0.14188911 0.08978752 -0.16636217 -0.019560702 -0.09595883 -0.035861902 0.030611563 -0.16929787
-0.07364996 -0.07557081 0.3690191 -0.19358693 0.11052325 -0.06552881 0.10835143 0.12423503
-0.11898977 0.022975262 0.059601564 -0.060210332 -0.19908808 0.2867673 0.026571173 0.08382572
0.067816064 -0.0019905805 0.081960835 -0.41535762 -0.046791203 -0.16998802 0.048062295 0.47543797
-0.07851949 -0.016748907 0.028436005 0.14647558 0.10386053 0.17653407 0.22298197 -0.12483506
0.22063741 -0.010328656 0.11176325 -0.02865846 0.12952112 0.17063458 -0.1978359 -0.0018837724
0.034535035 -0.13008781 0.23721302 0.16889662 -0.1749291 0.13805303 0.13904843 -0.07401776
-0.27511615 -0.022541737 -0.049106676 -0.03048556 0.022943739 0.026477946 -0.015028172 0.04141345
-0.20459466 -0.19468732 0.29297674 -0.02916008 0.27557522 0.18689635 0.24132444 0.24588007
0.2514043 0.21652734 0.0372956 0.25468048 -0.12074766 -0.14702727 -0.03188809 0.14818767
0.24921651 0.123299494 -0.010085576 -0.20140898 -0.22210146 0.058746614 -0.16860455 -0.06953999
-0.30438596 0.25073218 0.19435751 -0.040011115 -0.31479707 -0.31089744 0.101217486 0.013540296
0.08221815 0.13779362 -0.16678911 -0.12248614 0.0542965 0.036223397 0.110383525 -0.056924943
0.043980394 -0.30593178 -0.041831378 0.06311812 0.42615488 0.12222567 0.11116698 -0.03328456
-0.12253166 -0.20024064 0.08947265 -0.04283704 0.09673579 0.22694416 -0.047803067 0.09759948
-0.23785475 -0.29688013 0.10243351 0.14480145 -0.069662355 0.03512964 0.04046411 0.21769157
-0.12933612 -0.0039471313 -0.15998016 -0.09788694 0.039395425 -0.21011573 -0.10987351 -0.29212543
0.026192283 0.011303424 0.32828102 -0.21469492 -0.272346 0.015091977 0.048005 -0.115604274
-0.07570358 0.3852707 0.01969853 0.21833251 0.15731509 0.028790679 0.022079533 0.23743725
-0.1812084 0.07723374 -0.14385216 0.10738628 -0.16761093 0.012866739 -0.21667768 -0.15985833
0.21608342 0.22642517 0.00039350576 0.0014096337 0.029157544 -0.14192478 0.02017763 -0.12104269
-0.06865837 0.18774024 -0.059203044 -0.11124646 -0.107926205 0.20239551 0.008899648 -0.096026056
-0.1258724 0.07384687 -0.3118455 0.17398685 -0.3901727 0.083418325 -0.021013442 0.022693988
-0.20593424 -0.19347245 -0.18462497 0.3161306 0.23558317 0.15292598 0.20944755 0.0765668
0.15897188 0.17999257 0.03755487 0.2183896 -0.07370412 0.046022624 -0.108708605 0.00826344
-0.13643092 -0.15244731 0.21780834 0.050458528 -0.056814257 -0.1765288 0.199159 0.1098162

linears.2.bias f4 [40]
00000000: ac62 1fbd df81 e5bc 7e7b 623c d05f 0a3d
00000010: 7fc7 c43c 5dd6 c2bb 3b8c 86bc 02a4 bbbc
00000020: dc4a 38bd f390 97bd 7753 683d 4143 9e3d
00000030: df5b dcbd f689 61bc 78af 5cbd 8a40 413d
00000040: cd00 c43c 7ed8 67bb e505 223d cfc3 603d
00000050: 5364 2cbd ef31 11bd 3959 15bd c078 37bd
00000060: 090d a7bc cbb6 03bd 41fb eabc da2f c43c
00000070: 37f1 04bd 21f0 c33c a7e4 f2bc f6a7 69bd
00000080: 33d3 123d 8332 fd3c d63b 6c3d 1119 5fbd
00000090: 10d1 743d 9d9c 2fbd f49b bbba 9349 e6bc
-0.03891246 -0.028016029 0.013823388 0.03378278 0.024020908 -0.0059459643 -0.016424289 -0.022905353
-0.044993266 -0.07400694 0.056720223 0.077276714 -0.107597105 -0.013765803 -0.053878278 0.04718069
0.023926163 -0.0035376842 0.039556403 0.054874238 -0.042087864 -0.03544801 -0.036462042 -0.04479289
-0.020391958 -0.032156747 -0.02868426 0.023948599 -0.032456603 0.023918213 -0.029650046 -0.057044946
0.035845947 0.030907875 0.05767425 -0.054467265 0.05976969 -0.042873967 -0.0014313445 -0.028111255

linears.3.weight f4 [40, 40]
00000000: 0ac9 0abe cc9f 173d 3408 01be 4c2b c43c
00000010: a8aa 6f3e 3ee2 39be 81b7 49bc 3ff7 9a3c
00000020: f08f 223e 5511 3d3d 937b 333e 2ee9 82bd
00000030: 98c4 073e acdd 9ebe a734 ce3d 9513 61bb
00000040: 9c0c 0c3e 061c e4bd 565c c4bd 8bc9 0cbe
00000050: 31fd 0fbe 4479 db3e d8fd 9a3e da51 ed3d
00000060: 8d72 4abc bc14 dbbd 1f7b 40be da6d adbe
00000070: 9319 2a3d bddd b13e 7751 55be 6581 ac3d
00000080: f7ca 1ebd 405b 32be 1537 3fbc 8c17 1abe
00000090: 201a 7f3e 3e4f 5c3c 26eb 8cbd aed9 463e
000000a0: 400c 993e 62ff 46be 0bac 283e ceab cabc
000000b0: b9e4 41bd 373d 4d3e ee0a 4a3e e90c 273e
000000c0: 8d94 773d 3711 fe3d a83f 8dbe 3c48 9d3d
000000d0: 1057 033e 69bf f6bd eb3c 61be b4a0 a6be
000000e0: 2f9c bebd d505 5f3e 5e65 383e 5eee 4fbe
000000f0: 9ff0 adbc a245 5f3c 057f 0cbe fa30 66bd
00000100: 8c3d 4fbe 0c1c 153d be4a 053e f1a7 c7bd
00000110: fffd 193d 6df4 02be 1ba0 003e 34b4 893d
00000120: 95fb 93bc c9dc 04be 29dc 363e 783d 873e
00000130: 36c4 4b3c 0ecb c2bd ae79 6bbc ff7e 7cbd
00000140: 8b09 48bd 1129 d4bd 8586 b5be 09ee afbe
00000150: 8853 1e3e f6a3 fabd c2e2 663b 0653 293d
00000160: f73f fdbc 57d5 ec3d 4d13 e9bd 2db3 adbd
00000170: ba62 863e d5a4 48be 4dcb b53e 186a 10bd
00000180: 9e0f 863c dd45 9fbe 2c61 ddbc f22b 55bc
00000190: 72dd 3e3e 1a47 cd3e 4d12 0a3e c35e 053e
000001a0: 026c 2cbe 02d7 253e f718 e63d cea0 00bf
000001b0: b25d ebbd 33ae 86bd ab16 46bd 0887 cd3c
000001c0: d047 a0bd 929c 67be 500f cd3d df6d 273e
000001d0: 2480 373d 4c79 39bb 1cfa a9bc e13e 9fbc
000001e0: d996 0abd fb12 583d 35a5 de3c f851 083c
000001f0: 183c 623e 3b51 3f3d 3607 a0be 931b 31bc
00000200: a7ca 19be 1c95 2c3d 8880 083e 12c2 c5bc
00000210: ca84 acbd dae9 e2be b454 0a3d 2ef8 3d3e
00000220: 71b1 d03c 0a48 a03d 8881 b4bd 6126 85bd
00000230: 82cb 8a3d d03c 5abe 2f8c 85be 182c c83e
00000240: cb42 29bd 5a01 98bc faf9 c1bd 723c ee3d
00000250: 38ea 2c3d 66c2 c83b ec26 9b3d 3929 52be
00000260: 90aa 753e 0f31 8a3d 20e8 413d f655 59be
00000270: eb54 13bc f8c6 f7bd fce7 6a3e 8e9f 67be
00000280: 5c7f 153e a627 613d d530 af3e 6dd7 96be
00000290: c95f 783e df55 ee3c 0e5d 833e 0b89 603c
000002a0: 3bf9 323e beaa 683c e4b2 78be 7244 fabc
000002b0: 7fb2 dfbc 031c dbbd d845 e53d a4e2 e3be
000002c0: 9c1b 37be a571 0c3d 1867 ebbd a386 97be
000002d0: 359f c7bd 821a 6cbd 8684 f93d f3d0 803e
000002e0: b14c 5e3e 89d0 833e 869e 953e 16b5 0b3e
000002f0: 0702 f7bc 3cc0 893b ffd1 6cbe d03d 213d
00000300: a0ba f63d 6bdc 8fbe 136e 53be 0384 153e
00000310: 5321 6a3d 0f3b 16be f33b eebc 2202 31be
00000320: 2441 023e 332a 043e cf96 823e cd86 a73c
00000330: 1eb5 e63c d349 59be 29cd 4a3e 0870 84be
00000340: 99e7 c23d 210d fe3d 5030 c33d 044c afbd
00000350: 8457 4cbe 6c34 a9be 247f 99bd 8d77 833e
00000360: 23bf e2bd 5ea0 be3d b4fb c7bd 9fd6 a5bd
00000370: 3dbf df3d 08b1 c13d 455f 5d3c 9b35 fc3c
00000380: 67a7 053e e7ae 063e abfc c9bd 3496 55bb
00000390: ed99 ac3e 78fb c53c 7fb9 c53d 5cf5 9abd
000003a0: c76c 26be f6e2 85be ebfd 33bd 7335 5dbe
000003b0: c94f b0bd db98 9c3e 13f0 5f3e e1f3 febc
000003c0: a963 fabd a26a 813e 6383 acbc 5132 60bc
000003d0: c7f9 b33a 03a9 053e 80d7 b53d e4e3 cebd
000003e0: c633 843e b777 a73e d26c 063e 0e81 5c3c
000003f0: 2973 fcbd 2037 853d f1ee a53d 0bb1 2cbe
-0.13553253 0.03701763 -0.12600785 0.023946427 0.23404944 -0.18152711 -0.012311817 0.018916724
0.1587522 0.046159107 0.17527609 -0.06392132 0.13258588 -0.31028497 0.100686364 -0.0034343947
0.13676685 -0.111381575 -0.09587924 -0.13748758 -0.14061429 0.42865956 0.30271792 0.115878776
-0.012356413 -0.10697314 -0.18796967 -0.33872873 0.041528296 0.34739485 -0.20831858 0.084231175
-0.03876778 -0.17417622 -0.011670847 -0.15048045 0.2491231 0.013446627 -0.068807885 0.19418976
0.29892159 -0.19433358 0.16471879 -0.024740126 -0.047337268 0.20042883 0.19730732 0.16313519
0.060444403 0.12405627 -0.27587628 0.07679793 0.1282618 -0.12048227 -0.21995895 -0.32544482
-0.093071334 0.21779568 0.18007419 -0.20305774 -0.021232901 0.013627442 -0.13720329 -0.05619905
-0.20238322 0.0364037 0.13016793 -0.09748829 0.037595745 -0.12788554 0.12561075 0.06723824
-0.0180643 -0.12974848 0.17857422 0.26414084 0.012436917 -0.09511386 -0.014372272 -0.06164455
-0.048837226 -0.10359395 -0.35454193 -0.34361294 0.15461552 -0.12238304 0.0035230373 0.041338943
-0.03091429 0.11564129 -0.113806345 -0.08481441 0.26247197 -0.19594128 0.3550667 -0.03525743
0.016364869 -0.3110799 -0.027023874 -0.013010966 0.18639162 0.4009331 0.13483544 0.1302443
-0.16838077 0.161953 0.112352304 -0.5024537 -0.1149248 -0.065761946 -0.04836146 0.025088802
-0.07826197 -0.2261832 0.10012686 0.16350506 0.04479994 -0.0028301058 -0.020749144 -0.019439163
-0.033835266 0.052752476 0.027178386 0.008320324 0.22093236 0.046708327 -0.31255502 -0.010809797
-0.15018712 0.04213439 0.13330281 -0.024140391 -0.08423765 -0.4431904 0.033772185 0.18551704
0.025475236 0.0782624 -0.088137686 -0.06501461 0.06777097 -0.2131226 -0.26083514 0.3909614
-0.041323464 -0.018555332 -0.09471507 0.11632623 0.042215556 0.0061266897 0.07575783 -0.20523538
0.23990846 0.067476384 0.047340512 -0.21224198 -0.008992414 -0.12098497 0.22940058 -0.22619459
0.14599365 0.054969452 0.34216943 -0.29461232 0.24255289 0.02909368 0.25656933 0.013704549
0.17477886 0.014200864 -0.24286991 -0.030550215 -0.027306793 -0.10698702 0.11194962 -0.4450885
-0.17881626 0.034288067 -0.11494273 -0.29594907 -0.09747163 -0.057642467 0.1218348 0.25159416
0.21708943 0.25745037 0.29222506 0.13643298 -0.030152334 0.0042038243 -0.23126982 0.03936559
0.12047315 -0.28097853 -0.20647459 0.1460114 0.057160687 -0.14670967 -0.02908132 -0.1728597
0.12720162 0.12906723 0.25505683 0.02045002 0.028162535 -0.21219568 0.19804825 -0.25866723
0.0951683 0.12404848 0.09530699 -0.08559421 -0.1995526 -0.33047807 -0.07494953 0.25677148
-0.11071613 0.09307931 -0.097648054 -0.08097576 0.10925148 0.09457594 0.013511484 0.03078728
0.1305214 0.13152657 -0.09862646 -0.0032590749 0.33711186 0.024167761 0.09654521 -0.0756633
-0.16252433 -0.2614972 -0.043943327 -0.2160242 -0.08608968 0.3058537 0.21868925 -0.03112215
-0.1222604 0.25276667 -0.021058744 -0.013683871 0.0013731056 0.13052754 0.08878994 -0.101020604
0.2582075 0.32708523 0.13127449 0.013458503 -0.123266526 0.06504655 0.08102215 -0.16864412

linears.3.bias f4 [40]
00000000: 0d37 55bc 6952 0bbd f358 8dbd 331c 053d
00000010: 7efb 05bd fb2c a9bc 7f05 a7bc d0d3 c3bc
00000020: 5645 e23c 63f7 50bc 5d99 6c3c 3299 07bd
00000030: d6cf 1e3d b5a9 04bd d4c0 30bc 1b4a 6dbd
00000040: 010b 0fbb 6845 b2bd 30a0 9dbb 12b5 22bd
00000050: 927d 51bd 9d32 acbc 1ab4 823c b8f7 2cbb
00000060: 04c9 943d 1193 95bc c6e4 3fbd 3b55 d03c
00000070: 9993 383d 4457 64bc b747 a83c 890e e2bc
00000080: 6370 953c 2d1d 74bd 0962 043d 627a bbbc
00000090: 3cb0 f93c 6d69 7fbc cb94 e03c b874 93bc
-0.013013613 -0.03401414 -0.06901731 0.032497596 -0.032710545 -0.020651331 -0.020388363 -0.023904711
0.027620953 -0.012754294 0.0144408615 -0.033105083 0.038772427 -0.032388408 -0.010788161 -0.057932
-0.0021826627 -0.087046444 -0.0048103556 -0.039723463 -0.051145144 -0.021020228 0.01595502 -0.002639277
0.07264903 -0.018258603 -0.046849035 0.025431266 0.045062635 -0.013936821 0.020542009 -0.027594822
0.018242067 -0.059598137 0.032320056 -0.022885505 0.030479543 -0.0155891 0.0274147 -0.017999992

linears.4.weight f4 [40, 40]
00000000: c5ef e2bd 36b7 9dbd af8d 623e 09f2 793e
00000010: 9638 523e 31e5 943d b363 d83d 9b0c 233e
00000020: f060 5d3e 9e52 d0bb f1d4 d3bd 9740 4c3e
00000030: b559 373e 726c 273e 75fa 5f3d 1b1f c73c
00000040: 3b6b 09bd 7ee2 2b39 6e21 4e3d ca56 a33d
00000050: 594a 0bbe 8bc2 f43c 4dc6 003e 570f 973e
00000060: b78b 80be f7e0 a0bd a969 31be 87bb 913d
00000070: 4603 1c3d 131c f0bd 973f 23be d015 083e
00000080: 6376 803e 963d aabc 8d96 43bd 8ecb f3bd
00000090: 55bb 48be 60dd 6ebe ba57 8d3e 4f59 f83d
000000a0: 6093 c43d f297 d53d 397b 16bd c83f 48be
000000b0: 679c 1cbe 878a 203d 9012 78be d6e0 8d3e
000000c0: 3369 983d 573c 07be 2b84 293e 94d5 bcbd
000000d0: 88ce e23d d5fd 0b3e d2ec 55bd 5c2b e9bb
000000e0: 1132 8a3d 2b9a a73d 7593 8f3d 3083 b9bd
000000f0: ed41 6a3d c816 e9bd ae51 dc3d 1f5c 343e
00000100: 7b1a 90be 9c79 8b3d 8a74 95be df4a bd3e
00000110: 6248 a43e fb5e 03be 4aa0 4f3d dd06 3f3d
00000120: 1aa5 783d 91d4 82be abef 173e 5fe2 3fbe
00000130: b62e 83bd e4df da3d b5f0 32be 00a1 cd3d
00000140: 192a 85be 40cc b53e cf35 11be a873 543d
00000150: 80e1 9e3d 187e 5d3e 989d 15bb bf85 b23d
00000160: 9e87 a3bc e4cb 4c3d 52c3 953d c653 8c3e
00000170: 06e8 86be 41d5 0abe 95a6 003e 69e0 4abe
00000180: 2249 ae3d 345a d8bd f23c 973b 0303 a73d
00000190: 7bb8 5e3d d258 523d 2827 89bc 8091 08be
000001a0: 1cf1 21bd 59e3 57bd 943d 4a3e e755 8e3d
000001b0: 652b 143d 842b 20be 286c a03d ac60 843d
000001c0: 741a 743e 384f 10be 3a83 b7bc 77a3 4ebd
000001d0: 2bc1 d0bd 0a0d 043e 70a9 293d e503 fe3d
000001e0: 9298 9f3c 469f 53be e19f 81be d3bf 7e3e
000001f0: 8223 813e 4f8f 60be 85ae 813e 9a87 a93e
00000200: 0812 93bc 0229 b33d daf1 8dbe d396 dd3d
00000210: 7eb0 193e 7923 50be 0f80 093f 8c1a 71be
00000220: 10d3 8a3e c397 d4bc 9e3c 9bbe 3c7e ac3d
00000230: 24d8 dabe 0e36 a2bd 3a9b 74bd 9f6e 80be
00000240: b709 b13d 4c22 00be b364 d43d aa42 163e
00000250: d86f 77be d655 9c3e 2076 943b 1eb6 223e
00000260: 9f45 3bbd 6e53 933d cac3 fdbe da21 cc3d
00000270: 855d ba3d 7bec 59bd c86e 08be 341e 5f3e
00000280: 1c42 1c3e 4f32 4f3b 1103 213d f2b7 edbd
00000290: a2c1 95bd 7a16 5c3e 6d4e 63be fd6d 76be
000002a0: 7570 683d 648b a9be 786c ce3e d423 f53d
000002b0: fb54 c4bd 3af4 223d 678a 913e 47a1 b13a
000002c0: dc8b f7bd 07b6 3abe b8a2 babd f1af eb3c
000002d0: 1070 47be e09e 7dbb 540f 3ebe 3b76 ffbc
000002e0: da7c a93e fe00 24be 32f3 e6bd 54df dabe
000002f0: 7458 363c 4009 a03d 05ae 9d3d 9202 073e
00000300: 9638 9a3d 05a0 60be 75c6 6dbe 886f c73b
00000310: 9041 7e3e 8c57 1c3e f1cd 15be d0be 823d
00000320: 78f6 543e c9ef 183e e24f a73c 7e03 c4bd
00000330: 0ba2 edbd 4754 aebe 76ef 8ebd 57ce 853d
00000340: 8442 67be 0ad5 4b3e 1273 843e d789 06be
00000350: f8f1 553e d987 adbd 7995 47be 941d b6bd
00000360: a157 323e 0d6b 48be 1fcc 84be 812b c7be
00000370: 2924 84bd 7677 58be 212a 70be 4a40 e53d
00000380: 0c8e 8f3e 9c88 aebc 70da 063d 7b38 813d
00000390: 4f52 823c 6bbe 5b3e 38a8 193d f3af ce3b
000003a0: e5c7 5bbe 471a 0abe 4a56 243d 56f0 72be
000003b0: e6f6 32be 4c43 0abd 110c 8d3c 88d4 4439
000003c0: f406 69bc 58f2 a2be 2b95 3bbe 7d57 e7bc
000003d0: 8fe3 d4be d195 273e 9758 b63d 160a 603e
000003e0: ed6f 7b3d fc82 02be 2823 23bd 5e7a 303e
000003f0: 06a4 793e f82c 6e3e b7bb 393e 7dfa 37be
-0.11080889 -0.0770096 0.2212436 0.24408735 0.20529398 0.07270277 0.10565891 0.15922777
0.2161901 -0.006357505 -0.1034335 0.19946514 0.17905314 0.16349962 0.054682214 0.024306824
-0.03354953 0.00016392206 0.05032485 0.07975538 -0.1360258 0.029877922 0.12575646 0.2950389
-0.25106594 -0.07855409 -0.17325462 0.07115846 0.03808906 -0.11724105 -0.15942226 0.13289571
0.25090322 -0.02078132 -0.047751 -0.11904059 -0.19602711 -0.23326635 0.27605993 0.12126409
0.09598422 0.10429372 -0.036738608 -0.1955558 -0.15294038 0.03919461 -0.24225831 0.277106
0.0744194 -0.13206612 0.16554324 -0.09220424 0.11074549 0.13671048 -0.052227803 -0.0071157645
0.06747831 0.08183702 0.07010547 -0.09058225 0.057191778 -0.11381298 0.10757767 0.17613266
-0.28145203 0.068103045 -0.29190475 0.36971185 0.32086474 -0.12829201 0.050689973 0.046637405
0.060704328 -0.255528 0.1483752 -0.18738697 -0.06405394 0.10687235 -0.17474635 0.10040474
-0.2600868 0.35507393 -0.14180683 0.05186811 0.077578545 0.21630132 -0.002282953 0.08716916
-0.019962128 0.049999133 0.07312645 0.27407664 -0.26348895 -0.13557912 0.12563546 -0.19812168
0.08510043 -0.1056408 0.0046154195 0.08154871 0.054375153 0.051354237 -0.016742304 -0.13336754
-0.03953658 -0.05270705 0.19750053 0.06949978 0.036174197 -0.156416 0.07833129 0.06463751
0.23838216 -0.1409272 -0.02240144 -0.05044886 -0.10193094 0.12895599 0.041421354 0.124030866
0.01948193 -0.20666227 -0.2531729 0.24877863 0.25222403 -0.21929668 0.2532846 0.33111268
-0.017952934 0.08748056 -0.2772358 0.10819783 0.15008733 -0.20326032 0.53711027 -0.23545283
0.27114153 -0.025951272 -0.30319685 0.08422515 -0.42743027 -0.07920466 -0.059718348 -0.25084397
0.08644431 -0.12513083 0.10370769 0.14673868 -0.24163759 0.30534238 0.004530683 0.15889785
-0.045720693 0.07193647 -0.49563438 0.09967394 0.09099869 -0.05320404 -0.1332351 0.21788865
0.15259594 0.003161568 0.039309565 -0.116073504 -0.07312323 0.21492949 -0.22197886 -0.24065395
0.056747872 -0.3311416 0.4031713 0.11969724 -0.09586521 0.039783694 0.28425905 0.0013552093
-0.12087223 -0.182335 -0.091130674 0.028770419 -0.19476342 -0.0038699433 -0.18560535 -0.031184306
0.33103067 -0.16016003 -0.112768546 -0.4274851 0.011129487 0.07814264 0.07699207 0.13184574
0.07530324 -0.21936043 -0.23220237 0.0060862936 0.24829698 0.15267771 -0.14629342 0.06384051
0.20797145 0.14935221 0.020423833 -0.095709786 -0.11603173 -0.34048674 -0.06979267 0.06533497
-0.22583967 0.19905487 0.25869042 -0.13138519 0.20893085 -0.084731765 -0.19490613 -0.0889236
0.1741624 -0.19572087 -0.25936982 -0.38900378 -0.064522095 -0.2113932 -0.23453571 0.11193903
0.2803806 -0.021305375 0.032923162 0.06309601 0.015908388 0.21459357 0.03751394 0.006307596
-0.21462972 -0.13486587 0.040121354 -0.23724493 -0.17476997 -0.033755586 0.017217668 0.0001877119
-0.014222849 -0.3182552 -0.18318622 -0.02823996 -0.41579863 0.16365744 0.08903616 0.21878847
0.061386038 -0.12745279 -0.03982845 0.1723418 0.24378976 0.23259342 0.18138014 -0.17966647

linears.4.bias f4 [40]
00000000: 216a ebbc bbe0 293d 7e1d 823c 0f57 4abc
00000010: 5adc 54bc dba2 d83c de12 6d3d f846 963d
00000020: 5c2c 8e3c b15f e93c 5fc0 a2bc 8971 7a3c
00000030: 0f90 19bd 86d8 19bd 03bd 513d d114 4bbd
00000040: 6644 6dbc c3bc 95bc 8d97 0dbd 3219 b6bc
00000050: cf0c cb3c d5b2 d5bc 796d c33d 67c4 483d
00000060: e238 423c dd44 243d 13d6 b6bc 2c93 c53c
00000070: 5369 853d 46ee 81bc c677 563d 558b 2c3d
00000080: 95e1 0e3c 3eb0 023d 576d a63c 9726 433c
00000090: 3fd7 d6bc 1f43 febc 3d9f 83ba e46c c13a
-0.02873713 0.041474085 0.015883204 -0.012349858 -0.012991989 0.026444843 0.05787932 0.07337755
0.017355137 0.028488012 -0.01986712 0.015285858 -0.0374909 -0.03756001 0.051205646 -0.0495804
-0.0144816395 -0.018278485 -0.03456836 -0.022228811 0.024786381 -0.02608625 0.095423646 0.04901543
0.011854382 0.040104736 -0.022318875 0.024118029 0.065142296 -0.015860688 0.05236032 0.042125065
0.008720775 0.03190636 0.02031581 0.011911056 -0.026225684 -0.031037865 -0.0010041964 0.0014757183

linears.5.weight f4 [40, 40]
00000000: 3be8 033e 9042 de3b 4c11 abbd 70d8 77bd
00000010: a086 853e 721d 6b3e a11b 463e 1e2e 1b3e
00000020: d5fc c53d 52a3 e03e b942 8c3e ec64 70bd
00000030: 4b55 c73e b791 fb3c 26b4 2ebe f74e 31bd
00000040: ac9c 85be 4c4e fabd af87 04be 3b76 b0bd
00000050: 5e57 2b3e 0b84 e5bd 2dc5 8b3d e66d 99bd
00000060: 3946 40be c87e 05be d2a0 ef3c 8926 493c
00000070: 449d 48bd cc0b 27be 9104 42be 0014 a5bd
00000080: 7f1c 05be 9a44 e83c 3dad d8bd 5480 25bc
00000090: 5a8c 943d f957 133e 88fe 55be 7b00 05be
000000a0: 457e afbc 4d0b 503e 1a23 8e3d 730d b03d
000000b0: 34af 47be ea32 31bd bffe cd3d c394 f83c
000000c0: dfed b73c 80d8 673c 4d44 183d 8464 30bd
000000d0: 8e86 0dbe f437 bebc 7e6b d7bd 5aea 60be
000000e0: ef90 933d 37b9 2e3e 7076 bcbc a639 243e
000000f0: 3af6 68bc ffee 1c3e 7590 edbc 0df3 56be
00000100: 7d1b 8c3e a2fe e4bd 78fa 073e 83f1 953d
00000110: b4d0 41bd 9742 113f da39 603e 6613 d53d
00000120: e9d9 643e 4fab 04be 911e 8d3d 7a19 9f3e
00000130: 9833 c0bd 6731 d73e eb3f 43be 6540 a53e
00000140: 7519 1bbe e893 4bbd 5fe0 2e3e d6b5 c9be
00000150: bcb2 98bd 1e99 253d 4792 88bc c387 5a3e
00000160: e7f5 a03d 3198 99be 274b c3bd 6577 c93e
00000170: fcdd bb3d ee34 95bd 7437 86be 6651 acbd
00000180: e508 0a3e 83f3 77be 5002 7abd 7576 03be
00000190: d01b ffbc 0293 c1bd f2e1 ee3d 0a00 91bd
000001a0: b397 f0bd 27e1 283e a3cc 75be 43ad ee3d
000001b0: 7aef ce3e 730b 2d3d f1d0 e9bd 66b1 f23c
000001c0: ac8a 1cbd c133 26bc afca 863e 66c6 9abe
000001d0: f130 e93a d8ad 203d 2031 81be 5fea abbe
000001e0: 65cf 26be e92d 843e 8c45 e63d 0472 ad3d
000001f0: 15bb 79bd 74b8 febc 7258 d43e 73d4 43bb
00000200: 6f3f e83d bfdf 40be e0da 82be a79a 503d
00000210: 5c5a 9fbe 37a0 5bbd b7cd 05bd f61f a03d
00000220: 03dd 0abc 2b4c a13e 93a6 8f3e 20e0 2c3e
00000230: ff60 05be 6dd9 27be 5d7d 153e 9e86 ab3c
00000240: b7c4 a63c 8840 523e a0bb 82bd 8a09 073e
00000250: d27e 6b3e 4d1f f83d 4a0f d03b 0672 073e
00000260: 0af6 81bd 7fe4 73be 0f8f 15be b089 a43c
00000270: 2295 bd3d 95e7 083e c414 8ebd acbb cf3d
00000280: 9f1e f53c ccee 37be 10cb ad3d 0c19 a2bd
00000290: d14b 00bd 558c 9c3d 4219 89bc d9c1 f9bc
000002a0: e5d4 2fbe eff6 9abd dacf e2bc 8bf3 58be
000002b0: 8433 4bbe 08d3 3b3c 7ae6 03be 78eb 163d
000002c0: a97a ecbd f699 0ebe 3b7d 5ebe 58c9 9c3d
000002d0: 67c1 4dbe cf69 5ebe 8b4a 8e3b 9dcc 58be
000002e0: 8465 eb3d 9d07 35be 6193 6fbd 9a18 a33e
000002f0: 7dfe 9a3e 6325 793d 19a2 033e 4d44 7d3d
00000300: 8c4d b4be e79f ef3d 147b 7bbe bf7a 723e
00000310: f038 dabd cd24 d0bd bbb4 053e 7c1c 5c3e
00000320: a04f 9e3c b3c8 473d a60e 993d ee44 98bd
00000330: e807 77bd 1207 57be 3682 f83d a30f b43d
00000340: 78b4 64bd a2bf ad3c 9211 51bd 2bb5 98be
00000350: 160c b53a f896 2b3d 186c f43e eafb 69be
00000360: 4237 083e cc23 79be c7b5 e4bd 8a0b b23e
00000370: e2b6 1ebe b1e4 d7bc cea8 eabc aa04 2c3d
00000380: 45b3 d5bd 5f8c e23d 71d6 0a3d a273 313e
00000390: d205 19bd 9045 623c 5bd0 52be 32fc 853e
000003a0: 7630 a03d dce0 8ebd b3c9 aa3d 8cc3 66bd
000003b0: a362 d73d 0026 babe 90ec e6bc 8be3 2c3e
000003c0: f71f c13d a404 ddbd 8e1b 1bbe 35c2 063e
000003d0: 37a5 823b 2a13 4e3d 2a62 d03d 38d5 71bd
000003e0: 0b30 bf3d e90a 3f3d e371 ec3d 4f8f 4e3e
000003f0: 3909 69be 367b 363b 9e3f b53d 61aa 1cbd
0.12881558 0.006782837 -0.083529085 -0.060509145 0.26079273 0.22960451 0.19346477 0.15154311
0.096673645 0.43874604 0.27394655 -0.058689997 0.3893226 0.03070913 -0.17060909 -0.043288197
-0.26096094 -0.12221965 -0.12942384 -0.08616301 0.16732547 -0.11206826 0.06824718 -0.074916646
-0.18776788 -0.13036644 0.02925149 0.012277254 -0.048978105 -0.16313094 -0.18947054 -0.08060455
-0.12999152 0.028353024 -0.105799176 -0.010101397 0.072533324 0.14389028 -0.20897877 -0.12988465
-0.021422515 0.20316811 0.06940289 0.08596315 -0.19500428 -0.043261446 0.100583546 0.030344373
0.022452293 0.014150739 0.03717451 -0.04306461 -0.1382086 -0.02322004 -0.105185494 -0.21964398
0.07205378 0.17062841 -0.023005694 0.16037616 -0.014218861 0.15325545 -0.028999547 -0.20991154
0.27364722 -0.1118138 0.1327914 0.07321455 -0.047318175 0.56742233 0.21897069 0.104040906
0.22348751 -0.12955974 0.06890596 0.31074125 -0.09384841 0.42029878 -0.19067352 0.32275692
-0.1514643 -0.0497016 0.17077778 -0.39396542 -0.07455966 0.040429227 -0.016671313 0.21340851
0.07859402 -0.29998925 -0.095358185 0.39348903 0.091731995 -0.07285486 -0.26214182 -0.08413963
0.13479955 -0.24213986 -0.06103736 -0.12838157 -0.031141192 -0.09451868 0.116641894 -0.070800856
-0.11747684 0.16492139 -0.24003844 0.11654141 0.4041708 0.042247247 -0.114168055 0.029625606
-0.038218185 -0.010144175 0.2632651 -0.3022949 0.0017791075 0.03922829 -0.25232792 -0.33577248
-0.16290052 0.25816277 0.11243734 0.084690124 -0.06096943 -0.031093813 0.41473728 -0.0029881268
0.11340224 -0.18835352 -0.25557613 0.050928738 -0.31123626 -0.05361959 -0.032666888 0.07818596
-0.008475545 0.31503424 0.28056774 0.16882372 -0.13025282 -0.16391535 0.14598604 0.020938214
0.020357473 0.20532429 -0.06383443 0.13187233 0.22997597 0.12115345 0.006349479 0.1322709
-0.06345756 -0.23817633 -0.14605354 0.020085186 0.092569605 0.13369592 -0.069375545 0.101432174
0.029921828 -0.17962188 0.08485997 -0.079149336 -0.031322304 0.07643954 -0.016735677 -0.030487942
-0.17171057 -0.0756663 -0.027687002 -0.21186654 -0.1984387 0.011463888 -0.12880889 0.036845654
-0.11546833 -0.13925919 -0.21727459 0.07655591 -0.20093308 -0.2172005 0.0043423823 -0.21171804
0.11493972 -0.17678685 -0.05849016 0.31854707 0.30272284 0.06082667 0.12854804 0.061832715
-0.35215414 0.11700421 -0.2455867 0.23679636 -0.10655391 -0.10163269 0.13057224 0.21495241
0.019325078 0.048775386 0.07473497 -0.07435022 -0.060310274 -0.20998791 0.12134211 0.08792045
-0.05583617 0.021209542 -0.051042147 -0.2982572 0.0013812806 0.041892022 0.4773872 -0.22850004
0.13302329 -0.24330062 -0.11167484 0.3477443 -0.15499452 -0.026354166 -0.028644945 0.041996635
-0.104345836 0.1106193 0.033895914 0.17329267 -0.037359066 0.01381053 -0.20587294 0.26168972
0.07821743 -0.06976482 0.08339252 -0.05633883 0.1051686 -0.36357117 -0.028188974 0.16883676
0.09429925 -0.10791901 -0.1514723 0.13160022 0.0039869803 0.050311245 0.10174973 -0.059041232
0.09335335 0.046641264 0.1154516 0.20171855 -0.22757424 0.0027844436 0.08850025 -0.038248423

linears.5.bias f4 [40]
00000000: b832 63bd 7014 efbc e8a8 76bd 3b97 8ebc
00000010: cd33 0bbd 4ff5 b13d dbd5 763d 742c 6bbc
00000020: 7016 a73c f027 ad3c de0b f0bc 333f 2abd
00000030: fd14 8abd 7acc 8e3d 4c0b c63c 6c41 b5bd
00000040: 96ed 8dbd a9b8 5dbd 411f 08bd 9111 cebc
00000050: d901 433d e380 1a3d 382b debc da1c 21bd
00000060: abf6 80bc b61b a2bc 4dba 173d 7f44 c4bc
00000070: 3f0e 653d 2afd 0f3d ba76 84bd 1b43 df3c
00000080: 107f 683c 4a92 bebb 844d 603d 2fdc 5c3d
00000090: a754 1bbd d6b9 bb3c b7d0 953c b635 86bd
-0.05546829 -0.02918455 -0.060219675 -0.017406097 -0.033984948 0.08689367 0.060262542 -0.01435386
0.020396441 0.021137208 -0.029302534 -0.041564178 -0.067422844 0.069725946 0.024175309 -0.08850369
-0.069300815 -0.054131184 -0.03323293 -0.02515486 0.047609184 0.037720572 -0.027120218 -0.039334156
-0.01574262 -0.019788604 0.037042905 -0.023958443 0.05592179 0.035153545 -0.06467958 0.027253678
0.01419045 -0.005815779 0.054761425 0.05392092 -0.037922528 0.022915762 0.018288 -0.06553213

linears.6.weight f4 [1, 40]
00000000: eddb 2f3d 377e f43d d3df 0f3f b660 1c3e
00000010: 9b6e 1f3e f034 a0bd 6cbc 41bd 903a 8d3c
00000020: 6518 e2bd 0467 91be 82a2 cd3d 7a10 c83d
00000030: f79d 183e ebb2 dcbe 260e 7bbe b1db 623d
00000040: 9f96 9a3e 39db 263e 84c9 9d3c 46cf 32b8
00000050: 6fd6 89be 9ca3 0ebf 2b7c 443f 11f5 b23d
00000060: 1bb1 b03e 24a8 5a3e 5cee 5bbd 0c3a d23e
00000070: 6ab3 67bd bdc1 6dbe e91d a53d 0b31 b3be
00000080: 602e b239 e1fa c73d 5001 11be 68fe 1cbd
00000090: d06a e63d 7b60 47bb e179 4dbf 8fa5 b63e
0.042934347 0.11938136 0.56200904 0.15271267 0.15569536 -0.07822597 -0.047298834 0.017239839
-0.11039809 -0.28398907 0.100407615 0.09768768 0.14904009 -0.43105254 -0.24517116 0.055385295
0.3019304 0.16294564 0.01926113 -4.2631546e-05 -0.26921412 -0.557184 0.76751965 0.08738149
0.3451012 0.21353203 -0.053694114 0.4105991 -0.056567587 -0.23218437 0.080623455 -0.34998354
0.00033985358 0.09764648 -0.14160657 -0.03832856 0.112508416 -0.0030422497 -0.802641 0.35673186

exp_avg f4 [40, 2]
00000000: 56f7 0bbb befc 86ba 1eae 943b fd7f e63a
00000010: 92ca 7b3a 8259 543a f2d1 3eb9 cc25 49ba
00000020: 9c0d 00bb 0c9d 6439 8b26 a8ba 2d67 463a
00000030: 0782 763a 6822 0b3a 15e7 0e3a 74c0 7e3a
00000040: 0d17 cc3a 2433 003a 9c48 96ba 8838 193a
00000050: 8593 123b f3c8 a03a 9567 413b b99e 093a
00000060: 272c 05bb b856 db39 fa40 4634 34fa 1839
00000070: 2568 413b fde4 923a 2db6 173b c063 9e39
00000080: d4ff 83bb 4b77 05ba 92d8 a83b 00f3 f43a
00000090: 0983 f83a 3a5b 4f3a 8ce1 c13a 7cb2 1eb9
000000a0: 9b9c 10b9 c7ac 163a 4bf5 b83a c01e 9db8
000000b0: 0690 403b 215f 3f39 955b 693a e0b4 563a
000000c0: 5f3d daba eaa5 3aba a254 80bb 69af b6ba
000000d0: 2ceb 0eba 61e4 18b9 d5f7 fdba ffbd 8bba
000000e0: 9efd 7b3a f169 573a 0a63 de3a 1a52 4a3a
000000f0: e1f3 06bb 2492 01b8 5b78 90bb aac9 89ba
00000100: e682 a63a a2ff 45ba 323b 95b7 664a aeb8
00000110: d5bb 1839 2930 0bba 1ef2 87bb 7bef acba
00000120: a66d 61bb 8f0a faba 01fb 54bb 7316 c2ba
00000130: 111b b0bb f55a dcba b6b2 e43a b9d3 8d3a
-0.002135714 -0.0010298712 0.004537358 0.0017585751 0.00096050755 0.0008100496 -0.00018198023 -0.00076731737
-0.0019539362 0.00021802279 -0.001282887 0.0007568475 0.0009403531 0.0005307556 0.0005451304 0.0009718009
0.0015570835 0.0004890433 -0.0011465731 0.00058449106 0.002236576 0.0012266919 0.0029511203 0.0005249787
-0.0020320506 0.00041835546 1.8463825e-07 0.00014589058 0.0029511538 0.001120716 0.0023149357 0.00030210428
-0.0040283 -0.00050913234 0.0051527703 0.0018688142 0.001895995 0.0007910017 0.001479195 -0.00015134545
-0.0001379125 0.0005747792 0.0014111189 -7.492071e-05 0.002938272 0.00018250618 0.00089018914 0.00081904046
-0.001665037 -0.000712006 -0.003916339 -0.0013937774 -0.00054519135 -0.00014580927 -0.0019376228 -0.0010661482
0.0009612682 0.00082173856 0.0016966772 0.00077179226 -0.002059214 -3.08921e-05 -0.0044088787 -0.0010512371
0.0012703806 -0.0007553046 -1.778975e-05 -8.310824e-05 0.00014565822 -0.00053096056 -0.0041487357 -0.0013193929
-0.003439763 -0.0019076633 -0.0032498243 -0.0014807716 -0.0053743203 -0.0016811775 0.001744828 0.0010820545

exp_avg_sq f4 [40, 2]
00000000: 2314 343a 8667 4c39 2f13 463b dfd4 183a
00000010: 8e15 1239 e92b 1039 c016 b636 df7d c938
00000020: 4574 0b3a eff4 d736 4cfb 5f39 1b8b eb38
00000030: 2ef0 fe38 884a 4e38 febf 8238 1404 4639
00000040: 8299 b039 91dc 4038 ec05 3839 31e4 5938
00000050: a1ce 423a aa88 8d39 4510 9f3a 0c05 3b38
00000060: 7ab3 123a ffcc 0838 be96 d133 57ae 8736
00000070: 52d7 a83a 76be 7639 984e 413a b794 6737
00000080: 0f78 153b 0102 2838 ad4d 743b 64ea 1d3a
00000090: 8091 0a3a 3aaf 0639 f5d9 9a39 b98d f636
000000a0: 9af0 b435 5bd2 9138 f8c7 9d39 6435 bf35
000000b0: 7c6a 9a3a 11b7 0237 909f 0e39 cc21 0239
000000c0: 6f6e d839 3aab e138 4473 103b 7f92 b639
000000d0: 52a7 1a38 bb93 1636 39e7 133a d161 6c39
000000e0: b1bf 2839 e337 0239 64c2 e439 6f8e e038
000000f0: 2315 183a c8fe 8535 8718 343b c9cd 4839
00000100: d8c2 6f39 0c3f c338 fadb f234 8a20 9e35
00000110: f42d e735 eb80 5538 b9a8 1d3b 03b6 a339
00000120: cbdf de3a 1d57 2f3a 9837 cb3a 5981 d439
00000130: 0882 8c3b 660f 163a e01e fa39 6674 7039
0.00068694557 0.00019493522 0.0030223837 0.000583006 0.00013931675 0.00013749268 5.426671e-06 9.607872e-05
0.0005319755 6.4360133e-06 0.00021360553 0.000112315836 0.00012156401 4.918364e-05 6.2346444e-05 0.0001888427
0.00033683708 4.5981786e-05 0.00017549813 5.194935e-05 0.0007431303 0.00026995438 0.0012135586 4.4588975e-05
0.0005596202 3.2615844e-05 9.759741e-08 4.0436094e-06 0.0012881553 0.0002353134 0.0007374077 1.3803298e-05
0.0022807156 4.0056188e-05 0.0037277744 0.00060240016 0.00052859634 0.00012844513 0.0002953556 7.34787e-06
1.3481069e-06 6.9533206e-05 0.00030094362 1.4246148e-06 0.0011781002 7.791227e-06 0.00013601617 0.00012410356
0.0004128101 0.000107607295 0.002204136 0.00034822893 3.687229e-05 2.2437732e-06 0.000564206 0.00022543153
0.00016093139 0.00012418586 0.0004363238 0.00010707683 0.00058014895 9.983423e-07 0.002748044 0.00019150147
0.00022865401 9.310068e-05 4.5236067e-07 1.1781387e-06 1.7224215e-06 5.090322e-05 0.0024056865 0.00031225392
0.0017003951 0.0006688701 0.0015504239 0.00040532163 0.004287962 0.00057243404 0.0004770672 0.00022931545

exp_avg f4 [40]
00000000: 0741 20bb 18f6 843b 464d 0b3b 3405 e5ba
00000010: 4a10 e339 e729 dc3a 2242 9f3a 7f6c 133b
00000020: 3275 af3a ebcf 9f3a 06a0 363b 0673 993a
00000030: 8f86 783a 0fd0 c339 21bc 303b 5869 2a3a
00000040: dd0f 9dba c5ce 8e3b 5910 0c3b b07c d1b9
00000050: 6337 be3a 29ef d5b8 0987 043a 485a fb3a
00000060: 1740 e5ba e8e6 54bb db48 b5b9 9c67 2bbb
00000070: 7d14 f33a 3366 e13a d8ad 63b9 df65 21bb
00000080: b87a ddba cfc0 7eb9 44a1 9fba 985a 4cbb
00000090: c978 93bb daa6 61bb 5aae 83bb 3610 303b
-0.0024452822 0.004057657 0.0021255775 -0.0017472864 0.0004330895 0.0016797156 0.0012150446 0.0022495089
0.0013386367 0.0012192702 0.0027866377 0.0011707253 0.00094805 0.00037348314 0.0026967602 0.0006500683
-0.0011982877 0.004358145 0.0021372049 -0.00039956486 0.0014512356 -0.000102011785 0.0005055522 0.0019176686
-0.0017490414 -0.0032486264 -0.00034577292 -0.0026154285 0.0018545535 0.0017196595 -0.00021713169 -0.002462737
-0.0016897535 -0.00024295154 -0.0012178798 -0.0031181928 -0.0045004827 -0.0034431727 -0.004018587 0.0026865131

exp_avg_sq f4 [40]
00000000: 7de8 693a 697b 233b 0ac3 2e3a bf06 e539
00000010: da8f ae37 fcc5 e139 bfa7 5739 0b79 563a
00000020: 494f 8939 a39c 6539 3725 953a 4667 4a39
00000030: 8abe 0c39 f0ea ad37 9efb 8d3a 77ed 7938
00000040: dab5 5539 6067 2f3b 6793 313a 35a6 f437
00000050: 29e4 b439 1eec 5336 da7e 3d38 53b7 0e3a
00000060: bbfb ff39 d78e ce3a 7eff 4b37 a518 8a3a
00000070: 3e3d 0c3a 9715 e839 c523 e636 71ba 643a
00000080: 0a05 d439 82f3 3137 95f8 6b39 b52a b83a
00000090: 5a18 403b ab24 e93a 7c96 233b 84b8 933a
0.0008922888 0.0024945384 0.00066666363 0.0004368331 2.0809402e-05 0.00043062854 0.00020566488 0.0008181489
0.00026189748 0.00021897494 0.0011378889 0.00019302694 0.00013422422 2.0732608e-05 0.0010832434 5.9587383e-05
0.00020381008 0.0026764497 0.0006773979 2.9164463e-05 0.00034502268 3.1578888e-06 4.517925e-05 0.00054441876
0.00048824944 0.0015759122 1.2159229e-05 0.0010535909 0.0005349702 0.00044266574 6.8586983e-06 0.00087252917
0.00040439545 1.0606718e-05 0.0002250395 0.0014050814 0.002931139 0.0017787417 0.0024961522 0.00112702
