pdebench/models/newly_trained_models/Advection/PINN/1D_Advection_Sols_beta1.0_PINN.pt-15000.pt (torch, 119037 bytes, 39 tensors)

linears.0.weight f4 [40, 2]
-0.09720479 0.33444116 -0.13994275 0.080285706 0.55472356 0.04508574 0.23121302 -0.0722783
0.18109567 0.1023406 0.22996521 -0.0053558405 0.25325984 0.31221554 0.138953 -0.09669196
0.11937063 -0.19521233 -0.06362328 0.015530629 -0.14761712 -0.28633055 0.4164819 0.2470839
-0.30250537 -0.13230443 -0.066880606 0.055171333 0.17443043 -0.036694787 0.1863036 0.18765935
-0.22909415 0.2050974 0.13583504 0.29181582 -0.20179103 0.22003408 0.17232743 0.034290068
-0.30817798 0.100333825 -0.017679112 0.18349876 0.20234843 -0.030962573 -0.11654602 -0.07835112
0.08294574 -0.08067923 0.3844203 0.010102041 0.24851148 0.035084736 -0.24867655 0.011597531
0.1844854 0.2556313 -0.020987915 0.11551235 -0.08307674 -0.15056895 0.112110935 0.074708976
-0.036537662 0.06711835 -0.31512696 -0.07517411 -0.48724967 0.24699037 -0.43627656 -0.011195598
0.048749868 -0.22496466 0.21956922 0.05559676 -0.1942617 0.29024792 -0.09004213 -0.21736589
00000000: 4e13 c7bd df3b ab3e 274d 0fbe d56c a43d
00000010: 5d02 0e3f d3ab 383d 1bc3 6c3e a506 94bd
00000020: 2571 393e f397 d13d 007c 6b3e 0c80 afbb
00000030: 46ab 813e b7da 9f3e b249 0e3e 6f06 c6bd
00000040: 9778 f43d bee5 47be ec4c 82bd 2e74 7e3c
00000050: f128 17be eb99 92be 1e3d d53e 9003 7d3e
00000060: fce1 9abe d07a 07be b3f8 88bd 56fb 613d
00000070: e49d 323e 464d 16bd 5fc6 3e3e c629 403e
00000080: a897 6abe 0e05 523e 5718 0b3e e268 953e
00000090: 4fa2 4ebe 9d50 613e 9a76 303e be73 0c3d
000000a0: 81c9 9dbe d27b cd3d c9d3 90bc 19e7 3b3e
000000b0: 6d34 4f3e 39a5 fdbc aeaf eebd 8d76 a0bd
000000c0: 75df a93d 273b a5bd bdd2 c43e 0883 253c
000000d0: cb79 7e3e 03b5 0f3d 11a5 7ebe 9203 3e3c
000000e0: bee9 3c3e 1be2 823e d9ee abbc bd91 ec3d
000000f0: 2324 aabd bf2e 1abe 6b9a e53d 0501 993d
00000100: 84a8 15bd 5875 893d 5258 a1be e2f4 99bd
00000110: ca78 f9be 0beb 7c3e a45f dfbe be6d 37bc
00000120: f1ad 473d 235d 66be c1d6 603e 6eb9 633d
00000130: 8aec 46be 609b 943e 0268 b8bd 2a95 5ebe

linears.0.bias f4 [40]
-0.040130954 0.046053346 -0.15433803 0.03660507 -0.09026379 0.08248418 -0.071822576 -0.120376945
0.00978038 -0.054820493 -0.08200439 -0.011792299 0.014316245 -0.05751648 -0.045578025 -0.15359627
0.10795178 0.30082715 -0.014859513 -0.078754246 0.020024328 -0.04230324 0.058159184 0.06432676
-0.05836684 -0.1168794 -0.056785844 0.07248074 0.098765016 -0.009348454 -0.055357415 -0.10852535
0.068844505 0.08309597 0.033203077 0.13781331 0.038167026 0.05102713 -0.05860399 -0.075028345
00000000: 5b60 24bd 6fa2 3c3d ca0a 1ebe 33ef 153d
00000010: 39dc b8bd 77ed a83d b717 93bd 3088 f6bd
00000020: e33d 203c 748b 60bd ebf1 a7bd 7d34 41bc
00000030: af8e 6a3c 6796 6bbd 06b0 3abd 5748 1dbe
00000040: d315 dd3d 0406 9a3e 5175 73bc e849 a1bd
00000050: 0f0a a43c 2a46 2dbd 5338 6e3d c0bd 833d
00000060: 1112 6fbd 785e efbd 4698 68bd c870 943d
00000070: 5045 ca3d 422a 19bc 75be 62bd 8a42 debd
00000080: 59fe 8c3d 382e aa3d f3ff 073d ef1e 0d3e
00000090: 0755 1c3d d301 513d bd0a 70bd 76a8 99bd

linears.1.weight f4 [40, 40]
0.07175686 -0.16586572 0.24333885 -0.12974983 0.14628166 0.29888025 0.17880662 -0.14961362
-0.0057664732 0.21410903 -0.08267313 0.20313965 0.092508815 -0.17811094 0.02475535 -0.15370099
-0.31283766 0.27140617 0.1413023 0.3835983 -0.002258292 -0.28049475 -0.005440516 -0.16947629
-0.0063624857 0.115725935 0.47155657 0.16539514 0.1410308 0.018174984 0.21223198 -0.14446242
0.13981998 -0.21877688 -0.16332664 -0.17137416 -0.10022881 -0.075778335 -0.28803352 -0.06473584
-0.0011735412 -0.24213421 0.17461552 -0.025082782 0.34884414 -0.07827165 -0.069481865 0.26604804
0.25704455 -0.14971319 0.20460042 -0.042287428 -0.011805224 -0.13614929 0.043251973 0.28142104
-0.2676086 -0.17541279 0.004138852 0.28814635 0.055899363 -0.14819059 -0.08072288 -0.1926658
0.121027976 0.36206767 0.29304624 0.093322545 -0.093999304 0.20933299 -0.034287952 0.25211087
-0.09621264 -0.0018148083 -0.15497743 -0.2972535 -0.27045316 0.037432503 -0.13068768 -0.13839339
-0.04218452 0.08686691 -0.07740197 -0.09768843 -0.03444608 0.060933888 -0.028744401 -0.24212378
-0.027557267 0.076256625 -0.09152788 0.01442232 -0.12870458 0.031188041 0.09060607 -0.05763106
0.26314795 0.13444744 -0.059046455 -0.1483204 -0.06540471 0.32814065 -0.086777285 0.33034095
-0.1125642 -0.037149314 -0.04662852 -0.11301853 -0.0949752 0.035500143 -0.012951576 0.02771669
0.19178617 0.056113046 0.32371846 -0.057835124 -0.17149779 0.22237952 -0.13343143 -0.16374058
-0.12350921 0.12690145 -0.08886174 -0.017703382 0.2554853 -0.013930805 0.110593475 0.26592448
-0.07327304 0.19227903 0.35758337 -0.44173154 0.06638457 0.11638227 -0.07482296 0.20531534
-0.03974583 -0.20483062 -0.27610993 0.13172975 -0.11523584 -0.050307486 0.032837644 -0.35398662
0.14430688 0.056026243 0.33068573 0.010001558 0.03599846 0.15859945 0.18041155 -0.032102566
-0.18320155 -0.031445447 -0.39639473 -0.05600296 -0.14152633 -0.15981534 -0.24300544 -0.0108262785
0.24752802 0.19047324 -0.16957866 -0.3566374 0.020303996 0.22045568 0.08561351 -0.19552661
-0.17852233 -0.10201021 0.17904101 0.08008324 -0.2221622 0.22674479 -0.19592339 -0.33319837
-0.11583912 0.20747423 -0.0013795196 0.1704323 0.037639305 -0.04416672 -0.17028274 0.008594491
0.00941211 -0.1735358 -0.15316114 0.061212663 -0.32886308 -0.040517204 -0.21923883 -0.089610055
-0.049209144 0.18580022 0.14844416 0.36907497 0.3765568 -0.28758994 0.21104576 -0.24080347
0.28311965 -0.08929128 -0.13142824 0.1207642 -0.048660286 -0.08938901 -0.17229427 0.20471205
-0.36490947 0.07959843 0.058666013 0.15449741 0.089372344 0.25574896 -0.29684982 -0.13268022
0.1199505 0.15336177 0.049558785 0.37940714 -0.0546119 0.009836703 -0.068069294 0.0012309601
-0.091101736 -0.1750488 -0.021225395 0.11998974 -0.18283358 0.08662232 0.28482935 -0.20995016
0.068407014 0.09076397 -0.14445321 0.12831412 0.041042347 -0.18157195 -0.047579262 0.109565645
0.0026993754 0.142588 -0.117925465 0.35286772 -0.119173095 -0.14970928 -0.31393445 0.0702844
-0.21630545 0.16266882 0.11527152 0.14674245 0.22085585 -0.029044539 0.018457815 0.026613172
00000000: 43f5 923d b4d8 29be d22d 793e 24dd 04be
00000010: dcca 153e d506 993e 1519 373e 5034 19be
00000020: aff4 bcbb 663f 5b3e 8850 a9bd d703 503e
00000030: 4375 bd3d b762 36be bbcb ca3c cb63 1dbe
00000040: 422c a0be c0f5 8a3e 8db1 103e ff66 c43e
00000050: daff 13bb 029d 8fbe 5b46 b2bb 318b 2dbe
00000060: 667c d0bb b801 ed3d dd6f f13e 585d 293e
00000070: 616a 103e b4e3 943c 5753 593e f5ed 13be
00000080: f82c 0f3e 0c07 60be 193f 27be b57c 2fbe
00000090: c344 cdbd ac31 9bbd 2179 93be 3994 84bd
000000a0: 82d1 99ba 08f2 77be 69ce 323e 687a cdbc
000000b0: b39b b23e e34c a0bd 824c 8ebd 7337 883e
000000c0: 589b 833e 6a4e 19be c682 513e 9535 2dbd
000000d0: b36a 41bc b86a 0bbe fb28 313d 6b16 903e
000000e0: ff03 89be 699f 33be 359f 873b eb87 933e
000000f0: bbf6 643d 46bf 17be 0a52 a5bd 2f4a 45be
00000100: 84dd f73d ef60 b93e 280a 963e e41f bf3d
00000110: b582 c0bd 635b 563e 8671 0cbd ad14 813e
00000120: 220b c5bd ddde edba 67b2 1ebe 9c31 98be
00000130: d678 8abe d352 193d fed2 05be ffb6 0dbe
00000140: adc9 2cbd 47e7 b13d ed84 9ebd df10 c8bd
00000150: 5517 0dbd d095 793d 6179 ebbc 4cef 77be
00000160: c7bf e1bc 6f2c 9c3d f872 bbbd 984b 6c3c
00000170: 22cb 03be 107e ff3c ad8f b93d 8c0e 6cbd
00000180: 54bb 863e 97ac 093e b2da 71bd 4ee1 17be
00000190: e8f2 85bd 0d02 a83e 4ab8 b1bd 7322 a93e
000001a0: 0f88 e6bd e129 18bd 8cfd 3ebd 4276 e7bd
000001b0: 5c82 c2bd 9968 113d d932 54bc 1d0e e33c
000001c0: 9863 443e cbd6 653d 6dbe a53e 86e4 6cbd
000001d0: 1e9d 2fbe 75b7 633e 40a2 08be 9cab 27be
000001e0: 66f2 fcbd 74f2 013e 25fd b5bd af06 91bc
000001f0: f8ce 823e 083e 64bc d57e e23d 4127 883e
00000200: 2d10 96bd cbe4 443e 2b15 b73e a32a e2be
00000210: a2f4 873d d459 ee3d c83c 99bd 2f3e 523e
00000220: 86cc 22bd 1ebf 51be 485e 8dbe 2ae4 063e
00000230: c500 ecbd 390f 4ebd c480 063d bc3d b5be
00000240: 2fc5 133e c67b 653d a44f a93e 93dd 233c
00000250: 1f73 133d e567 223e cebd 383e fb7d 03bd
00000260: 3099 3bbe f1cc 00bd 40f4 cabe 5c63 65bd
00000270: 47ec 10be a2a6 23be 6bd6 78be b460 31bc
00000280: fc77 7d3e 6b0b 433e 07a6 2dbe 2d99 b6be
00000290: 9154 a63c 22bf 613e 2356 af3d 2138 48be
000002a0: 8fce 36be bbea d0bd 8756 373e af02 a43d
000002b0: 7d7e 63be c92f 683e 24a0 48be fa98 aabe
000002c0: 0f3d edbd 2074 543e ffd0 b4ba ce85 2e3e
000002d0: ac2b 1a3d 2ae8 34bd 995e 2ebe e8cf 0c3c
000002e0: 4035 1a3c 5eb3 31be 46d6 1cbe 21ba 7a3d
000002f0: be60 a8be 5ef5 25bd 2580 60be 7a85 b7bd
00000300: 878f 49bd 6a42 3e3e bf01 183e 65f7 bc3e
00000310: 0ecc c03e fd3e 93be 611c 583e 2f95 76be
00000320: 0ff5 903e 59de b6bd 2095 06be 3953 f73d
00000330: 0250 47bd 9611 b7bd e96d 30be 09a0 513e
00000340: 6ad5 babe 8004 a33d c64b 703d 9234 1e3e
00000350: d908 b73d 87f1 823e b3fc 97be 53dd 07be
00000360: 9ca8 f53d de0a 1d3e 27fe 4a3d a741 c23e
00000370: bab0 5fbd 1f2a 213c ea67 8bbd 2b58 a13a
00000380: 8c93 babd fe3f 33be e1e0 adbc 2ebd f53d
00000390: ba38 3bbe 0b67 b13d 27d5 913e 2dfd 56be
000003a0: fa18 8c3d 76e2 b93d 8beb 13be c764 033e
000003b0: 051c 283d ffed 39be 79e2 42bd f463 e03d
000003c0: 01e8 303b 9702 123e e882 f1bd 14ab b43e
000003d0: 0611 f4bd 644d 19be 04bc a0be 44f1 8f3d
000003e0: 2d7f 5dbe a892 263e 7a13 ec3d a743 163e
000003f0: 0928 623e d0ee edbc d834 973c de03 da3c

linears.1.bias f4 [40]
0.030984994 -0.07493797 0.06840679 -0.10670624 -0.0139294015 -0.014166668 0.034848925 -0.11188617
0.046323925 -0.051593848 -0.057354826 0.030434672 -0.033967383 0.08408282 -0.094936125 -0.01961814
0.012690235 -0.15367062 0.00439861 0.02662493 0.013733865 -0.058093995 -0.11580551 0.034965176
0.06214827 -0.021699896 -0.11633153 0.068331026 -0.058777943 0.048480425 0.021422725 -0.23932241
-0.054373946 0.17366727 -0.094304346 0.041080717 -0.058328804 0.015181572 -0.023653034 -0.12053034
00000000: 3ed4 fd3c 1479 99bd dc18 8c3d cd88 dabd
00000010: 2538 64bc 501b 68bc bfbd 0e3d 9424 e5bd
00000020: 28be 3d3d 1254 53bd e5ec 6abd 2252 f93c
00000030: 6221 0bbd 9d33 ac3d df6d c2bd 39b6 a0bc
00000040: b4ea 4f3c d55b 1dbe 3722 903b 861c da3c
00000050: 0104 613c f8f3 6dbd 702b edbd a537 0f3d
00000060: 2f8f 7e3d fbc3 b1bc 3a3f eebd 23f1 8b3d
00000070: 24c1 70bd 6993 463d b67e af3c ef10 75be
00000080: 37b7 5ebd d5d5 313e a322 c1bd 4144 283d
00000090: 2fea 6ebd 21bc 783c 02c4 c1bc 9cd8 f6bd

linears.2.weight f4 [40, 40]
0.067946054 0.20593484 -0.08507346 0.26130486 0.1668493 -0.14120108 -0.16988815 0.08684663
0.06996419 -0.20494111 0.22556907 -0.072536185 0.063754655 0.023257812 -0.15590447 0.001492435
0.23045039 0.059010167 0.2254396 -0.030329928 0.00916633 0.1432214 0.030456815 -0.0069204075
0.096386835 -0.2844801 -0.20695695 -0.043697774 0.29301554 0.031805947 -0.22814734 -0.02952582
-0.26928705 -0.16509429 -0.15377797 -0.028355889 0.23726644 0.034273334 0.0033852593 -0.048453633
-0.008471739 0.16268529 -0.020097136 0.18357171 -0.2570763 0.050589036 -0.18565032 0.043183472
0.0055885995 -0.0842786 -0.015521724 -0.15862295 0.37255296 0.15688406 0.029355854 0.14493679
-0.2566767 0.06368474 -0.094591916 -0.26946118 0.08195043 0.01508024 -0.03172038 -0.0025802979
0.118857555 0.17893536 -0.16966723 -0.17090191 0.031557355 -0.092028074 -0.05237228 -0.17893776
-0.27151453 0.047969084 -0.0364396 0.12939 0.055571955 0.024724916 0.10094341 -0.07784824
0.07523677 -0.29881206 0.06989079 0.0018820666 0.11132798 0.029083038 -0.103447616 -0.104823776
-0.025086015 -0.22557925 -0.38739666 0.28206614 -0.2035346 0.10753495 -0.35549498 -0.19014584
0.4933792 -0.216356 -0.06259121 -0.026338244 0.009080679 -0.23577602 -0.103253156 -0.19262032
-0.055282455 -0.13108154 0.062262196 0.44910607 -0.13375916 0.20682877 -0.16123702 -0.06096492
0.013656302 -0.083617434 0.03849068 -0.03585337 0.0029553934 0.15298456 -0.14038599 -0.05594528
-0.47089764 -0.008394723 -0.16241036 0.14549614 0.08569762 -0.012010156 0.3564433 -0.19351996
-0.12717544 0.124189064 0.25636566 -0.0067944378 0.13607392 0.021563537 0.092687815 0.053987898
0.29589382 0.3317169 -0.034509197 -0.100793555 -0.116117254 0.14748667 -0.15263769 0.036889926
-0.16163956 0.15549524 0.07472394 0.4894477 -0.2805818 0.20694722 0.14114682 0.18775825
0.17156582 -0.15786815 0.14462064 0.0665177 0.21353987 -0.21896262 0.013944088 0.25259465
-0.04039549 -0.3173488 -0.015091768 -0.07185793 -0.24257255 0.048050445 0.20608713 -0.11704989
-0.13201687 0.06968445 -0.12485137 0.11594355 0.015842194 0.07383617 -0.063875966 -0.32477304
0.1253354 -0.3038514 -0.27346823 0.06283936 -0.16891208 -0.036476098 0.010684994 -0.15746222
-0.0693826 -0.03130273 -0.4516641 0.15796001 -0.13247702 0.25081968 0.08322025 -0.23123033
0.17649472 0.051388253 -0.28524715 0.042340614 -0.17881665 -0.06844977 -0.08295347 -0.2904595
0.03589413 0.13208836 -0.094489366 0.070227675 -0.17133898 -0.19852246 -0.025968382 0.026443856
-0.09614578 -0.05312425 -0.021844476 0.025171546 0.2935061 -0.103811555 0.085280314 0.052696943
0.114613965 0.012458912 0.09040736 0.05731818 0.12752537 0.10771735 -0.0024639093 0.14820033
0.013043875 -0.5986615 -0.11326313 -0.3993418 0.26031387 0.26043665 -0.18304986 -0.062837906
0.12306887 0.13567235 -0.1989808 0.25970602 0.07356783 -0.17602552 0.02209774 -0.2732639
0.009699246 0.46286875 -0.14941217 0.22923619 -0.1045867 0.028267885 -0.13171452 0.36416674
0.0006450823 -0.034740273 -0.26621163 -0.062413976 0.18910372 -0.061415795 0.010477169 0.2790995
00000000: 4d27 8b3d 95e0 523e ff3a aebd c0c9 853e
00000010: 8bda 2a3e 0497 10be 29f7 2dbe a5dc b13d
00000020: 6349 8f3d 15dc 51be 94fb 663e da8d 94bd
00000030: cd91 823d 2b87 be3c 6ca5 1fbe cf9d c33a
00000040: 30fb 6b3e a5b4 713d a3d9 663e 7876 f8bc
00000050: 602e 163c a1a8 123e 9280 f93c 96c4 e2bb
00000060: 7666 c53d 60a7 91be 86ec 53be 70fc 32bd
00000070: 2206 963e f446 023d 759f 69be 22e0 f1bc
00000080: fedf 89be 7a0e 29be f977 1dbe 9c4a e8bc
00000090: f9f5 723e 3262 0c3d 3adb 5d3b 5177 46bd
000000a0: 0ccd 0abc f996 263e c0a2 a4bc 39fa 3b3e
000000b0: 819f 83be 7336 4f3d 1e1b 3ebe 27e1 303d
000000c0: 9220 b73b 429a acbd d44e 7ebc 0e6e 22be
000000d0: 43bf be3e 37a6 203e b07b f03c 4f6a 143e
000000e0: 216b 83be 256d 823d 68b9 c1bd d1f6 89be
000000f0: a1d5 a73d 1c13 773c 3bed 01bd 371a 29bb
00000100: 976b f33d d53a 373e 3fbd 2dbe e900 2fbe
00000110: 4942 013d 3779 bcbd 5184 56bd 763b 37be
00000120: f403 8bbe 3b7b 443d b141 15bd d07e 043e
00000130: 6b9f 633d e88b ca3c 6bbb ce3d e66e 9fbd
00000140: bc15 9a3d e5fd 98be e722 8f3d adaf f63a
00000150: edff e33d 8d3f ee3c 58dc d3bd d9ad d6bd
00000160: 3081 cdbc 3ffe 66be db58 c6be f96a 903e
00000170: 606b 50be 493b dc3d 7003 b6be 97b5 42be
00000180: 339c fc3e 6d8c 5dbe d22f 80bd 4dc3 d7bc
00000190: 21c7 143c 456f 71be 6476 d3bd 433e 45be
000001a0: db6f 62bd 3d3a 06be a506 7f3d 3bf1 e53e
000001b0: 29f8 08be ecca 533e 511b 25be 5ab6 79bd
000001c0: afbe 5f3c 9e3f abbd 67a8 1d3d fcda 12bd
000001d0: 46af 413b fca7 1c3e 58c1 0fbe e126 65bd
000001e0: 7f19 f1be 058a 09bc e74e 26be f1fc 143e
000001f0: 3c82 af3d 3fc6 44bc bc7f b63e 192a 46be
00000200: 473a 02be d656 fe3d 5c42 833e e0a3 debb
00000210: f656 0b3e 04a6 b03c 1cd3 bd3d 6a22 5d3d
00000220: 657f 973e ccd6 a93e 8459 0dbd da6c cebd
00000230: e2ce edbd bf06 173e 0e4d 1cbe e419 173d
00000240: d784 25be 253a 1f3e dd08 993d e498 fa3e
00000250: 6ba8 8fbe f9e9 533e cb88 103e b343 403e
00000260: f3ae 2f3e 30a8 21be 6f17 143e 6f3a 883d
00000270: 32aa 5a3e bd37 60be be75 643c 1654 813e
00000280: be75 25bd 8b7b a2be 7643 77bc 402a 93bd
00000290: f064 78be 8bd0 443d 8108 533e dab7 efbd
000002a0: 6e2f 07be b9b6 8e3d 13b2 ffbd d073 ed3d
000002b0: 7dc7 813c 6b37 973d 67d1 82bd a748 a6be
000002c0: ec57 003e 6992 9bbe 0704 8cbe ecb1 803d
000002d0: 4af7 2cbe f667 15bd 1d10 2f3c c73d 21be
000002e0: 7718 8ebd 4b37 00bd 8440 e7be 45c0 213e
000002f0: 0ea8 07be 706b 803e 616f aa3d a5c7 6cbe
00000300: 08bb 343e 7d7c 523d ea0b 92be 5a6d 2d3d
00000310: b61b 37be 652f 8cbd 82e3 a9bd 1cb7 94be
00000320: b905 133d 2c42 073e a483 c1bd 87d3 8f3d
00000330: 7c73 2fbe 7949 4bbe a5bb d4bc c9a0 d83c
00000340: 14e8 c4bd d098 59bd 30f3 b2bc 8f34 ce3c
00000350: 6e46 963e 279b d4bd 72a7 ae3d c0d8 573d
00000360: baba ea3d 7720 4c3c 7e27 b93d 78c6 6a3d
00000370: 0396 023e ea9a dc3d 8a79 21bb d4c1 173e
00000380: fab5 553c e141 19bf 80f6 e7bd 8776 ccbe
00000390: dc47 853e f457 853e 6c71 3bbe 29b1 80bd
000003a0: 880b fc3d b1ed 0a3e 9fc1 4bbe 30f8 843e
000003b0: bbaa 963d 0940 34be 5206 b53c 3fe9 8bbe
000003c0: 96e9 1e3c 22fd ec3e 81ff 18be e4bc 6a3e
000003d0: 8d31 d6bd 0d92 e73c 2ce0 06be 1074 ba3e
000003e0: be1a 293a d14b 0ebd e44c 88be cca5 7fbd
000003f0: 68a4 413e 218f 7bbd 6fa8 2b3c 21e6 8e3e

linears.2.bias f4 [40]
0.030022133 -0.024238924 0.03245418 -0.0411632 0.04896919 0.016201451 -0.032146104 0.033229314
0.04803358 0.0114303995 0.047741443 0.025710417 0.022436924 -0.04041055 0.09435856 0.044108097
0.044923503 -0.04948675 -0.055943865 0.08912564 -0.07026393 0.050871924 0.12170306 -0.03271733
0.061006293 0.052285194 0.046833895 0.022345928 -0.0385469 0.04137125 0.046675093 0.009988598
-0.038358152 0.029801998 0.016018022 0.053419292 0.0420616 -0.020138836 -0.020230055 -0.09433002
00000000: faf0 f53c b590 c6bc adee 043d be9a 28bd
00000010: eb93 483d e8b8 843c a2ab 03bd 761b 083d
00000020: dcbe 443d 9246 3b3c 888c 433d a79e d23c
00000030: a4cd b73c 8885 25bd 103f c13d b1aa 343d
00000040: b501 383d 9eb2 4abd 6525 65bd 8187 b63d
00000050: 89e6 8fbd 145f 503d 743f f93d 9b02 06bd
00000060: bce1 793d 0029 563d e6d4 3f3d cf0e b73c
00000070: 5be3 1dbd e674 293d 622e 3f3d 37a7 233c
00000080: 701d 1dbd 5223 f43c 3a38 833c 30ce 5a3d
00000090: c948 2c3d 33fa a4bc 80b9 a5bc 1930 c1bd

linears.3.weight f4 [40, 40]
-0.051259264 -0.01579818 0.22496513 -0.13807453 0.28185064 0.002983901 -0.16594148 0.26448905
0.028428571 0.38345307 -0.17334826 -0.049989376 0.023880456 0.0020958525 -0.052687544 -0.037538696
-0.041816663 -0.30207875 0.09841533 -0.05140082 -0.06921519 0.061054517 0.124458365 0.2812927
-0.016614277 0.19705765 0.25954336 -0.279587 -0.024058785 0.27126247 0.06582911 -0.12663326
-0.21222706 -0.025035042 0.18953781 0.36661485 0.050276525 -0.0048779855 0.020674024 -0.09787903
-0.19702426 -0.11229707 0.034593333 -0.05150445 0.021765804 -0.13351014 0.023683082 -0.028342148
-0.14553392 -0.021665469 0.15334989 -0.095303275 -0.18358947 0.12646472 -0.12777543 -0.0115969945
-0.3151918 -0.10215892 -0.081439435 -0.08577561 -0.06173162 -0.21606006 0.14077395 -0.08175932
0.19024055 0.10809802 0.018210674 -0.42095727 0.17774092 -0.12938039 -0.08457799 0.2266001
0.02004677 0.0014017057 0.07346778 0.0028111704 -0.055179168 -0.10970431 0.0735298 0.03636229
-0.008636016 -0.083075635 0.1778779 0.04407081 0.061150037 0.018217182 -0.051654004 -0.1711539
-0.15931036 -0.0715406 0.2151775 0.30162925 -0.13642302 -0.016145635 -0.015363461 -0.11488326
-0.11563094 0.009777161 0.100754574 0.2934318 0.08829203 -0.04985547 -0.07456417 -0.33056873
-0.22094938 0.11277781 0.088150054 0.026254425 -0.16819943 0.40952748 -0.1907174 0.2967036
0.17740107 -0.06117334 0.21278404 -0.15202993 0.091792256 -0.039244495 0.17071204 -0.040659714
0.0718713 0.0904032 -0.0027350904 0.0036126976 0.16293833 0.15313928 -0.13977924 -0.058625747
0.112406276 0.14258778 -0.3068173 -0.29784045 -0.13006042 0.031128297 0.10029306 0.24878041
0.11390158 -0.19035067 0.016125787 -0.14733595 0.07423276 0.20154327 0.031994652 0.28939492
-0.38138998 0.17410582 0.21179505 -0.10481283 -0.12092775 -0.1413898 -0.014362575 0.33072668
-0.029671913 -0.26153025 -0.36995867 -0.14702937 -0.015833674 -0.023219079 -0.06920014 0.047384754
-0.26084074 0.08833378 -0.117125496 0.67358565 -0.1942836 -0.28948894 0.09000839 -0.19774638
-0.19968049 -0.24880482 -0.13386542 0.06174194 -0.031974442 0.15546583 0.06696653 -0.43724033
-0.23861422 0.11585298 -0.027045654 0.08079836 -0.15947476 0.0019738488 -0.41142842 -0.26478142
-0.26499656 0.18563361 -0.16817248 0.19382487 0.20495464 0.06319801 -0.29847294 0.076474085
0.16836973 -0.11996524 0.07510601 -0.24522872 -0.36210132 0.21839371 0.1590127 -0.13787413
0.14536034 0.40129653 0.08859031 0.11205469 -0.40560374 0.083940305 0.05923772 0.10123281
0.13483919 0.21249394 -0.09430359 0.23578206 -0.08947329 0.04191838 -0.06784787 -0.068514444
-0.025985045 -0.20951724 -0.12515636 -0.22334072 -0.12125998 -0.09868645 -0.36892653 0.17842524
0.123405784 -0.02745986 0.04367272 0.19178581 0.40151522 0.06947556 0.018908598 -0.017914888
0.0010739048 0.17700925 0.048948828 0.11703855 -0.20335004 -0.07383252 0.10795779 -0.19468951
0.0268252 -0.14940266 -0.056995377 -0.25086218 0.16549581 -0.006563659 0.04570456 0.18124378
0.15288341 0.058806773 0.23208287 0.10771989 -0.08517256 -0.20102236 0.04900709 -0.19491538
00000000: 3cf5 51bd 2f6b 81bc 425d 663e 6963 0dbe
00000010: ba4e 903e 8d8d 433b 90ec 29be 1c6b 873e
00000020: 09e3 e83c f653 c43e 3582 31be a9c1 4cbd
00000030: f2a0 c33c 925a 093b e5ce 57bd 2dc2 19bd
00000040: f347 2bbd 11aa 9abe fa8d c93d ab89 52bd
00000050: b2c0 8dbd 4d14 7a3d 07e4 fe3d 9905 903e
00000060: aa1a 88bc 7bc9 493e dee2 843e 0726 8fbe
00000070: ee16 c5bc eae2 8a3e 6ad1 863d 26ac 01be
00000080: 0d52 59be 4a16 cdbc 3316 423e f1b4 bb3e
00000090: c2ee 4d3d 82d7 9fbb 925c a93c cd74 c8bd
000000a0: bac0 49be 02fc e5bd bdb1 0d3d 55f6 52bd
000000b0: 334e b23c e2b6 08be 0603 c23c cb2d e8bc
000000c0: d806 15be c87b b1bc c107 1d3e 5d2e c3bd
000000d0: e1fe 3bbe f87f 013e 90d7 02be 5201 3ebc
000000e0: d260 a1be b238 d1bd b8c9 a6bd 1fab afbd
000000f0: 4cda 7cbd d93e 5dbe 0c27 103e 6e71 a7bd
00000100: 6bce 423e 7f62 dd3d 8d2e 953c b687 d7be
00000110: b701 363e 4b7c 04be 3a37 adbd db09 683e
00000120: 2039 a43c 70b9 b73a 4776 963d 9d3b 383b
00000130: 8d03 62bd a7ac e0bd cb96 963d a0f0 143d
00000140: 147e 0dbc 8f23 aabd a025 363e 9883 343d
00000150: 7678 7a3d 333c 953c 2693 53bd f842 2fbe
00000160: 4122 23be e183 92bd 7e57 5c3e 266f 9a3e
00000170: 7ab2 0bbe da43 84bc 07b7 7bbc ea47 ebbd
00000180: eacf ecbd 6330 203c 6a58 ce3d b13c 963e
00000190: 74d2 b43d 4035 4cbd 19b5 98bd 4e40 a9be
000001a0: 8e40 62be 0df8 e63d 0488 b43d 8513 d73c
000001b0: 793c 2cbe 96ad d13e 6c4b 43be 89e9 973e
000001c0: a0a8 353e e590 7abd 0fe4 593e bcad 1bbe
000001d0: 94fd bb3d d6be 20bd 23cf 2e3e cd8a 26bd
000001e0: 4331 933d 5025 b93d 343f 33bb 02c3 6c3b
000001f0: 4ed9 263e 8bd0 1c3e 4a22 0fbe 8d21 70bd
00000200: 4335 e63d 8802 123e 2817 9dbe 8b7e 98be
00000210: 8f2e 05be c500 ff3c 7366 cd3d 4bc0 7e3e
00000220: 3b45 e93d 49eb 42be 3a1a 843c 3cdf 16be
00000230: 5807 983d 5c61 4e3e d30c 033d 922b 943e
00000240: 8c45 c3be cc48 323e cde0 583e 1ca8 d6bd
00000250: f8a8 f7bd 7dc8 10be 0151 6bbc 0255 a93e
00000260: 8312 f3bc 4be7 85be 396b bdbe de8e 16be
00000270: 9fb5 81bc f035 bebc ceb8 8dbd 8416 423d
00000280: eb8c 85be 57e8 b43d 7edf efbd 1c70 2c3f
00000290: 48f2 46be e537 94be 5256 b83d 077e 4abe
000002a0: 0b79 4cbe b1c6 7ebe 0414 09be 1ee5 7c3d
000002b0: a2f7 02bd 6f32 1f3e c025 893d f7dd dfbe
000002c0: 4957 74be 5444 ed3d d98e ddbc 9c79 a53d
000002d0: 5a4d 23be b05b 013b bfa6 d2be 6e91 87be
000002e0: a1ad 87be bd16 3e3e 6835 2cbe 077a 463e
000002f0: a1df 513e f56d 813d 72d1 98be 729e 9c3d
00000300: 1d69 2c3e 56b0 f5bd 2ed1 993d 3d1d 7bbe
00000310: 5865 b9be 9aa2 5f3e 3ad4 223e e02e 0dbe
00000320: 57d9 143e bd76 cd3e d66e b53d ee7c e53d
00000330: 4bab cfbe e5e8 ab3d 40a3 723d 2653 cf3d
00000340: 4913 0a3e 0398 593e 3e22 c1bd da70 713e
00000350: c63d b7bd 9bb2 2b3d d3f3 8abd 4d51 8cbd
00000360: 97de d4bc b08b 56be fd28 00be 6eb3 64be
00000370: 2757 f8bd 1f1c cabd f0e3 bcbe 1bb5 363e
00000380: 2cbc fc3d 80f3 e0bc 2be2 323d 8063 443e
00000390: 6793 cd3e 3449 8e3d 34e6 9a3c 3ec2 92bc
000003a0: 44c2 8c3a ea41 353e 917e 483d e8b1 ef3d
000003b0: fe3a 50be 8135 97bd f918 dd3d b05c 47be
000003c0: 86c0 db3c 03fd 18be fc73 69bd 0271 80be
000003d0: bc77 293e f613 d7bb b434 3b3d f897 393e
000003e0: 788d 1c3e 5fdf 703d 22a7 6d3e 3f9c dc3d
000003f0: f36e aebd ced8 4dbe a9bb 483d e697 47be

linears.3.bias f4 [40]
0.086114116 -0.06516134 0.014192811 0.02222462 -0.06260821 -0.0016761444 0.008485999 -0.058689374
0.046630587 0.022879723 0.047260545 -0.019915886 -0.024982614 -0.05161748 -0.04187851 -0.0416126
0.010076499 0.0026664536 -0.032330055 -0.08511965 0.029525205 0.0053266054 -0.010324092 -0.0051912167
-0.029954407 -0.06222581 -0.0654582 0.028765481 -0.096775256 0.03676162 0.027202593 -0.012270269
-0.03380515 0.072005086 -0.0146467155 0.11025986 0.034777373 -0.053792465 0.033571083 0.006421344
00000000: 995c b03d 4f73 85bd f788 683c 6810 b63c
00000010: bc38 80bd 13b2 dbba dc08 0b3c 4564 70bd
00000020: b7ff 3e3d 426e bb3c 4694 413d a426 a3bc
00000030: 57a8 ccbc da6c 53bd cd88 2bbd f971 2abd
00000040: e617 253c abbf 2e3b 856c 04bd 3653 aebd
00000050: d8de f13c ce8a ae3b 6126 29bc 151b aabb
00000060: f262 f5bc 7ee0 7ebd f30e 86bd 96a5 eb3c
00000070: 1b32 c6bd 5a93 163d f9d7 de3c 3d09 49bc
00000080: 4577 0abd 6777 933d c7f8 6fbc eccf e13d
00000090: b872 0e3d 7d55 5cbd d581 093d 236a d23b

linears.4.weight f4 [40, 40]
0.18688327 -0.43600166 -0.3199294 -0.13767642 -0.612008 0.21909246 -0.077182926 -0.21218129
0.39164907 0.37345913 -0.19490643 -0.15397829 0.23536058 0.08227295 -0.12548365 0.32176113
0.034910727 0.3951368 0.2289536 0.18899108 -0.37339506 -0.5363552 -0.21457228 -0.27031237
-0.18880582 0.009155567 0.023166591 0.32674378 0.032857735 0.24578942 -0.123749465 -0.2563295
-0.38369858 0.10903084 -0.39469036 0.034869846 0.32353753 -0.47403166 0.33769608 0.10300241
0.315453 -0.2587147 0.16646215 0.26580223 0.30379447 0.10572069 0.08510869 -0.34778133
-0.100178234 -0.088191204 0.21751404 0.014815064 0.11019481 -0.106454544 -0.5439777 0.004792976
-0.1662833 0.0645833 0.088013284 -0.12003263 0.057421636 -0.08994814 -0.053616468 -0.09105578
0.102997966 0.3180984 -0.15934522 -0.05061056 0.068309195 -0.11443996 -0.018681522 -0.08634535
-0.02446797 0.26515004 0.077278666 -0.16067664 0.12908638 -0.11129433 -0.18246837 -0.14928333
-0.14164461 -0.37544802 0.11791485 0.19264425 -0.051945027 0.023026574 0.13459304 0.20785162
-0.057175342 -0.18112846 -0.21955982 0.011132279 0.08229662 0.20926796 0.021028204 0.10989637
-0.23032488 0.114970975 0.17927212 0.10813666 0.36049944 0.23767176 0.16801065 -0.073287494
-0.024811523 -0.19828036 -0.097676285 0.20418991 0.31300858 0.21938032 0.2613256 0.12277769
0.041051414 -0.13031161 0.15868372 -0.25751767 -0.10748481 -0.1420299 -0.03526163 -0.17835905
-0.14320455 0.014839025 -0.31488544 0.046002958 -0.1823829 0.102572836 0.15554225 -0.04932665
0.12287768 0.16247137 -0.1749282 -0.03739576 0.22726859 -0.03288375 0.043263976 0.024445329
-0.007529488 0.23836547 0.012956195 0.09332488 0.19274111 -0.28406426 0.037815254 -0.0071406355
0.03513489 -0.064933136 -0.08813957 0.23361619 0.14161018 0.29395992 0.18053631 0.1805979
-0.14214379 -0.43714184 -0.11380012 0.11293359 0.086736694 0.08223893 0.106930524 0.19303814
0.009580263 0.27654818 -0.091007456 -0.2078351 -0.17630485 0.057509027 -0.041324027 -0.023134131
-0.3381708 -0.09093019 -0.08812547 -0.11722175 -0.067636155 -0.177342 -0.1870861 -0.2760939
0.27955458 -0.119991004 -0.1710546 0.055106457 -0.13510339 -0.107065946 -0.20345564 -0.105708696
0.10509208 0.10336293 0.0052311383 -0.04019747 -0.0019522179 0.37692648 -0.14064154 0.2571369
-0.20194902 -0.057625547 0.00012854775 -0.06320912 -0.017627358 -0.09923264 0.15014152 0.1852441
0.045404803 0.1309135 -0.037243877 0.13688055 -0.07622389 -0.1788036 -0.044999488 -0.19895943
-0.124573566 -0.34095806 -0.041393097 0.020706765 -0.28234917 -0.16005085 -0.15532646 -0.0051496793
-0.15357068 0.35885277 -0.004939757 0.04345119 0.053878374 0.04162483 0.13530439 0.18676694
0.24213248 0.19570668 0.19348888 0.0050103893 -0.21985328 0.13284609 -0.0033175114 0.04505753
0.24537416 -0.19329257 -0.17936891 -0.06959724 0.065959156 0.07884077 0.07882336 -0.33026397
0.13341653 -0.044434853 -0.01081093 -0.04769497 0.2373035 -0.3153473 -0.0721348 -0.0072412905
0.3630696 0.06638775 0.12369839 -0.101369835 -0.2542693 0.1498791 -0.004610942 -0.23468281
00000000: 545e 3f3e 9c3b dfbe c9cd a3be 0cfb 0cbe
00000010: 8eac 1cbf c659 603e 1512 9ebd 0d46 59be
00000020: 3a86 c83e 0936 bf3e 8d95 47be 7cac 1dbe
00000030: 5d02 713e b87e a83d c97e 00be e0bd a43e
00000040: 8dfe 0e3d 5f4f ca3e d072 6a3e e186 413e
00000050: a32d bfbe 934e 09bf d6b8 5bbe 6266 8abe
00000060: 5056 41be 3b01 163c ddc7 bd3c f64a a73e
00000070: d595 063d 39b0 7b3e 5c70 fdbd 9f3d 83be
00000080: 2474 c4be 904b df3d db14 cabe afd3 0e3d
00000090: b6a6 a53e 47b4 f2be 80e6 ac3e edf2 d23d
000000a0: 0e83 a13e 4176 84be 0e75 2a3e 3b17 883e
000000b0: f38a 9b3e 1784 d83d 774d ae3d 6510 b2be
000000c0: 3f2a cdbd 979d b4bd 00bc 5e3e e2ba 723c
000000d0: d1ad e13d d704 dabd 1f42 0bbf 660e 9d3b
000000e0: 2b46 2abe 4044 843d 4f40 b43d abd3 f5bd
000000f0: f332 6b3d bb36 b8bd f19c 5bbd 747b babd
00000100: 99f0 d23d cbdd a23e 652b 23be 054d 4fbd
00000110: b1e5 8b3d 7f5f eabd fe09 99bc d5d5 b0bd
00000120: 0d71 c8bc bfc1 873e 4744 9e3d 6b88 24be
00000130: 382f 043e 48ee e3bd fdd8 3abe bbdd 18be
00000140: 490b 11be b93a c0be 577d f13d 8944 453e
00000150: 4fc4 54bd 3aa2 bc3c c2d2 093e 0ed7 543e
00000160: b130 6abd bd79 39be 4ad4 60be 2a64 363c
00000170: 218b a83d 574a 563e 5743 ac3c 5911 e13d
00000180: 49da 6bbe e775 eb3d 1c93 373e c176 dd3d
00000190: 6293 b83e 3a60 733e fc0a 2c3e c117 96bd
000001a0: 8941 cbbc 020a 4bbe 810a c8bd 2917 513e
000001b0: a942 a03e 3ca5 603e 78cc 853e df72 fb3d
000001c0: 8725 283d 6870 05be fc7d 223e 5bd9 83be
000001d0: ff20 dcbd 4970 11be 806e 10bd c1a3 36be
000001e0: 37a4 12be 621f 733c aa38 a1be 996d 3c3d
000001f0: 95c2 3abe b511 d23d 7846 1f3e be0a 4abd
00000200: 4ba7 fb3d e55e 263e 6120 33be 4c2c 19bd
00000210: 19b9 683e 1cb1 06bd 9135 313d 9241 c83c
00000220: ecb9 f6bb 1416 743e 3846 543c 1d21 bf3d
00000230: ed5d 453e df70 91be 2be4 1a3d fefb e9bb
00000240: 9ae9 0f3d aafb 84bd 8582 b4bd 1539 6f3e
00000250: 4202 113e ea81 963e 83de 383e a8ee 383e
00000260: 248e 11be 0ed1 dfbe 0a10 e9bd ba49 e73d
00000270: 02a3 b13d e26c a83d 64fe da3d caab 453e
00000280: 89f6 1c3c b997 8d3e 1e62 babd b9d2 54be
00000290: 4289 34be 968e 6b3d 6243 29bd ca83 bdbc
000002a0: b924 adbe 9c39 babd 207b b4bd f511 f0bd
000002b0: d384 8abd 2499 35be 8093 3fbe 2e5c 8dbe
000002c0: c721 8f3e d8bd f5bd f028 2fbe 4fb7 613d
000002d0: 8b58 0abe 6445 dbbd ad56 50be cd7d d8bd
000002e0: 843a d73d f2af d33d f869 ab3b 1aa6 24bd
000002f0: 90e1 ffba 82fc c03e 5604 10be 73a7 833e
00000300: b9cb 4ebe c408 6cbd c6ca 0639 c873 81bd
00000310: 4067 90bc 7b3a cbbd b3be 193e a1b0 3d3e
00000320: 63fa 393d 300e 063e 098d 18bd 6a2a 0c3e
00000330: 451b 9cbd 4a18 37be 6251 38bd 05bc 4bbe
00000340: 6d20 ffbd 0e92 aebe cf8b 29bd 3ca1 a93c
00000350: 1290 90be 5fe4 23be e60d 1fbe a4be a8bb
00000360: a241 1dbe 8dbb b73e afdd a1bb e0f9 313d
00000370: 92af 5c3d cc7e 2a3d 3c8d 0a3e d53f 3f3e
00000380: 94f1 773e 5567 483e f321 463e 312e a43b
00000390: 3821 61be ce08 083e 9b6a 59bb 3f8e 383d
000003a0: 5d43 7b3e 7dee 45be 7cac 37be ff88 8ebd
000003b0: 9815 873d 4577 a13d 246e a13d 5c18 a9be
000003c0: 589e 083e 5201 36bd 5420 31bc cd5b 43bd
000003d0: b0ff 723e 3475 a1be 69bb 93bd 5948 edbb
000003e0: 42e4 b93e 4df6 873d 9555 fd3d fd9a cfbd
000003f0: 962f 82be e879 193e 6317 97bb b150 70be

linears.4.bias f4 [40]
0.04244594 0.091696925 0.021770258 -0.00584241 -0.0158252 0.030937288 -0.0036770932 0.03530798
-0.028237185 0.041189425 0.0030386283 0.10056847 -0.00095162867 -0.014604885 -0.008558866 0.011637132
0.119789705 0.008969029 -0.016019642 -0.028362004 -0.032767132 0.046847172 -0.016782055 -0.034892563
0.013339518 -0.010525513 0.018279834 0.047831547 -0.026266972 -0.05347257 -0.009736028 -0.07364228
0.006547892 0.007810542 -0.026769787 0.022804206 0.036169946 -0.00046076634 0.023315838 -0.019984957
00000000: cbdb 2d3d 99cb bb3d 8a57 b23c b071 bfbb
00000010: daa3 81bc 3270 fd3c 63fb 70bb 1a9f 103d
00000020: ab51 e7bc 3eb6 283d b923 473b d8f6 cd3d
00000030: b876 79ba 5449 6fbc 7c3a 0cbc aba9 3e3c
00000040: 4e54 f53d d6f2 123c a03b 83bc 6f57 e8bc
00000050: d436 06bd d2e2 3f3d 857a 89bc 81eb 0ebd
00000060: fe8d 5a3c 3473 2cbc 97bf 953c 03eb 433d
00000070: d52d d7bc 0e06 5bbd dc83 1fbc c4d1 96bd
00000080: b38f d63b 93ef ff3b 504c dbbc e3cf ba3c
00000090: f026 143d 0393 f1b9 db00 bf3c 7eb7 a3bc

linears.5.weight f4 [40, 40]
-0.014257575 0.010429701 -0.083065554 0.12351691 -0.19099137 -0.13467927 0.048502002 0.10279539
0.0954256 0.25017157 0.06631904 -0.1984656 0.09117928 0.08377978 -0.018657694 -0.042857595
-0.25096098 0.077534966 0.03687417 -0.03661978 0.097869866 -0.22035219 -0.25062832 -0.040465567
-0.014663622 -0.10105557 -0.08990046 0.30282357 -0.07775807 -0.09029873 -0.2759079 0.085488066
0.2788756 -0.05810708 0.26969314 0.00802857 0.017798368 0.000510227 -0.1056782 -0.020814883
-0.10490551 -0.06521373 -0.11143922 -0.2062192 0.011789297 0.0033345125 -0.16520512 -0.25662962
0.06149728 -0.2621177 0.2237721 0.14672258 0.05288275 -0.061906442 0.0026625134 0.10607419
0.5236753 -0.16467139 -0.14720744 0.28028992 0.13947035 -0.01269319 0.25496686 0.14702067
0.05828786 0.2253455 0.1329006 -0.08275288 -0.1535642 0.48744735 -0.23768112 0.13914034
-0.11848403 0.30980968 -9.7873344e-05 0.0113472035 -0.040423036 0.14682378 0.11849857 0.280808
-0.089945205 0.066827215 0.043964762 -0.118235394 0.24803835 0.026335033 -0.15377575 -0.5446235
-0.33405954 0.069851026 -0.32758725 0.082787074 -0.26295748 -0.2308185 -0.03556047 0.30871198
-0.11565969 0.2786671 0.09121525 -0.035032958 0.0501858 -0.11225467 0.34427842 0.13882183
-0.044824548 -0.07097981 -0.35111824 -0.11799696 -0.054956604 0.038241997 -0.036097877 0.02805966
0.2356531 0.0048925746 0.1855786 -0.040665515 -0.3040448 0.055806313 -0.07496985 -0.09190542
0.22633457 0.09422819 -0.027401704 -0.1992751 -0.20367274 -0.047590785 0.11608485 -0.0937626
0.21958198 0.222096 -0.32187444 -0.028718827 -0.12518282 0.05653596 0.35800013 0.19102825
-0.023496255 -0.32616496 0.115065776 -0.24032691 0.06435855 0.06978569 0.028717529 0.02879534
0.049313467 0.027534382 0.02830378 -0.21530664 0.27187192 0.06863513 -0.23139556 0.19855432
-0.14302656 0.12212427 -0.17498396 -0.025320608 -0.14757925 0.13738227 0.16369827 -0.028169245
0.12890987 0.073757835 0.37128326 0.26733965 -0.19166368 0.12328043 -0.19733638 -0.20020512
0.029160654 0.17103368 0.17517516 -0.105224326 -0.032172754 0.14277954 -0.29415163 -0.26223814
-0.035648838 -0.01829657 -0.18198933 0.23548615 0.00918584 0.10304949 -0.16530806 0.02061943
-0.07816995 -0.1059219 0.5230902 0.18711396 0.2101439 0.15821679 -0.16824487 0.13183491
-0.10898487 0.20614795 0.17992628 0.120768204 -0.28344446 -0.20347859 0.096229956 0.025927594
0.3687589 0.049220145 -0.30721375 0.03781578 0.16533417 -0.07707631 0.17125891 0.16854836
0.14191069 -0.057068758 -0.15491115 0.18682458 0.09686058 0.104138084 0.14046857 -0.2410326
0.19044034 0.22099686 -0.2691468 -0.13002907 0.25735572 -0.14035632 -0.2038327 -0.08073827
-0.017805392 0.35432863 0.28072748 0.13934234 -0.40075135 0.04984891 0.02917634 -0.1356081
0.047039546 -0.17053357 -0.19705938 -0.07048786 0.1806473 0.07078594 -0.2593782 -0.014601793
-0.06751484 0.18304408 0.079351835 0.13658223 -0.14188555 0.090875156 -0.06782538 0.07155729
-0.08371836 -0.026122646 -0.27610856 -0.3371917 -0.030188143 -0.06684815 -0.18052611 -0.001982315
00000000: 9b98 69bc 56e1 2a3c 461e aabd 6ff6 fc3d
00000010: 3e93 43be 5de9 09be 09aa 463d 6486 d23d
00000020: 7f6e c33d 7d16 803e 47d2 873d 913a 4bbe
00000030: 34bc ba3d bc94 ab3d 05d8 98bc 728b 2fbd
00000040: f57d 80be a7ca 9e3d 5f09 173d 9ffe 15bd
00000050: ff6f c83d 01a4 61be 5b52 80be 39bf 25bd
00000060: b03f 70bc 39f6 cebd bb1d b8bd b10b 9b3e
00000070: 9f3f 9fbd 8aee b8bd cd43 8dbe 5e14 af3d
00000080: c8c8 8e3e b101 6ebd 3815 8a3e 438a 033c
00000090: e2cd 913c c1c0 053a d06d d8bd f983 aabc
000000a0: b3d8 d6bd c78e 85bd 3f3a e4bd 202b 53be
000000b0: e527 413c d687 5a3b 882b 29be f564 83be
000000c0: 92e4 7b3d 4b34 86be 8324 653e 723e 163e
000000d0: 959b 583d 9c91 7dbd 907d 2e3b 6d3d d93d
000000e0: 960f 063f 9e9f 28be 8cbd 16be 2982 8f3e
000000f0: 51d1 0e3e 19f7 4fbc 048b 823e 968c 163e
00000100: 40bf 6e3d f9c0 663e 1817 083e 587a a9bd
00000110: ef3f 1dbe b392 f93e ae62 73be ce7a 0e3e
00000120: c1a7 f2bd 609f 9e3e 5a41 cdb8 9fe9 393c
00000130: a092 25bd f958 163e 61af f23d 11c6 8f3e
00000140: 3135 b8bd b5dc 883d 6514 343d 6625 f2bd
00000150: c4fd 7d3e 91bc d73c 6477 1dbe 726c 0bbf
00000160: da09 abbe 0e0e 8f3d 84b9 a7be 458c a93d
00000170: 5da2 86be af5b 6cbe dba7 11bd 7f0f 9e3e
00000180: fdde ecbd 74ad 8e3e 10cf ba3d b87e 0fbd
00000190: a08f 4d3d c7e5 e5bd 4345 b03e 4f27 0e3e
000001a0: f299 37bd dd5d 91bd c5c5 b3be 64a8 f1bd
000001b0: 2d1a 61bd a4a3 1c3d 5edb 13bd 5fdd e53c
000001c0: 0c4f 713e e451 a03b 5108 3e3e e290 26bd
000001d0: c3ab 9bbe 2995 643d cb89 99bd e938 bcbd
000001e0: 40c4 673e b6fa c03d 8a79 e0bc c60e 4cbe
000001f0: 968f 50be 8eee 42bd e5bd ed3d 9b06 c0bd
00000200: 19da 603e 226d 633e bacc a4be bf43 ebbc
00000210: ed2f 00be 4092 673d cb4b b73e e99c 433e
00000220: 387b c0bc 18ff a6be 9ba7 eb3d 4218 76be
00000230: 6ace 833d cdeb 8e3d 0641 eb3c 34e4 eb3c
00000240: ebfc 493d c98f e13c 54dd e73c 5879 5cbe
00000250: cc32 8b3e 9390 8c3d f5f2 6cbe d351 4b3e
00000260: 8e75 12be 4a1c fa3d ff2e 33be 2a6d cfbc
00000270: 041f 17be f0ad 0c3e 85a0 273e 30c3 e6bc
00000280: f300 043e 590e 973d d718 be3e bee0 883e
00000290: 7c43 44be 737a fc3d 8c12 4abe 9202 4dbe
000002a0: 53e2 ee3c 7423 2f3e 1e61 333e da7f d7bd
000002b0: 94c7 03bd cd34 123e 0b9b 96be 1444 86be
000002c0: 8404 12bd b0e2 95bc 695b 3abe 4823 713e
000002d0: 3580 163c 9c0b d33d 8446 29be 14ea a83c
000002e0: 9117 a0bd 95ed d8bd 3de9 053f cd9a 3f3e
000002f0: f62f 573e 9503 223e 6248 2cbe bbff 063e
00000300: 7633 dfbd 7318 533e 983e 383e 5255 f73d
00000310: a21f 91be b15c 50be 3614 c53d 1b66 d43c
00000320: f7cd bc3e 109b 493d 1f4b 9dbe b8e4 1a3d
00000330: 5c4d 293e 2fda 9dbd 7f5e 2f3e f197 2c3e
00000340: 0951 113e eec0 69bd 07a1 1ebe f14e 3f3e
00000350: d75e c63d 5946 d53d fed6 0f3e 40d1 76be
00000360: cb02 433e 004d 623e 9ccd 89be 5726 05be
00000370: 21c4 833e 91b9 0fbe 85b9 50be 1b5a a5bd
00000380: 9ddc 91bc 906a b53e 83bb 8f3e c2af 0e3e
00000390: 482f cdbe 5f2e 4c3d 3803 ef3c dadc 0abe
000003a0: 8aac 403d 5aa0 2ebe efc9 49be f05b 90bd
000003b0: 9bfb 383e 38f8 903d 38cd 84be 5c3c 6fbc
000003c0: 3845 8abd e86f 3b3e 3783 a23d 36dc 0b3e
000003d0: 724a 11be c11c ba3d 08e8 8abd a18c 923d
000003e0: 8874 abbd 29ff d5bc 1a5e 8dbe 64a4 acbe
000003f0: 204d f7bc afe7 88bd d6db 38be bae9 01bb

linears.5.bias f4 [40]
0.056627937 -0.015976561 -0.0063354233 -0.064254835 -0.0011667181 0.03837439 0.05045448 0.043920107
0.0046134084 0.018854788 -0.023730172 -0.045022618 -0.03526108 -0.11581357 -0.014911707 -0.080429345
-0.005693848 -0.012696636 -0.04518841 -0.0023735994 0.009314315 0.0033394853 0.03284648 0.060626175
0.05058613 0.06716754 0.041230626 0.021897474 0.10476144 0.009530827 -0.027909635 -0.0007135435
-0.07059092 -0.030512882 0.038606625 -0.03473571 0.02422309 -0.008181813 0.113918275 -0.07438945
00000000: b2f2 673d 47e1 82bc 6299 cfbb 0a98 83bd
00000010: 90ec 98ba 772e 1d3d 5ba9 4e3d 92e5 333d
00000020: 132c 973b 5b75 9a3c c765 c2bc a369 38bd
00000030: ec6d 10bd aa2f edbd 3b50 74bc 24b8 a4bd
00000040: 7593 babb 8d05 50bc 7b17 39bd 648e 1bbb
00000050: 129b 183c 44db 5a3b 088a 063d 2753 783d
00000060: 6733 4f3d 238f 893d 72e1 283d 5562 b33c
00000070: 2a8d d63d 3027 1c3c bfa2 e4bc 180d 3bba
00000080: f991 90bd 27f6 f9bc fb21 1e3d 0847 0ebd
00000090: 806f c63c 030d 06bc fc4d e93d 7f59 98bd

linears.6.weight f4 [1, 40]
-0.0064896536 0.07957007 0.26961303 8.170492e-05 -0.25798735 -0.3209286 -0.02347008 -0.12231588
-0.086441666 -0.3799475 0.07449482 0.1256242 0.003842106 0.16819604 0.207716 0.08190867
0.12375808 0.05557536 0.43206978 0.26767236 -0.07946973 -0.59979254 -0.0007960346 -0.072674714
-0.34363493 -0.24909109 -0.00035787508 -0.11312553 -0.13351074 0.1327383 0.10392167 -0.21482219
0.39265895 8.806431e-06 -0.18169719 0.04577521 -0.14178017 -0.23442206 -0.07491631 0.102658056
00000000: 29a7 d4bb a2f5 a23d b80a 8a3e ff58 ab38
00000010: eb16 84be c150 a4be 5344 c0bc c080 fabd
00000020: 5408 b1bd 7b88 c2be bd90 983d a1a3 003e
00000030: d8cb 7b3b 953b 2c3e 81b3 543e bcbf a73d
00000040: e074 fd3d fda2 633d 4038 dd3e 5a0c 893e
00000050: 07c1 a2bd 018c 19bf faac 50ba 7bd6 94bd
00000060: ebf0 afbe bc11 7fbe 2ea1 bbb9 5cae e7bd
00000070: 0ab7 08be 8dec 073e e2d4 d43d 59fa 5bbe
00000080: 980a c93e 55bf 1337 d40e 3abe c97e 3b3d
00000090: d22e 11be 560c 70be b96d 99bd 633e d23d

exp_avg f4 [40, 2]
1.0064662e-05 -0.00024431176 0.0009807855 8.7551685e-05 -0.0012290908 -7.400399e-05 -0.00036422076 0.00011003793
-0.001666519 -0.00038623632 0.0002864125 0.00057399686 -0.00072622206 -0.00016089254 -0.00340972 -0.0012040819
-0.0010563808 0.00012085063 8.704013e-06 -0.00042321932 -0.00048752004 -0.00039497527 -0.00045353165 0.00017965307
0.0004192109 -5.282901e-05 -0.0004482136 -0.0006691648 -0.0010596112 3.5524256e-05 -0.0023068446 -0.0008748696
0.0027165832 0.0007823808 0.0012288113 0.00066630234 0.00020819782 -0.00026725073 -0.0015374423 -0.00037201127
0.0013279042 -5.162461e-05 -0.0002482291 -0.00038962776 0.0001071453 0.000436627 0.0012160755 0.00025610512
-0.0009715658 -0.00026272476 -0.0008155539 -8.37689e-06 -0.0017644564 -0.00015030352 0.0009124039 0.00024358049
0.000484547 0.0004535538 -2.7175429e-06 1.67588e-05 2.9526149e-05 -0.00022784257 -0.0032940889 -0.0013163367
0.0007198055 0.00031482885 0.000830327 2.1373238e-05 0.0010044853 -0.00010466328 0.0010666267 2.2317296e-05
1.5509042e-05 1.9239835e-05 3.242071e-05 0.00049876206 -0.0005519603 -0.00058560335 -0.00029483344 -0.00021926886
00000000: 65db 2837 f816 80b9 b38d 803a f49b b738
00000010: 7219 a1ba 9732 9bb8 e2f4 beb9 2ac4 e638
00000020: 196f daba c37f cab9 a329 9639 4778 163a
00000030: f05f 3eba 43b5 28b9 9c75 5fbb 49d2 9dba
00000040: 4276 8aba 3071 fd38 7407 1237 89e3 ddb9
00000050: d599 ffb9 af14 cfb9 fdc7 edb9 4161 3c39
00000060: 89c9 db39 b894 5db8 36fe eab9 e46a 2fba
00000070: a7e2 8aba e1ff 1438 6e2e 17bb 8157 65ba
00000080: b408 323b b018 4d3a 1110 a13a cbaa 2e3a
00000090: ad4f 5a39 c91d 8cb9 0184 c9ba 820a c3b9
000000a0: 120d ae3a 8187 58b8 bf24 82b9 f446 ccb9
000000b0: 32b3 e038 15eb e439 b964 9f3a d945 8639
000000c0: adb0 7eba 52be 89b9 e5ca 55ba 788a 0cb7
000000d0: 5545 e7ba cb9a 1db9 642e 6f3a a469 7f39
000000e0: cc0a fe39 f6ca ed39 085f 36b6 4095 8c37
000000f0: ecae f737 06e9 6eb9 a4e1 57bb ee88 acba
00000100: 54b1 3c3a 9d0f a539 4daa 593a ae4a b337
00000110: efa8 833a ac7e dbb8 0ece 8b3a 0736 bb37
00000120: 6a19 8237 3b65 a137 79fb 0738 5bbf 023a
00000130: 6eb1 10ba 2d83 19ba e093 9ab9 89eb 65b9

exp_avg_sq f4 [40, 2]
7.1441306e-08 1.690839e-05 0.0002569786 2.9637563e-06 0.00040046318 2.4278027e-06 3.322562e-05 2.8455331e-06
0.0007366041 4.2957614e-05 2.1582584e-05 8.2343395e-05 0.00013396807 7.053702e-06 0.00292668 0.00036917877
0.00028182598 3.8064006e-06 4.6432948e-08 4.453071e-05 6.254182e-05 4.0205083e-05 5.483656e-05 7.4011496e-06
4.514886e-05 5.173887e-07 5.2018786e-05 0.00011308417 0.0002916716 2.8402818e-07 0.0013680025 0.00019665295
0.001840664 0.00015422197 0.000391201 0.00011261422 1.18346e-05 1.7655877e-05 0.00062344794 4.0485094e-05
0.00046367125 5.3743327e-07 1.9741741e-05 3.88328e-05 3.1148854e-06 4.8584334e-05 0.0003849456 1.8858702e-05
0.00025638565 1.9983121e-05 0.00017856856 1.2239504e-07 0.0007926511 7.012229e-06 0.00022136368 1.6914913e-05
6.0063154e-05 5.121939e-05 1.0358213e-07 1.3836748e-07 2.0480137e-07 1.2199137e-05 0.0027332513 0.00044391738
0.00013806809 2.7484728e-05 0.0001760724 2.8006951e-07 0.0002633838 2.388142e-06 0.00030584214 4.118392e-07
6.197286e-08 3.2794112e-08 3.820757e-07 6.238489e-05 7.8001365e-05 8.6987355e-05 2.4351068e-05 1.2875062e-05
00000000: 466b 9933 7ed6 8d37 15bb 8639 f2e4 4636
00000010: 42f5 d139 55ed 2236 bd5b 0b38 e3f5 3e36
00000020: aa18 413a 632d 3438 3f0c b537 c6af ac38
00000030: c879 0c39 d7ae ec36 8bcd 3f3b 568e c139
00000040: 0bc2 9339 7771 7f36 916d 4733 7cc6 3a38
00000050: e228 8338 e1a1 2838 4f00 6638 6457 f836
00000060: 385e 3d38 aee2 0a35 bf2e 5a38 9a27 ed38
00000070: 80eb 9839 897c 9834 8c4e b33a a034 4e39
00000080: 6f42 f13a a5b6 2139 1c1a cd39 4d2b ec38
00000090: 388d 4637 b51b 9437 e26e 233a 8ace 2938
000000a0: e718 f339 2244 1035 119b a537 67e0 2238
000000b0: 5309 5136 08c7 4b38 86d2 c939 c132 9e37
000000c0: 806b 8639 6da1 a737 223e 3b39 b16b 0334
000000d0: eac9 4f3a 974a eb36 dc1d 6839 80e4 8d37
000000e0: 52ec 7b38 67d4 5638 e170 de33 2a92 1434
000000f0: 5fe7 5b34 e5aa 4c37 5920 333b 95bd e839
00000100: 5fc6 1039 018f e637 13a0 3839 765c 9634
00000110: c616 8a39 f843 2036 7059 a039 c01a dd34
00000120: f115 8533 82d9 0c33 1620 cd34 a2d4 8238
00000130: aa94 a338 fb6c b638 8545 cc37 f801 5837

exp_avg f4 [40]
-0.0006633679 0.00017396918 -0.00015669747 0.0003015021 -0.0009223296 0.001415339 -0.0003957597 -0.0028887424
0.00038384495 -0.0010883675 -0.0010078226 0.00048968906 -0.00014140818 -0.0017172291 0.000163273 -0.0020962448
0.0018142179 0.0016941607 -0.0007356903 -0.0008937359 -0.00027155454 -0.000905388 0.0011231825 0.0006122613
-0.00061845634 4.23877e-05 -0.00029573278 0.0005279241 0.0011641103 2.729548e-05 -0.0005372458 -0.0032027927
0.00081246166 4.3521235e-05 -0.0003513275 -3.6971749e-06 3.8256374e-05 0.0012666826 -0.001422856 -0.00055906473
00000000: dee5 2dba 7f6b 3639 284f 24b9 ed12 9e39
00000010: 7ec8 71ba e582 b93a f87d cfb9 0e51 3dbb
00000020: cc3e c939 8ea7 8eba ea18 84ba 7a5e 003a
00000030: f846 14b9 a614 e1ba 4334 2b39 2761 09bb
00000040: 0dcb ed3a 9a0e de3a 57db 40ba 9a49 6aba
00000050: 6f5f 8eb9 8f57 6dba c037 933a 2980 203a
00000060: e71f 22ba 72c9 3138 950c 9bb9 6364 0a3a
00000070: 0f95 983a 99f8 e437 f5d5 0cba f2e5 51bb
00000080: 61fb 543a 928a 3638 6132 b8b9 fb1c 78b6
00000090: 7875 2038 d106 a63a 207f baba 338e 12ba

exp_avg_sq f4 [40]
0.000114918206 1.7966922e-05 1.7058148e-05 2.0005318e-05 0.00026865042 0.0004928772 4.7551574e-05 0.0022229874
3.086409e-05 0.0002850822 0.00026142894 5.0000086e-05 3.6475838e-06 0.0007220005 4.53521e-06 0.0011894958
0.0008921399 0.0007530597 0.00012292444 0.00024991526 1.1584662e-05 0.00021643654 0.00030831373 0.000118214266
0.00012045248 1.7717505e-06 4.0041417e-05 8.939883e-05 0.00033563186 4.5267166e-07 6.8932284e-05 0.0026927777
0.00018369975 2.6672421e-06 2.2312171e-05 4.0226073e-06 2.6250623e-07 0.00038932558 0.00051294354 8.283685e-05
00000000: 3e00 f138 acb7 9637 1818 8f37 18d1 a737
00000010: a6d9 8c39 6e34 013a 1d72 4738 8aaf 113b
00000020: 1074 0138 1677 9539 6610 8939 2fb7 5138
00000030: 03c9 7436 a244 3d3a 282d 9836 dbe8 9b3a
00000040: 7fde 693a fb68 453a 47e5 0039 0f07 8339
00000050: bf5b 4237 3ef3 6239 2ba5 a139 cde9 f738
00000060: 6f9b fc38 e2cc ed35 25f2 2738 a27b bb38
00000070: bff7 af39 b806 f334 bd8f 9038 5079 303b
00000080: 879f 4039 dffe 3236 062b bb37 eff9 8636
00000090: 95ee 8c34 651e cc39 0f77 063a b2b8 ad38
