pdebench/models/newly_trained_models/Advection/PINN/1D_Advection_Sols_beta1.0_PINN.pt-5000.pt (torch, 117827 bytes, 39 tensors)

linears.0.weight f4 [40, 2]
0	0xbde27f33	-0.110594176
1	0x3eb1f514	0.34757292
2	0xbe0cc21a	-0.13745919
3	0x3db30c15	0.08742539
4	0x3f0e74ab	0.5564677
5	0x3d816c97	0.0631954
6	0x3e6c8bd1	0.2310021
7	0xbd927026	-0.07150297
8	0x3e37ae6d	0.17937632
9	0x3dd1b84a	0.102402285
10	0x3e6f365d	0.23360582
11	0xba39cbe8	-0.00070875743
12	0x3e8234ed	0.25431004
13	0x3ea051ac	0.3131231
14	0x3e09fff5	0.13476546
15	0xbdcd8638	-0.10035366
16	0x3df044be	0.117318615
17	0xbe48e319	-0.19617881
18	0xbdfb95cc	-0.12284431
19	0x3c0443c4	0.008072797
20	0xbe1c504f	-0.1526501
21	0xbe9364b6	-0.28787774
22	0x3ed83a63	0.42232046
23	0x3e8b57a2	0.27215296
24	0xbe9c6183	-0.30543146
25	0xbe3660ff	-0.17810439
26	0xbd9c0d15	-0.07619683
27	0x3d56c520	0.052434087
28	0x3e32d4a1	0.17463924
29	0xbd14b811	-0.036308352
30	0x3e3d76f8	0.18502414
31	0x3e40a547	0.18813048
32	0xbe66b8d0	-0.22531438
33	0x3e588510	0.2114451
34	0x3e0b7308	0.136181
35	0x3e966131	0.29371026
36	0xbe54a14c	-0.20764655
37	0x3e66b796	0.2253097
38	0x3e2e8460	0.17042685
39	0x3d0ab41f	0.033863183
40	0xbe9ceb13	-0.30648097
41	0x3de3158f	0.11088096
42	0xbc4f35ca	-0.012647102
43	0x3e420fba	0.18951312
44	0x3e5d748f	0.21626495
45	0xbce56f54	-0.028007187
46	0xbde7f20f	-0.11325466
47	0xbd9f6c57	-0.07784336
48	0x3da2addd	0.07943318
49	0xbdb1ccd6	-0.086816475
50	0x3ec550e9	0.38538292
51	0x3b953ea1	0.004554585
52	0x3e7b4e94	0.24541694
53	0x3d1a252f	0.037633117
54	0xbe7fd562	-0.24983743
55	0x3c109d03	0.008826497
56	0x3e4114f1	0.18855645
57	0x3e84ef18	0.25963664
58	0x3c8540f2	0.01626632
59	0x3e0f128a	0.13971916
60	0xbdd0e421	-0.10199762
61	0xbe2649ce	-0.16239092
62	0x3dde4cb7	0.10854476
63	0x3d9977ca	0.07493551
64	0xbcf172e8	-0.029473737
65	0x3da05834	0.078293234
66	0xbea13eab	-0.31493124
67	0xbe078c06	-0.13237008
68	0xbef9527b	-0.4869574
69	0x3e91edf2	0.2850185
70	0xbee07d3d	-0.4384555
71	0xbc30384f	-0.0107556125
72	0x3d707a6b	0.058710497
73	0xbe7267df	-0.23672436
74	0x3e7762c5	0.24158771
75	0x3d78e643	0.06076647
76	0xbe5018fb	-0.2032203
77	0x3e92931b	0.28627858
78	0xbdcc1172	-0.09964265
79	0xbe67476c	-0.22585839

linears.0.bias f4 [40]
0	0xbd0a2cfe	-0.033734314
1	0x3d28057b	0.04102085
2	0xbe042d92	-0.12908009
3	0x3d1fa605	0.038976688
4	0xbda70d70	-0.0815686
5	0x3d9ea201	0.077457435
6	0xbd601039	-0.05470297
7	0xbde9c4b1	-0.11414469
8	0x3c15de82	0.009147288
9	0xbd527743	-0.051383268
10	0xbd9ed94b	-0.07756289
11	0xbba9f2b4	-0.005186403
12	0xbb39bbf7	-0.0028340796
13	0xbd5c9260	-0.05385053
14	0xbcd63876	-0.02614997
15	0xbe146d8c	-0.14494914
16	0x3dcf09da	0.10109301
17	0x3e95d1ff	0.29261777
18	0xbc2dd1c1	-0.010609091
19	0xbd9027cf	-0.07038843
20	0x3bfc9a22	0.0077088038
21	0xbcfa0006	-0.03051759
22	0x3d5ec2e0	0.054385066
23	0x3d6fe2db	0.058565956
24	0xbd666a29	-0.056253586
25	0xbda70f4b	-0.08157214
26	0xbd29f49a	-0.041493036
27	0x3d7e612f	0.0621044
28	0x3dbfecb5	0.0937132
29	0x3b5c49f3	0.0033613413
30	0xbd612f0c	-0.054976508
31	0xbdd029eb	-0.10164245
32	0x3d8b5668	0.0680359
33	0x3d44f93e	0.04808926
34	0x3ce65869	0.02811833
35	0x3dc78871	0.09742821
36	0xbc852618	-0.016253516
37	0x3d4046c0	0.046942472
38	0xbd5c5347	-0.053790357
39	0xbd9a5192	-0.075350896

linears.1.weight f4 [40, 40]
0	0x3d9993b7	0.074988775
1	0xbe214c9d	-0.15751882
2	0x3e38b772	0.18038729
3	0xbe10aa72	-0.1412752
4	0x3dd98576	0.10621159
5	0x3e952a3c	0.29133785
6	0x3e33287c	0.17495912
7	0xbe17bb50	-0.14817548
8	0xbbee3aa9	-0.0072701764
9	0x3e6032f2	0.21894434
10	0xbda4a4e2	-0.080392614
11	0x3e4ba6b8	0.19887817
12	0x3dc6d0ce	0.09707795
13	0xbe316287	-0.17322741
14	0x3ce00422	0.02734572
15	0xbe15f8f3	-0.14645748
16	0xbe9fb6df	-0.31194207
17	0x3e88727e	0.2664985
18	0x3e193ce4	0.14964634
19	0x3ebc4872	0.3677402
20	0x3d592e99	0.053022955
21	0xbe90948f	-0.2823834
22	0xbc589e75	-0.013221373
23	0xbdecd4ca	-0.11564024
24	0xbc073206	-0.008251673
25	0x3d9d837c	0.07691094
26	0x3edd421f	0.4321451
27	0x3e53598e	0.20639631
28	0x3e0d1e31	0.13781048
29	0x3cb9c4bd	0.02267682
30	0x3e5bd9e9	0.21469845
31	0xbe1251e9	-0.14289059
32	0x3e0e4fb5	0.13897593
33	0xbe4c013f	-0.1992235
34	0xbe136f93	-0.14398031
35	0xbe075f56	-0.13219962
36	0xbdd40c7d	-0.103539445
37	0xbda735d9	-0.081645675
38	0xbe86afd7	-0.2630603
39	0xbd7ff963	-0.062493693
40	0xbb3f2d04	-0.0029171119
41	0xbe767105	-0.24066551
42	0x3e2ed412	0.17073086
43	0xbcdddfd3	-0.027084267
44	0x3eaf7a2a	0.3427289
45	0xbda61144	-0.08108762
46	0xbd948a0f	-0.07252895
47	0x3e80b1e9	0.25135735
48	0x3e83e8d6	0.25763577
49	0xbe162dd9	-0.14665927
50	0x3e53cb69	0.20683064
51	0xbd343bcc	-0.04400234
52	0xbc0fa282	-0.008766772
53	0xbe07d84b	-0.13266103
54	0x3d1ba256	0.037996612
55	0x3e8ace85	0.27110687
56	0xbe867703	-0.26262674
57	0xbe3102d1	-0.1728623
58	0x3bad9545	0.0052973353
59	0x3e90c00a	0.28271514
60	0x3d7292a7	0.05922189
61	0xbe1d8c5f	-0.15385579
62	0xbdac727f	-0.08420276
63	0xbe3fc6f2	-0.18728235
64	0x3dfa8cf3	0.12233915
65	0x3eb6f5aa	0.35734302
66	0x3e9426d9	0.28935888
67	0x3dc7e45d	0.09760354
68	0xbdc4261c	-0.09577581
69	0x3e4df79f	0.20113991
70	0xbcfd159f	-0.030894099
71	0x3e75dfa4	0.24011093
72	0xbdcdf652	-0.100567475
73	0x3b04e19d	0.0020276078
74	0xbe1c77a5	-0.15280016
75	0xbe95d76c	-0.29265916
76	0xbe507ac4	-0.20359331
77	0x3d0a5215	0.033769686
78	0xbe047a7f	-0.12937354
79	0xbe0a9c46	-0.13536176
80	0xbafa67bd	-0.0019104403
81	0x3da789c1	0.08180571
82	0xbd8ec42e	-0.06971012
83	0xbdbb6f08	-0.09152037
84	0xbccea4cf	-0.025225071
85	0x3d89792e	0.06712566
86	0xbcad2774	-0.021136977
87	0xbe6f44c7	-0.2336608
88	0xbcb1e95d	-0.021717722
89	0x3d8e5be1	0.06951118
90	0xbdc917f9	-0.098190255
91	0x3ca87a4d	0.02056613
92	0xbe0aca57	-0.13553749
93	0x3cbed2a5	0.023293803
94	0x3dd050f7	0.10171693
95	0xbd291ef0	-0.04128927
96	0x3e704577	0.23463999
97	0x3e0c4c35	0.13700946
98	0xbd860267	-0.06543427
99	0xbe0ec79e	-0.13943335
100	0xbd966ff2	-0.073455706
101	0x3ea77ecc	0.32713926
102	0xbda32da8	-0.079676926
103	0x3ea54761	0.3228102
104	0xbdf38b3c	-0.11891791
105	0xbce95dcc	-0.028487109
106	0xbd23dba1	-0.040004376
107	0xbdf79895	-0.120896496
108	0xbdb64bd3	-0.08901181
109	0x3d30b7aa	0.043143906
110	0xbc9f67de	-0.019458707
111	0x3d547d47	0.051877286
112	0x3e4a5028	0.1975714
113	0x3d497f66	0.049193762
114	0x3ea23958	0.31684375
115	0xbd87dce3	-0.06633928
116	0xbe396c7f	-0.18107794
117	0x3e6ad586	0.22933015
118	0xbe0d7e08	-0.13817608
119	0xbe2e7ae5	-0.17039068
120	0xbe203953	-0.15646867
121	0x3e02bda0	0.12767649
122	0xbdc1f9e2	-0.094714895
123	0xbcb2efe4	-0.021842904
124	0x3e7cf4b7	0.24702726
125	0xbca0222a	-0.01954754
126	0x3dd11672	0.10209359
127	0x3e852667	0.2600586
128	0xbd8d3854	-0.06895509
129	0x3e4aea54	0.19815952
130	0x3ebb539c	0.36587226
131	0xbee515a8	-0.44743085
132	0x3d955c5a	0.07293005
133	0x3dfab8d3	0.12242284
134	0xbda6e56f	-0.0814923
135	0x3e441639	0.19149102
136	0xbd21b2f4	-0.039477304
137	0xbe552a1f	-0.20816849
138	0xbe8d3dd4	-0.27586234
139	0x3dffcb0f	0.12489902
140	0xbde20eb9	-0.110379644
141	0xbda100ce	-0.078614816
142	0x3cdc0234	0.02685652
143	0xbeb1546b	-0.34634718
144	0x3e23b3eb	0.15986602
145	0x3d4b666e	0.04965823
146	0x3ea663af	0.32497928
147	0x3c806c65	0.015676687
148	0x3cecc7a6	0.028903794
149	0x3e129e3f	0.14318179
150	0x3e413e77	0.18871485
151	0xbd37f4b9	-0.04491112
152	0xbe49b8cf	-0.19699405
153	0xbccd003f	-0.025024531
154	0xbec98a58	-0.3936336
155	0xbd4bde37	-0.049772467
156	0xbd23026e	-0.03979724
157	0xbe2a7722	-0.16647008
158	0xbe79c848	-0.24392807
159	0xbaf6c5da	-0.0018827275
160	0x3e808208	0.25099206
161	0x3e42bd82	0.19017604
162	0xbe2c3882	-0.16818431
163	0xbeb5ca9d	-0.35506144
164	0x3cbc957f	0.023020504
165	0x3e692306	0.22767267
166	0x3db64ef0	0.08901775
167	0xbe499043	-0.19683938
168	0xbe3ad75c	-0.18246216
169	0xbddefe98	-0.10888404
170	0x3e1a1d33	0.15050201
171	0x3da3dadb	0.08000728
172	0xbe658cc2	-0.22416976
173	0x3e5f6feb	0.21820037
174	0xbe48dfbe	-0.19616601
175	0xbea99a7d	-0.33125678
176	0xbdeb0b1b	-0.114767276
177	0x3e5a3490	0.21309114
178	0x3a296478	0.00064618094
179	0x3e30b23f	0.17255495
180	0x3d17c8ab	0.037056606
181	0xbd193874	-0.037407354
182	0xbe28b4d0	-0.16475224
183	0x3bb82bbe	0.005620449
184	0x3c02e8a1	0.007990033
185	0xbe2fdd62	-0.17174295
186	0xbe19a90f	-0.15005897
187	0x3d71dcf0	0.059048593
188	0xbe9dfb80	-0.30855942
189	0xbd25fd65	-0.04052486
190	0xbe80f1d5	-0.25184503
191	0xbdb51e75	-0.088437
192	0xbd398477	-0.045292344
193	0x3e3b2d42	0.18278983
194	0x3e18fb3a	0.14939585
195	0x3ebc14d9	0.36734655
196	0x3ebeed90	0.3729062
197	0xbe900fd3	-0.28137073
198	0x3e58ea4e	0.2118313
199	0xbe870ef6	-0.26378602
200	0x3e8cf7b4	0.27532732
201	0xbdc32de9	-0.09530241
202	0xbe00f1ea	-0.12592283
203	0x3e01fecc	0.12694854
204	0xbd3149b2	-0.043283172
205	0xbda70220	-0.08154702
206	0xbe2c68fc	-0.16836923
207	0x3e57f89b	0.21090929
208	0xbeb7d116	-0.35901707
209	0x3d92cc26	0.071678445
210	0x3d5e3562	0.05425013
211	0x3e218d42	0.15776542
212	0x3dad7073	0.084687136
213	0x3e7a672a	0.24453416
214	0xbe94ef44	-0.29088795
215	0xbe028bda	-0.12748662
216	0x3de8543f	0.11344194
217	0x3e1ef441	0.15522863
218	0x3d328ce8	0.04359141
219	0x3ec5314e	0.3851418
220	0xbd79068f	-0.06079727
221	0xbd028eca	-0.031874456
222	0xbd75a401	-0.05997086
223	0xbb5f482b	-0.0034070115
224	0xbdafb1c0	-0.08578825
225	0xbe2d067b	-0.16897003
226	0xbc793e8e	-0.015212668
227	0x3de8ef7e	0.113738045
228	0xbe366bee	-0.1781461
229	0x3d87314f	0.06601202
230	0x3e8ef834	0.2792374
231	0xbe524b35	-0.20536502
232	0x3d857255	0.06515948
233	0x3dae72e6	0.08518009
234	0xbe194939	-0.14969338
235	0x3dfa831b	0.12232038
236	0x3d47f9e1	0.048822287
237	0xbe328823	-0.17434745
238	0xbd61852a	-0.055058636
239	0x3dd3e987	0.10347276
240	0xbca5cf8b	-0.020240566
241	0x3e0c4b61	0.1370063
242	0xbde85b4f	-0.11345541
243	0x3eb732be	0.357809
244	0xbdeb2314	-0.114813
245	0xbe13e273	-0.14441852
246	0xbe9faca8	-0.31186414
247	0x3dae0253	0.08496537
248	0xbe54386f	-0.20724653
249	0x3e20abc8	0.1569053
250	0x3de71a5f	0.11284327
251	0x3e186d16	0.14885363
252	0x3e5ed8fe	0.21762463
253	0xbd19a007	-0.03750613
254	0x3cce549a	0.025186826
255	0x3d00f820	0.03148663

linears.1.bias f4 [40]
0	0x3cbc6ddd	0.023001606
1	0xbd890d4d	-0.0669199
2	0x3d8874cf	0.066629045
3	0xbdd5c9cf	-0.104388826
4	0xbc00119d	-0.007816699
5	0xbbeef4c2	-0.007292361
6	0x3d000eb1	0.03126401
7	0xbdd27de9	-0.10277922
8	0x3d140b12	0.03614337
9	0xbd3d2e02	-0.046186455
10	0xbd54b16a	-0.051927008
11	0x3cfc97e6	0.03083415
12	0xbd1a15ff	-0.037618633
13	0x3da1c7eb	0.078994595
14	0xbdb24ddf	-0.08706259
15	0xbc542e5a	-0.012950504
16	0x3bd4dd2e	0.0064960932
17	0xbe168d8e	-0.14702436
18	0xbb1a22b1	-0.0023519213
19	0x3cc20901	0.023685934
20	0x3c0fd7d2	0.008779483
21	0xbd58fa63	-0.052973162
22	0xbde17fab	-0.11010679
23	0x3d1a60bb	0.037689906
24	0x3d66e6fd	0.05637263
25	0xbc40245c	-0.011727419
26	0xbde1ff74	-0.11035052
27	0x3d6f2b1f	0.058390733
28	0xbd5dfb0c	-0.054194495
29	0x3d2a0986	0.04151299
30	0x3cbe3f8f	0.023223666
31	0xbe6929a5	-0.22769792
32	0xbd42af83	-0.047530662
33	0x3e2bc502	0.16774371
34	0xbdb880e2	-0.090089574
35	0x3d1ced32	0.038312145
36	0xbd6deff0	-0.05809015
37	0x3c47b908	0.012190111
38	0xbce91101	-0.02845049
39	0xbde3654a	-0.11103304

linears.2.weight f4 [40, 40]
0	0x3d846ca2	0.064660326
1	0x3e538485	0.20656021
2	0xbdb569c8	-0.08858067
3	0x3e867411	0.26260427
4	0x3e2a929d	0.16657491
5	0xbe0f050a	-0.13966766
6	0xbe2dc75c	-0.16970581
7	0x3db32fb0	0.0874933
8	0x3d8a01d3	0.06738629
9	0xbe4fb440	-0.20283604
10	0x3e6c2a10	0.2306292
11	0xbd952ab9	-0.07283539
12	0x3d2b29ad	0.041787792
13	0x3cbc410a	0.022980232
14	0xbe1f0fdc	-0.15533394
15	0x3ac8caf3	0.0015319273
16	0x3e6baac9	0.23014368
17	0x3d7791bb	0.060441714
18	0x3e66b6e4	0.22530705
19	0xbcf4a313	-0.029862916
20	0x3c0c0e01	0.008548261
21	0x3e14417c	0.14478105
22	0x3d05fabc	0.032709822
23	0xbc63b7db	-0.013898815
24	0x3db3e6fc	0.08784291
25	0xbe91b479	-0.28458002
26	0xbe501697	-0.20321117
27	0xbd360261	-0.044435862
28	0x3e95f872	0.2929111
29	0x3cf63962	0.03005666
30	0xbe6a33a8	-0.22871268
31	0x3d17e1fd	0.037080754
32	0xbe88e68e	-0.267384
33	0xbe37c3bf	-0.17945765
34	0xbe1b10f2	-0.15143183
35	0xbce4cc08	-0.027929321
36	0x3e689dee	0.22716495
37	0x3d0d396d	0.034478594
38	0x3bb8b517	0.005636822
39	0xbc881265	-0.016610334
40	0xbc02c0fc	-0.007980581
41	0x3e269cdd	0.16270776
42	0xbcc34b27	-0.023839546
43	0x3e3f00c5	0.18652637
44	0xbe85442f	-0.26028582
45	0x3d4671dd	0.048448432
46	0xbe466463	-0.19374232
47	0x3d4e37c0	0.050346136
48	0x3bbd3c2a	0.0057749944
49	0xbda83c61	-0.08214641
50	0x3c0e05e8	0.0086684
51	0xbe252963	-0.16129069
52	0x3ec0e42a	0.37674075
53	0x3e0e4372	0.13892916
54	0x3d12f296	0.03587588
55	0x3e199bcc	0.15000838
56	0xbe866a75	-0.26253095
57	0x3dc5b8c9	0.096543856
58	0xbdb7cf7e	-0.08975123
59	0xbe887a95	-0.26656023
60	0x3db1deed	0.08685098
61	0x3d4c4f83	0.049880516
62	0xbd0434e8	-0.032277018
63	0xbd144964	-0.036202803
64	0x3de13949	0.109972544
65	0x3e33923d	0.17536254
66	0xbe15d49f	-0.1463189
67	0xbe337fc4	-0.17529207
68	0x3d14e88b	0.036354583
69	0xbdc20f94	-0.094756275
70	0xbd69c184	-0.057069317
71	0xbe37e523	-0.17958502
72	0xbe8bb91c	-0.27289665
73	0x3d2e4c66	0.042553328
74	0xbd270637	-0.04077741
75	0x3e0adc72	0.13560656
76	0x3d8bb976	0.06822483
77	0x3d055507	0.03255179
78	0x3dd23c03	0.102653526
79	0xbd98ee76	-0.07467358
80	0x3d93dfb8	0.07220405
81	0xbe9c2c80	-0.305027
82	0x3d9ec06c	0.07751545
83	0xbb92fb1e	-0.004485502
84	0x3df9d045	0.121979274
85	0x3d04299d	0.032266248
86	0xbdc704ad	-0.09717689
87	0xbdf30f68	-0.11868173
88	0xbcebc828	-0.028781965
89	0xbe62be87	-0.22142993
90	0xbec87b71	-0.39156678
91	0x3e9489a9	0.29011276
92	0xbe2313cf	-0.15925525
93	0x3df1df4b	0.11810168
94	0xbebc5ea4	-0.36790955
95	0xbe4b3218	-0.19843328
96	0x3f0137b7	0.5047564
97	0xbe69ae13	-0.2282031
98	0xbd953e27	-0.07287245
99	0xbd37414e	-0.044740014
100	0x393f2fda	0.00018233006
101	0xbe83e231	-0.25758508
102	0xbde24ceb	-0.11049827
103	0xbe375b0f	-0.1790583
104	0xbd4bc551	-0.049748722
105	0xbdfc865a	-0.12330313
106	0x3d652890	0.055946887
107	0x3eeb4e00	0.45957947
108	0xbe0ce051	-0.13757445
109	0x3e52991c	0.20566219
110	0xbe1b04ab	-0.151385
111	0xbd76fd49	-0.060300145
112	0x3ca8e5a7	0.02061732
113	0xbda08a49	-0.07838876
114	0x3d3e8d05	0.046521205
115	0xbd53ad81	-0.051679138
116	0x3c66972c	0.014074128
117	0x3e13ffac	0.14453
118	0xbe174493	-0.14772253
119	0xbd6e1268	-0.058123022
120	0xbee6f330	-0.45107412
121	0xbba7f98d	-0.0051261843
122	0xbe26a163	-0.16272502
123	0x3e151247	0.14557754
124	0x3d9ba3ae	0.07599579
125	0xbdd39acc	-0.103322595
126	0x3eaf5565	0.34244838
127	0xbe41750b	-0.18892305
128	0xbdec51d2	-0.115390435
129	0x3dee35b5	0.116313376
130	0x3e8448fb	0.2583693
131	0xbc997623	-0.01873309
132	0x3e2bff3d	0.16796584
133	0x3c532e90	0.012889519
134	0x3dc95a9f	0.09831738
135	0x3d8062e3	0.06268861
136	0x3e933aa0	0.28755665
137	0x3eab01bd	0.33399764
138	0x3d60041f	0.05469143
139	0xbdadece6	-0.084924504
140	0xbdb3aa42	-0.087727085
141	0x3e1e40bb	0.1545438
142	0xbe1aa98d	-0.15103741
143	0x3d0d7c12	0.03454215
144	0xbe25470d	-0.16140385
145	0x3df5dbc6	0.12004809
146	0x3d9caaf3	0.076497935
147	0x3ef6e3c4	0.48220646
148	0xbe8b4b2b	-0.27205786
149	0x3e5c2de0	0.21501875
150	0x3dc83e32	0.09777488
151	0x3e37ac9c	0.17936939
152	0x3e22fbd5	0.15916379
153	0xbe1d9634	-0.15389329
154	0x3e009f8a	0.1256086
155	0x3daa041c	0.08301565
156	0x3e692b8a	0.22770515
157	0xbe421e34	-0.18956834
158	0x3c926bb5	0.017873624
159	0x3e7d8bc1	0.24760343
160	0xbd16bd57	-0.036801662
161	0xbe9d5fc4	-0.30737126
162	0xbc1d7753	-0.009610969
163	0xbd936874	-0.07197657
164	0xbe7f838e	-0.24952528
165	0x3d32aa89	0.043619666
166	0x3e4fad17	0.20280872
167	0xbde0c1a2	-0.109744325
168	0xbe05178f	-0.12997268
169	0x3d81c1f1	0.063358195
170	0xbe1a3819	-0.15060462
171	0x3de0fe4f	0.109860055
172	0xbcda96fd	-0.026683325
173	0x3d90c4af	0.070687644
174	0xbd6a5c31	-0.057216827
175	0xbea3517f	-0.31898114
176	0x3df48fa1	0.119414575
177	0xbe97c297	-0.29640648
178	0xbe89ee25	-0.26939502
179	0x3d8d3350	0.06894553
180	0xbe2974af	-0.16548418
181	0xbd224204	-0.03961374
182	0x3c99da38	0.018780813
183	0xbdd93c28	-0.10607177
184	0xbd7657f1	-0.06014246
185	0xbd114a1e	-0.035471074
186	0xbee827ff	-0.45343015
187	0x3e1b6717	0.15176044
188	0xbe017198	-0.12640989
189	0x3e8142ac	0.2524618
190	0x3da387e1	0.07984901
191	0xbe6e622e	-0.2327964
192	0x3e2fab1e	0.1715512
193	0x3d66ae84	0.056318775
194	0xbe9467dc	-0.28985488
195	0x3d3e733a	0.046496607
196	0xbe4353fc	-0.19075006
197	0xbd81494b	-0.06312808
198	0xbdb62094	-0.088929325
199	0xbe967a81	-0.29390338
200	0x3ca68067	0.020324899
201	0x3e0d007f	0.1376972
202	0xbdd6dca7	-0.10491305
203	0x3daa1839	0.08305401
204	0xbe29984c	-0.16562003
205	0xbe385617	-0.1800159
206	0xbc8cfc46	-0.017210137
207	0x3cec6c33	0.028860187
208	0xbddfb62c	-0.109234184
209	0xbd31dd61	-0.043424014
210	0xbc770014	-0.015075702
211	0x3d066381	0.032809738
212	0x3e8dbdd1	0.2768388
213	0xbdd6c017	-0.10485857
214	0x3db0c2eb	0.08630928
215	0x3d4cd172	0.05000443
216	0x3defc6d7	0.117078476
217	0x3cb7199f	0.022351084
218	0x3d90af11	0.07064641
219	0x3d1824e2	0.03714455
220	0x3de25423	0.11051204
221	0x3dea5246	0.11441474
222	0x3bc37978	0.005965408
223	0x3e1429f7	0.14469133
224	0x3bb56e9b	0.005536867
225	0xbf131712	-0.5745708
226	0xbdda2d3a	-0.106531575
227	0xbecb9fc7	-0.39770338
228	0x3e84d0d2	0.25940567
229	0x3e7e4137	0.24829565
230	0xbe28b853	-0.16476564
231	0xbd491a04	-0.049097076
232	0x3e0acc2e	0.13554451
233	0x3dff174e	0.12455617
234	0xbe3beac3	-0.18351273
235	0x3e7c43bc	0.24635214
236	0x3d9fa4c1	0.07795096
237	0xbe37e98e	-0.17960188
238	0x3ccc3172	0.024925921
239	0xbe861838	-0.26190352
240	0x3bfaf0dd	0.0076581077
241	0x3eea84f1	0.4580455
242	0xbe2c7904	-0.16843039
243	0x3e75d354	0.24006397
244	0xbdd0869e	-0.10181926
245	0x3cfce3ae	0.030870285
246	0xbe051868	-0.12997591
247	0x3eb9483b	0.3618792
248	0x39655945	0.00021872397
249	0xbcffdb49	-0.031232493
250	0xbe7b3dae	-0.24535248
251	0xbd75a857	-0.059974995
252	0x3e41002f	0.18847726
253	0xbd61a168	-0.05508557
254	0x3bfd17d2	0.007723787
255	0x3e8d6f5f	0.27624032

linears.2.bias f4 [40]
0	0x3c80241a	0.015642215
1	0xbcb559e2	-0.022137586
2	0x3d0c54d6	0.034260593
3	0xbd07f4e8	-0.033192545
4	0x3d3c6e24	0.046003476
5	0x3acc1bd0	0.0015572254
6	0xbce00966	-0.027348232
7	0x3cf329e5	0.029683063
8	0x3d1dcb40	0.038523912
9	0xbbe5141c	-0.0069909226
10	0x3d302fe0	0.043014407
11	0x3cd6524b	0.026162287
12	0x3c89fb73	0.016843533
13	0xbd021b06	-0.031764053
14	0x3dadc35f	0.0848453
15	0x3d00e3cd	0.031467248
16	0x3d1729d2	0.036905117
17	0xbd1dc57f	-0.038518425
18	0xbd530f92	-0.05152852
19	0x3da7af63	0.08187749
20	0xbd83a8f9	-0.06428713
21	0x3d1b4978	0.037911862
22	0x3de5812c	0.11206278
23	0xbd04fbea	-0.032466806
24	0x3d56bbc4	0.05242516
25	0x3cf21131	0.029549213
26	0x3c81221b	0.015763333
27	0x3cadc04f	0.021209864
28	0xbc92f497	-0.017938895
29	0x3d18aed3	0.0372761
30	0x3d20912f	0.039200958
31	0xbc80db65	-0.015729615
32	0xbcea0199	-0.028565215
33	0x3cdd4218	0.027009055
34	0x3c3f3033	0.011669206
35	0x3d3b1594	0.045674875
36	0x3d0d67d8	0.03452286
37	0xbc942e68	-0.018088534
38	0xbaae1b31	-0.001328325
39	0xbdb5db47	-0.088797145

linears.3.weight f4 [40, 40]
0	0xbd3cda2b	-0.0461065
1	0xbc918361	-0.017762842
2	0x3e5f33af	0.2179706
3	0xbdcf9dd9	-0.10137529
4	0x3e8b5c07	0.2721865
5	0x3b633db7	0.0034674236
6	0xbe2427b7	-0.16030775
7	0x3e6f3155	0.23358662
8	0x3c679648	0.014134951
9	0x3ec70fdc	0.38879287
10	0xbe379064	-0.17926174
11	0xbd665f25	-0.05624308
12	0x3caa78ac	0.020809494
13	0x3c34c7f5	0.011034002
14	0xbd818690	-0.06324494
15	0xbd179312	-0.03700549
16	0xbd76f91f	-0.060296174
17	0xbe923afe	-0.28560632
18	0x3dd88928	0.105730355
19	0xbd7e3ddc	-0.062070712
20	0xbd77db3b	-0.06051181
21	0x3d932339	0.071844526
22	0x3db32d6c	0.08748898
23	0x3e905d0b	0.28195986
24	0xbce87822	-0.028377596
25	0x3e451ce4	0.19249302
26	0x3e8744be	0.26419634
27	0xbe7ed5fd	-0.24886318
28	0xbc6e7215	-0.014553566
29	0x3e86a9dc	0.26301467
30	0x3d97e028	0.07415801
31	0xbdc6cf63	-0.097075246
32	0xbe58f024	-0.21185356
33	0xbd54fa5a	-0.051996566
34	0x3e3a7913	0.18210249
35	0x3eb6c79f	0.35699174
36	0x3c115463	0.008870217
37	0x3b570943	0.0032811917
38	0x3ca91aa2	0.020642582
39	0xbdb03aba	-0.08604951
40	0xbe46d26c	-0.19416207
41	0xbde37e5d	-0.11108086
42	0x3d08a428	0.033359677
43	0xbd3c9e23	-0.04604925
44	0x3cbdad42	0.023153905
45	0xbe083fa0	-0.13305521
46	0x3ccc91f4	0.02497194
47	0xbcc59d05	-0.024122724
48	0xbe0d02a0	-0.13770533
49	0xbc730ed6	-0.01483508
50	0x3e1ba9c8	0.15201485
51	0xbdbf6d84	-0.0934706
52	0xbe3c323d	-0.1837854
53	0x3e00b0e8	0.12567484
54	0xbdff57c0	-0.12467909
55	0xbc5c8f8b	-0.013461958
56	0xbe9a8abe	-0.30183977
57	0xbe17d127	-0.14825879
58	0xbdab838b	-0.08374699
59	0xbdb16ea7	-0.086636834
60	0xbd804700	-0.06263542
61	0xbe58f0bc	-0.21185583
62	0x3e07e4bf	0.13270853
63	0xbda8f723	-0.082502626
64	0x3e3c72fe	0.18403241
65	0x3ddc207f	0.10748386
66	0x3c8fb7ee	0.01754376
67	0xbed9ea7e	-0.42561716
68	0x3e2fb42b	0.17158572
69	0xbe057378	-0.13032329
70	0xbda855bb	-0.08219477
71	0x3e6a678f	0.22891067
72	0x3cb9fee6	0.022704553
73	0x3a4b7ff1	0.00077629
74	0x3d96b302	0.07358362
75	0x3aba544b	0.0014215795
76	0xbd8300e7	-0.063966565
77	0xbde0ff6c	-0.10986218
78	0x3d5de926	0.054177426
79	0x3d115ff2	0.03549189
80	0xbb7e4d42	-0.0038803373
81	0xbd97e138	-0.07416004
82	0x3e2e7aa1	0.17038967
83	0x3c927f5f	0.017883
84	0x3d669642	0.05629564
85	0x3cee6359	0.029100107
86	0xbd2e7627	-0.042593148
87	0xbe1b6fdc	-0.1517939
88	0xbe0ee021	-0.13952686
89	0xbd80210f	-0.062563054
90	0x3e5717a6	0.21005115
91	0x3e951e61	0.2912474
92	0xbdf74848	-0.120743334
93	0xbbdaf61f	-0.006682172
94	0xbca79d96	-0.020460885
95	0xbdd1ec3f	-0.102501385
96	0xbdcec751	-0.1009661
97	0xbc2acaac	-0.010424297
98	0x3ddd1a43	0.10796025
99	0x3e925fff	0.28588864
100	0x3db35177	0.087557726
101	0xbcedec54	-0.029043354
102	0xbd577bf2	-0.052608438
103	0xbea18343	-0.31545457
104	0xbe4ce818	-0.20010412
105	0x3dd67d58	0.10473126
106	0x3dcaa7fc	0.09895322
107	0x3b13c5c5	0.00225483
108	0xbe3b2836	-0.18277058
109	0x3ed07bfe	0.407196
110	0xbe33b952	-0.17551163
111	0x3e8419f3	0.25801048
112	0x3e25ad54	0.161794
113	0xbd06676f	-0.032813486
114	0x3e539e74	0.20665914
115	0xbe0a7eae	-0.13524887
116	0x3df117bd	0.11772106
117	0xbd06b18c	-0.032884166
118	0x3df15251	0.11783279
119	0xbd0487c6	-0.032356046
120	0x3d8b699f	0.06807255
121	0x3db21d3c	0.08696982
122	0x3a972fd8	0.0011534644
123	0x3b95b93e	0.0045692017
124	0x3e2622aa	0.16224161
125	0x3e1a50a4	0.15069824
126	0xbe124346	-0.14283475
127	0xbd829664	-0.06376341
128	0x3dd920f8	0.106019914
129	0x3e0c78bc	0.13717932
130	0xbe9b480c	-0.30328405
131	0xbe989d3f	-0.2980747
132	0xbe08e209	-0.13367476
133	0x3cf594fc	0.029978268
134	0x3dc0472d	0.09388576
135	0x3e7ee191	0.24890734
136	0x3dd70c97	0.10500448
137	0xbe36325c	-0.17792648
138	0x3caf33e4	0.021387048
139	0xbe14b6a9	-0.14522804
140	0x3d952789	0.07282931
141	0x3e48d493	0.1961234
142	0x3d0ac561	0.03387964
143	0x3e937884	0.28802884
144	0xbec292f6	-0.38002747
145	0x3e34eb90	0.17667985
146	0x3e570894	0.20999366
147	0xbdc32ec5	-0.09530405
148	0xbdf0f65c	-0.11765739
149	0xbe106128	-0.14099562
150	0xbc9c9fc4	-0.019119151
151	0x3eab286d	0.3342928
152	0xbceab9c0	-0.028653026
153	0xbe8782c9	-0.2646697
154	0xbebc612d	-0.3679289
155	0xbe1a1225	-0.15045984
156	0xbc67d8af	-0.0141507825
157	0xbcadaf47	-0.021201743
158	0xbd86acf8	-0.0657596
159	0x3d3a5299	0.045488928
160	0xbe905d90	-0.28196383
161	0x3d955ab5	0.072926916
162	0xbdbf6fd2	-0.093475
163	0x3f2404f1	0.6407004
164	0xbe2c6609	-0.16835798
165	0xbe9997d5	-0.2999865
166	0x3d8c5da3	0.06853797
167	0xbe296cd5	-0.16545422
168	0xbe26971a	-0.16268578
169	0xbe654dd9	-0.22392978
170	0xbdefbe8e	-0.11706267
171	0x3da200eb	0.07910331
172	0xbd73a1d2	-0.059480496
173	0x3e066ae5	0.13126715
174	0x3dbea539	0.093088575
175	0xbeded95c	-0.43525207
176	0xbe539524	-0.20662361
177	0x3db0dba7	0.08635645
178	0xbd4e5065	-0.05036964
179	0x3dd97acc	0.10619125
180	0xbe3dfa8b	-0.18552606
181	0x3d2d0716	0.042243086
182	0xbec37036	-0.38171548
183	0xbe8ca25f	-0.2746763
184	0xbe801efb	-0.25023636
185	0x3e52f9cc	0.20603102
186	0xbe3dcc01	-0.18534853
187	0x3e43c993	0.19119863
188	0x3e2c72c4	0.16840655
189	0x3dae7d22	0.08519961
190	0xbe869af8	-0.26290107
191	0x3d5d3968	0.054009825
192	0x3e42aa90	0.19010377
193	0xbdd0f120	-0.10202241
194	0x3dcbd8e2	0.099534765
195	0xbe948edf	-0.29015252
196	0xbeab79b3	-0.33491287
197	0x3e46f6b2	0.19430044
198	0x3dd542d0	0.10413134
199	0xbe28efc7	-0.16497718
200	0x3e105392	0.1409438
201	0x3ecd2a95	0.4007155
202	0x3ddd78fb	0.10814091
203	0x3dec648b	0.115426145
204	0xbed4790f	-0.4149861
205	0x3da6b7a5	0.08140496
206	0x3d80d3c1	0.06290389
207	0x3dc47bb2	0.095939055
208	0x3e027fbe	0.12744042
209	0x3e52b8a5	0.20578249
210	0xbdcc79a0	-0.09984136
211	0x3e694e0b	0.22783677
212	0xbdbe52af	-0.092931144
213	0x3d01872d	0.031623054
214	0xbdb078f7	-0.08616822
215	0xbd898eba	-0.06716676
216	0xbd0cfb79	-0.03441951
217	0xbe4cce42	-0.20000556
218	0xbde59b0f	-0.11211216
219	0xbe5e8f60	-0.2173438
220	0xbda6a8a5	-0.08137635
221	0xbddcefca	-0.10787924
222	0xbebcae8e	-0.36851925
223	0x3e38fca4	0.18065125
224	0x3dfefabe	0.12450169
225	0xbcd35758	-0.025798485
226	0x3d2989b5	0.041391093
227	0x3e51f21f	0.20502518
228	0x3ecfcdf5	0.4058682
229	0x3d1fadd2	0.038984127
230	0x3c2fd03e	0.010730801
231	0xbc38198a	-0.011236558
232	0x3abd9248	0.0014463151
233	0x3e2eb8c9	0.17062677
234	0x3d2cb777	0.042167153
235	0x3de7c52a	0.11316903
236	0xbe508281	-0.20362283
237	0xbd7000ce	-0.058594517
238	0x3df482e0	0.11939025
239	0xbe4a5eb1	-0.19762684
240	0x3ccd5d87	0.025069011
241	0xbe19a8f8	-0.15005863
242	0xbd4ee5ee	-0.050512247
243	0xbe81fd2b	-0.25388464
244	0x3e29d677	0.16585718
245	0xbbbde76c	-0.00579541
246	0x3d184543	0.037175428
247	0x3e38ad89	0.18034948
248	0x3e1b8090	0.15185761
249	0x3d6b391f	0.05742752
250	0x3e6fe9f7	0.23429094
251	0x3dd37a56	0.10326068
252	0xbdb20c8e	-0.08693801
253	0xbe50ba55	-0.2038358
254	0x3ce59374	0.028024413
255	0xbe4391c5	-0.19098575

linears.3.bias f4 [40]
0	0x3d8d8b36	0.06911318
1	0xbcf22d3c	-0.029562585
2	0x3c26e05e	0.010185329
3	0x3c3abdac	0.01139776
4	0xbd172b92	-0.036906786
5	0xbbacf1d3	-0.005277851
6	0x3c14fca2	0.0090934355
7	0xbd1b315a	-0.037888862
8	0x3c8d8bf0	0.017278641
9	0x3c482c19	0.012217545
10	0x3d1c85bf	0.038213488
11	0xbc6757db	-0.0141200675
12	0xbc31f246	-0.010860985
13	0xbd45a9d9	-0.048257682
14	0xbd093ec3	-0.03350712
15	0xbd1b4f49	-0.03791741
16	0xbb0a5fd3	-0.0021114245
17	0x3b3559e5	0.002767199
18	0xbce09dcd	-0.027418995
19	0xbd9e2631	-0.07722128
20	0x3ce00749	0.027347224
21	0x3c7bf2d0	0.015377715
22	0xba663f74	-0.0008783259
23	0x3b62f014	0.003462796
24	0xbcdeaf5c	-0.027183227
25	0xbd66b28b	-0.056322616
26	0xbb4baeab	-0.0031079452
27	0x3cd0bca9	0.025480585
28	0xbdbe5b1b	-0.09294721
29	0x3d0f4349	0.034976278
30	0x3cbabb43	0.022794371
31	0xbc72bd5d	-0.014815656
32	0xbcf2f447	-0.029657496
33	0x3d1a3fcd	0.0376585
34	0xbc9dde86	-0.019271147
35	0x3db2e496	0.087350056
36	0x3cdb1df7	0.026747687
37	0xbd48e909	-0.049050365
38	0x3cdcafb1	0.026939245
39	0x3c12212e	0.0089190435

linears.4.weight f4 [40, 40]
0	0x3e481c8b	0.19542138
1	0xbef3fcc4	-0.47653782
2	0xbea32c51	-0.31869748
3	0xbe11c31e	-0.14234588
4	0xbf2aae01	-0.6667176
5	0x3e494eb6	0.19658932
6	0xbd82c894	-0.063859135
7	0xbe6f4c88	-0.23369038
8	0x3ef10fb9	0.47082308
9	0x3ec0c0f4	0.37647212
10	0xbe450cd0	-0.19243169
11	0xbe298eb8	-0.16558349
12	0x3d95e81f	0.07319664
13	0x3da46cb8	0.08028549
14	0xbe09b664	-0.13448483
15	0x3ea371a8	0.3192265
16	0x3d3b939a	0.04579506
17	0x3ec8a853	0.3919092
18	0x3e6881ab	0.22705714
19	0x3e3f28ad	0.1866786
20	0xbea97329	-0.33095673
21	0xbf10748d	-0.5642784
22	0xbe86df9c	-0.26342475
23	0xbe9222d1	-0.28542188
24	0xbe77aa80	-0.24186134
25	0x3be65fc2	0.007030458
26	0xbd836e6d	-0.064175464
27	0x3ea82d29	0.32846954
28	0x3cfb887a	0.030704726
29	0x3e7b94f5	0.24568541
30	0xbe017659	-0.12642802
31	0xbe594570	-0.21217895
32	0xbed7972c	-0.42107522
33	0x3dfab4af	0.12241494
34	0xbeca3b1a	-0.39498216
35	0x3e19cc8f	0.15019439
36	0x3ec118b1	0.3771415
37	0xbf00134b	-0.5002944
38	0x3eb534e2	0.3539191
39	0x3ddaa9d5	0.10676924
40	0x3e97a491	0.29617742
41	0xbe82d668	-0.25554204
42	0x3e2a11c5	0.16608341
43	0x3e88f6ee	0.26750892
44	0x3e9cd215	0.3062903
45	0x3dd56437	0.10419505
46	0x3db6902d	0.08914218
47	0xbeaec8bf	-0.34137532
48	0xbdd70223	-0.104984544
49	0xbdb032d0	-0.08603442
50	0x3e5c9c3d	0.21543975
51	0x3c7e2db6	0.015513828
52	0x3de1748a	0.11008556
53	0xbdd6ba61	-0.10484768
54	0xbf092e89	-0.5358663
55	0x3bf97913	0.00761331
56	0xbe28bd3e	-0.1647844
57	0x3d89460b	0.06702813
58	0x3db85a27	0.0900157
59	0xbdf2ff7e	-0.118651375
60	0x3d77e6fa	0.06052301
61	0xbda8a0d5	-0.08233801
62	0xbd54a83e	-0.05191826
63	0xbdbc159f	-0.091838114
64	0x3dd3c3b4	0.10340062
65	0x3ea4007b	0.32031617
66	0xbe1d3f08	-0.15356076
67	0xbd50be23	-0.05096258
68	0x3d958b96	0.073020145
69	0xbde75f3b	-0.11297461
70	0xbc9e2c0e	-0.019308116
71	0xbde05255	-0.109532036
72	0xbcc59e02	-0.024123196
73	0x3e871cde	0.2638921
74	0x3d9c5f5a	0.07635374
75	0xbe25fe9c	-0.16210407
76	0x3e0309dc	0.1279673
77	0xbde18a62	-0.110127226
78	0xbe391dbd	-0.1807775
79	0xbe1c62d5	-0.15272076
80	0xbe10e8fb	-0.14151375
81	0xbebfe27f	-0.3747749
82	0x3df1cff1	0.1180724
83	0x3e436989	0.19083227
84	0xbd6e278e	-0.05814319
85	0x3c8c4c23	0.017126149
86	0x3e07012e	0.13184044
87	0x3e54a7d3	0.20767145
88	0xbd68aa96	-0.05680331
89	0xbe388010	-0.18017602
90	0xbe5fddaa	-0.21861902
91	0xbbd1087b	-0.006379185
92	0x3da2d8d0	0.0795151
93	0x3e54c2e3	0.20777468
94	0x3c90dac2	0.017682437
95	0x3dd0f9cc	0.10203895
96	0xbe6ac4a8	-0.22926581
97	0x3deb3a60	0.114857435
98	0x3e14e58f	0.14540695
99	0x3dd511a1	0.10403753
100	0x3eba9008	0.36438012
101	0x3e7464b6	0.23866543
102	0x3e298a84	0.16556746
103	0xbd97f640	-0.07420015
104	0xbce5f872	-0.02807257
105	0xbe4ee1c5	-0.20203312
106	0xbdc3b896	-0.09556691
107	0x3e4fcae4	0.2029224
108	0x3e9c36a8	0.3051045
109	0x3e6072a9	0.2191874
110	0x3e83c43f	0.2573566
111	0x3dece4d4	0.11567083
112	0x3d2367da	0.039893962
113	0xbe05d953	-0.13071184
114	0x3e225116	0.15851244
115	0xbe82b7ce	-0.25530857
116	0xbdd41db1	-0.10357226
117	0xbe16c2dd	-0.14722772
118	0xbd0b0019	-0.03393564
119	0xbe340302	-0.17579272
120	0xbde1e1be	-0.11029385
121	0x3c820d5e	0.015875515
122	0xbe9ca69b	-0.3059586
123	0x3d1d4142	0.038392313
124	0xbe4a5f4f	-0.1976292
125	0x3dc825ef	0.0977286
126	0x3e0fa62c	0.14028233
127	0xbd617326	-0.055041455
128	0x3dfa9fab	0.122374855
129	0x3e1a5cca	0.15074459
130	0xbe284381	-0.16432
131	0xbd384884	-0.04499103
132	0x3e6a1bcc	0.22862166
133	0xbd36426b	-0.044496935
134	0x3c57fc8a	0.013182769
135	0x3c4d96d4	0.012548167
136	0xbc82ba8a	-0.01595809
137	0x3e67f3e0	0.22651625
138	0x3a030cfc	0.0004999188
139	0x3da7f682	0.082013145
140	0x3e36be54	0.17846042
141	0xbe939180	-0.28821945
142	0x3d16fead	0.03686397
143	0x37bd52e3	2.2569153e-05
144	0x3d22fbb3	0.03979082
145	0xbd9c5552	-0.07633461
146	0xbdbe2312	-0.09284033
147	0x3e673e71	0.22582413
148	0x3e03639b	0.12830965
149	0x3e8ff1b2	0.28114086
150	0x3e30936c	0.17243737
151	0x3e5668cc	0.20938414
152	0xbe0a2742	-0.13491538
153	0xbedcb7fd	-0.43109122
154	0xbdd1a1c9	-0.10235936
155	0x3de7bd2f	0.11315381
156	0x3db4ecb9	0.08834214
157	0x3da487c4	0.08033708
158	0x3dccef19	0.10006542
159	0x3e512046	0.20422468
160	0x3b2ec503	0.002666772
161	0x3e8fa6c5	0.28056923
162	0xbdb6367c	-0.08897111
163	0xbe571974	-0.21005803
164	0xbe2c9834	-0.16854936
165	0x3d8000da	0.062501624
166	0xbd29d3a6	-0.04146161
167	0xbc96c1f9	-0.01840304
168	0xbeaf3369	-0.3421891
169	0xbdbe96a6	-0.09306078
170	0xbdbc8f58	-0.09207028
171	0xbddb6430	-0.107124686
172	0xbd80b539	-0.062845655
173	0xbe33ed04	-0.17570883
174	0xbe383a3e	-0.17990968
175	0xbe841a53	-0.25801334
176	0x3e8de19f	0.27711198
177	0xbdf28ee3	-0.1184366
178	0xbe089053	-0.13336305
179	0x3d76ad81	0.06022406
180	0xbe130b2e	-0.14359733
181	0xbdd6736a	-0.10471232
182	0xbe4b3418	-0.19844091
183	0xbdd25e43	-0.10271885
184	0x3de1bd84	0.11022475
185	0x3de7af3a	0.11312719
186	0x3bea3989	0.007147972
187	0xbd0cf634	-0.034414485
188	0x3c4976af	0.012296363
189	0x3ec0adc1	0.37632564
190	0xbe0b1997	-0.1358398
191	0x3e67de48	0.22643387
192	0xbe4b5fb9	-0.19860734
193	0xbd558381	-0.052127365
194	0x3b139b55	0.0022523005
195	0xbd8a1483	-0.067421935
196	0xbcbba255	-0.022904554
197	0xbdbe506e	-0.092926845
198	0x3e16bcdc	0.14720482
199	0x3e39b1a9	0.18134178
200	0x3d229569	0.03969327
201	0x3e0bdf96	0.1365951
202	0xbd2d9481	-0.042377952
203	0x3e10cd2a	0.14140764
204	0xbd9af967	-0.07567101
205	0xbe22d924	-0.15903145
206	0xbd7cb7ba	-0.061698653
207	0xbe467288	-0.19379628
208	0xbe01678e	-0.12637159
209	0xbead0b43	-0.33797655
210	0xbd514215	-0.05108841
211	0x3cf7519c	0.030190282
212	0xbe8eccc2	-0.27890593
213	0xbe1f5e07	-0.15563212
214	0xbe1b406e	-0.15161297
215	0xbac4fee8	-0.0015029581
216	0xbe1deb89	-0.15421881
217	0x3ebdc5be	0.37064928
218	0xbb9b838b	-0.0047459058
219	0x3d3479f1	0.044061605
220	0x3d52fa41	0.051508192
221	0x3d35b09e	0.04435789
222	0x3e0c170e	0.1368067
223	0x3e3cafc4	0.18426424
224	0x3e7c3ed7	0.24633346
225	0x3e4b1398	0.19831693
226	0x3e497ccc	0.19676512
227	0xbc3736da	-0.011182511
228	0xbe5c2e98	-0.21502149
229	0x3e090ba3	0.13383345
230	0xbc262648	-0.010140963
231	0x3d41c007	0.047302272
232	0x3e7ae08f	0.24499725
233	0xbe566070	-0.20935225
234	0xbe3cd433	-0.18440323
235	0xbd8f14e8	-0.069864094
236	0x3d856ac7	0.06514507
237	0x3da40b18	0.080099285
238	0x3da88fd2	0.082305565
239	0xbeadb85c	-0.33929718
240	0x3def37de	0.11680578
241	0xbd1c605b	-0.03817783
242	0xbc5c0867	-0.013429738
243	0xbd2ee091	-0.042694632
244	0x3e820c99	0.25400236
245	0xbe879e5b	-0.26488003
246	0xbd8f6fb6	-0.07003729
247	0x3b539d24	0.0032289708
248	0x3eb5b7f0	0.35491896
249	0x3d8ea5ff	0.06965255
250	0x3de9c5ed	0.114147045
251	0xbb7492d6	-0.0037318966
252	0xbe7bfe57	-0.24608742
253	0x3e21fd99	0.15819396
254	0x3c44cdbe	0.012011943
255	0xbe1b9b43	-0.15195946

linears.4.bias f4 [40]
0	0x3d36c1bc	0.044618353
1	0x3d3c53b0	0.045978248
2	0x3c93a831	0.018024536
3	0x3c930762	0.017947856
4	0xbcb4611a	-0.022018958
5	0x3cd4b1bf	0.025963662
6	0xbc9971ec	-0.01873108
7	0x3cee4564	0.029085822
8	0xbcafbbd0	-0.02145186
9	0x3d231737	0.03981706
10	0x3bf42238	0.0074503683
11	0x3db333a1	0.08750082
12	0xbb5cfde9	-0.0033720678
13	0x3c47191e	0.0121519845
14	0xbc8adc82	-0.01695085
15	0x3c21573b	0.0098474575
16	0x3de1a998	0.110186756
17	0x3c4dcc90	0.0125609785
18	0xbc9ae9ab	-0.01891025
19	0xbccc91e6	-0.024971914
20	0xbc8ff6fd	-0.017573828
21	0x3d15c0f6	0.036560975
22	0xbc1a328c	-0.009411465
23	0xbcf9a2e8	-0.030473188
24	0x3caa64fa	0.020800103
25	0xba074b76	-0.0005161086
26	0x3cd0fa20	0.025509894
27	0x3cd27e92	0.025695119
28	0xbcabc31a	-0.020967055
29	0x3bc23de5	0.0059277886
30	0xbbf4a89f	-0.0074663903
31	0xbdb3d565	-0.08780936
32	0x3c6634ad	0.014050645
33	0x3cace46a	0.02110501
34	0xbcf83d7b	-0.030302754
35	0x3cc01196	0.023445886
36	0x3d0ec47e	0.03485536
37	0xbc8365f0	-0.016039819
38	0x3cdf8c6e	0.027288642
39	0xbcfbf4f9	-0.03075646

linears.5.weight f4 [40, 40]
0	0xbd0ed656	-0.034872375
1	0x3d27f6e6	0.041006945
2	0xbdbf832c	-0.09351191
3	0x3dcf17b4	0.10111943
4	0xbe601d47	-0.21886168
5	0xbdcc3217	-0.099704914
6	0x3cbcf124	0.023064204
7	0x3dadc938	0.08485645
8	0x3d8d87b8	0.06910652
9	0x3e794f8c	0.24346751
10	0x3db46080	0.088074684
11	0xbe67b71f	-0.22628449
12	0x3d8a8e17	0.06765383
13	0x3ddfd91b	0.109300815
14	0xbd2fa311	-0.04288012
15	0xbca346ef	-0.019931285
16	0xbe7af5f8	-0.24507892
17	0x3dcd0309	0.100103445
18	0x3d6b6a9e	0.057474725
19	0xbd70b71c	-0.058768377
20	0x3d63ad0e	0.05558496
21	0xbe6a3855	-0.22873051
22	0xbe6b6bfc	-0.22990412
23	0xbca0f3b5	-0.019647459
24	0x3c732fd5	0.014842947
25	0xbdc44e9d	-0.09585307
26	0xbde2d69c	-0.1107609
27	0x3ea95add	0.33077136
28	0xbd7a7f2a	-0.06115643
29	0xbd9100e0	-0.07080245
30	0xbe985bb2	-0.29757458
31	0x3ddac0c3	0.10681298
32	0x3e96ec2b	0.29477057
33	0xbd020979	-0.031747315
34	0x3e949864	0.29022515
35	0xbc647354	-0.013943512
36	0xbb05a5e9	-0.002039308
37	0xbd144efa	-0.03620813
38	0xbda5ac94	-0.08089557
39	0x3af2effc	0.0018534656
40	0xbdc1e7df	-0.09468054
41	0xbdb27357	-0.087134056
42	0xbdd04d54	-0.10170999
43	0xbe463ef1	-0.19359948
44	0x3c95bab2	0.0182775
45	0x3d22625e	0.03964459
46	0xbe1e39ab	-0.15451686
47	0xbe83de2c	-0.2575544
48	0x3da42ce1	0.080163725
49	0xbe91b716	-0.28459996
50	0x3e5cae84	0.21550947
51	0x3e030167	0.12793504
52	0x3d850ba1	0.06496359
53	0xbd9b9139	-0.075960584
54	0x3c745116	0.0149119105
55	0x3dc01187	0.09378343
56	0x3f02f43d	0.5115393
57	0xbe33045d	-0.17482133
58	0xbe213f7c	-0.15746874
59	0x3e964903	0.2935258
60	0x3e1f6cf3	0.15568905
61	0xbc1a3417	-0.009411833
62	0x3e7ad85c	0.24496597
63	0x3e2b49fd	0.16727443
64	0x3d325839	0.043541167
65	0x3e70cca5	0.23515566
66	0x3e127ace	0.14304659
67	0xbda2e0c4	-0.07953027
68	0xbdba10b7	-0.09085219
69	0x3efa8b60	0.4893446
70	0xbe67f9c0	-0.22653866
71	0x3e032169	0.12805714
72	0xbe03a9f7	-0.12857805
73	0x3ea4e69e	0.32207197
74	0xbc24c9e3	-0.010057899
75	0xbc3828f3	-0.011240232
76	0xbd0d8598	-0.034551233
77	0x3e2f1c5b	0.1710066
78	0x3dd4e9f7	0.10396188
79	0x3e89aa3e	0.26887697
80	0xbdab9209	-0.08377463
81	0x3d185462	0.03718985
82	0x3d718c18	0.058971494
83	0xbdc7cb1a	-0.097555354
84	0x3e70b734	0.23507386
85	0x3d726c43	0.059185278
86	0xbe1478a1	-0.14499141
87	0xbf0ceeaf	-0.550517
88	0xbea0758e	-0.31339687
89	0x3d27bcd7	0.040951576
90	0xbeafe9e7	-0.3435814
91	0x3d75d9fb	0.060022335
92	0xbe87e907	-0.26544973
93	0xbe817128	-0.25281644
94	0xbc80ba37	-0.015713794
95	0x3e9452a5	0.28969303
96	0xbe06bfc9	-0.13159098
97	0x3e875ad1	0.26436475
98	0x3daba9b0	0.08381975
99	0xbc92a3b1	-0.01790032
100	0x3d193c10	0.037410796
101	0xbdccf230	-0.10007131
102	0x3ea84c9a	0.32870942
103	0x3e2b6758	0.16738641
104	0xbd838e01	-0.064235695
105	0xbd8ee9ee	-0.06978212
106	0xbeaca866	-0.33722228
107	0xbde5a99a	-0.112139896
108	0xbbcf56a8	-0.006327469
109	0x3d35ec3b	0.04441474
110	0xbc8f5a6e	-0.017499175
111	0x3c1058e9	0.00881026
112	0x3e6203d3	0.22071771
113	0x3cb99dca	0.022658248
114	0x3e3778e7	0.17917214
115	0xbd4472c9	-0.04796103
116	0xbe96e431	-0.2947097
117	0x3d6a4e29	0.057203446
118	0xbdb87262	-0.09006192
119	0xbde5ed7e	-0.11226939
120	0x3e822783	0.2542077
121	0x3d4f5ba2	0.050624497
122	0xbb1c5d86	-0.0023859455
123	0xbe2df00d	-0.16986103
124	0xbe30d958	-0.1727041
125	0xbd948514	-0.07251945
126	0x3e14a9d9	0.14517917
127	0xbd8d66e1	-0.06904388
128	0x3e80fccd	0.25192872
129	0x3e4abdda	0.19798985
130	0xbeb36656	-0.35039014
131	0xbb238d50	-0.0024956055
132	0xbdc9305c	-0.09823677
133	0x3ccbcc39	0.024877654
134	0x3ec75336	0.38930672
135	0x3e24e3dd	0.16102548
136	0xbd42aa30	-0.047525585
137	0xbeb660b5	-0.35620657
138	0x3db28297	0.08716314
139	0xbe5357df	-0.20638989
140	0x3dcbebc7	0.0995708
141	0x3dbaf61a	0.091289714
142	0x3a20301f	0.0006110686
143	0x3b827124	0.0039807726
144	0x3c3fcf81	0.011707188
145	0x3c81ebbc	0.015859477
146	0x3d66f797	0.056388464
147	0xbe6fab58	-0.23405206
148	0x3e80f12c	0.25184
149	0x3d4cfb25	0.050044198
150	0xbe4f71da	-0.20258275
151	0x3e2df91c	0.16989559
152	0xbe2dc32f	-0.16968988
153	0x3e04a409	0.129532
154	0xbe4fa3f9	-0.20277394
155	0xbafe059c	-0.0019380334
156	0xbdf68387	-0.120368056
157	0x3e2cc2b5	0.1687115
158	0x3e08d8f2	0.13364008
159	0xbd6f953c	-0.05849193
160	0x3e0884a9	0.13331856
161	0x3e304264	0.17212826
162	0x3ebaa159	0.36451223
163	0x3e8a9f94	0.27074873
164	0xbe3381f1	-0.17530037
165	0x3dea5464	0.114418775
166	0xbe46bb30	-0.19407344
167	0xbe4255ca	-0.18978038
168	0x3d020d62	0.031751044
169	0x3e846381	0.25857165
170	0x3e2d81b4	0.16944009
171	0xbda1e190	-0.07904351
172	0xbc98b711	-0.01864198
173	0x3e0fe698	0.14052808
174	0xbe95e30d	-0.29274788
175	0xbe879f3c	-0.26488674
176	0x3beb91db	0.007189018
177	0xbca2e13c	-0.01988279
178	0xbe3f20ce	-0.18664858
179	0x3e51ce4d	0.20488854
180	0x3c9924f3	0.018694377
181	0x3de706be	0.11280583
182	0xbe2dd41e	-0.16975448
183	0x3c0c31ca	0.0085567925
184	0xbd7785eb	-0.06043045
185	0xbdf3ec18	-0.11910266
186	0x3f072969	0.5279756
187	0x3e0b9dd4	0.13634425
188	0x3e403db2	0.18773535
189	0x3e10536a	0.1409432
190	0xbe2830f6	-0.16424927
191	0x3e02b891	0.12765719
192	0xbdd645d2	-0.10462536
193	0x3e114194	0.14185172
194	0x3e3349c1	0.17508604
195	0x3e059da9	0.13048424
196	0xbe8d3631	-0.27580407
197	0xbe49536a	-0.19660726
198	0x3db77ec3	0.08959725
199	0x3cb22b79	0.021749245
200	0x3ebcaffd	0.36853018
201	0x3d7475c5	0.059682626
202	0xbe9f5c39	-0.31125048
203	0x3cfbcc78	0.030737147
204	0x3e27e96c	0.16397637
205	0xbdbd3e6f	-0.09240424
206	0x3e280b09	0.1641046
207	0x3e3e22ba	0.18567935
208	0x3e03e8a1	0.1288171
209	0xbd2b600d	-0.041839648
210	0xbe1b7479	-0.1518115
211	0x3e45c447	0.19313155
212	0x3db0d017	0.0863344
213	0x3dec0517	0.11524408
214	0x3e092f3e	0.13396928
215	0xbe6fc6a6	-0.23415622
216	0x3e48a33a	0.19593516
217	0x3e67d789	0.22640814
218	0xbe88728a	-0.26649886
219	0xbe0ad41e	-0.13557479
220	0x3e81157b	0.252117
221	0xbe0dad92	-0.13835743
222	0xbe4ac47d	-0.19801517
223	0xbdc2da16	-0.09514253
224	0xbc2fb155	-0.010723432
225	0x3eb386a1	0.3506365
226	0x3e8dfdee	0.27732795
227	0x3e136d25	0.14397104
228	0xbed83e73	-0.42235145
229	0x3d426be1	0.047466163
230	0x3cbf3ae9	0.02334352
231	0xbe051388	-0.12995732
232	0x3d541f58	0.051787704
233	0xbe33fc33	-0.17576675
234	0xbe46f605	-0.19429787
235	0x3c625f89	0.013816723
236	0x3e3ade9e	0.18248984
237	0x3d691784	0.056907192
238	0xbe80dc93	-0.25168285
239	0xbbf754c1	-0.0075479452
240	0xbd8658e5	-0.06559924
241	0x3e59eeeb	0.21282546
242	0x3db2043e	0.086922154
243	0x3e0c649c	0.13710254
244	0xbe126a87	-0.1429845
245	0x3dd9cdcb	0.10634955
246	0xbd9054fe	-0.07047461
247	0x3d9dc6c9	0.07703931
248	0xbdb0dd88	-0.08636004
249	0xbcf78ead	-0.0302194
250	0xbe8e34fb	-0.27774796
251	0xbeabfb0d	-0.33589974
252	0xbcefa0be	-0.029251453
253	0xbd855ab7	-0.06511443
254	0xbe39ad35	-0.1813248
255	0xbb062bae	-0.0020472812

linears.5.bias f4 [40]
0	0x3ccb0f4a	0.024787564
1	0xbceeb3ae	-0.029138412
2	0xbcad39cf	-0.02114573
3	0xbd1808f4	-0.037117913
4	0x3cfc18a1	0.030773463
5	0x3d338a91	0.04383332
6	0x3d40e056	0.047088943
7	0x3d5f3aec	0.05449955
8	0x3c912b5b	0.017720869
9	0x3cca9871	0.024730893
10	0xbcac154f	-0.021006254
11	0xbd158f9b	-0.036513906
12	0xbd16adf4	-0.03678699
13	0xbd5204c6	-0.051274084
14	0xbca49e3b	-0.020094981
15	0xbd414497	-0.047184553
16	0xbcc78e79	-0.024359928
17	0xbced1232	-0.02893934
18	0xbd072ff8	-0.03300473
19	0xbc20761f	-0.009793787
20	0x3c009148	0.007847138
21	0x3c5be155	0.013420423
22	0x3d1a4925	0.037667412
23	0x3ce16637	0.02751456
24	0x3d3f99e2	0.046777613
25	0x3d12c611	0.035833422
26	0x3d04bbe2	0.03240574
27	0x3cd59449	0.026071684
28	0x3d830f13	0.063993596
29	0xba4737b6	-0.0007599549
30	0xbceb56b7	-0.028727872
31	0x3c41e1db	0.011833633
32	0xbd3275e5	-0.043569464
33	0xbcdcbcfd	-0.026945585
34	0x3d1da7af	0.038489994
35	0xbd05961a	-0.03261385
36	0x3cd69498	0.026193902
37	0x3d255760	0.04036653
38	0x3d319618	0.04335603
39	0xbd49ac7f	-0.04923677

linears.6.weight f4 [1, 40]
0	0xbc4f7aff	-0.012663602
1	0x3da76128	0.08172828
2	0x3e89da79	0.26924494
3	0x3c5d6b71	0.013514386
4	0xbe96948d	-0.2941021
5	0xbea5ad02	-0.32358557
6	0xbd48e64f	-0.049047764
7	0xbe15c7dd	-0.14627023
8	0xbdb00a4d	-0.08595715
9	0xbec53cc4	-0.38522923
10	0x3da4e0d6	0.080506966
11	0x3e0f8e02	0.14019015
12	0x3d9fc3c9	0.07801015
13	0x3e2cedd9	0.16887607
14	0x3e572d26	0.21013317
15	0x3e0194b1	0.12654378
16	0x3e1359a3	0.14389662
17	0x3d905017	0.07046526
18	0x3ee2247f	0.4416847
19	0x3e8fb0ed	0.2806467
20	0xbdacecb5	-0.08443586
21	0xbf1b0808	-0.6055913
22	0xbd705d13	-0.058682512
23	0xbdebeda1	-0.115199335
24	0xbebddc94	-0.3708235
25	0xbe8e33ea	-0.27773982
26	0xbbf6e7d5	-0.0075349608
27	0xbde5ccd6	-0.1122071
28	0xbe25afb3	-0.16180305
29	0x3e0c3a83	0.13694195
30	0x3dec0e5b	0.115261756
31	0xbe63002b	-0.22168033
32	0x3ecd5934	0.4010712
33	0x3c1827fd	0.009286878
34	0xbe46ba3e	-0.19406983
35	0x3d428cd1	0.047497574
36	0xbe19aeb6	-0.15008053
37	0xbe879122	-0.26477915
38	0xbe0fc01c	-0.14038128
39	0x3e02dce6	0.12779579

exp_avg f4 [40, 2]
0	0xb8b3862f	-8.560379e-05
1	0xb923a9fc	-0.00015608215
2	0x3a190d56	0.0005838474
3	0x38e96453	0.000111289926
4	0xba45aa26	-0.00075403077
5	0xb899b9ed	-7.33024e-05
6	0xb972ec7d	-0.00023167017
7	0x37f07dd6	2.8668826e-05
8	0xba7cc6be	-0.0009642652
9	0xb9659afe	-0.00021896881
10	0x39781b80	0.00023661368
11	0x39bf73f2	0.00036516745
12	0xb9e08cbc	-0.00042829465
13	0xb8d1f713	-0.00010011918
14	0xbaec3bca	-0.001802319
15	0xba21a771	-0.00061666133
16	0xba1e02cc	-0.00060276384
17	0x387fbd29	6.0972907e-05
18	0xb8372661	-4.3666343e-05
19	0xb967a489	-0.00022091171
20	0xb9a15379	-0.00030770505
21	0xb960277c	-0.00021377014
22	0xb96b540a	-0.00022442653
23	0x391e4422	0.00015093436
24	0x3957ef50	0.00020593149
25	0xb87df4e6	-6.054798e-05
26	0xb9aca7aa	-0.00032931316
27	0xb9c5cbce	-0.00037726614
28	0xba11aad7	-0.0005556768
29	0x37fd9e5e	3.0233696e-05
30	0xbaaae724	-0.0013038856
31	0xb9f8ed97	-0.00047479264
32	0x3abadc1c	0.0014256272
33	0x39dd3fbb	0.00042199888
34	0x3a36501c	0.0006954686
35	0x399bda78	0.00029726676
36	0x3927161f	0.00015934602
37	0xb8f6a556	-0.0001176099
38	0xba740d8d	-0.00093098806
39	0xb989580c	-0.00026196276
40	0x3a5cd118	0.00084234914
41	0x360aff6b	2.0712275e-06
42	0xb994a524	-0.000283518
43	0xb981456b	-0.00024656518
44	0x39101f7b	0.00013744638
45	0x39904977	0.00027520556
46	0x3a37d821	0.0007013102
47	0x394379ca	0.00018642019
48	0xba26eab8	-0.0006367373
49	0xb95ab8da	-0.00020858963
50	0xb9fef6b2	-0.00048630458
51	0xb801b251	-3.0922067e-05
52	0xba832001	-0.0010004045
53	0xb9016ffb	-0.00012344115
54	0x3a1f92c4	0.00060872384
55	0x396c5581	0.00022538567
56	0x3992cb62	0.00027998822
57	0x3969d127	0.00022298527
58	0xb717e06e	-9.0525555e-06
59	0x3877d6a0	5.9089274e-05
60	0xb8cbc820	-9.7170705e-05
61	0xb921ad49	-0.0001541871
62	0xbae2508b	-0.0017266435
63	0xba2f32e4	-0.00066833035
64	0x39eb3347	0.00044860897
65	0x396b089d	0.00022414555
66	0x39e6bb17	0.0004400841
67	0xb606ac0d	-2.0067703e-06
68	0x3a1ecf70	0.0006058132
69	0xb763ec23	-1.3585234e-05
70	0x3a1ef501	0.000606373
71	0x38363cf0	4.3448934e-05
72	0xb8896186	-6.550834e-05
73	0xb8311103	-4.2215932e-05
74	0x38a3ef69	7.817039e-05
75	0x39a0b78f	0.0003065434
76	0xb9f08440	-0.000458749
77	0xb9d7620b	-0.00041081043
78	0xb9838bbf	-0.00025090386
79	0xb919b9cb	-0.0001466043

exp_avg_sq f4 [40, 2]
0	0x372f68aa	1.0455182e-05
1	0x38174e4a	3.6074118e-05
2	0x39d7dbc2	0.00041171728
3	0x371a1b26	9.185436e-06
4	0x3a5485bb	0.00081070856
5	0x377df1bc	1.5136258e-05
6	0x38a59d1a	7.8970756e-05
7	0x36556782	3.1799723e-06
8	0x3aa0d4ba	0.0012270429
9	0x3885f192	6.38693e-05
10	0x38c3ced7	9.3368515e-05
11	0x3957aff6	0.00020569548
12	0x3992ee91	0.00028025036
13	0x380d4f91	3.369112e-05
14	0x3b8c6d57	0.0042854953
15	0x3a078a3f	0.00051704416
16	0x3a066502	0.00051267457
17	0x36cb1b5b	6.053056e-06
18	0x368cbb21	4.19411e-06
19	0x388f7afb	6.841678e-05
20	0x39124da2	0.00013952565
21	0x38a831ea	8.0201615e-05
22	0x38933711	7.019763e-05
23	0x37cd9b68	2.4510271e-05
24	0x387a5b83	5.968987e-05
25	0x369a9036	4.606346e-06
26	0x392e32e2	0.00016612888
27	0x3973b6aa	0.00023242334
28	0x39cc8d0b	0.00039014997
29	0x3680c3e0	3.8375e-06
30	0x3b1da5db	0.0024055156
31	0x39d309b9	0.000402523
32	0x3b340db8	0.0027473997
33	0x3983f005	0.00025165096
34	0x3a373078	0.00069881184
35	0x394a960c	0.00019320118
36	0x3827c62b	4.000046e-05
37	0x37a68a10	1.9853032e-05
38	0x3a98d083	0.0011658821
39	0x38ce05db	9.823936e-05
40	0x3a82080c	0.0009920611
41	0x3593378f	1.0968523e-06
42	0x39047b71	0.00012634486
43	0x38e3620d	0.00010842467
44	0x38106bf2	3.4432807e-05
45	0x390dab8a	0.00013510711
46	0x3a292236	0.0006451936
47	0x384a6ac3	4.8259983e-05
48	0x3a08c947	0.0005217981
49	0x3872dcc9	5.790292e-05
50	0x39a2ccb7	0.00031051572
51	0x3543f599	7.300055e-07
52	0x3ab365a4	0.0013686907
53	0x37da9fad	2.606198e-05
54	0x3a0acf67	0.00052951876
55	0x38bff22a	9.152696e-05
56	0x38e4fdb1	0.00010919141
57	0x38b59165	8.6578344e-05
58	0x3595bca3	1.1156266e-06
59	0x371643d9	8.956494e-06
60	0x37b90509	2.2056063e-05
61	0x383756ed	4.3711556e-05
62	0x3b817808	0.0039510764
63	0x3a27a2d4	0.0006394808
64	0x3984c927	0.00025326872
65	0x386331ca	5.4167387e-05
66	0x398cf305	0.00026883945
67	0x35ab21bb	1.275031e-06
68	0x3a096181	0.00052406645
69	0x36d92871	6.471812e-06
70	0x39fac37b	0.0004782936
71	0x363dba48	2.8271625e-06
72	0x36b7f421	5.4822453e-06
73	0x36301ee3	2.6244022e-06
74	0x37650f6f	1.3653057e-05
75	0x391e6ffb	0.0001510977
76	0x39b162e2	0.00033833744
77	0x39913225	0.00027693916
78	0x38c5b4d0	9.427371e-05
79	0x38101254	3.4349345e-05

exp_avg f4 [40]
0	0xb9e94294	-0.00044490828
1	0x3971cfda	0.00023060982
2	0xb965fe1f	-0.0002193381
3	0x390f7022	0.00013679315
4	0xba11b53f	-0.0005558319
5	0x3a54cea9	0.0008117953
6	0xb99fd2e5	-0.00030483972
7	0xbabcde49	-0.0014409508
8	0x3952f1a7	0.00020117183
9	0xba134b24	-0.0005618802
10	0xba15951b	-0.00057061174
11	0x39993599	0.00029222367
12	0xb9003ba8	-0.00012229255
13	0xba74ed30	-0.0009343205
14	0x38d779d3	0.000102746904
15	0xba97912c	-0.001156365
16	0x3a6f268e	0.00091228716
17	0x3a6b5cae	0.0008978349
18	0xb9a24dde	-0.00030957063
19	0xba20148b	-0.0006106577
20	0xb8bd58be	-9.028752e-05
21	0xba16c0bd	-0.0005750766
22	0x3a2b35c6	0.0006531145
23	0x39e9cf49	0.00044595663
24	0xb9fbecf7	-0.00048051003
25	0xb851f157	-5.005425e-05
26	0xb98a61eb	-0.00026394366
27	0x3a007c8a	0.000490137
28	0x3a1879bf	0.00058164814
29	0x38f46eb3	0.00011655446
30	0xb9b2cc14	-0.00034102856
31	0xbacc61d9	-0.0015593126
32	0x3a0b71f2	0.00053194084
33	0x3856e658	5.12361e-05
34	0xb9355681	-0.0001729373
35	0x38b937b6	8.8318644e-05
36	0xb8cc38b5	-9.7380405e-05
37	0x3a3ff5b7	0.0007322686
38	0xba6fdbaa	-0.0009149859
39	0xb9c24374	-0.0003705282

exp_avg_sq f4 [40]
0	0x399a398c	0.00029416045
1	0x3890f1aa	6.9114685e-05
2	0x38ba8976	8.894775e-05
3	0x37d0267f	2.4813458e-05
4	0x39eb4733	0.0004487574
5	0x3a86fb84	0.0010298346
6	0x392aee8b	0.00016301328
7	0x3b446374	0.0029966505
8	0x38883030	6.493961e-05
9	0x39f620d7	0.00046945244
10	0x3a069eaf	0.000513534
11	0x391154b2	0.00013859829
12	0x37c70172	2.3723322e-05
13	0x3aaf40de	0.0013370772
14	0x37c8a4cf	2.3918603e-05
15	0x3b0867e9	0.0020813888
16	0x3a9fc96c	0.0012190766
17	0x3aa336d0	0.0012452248
18	0x39139915	0.0001407604
19	0x3a12281b	0.0005575434
20	0x37987321	1.8173423e-05
21	0x3a0b6b19	0.0005318388
22	0x3a2eee60	0.0006673094
23	0x399b6b5e	0.000296439
24	0x39ae7cd6	0.00033280876
25	0x36df24e6	6.6502134e-06
26	0x38f820f3	0.00011831699
27	0x39d52710	0.0004065563
28	0x3a040147	0.0005035591
29	0x37cc654e	2.4365869e-05
30	0x39520430	0.0002002872
31	0x3b672fed	0.0035276369
32	0x39d9f276	0.00041570113
33	0x36e60e01	6.8561644e-06
34	0x384c4b50	4.870753e-05
35	0x379cae7c	1.86779e-05
36	0x378fcae9	1.7141416e-05
37	0x3a5b7394	0.00083714095
38	0x3ab1a8e1	0.0013554358
39	0x3963002f	0.00021648475
