pdebench/models/newly_trained_models/Advection/PINN/1D_Advection_Sols_beta0.1_PINN.pt-5000.pt (torch, 117827 bytes, 39 tensors)

linears.0.weight f4 [40, 2]
0	0xbcf93115	-0.030418912
1	0xbe5ce3cf	-0.21571277
2	0xbe57c976	-0.21072945
3	0x3e2a17d5	0.16610654
4	0xbe84f48f	-0.25967833
5	0x3d4bea88	0.049784213
6	0x3e7c8daa	0.24663416
7	0xbdf1e8c4	-0.11811975
8	0x3d19bbaf	0.037532505
9	0xbd30fdd8	-0.043210834
10	0x3c22f6c2	0.009946527
11	0xbe4c6832	-0.19961622
12	0xbdbdd54f	-0.09269201
13	0x3e82a95e	0.25519842
14	0x3f0693b0	0.52569103
15	0x3e1da901	0.15396501
16	0x3dff1df2	0.124568835
17	0x3eba027a	0.36330014
18	0xbe2dff53	-0.1699193
19	0xbdb2e7cf	-0.0873562
20	0xbce990f9	-0.028511511
21	0x3e0a932e	0.13532707
22	0x3e921484	0.28531277
23	0x3d0db047	0.03459194
24	0xbbbb4d03	-0.0057159676
25	0x3cab62dd	0.020921165
26	0xbce37eee	-0.027770486
27	0xbda4452b	-0.08021005
28	0x3ea32e72	0.31871372
29	0x3c1b53f3	0.009480464
30	0x3e1cadac	0.15300626
31	0x3e32cfbb	0.17462055
32	0x3e9a17da	0.30096322
33	0x3e890013	0.2675787
34	0xbe263be4	-0.16233784
35	0xbe246be2	-0.16056779
36	0xbc77a69d	-0.015115407
37	0xbec88171	-0.39161256
38	0xbdb33494	-0.08750263
39	0x3e96b8f5	0.29437986
40	0xbe99d33b	-0.3004397
41	0x3ebc9499	0.3683212
42	0x3ea15426	0.31509513
43	0x3db836f3	0.08994856
44	0xbdf42722	-0.119215265
45	0xbcca4e11	-0.024695428
46	0x3ec03c35	0.37545934
47	0xbe69c64e	-0.22829553
48	0xbed3f7fe	-0.4140014
49	0x3e59f261	0.21283866
50	0x3e230d18	0.15922964
51	0xbe067594	-0.1313079
52	0x3c8c7706	0.017146599
53	0x3e2455b6	0.16048321
54	0x3c9871d0	0.018608958
55	0x3ef25f2c	0.47338235
56	0xbe99aee3	-0.3001624
57	0xbb8a061d	-0.0042121545
58	0xbe6313a8	-0.22175467
59	0x3c856271	0.016282292
60	0xbd1dd4a9	-0.038532887
61	0x3e1ab37e	0.15107533
62	0x3e38bdd4	0.18041164
63	0xbe831b53	-0.25606784
64	0xbda9af16	-0.08285348
65	0x3e25a131	0.16174771
66	0xbebb2714	-0.36553252
67	0x3ec22b83	0.37923822
68	0xbd2335a5	-0.03984608
69	0x3ead322e	0.33827347
70	0xbf0fd8aa	-0.5618998
71	0x3db59315	0.08865944
72	0xbe9b51a8	-0.30335736
73	0x3c5af323	0.013363632
74	0xbe7cc30d	-0.24683781
75	0xbe2a79ec	-0.16648072
76	0xbed6ba3f	-0.4193897
77	0x3dc2130c	0.09476289
78	0x3e2d950d	0.1695139
79	0xbd61226b	-0.054964464

linears.0.bias f4 [40]
0	0x3cfd52b8	0.030923232
1	0xbc4ad92e	-0.012380881
2	0x3d70a02d	0.058746506
3	0x3d39c3aa	0.045352615
4	0xbdff074f	-0.12452566
5	0xbd03cfb0	-0.032180488
6	0x3d4f7242	0.050646074
7	0x3b70e474	0.0036757262
8	0xbda68a65	-0.081318654
9	0x3d9b5522	0.07584597
10	0x3d4661fa	0.04843328
11	0x3d805737	0.06266635
12	0x3e0e9563	0.13924174
13	0x3d970d2a	0.07375558
14	0x3c521c8c	0.012824189
15	0xbdbce8a1	-0.09224058
16	0xbd7ebc78	-0.062191457
17	0x3dd60e95	0.10452
18	0xbd2755d0	-0.04085332
19	0x3d8e4740	0.069471836
20	0xbd88e3bb	-0.06684061
21	0xbd97d0a7	-0.07412844
22	0x3dd5783f	0.10423326
23	0x3c91871a	0.017764617
24	0xbd2a96c0	-0.041647673
25	0x3d8fe14c	0.07025394
26	0x3d60d0ac	0.054886505
27	0xbd70d4b6	-0.058796607
28	0xbd471935	-0.048608024
29	0x3de8130a	0.113317564
30	0x3d8ed71d	0.06974623
31	0xbded4b35	-0.1158661
32	0x3da4271b	0.08015271
33	0x3d4d9a5c	0.050196037
34	0x3d534178	0.051576108
35	0x3cabd189	0.020973938
36	0x3cd97b69	0.026548104
37	0x3d84967f	0.06474017
38	0x3dd8f74f	0.10594045
39	0xbd117b44	-0.035517946

linears.1.weight f4 [40, 40]
0	0x3d388355	0.045047123
1	0xbd1bf78c	-0.038077876
2	0xbd7f5429	-0.06233612
3	0x3cf4b57d	0.029871697
4	0xbccccc26	-0.02499969
5	0x3de48b74	0.11159411
6	0x3e62f762	0.22164682
7	0x3f023cdd	0.5087412
8	0xbee76607	-0.45195028
9	0x3bdb33f7	0.0066895443
10	0xbdddcc5f	-0.10829996
11	0xbe4072c1	-0.18793775
12	0x3da07b03	0.078359626
13	0xbd1906fc	-0.037360176
14	0x3d9669cf	0.073444
15	0x3df12d4a	0.11776216
16	0xbdad3925	-0.08458165
17	0xbe6273e5	-0.22114523
18	0x3c6546ab	0.013993899
19	0xbec039e3	-0.37544164
20	0x3d937c1c	0.07201406
21	0xbc771d97	-0.015082738
22	0xbb590ae4	-0.0033118064
23	0x3e096ce6	0.13420448
24	0x3c79dbc6	0.015250152
25	0xbe458f86	-0.19293031
26	0xbe794322	-0.24342015
27	0x3c838c74	0.016058184
28	0xbd839e11	-0.06426633
29	0x3e914dd8	0.28379703
30	0xba0c7738	-0.0005358341
31	0x3e38475d	0.17995973
32	0xbda80a94	-0.082051426
33	0x3de925ab	0.11384138
34	0x3cee3b0a	0.029080886
35	0xbd9197ce	-0.071090326
36	0xbd876641	-0.066113
37	0x3e8b6c47	0.27231047
38	0xbc7e3029	-0.015514412
39	0x3e730577	0.23732553
40	0xbdcc5985	-0.09978012
41	0x3d7d8c14	0.061901167
42	0x3cfe5173	0.031044697
43	0xbdded06a	-0.108795956
44	0xbe42d73e	-0.19027421
45	0xbd28f6f7	-0.04125115
46	0xbe7e0af8	-0.24808872
47	0x3e9d3903	0.3070756
48	0xbd74a55d	-0.059728015
49	0xbe1ddd24	-0.1541639
50	0xbd96cdc0	-0.073634624
51	0xbcc1727c	-0.02361416
52	0xbe4747c8	-0.19460976
53	0xbeac1296	-0.3360793
54	0xbe113a11	-0.14182307
55	0xbe18d3d1	-0.14924552
56	0x3e329208	0.17438519
57	0xbd8b598c	-0.06804189
58	0xbe5715b1	-0.21004368
59	0xbd65b832	-0.056083865
60	0x3e5ece0e	0.21758291
61	0x3d943ce3	0.07238176
62	0xbe9deba1	-0.30843833
63	0x3d5a8081	0.053345207
64	0x3e770b25	0.24125345
65	0xbe12f733	-0.14352112
66	0xbd131d8d	-0.035916854
67	0x3e70bd61	0.23509742
68	0x3cf7935e	0.030221637
69	0xbd9339d3	-0.071887635
70	0xbe40b693	-0.18819647
71	0xbddf62d5	-0.109075226
72	0xbd8fcbf3	-0.07021322
73	0xbe8bbbb1	-0.27291635
74	0xbdfe6532	-0.12421645
75	0xbe10b21d	-0.14130445
76	0xbd82504d	-0.063629724
77	0xbe59a00b	-0.21252458
78	0xbe266831	-0.16250683
79	0xbb74520b	-0.0037280347
80	0x3d908a5b	0.07057639
81	0xbe794fc9	-0.24346842
82	0xbdec8298	-0.11548346
83	0x3e5f057f	0.2177944
84	0xbdb16dc3	-0.086635135
85	0x3af2ac0f	0.0018514412
86	0xbd8feeb7	-0.07027953
87	0x3e09d74e	0.13461038
88	0xbe716e58	-0.23577249
89	0xbcb6ea0c	-0.0223284
90	0xbed0e0bc	-0.4079646
91	0x3d8ce912	0.06880392
92	0x3de7c0c1	0.11316062
93	0x3d1bd0a9	0.03804079
94	0x3dc9afde	0.09847997
95	0x3ce2bd95	0.02767829
96	0x3e83b7fe	0.25726312
97	0x3d978deb	0.074001156
98	0x3cb77336	0.022393804
99	0xbeb184d3	-0.3467165
100	0x3cc3b451	0.023889693
101	0x3da76f26	0.08175497
102	0xbe595710	-0.21224618
103	0xbd69ac46	-0.05704906
104	0xbdfcf7b9	-0.12351937
105	0x3d866bb4	0.065635115
106	0x3d280dd9	0.04102883
107	0x3e233d30	0.1594131
108	0x3e047d0c	0.12938327
109	0x3d73c93f	0.059518095
110	0x3ded56e9	0.115888424
111	0xbd8c3489	-0.06845958
112	0xbe125644	-0.1429072
113	0xbe0390ed	-0.12848254
114	0xbe2074c1	-0.15669538
115	0x3da18de2	0.0788839
116	0xbebccaa0	-0.3687334
117	0xbe61ebb2	-0.22062567
118	0x3ea55bc8	0.32296586
119	0x3be29c4b	0.006915604
120	0xbdaece60	-0.08535457
121	0xbdff6fbb	-0.12472483
122	0x3ea47bcc	0.321257
123	0xbe47a230	-0.19495463
124	0x3e4c7c0d	0.19969197
125	0xbe036d65	-0.128347
126	0x3ca60e19	0.020270394
127	0xbeb0a990	-0.34504366
128	0xbe207145	-0.15668209
129	0xbe041050	-0.12896848
130	0x3af08c4c	0.0018352359
131	0x3e0c79b6	0.13718304
132	0xbe159f40	-0.1461153
133	0xbe3ecf05	-0.18633659
134	0x3de8b665	0.11362914
135	0xbbfab6f9	-0.0076512066
136	0xbe6b8529	-0.23000015
137	0xbe817bc6	-0.25289744
138	0x3d5a7c92	0.053341456
139	0x3e02dbb1	0.12779118
140	0xbe68ef22	-0.22747472
141	0xbd9fdcb4	-0.07805768
142	0x3e3f3fc9	0.18676676
143	0xbe42361f	-0.18965958
144	0x3e54d933	0.2078598
145	0xbdde2774	-0.10847369
146	0xbe433693	-0.19063787
147	0x3e166ef6	0.14690766
148	0x3e966ebc	0.2938136
149	0xbc97c636	-0.018527132
150	0x3ee2d803	0.4430543
151	0x3e976479	0.29568842
152	0x3e17d68e	0.1482794
153	0xbe8fcbbf	-0.28085133
154	0x3e215172	0.15753725
155	0x3eee9ef2	0.4660564
156	0x3eb74614	0.35795653
157	0x3d4783b8	0.0487096
158	0x3d3856f9	0.04500482
159	0xbe265579	-0.16243543
160	0x3cbf3515	0.023340741
161	0xbcf1d3fd	-0.02952003
162	0xbc97f579	-0.018549668
163	0x3e151e99	0.14562453
164	0xbc590de0	-0.013247937
165	0x3d0fe2d9	0.03512845
166	0x3e319f92	0.17346027
167	0xbe41d4b2	-0.18928793
168	0xbcc9da62	-0.024640266
169	0x3e429609	0.19002546
170	0xbe18e7f5	-0.14932235
171	0xbe0ecf48	-0.13946259
172	0xbda7763b	-0.081768475
173	0xbd840385	-0.06445984
174	0xbe0de4d2	-0.1385682
175	0xbe02b5df	-0.12764691
176	0xbd0ee3ad	-0.034885097
177	0x3e4bc072	0.19897631
178	0x3c9b5de4	0.018965669
179	0x3e9fa0cd	0.3117737
180	0x3e82ddea	0.25559932
181	0xbe322778	-0.17397869
182	0x3e4c52af	0.19953416
183	0xbd97d49f	-0.07413601
184	0xbe69e7ce	-0.22842333
185	0x3d94e1c6	0.07269625
186	0xbe39d070	-0.18145919
187	0x3d08b339	0.033374045
188	0xbe7f0ea6	-0.24907932
189	0x3d7de022	0.061981328
190	0x3ed4dae0	0.41573238
191	0x3d7773f4	0.060413316
192	0x3e48716f	0.19574521
193	0xbd35abde	-0.04435336
194	0x3e4d8fb7	0.20074354
195	0x3e6a4a50	0.2287991
196	0x3c21c515	0.009873648
197	0x3e8185ac	0.25297296
198	0xbd944ad9	-0.072408386
199	0xbea05572	-0.3131519
200	0x3e0601df	0.13086651
201	0x3e4f6e82	0.20256999
202	0xbea26ca8	-0.31723523
203	0xbc756030	-0.014976546
204	0x3e43d2f3	0.1912344
205	0x3e05a41b	0.13050883
206	0x3e2029f8	0.1564101
207	0xbcb7c55d	-0.022432977
208	0xbe22b46b	-0.15889136
209	0xbe2f4b60	-0.17118597
210	0x3d057e76	0.032591306
211	0xbdfd17cf	-0.12358057
212	0x3e8032dc	0.25038803
213	0xbe65f0a0	-0.22455072
214	0x3e8567b5	0.26055685
215	0xbdb049d2	-0.0860783
216	0xbd99cfdc	-0.07510349
217	0xbe1287ff	-0.14309691
218	0xbc89eb62	-0.016835872
219	0x3dfa5c40	0.122246265
220	0x3c83baea	0.016080339
221	0x3c0d14eb	0.008610944
222	0x3e2f7fe8	0.17138636
223	0x3e39f930	0.18161464
224	0x3da48cce	0.08034669
225	0x3dab4c28	0.08364135
226	0xbe1e7b27	-0.15476666
227	0x3e5dafa5	0.21649034
228	0xbc602968	-0.013681747
229	0x3dbb13b9	0.09134621
230	0xbccec654	-0.025241055
231	0x3cc11fac	0.023574673
232	0xbd6da0f3	-0.05801482
233	0x3e051e7f	0.12999915
234	0x3c2e10e1	0.010624141
235	0x3ddaa3e8	0.10675794
236	0xbdc32a79	-0.095295854
237	0xbdc76ef7	-0.09737962
238	0x3e2129b3	0.15738563
239	0xbe3c11c0	-0.18366146
240	0xbe28d47a	-0.16487303
241	0xbdd9a08b	-0.10626324
242	0xbd9cba8d	-0.07652769
243	0x3e968651	0.2939935
244	0xbec96882	-0.39337546
245	0xbe64cb24	-0.22343117
246	0xbe6ccddf	-0.23125409
247	0x3e66bf28	0.22533858
248	0x3e09fb30	0.13474727
249	0xbddc2cbe	-0.107507214
250	0x3d967e1d	0.07348273
251	0x3dab9e29	0.08379776
252	0x3e84dc4d	0.25949326
253	0x3dbcdabb	0.09221407
254	0x3eb2b72e	0.3490538
255	0xbddda223	-0.10821941

linears.1.bias f4 [40]
0	0x3c7f8be1	0.015597315
1	0xbd4c4276	-0.04986807
2	0xbc0af785	-0.008481865
3	0x3c7bad52	0.015361147
4	0x3d2ea92f	0.042641815
5	0x3bd9d207	0.0066473517
6	0x3d512f8a	0.051070727
7	0x3d51c5aa	0.051213898
8	0xbcc9bb7e	-0.024625536
9	0xbb201b7a	-0.002443044
10	0x3d9af2f4	0.07565871
11	0xbda17e1c	-0.078853816
12	0x3c8249b6	0.015904289
13	0xbe0ab57b	-0.13545792
14	0xbd14bab8	-0.03631088
15	0xbbfc79c0	-0.0077049434
16	0xbd60fb6c	-0.054927275
17	0xbd62a7b5	-0.05533572
18	0xbd7cc3b9	-0.061710093
19	0x3d43401e	0.04766857
20	0xbd8d03e7	-0.0688551
21	0x3d4c36b6	0.049856864
22	0xbdfb9177	-0.122836046
23	0x3d1f525d	0.038896907
24	0xbdb037e9	-0.08604414
25	0xbd62a341	-0.055331472
26	0xbd958e9a	-0.0730259
27	0xbdd5a6e3	-0.10432222
28	0xbd6799bf	-0.056543108
29	0xbe1360cf	-0.14392398
30	0x3d700c74	0.058605626
31	0xbcfcb3a2	-0.030847374
32	0x3d55b562	0.052174933
33	0xbd12c65c	-0.0358337
34	0xbd6fe3ae	-0.05856674
35	0x3d4f5674	0.050619557
36	0xbdc320ba	-0.095277265
37	0x3e0cf2a8	0.13764441
38	0x3bcfdd5f	0.006343528
39	0xbd083de6	-0.033262156

linears.2.weight f4 [40, 40]
0	0xbda70685	-0.081555404
1	0xbdf97c53	-0.12181916
2	0xbdfeb665	-0.12437133
3	0x3e01b2bc	0.12665838
4	0x3d84e02e	0.064880714
5	0x3e636aa2	0.22208646
6	0x3d8f7514	0.07004753
7	0x3e6851b9	0.22687425
8	0x3d64def7	0.0558767
9	0xbd5d159a	-0.05397568
10	0x3d81c2e9	0.06336004
11	0xbe83e65d	-0.2576169
12	0x3d61aa18	0.055093855
13	0xbefe3aa0	-0.49654102
14	0xbe15ad82	-0.14616969
15	0xbde322d3	-0.110906266
16	0x3c62ce7f	0.013843178
17	0x3e1a3ef5	0.15063079
18	0xbdfb3009	-0.12265021
19	0xbddb39eb	-0.10704406
20	0xbed11a37	-0.40840313
21	0xbd13a791	-0.036048476
22	0xbec6c024	-0.38818467
23	0xbd581cf9	-0.052762005
24	0xbd99cc9c	-0.07509729
25	0xbdc4ff0b	-0.09618958
26	0xbe5db2e0	-0.21650267
27	0xbedc0e7e	-0.42979807
28	0x3c86ad2e	0.01644
29	0xbe197b0f	-0.1498835
30	0xbde43d41	-0.11144496
31	0xbe139781	-0.14413263
32	0xbdb458c7	-0.088059954
33	0xbde60419	-0.1123125
34	0xbda3ed83	-0.08004286
35	0x3e1a835b	0.1508917
36	0xbe00093f	-0.12503527
37	0x3ddb215f	0.106997244
38	0xbe08ebfd	-0.13371272
39	0x3e104710	0.14089608
40	0x3d8cf163	0.06881978
41	0x3e1cae34	0.15300828
42	0x3b72c745	0.0037045043
43	0x3e2543ba	0.16139117
44	0xbe542e95	-0.20720895
45	0x3e5e7cfc	0.21727365
46	0x3e31a1d5	0.1734689
47	0xbda32762	-0.07966496
48	0x3d4101bb	0.04712079
49	0x39d2925b	0.00040163365
50	0xbd1bb630	-0.038015544
51	0x3e219532	0.1577957
52	0x3d5fca4f	0.054636296
53	0x3e21a898	0.1578697
54	0x3b483989	0.0030551872
55	0xbea25c1d	-0.31710902
56	0x3d0f49dc	0.034982547
57	0xbe1aeda1	-0.1512971
58	0x3e10b26c	0.14130563
59	0xbe061f1d	-0.13097806
60	0xbca0fd69	-0.019652085
61	0x3e445f35	0.19176944
62	0xbe15f0ca	-0.14642635
63	0x3dc47e64	0.095944196
64	0x3e9c272c	0.30498636
65	0xbd99163e	-0.074749455
66	0x3d86c3e5	0.06580333
67	0x3eebf7bc	0.46087444
68	0xbd15d1e9	-0.03657714
69	0x3e31a570	0.17348266
70	0xbd22b124	-0.039719716
71	0x3eaf78df	0.34271905
72	0xbe3fe52c	-0.18739766
73	0xbbffaf91	-0.0078029116
74	0xbd9c4ef9	-0.0763225
75	0xbe0f23cc	-0.13978499
76	0x3cb34090	0.021881372
77	0xbd93e4e8	-0.07221395
78	0x3b27c9c7	0.0025602446
79	0x3e49ca64	0.19706112
80	0x3c40a107	0.011757142
81	0xbd92c784	-0.07166961
82	0x3ee2a64c	0.442675
83	0x3da8e81f	0.082473986
84	0xbe2268db	-0.15860312
85	0xbe3f20df	-0.18664883
86	0x3e8913cf	0.26772925
87	0xb9d0e873	-0.0003984604
88	0xbe8fa140	-0.2805271
89	0xbd96566d	-0.07340703
90	0xbe74d097	-0.23907696
91	0xbd517832	-0.051140018
92	0xbd991636	-0.074749395
93	0xbd963f5a	-0.07336302
94	0xbdb4bd2b	-0.088251434
95	0xbe90506f	-0.28186366
96	0x3dac9e2a	0.08428605
97	0x3e2bb894	0.1676963
98	0xbba7c015	-0.0051193335
99	0xbd090cf2	-0.03345961
100	0xbdf0c1a6	-0.117556855
101	0x3ddec8ee	0.10878168
102	0x3d56584f	0.05233031
103	0xbdbbbe91	-0.09167207
104	0xbd857590	-0.06516564
105	0x3cece382	0.028917078
106	0xbd862eca	-0.06551893
107	0x3ed7c736	0.42144173
108	0xbe8d1f5b	-0.27562985
109	0x3cb775ee	0.0223951
110	0x3e08c3fd	0.13356014
111	0xbc6c534f	-0.014424159
112	0x3e41a6fb	0.18911354
113	0xbeb70d0c	-0.3575214
114	0x3dc9a2ba	0.09845491
115	0x3d0effa0	0.03491175
116	0x3c96be24	0.018401213
117	0x3e4e4ddc	0.20146888
118	0x3dc30a7a	0.095234826
119	0x3d561ef9	0.05227563
120	0x3deed9e8	0.11662656
121	0xbeaea8ec	-0.34113252
122	0xbd4f80d3	-0.050659966
123	0x3d399c84	0.04531528
124	0xbc87d97f	-0.016583202
125	0x3daed2ec	0.08536324
126	0x3d34c0be	0.044129126
127	0xbc89761b	-0.01677995
128	0x3d97b371	0.074072726
129	0x3dcfb948	0.101427615
130	0x3d0330cc	0.03202896
131	0xbe8a2203	-0.26979074
132	0x3dac8a69	0.08424837
133	0xbe322085	-0.17395218
134	0x3d151eba	0.036406256
135	0xbeb9fb76	-0.36324662
136	0xbe76cc59	-0.2410139
137	0xbe8b74f1	-0.27237657
138	0xbe88f461	-0.26748946
139	0x3e5d2ed1	0.2159989
140	0xbed13d3e	-0.40867037
141	0x3ec8a3c5	0.39187446
142	0xbe96c1f8	-0.2944486
143	0x3c4faf99	0.012676143
144	0x3de20c94	0.11037555
145	0xbe02e965	-0.12784345
146	0xbc0ba121	-0.008522303
147	0xbe8e881b	-0.27838215
148	0xbdccbe33	-0.09997215
149	0xbf1b1b12	-0.6058818
150	0x3e211e4a	0.1573421
151	0xbe2344da	-0.15944234
152	0x3d9fe8c6	0.0780807
153	0xbe9d21cf	-0.30689856
154	0x3e0947b6	0.13406262
155	0xbdb173e5	-0.08664683
156	0xbe519889	-0.20468344
157	0x3ebbbb44	0.3666631
158	0xbdf1d7e8	-0.11808759
159	0x3e21f182	0.15814784
160	0xbe8c73c8	-0.27432084
161	0xbe4d3e21	-0.20043232
162	0xbe98211c	-0.2971276
163	0xbe04b730	-0.12960505
164	0x3e9892fc	0.2979964
165	0xbc627674	-0.013822187
166	0x3e7ad9c3	0.24497132
167	0x3e8a6e37	0.27037212
168	0xbe1672aa	-0.14692178
169	0xbdeccccf	-0.11562502
170	0x3e159b10	0.14609933
171	0xbe4644bf	-0.19362162
172	0xbe2883f7	-0.1645659
173	0x3dc45ff4	0.09588614
174	0x3d7ab332	0.06120605
175	0xbd0a2e17	-0.03373536
176	0x3d79c218	0.060976118
177	0xbeb2c6c8	-0.34917283
178	0xbc8d8602	-0.017275814
179	0x3e3479bf	0.17624567
180	0x3db9022d	0.09033618
181	0x3dbc608c	0.09198102
182	0xbcff3957	-0.031155271
183	0xbda0bb29	-0.07848198
184	0xbddd3269	-0.108006306
185	0xbd583b75	-0.052791078
186	0xbdc7f0d3	-0.097627304
187	0xbe0d81bb	-0.1381902
188	0xbec7595f	-0.38935372
189	0xbe5f56c3	-0.2181044
190	0x3e367650	0.1781857
191	0xbe1d7a48	-0.15378678
192	0x3d6fc7d5	0.058540184
193	0xbd061011	-0.032730166
194	0xbe0f4d3f	-0.13994311
195	0x3e8814af	0.2657828
196	0xbd580936	-0.05274316
197	0xbdbdb048	-0.092621386
198	0x3e8144bb	0.2524775
199	0x3dc54e3e	0.09634064
200	0x3bbf2c04	0.0058341045
201	0xbe94b0d0	-0.29041147
202	0xbe175273	-0.14777546
203	0x3db22194	0.08697811
204	0x3eddbc5b	0.43307766
205	0xbe76554b	-0.24055974
206	0xbe63ada4	-0.22234207
207	0x3e905fd5	0.28198114
208	0x3ebd0d36	0.36924142
209	0x3ebc4771	0.36773255
210	0xbe89b3fb	-0.26895127
211	0xbeb7d6ea	-0.35906154
212	0xbc32bf8b	-0.010909925
213	0xbe78f5e2	-0.24312547
214	0xbda419e5	-0.080127515
215	0x3eab05c9	0.3340285
216	0xbe287470	-0.16450667
217	0x3e85aafa	0.26107007
218	0xbe82702f	-0.25476214
219	0xbd38f9e2	-0.04516018
220	0xbeb6fc4c	-0.35739362
221	0xbea8b592	-0.32951027
222	0xbdb1802f	-0.08667027
223	0x3ca5dce2	0.020246927
224	0xbe76e3af	-0.24110292
225	0x3e613c92	0.21995762
226	0x3d15614f	0.036469754
227	0xbdb8ff7e	-0.09033106
228	0x3d13b020	0.036056638
229	0xbd91eab0	-0.07124841
230	0xbe3ef4c2	-0.18648055
231	0xbf071b28	-0.5277581
232	0x3d83137d	0.064002015
233	0xbdee586b	-0.11637958
234	0xbe1b38da	-0.15158406
235	0x3e78f5f3	0.24312572
236	0x3c462f18	0.012096189
237	0xbe94ec6c	-0.29086626
238	0xbd0a9070	-0.033829153
239	0xbdd8c5b5	-0.105845846
240	0xbe1ff6d6	-0.15621504
241	0xbc048592	-0.008088486
242	0x3d0a8f76	0.03382822
243	0xbd922f42	-0.0713792
244	0xbc900e66	-0.01758499
245	0x3e47d02c	0.19513005
246	0xbe122074	-0.14270192
247	0x3e0b00b8	0.13574493
248	0xbd1cf1e0	-0.038316607
249	0xbdfa1ee6	-0.12212925
250	0x3bc21a07	0.005923513
251	0xbea5c59a	-0.3237732
252	0xbe45b972	-0.19309023
253	0xbe3752ac	-0.1790263
254	0x3d8b963c	0.06815764
255	0xbd1ff5fb	-0.039052945

linears.2.bias f4 [40]
0	0x3d53a8a0	0.051674485
1	0xbd998c33	-0.07497444
2	0xbd1cd148	-0.038285524
3	0x3dabb5fc	0.0838432
4	0x3d320c8d	0.043469
5	0x3cf6388b	0.030056259
6	0xbc259314	-0.010105867
7	0x3d61f97a	0.05516956
8	0xbd0ea5e6	-0.03482618
9	0x3d283105	0.041062374
10	0xbd076ecb	-0.033064645
11	0x3d0f78a2	0.035027154
12	0x3dc3bde2	0.09557702
13	0xbc946a0e	-0.018116977
14	0x3d6ae6f8	0.057349175
15	0x3d3d74b8	0.04625389
16	0xbb8bc2c9	-0.0042651636
17	0x3cb99c04	0.022657402
18	0x3d123226	0.035692357
19	0x3ca82ae6	0.020528268
20	0x3d35a5d2	0.04434759
21	0x3cede85c	0.029041462
22	0x3d067d69	0.032834444
23	0xbddd1426	-0.10794859
24	0xbd05bf80	-0.03265333
25	0xbd0dfa86	-0.034662746
26	0xbd21248a	-0.039341487
27	0xbca737e9	-0.020412402
28	0x3cfbcd9e	0.030737694
29	0xbc303e69	-0.010757067
30	0xbd38c2ca	-0.04510764
31	0xbcef41f1	-0.029206248
32	0xbd0f8176	-0.035035573
33	0x3d008a41	0.03138185
34	0x3d2d12b4	0.042254165
35	0xbd37f90d	-0.044915248
36	0x3d1fc691	0.039007727
37	0xbd95dc95	-0.07317463
38	0xbd088c22	-0.033336766
39	0x3d291025	0.041275162

linears.3.weight f4 [40, 40]
0	0x3e031537	0.12801062
1	0xbd39db38	-0.04537508
2	0xbcbd22e2	-0.023087922
3	0xbe1415ed	-0.14461489
4	0xbe1bf4a9	-0.15230049
5	0xbd5fd34a	-0.05464486
6	0x3e6403f4	0.22267133
7	0x3e9d53b7	0.30727932
8	0xbe2ba4e2	-0.16762117
9	0xbe473792	-0.19454792
10	0xbb2940fd	-0.002582609
11	0x3e36d477	0.17854486
12	0xbdf61b12	-0.12016882
13	0xbe8b6100	-0.27222443
14	0xbe8d59bd	-0.27607527
15	0xbe7d82a6	-0.2475687
16	0xbda12b2c	-0.078695625
17	0xbc166574	-0.009179462
18	0x3e4c7814	0.19967681
19	0x3e7e4e73	0.24834614
20	0xbe512fe8	-0.20428431
21	0xbe7b9c12	-0.24571255
22	0xbe454509	-0.19264616
23	0x3e22febb	0.15917484
24	0xbe3145ae	-0.17311737
25	0x3c0bc872	0.008531677
26	0xbd21b46d	-0.039478708
27	0xbdfbc36a	-0.12293132
28	0xbc7abde8	-0.015304066
29	0x3f0f5a9f	0.5599765
30	0x3de30c1e	0.110862955
31	0xbe1bd56e	-0.15218136
32	0xbdf8bbb4	-0.121451765
33	0xbe87d71d	-0.26531306
34	0x3c3e456e	0.011613233
35	0xbe059b36	-0.1304749
36	0xbe910a5d	-0.2832822
37	0x3e587296	0.21137461
38	0xbe2f38d9	-0.1711153
39	0xbe05415b	-0.13013212
40	0x3cc23e34	0.023711301
41	0x3dc8d03b	0.09805342
42	0x3df359f4	0.118823916
43	0x3d7d29ba	0.06180737
44	0x3d06f838	0.032951564
45	0xbe9d906d	-0.3077425
46	0xbebb9e39	-0.36644152
47	0xbe437c26	-0.19090328
48	0xbe691ad6	-0.22764143
49	0x3e4b2e32	0.19841841
50	0xbd82ffab	-0.06396421
51	0x3e4f57d7	0.20248352
52	0x3d610592	0.054936953
53	0x3e615712	0.22005871
54	0xbe95c4ab	-0.29251608
55	0x3d82183a	0.06352277
56	0x3dba6d67	0.09102898
57	0xbc0c4b75	-0.008562912
58	0xbe36cf78	-0.1785258
59	0xbd93341f	-0.07187676
60	0x3e884a6d	0.26619282
61	0x3e3f9302	0.18708423
62	0xbe10e8f6	-0.14151368
63	0xbd559bd4	-0.052150562
64	0x3d82fc3a	0.06395765
65	0xbde3d327	-0.111242585
66	0x3e400633	0.18752365
67	0xbd9c8581	-0.07642651
68	0x3cc6e388	0.024278417
69	0x3dc82368	0.09772378
70	0xbde72123	-0.11285617
71	0x3d7e0efb	0.062026005
72	0xbe192c58	-0.14958322
73	0xbb7a13df	-0.0038158817
74	0xbd3c8ffb	-0.046035748
75	0xbe850df2	-0.25987202
76	0xbcdaa5e2	-0.026690427
77	0xbde61983	-0.11235335
78	0x3e34d783	0.17660336
79	0x3bf26a1d	0.0073979036
80	0xbe643517	-0.22285877
81	0xbddfb312	-0.10922827
82	0x3dc24ca9	0.09487278
83	0x3d6a5cba	0.057217337
84	0x3e42b0bd	0.19012733
85	0xba7e52be	-0.00097016606
86	0xbe861277	-0.26185963
87	0x3da38ce5	0.07985858
88	0xbe0e58be	-0.1390104
89	0x3e3e07f0	0.18557715
90	0x3e0c4ce1	0.13701202
91	0xbcf3c028	-0.029754713
92	0xbd4c259d	-0.04984056
93	0x3ea737c4	0.32659733
94	0xbc74cba8	-0.014941134
95	0x3ed83515	0.42227998
96	0xbebf8666	-0.37407225
97	0xbcee816c	-0.029114448
98	0xbe8c069f	-0.27348801
99	0x3d9858ae	0.07438789
100	0x3cec525f	0.028847871
101	0xbdda385e	-0.106552824
102	0xbdea1171	-0.11429108
103	0x3ecfddeb	0.40598997
104	0xbe5fce2a	-0.21855989
105	0x3e52efe9	0.20599331
106	0xbe4575ab	-0.19283168
107	0xbe8b12e5	-0.27162853
108	0x3c525b56	0.012839159
109	0xba0ab261	-0.0005290863
110	0xbc00ab41	-0.00785333
111	0x3dc9dd3f	0.098566525
112	0x3e449bfd	0.1920013
113	0xbe8ba24e	-0.27272266
114	0x3e2dafcb	0.16961591
115	0xbe2c5327	-0.16828595
116	0xbe3372a9	-0.17524208
117	0x3e2ca0b5	0.1685818
118	0xbe004527	-0.1252638
119	0x3e62d24c	0.22150534
120	0x3d15b3a4	0.03654827
121	0x3e05236f	0.13001798
122	0x3e554500	0.20827103
123	0xbdeceeea	-0.11569007
124	0x3e57737b	0.21040146
125	0x3e374b0f	0.17899726
126	0x3d632bab	0.055461567
127	0xbd6cb321	-0.057788018
128	0x3e30c1f8	0.17261493
129	0x3e666356	0.22498831
130	0x3e60e1e9	0.21961178
131	0xbd22c248	-0.039736062
132	0xbea6d923	-0.32587537
133	0x3d8227b9	0.06355233
134	0xbe6dddfb	-0.2322921
135	0x3c60fbaa	0.013731876
136	0xbe7f0ee6	-0.24908027
137	0x3d5280ef	0.051392492
138	0x3eb153ae	0.34634155
139	0x3d1dad11	0.038495127
140	0xbe9d2413	-0.30691585
141	0x3dbe27af	0.09284913
142	0x3c3bee81	0.011470438
143	0x3dd0befe	0.10192679
144	0x3d0f8d3e	0.03504681
145	0xbdaa646a	-0.08319934
146	0xbcbc5214	-0.022988357
147	0x3e1a2ebd	0.15056892
148	0xbdc62847	-0.09675651
149	0xbd8237f5	-0.06358329
150	0x3e25968c	0.1617071
151	0xbdd2c42c	-0.10291323
152	0xbc8b98b0	-0.01704058
153	0xbe1acf31	-0.151181
154	0x3d468c49	0.04847363
155	0xbe1278a7	-0.14303838
156	0x3d1ba4a3	0.037998807
157	0x3cb70894	0.022342958
158	0x3d408c19	0.047008608
159	0xbd1bf0ba	-0.03807137
160	0xbe694bab	-0.22782771
161	0x3e13bae4	0.14426762
162	0x3e5d76cb	0.21627347
163	0xbd542a9a	-0.05179844
164	0x3e82b4b4	0.2552849
165	0xbcc823ac	-0.024431072
166	0x3c9d26ed	0.0191836
167	0x3da98d99	0.08278961
168	0x3e7085b3	0.23488502
169	0x3e117e8e	0.14208433
170	0x3d808c86	0.06276803
171	0x3c5cfd57	0.013488135
172	0x3e360be2	0.1777797
173	0x3e81291e	0.25226682
174	0xbd3f1941	-0.046654943
175	0x3e79cb40	0.2439394
176	0xbb5cdc35	-0.003370059
177	0xbd5afbf4	-0.053462937
178	0x3e70e6ad	0.23525496
179	0xbe3905ad	-0.18068571
180	0xbe40d66f	-0.188318
181	0x3d5d287a	0.05399368
182	0xbea0165a	-0.31267053
183	0xbd8c1cde	-0.068414435
184	0xbacf5fba	-0.0015821375
185	0xbd6978a6	-0.056999825
186	0x3e87d2e1	0.26528075
187	0x3dc11a3c	0.09428832
188	0x3c9d6f7d	0.0192182
189	0xbe4b33fc	-0.19844049
190	0xbc9cffc1	-0.019164922
191	0x3dcdfd58	0.10058087
192	0xbd5e0028	-0.054199368
193	0x3e97d7a2	0.29656702
194	0xbe4365be	-0.1908178
195	0xbcd4089d	-0.025883013
196	0x3e7403f9	0.2382964
197	0x3cb72979	0.022358643
198	0xbdac802f	-0.084228866
199	0xbe8bd6eb	-0.27312407
200	0xbceff85a	-0.029293228
201	0x3dbc94ce	0.0920807
202	0xbde602fd	-0.11231039
203	0x3e0b1f5d	0.13586183
204	0xbe25759d	-0.16158147
205	0x3db0c2d5	0.08630911
206	0xbda4df15	-0.08050362
207	0x3e25eb62	0.16203073
208	0xbd7eb6e1	-0.062186126
209	0x3e825e43	0.2546254
210	0x3db46d27	0.08809882
211	0x3e215fe4	0.15759236
212	0x3c6fe9a2	0.014643105
213	0x3e087352	0.13325241
214	0x3d6f6403	0.058444988
215	0x3e51a09a	0.20471421
216	0x3d2dcf54	0.04243405
217	0xbda69090	-0.08133042
218	0x3eb99688	0.3624766
219	0x3e6ab0f7	0.22919069
220	0x3db01b53	0.08598962
221	0x3d19e2e8	0.03756991
222	0x3ea3b2e3	0.31972417
223	0xbefdcb44	-0.49569142
224	0xbda5b1d4	-0.08090559
225	0xbda549e5	-0.08070735
226	0x3cd08084	0.025451906
227	0xbcf8370b	-0.030299684
228	0x3cd2ea46	0.025746476
229	0xbde90711	-0.11378301
230	0xbd9b1836	-0.07572977
231	0xbe01ad1a	-0.1266369
232	0x3bcdfb7f	0.006286084
233	0x3ca8d40c	0.020608924
234	0x3e988ef3	0.29796562
235	0xbe90426b	-0.28175673
236	0x3dec0bbf	0.11525678
237	0x39d55b75	0.00040694667
238	0xbd96b5a9	-0.07358868
239	0x3e0f3270	0.13984084
240	0xb95d32d0	-0.00021095132
241	0xbe84e342	-0.25954634
242	0x3bfa8e51	0.00764636
243	0x3db64275	0.088993944
244	0xbe097945	-0.13425167
245	0x3ddbae23	0.10726573
246	0x3c964d42	0.018347386
247	0x3e1ca421	0.15296985
248	0xbe9a7972	-0.3017078
249	0x3e5205bc	0.2051
250	0x3d3348e7	0.043770697
251	0xbbe853be	-0.007090061
252	0x3da28724	0.07935932
253	0x3d0bee0a	0.03416256
254	0x3e073f11	0.13207652
255	0x3e4ab2d7	0.19794784

linears.3.bias f4 [40]
0	0xbd589d6e	-0.05288451
1	0x3cc8e9c2	0.024525527
2	0xbc2a6bcd	-0.010401678
3	0x3ca4f59a	0.020136643
4	0xbba3c58d	-0.004997915
5	0x3c8adda3	0.016951388
6	0x3d2ddb5c	0.042445526
7	0x3dc09ac3	0.094045185
8	0x3d0605ad	0.032720257
9	0xbd0d2ca6	-0.03446641
10	0x3ce6125b	0.028084924
11	0xbd5a285e	-0.053261153
12	0xbd06a8d4	-0.03287585
13	0xbaad26f3	-0.001321046
14	0xbd5c27a9	-0.05374876
15	0xbcdd0fa0	-0.02698499
16	0x3c24e2f0	0.010063872
17	0xbcb7055c	-0.022341423
18	0x3d121ffd	0.035675038
19	0x3d08b1b9	0.033372615
20	0x3de35696	0.11100499
21	0x3cfd1cd2	0.030897532
22	0x3d660834	0.056160167
23	0x3cf6f0c6	0.030144107
24	0x3cb22deb	0.021750411
25	0x3ca941e6	0.020661306
26	0xbc8bc07a	-0.017059553
27	0x3cd2ec8b	0.025747558
28	0x3cf25f0d	0.02958634
29	0xbd4643f4	-0.04840465
30	0xbc01cbe0	-0.007922143
31	0x3d122697	0.035681333
32	0xbc9a4d89	-0.0188358
33	0xbd0b42a1	-0.03399909
34	0xbd27983a	-0.04091666
35	0x3d0c7646	0.03429248
36	0x3c9b9407	0.018991483
37	0xbbfcae4d	-0.007711208
38	0x3c78cf6d	0.015186173
39	0x3d3cc8f0	0.046090066

linears.4.weight f4 [40, 40]
0	0x3ce227be	0.027606841
1	0x3dcaea36	0.099079534
2	0x3de65a0a	0.11247642
3	0xbe1847ec	-0.14871186
4	0x3ae7b8ea	0.001767901
5	0x3dc619a8	0.09672862
6	0x3aa8cd80	0.0012878627
7	0x3e11a954	0.1422475
8	0xbe2d364f	-0.16915248
9	0xbe8bc21e	-0.27296537
10	0x3e9f31ba	0.31092626
11	0x3dcb3508	0.09922224
12	0x3e155fba	0.14587298
13	0xbccd73f3	-0.025079703
14	0x3e05ba5a	0.13059369
15	0x3dabfefd	0.083982445
16	0xbee274cd	-0.44229737
17	0xbcc831d9	-0.024437832
18	0xbd8c92ee	-0.06863962
19	0x3caa3afc	0.020780079
20	0xbd461084	-0.048355594
21	0xbca4f8bd	-0.020138139
22	0xbc0f9adb	-0.008764948
23	0x3d0f5768	0.034995466
24	0xbcd052f5	-0.025430182
25	0xbe7505c9	-0.23927988
26	0x3dba9d0e	0.09111987
27	0xbe1df899	-0.15426864
28	0xbb3e37b1	-0.0029024894
29	0x3e606557	0.21913658
30	0x3ca08953	0.019596731
31	0xbecb6f7c	-0.39733493
32	0xbdae1674	-0.08500376
33	0xbdc0347f	-0.09385013
34	0x3e8d633e	0.27614778
35	0x3ea60a00	0.32429504
36	0x3c8c998d	0.017163062
37	0xbc06dd75	-0.00823151
38	0xbb6b1f48	-0.00358768
39	0x3ded5a0b	0.1158944
40	0xbd8231ff	-0.06357192
41	0xbe913545	-0.28360954
42	0xbdfc77fa	-0.12327571
43	0x3ec46e58	0.38365436
44	0xbe5ebb51	-0.21751143
45	0xbdda6231	-0.1066326
46	0xbe8279d3	-0.2548357
47	0x3b9a41e6	0.0047075627
48	0xbcf9f1d3	-0.030510819
49	0xbe59887e	-0.21243474
50	0x3e1ba838	0.15200889
51	0x3e33d8f4	0.1756323
52	0x3c84c66d	0.016207898
53	0xbd654dc9	-0.055982385
54	0xbda791fa	-0.0818214
55	0x3d6eb223	0.058275353
56	0xbd76f3e5	-0.06029119
57	0xbd26c1b2	-0.040712066
58	0xbe51a7d0	-0.20474172
59	0x3db7f81f	0.08982872
60	0xbe9a7910	-0.30170488
61	0x3bdbbd58	0.006705921
62	0x3cb175bb	0.021662584
63	0xbe2e4cae	-0.17021438
64	0xbb4ff2be	-0.003173038
65	0xbcc646d9	-0.024203705
66	0xbcfdf21d	-0.030999238
67	0x3e289cc2	0.16466048
68	0xbe5ba8bb	-0.21451084
69	0x3d7d8142	0.061890848
70	0xbe208328	-0.15675032
71	0xbea3ba5d	-0.3197812
72	0xbd6df9d9	-0.0580996
73	0x3e0b166c	0.13582772
74	0x3d8972bc	0.06711337
75	0x3e807749	0.25091007
76	0xbe4c104d	-0.19928093
77	0xbd9eab45	-0.07747511
78	0x3d63b23c	0.0555899
79	0xbe0a0735	-0.13479312
80	0x3dc30365	0.09522132
81	0xbe1cbb56	-0.15305838
82	0xbdc7817d	-0.09741495
83	0x3e42630a	0.18983093
84	0xbbc9c906	-0.006157997
85	0xbe239471	-0.15974595
86	0xbd814bcc	-0.06313285
87	0x3e9f35e5	0.31095806
88	0x3ed676be	0.41887468
89	0x3e0ffaf4	0.14060575
90	0xbdb2491f	-0.08705353
91	0x3e278518	0.16359365
92	0xbd256bfe	-0.040386193
93	0x3dc41c96	0.09575765
94	0xbd151057	-0.036392536
95	0xbccee553	-0.025255835
96	0xbe140073	-0.14453296
97	0x3db425ad	0.087962486
98	0xbd5c0b81	-0.05372191
99	0xbeaf9bb7	-0.34298488
100	0x3cff9769	0.031200128
101	0xbdf3ca4a	-0.11903818
102	0xbe2dc689	-0.16970266
103	0xbbdf22cf	-0.0068095694
104	0x3e039b91	0.12852313
105	0xbe34bcc5	-0.17650135
106	0x3e64b73b	0.22335522
107	0x3d467cd7	0.0484589
108	0x3de2bd1f	0.11071228
109	0x3e9726d0	0.295218
110	0x3c91e567	0.017809583
111	0xbe2cf106	-0.16888818
112	0xbed5a35d	-0.417262
113	0x3e706fd6	0.23480162
114	0x3ec15866	0.37762755
115	0xbe1b10b8	-0.15143096
116	0xbdd1edc9	-0.10250432
117	0xbe57d075	-0.21075614
118	0xbe7c5db5	-0.24645121
119	0x3dbc4177	0.09192174
120	0xbe9dc965	-0.30817714
121	0xbc12ac5c	-0.0089522265
122	0xbe33de4b	-0.17565267
123	0xbe26295b	-0.16226713
124	0x3c379e3e	0.0112071615
125	0x3d751f7f	0.05984449
126	0x3d2b2433	0.04178257
127	0x3dd16b1b	0.10225507
128	0x3e0185bf	0.12648676
129	0x3e571cae	0.21007034
130	0x3e429cb3	0.19005089
131	0x3b61484b	0.0034375365
132	0xbe10dc0a	-0.14146438
133	0x3d6c700d	0.057724047
134	0x3e4fa53b	0.20277874
135	0x3dcfe989	0.10151965
136	0xbd067efa	-0.032835938
137	0xbe57eca8	-0.21086371
138	0x3e863365	0.26211086
139	0xbc2d67a9	-0.010583797
140	0x3e81a28e	0.25319332
141	0xbd8d0a9d	-0.0688679
142	0xbc2a5b5f	-0.010397761
143	0xbeff377b	-0.49847016
144	0xbde6d832	-0.11271705
145	0xbdc595e6	-0.096477315
146	0x3d8f33e9	0.06992323
147	0xbd964cf3	-0.07338896
148	0x3dfaa66a	0.12238772
149	0xbda4e794	-0.080519825
150	0x3cc4f838	0.024044141
151	0xbdaf3eca	-0.08556898
152	0xbe0f6d37	-0.14006506
153	0xbd1f4478	-0.038883656
154	0x3e88522f	0.266252
155	0x3e52e8db	0.2059664
156	0x3d82a18a	0.063784674
157	0x3e8216ce	0.25408024
158	0x3cdd1a28	0.026990011
159	0x3e33c780	0.17556572
160	0xbdb02287	-0.086003356
161	0x3eb7e720	0.35918522
162	0x3e5076e9	0.2035786
163	0xbe68c81a	-0.22732583
164	0xbc05f4b4	-0.008176018
165	0xbdb07c11	-0.08617414
166	0x3c4f0a42	0.012636723
167	0xbe7a6e99	-0.24456252
168	0xbdd9934a	-0.10623796
169	0xbd1c2048	-0.038116723
170	0x3e3d80d9	0.18506183
171	0xbd28203d	-0.04104637
172	0x3da01066	0.07815628
173	0x3ee26f9d	0.4422578
174	0xbd3bae7e	-0.045820706
175	0xbe1b4849	-0.15164293
176	0xbe61cb5c	-0.22050232
177	0x3e8cc54c	0.27494276
178	0xbee33b7c	-0.4438132
179	0xbc90c83e	-0.017673608
180	0xbdab621f	-0.083683245
181	0xbebca7a7	-0.3684666
182	0xbd9f8825	-0.077896394
183	0xbcb16479	-0.021654354
184	0x3d73b16b	0.05949537
185	0x3ec42a2d	0.38313428
186	0xbd02020b	-0.03174023
187	0x3dcf1b4b	0.101126276
188	0x3e22f187	0.15912448
189	0xbdfbba89	-0.12291438
190	0x3e923456	0.28555554
191	0xbe00639c	-0.12537998
192	0x3f2c1bdf	0.6723003
193	0x3de2b764	0.11070135
194	0x3dc36a98	0.095418155
195	0x3e6f83b6	0.23390087
196	0xbe1c6200	-0.15271759
197	0xbdb51f3d	-0.08843849
198	0xbd7df615	-0.06200226
199	0xbd42411a	-0.047425367
200	0x3eb87e44	0.36033833
201	0xbe14ab65	-0.14518507
202	0x3e82d42e	0.25552505
203	0xbe44b7b8	-0.19210708
204	0xbc6c0ad4	-0.0144068785
205	0xbe7d548a	-0.2473928
206	0x3cae2e1d	0.021262223
207	0xbd5a03e6	-0.053226374
208	0xbe3a53c3	-0.18196015
209	0xbe9713fd	-0.29507437
210	0xbe38e776	-0.18057045
211	0x3da621cf	0.08111917
212	0xbdd70bc1	-0.10500289
213	0xbd2c366d	-0.042044092
214	0xbd32de35	-0.043668944
215	0x3d7bcf26	0.06147685
216	0xbe08fee9	-0.1337849
217	0xbebd7474	-0.3700291
218	0x3dcffe0b	0.10155877
219	0x3e0aa38b	0.13538949
220	0x3d9436ec	0.07237038
221	0xbbcdd373	-0.00628131
222	0x397a66c7	0.00023880145
223	0x3e8545be	0.26029772
224	0xbe1edd6a	-0.1551415
225	0x3e3572ac	0.17719525
226	0x3e6904df	0.22755764
227	0x3cde6f24	0.027152605
228	0xbe4b6595	-0.19862969
229	0xbd80e637	-0.0629391
230	0x3c73e7aa	0.014886776
231	0xbeacfa07	-0.33784506
232	0x3eb28029	0.34863403
233	0xbd1e9dc0	-0.03872466
234	0x3d2ba75b	0.04190765
235	0xbe1102b7	-0.14161192
236	0xbd36c69f	-0.044623014
237	0xbe3c6278	-0.18396938
238	0xbca8b894	-0.020595826
239	0x3e1bd851	0.15219237
240	0xbd07baf0	-0.033137262
241	0xbc943e17	-0.018096013
242	0xbe8b8d81	-0.27256396
243	0xbe141642	-0.14461616
244	0xbdfc6432	-0.12323798
245	0xbe10afcb	-0.1412956
246	0xbe18d5f7	-0.14925371
247	0xbe9f5380	-0.31118393
248	0x3d759cc9	0.059963975
249	0x3d56c1df	0.052430984
250	0x3afbf065	0.0019221423
251	0xbdc908a3	-0.098161004
252	0x3dd65c04	0.10466769
253	0xbdc5da89	-0.09660823
254	0x3dcc9196	0.09988706
255	0x3dfdf67b	0.12400528

linears.4.bias f4 [40]
0	0xbcda45a9	-0.026644545
1	0x3cab89fb	0.020939818
2	0xbcf1677a	-0.029468287
3	0xbcf0de8d	-0.029402995
4	0x3cd036e8	0.025416806
5	0xbcd082ba	-0.02545296
6	0xbd22c590	-0.03973919
7	0x3cac5b26	0.021039557
8	0x3c5d8039	0.01351934
9	0xbccdffa3	-0.025146311
10	0xbd0d26e5	-0.03446092
11	0x3d16eed8	0.036848873
12	0x3c96a253	0.01838795
13	0x3c82a7ee	0.015949216
14	0x3c2bc2be	0.010483442
15	0x3c500c38	0.012698226
16	0xbd08d23f	-0.03340363
17	0x3b83ae4b	0.00401858
18	0x3cbe7bd2	0.023252402
19	0xbcf7b563	-0.03023786
20	0xbca5fe18	-0.020262763
21	0x3d70be63	0.058775317
22	0x3cd71e6b	0.026259622
23	0xbcb329ee	-0.02187058
24	0x3cd25308	0.025674358
25	0x3c8e12dc	0.017342977
26	0xbd2a4f93	-0.041579794
27	0x3c6034d1	0.013684467
28	0xbd20bb51	-0.03924114
29	0x3c98c96e	0.018650737
30	0x3c99fce0	0.018797338
31	0x3d1e42bd	0.038637865
32	0x3cb0c4e9	0.02157827
33	0x3b02cd61	0.001995884
34	0x3bf1cd80	0.007379234
35	0x3cf3ee32	0.029776666
36	0xbc8247db	-0.015903404
37	0xbd21d22e	-0.039507084
38	0xbd8b083e	-0.067886814
39	0x3ca7d250	0.020486027

linears.5.weight f4 [40, 40]
0	0x3e1ec049	0.15503038
1	0x3d5f5a4a	0.054529466
2	0xbc2e333b	-0.0106323315
3	0xbbf979bd	-0.0076133893
4	0xbd96216f	-0.07330596
5	0x3e8b0e8a	0.2715953
6	0x3bb021b6	0.0053751124
7	0xbce983a0	-0.028505147
8	0x3e1a3453	0.15059023
9	0xbd8687f2	-0.06568898
10	0x3dd889e3	0.10573175
11	0x3e583004	0.21112067
12	0xbd37181f	-0.044700738
13	0x3bc73906	0.006079796
14	0x3bd21579	0.006411251
15	0x3db127f1	0.08650196
16	0x3e83c3bd	0.25735274
17	0xbe459581	-0.19295312
18	0x3d3f26a0	0.046667695
19	0xbed767c2	-0.42071348
20	0xbe0bc6b1	-0.13650014
21	0xbe3c7de5	-0.184074
22	0xbe963419	-0.29336622
23	0xbddfdee9	-0.109311886
24	0x3dbbd3dd	0.09171269
25	0x3c4be644	0.012445036
26	0xbe73895d	-0.23782869
27	0x3d648673	0.055792283
28	0xbca11d12	-0.019667182
29	0x3e12229e	0.14271018
30	0x3e0fad64	0.14030987
31	0x3e03fa20	0.12888384
32	0x3cb77e9e	0.022399243
33	0xbe21ccec	-0.15800828
34	0xbdae8b0f	-0.08522617
35	0x3dff4e74	0.124661356
36	0x3e40a030	0.18811107
37	0xbe5c633c	-0.2152223
38	0xbe907638	-0.28215194
39	0x3e8ba7e6	0.27276534
40	0xbdbf515c	-0.0934169
41	0x3d0aaa43	0.03385378
42	0xbddfeac3	-0.10933449
43	0xbdd7f035	-0.10543863
44	0x3b9fa6ed	0.004872194
45	0xbd25b10e	-0.040452056
46	0xbd97c160	-0.0740993
47	0xbeed936a	-0.4640153
48	0x3dcc2822	0.09968592
49	0x3e2d33ba	0.16914263
50	0xbdca06ee	-0.09864603
51	0x3da16d55	0.078821816
52	0x3e28c287	0.16480456
53	0xbd8ab097	-0.06771963
54	0x3df04f6c	0.117338985
55	0xbd22ed9e	-0.03977739
56	0xbcd6e997	-0.026234431
57	0x3e4aa1a5	0.19788225
58	0x3d671c05	0.056423206
59	0xbc2bd8a3	-0.010488662
60	0x3d2da31b	0.042391878
61	0xbdc7c826	-0.09754972
62	0xbe3f7055	-0.18695195
63	0xbdae4b72	-0.08510484
64	0x3dc04e47	0.0938993
65	0xbe048409	-0.12940992
66	0xbc98244b	-0.018571993
67	0x38436d9f	4.6593716e-05
68	0xbeaacb2f	-0.33358142
69	0xbd7d8c81	-0.061901573
70	0x3cc32040	0.023819089
71	0x3e0304de	0.12794825
72	0x3d1701c7	0.03686693
73	0xbd23d2c5	-0.039995927
74	0xbdb35a76	-0.087574884
75	0xbd595f6c	-0.053069517
76	0xbd15863f	-0.03650498
77	0x3e1be34b	0.15223424
78	0xbe4a0cd8	-0.19731462
79	0x3d20e916	0.039284788
80	0xbe5d7984	-0.21628386
81	0x3d80d75e	0.06291078
82	0xbdab0d73	-0.083521746
83	0x3d61543a	0.055011965
84	0x3d694cca	0.056957997
85	0xbe2ed3e0	-0.17073011
86	0xbdad3339	-0.084570356
87	0x3e71daa6	0.23618564
88	0xbea858a9	-0.32880142
89	0x3d44c62b	0.04804055
90	0xbea93bc9	-0.33053425
91	0x3dd10b8a	0.10207279
92	0xbe008316	-0.12550005
93	0x3c8eb2b7	0.017419202
94	0x3c46e0fc	0.012138601
95	0x3d26910a	0.040665664
96	0x3db87636	0.09006922
97	0x3e77db35	0.24204715
98	0x3e5891ae	0.21149322
99	0x3df1899f	0.11793827
100	0xbdb6fdd9	-0.08935136
101	0x3dcab37d	0.09897516
102	0xbe94a450	-0.2903161
103	0x3ed97a0e	0.42475933
104	0xbd6fa734	-0.058509067
105	0xbc4611e2	-0.0120892245
106	0xbd8963e9	-0.067085095
107	0xbea779a8	-0.32710004
108	0xbe620634	-0.22072679
109	0xbe21e545	-0.15810116
110	0xbde0d2da	-0.10977717
111	0xbda08c02	-0.07839204
112	0x3bab19b8	0.005221572
113	0x3ea12852	0.31476074
114	0xbdbe052a	-0.09278329
115	0xbcd7b6c3	-0.026332265
116	0xbe9597c7	-0.2921736
117	0x3e7662ba	0.24061099
118	0x3d46a611	0.048498217
119	0xbd400b80	-0.046885967
120	0xbe5f95a8	-0.21834433
121	0x3ec44ec8	0.38341355
122	0x3e1d000b	0.15332048
123	0xbe963395	-0.2933623
124	0x3deb4838	0.11488384
125	0x3de04bf3	0.10951986
126	0x3de3c729	0.11121971
127	0x3e52831e	0.2055783
128	0x3dbf0e08	0.09328848
129	0x3d9bfa3b	0.07616087
130	0xbd7015d4	-0.058614567
131	0xbd46776b	-0.04845373
132	0x3e1ca57d	0.15297504
133	0x3d2bcd78	0.041943997
134	0xbd5fada6	-0.054608963
135	0xbcb14b2e	-0.021642294
136	0xbd9fe54a	-0.07807405
137	0xbc9f399f	-0.019436656
138	0x3e308a0f	0.17240165
139	0xbd4bccb6	-0.049755774
140	0xbe93f04f	-0.28894278
141	0x3e19b86f	0.15011762
142	0x3d9955f5	0.07487098
143	0xbda7fb0e	-0.08202182
144	0x3e83dc29	0.25753906
145	0x3e31f08f	0.17376922
146	0xbd1e9488	-0.03871587
147	0xbdd339e3	-0.103137754
148	0x3ea14ef9	0.31505564
149	0xbdbe3605	-0.09287647
150	0xbd9b89d1	-0.07594646
151	0x3d9ddeef	0.07708537
152	0x3d124d8d	0.03571849
153	0x3e79e4a3	0.24403624
154	0xbdd0f595	-0.10203091
155	0xbd6a3e6a	-0.05718843
156	0xbea545f0	-0.3227992
157	0x3de93fd2	0.11389126
158	0xbded386c	-0.11583027
159	0xbd60fe54	-0.054930046
160	0xbd4b52fd	-0.04963969
161	0xbe9217f5	-0.28533903
162	0xbd472f25	-0.048628945
163	0x3d6294a0	0.05531752
164	0xbde79031	-0.11306799
165	0x3cb7ca43	0.022435313
166	0xbe38e10f	-0.18054603
167	0xbe627ed4	-0.22118694
168	0xbe7b12d3	-0.245189
169	0x3e6f8aab	0.23392741
170	0x3e341cd2	0.17589119
171	0xbd9f67b0	-0.07783449
172	0x3dceccde	0.10097669
173	0xbdf71680	-0.120648384
174	0xbd169443	-0.036762487
175	0x3e478a67	0.1948639
176	0x3e7bc37c	0.2458629
177	0xbc1bec8f	-0.009516849
178	0x3d4671fe	0.048448555
179	0xbcd51190	-0.026009351
180	0xbd88f90b	-0.06688126
181	0x3eb17d14	0.3466574
182	0xbe178fa8	-0.14800894
183	0x3e152c6c	0.14567727
184	0x3e230e05	0.15923317
185	0x3e029522	0.12752202
186	0x3e5ab53d	0.213582
187	0xbc7dd72f	-0.015493198
188	0x3d4cef6a	0.05003301
189	0x3e5f3c50	0.21800351
190	0xbe295975	-0.16538031
191	0xbe9ec815	-0.31012025
192	0x3e22a06e	0.15881512
193	0x3e9ded91	0.3084531
194	0x3bd4b20a	0.0064909505
195	0x3da7b021	0.08187891
196	0x3e2ad445	0.16682537
197	0x3e4719b8	0.19443405
198	0x3d65513b	0.05598567
199	0x3e0274aa	0.12739816
200	0x3d1b9a0e	0.037988715
201	0x3dfb27b0	0.12263429
202	0x3cb36e31	0.02190313
203	0xbdaf08bb	-0.08546587
204	0x3deaa1b3	0.11456623
205	0xbc8013ed	-0.015634501
206	0xbd64d6ff	-0.0558691
207	0xbcdeceec	-0.027198277
208	0xbc2efd84	-0.01068056
209	0x3da6f269	0.08151705
210	0xbe207454	-0.15669376
211	0x3e187630	0.14888835
212	0xbd816972	-0.0631894
213	0xbdbe89a1	-0.093035944
214	0xbef981d7	-0.48731872
215	0xbe176984	-0.14786345
216	0x3e16567d	0.1468143
217	0x3e41e58f	0.18935226
218	0x3db13e19	0.08654422
219	0xbd4c4444	-0.04986979
220	0x3ddab5e5	0.10679225
221	0x3cc76faf	0.024345247
222	0x3de65e77	0.112484865
223	0xbcc8e048	-0.024521008
224	0x3c51d2f7	0.012806646
225	0x3de2c904	0.11073497
226	0x3de57688	0.11204249
227	0x3df98a7e	0.121846184
228	0x3d119747	0.03554466
229	0x3ebc669b	0.36797032
230	0xbd457c7d	-0.048214424
231	0xbe39e307	-0.1815301
232	0xbc95958b	-0.018259784
233	0xbd406544	-0.046971574
234	0x3d65b479	0.056080315
235	0xbd14dbe7	-0.036342528
236	0xbdf8162a	-0.121136025
237	0xbea39450	-0.3194909
238	0xbdd5125c	-0.104038924
239	0x3dfa75fb	0.12229534
240	0xbea2c3eb	-0.317901
241	0xbd5cc851	-0.053901974
242	0x3eade7c6	0.33965892
243	0xbdc9019c	-0.0981476
244	0x3dc4f7b7	0.0961756
245	0x3e4649d9	0.19364108
246	0x3e3669db	0.17813818
247	0x3e78887a	0.24270812
248	0x3cdf9c8f	0.027296333
249	0xbd88dac7	-0.066823535
250	0x3d872d8c	0.06600484
251	0x3e023024	0.12713677
252	0x3d13a0ab	0.036041897
253	0x3d824626	0.06361036
254	0xbea2433e	-0.31691927
255	0x3e39a9ea	0.18131223

linears.5.bias f4 [40]
0	0x3c8faf77	0.017539723
1	0x3d1b2727	0.037879135
2	0x3cb4278d	0.021991516
3	0x3d188f12	0.037245817
4	0xbd01ca5c	-0.031687126
5	0x3cd4aa25	0.025960037
6	0xbcb233ba	-0.02175318
7	0x3ce5fa14	0.028073348
8	0xbd31eb66	-0.043437384
9	0x3cdfb8a1	0.027309718
10	0x3ce399ad	0.02778324
11	0xbd12ddb8	-0.03585598
12	0xbcbb24ae	-0.022844639
13	0xbd3179b3	-0.043328952
14	0xbc48cabd	-0.012255368
15	0xbd31aea2	-0.043379433
16	0xbd0e78bd	-0.034783114
17	0x3ca0043c	0.01953327
18	0xbc6fc420	-0.014634162
19	0xbc0cd157	-0.008594832
20	0xbc927e19	-0.017882394
21	0x3cddfd63	0.027098363
22	0x3c3d31f4	0.011547554
23	0x3c0de692	0.008660929
24	0xbd21155c	-0.03932701
25	0xbcca539e	-0.024698075
26	0x3cde0715	0.027102986
27	0xbcf6f84a	-0.03014769
28	0xbcf94a90	-0.030431062
29	0xbc99b177	-0.01876138
30	0xbc5fcc40	-0.013659537
31	0xbc432016	-0.011909505
32	0xbca048e9	-0.019566016
33	0x3d00931c	0.031390294
34	0x3c92fc49	0.017942565
35	0x3c68a4d1	0.014199452
36	0xbca2c04b	-0.019867083
37	0x3c26c536	0.010178855
38	0xbcf47def	-0.029845206
39	0x3d009f6e	0.031402044

linears.6.weight f4 [1, 40]
0	0xbe250019	-0.16113319
1	0xbe5e3d59	-0.2170309
2	0xbe19edd9	-0.15032138
3	0xbe9bd69b	-0.30437168
4	0x3e185648	0.14876664
5	0xbee065a2	-0.4382754
6	0x3c8cea96	0.017201703
7	0xbe6676fe	-0.2250633
8	0x3e2c6c4c	0.16838187
9	0xbe4fd909	-0.20297636
10	0xbef05e30	-0.4694686
11	0x3e281c7a	0.16417113
12	0x3dc8f43d	0.0981221
13	0x3e977550	0.2958169
14	0x3c0284e5	0.007966255
15	0x3e909060	0.2823515
16	0x3e1c89b5	0.15286906
17	0xbf2e5eb0	-0.6811323
18	0x3d56b7ce	0.052421384
19	0x3df55586	0.11979203
20	0x3d3a3ec2	0.045470007
21	0xbe2933f6	-0.16523728
22	0x3ae9336a	0.0017791812
23	0xbe684b53	-0.22684984
24	0x3ea846b5	0.32866445
25	0x3e06b640	0.1315546
26	0xbe4c0c12	-0.1992648
27	0x3e898fd4	0.26867545
28	0x3e1b882c	0.15188664
29	0x3df61e26	0.12017469
30	0x3e901357	0.28139755
31	0x3dd30653	0.103039406
32	0x3d76a440	0.060215235
33	0xbe0021c0	-0.12512875
34	0xbe8f54c7	-0.27994367
35	0xbd046012	-0.032318182
36	0x3d9455fe	0.07242964
37	0xbd126831	-0.035743896
38	0x3e54109a	0.20709458
39	0xbd8e13e8	-0.069373906

exp_avg f4 [40, 2]
0	0x3856b146	5.1186675e-05
1	0x394adb5d	0.0001934594
2	0x38471cab	4.7471996e-05
3	0xb9ae3e47	-0.00033234266
4	0x3ac6c632	0.0015165268
5	0x39914faa	0.0002771591
6	0xba02bdf2	-0.00049874105
7	0x39a3f3da	0.00031271466
8	0xbb15c2b2	-0.0022851643
9	0xba9ecf8d	-0.0012116298
10	0xb9c737e6	-0.00037997885
11	0xb9acfaf6	-0.00032993377
12	0x3ac96bb4	0.0015367181
13	0x39c22128	0.00037027267
14	0xba1e479b	-0.0006037892
15	0x3a34991c	0.000688927
16	0xbaa174d2	-0.001231814
17	0xb9a090f6	-0.00030625582
18	0x3ad8869f	0.0016519612
19	0x3a08a32b	0.0005212302
20	0x3a3e35a4	0.0007255918
21	0x3a0164cc	0.00049359794
22	0xb8892447	-6.539426e-05
23	0x3a08b77b	0.0005215329
24	0x3b873100	0.0041257143
25	0x3b05d609	0.0020421764
26	0x3ad13dd3	0.001596386
27	0x3a4e7c93	0.00078768394
28	0xb9ee2ce1	-0.00045428335
29	0x3903de2c	0.00012575899
30	0xbb10d143	-0.0022097386
31	0xba759523	-0.00093682314
32	0xbab27436	-0.0013614956
33	0xb92c214d	-0.00016415604
34	0x3b3149c7	0.0027052031
35	0x3a3e0c23	0.00072497333
36	0xb99d3ae1	-0.00029989242
37	0xb942a8c5	-0.00018564153
38	0x3ad94c0f	0.0016578453
39	0x39fcd088	0.00048220553
40	0xb93b56eb	-0.00017866089
41	0xb9b16253	-0.00033833328
42	0xbab06280	-0.001345709
43	0xb8ea526b	-0.00011173341
44	0x3b85ebaf	0.0040869336
45	0x3ac6674b	0.0015136985
46	0xb94a8403	-0.000193134
47	0x39d9561a	0.00041453616
48	0x3a2b73fb	0.0006540415
49	0xb988b9e8	-0.00026078452
50	0xb71e4b81	-9.4351135e-06
51	0x3935d6b8	0.00017341494
52	0x3a8facb5	0.0010961505
53	0x39fd2a5f	0.0004828749
54	0xba7bf01d	-0.000961067
55	0xb9a600b8	-0.00031662523
56	0xb96bc267	-0.00022483767
57	0xba205741	-0.00061165175
58	0x3b30a552	0.0026954007
59	0x3a825d9a	0.0009946108
60	0x3b01dded	0.0019816116
61	0x3a2c2b09	0.0006567692
62	0xbaee2d7f	-0.0018171518
63	0xba3e12c2	-0.000725072
64	0x3b301bbd	0.0026872002
65	0x3a78651b	0.0009475515
66	0x3a2d3bab	0.00066083175
67	0x3794be87	1.7731696e-05
68	0x39e7638c	0.00044133922
69	0x3907a094	0.00012934423
70	0x397d037e	0.00024129261
71	0xba24fb0e	-0.00062935136
72	0x3a77b1c1	0.00094487896
73	0xb9a17a95	-0.00030799644
74	0x3adee920	0.0017006733
75	0x39a64c6b	0.00031718923
76	0x3afc29b4	0.0019238503
77	0x3a24311b	0.0006263421
78	0xbafc5712	-0.0019252023
79	0xb956aa09	-0.00020471973

exp_avg_sq f4 [40, 2]
0	0x35da351a	1.625772e-06
1	0x37473a03	1.1874831e-05
2	0x359b320e	1.1562968e-06
3	0x3838b28c	4.4035303e-05
4	0x3a21c9bc	0.00061717234
5	0x37a7add1	1.9988891e-05
6	0x3878368d	5.9178612e-05
7	0x38051e07	3.1737636e-05
8	0x3ac399f3	0.00149232
9	0x39efe875	0.00045758826
10	0x38355fc5	4.3242955e-05
11	0x3800e25d	3.0728395e-05
12	0x3a3844c1	0.0007029288
13	0x384a67df	4.825729e-05
14	0x38badf30	8.910743e-05
15	0x39168919	0.00014356188
16	0x39eebace	0.00045534078
17	0x38108bfe	3.4462653e-05
18	0x3a44c204	0.0007505717
19	0x38b77b3e	8.749076e-05
20	0x3924d92b	0.0001572116
21	0x38ac43d2	8.214232e-05
22	0x35d914f6	1.617386e-06
23	0x389b8df3	7.417416e-05
24	0x3ba26ef1	0.004957073
25	0x3aae92f7	0.0013318945
26	0x3a25aa52	0.000631963
27	0x3932b033	0.00017041042
28	0x386cc4ad	5.6449953e-05
29	0x3658fd65	3.2334003e-06
30	0x3ab5b784	0.0013863896
31	0x399156bd	0.0002772118
32	0x3a0f453e	0.0005465335
33	0x37897f95	1.6391083e-05
34	0x3b04ba09	0.0020252487
35	0x392cc6f0	0.00016477308
36	0x37fcbe6e	3.0129417e-05
37	0x37550717	1.269744e-05
38	0x3a536e08	0.0008065407
39	0x38b45dc4	8.600534e-05
40	0x371c6507	9.321847e-06
41	0x3811c305	3.475232e-05
42	0x3a01c285	0.0004949945
43	0x36991ec0	4.563335e-06
44	0x3b945e4a	0.0045278417
45	0x3a2fb10b	0.00067021017
46	0x36d63c7f	6.3847397e-06
47	0x3890e83b	6.9097114e-05
48	0x38ef2c11	0.00011404616
49	0x37d70c25	2.5635652e-05
50	0x35b82c4b	1.3721959e-06
51	0x3698a41a	4.549057e-06
52	0x39c0f400	0.00036802888
53	0x38b61d91	8.6839435e-05
54	0x399627bc	0.00028639834
55	0x3810d351	3.452908e-05
56	0x37eaddac	2.7998198e-05
57	0x3903ee48	0.000125819
58	0x3b036d87	0.0020054297
59	0x3997cfb7	0.00028955724
60	0x3a937ec9	0.0011252995
61	0x39137bc5	0.0001406512
62	0x3a6ce7a8	0.0009037205
63	0x3920a4bf	0.00015320162
64	0x3b0454cf	0.0020192151
65	0x39914931	0.00027711087
66	0x38fc8f34	0.0001204297
67	0x3507775b	5.0465104e-07
68	0x386406a8	5.4365635e-05
69	0x36af35b5	5.2216587e-06
70	0x37218603	9.62755e-06
71	0x391be3a0	0.00014866749
72	0x3975eeb9	0.00023453952
73	0x38044433	3.1534768e-05
74	0x3a58718a	0.0008256665
75	0x381c63d7	3.728628e-05
76	0x3a89935b	0.0010496186
77	0x38f77550	0.00011799729
78	0x3a83c0cc	0.0010051965
79	0x3719a6a2	9.158308e-06

exp_avg f4 [40]
0	0x3a15b52f	0.00057108974
1	0xba38187e	-0.00070226926
2	0x3a2c215d	0.0006566251
3	0x3a67dd4a	0.00088449253
4	0xbb36708f	-0.0027838086
5	0xba49c182	-0.00076963764
6	0x3a670332	0.0008812427
7	0x3ad79a26	0.0016449138
8	0xba5a3f73	-0.0008325495
9	0x3abcd278	0.0014405986
10	0x3aaf1a7e	0.0013359336
11	0x3aafd538	0.0013414985
12	0x3ba3dad2	0.0050004506
13	0x3b038a47	0.0020071433
14	0x399e7c82	0.00030228874
15	0xbb1b9109	-0.002373757
16	0xb9d7fe61	-0.00041197523
17	0x3ae75e04	0.001765192
18	0xba0ae840	-0.000529889
19	0x3aa8be81	0.0012874157
20	0xba80d863	-0.0009830113
21	0xb9bb2664	-0.00035696023
22	0x3b707c6c	0.0036695255
23	0x3a7fb6c9	0.0009754715
24	0xba5eaa65	-0.00084940187
25	0x3a31d203	0.00067833083
26	0x3a975d99	0.001154828
27	0xba37fa26	-0.0007018171
28	0xbab843b2	-0.0014058261
29	0x3b173f3f	0.002307847
30	0x3ace1bdd	0.0015724857
31	0xbaf3c604	-0.0018598442
32	0x3b1f503d	0.00243093
33	0xb76b7be0	-1.4035933e-05
34	0x39f9b681	0.00047628957
35	0xbac06952	-0.0014679825
36	0xba483ff4	-0.0007638924
37	0x3a663288	0.00087813335
38	0x3aaed09f	0.001333732
39	0xb9f304dd	-0.00046352195

exp_avg_sq f4 [40]
0	0x38bfad73	9.139897e-05
1	0x3926f5c9	0.00015922556
2	0x38efae8c	0.0001142892
3	0x39652d82	0.00021856095
4	0x3b1248ff	0.002232134
5	0x393403ec	0.00017167599
6	0x39800294	0.00024415983
7	0x3a529a07	0.0008033816
8	0x397147d0	0.00023010303
9	0x3a18f573	0.00058349146
10	0x3a0bbf9e	0.00053309824
11	0x3a00c21f	0.0004911739
12	0x3bf0a351	0.0073436876
13	0x3a8ada7c	0.0010593678
14	0x37cef861	2.4672774e-05
15	0x3ad225b6	0.0016032967
16	0x388462b0	6.3126325e-05
17	0x3a653868	0.0008744062
18	0x38b01d03	8.397738e-05
19	0x3a05e9cc	0.0005108386
20	0x3991dec5	0.0002782253
21	0x380d0c76	3.3628625e-05
22	0x3b6fa4d3	0.0036566749
23	0x399a5212	0.00029434316
24	0x3961d928	0.00021538569
25	0x38dc01c6	0.00010490748
26	0x39db1435	0.0004178599
27	0x392d6a71	0.00016538218
28	0x3a1ea37a	0.00060515816
29	0x3ac2347d	0.0014816668
30	0x3a416309	0.0007377123
31	0x3a7a2bbf	0.0009543262
32	0x3adede61	0.001700353
33	0x36925da6	4.362041e-06
34	0x3886506f	6.4046e-05
35	0x3a239cc5	0.0006241317
36	0x392ded58	0.00016586983
37	0x396e7df6	0.00022744373
38	0x3a09153f	0.0005229301
39	0x3883d28c	6.285784e-05
