pdebench/models/newly_trained_models/Advection/PINN/1D_Advection_Sols_beta0.1_PINN.pt-10000.pt (torch, 119037 bytes, 39 tensors)

linears.0.weight f4 [40, 2]
000000 b7 00 00 3d 6e 4e 51 be 27 d0 42 be 05 7c 29 3e
       0.03125068 -0.20440075 -0.19024716 0.16551216
000010 ef b9 85 be 97 41 3a 3d 2c 0f 7b 3e d3 55 ef bd
       -0.2611842 0.045472708 0.24517506 -0.116862915
000020 34 f4 27 3d cb ab 25 bd 6b 24 a6 3c ee d4 46 be
       0.041004375 -0.040447038 0.020281037 -0.19417164
000030 73 e5 c4 bd 0d 23 82 3e ba e8 05 3f 0d 84 18 3e
       -0.096140765 0.25417367 0.5230824 0.14894123
000040 5b e2 ff 3d f4 14 b9 3e 35 50 2e be c2 ca b0 bd
       0.12494346 0.36148798 -0.17022784 -0.08632423
000050 2b 4d 09 bd 54 ee 08 3e f2 a4 8e 3e 71 46 08 3d
       -0.03352086 0.13372165 0.27860218 0.033270303
000060 2f 98 0a bc f3 d7 9d 3c 1f 0e f8 bc 46 22 a8 bd
       -0.008459135 0.019268012 -0.030280171 -0.08209662
000070 97 df a2 3e fd 87 df 3b 90 ae 1d 3e 1e 13 32 3e
       0.3181121 0.006821631 0.15398622 0.17390105
000080 98 9c 99 3e b9 8e 7e 3e 21 9a 27 be 07 83 21 be
       0.30002284 0.24859132 -0.1636739 -0.15772639
000090 c4 5f 1e bc 1a 73 c7 be 0f c0 b7 bd 38 74 97 3e
       -0.009666387 -0.38955003 -0.08972179 0.29580855
0000a0 f5 6e 90 be 92 a5 b9 3e 5f f4 a0 3e 48 8d a3 3d
       -0.28209653 0.36259133 0.3143644 0.07985932
0000b0 df 6b f8 bd e8 e4 d6 bc e2 81 c0 3e 3a 5d 64 be
       -0.1212995 -0.026232198 0.37599093 -0.22301188
0000c0 97 af d4 be f7 9e 53 3e 25 c0 18 3e 6a 1a 08 be
       -0.41540214 0.20666109 0.14917047 -0.13291326
0000d0 06 31 53 3c b9 b0 21 3e a6 20 95 3c ad 7b f0 3e
       0.012890106 0.1579007 0.018204045 0.46969357
0000e0 13 ed 98 be e6 23 a8 bb bb 8e 65 be 0f 4b 6b 3c
       -0.29868373 -0.0051312326 -0.22417729 0.014361157
0000f0 01 13 29 bd e2 49 19 3e df f4 3a 3e e7 91 83 be
       -0.04127789 0.1496959 0.18257473 -0.25697252
000100 77 9f af bd 58 51 24 3e df e6 b9 be fc bc ae 3e
       -0.085753374 0.16046655 -0.36308953 0.3412856
000110 19 72 4b bd 13 e7 a3 3e d6 39 0f bf cb 55 b1 3d
       -0.04966936 0.32012233 -0.55947626 0.08658942
000120 89 df 9a be 2b c8 53 3c 69 a2 7c be 88 6d 23 be
       -0.3024867 0.012926142 -0.2467133 -0.15959752
000130 26 e2 d6 be d9 69 be 3d 11 5d 2f 3e 15 33 42 bd
       -0.41969413 0.092975326 0.17125346 -0.047411997

linears.0.bias f4 [40]
000000 0a 07 26 3d 09 23 81 bc 69 65 81 3d 1f bb 3f 3d
       0.040534057 -0.015763776 0.063181706 0.046809312
000010 c1 99 02 be 40 db 01 bd 4f db 4f 3d cb 25 de 3b
       -0.12753965 -0.031703234 0.05074626 0.0067794076
000020 0b 8a b4 bd df 9c a6 3d 97 5c 50 3d 1f 94 89 3d
       -0.08815392 0.081353895 0.05086955 0.06717705
000030 2b 57 12 3e ad 30 9e 3d 03 96 84 3c b8 eb c6 bd
       0.14291064 0.07724128 0.016184812 -0.097129285
000040 f8 5d 9b bd 4c 2d e1 3d 5c bc 2e bd e3 9c 94 3d
       -0.075862825 0.10994968 -0.042660102 0.07256486
000050 91 62 90 bd b5 e7 a9 bd 08 3c de 3d 79 7c b8 3c
       -0.0705005 -0.08296148 0.10851294 0.02252029
000060 4a df 3f bd 6e 46 96 3d 3e ed 64 3d 3e 17 8b bd
       -0.046843804 0.07337652 0.055890314 -0.067915425
000070 18 8f 59 bd 29 ae ef 3d fb 3d 94 3d fc 80 f5 bd
       -0.05311498 0.1170314 0.07238384 -0.119874924
000080 42 bf aa 3d 6c de 83 3d 33 84 3b 3d 5d 72 89 3c
       0.08337261 0.06438908 0.045780372 0.016778165
000090 8e d6 c7 3c 70 ab 92 3d 4a 8c e5 3d 6f 70 26 bd
       0.0243943 0.07161605 0.11208399 -0.04063457

linears.1.weight f4 [40, 40]
000000 74 f4 34 3d fb 5d d2 3a 4d c7 19 bd a7 ba a8 3c
       0.04417844 0.0016049737 -0.037543584 0.020596815
000010 fc ae e0 bc c6 68 e4 3d ce 7b 64 3e 0e 53 01 3f
       -0.027427189 0.111527964 0.22312853 0.50517356
000020 1f c2 e8 be 09 c7 a1 3c 92 0b dc bd d3 f6 42 be
       -0.45460603 0.019748228 -0.10744394 -0.19039468
000030 59 a2 a4 3d c8 13 0c bd 8e f4 8a 3d d0 40 e2 3d
       0.08038778 -0.034198552 0.06784926 0.11047518
000040 c1 ab b4 bd 02 35 56 be 54 36 6a 3c 41 88 bf be
       -0.08821822 -0.20918658 0.014295179 -0.3740864
000050 40 a5 af 3d 33 7e c3 bc 2b 89 95 3b aa 2b b7 3d
       0.08576441 -0.023863887 0.004563471 0.08943875
000060 8a 5e 01 3d 37 3f 4d be ea 15 79 be c6 4b 76 3c
       0.0315843 -0.20043646 -0.24324766 0.015032714
000070 e6 e6 77 bd fe 8e 98 3e b3 a8 56 3a 47 e0 34 3e
       -0.060522936 0.29796594 0.000818859 0.1766368
000080 1b 69 a3 bd e5 3f f6 3d e1 36 f1 3c f0 8a 75 bd
       -0.07979032 0.12023906 0.029445114 -0.059946954
000090 fe 10 5b bd f4 da 8d 3e c0 f3 3b 3c aa 2e 5a 3e
       -0.053483002 0.2770611 0.011471689 0.21306863
0000a0 04 44 cf bd 14 db 78 3d b1 c9 ed 3c 3f 65 dd bd
       -0.10120395 0.060755804 0.029026838 -0.10810327
0000b0 da 77 40 be 93 6b 35 bd 9b f6 7c be 1a 51 9d 3e
       -0.1879572 -0.044292044 -0.24703448 0.30725938
0000c0 3a 51 6d bd b9 1e 21 be 9a ba 91 bd 2c 32 bc bc
       -0.05793879 -0.15734376 -0.071156695 -0.022973143
0000d0 62 0e 49 be 4c 54 b0 be 05 da 0f be 89 16 15 be
       -0.19634393 -0.34439313 -0.14048012 -0.14559378
0000e0 8e b4 33 3e c7 60 94 bd 0f 4f 58 be e0 66 67 bd
       0.17549345 -0.07245021 -0.21123908 -0.056494594
0000f0 ff 15 5d 3e 38 7c 98 3d 2a 16 a4 be 49 cb 5e 3d
       0.21590422 0.07445568 -0.3204816 0.054393087
000100 3a 5c 76 3e ef 0d 12 be 01 15 0c bd d8 45 72 3e
       0.24058619 -0.14263128 -0.03419972 0.23659456
000110 9a 4a ec 3c 37 92 9d bd cb f0 3f be 6c 4c b2 bd
       0.028844167 -0.07693904 -0.18744199 -0.087059826
000120 47 6d 92 bd e8 0c 8d be 8f 3c fc bd 02 ae 11 be
       -0.07149749 -0.2754891 -0.12316238 -0.14226535
000130 5a df 86 bd 95 86 5b be d5 08 29 be 6c 07 28 bb
       -0.0658557 -0.21438058 -0.16507275 -0.002563919
000140 32 cd 97 3d 13 84 78 be 3c f3 eb bd b2 14 5e 3e
       0.07412185 -0.24269132 -0.11521003 0.21687582
000150 92 7f b2 bd 56 24 ae 3b 26 ba 91 bd 9a 3a 07 3e
       -0.08715738 0.00531439 -0.07115583 0.13205948
000160 13 b7 74 be 70 d5 af bc 8e 5e d1 be 29 94 89 3d
       -0.23897962 -0.02146408 -0.40892452 0.067177124
000170 3b 1d ea 3d c1 5f 25 3d 4e ff c6 3d cb dd d5 3c
       0.114313565 0.04037452 0.09716664 0.026106736
000180 4d b4 82 3e 62 5a 9a 3d 28 67 e5 3c 12 05 b2 be
       0.25528184 0.075367704 0.02800329 -0.34769493
000190 cd 1a c0 3c 8b ac a5 3d 34 c0 58 be a8 8e 6d bd
       0.02345028 0.080895506 -0.2116707 -0.057997376
0001a0 cf c5 fa bd 30 53 87 3d 59 c8 16 3d 1f 4b 19 3e
       -0.1224476 0.06607664 0.03681216 0.14970063
0001b0 fd 31 05 3e 1e 14 75 3d 86 db eb 3d 89 f4 8b bd
       0.1300735 0.05983364 0.1151648 -0.06833751
0001c0 8b ae 12 be 0f 62 03 be 7b c7 22 be 06 6e a4 3d
       -0.14324395 -0.12830375 -0.15896408 0.08028798
0001d0 65 3e bc be c3 83 60 be 91 97 a5 3e 1f ef dc 3b
       -0.36766353 -0.21925263 0.32342198 0.0067423726
0001e0 a6 ba ab bd 28 e7 ff bd b4 28 a5 3e 50 c1 4b be
       -0.0838521 -0.124952614 0.32257617 -0.19897962
0001f0 e5 41 4f 3e 48 cf 02 be 39 16 9f 3c 91 1f b2 be
       0.2023998 -0.12774384 0.019419776 -0.34789708
000200 58 82 1a be 12 aa 03 be 3f 04 51 3a da 1f e3 3d
       -0.15088785 -0.12857845 0.000797335 0.110900596
000210 df 1b 19 be 39 71 41 be ac ea de 3d a2 1f c8 bb
       -0.14952038 -0.18890847 0.10884604 -0.0061072866
000220 8e 77 6a be ea 4e 82 be b7 e5 5c 3d 50 94 01 3e
       -0.22897169 -0.25450832 0.05393001 0.12654233
000230 f2 bb 68 be 06 15 a3 bd 39 de 3d 3e ed 6e 42 be
       -0.22727945 -0.07962994 0.18541802 -0.18987627
000240 80 7a 56 3e d3 ac fa bd 28 e4 44 be 85 52 17 3e
       0.20945168 -0.12239995 -0.1922766 0.14777572
000250 52 cc a2 3e f5 4f 9c bc ad 10 e2 3e 7c 3d 98 3e
       0.3179651 -0.019081095 0.44153348 0.2973441
000260 c7 67 16 3e 7d 63 90 be fa 74 20 3e 20 79 ef 3e
       0.14688025 -0.28200904 0.15669623 0.467721
000270 85 9a b7 3e 0f c3 4d 3d 86 7a 39 3d 61 26 28 be
       0.35860077 0.05023485 0.045282863 -0.1642089
000280 67 e0 bd 3c 20 55 e5 bc 98 f4 84 bc 3b 7a 13 3e
       0.023178292 -0.027994692 -0.016229913 0.14402096
000290 51 07 a6 bc 9e 1f 3b 3d 6b 1c 33 3e dd 74 42 be
       -0.02026716 0.04568445 0.1749131 -0.18989892
0002a0 ba 32 c9 bc 8d 62 45 3e cb 6d 25 be 03 8b 10 be
       -0.024560321 0.19275875 -0.16155164 -0.14115529
0002b0 8f a4 a8 bd d8 18 7a bd 7b ed 0f be 88 55 05 be
       -0.08234512 -0.06105885 -0.14055435 -0.13020909
0002c0 6a 2f 13 bd ac a8 4e 3e 85 5f 97 3c 4c 21 a1 3e
       -0.03593389 0.2018153 0.018478164 0.31470716
0002d0 ae 3e 84 3e b4 87 34 be ed ac 4f 3e 99 0f 9b bd
       0.2582907 -0.17629892 0.2028081 -0.075713344
0002e0 3e 6c 68 be 51 4c 90 3d 3d bd 3e be b6 1e 25 3d
       -0.22697541 0.07045806 -0.18626876 0.04031249
0002f0 7c 96 7c be c6 00 85 3d 6d 5b d2 3e ce 7d 6c 3d
       -0.2466678 0.06494288 0.41085377 0.057737164
000300 7d ac 49 3e fd 63 2c bd 6e 37 54 3e 41 d9 6b 3e
       0.19694705 -0.042087544 0.2072427 0.23032095
000310 f3 07 48 3c c9 8c 82 3e e2 75 8f bd 9c 52 a1 be
       0.0122089265 0.25498036 -0.07004906 -0.31508338
000320 a6 56 01 3e de 5c 51 3e 35 25 a2 be 0e fb 89 bc
       0.1263071 0.20445582 -0.31669012 -0.016843345
000330 a6 91 4b 3e e3 ed 05 3e 0a ef 1f 3e 11 af b7 bc
       0.19879779 0.13079028 0.1561853 -0.022422345
000340 7d 65 21 be d3 58 30 be a6 48 fb 3c 92 8c ff bd
       -0.15761371 -0.17221384 0.03067429 -0.124779835
000350 53 fb 77 3e 3e 55 7a be 9f fc 84 3e c9 84 ac bd
       0.24216966 -0.2444658 0.25973985 -0.08423764
000360 b9 13 99 bd 1d 74 14 be da 6d 70 bc d7 52 f6 3d
       -0.07474465 -0.14497419 -0.014674628 0.12027519
000370 ef 7d 94 3c 84 27 0e 3c 33 18 2d 3e 06 4e 38 3e
       0.018126456 0.008676413 0.16903763 0.17998514
000380 1c e4 a7 3d df 13 a4 3d f8 61 20 be 38 a8 5d 3e
       0.08197805 0.080116026 -0.15662372 0.21646202
000390 99 54 47 bc ee 43 ba 3d 91 33 e5 bc 62 47 c2 3c
       -0.012166166 0.09094988 -0.02797869 0.023715679
0003a0 a0 08 73 bd 81 fc 05 3e 7d 3f 0b 3c 35 bb db 3d
       -0.059334397 0.13084604 0.0084990235 0.10729066
0003b0 2f de c1 bd b9 40 c8 bd 7c ac 21 3e 80 bd 3c be
       -0.09466206 -0.0977797 0.15788454 -0.18431664
0003c0 b1 26 28 be 32 0f df bd 2f 49 a1 bd c5 03 b4 3e
       -0.1642101 -0.1089157 -0.07875287 0.35159126
0003d0 e6 98 ca be d7 28 64 be dc 8a 6c be 3c f3 69 3e
       -0.39569777 -0.22281204 -0.23099846 0.22846693
0003e0 fb 2b 0a 3e 4f 46 d7 bd ff f2 95 3d 4b 2e b4 3d
       0.1349334 -0.10511457 0.073217385 0.08797892
0003f0 45 5d 86 3e 24 18 c6 3d 0b 8f b6 3e d0 24 f2 bd
       0.26243034 0.09672573 0.35656008 -0.11823428

linears.1.bias f4 [40]
000000 dc d3 9a 3c 90 1e 5c bd b8 95 fd bb f1 30 30 3c
       0.01889985 -0.053740084 -0.007738795 0.010753856
000010 63 53 3d 3d 6a d0 35 ba 73 26 63 3d 44 48 58 3d
       0.046222102 -0.0006935658 0.05545659 0.052803293
000020 a6 97 f6 bc 87 38 fd bb 26 cd aa 3d fd 41 a8 bd
       -0.030101608 -0.007727686 0.0833991 -0.08215711
000030 a7 e0 bc 3c c4 e2 0f be c1 bb 2c bd d1 af 6e bc
       0.023056341 -0.14051348 -0.042171244 -0.014568285
000040 a6 0b 78 bd 69 68 71 bd 49 d2 82 bd 39 97 4e 3d
       -0.060557984 -0.058937464 -0.06387765 0.050437186
000050 2b 75 95 bd 14 43 55 3d 5f a2 fc bd f2 f4 2d 3d
       -0.07297739 0.052065924 -0.12335657 0.042469926
000060 a8 8f aa bd 0f 3c 77 bd 02 dc a2 bd fc 80 dd bd
       -0.083281815 -0.06036001 -0.079521194 -0.108156174
000070 80 23 84 bd 18 e5 17 be bd 4e 82 3d 7b c5 d2 bc
       -0.064520836 -0.14833486 0.063626744 -0.025728932
000080 ed da 56 3d ad 5c 4b bd ff 70 74 bd b2 18 62 3d
       0.052454878 -0.04964893 -0.059678074 0.055199333
000090 8b d1 cd bd a2 86 10 3e ac c0 54 ba 6a 15 f2 bc
       -0.10049733 0.14113858 -0.00081158685 -0.029551227

linears.2.weight f4 [40, 40]
000000 2d f7 a5 bd 7a 8d fe bd 9b 56 fb bd 65 e3 00 3e
       -0.08103786 -0.12429328 -0.12272378 0.12586744
000010 a8 c2 88 3d ca a0 36 3e aa 0b 92 3d 26 58 68 3e
       0.06677753 0.17834774 0.07131131 0.22689876
000020 d7 b5 62 3d 48 88 5d bd 53 de 83 3d 73 0c 86 be
       0.055349197 -0.054085046 0.06438889 -0.26181373
000030 47 b7 66 3d 48 50 00 bf 20 1a 16 be 53 ab d9 bd
       0.05632713 -0.501225 -0.14658403 -0.106283806
000040 2f 80 64 3c 6f e1 1d 3e 9e 33 00 be de 73 eb bd
       0.013946577 0.15418027 -0.1251969 -0.11496709
000050 97 91 d2 be be 98 11 bd dc d6 c7 be bb c4 53 bd
       -0.411267 -0.035546057 -0.39031112 -0.05170129
000060 9e 46 9e bd 9c 5c c4 bd f0 b4 60 be 3e 0b dc be
       -0.07728313 -0.09587976 -0.21944022 -0.42977327
000070 46 05 5a 3c 01 6c 25 be 22 9d e1 bd ea fd 12 be
       0.013306921 -0.16154481 -0.11016299 -0.14354673
000080 42 a1 ba bd 92 05 e0 bd ac 66 a5 bd 34 a1 1e 3e
       -0.09112789 -0.109385625 -0.08076224 0.15491182
000090 b2 0a 03 be 67 05 de 3d 61 82 08 be de 3f 11 3e
       -0.12797049 0.10840874 -0.13330986 0.1418452
0000a0 9c 15 9d 3d 4b c5 17 3e 8f a0 99 3b 2c e3 27 3e
       0.07670137 0.14821355 0.0046883295 0.16395253
0000b0 b3 11 55 be bc 99 57 3e eb ab 2f 3e 4a 2b 9f bd
       -0.20807533 0.21054739 0.17155425 -0.077719286
0000c0 4a f4 45 3d c4 35 e9 3a 10 d8 26 bd 2e 8a 22 3e
       0.048328675 0.0017792513 -0.040733397 0.15873024
0000d0 7d 6e 56 3d f9 e8 22 3e 76 40 93 3b 28 35 c4 be
       0.052351464 0.15909185 0.0044937683 -0.38321805
0000e0 a3 08 00 3d a3 08 0e be 0a 4a 10 3e 29 bb 03 be
       0.031258237 -0.13870482 0.14090744 -0.12864365
0000f0 2e a3 a2 bc e1 d6 47 3e 7b 0a 9b bd 59 a9 cb 3d
       -0.0198532 0.19515564 -0.07570358 0.0994441
000100 95 3b 9c 3e 61 d2 9e bd 58 25 8f 3d 54 8e ef 3e
       0.30514207 -0.0775497 0.06989545 0.46788275
000110 f4 86 0d bd 1e e8 34 3e de 3b 2a bd 1e 58 ae 3e
       -0.03455253 0.1766667 -0.041561 0.34051603
000120 53 01 56 be 54 98 b0 bc 35 4e a2 bd ed a0 0c be
       -0.20898943 -0.02155701 -0.07925073 -0.13733263
000130 cb c6 b0 3c 9d db 92 bd 65 68 7f 3a 12 5a 4b 3e
       0.021579167 -0.07170794 0.0009743034 0.19858578
000140 df 79 43 3c f3 84 99 bd 91 6e e1 3e 37 85 b2 3d
       0.011930912 -0.07496061 0.44029668 0.08716815
000150 5d 31 20 be 14 69 39 be 70 fd 86 3e be 93 01 3b
       -0.1564383 -0.1810649 0.26365232 0.00197719
000160 5f a5 8d be 97 81 8e bd 29 5d 7a be 74 4d 5a bd
       -0.2766523 -0.06958311 -0.244496 -0.05329652
000170 3d db a1 bd 5d af 99 bd f7 06 ae bd 81 66 95 be
       -0.079031445 -0.07504151 -0.08497422 -0.29179767
000180 19 02 a4 3d 92 b3 2c 3e 55 15 fd bb 10 99 cf bc
       0.080082126 0.16865376 -0.0077234902 -0.02534154
000190 c5 dc f4 bd 11 88 e2 3d 5a 66 57 3d 55 86 b4 bd
       -0.11956171 0.11061109 0.052587844 -0.08814684
0001a0 9c 29 8b bd 07 06 f6 3c 24 94 72 bd 0d 3c d7 3e
       -0.06795046 0.030032171 -0.05922331 0.42038003
0001b0 4e c0 89 be 78 ea ae 3c bc 72 04 3e c5 fa 95 bc
       -0.2690453 0.021352038 0.12934393 -0.018308053
0001c0 a5 72 41 3e 12 90 bd be 17 4d c3 3d 08 4f 1a 3d
       0.1889139 -0.3702398 0.09536188 0.037673026
0001d0 16 39 80 3c c3 e8 4f 3e 74 72 bb 3d a5 a2 4e 3d
       0.01565222 0.20303635 0.091526896 0.05044808
0001e0 32 a0 df 3d b0 a2 af be ac 70 5a bd d3 e9 3c 3d
       0.10919227 -0.34303808 -0.05333011 0.04612143
0001f0 eb 39 58 bc ad e3 89 3d 92 3c 31 3d 6a b3 68 bc
       -0.0131974025 0.06732879 0.043270655 -0.014202932
000200 1c b3 99 3d d2 15 d3 3d 77 4c 03 3d 74 98 8c be
       0.075048655 0.10306896 0.032055344 -0.27460063
000210 a6 bf aa 3d ef 64 39 be 3c 61 1d 3d 78 41 b5 be
       0.08337335 -0.1810491 0.038422808 -0.3540151
000220 eb 8a 77 be a0 55 8b be c8 01 8b be 05 9f 57 3e
       -0.24174087 -0.27213764 -0.27149796 0.21056755
000230 9a 9a d3 be 9d a5 c6 3e 0f 00 98 be f3 9e 62 3c
       -0.4132889 0.38798228 -0.29687545 0.013831842
000240 fa ce d9 3d ea 2e 00 be 1b 3a 22 bc 2f 88 8f be
       0.10635181 -0.12517896 -0.009901549 -0.28033587
000250 cc 24 cf bd 3b 68 1f bf 17 08 20 3e e0 ce 24 be
       -0.1011444 -0.6226842 0.15628086 -0.16094542
000260 fe 2e a4 3d 53 83 9b be b0 bb 07 3e 41 dc a9 bd
       0.080167755 -0.3037363 0.13255191 -0.08293963
000270 5e 28 54 be 25 3d bc 3e 7a 9e f6 bd 6b e0 1e 3e
       -0.20718524 0.367654 -0.12041946 0.15515296
000280 67 be 8c be cd 90 4c be c2 5d 97 be 8c 3c 07 be
       -0.27489015 -0.19977112 -0.2956372 -0.1320669
000290 ab 2b 99 3e 6a 4f 9e bc 17 81 7d 3e af 0d 8a 3e
       0.2991613 -0.019324977 0.24756275 0.26963565
0002a0 13 63 18 be f6 97 f0 bd b6 f1 18 3e 15 b6 48 be
       -0.14881544 -0.11747734 0.14935955 -0.19600709
0002b0 97 e7 24 be d7 16 bf 3d 61 80 74 3d 91 bb b3 bc
       -0.1610397 0.09330528 0.059692744 -0.021940025
0002c0 2c 08 83 3d dc a6 b5 be 26 83 99 bc 52 7b 2d 3e
       0.06398043 -0.35478866 -0.018739294 0.16941574
0002d0 11 4a b6 3d 52 0a be 3d 5f 55 15 bd 04 a9 a3 bd
       0.08900846 0.09279312 -0.03645837 -0.079912215
0002e0 38 08 de bd 8b e8 5b bd 30 da d0 bd 40 cf 1d be
       -0.10841411 -0.053688567 -0.10197866 -0.15411091
0002f0 85 20 ca be 62 ce 64 be 11 15 39 3e 12 7c 1b be
       -0.39477935 -0.22344354 0.18074442 -0.15184048
000300 e9 1a 7c 3d 90 ff ab bc a4 4b 0d be 55 cc 88 3e
       0.0615491 -0.020995885 -0.13798386 0.26718393
000310 4d 3f 5d bd 2a 4c b3 bd bb 68 82 3e cf f3 c6 3d
       -0.054015446 -0.087547615 0.25470528 0.097144715
000320 7d 38 f1 3b 4f 27 92 be a7 a0 15 be fb 70 16 3e
       0.0073614703 -0.28545615 -0.14612065 0.14691536
000330 5f f8 dc 3e 91 a3 79 be 2f 56 70 be 63 31 8f 3e
       0.43158242 -0.24378802 -0.23470376 0.27967367
000340 94 2e c8 3e b4 13 c2 3e bb de 8c be 88 df b6 be
       0.39098036 0.37905657 -0.2751368 -0.35717416
000350 10 5a 56 bb 50 9b 75 be 31 e1 a1 bd e6 ff aa 3e
       -0.003270749 -0.23985028 -0.0790428 0.3339836
000360 be 94 27 be 53 b7 86 3e 05 87 81 be b1 af 42 bd
       -0.16365334 0.2631174 -0.25298324 -0.047530834
000370 46 a9 b5 be 95 d7 ad be 2c 8c ac bd 00 e7 82 3c
       -0.35480708 -0.3395354 -0.08425173 0.01597929
000380 00 71 73 be b9 ed 66 3e 6a 66 42 3d 88 29 b1 bd
       -0.23773575 0.22551621 0.04746095 -0.086504996
000390 b5 37 1c 3d 67 02 8b bd fd 47 4c be 7d 4a 07 bf
       0.038139064 -0.067875676 -0.19949336 -0.52848035
0003a0 7a ca 80 3d ca c0 ee bd ab b5 0e be b6 9b 75 3e
       0.06288619 -0.11657865 -0.13936488 0.2398518
0003b0 82 a0 38 3c 68 59 97 be bf 31 03 bd 8c 66 d6 bd
       0.011268737 -0.295604 -0.032029863 -0.10468778
0003c0 34 87 22 be b8 32 6c bb 6d af 07 3d 41 7f 8f bd
       -0.15871888 -0.0036040973 0.033126283 -0.07006694
0003d0 af b0 8c bc 86 54 45 3e 92 a3 14 be 77 ca 09 3e
       -0.017174093 0.19270524 -0.14515522 0.1345614
0003e0 7b a9 17 bd df a1 f7 bd 85 ce 66 3b 58 36 a6 be
       -0.037026864 -0.12091421 0.003521831 -0.32463336
0003f0 62 14 41 be a1 36 37 be 93 be 8d 3d 24 8f ed bc
       -0.18855432 -0.17891933 0.06921115 -0.028998919

linears.2.bias f4 [40]
000000 17 cf 64 3d 05 2d a7 bd d4 c2 44 bd 7f ee b2 3d
       0.05586156 -0.08162884 -0.048037365 0.08736896
000010 1d c8 4f 3d f0 26 c3 3c a7 65 aa bc a6 57 69 3d
       0.050727952 0.023822278 -0.020800425 0.056968354
000020 17 32 1d bd 5f 91 39 3d fa d6 a8 bc 85 d8 14 3d
       -0.038377848 0.045304652 -0.020610321 0.0363393
000030 0e cd cd 3d bb 39 7a bc c7 2c 74 3d 50 81 54 3d
       0.10048877 -0.015272553 0.059613016 0.051881135
000040 0e a2 54 bb c0 4c b0 3c 37 4d e6 3c cf 2e a6 3c
       -0.0032445225 0.021520972 0.02811299 0.020285992
000050 a1 3c 3e 3d 05 7e ec 3c 3d ea 14 3d 4a 65 e4 bd
       0.04644454 0.028868685 0.0363562 -0.11152132
000060 62 d9 10 bd 44 9c f5 bc c6 e6 20 bd ff c3 13 bc
       -0.035363562 -0.02998174 -0.039282583 -0.009018897
000070 08 5a 11 3d 43 3e 93 bc 90 75 40 bd 49 18 f7 bc
       0.03548625 -0.017974025 -0.046987116 -0.030162947
000080 c6 a0 12 bd c6 a2 d5 3c 62 05 3b 3d 3a e9 34 bd
       -0.035797857 0.026078593 0.04565943 -0.044167735
000090 97 be 29 3d bb d0 a4 bd 4b 33 f0 bc b8 15 11 3d
       0.041441526 -0.08047625 -0.029321333 0.035421103

linears.3.weight f4 [40, 40]
000000 9b 2e 00 3e 61 63 30 bd 2e ae 81 bc 7f a8 16 be
       0.12517779 -0.043063525 -0.015830126 -0.14712714
000010 8a 30 1c be 31 48 5d bd 28 24 5d 3e 60 76 9c 3e
       -0.15252891 -0.054023925 0.21595824 0.30559063
000020 53 f6 2a be 53 3e 49 be 69 9a 54 ba 8b 36 37 3e
       -0.16695528 -0.19652681 -0.0008110167 0.178919
000030 e7 d8 04 be 85 b6 85 be cc b9 8d be 6d 9c 7d be
       -0.12973367 -0.26115814 -0.27680814 -0.24766703
000040 70 7b a4 bd 5a 28 e9 bb 47 03 4a 3e e7 e9 7d 3e
       -0.08031356 -0.007115406 0.19727813 0.24796258
000050 a5 a8 51 be e8 f6 78 be a7 33 47 be 87 04 26 3e
       -0.20474489 -0.24312937 -0.19453298 0.16212665
000060 e7 18 31 be fc 14 20 3c 6d 33 25 bd be 81 f4 bd
       -0.17294656 0.009770628 -0.040332247 -0.11938809
000070 6d 6e 4d bc 89 1e 13 3f 3d 61 fc 3d f1 6f 2c be
       -0.012538535 0.5746847 0.12323234 -0.16839577
000080 89 e2 fa bd ad aa 86 be 10 78 2f 3c 29 a3 03 be
       -0.122502394 -0.2630209 0.0107097775 -0.1285521
000090 12 c7 90 be 04 98 87 3e 99 ae 2b be 59 67 08 be
       -0.2827688 0.26483166 -0.16765822 -0.13320674
0000a0 45 26 ba 3c e6 8a cc 3d 42 65 f9 3d d5 1a 7c 3d
       0.022723326 0.0998743 0.121775165 0.061549027
0000b0 40 d2 05 3d 84 9c 9e be 36 3e bc be 55 f9 44 be
       0.032671213 -0.30978787 -0.36766213 -0.19235738
0000c0 c0 e4 66 be 7e 92 4a 3e 8f 69 82 bd 2d a5 4f 3e
       -0.22548199 0.19782445 -0.0636779 0.20277853
0000d0 f9 f8 7b 3d 32 f8 62 3e 00 79 96 be 69 44 80 3d
       0.061516736 0.22164991 -0.2938919 0.06263048
0000e0 8a 4b b6 3d e4 fb 43 bc f6 ed 37 be c9 b7 95 bd
       0.08901127 -0.011961911 -0.17961869 -0.07310445
0000f0 eb ae 87 3e 23 a6 40 3e 4e 3c 12 be 44 66 51 bd
       0.2650064 0.18813376 -0.14280817 -0.05112292
000100 83 e9 81 3d 58 e1 e2 bd fb b0 41 3e d2 de 97 bd
       0.06343367 -0.11078137 0.18915169 -0.074155465
000110 f5 9e 59 3c a1 2a c1 3d 39 2c fd bd 5d 71 87 3d
       0.013282527 0.09431959 -0.123619504 0.06613419
000120 52 8c 16 be cb d1 a6 bb 0a 4e 43 bd a8 12 84 be
       -0.14701965 -0.0050909272 -0.047681846 -0.25795484
000130 c4 de dc bc 51 b1 f6 bd 46 9e 37 3e 8a 8d c7 3b
       -0.026961692 -0.12045539 0.1793147 0.006089871
000140 65 d1 62 be 62 3f e3 bd 6d 45 eb 3d 31 d1 74 3d
       -0.2215019 -0.11096074 0.11487851 0.059769813
000150 a1 d3 48 3e 6e 67 ef 3b ac df 8e be 38 92 aa 3d
       0.1961198 0.007306031 -0.27905023 0.0832867
000160 59 1f 11 be 3b 86 41 3e 6f fc 0c 3e 34 e9 c0 bc
       -0.14172114 0.18898861 0.13768171 -0.0235487
000170 2a 39 5b bd 52 e9 b7 3e 68 7d 3f bc c4 53 db 3e
       -0.053521313 0.35920197 -0.011687614 0.42837346
000180 8b a3 bf be a2 5d a0 bc 70 01 8c be f9 41 a2 3d
       -0.3742946 -0.019575898 -0.27344847 0.079227395
000190 4c d4 07 3d ed 3b f3 bd d5 4e e4 bd d5 3e cf 3e
       0.033161446 -0.11876664 -0.111478485 0.40477625
0001a0 41 70 6c be 36 de 4e 3e 66 8b 4c be 2f 37 8b be
       -0.23089696 0.20201954 -0.19975051 -0.2719054
0001b0 d5 cd ba 3c cf 10 9a ba f7 1a 26 3d b6 a9 8a 3d
       0.022803226 -0.0011754277 0.04055306 0.06770651
0001c0 e4 cf 3c 3e 79 15 8d be d1 c9 32 3e 6c 7f 30 be
       0.18438679 -0.27555445 0.174598 -0.17236108
0001d0 93 5c 2c be 1a fa 4b 3e 5f b2 fd bd 20 f3 5f 3e
       -0.1683219 0.19919625 -0.12387537 0.21870089
0001e0 f0 fc 03 3d 58 80 07 3e 45 6b 55 3e 74 d1 dc bd
       0.032223642 0.13232553 0.20841701 -0.107821375
0001f0 d1 9f 59 3e 3b 46 3a 3e 3a b7 61 3d 5f e3 95 bd
       0.21252371 0.18190853 0.05510638 -0.07318758
000200 ce 3a 30 3e 75 f2 77 3e 12 f0 5e 3e 98 87 14 bd
       0.17209932 0.24213584 0.21771267 -0.036262125
000210 bc 30 a8 be db 39 83 3d f5 a0 69 be 5e 65 8a 3c
       -0.3284968 0.064075194 -0.22815306 0.016894039
000220 f3 ee 7e be 8b ee 6a 3d d0 32 b2 3e 7a dc 5c 3d
       -0.2489584 0.0573564 0.34804392 0.0539212
000230 2f 01 97 be ae aa bd 3d db ba 19 3c 22 8f 1d 3e
       -0.2949309 0.0926107 0.009382929 0.15386632
000240 32 f7 2c 3b 80 dd da bd e3 a1 c2 bc 5f 7b 1a 3e
       0.0026392457 -0.10686779 -0.023758834 0.15086125
000250 07 fe c2 bd c1 ee 7c bd a1 f4 22 3e 6f 66 d1 bd
       -0.09521108 -0.06175113 0.15913631 -0.10224616
000260 cb 6a b3 bc fd 55 28 be dd 71 57 3d 60 63 09 be
       -0.021901509 -0.16439052 0.052598823 -0.13416815
000270 a5 74 1c 3d a6 e5 d3 3c 79 3a 42 3d 11 52 1a bd
       0.03819718 0.02586634 0.047419045 -0.03767592
000280 8c 41 66 be 30 c2 0f 3e 8b ef 58 3e a6 6f 49 bd
       -0.22485942 0.1403892 0.21185128 -0.049178742
000290 84 23 86 3e 9b f9 bb bc 75 05 a0 3c 0b f3 b1 3d
       0.2619897 -0.02294617 0.019533852 0.08688935
0002a0 50 75 6d 3e b1 9a 14 3e 7c b0 81 3d 7f 74 a6 3c
       0.23189282 0.14512135 0.0633249 0.020319222
0002b0 8b fc 36 3e 18 e8 81 3e fa 41 37 bd f4 36 80 3e
       0.17869775 0.25372386 -0.044740655 0.25041926
0002c0 b5 5e c5 ba f7 18 32 bd 67 79 72 3e 16 5c 35 be
       -0.0015058132 -0.04348084 0.23679124 -0.17710909
0002d0 94 9f 3d be da f1 ef 3c d7 26 9e be d4 da 93 bd
       -0.18517905 0.029290128 -0.30889007 -0.072194725
0002e0 de f6 bf bc ed 7e 75 bd ac b5 7a 3e 99 a0 bb 3d
       -0.023433145 -0.0599355 0.24483365 0.09161491
0002f0 08 59 7c 3d 7b a4 4c be 00 64 5f 3b ff f8 c0 3d
       0.061608344 -0.1998462 0.0034086704 0.09422492
000300 cd 90 7d bd e2 58 97 3e 41 ce 3e be 7b 62 01 bd
       -0.06190567 0.2956 -0.18633367 -0.03158806
000310 66 f3 8f 3e 3e c6 ca 3c 99 6e b0 bd 26 60 8b be
       0.28115386 0.024752732 -0.08614845 -0.27221793
000320 e0 1e e1 bc 09 2e ba 3d 22 85 e5 bd bb 64 ff 3d
       -0.027480543 0.09090812 -0.11207034 0.12470385
000330 3b 69 28 be 23 9c ae 3d 48 3d a3 bd bc 7c 21 3e
       -0.16446392 0.085258745 -0.07970673 0.15770239
000340 0f f3 7f bd 68 d7 77 3e 09 ac b6 3d 59 c3 1d 3e
       -0.062487658 0.24203265 0.08919532 0.1540655
000350 f2 f9 7d 3c 1a e2 06 3e e6 41 65 3d 4d b2 4c 3e
       0.015501486 0.13172188 0.05597105 0.19989891
000360 ab 8c 2f 3d 37 74 b7 bd 19 6d b9 3e b6 3b 60 3e
       0.04285876 -0.08957713 0.36216047 0.21897778
000370 0e e6 a1 3d 6e c3 20 3d f7 23 a3 3e 3b c8 00 bf
       0.079052076 0.039248876 0.31863376 -0.5030553
000380 53 d3 52 bd d4 35 86 bd c1 ae d8 3c 20 d9 f8 bc
       -0.051471066 -0.06553236 0.026450517 -0.03037697
000390 53 88 c6 3c 42 07 ea bd 9f 42 9b bd e7 0a 02 be
       0.024234926 -0.114271656 -0.07581066 -0.12699471
0003a0 81 2b 6b 3c 46 0e 20 3d 63 55 97 3e 7a de 8b be
       0.014353634 0.039076112 0.29557332 -0.27318174
0003b0 49 0e eb 3d 9b 96 41 ba 84 e6 98 bd 4e be 0f 3e
       0.11477334 -0.00073848077 -0.07465842 0.14037439
0003c0 01 38 c3 3b 45 1d 88 be 65 60 f4 3a 16 6b 94 3d
       0.005957604 -0.2658483 0.001864445 0.072469875
0003d0 15 a2 0a be 36 7d d9 3d ef ad a3 3c 95 cc 23 3e
       -0.13538392 0.10619585 0.019980399 0.1599601
0003e0 19 d3 9b be 83 47 27 3e ba 33 36 3d ea f5 30 bc
       -0.30434492 0.16335873 0.044482924 -0.010800818
0003f0 59 c8 a4 3d 7e 43 08 3d 30 a3 05 3e cf 14 4a 3e
       0.08046026 0.03326749 0.13050532 0.197345

linears.3.bias f4 [40]
000000 f6 d2 5e bd 99 1c d0 3c bf c1 bf bb a8 09 a4 3c
       -0.054400407 0.025404261 -0.0058519538 0.020024136
000010 f6 3c 96 3a bb f8 8e 3c 22 c3 32 3d 54 48 ce 3d
       0.001146226 0.017452588 0.043643124 0.10072389
000020 50 3d fb 3c 37 c3 80 bd fd ee cf 3c ef 96 71 bd
       0.030668885 -0.06287234 0.025382513 -0.058981832
000030 cb 81 02 bd c8 60 91 ba 44 f8 65 bd eb 6c e2 bc
       -0.03186206 -0.0011091465 -0.056144968 -0.027639827
000040 db 40 33 3c 6a 1b c1 bc 38 09 0b 3d a4 a3 11 3d
       0.010940756 -0.023572642 0.03394434 0.03555645
000050 c1 d9 e9 3d 19 be c8 3c d8 63 82 3d 19 68 ff 3c
       0.114184864 0.024504708 0.063667 0.031177567
000060 5d ec aa 3c 9e cf 04 3d 59 28 47 bc c9 32 fb 3c
       0.02086466 0.03242456 -0.012155616 0.030663865
000070 ee 5d 07 3d 90 c5 56 bd a0 d0 82 ba 9f e1 1f 3d
       0.033048563 -0.052434504 -0.0009980388 0.03903353
000080 aa 80 22 bd 76 90 1d bd 6c 00 35 bd ec f2 94 3c
       -0.039673485 -0.038467847 -0.044189855 0.01818224
000090 e5 69 bc 3c ed bd 3c bc c2 98 06 3c 9c 45 2f 3d
       0.022999713 -0.011519891 0.008215131 0.042790994

linears.4.weight f4 [40, 40]
000000 72 c4 f8 3c 2f 53 ca 3d dd e8 d0 3d 53 cb 0f be
       0.03036711 0.09879147 0.10200665 -0.14042406
000010 0b 2d 60 ba 61 59 c3 3d 75 2c e6 b9 61 34 11 3e
       -0.0008551634 0.09538532 -0.00043902142 0.14180137
000020 3f a5 30 be 91 82 83 be d3 02 a0 3e 9d fd d8 3d
       -0.17250536 -0.25685552 0.31252155 0.10595248
000030 f4 ae 16 3e 1f 4e c7 bc 54 31 07 3e 6a b2 a2 3d
       0.14715177 -0.024329243 0.13202411 0.07944186
000040 88 b6 e1 be 33 37 c7 bc ca cd 8e bd 3e 8f 88 3c
       -0.44084573 -0.024318313 -0.06972845 0.016669866
000050 21 f4 46 bd df ff a4 bc c1 6d 86 bc a9 92 ff 3c
       -0.048572663 -0.02014154 -0.016409757 0.031197863
000060 83 b3 cf bc e2 a8 74 be dd df af 3d ff 99 23 be
       -0.025354153 -0.23892549 0.085876204 -0.15976714
000070 8a 3b 71 bb 03 1f 66 3e c3 7f a3 3c 83 1f ce be
       -0.003680917 0.22472768 0.019958382 -0.40258417
000080 a7 74 ac bd da ef bb bd 62 fe 8e 3e 25 4f a6 3e
       -0.08420687 -0.091766074 0.27928454 0.32482257
000090 60 6e 52 3c d3 46 07 bc 4d 43 cf 3c d9 05 ec 3d
       0.012843698 -0.008256632 0.025300646 0.11524553
0000a0 2d 53 7e bd 34 9d 91 be 40 fc f1 bd 54 06 c6 3e
       -0.06209104 -0.2844025 -0.11815691 0.38676703
0000b0 3b 96 5d be 52 6e df bd 28 e3 83 be 6b d6 3c 3b
       -0.2163934 -0.10909714 -0.25759244 0.0028814327
0000c0 80 21 b4 bc d1 3e 57 be 58 3d 1b 3e 3c 7c 3c 3e
       -0.02198863 -0.21020056 0.1516012 0.18406767
0000d0 19 a7 8f 3c 1e 7a 64 bd 57 b6 96 bd 80 ef 6e 3d
       0.017535733 -0.055780523 -0.07358997 0.058333874
0000e0 16 21 70 bd 2d 17 26 bd 98 98 51 be 39 73 b9 3d
       -0.058625303 -0.040549446 -0.20468366 0.0905518
0000f0 cf a1 9d be 88 fa 75 3b 01 63 8d 3c f8 f9 2f be
       -0.30787513 0.0037533361 0.017259123 -0.171852
000100 f1 38 6e bb 30 0f b8 bc d2 f2 cd bc c5 f6 27 3e
       -0.0036349858 -0.02246818 -0.0251402 0.16402729
000110 d7 c9 5c be 25 c4 94 3d ad eb 1f be c4 e5 a4 be
       -0.21561371 0.07263974 -0.15617247 -0.32206547
000120 0c 71 6b bd 27 26 0f 3e 43 96 8e 3d 85 2d 80 3e
       -0.057480857 0.13979398 0.06962254 0.2503473
000130 fa 6a 4d be a7 27 94 bd 2b c3 2b 3d 69 23 0a be
       -0.2006034 -0.072341256 0.041934174 -0.1349007
000140 af 44 d8 3d 0e 08 24 be 24 79 b2 bd dc aa 56 3e
       0.10559975 -0.16018698 -0.08714512 0.20963615
000150 c3 96 27 bc 69 12 18 be c1 16 4d bd a9 0b a3 3e
       -0.0102288155 -0.14850773 -0.050070528 0.31844833
000160 0e 5d d0 3e fd 02 08 3e 22 13 c0 bd 39 74 20 3e
       0.40695995 0.1328239 -0.09378649 0.15669335
000170 b6 e3 48 bd 13 18 c2 3d d8 69 65 bd 40 c2 c6 bc
       -0.049045287 0.09477248 -0.056009144 -0.024262547
000180 68 fb 19 be e7 6e a8 3d 8f 72 4a bd 1c be b3 be
       -0.1503731 0.08224278 -0.049425658 -0.3510598
000190 dd d2 39 3d 5f 16 dc bd eb 14 20 be 7c 03 7d 3a
       0.04536711 -0.107464544 -0.1563298 0.00096517033
0001a0 fe d0 00 3e 99 2c 3d be d4 6d 60 3e 13 09 30 3d
       0.12579724 -0.18474044 0.21916896 0.042977404
0001b0 f9 c5 d5 3d 23 1c 91 3e 9c 91 83 3c 12 46 37 be
       0.10438151 0.2834178 0.016060643 -0.17897823
0001c0 fa d8 d7 be 6e 70 62 3e 56 c1 c7 3e ca 52 1a be
       -0.42157727 0.22113201 0.3901469 -0.15070644
0001d0 e5 a1 b7 bd 3b ed 59 be fc f2 94 be d1 9c be 3d
       -0.08966426 -0.21281902 -0.29091632 0.09307254
0001e0 4c b7 9d be 6e e4 27 bc 21 0a 46 be 16 af 11 be
       -0.30803907 -0.010247333 -0.19339801 -0.14226946
0001f0 17 ff a0 3b 50 79 81 3d 09 38 39 3d f7 d0 d7 3d
       0.0049132216 0.06321967 0.045219455 0.10537904
000200 ce 47 ef 3d d7 4f 52 3e 27 b1 3f 3e 4c c9 87 3a
       0.116836175 0.20538269 0.18719922 0.0010359674
000210 da 59 15 be 0b 46 5b 3d 5d 96 4b 3e 31 ac c0 3d
       -0.14585057 0.053533595 0.19881578 0.09407843
000220 3c 67 d0 bc 45 bb 5b be 33 c0 87 3e 0e af 62 bc
       -0.025439851 -0.21458156 0.26513824 -0.013835682
000230 fe 47 83 3e 4d d9 85 bd af 42 c3 bb 9d c1 fd be
       0.25640863 -0.065355875 -0.005958877 -0.49561778
000240 07 ba e5 bd e0 60 ce bd a4 35 6b 3d 55 5f 9c bd
       -0.112171225 -0.10077071 0.057424203 -0.07635371
000250 f4 5b f4 3d b5 0b ab bd 0a 3f a0 3c 1e c6 9b bd
       0.11931601 -0.08351842 0.01956131 -0.07606147
000260 6c 1c 13 be 9a 1c 2d bd 39 4d 87 3e 7c 76 52 3e
       -0.14366311 -0.042263605 0.26426104 0.2055301
000270 64 48 89 3d d4 ff 80 3e de 01 f2 3c 9f 2e 38 3e
       0.067032605 0.2519518 0.029541906 0.17986535
000280 c3 c4 c8 bd 84 cb c0 3e 11 1f 81 3e 1b 85 77 be
       -0.09803154 0.3765527 0.25219014 -0.2417187
000290 41 76 0a 3d 1f 3e de bd 9a cf bd bb 68 4f 89 be
       0.033804182 -0.108516924 -0.0057925703 -0.26818395
0002a0 cc c4 ef bd 8f f2 17 bd 5b 35 58 3e e7 6e 0e bd
       -0.11707458 -0.037096556 0.21114103 -0.034773733
0002b0 0e a9 ae 3d 8b aa fa 3e 4c ee 07 bd 5c 07 08 be
       0.085283384 0.4895824 -0.033186242 -0.13284057
0002c0 48 fc 89 be 56 a3 a1 3e ce a7 f7 be 64 2a 9b bb
       -0.26950288 0.31569928 -0.48370212 -0.004735278
0002d0 ee bb c2 bd 3f ce ca be a1 31 ab bd 0a 39 1a bd
       -0.09508501 -0.39610478 -0.08359075 -0.037652053
0002e0 b0 42 a2 3d c7 a0 ce 3e 90 83 9f bd 76 0c de 3d
       0.07922876 0.40357038 -0.077887654 0.108422205
0002f0 c3 a5 2b 3e b5 09 f0 bd f3 72 a0 3e ca 9d f5 bd
       0.16762452 -0.117206015 0.313377 -0.119929865
000300 bd 8b 3b 3f 6b 6d f9 3d fd 77 ba 3d 38 da 96 3e
       0.732601 0.12179073 0.09104917 0.29463363
000310 b2 27 25 be 42 28 d5 bd 2c 44 cf bd c3 20 97 bd
       -0.16128424 -0.10408069 -0.10120425 -0.07379296
000320 07 1e b4 3e 0f ea 89 bd 95 61 84 3e 2e d0 2b be
       0.3517916 -0.06734096 0.258557 -0.16778633
000330 d4 7c 95 bc dc d0 7e be d0 80 a6 3c a0 d4 62 bd
       -0.018248 -0.24884361 0.020325094 -0.055378556
000340 18 df 3b be c1 5e 99 be 8e d0 38 be 30 80 a3 3d
       -0.18346822 -0.29955104 -0.18048307 0.07983434
000350 04 d0 da bd 32 15 28 bd d5 53 30 bd f8 06 0e 3d
       -0.10684207 -0.04103584 -0.0430487 0.034674615
000360 d0 6a 08 be c8 86 bc be c4 de cc 3d f0 0d 18 3e
       -0.13321996 -0.3682158 0.10003427 0.14849067
000370 6a 55 92 3d f1 29 15 bc c7 d1 10 3b 57 b4 85 3e
       0.07145198 -0.009104238 0.0022097693 0.2611415
000380 f7 fd f1 bd 2d 8f 36 3e 9f cf 3c 3e cc ea 03 3d
       -0.11816018 0.17828055 0.18438576 0.03220634
000390 57 8d 4e be b1 45 84 bd a5 86 84 3c 2d 20 aa be
       -0.20171104 -0.06458605 0.016177485 -0.33227673
0003a0 78 94 b3 3e 6f 34 1b bd 09 f2 14 3d b0 ee 02 be
       0.3507421 -0.0378918 0.036363635 -0.12786365
0003b0 71 46 32 bd cc ff 42 be ce 14 45 bc 91 5c 1c 3e
       -0.04352421 -0.19042891 -0.012028886 0.15269686
0003c0 2e f8 bc bc b4 e1 dc bc 94 85 8f be aa fa 25 be
       -0.02306756 -0.026963092 -0.280316 -0.16208902
0003d0 b5 65 05 be 6f e3 0d be f8 35 17 be fd 63 9d be
       -0.1302708 -0.1385629 -0.14766681 -0.30740348
0003e0 9a f5 9b 3d 74 8f 87 3d af bf ad ba 53 03 94 bd
       0.07615204 0.066191584 -0.0013255979 -0.072271965
0003f0 a3 d9 d1 3d c2 9c d3 bd 02 7f ef 3d c9 85 eb 3d
       0.10246589 -0.103326336 0.11694147 0.11500127

linears.4.bias f4 [40]
000000 0b 05 24 bd 9e 1c a1 3c c8 7b c7 bc 5f 33 e4 bc
       -0.04004387 0.019666966 -0.024351016 -0.027856527
000010 bd b2 b7 3c 33 6b b5 bc 96 46 5a bd d3 4b 95 3c
       0.022424096 -0.022145843 -0.053289972 0.018224632
000020 ef 2a 0c 3c 37 ba d8 bc 7f f3 9d bd ad e7 09 3d
       0.008555158 -0.026455982 -0.07712459 0.03366821
000030 71 f4 d6 3b 9a d9 6b 3c 2c 69 31 3c bf ef 5d 3c
       0.0065599014 0.014395142 0.010828298 0.013545929
000040 89 d5 29 bd fa 27 ec 3b 15 d2 10 3d e7 b6 c9 bc
       -0.04146341 0.007206914 0.0353566 -0.024623347
000050 a5 bc b4 bc 76 c9 ce 3d 7c ee d4 3c d5 0c 0a bc
       -0.022062609 0.100970194 0.025992624 -0.008425911
000060 59 ed 02 3d a1 52 43 3c 16 7c 23 bd 74 df b7 3b
       0.031964634 0.011921556 -0.03991326 0.0056113545
000070 a2 46 52 bd 9d 15 87 3c 1e d4 0f 3d 83 9b 0e 3d
       -0.051336892 0.016489798 0.0351144 0.034816276
000080 ab 32 82 3c ce 80 c8 bb 21 bf 01 3c 4a 5d 2a 3d
       0.015893301 -0.0061188703 0.007919104 0.041592874
000090 3b ef 63 bc 3b 26 45 bd bd d1 a5 bd 2b ac 4e 3c
       -0.013912017 -0.048132163 -0.08096645 0.01261429

linears.5.weight f4 [40, 40]
000000 c4 f5 27 3e 06 bf 88 bb cc be a3 bb 59 ef f4 b9
       0.16402346 -0.0041731624 -0.00499711 -0.00046717635
000010 fc 78 a6 bd 25 5e 8e 3e d4 44 89 bb fb dd 09 bd
       -0.08128545 0.27806202 -0.004189113 -0.033658963
000020 9b a4 0d 3e 12 75 75 bd fe fb fc 3d d1 5b 4d 3e
       0.13832323 -0.0599261 0.12352751 0.20054556
000030 a9 ff 38 bd 6b 54 4d 3c 1f 9c ee ba 67 3f be 3d
       -0.04516569 0.012532334 -0.0018204487 0.09289437
000040 09 2e 88 3e 43 bb 44 be dd 4a 05 3d 15 5f da be
       0.26597622 -0.1921206 0.0325421 -0.42650667
000050 5e 26 10 be 7f 2e 44 be 15 5f 99 be a9 a8 cd bd
       -0.14077136 -0.19158362 -0.29955354 -0.10041935
000060 96 b2 95 3d a6 ac bf 3b 73 8b 79 be 88 98 68 3d
       0.07309453 0.0058494387 -0.24369602 0.05678609
000070 28 1e 5d bc e6 04 0d 3e dd 3b 13 3e 50 eb 08 3e
       -0.013495959 0.137714 0.14378305 0.13371015
000080 7c 15 56 3c f0 6f 1c be 87 7d b8 bd 11 ab f3 3d
       0.013066646 -0.15277076 -0.090083174 0.11897863
000090 a4 25 46 3e 7c b3 5b be a3 c2 8d be d4 d1 8e 3e
       0.19350296 -0.21455187 -0.2768756 0.2789446
0000a0 68 2f b0 bd 3d b7 b1 3c 4c 50 e0 bd 9d e1 d2 bd
       -0.08602792 0.02169382 -0.109528154 -0.102969386
0000b0 f5 b6 0f 3b 2e da 17 bd b4 e8 a1 bd 96 32 ee be
       0.002192912 -0.037073307 -0.07905713 -0.4652297
0000c0 fa b6 b6 3d d3 a1 2e 3e c9 23 c5 bd 84 3f 93 3d
       0.08921619 0.17053919 -0.09625966 0.07189849
0000d0 05 60 1d 3e af 0f 88 bd 87 38 f8 3d d2 b2 24 bd
       0.1536866 -0.066436164 0.12120157 -0.0402096
0000e0 35 3d 83 3c 83 7a 40 3e 97 84 49 3d 79 5b 36 bc
       0.016020397 0.18796735 0.049198713 -0.011130207
0000f0 69 78 2c 3d 5e b4 b7 bd 14 14 40 be 90 2a a6 bd
       0.04210702 -0.08969949 -0.18757659 -0.08113587
000100 75 b6 b0 3d 00 71 07 be c9 dc 9f bc 1c 86 8b bb
       0.08628551 -0.132267 -0.019514458 -0.0042579304
000110 a9 7e a9 be 2f 2a 9b bd e9 80 bb 3c 0e c0 02 3e
       -0.33104447 -0.07576405 0.022888618 0.12768576
000120 f7 da ed 3c 40 3d 21 bd ae e2 ab bd 92 48 60 bd
       0.029035075 -0.039365053 -0.08392845 -0.05475671
000130 ab 5b 10 bd 15 c9 17 3e ad 92 4f be ce 13 29 3d
       -0.03524367 0.148228 -0.20270796 0.041278653
000140 be 89 4b be ce eb 67 3d a5 27 ac bd 39 5c 70 3d
       -0.19876763 0.056621365 -0.08405999 0.0586817
000150 af 29 61 3d 90 ff 2b be 12 1b b5 bd f6 40 71 3e
       0.054971393 -0.16796708 -0.08843054 0.23559937
000160 86 20 ae be 6f 47 4f 3d 24 c4 a8 be b4 39 c4 3d
       -0.34009188 0.050605234 -0.32962143 0.095813185
000170 38 4e 07 be 35 a1 96 3c 96 36 5f 3c a9 4e 2a 3d
       -0.13213432 0.018387416 0.013623854 0.041578922
000180 7c 39 0a 3e e9 02 71 3e cd 16 54 3e 79 9f f0 3d
       0.13498491 0.23536266 0.20711823 0.11749167
000190 ba 82 b7 bd 3a c9 da 3d 78 1a 95 be 7f 5e db 3e
       -0.08960481 0.10682912 -0.29121757 0.42845532
0001a0 00 02 77 bd 52 b2 80 bc 04 6f 8a bd ee 29 ab be
       -0.06030464 -0.01571003 -0.06759456 -0.33430427
0001b0 63 97 5d be b6 90 53 be 56 53 e2 bd f6 3f a1 bd
       -0.2163978 -0.20660672 -0.11051051 -0.07873528
0001c0 5d f9 43 bb a9 65 a1 3e 2a a3 b9 bd 64 aa e8 bc
       -0.002990327 0.31522873 -0.09064324 -0.028401561
0001d0 fe 4e 95 be 30 8d 74 3e b6 1c c2 3c 24 ad 3b bd
       -0.2916183 0.23881984 0.023695331 -0.045819417
0001e0 b6 88 56 be 8e 69 c2 3e 28 a6 16 3e 6a 24 97 be
       -0.20950589 0.37971157 0.14711821 -0.2951997
0001f0 5f ae f0 3d 76 5d dd 3d 41 d9 e4 3d f5 7e 56 3e
       0.11752009 0.10808842 0.111742504 0.20946868
000200 f9 87 b2 3d 59 98 95 3d 9c 8f 60 bd 82 76 4d bd
       0.08717341 0.07304449 -0.054824457 -0.050161846
000210 85 20 18 3e ad 4d 1b 3d cb 07 6a bd f4 3d e7 bc
       0.14856155 0.037915874 -0.05713634 -0.028227784
000220 22 55 1b bd a1 00 da bc 9c 97 2f 3e 48 f5 39 bd
       -0.037922986 -0.026611628 0.17147678 -0.045399934
000230 83 af 91 be 80 d4 2b 3e 6c df a2 3d f5 99 aa bd
       -0.28454217 0.16780281 0.079527706 -0.08330146
000240 34 83 81 3e ee b0 33 3e 2c a3 0c bd e7 ce e6 bd
       0.25295413 0.17547962 -0.0343353 -0.11269932
000250 fa 00 a2 3e 63 bf f5 bd 90 32 a7 bd 23 b2 93 3d
       0.3164137 -0.11999395 -0.08163941 0.07211711
000260 9d 22 03 3d 6a 80 75 3e 1c 91 d3 bd 7d 4d 64 bd
       0.03201543 0.23974767 -0.10330412 -0.05573796
000270 bf 52 a7 be 25 bd ea 3d 11 93 18 be bf 8e 6d bd
       -0.32680318 0.11461858 -0.14899851 -0.05799746
000280 94 08 5e bd 11 a0 8f be c8 c3 26 bd 16 c0 66 3d
       -0.0542074 -0.28051808 -0.040714055 0.05633553
000290 31 ff e9 bd 91 a3 bf 3c 18 75 38 be 25 ed 65 be
       -0.11425627 0.023393424 -0.18013418 -0.22453745
0002a0 4a e2 74 be 7b 92 72 3e 7f a9 31 3e 76 27 9a bd
       -0.23914447 0.2368869 0.17349814 -0.07527058
0002b0 a5 e7 d9 3d 72 07 f1 bd 85 98 13 bd 3c be 4c 3e
       0.10639886 -0.11768998 -0.036034126 0.19994444
0002c0 6d 1b 55 3e 0a be 14 3a fe b4 4d 3d 2b 09 f1 bc
       0.20811243 0.000567407 0.050221436 -0.029423317
0002d0 39 cb 8f bd 04 4a a9 3e e5 5a 1b be 25 da 15 3e
       -0.070211835 0.33064282 -0.15171392 0.14633997
0002e0 37 31 27 3e bc 53 01 3e 98 52 57 3e ec 91 aa bb
       0.16327368 0.12629598 0.21027601 -0.0052053835
0002f0 20 c6 61 3d 38 20 7a 3e 92 39 24 be b6 c5 9c be
       0.055120587 0.24426353 -0.16037586 -0.3061959
000300 4e 53 28 3e 30 c1 9f 3e 63 68 e8 3b db e8 9c 3d
       0.16438028 0.31202078 0.007092522 0.07661601
000310 34 64 2e 3e 20 1c 47 3e bc bb 9f 3d 31 2c 04 3e
       0.17030412 0.19444323 0.07799479 0.12907483
000320 ec e1 4c 3d 6d 93 f3 3d 7b 8e b2 3c 35 bf ad bd
       0.050020143 0.118933536 0.021796456 -0.084837355
000330 08 b5 ea 3d c2 84 7f bc 15 7d 67 bd 51 15 c7 bc
       0.1146031 -0.015595617 -0.056515772 -0.024302157
000340 eb c5 9a bc 7a c3 a7 3d d6 4b 1b be 59 4a 15 3e
       -0.018893203 0.08191581 -0.15165648 0.14579143
000350 07 8e 87 bd 09 60 c2 bd f8 7d fa be 02 9c 1a be
       -0.066188864 -0.094909735 -0.48924232 -0.15098575
000360 c4 c2 35 3e 73 4f 42 3e b8 68 ac 3d 5d 52 42 bd
       0.17750078 0.1897562 0.08418411 -0.04744183
000370 ba 5f e0 3d d8 5e de 3c 55 f4 eb 3d 4c 97 c7 bc
       0.109557584 0.027144834 0.11521212 -0.024364136
000380 e8 dc ce 3b e3 1b e2 3d 1c bc e9 3d 84 c3 ea 3d
       0.006312955 0.11040475 0.11412832 0.11463073
000390 23 7a 2f 3d 3e 5d b0 3e 37 83 57 bd 09 38 3d be
       0.042841088 0.34446138 -0.05261537 -0.18478407
0003a0 dc d5 c4 bc 97 49 4b bd 55 9f 5e 3d ef 81 20 bd
       -0.024027757 -0.049630728 0.05435117 -0.039186414
0003b0 66 be fd bd d7 30 a3 be 9d ef dc bd a5 0a f9 3d
       -0.12389831 -0.318732 -0.1078789 0.121602334
0003c0 11 cf a2 be 99 85 51 bd b2 9a ae 3e f9 be c9 bd
       -0.31798604 -0.0511528 0.34102398 -0.09850878
0003d0 7d ef c4 3d c4 45 46 3e e2 32 37 3e cd ca 77 3e
       0.09615991 0.19362551 0.17890504 0.24198456
0003e0 27 18 f0 3c 81 7a 87 bd 31 33 87 3d a9 4d 03 3e
       0.029308392 -0.06615163 0.06601561 0.12822594
0003f0 fa ad 22 3d 1e 35 83 3d 6b b8 a2 be 74 05 3b 3e
       0.0397167 0.06406616 -0.31781325 0.18263799

linears.5.bias f4 [40]
000000 1d 33 53 3c 36 e0 38 3d 4f c8 2c 3d f0 69 97 3d
       0.012890604 0.0451357 0.042183217 0.07393253
000010 1a 0e 53 bd 47 90 fe 3c e3 1e cb bc 95 f1 a9 3c
       -0.05152712 0.031074656 -0.024795001 0.020745078
000020 f2 06 9f bd 4e f4 ec 3c 52 83 f2 3c 06 c5 29 bd
       -0.077649966 0.028925087 0.029603634 -0.04144766
000030 dc b0 a8 bc 94 33 46 bd 68 c3 7c bc ee 9e 1b bd
       -0.020592146 -0.048389032 -0.015427448 -0.037993364
000040 a4 49 81 bd b4 1d 86 3c c9 a0 d1 bc 82 19 a4 bb
       -0.06312874 0.016371585 -0.025589364 -0.0050079236
000050 9c 2c 7e bc 4e 8e d6 3c 3c 18 c4 bc 79 7d e6 3b
       -0.015513565 0.026190903 -0.023937337 0.0070340005
000060 8b 6b 2f bd e5 88 01 bd dc 18 d9 3c db 7f 12 bd
       -0.04282717 -0.031624693 0.026501112 -0.035766464
000070 8b d1 f5 bc b0 7b 34 bc 45 0d a9 3a f3 f0 22 bc
       -0.030007144 -0.0110158175 0.0012897631 -0.009945142
000080 28 f9 7f bc 5d 68 0d 3d e3 a8 c4 3c 58 6b 93 3c
       -0.015623368 0.034523357 0.024006313 0.017995521
000090 8e 75 76 bc 03 aa 06 3c a1 9b d7 bc 06 c0 ff 3c
       -0.015042676 0.008219245 -0.026319327 0.031219494

linears.6.weight f4 [1, 40]
000000 38 05 25 be f1 37 57 be f7 ab 11 be 80 09 99 be
       -0.16115272 -0.21017434 -0.14225756 -0.2989006
000010 47 27 14 3e c6 1c df be e1 e6 5d 3a 5e 00 52 be
       0.14468108 -0.4357664 0.00084648846 -0.20507953
000020 94 22 1d 3e 23 79 4d be 54 c9 ee be c0 c4 b4 3d
       0.15345222 -0.20065741 -0.46637976 0.088265896
000030 11 f2 c8 3d 56 82 95 3e 69 48 ba 3a c4 64 8f 3e
       0.098117955 0.29201 0.0014212254 0.28006566
000040 2b a5 12 3e 4b a8 2d bf c2 4b 50 3d 26 c6 f4 3d
       0.14320819 -0.6783492 0.0508535 0.11951856
000050 e6 80 2b 3d 3e 8f 1f be 9d 1c 4a 3a 87 82 69 be
       0.041870974 -0.15581986 0.0007709952 -0.22803698
000060 42 7b 94 3e bb e2 05 3e 33 fa 4b be 51 ee 86 3e
       0.29000288 0.13074772 -0.19919662 0.26353696
000070 f6 81 0c 3e eb d6 e9 3d 13 4f 51 3e 0d 9f c8 3d
       0.13721451 0.114179455 0.2044032 0.097959615
000080 98 2e 4f 3d be c4 fc bd 30 2e 8f be f6 04 07 bd
       0.050581545 -0.12342213 -0.27964926 -0.032963715
000090 4e 4b 7a 3d cc a5 80 bc d3 c0 4c 3e 2f a9 85 bd
       0.061106972 -0.015704058 0.19995432 -0.0652641

exp_avg f4 [40, 2]
000000 64 48 4c b7 6d 6e 50 39 18 54 01 39 4f 7f 94 b9
       -1.2176202e-05 0.00019877563 0.00012333726 -0.00028323612
000010 b7 13 d7 3a 1a 78 96 39 bd 88 1b ba 8b a1 c6 39
       0.0016409074 0.00028699712 -0.00059331564 0.00037885862
000020 54 72 16 bb 8f e1 9c ba 05 47 b5 b9 d0 94 9e b9
       -0.0022956328 -0.0011969077 -0.00034575924 -0.00030246982
000030 91 c5 bb 3a 12 87 aa 39 03 d1 26 ba 4f d7 34 3a
       0.0014325847 0.00032525562 -0.00063635426 0.00068985386
000040 a4 7b a0 ba 01 c2 9e b9 a4 5c e2 3a e0 31 1a 3a
       -0.0012243879 -0.00030280653 0.0017270041 0.0005882066
000050 3f ba 41 3a e7 d2 05 3a 67 ae 54 b8 5a ba 18 3a
       0.00073901186 0.0005104974 -5.0707164e-05 0.00058261084
000060 af c1 83 3b 65 53 03 3b 7e a2 04 3b 90 6a 73 3a
       0.0040208916 0.002003872 0.0020238454 0.00092855934
000070 8b d6 f4 b9 81 ff 2a 39 8c cb 15 bb 3f 3d 81 ba
       -0.00046699154 0.00016307646 -0.002285692 -0.0009860172
000080 3e ac b3 ba 30 59 03 b9 1c 34 39 3b 96 2b 55 3a
       -0.0013707948 -0.00012526358 0.002825982 0.00081318
000090 b5 50 8b b9 2d d1 65 b9 bb c1 e0 3a cf 77 04 3a
       -0.00026572277 -0.00021917066 0.001714758 0.0005053253
0000a0 ba 54 2d b9 14 3d d1 b9 6a d5 b2 ba db 3e 04 b9
       -0.00016530129 -0.00039909093 -0.0013643925 -0.00012611916
0000b0 e7 5c 93 3b 8d 6d db 3a 06 66 ad b9 a9 54 c0 39
       0.004497159 0.0016741023 -0.00033073145 0.0003668417
0000c0 94 e6 27 3a 0d 72 c2 b9 06 81 a1 37 28 53 a2 39
       0.0006404903 -0.00037087538 1.9252777e-05 0.00030961004
0000d0 95 6e 85 3a cb b8 e8 39 59 cb 76 ba 58 f7 96 b9
       0.0010180051 0.0004438817 -0.00094144564 -0.00028794515
0000e0 b8 17 b1 b8 10 0c 18 ba a6 7f 36 3b 56 9c 84 3a
       -8.444436e-05 -0.00058001373 0.002784708 0.0010117393
0000f0 e3 8e 01 3b 28 8d 29 3a cd 2b 0d bb e1 cc 65 ba
       0.0019769005 0.00064678723 -0.0021541 -0.0008766186
000100 8c aa 35 3b 34 fd 82 3a 85 e6 3f 3a 9d 38 63 37
       0.0027720062 0.0009993673 0.0007320422 1.3543436e-05
000110 e2 57 f3 39 87 b7 21 39 d6 08 ac 39 81 8b 25 ba
       0.0004641405 0.00015422526 0.0003281298 -0.0006315038
000120 49 81 7f 3a da 7b bb b9 09 52 dc 3a 3f 98 97 39
       0.0009746743 -0.00035759696 0.0016809116 0.00028914397
000130 26 5b fc 3a 9d 51 18 3a 45 40 00 bb f6 2d 4f b9
       0.0019253239 0.0005810501 -0.0019569558 -0.0001975818

exp_avg_sq f4 [40, 2]
000000 a9 84 15 33 ba 64 00 37 f4 4a 44 36 42 ec 81 37
       3.481242e-08 7.652847e-06 2.9249904e-06 1.5488014e-05
000010 01 21 0a 3a 11 13 9f 37 55 13 88 38 c6 b9 bc 37
       0.00052692 1.8963156e-05 6.488586e-05 2.2497854e-05
000020 87 92 88 3a 46 8a 8d 39 4f 88 cc 37 a8 c2 91 37
       0.0010419645 0.00026996637 2.4382169e-05 1.737599e-05
000030 e9 8b da 39 19 de c6 37 53 29 aa 38 fa 95 a4 38
       0.0004168444 2.3706862e-05 8.113929e-05 7.848065e-05
000040 20 09 9e 39 7e fe a0 37 62 b4 1c 3a 12 3c 8e 38
       0.00030142907 1.9191993e-05 0.0005977807 6.7822766e-05
000050 a1 bd e2 38 7c 61 52 38 fa 17 d6 34 97 33 73 38
       0.00010811841 5.015869e-05 3.9878051e-07 5.798376e-05
000060 e3 91 55 3b 55 c2 4b 3a 1b fb 45 3a cf ba 23 39
       0.0032588176 0.0007772793 0.0007552371 0.00015614483
000070 8b 19 3b 38 3d 88 4d 36 6a 9d 88 3a a6 56 48 39
       4.4608063e-05 3.0626682e-06 0.001042289 0.00019105765
000080 eb 48 c5 39 5e 8b b6 36 66 bc ce 3a 22 9c 09 39
       0.00037629096 5.440247e-06 0.00157727 0.00013123502
000090 45 1d 75 37 4a 3a 10 37 92 88 18 3a 74 95 5e 38
       1.4609953e-05 8.59664e-06 0.00058186904 5.3068114e-05
0000a0 62 22 c1 36 ea 90 f2 37 1b fa c5 39 a1 da 92 36
       5.755851e-06 2.8916129e-05 0.0003776111 4.376591e-06
0000b0 07 7b 7f 3b 1d 59 0d 3a bd 42 a5 37 84 fd cd 37
       0.0038983242 0.0005392002 1.970061e-05 2.4555957e-05
0000c0 c4 8d a7 38 b1 d2 ad 37 0a 06 8b 34 01 b7 77 37
       7.9895864e-05 2.0721318e-05 2.5895162e-07 1.4764956e-05
0000d0 60 e3 5d 39 c0 ce 24 38 69 e3 3d 39 95 36 98 37
       0.00021160906 3.9293198e-05 0.00018109161 1.8145229e-05
0000e0 f3 67 38 36 43 d3 7f 38 af 70 c7 3a 12 b7 50 39
       2.7478643e-06 6.099349e-05 0.0015216077 0.00019904625
0000f0 fd 62 4b 3a 34 2e aa 38 c1 a2 62 3a d4 20 17 39
       0.0007758586 8.114838e-05 0.0008645468 0.00014412712
000100 e0 21 c7 3a 3a 40 4d 39 fc 3d e1 38 7e 89 d0 33
       0.0015192591 0.0001957425 0.000107403815 9.7107645e-08
000110 b6 a2 33 38 a0 41 a1 36 b3 9e ab 37 42 98 99 38
       4.2828462e-05 4.8058137e-06 2.0458689e-05 7.323969e-05
000120 5e a8 47 39 8c cc a1 37 c0 02 17 3a 96 ec af 37
       0.0001904084 1.9287945e-05 0.00057606027 2.0971795e-05
000130 f5 f9 42 3a bf d6 90 38 fe 22 47 3a 85 9a 23 37
       0.0007437759 6.906455e-05 0.0007596462 9.751534e-06
