pdebench/models/newly_trained_models/Advection/PINN/1D_Advection_Sols_beta0.4_PINN.pt-5000.pt (torch, 117827 bytes, 39 tensors)

linears.0.weight f4 [40, 2]
00000000: 83ee d2bd eb09 1bbd ff6f 8fbe 8c1f 2ebb
00000010: ec52 de3d 53ba bc3c 9ca1 79bc 6f23 30be
00000020: 7854 f1bc 79ee 463d a953 253e bca3 443d
00000030: ec86 2a3e 129b 393d 97ca 81be 696b 423e
00000040: 7dde 953e 9f1f 53be 02c7 81bd a3e5 4bbb
00000050: 8ff9 78bd 7e00 a93e b520 933c 22b1 26be
00000060: 471b 3b3e bdc4 0abd bbaf 86be 5630 a63e
00000070: 4744 0fbe f4f8 233e 7be7 13be 16cd 9f3e
00000080: 717f 74be 5d5a e0bd 8e4d 8b3e 2ace 603e
00000090: d65d e93d c761 9a3e ecc2 cbbd 9123 2b3d
000000a0: ea99 9f3e d73b 96bd dc4e f2bd 039b 8d3e
000000b0: e841 a0be 58dc 7cbd d7eb bb3d 0ca7 5bbe
000000c0: 65ea 7ebe 6fd7 3c3e b0bc 52be 7013 663e
000000d0: 6b03 78be 1757 f6bc 2597 783e 41a0 973d
000000e0: ce7c a6bd f9dc 05be 26f6 68be 7a4a 58be
000000f0: 3019 65be f488 013d 29de 9a3b a072 373d
00000100: 7e46 80b9 a7c0 323e 9c5e ddbd 81f4 3b3d
00000110: 005d 913d e414 07be 6aa5 af3e 948f d2bd
00000120: 7aef c4be 54ea 9b3b 3eee be3d 484c 15be
00000130: d94e 68be e147 b63d 03b8 b9bc f9c5 09be
-0.10299399 -0.037851255 -0.28015134 -0.0026569096 0.1085566 0.023038065 -0.015236285 -0.17201017
-0.029459223 0.04856727 0.16145195 0.04800771 0.16653031 0.045313902 -0.25349876 0.18986286
0.29271308 -0.20617531 -0.06336786 -0.0031112216 -0.060784873 0.33008188 0.017959932 -0.16278508
0.18272124 -0.03387903 -0.26305947 0.32458752 -0.1399089 0.16012937 -0.14443772 0.31211156
-0.2387674 -0.109547354 0.27207607 0.21953645 0.11394851 0.30152723 -0.09949288 0.041781966
0.31172115 -0.07335632 -0.118314475 0.27657327 -0.31300282 -0.061733574 0.09175842 -0.21450442
-0.24894102 0.18441556 -0.20579791 0.22468352 -0.24220054 -0.030070825 0.24276407 0.07403613
-0.08129273 -0.13072576 -0.22750148 -0.2112216 -0.2237289 0.03162475 0.0047261906 0.04478705
-0.00024466583 0.17456304 -0.10809061 0.045887474 0.070978165 -0.13191563 0.34305888 -0.102812916
-0.38463956 0.0047581587 0.09322785 -0.1457988 -0.22686328 0.089004286 -0.022670751 -0.13454427

linears.0.bias f4 [40]
00000000: dc39 cbbd ac84 2a3b 4439 6cbd 6415 cfbc
00000010: 44e6 3dbd ec2f 093c aa79 1d3e 6257 b83c
00000020: b792 87bd 3df6 6d3d 19bc b13d 4385 133e
00000030: 56f9 bdbd bd56 69bd 3ab0 edbc 666c 283d
00000040: 0074 893d f9ab a7bd 7377 ccbd 4472 6f3d
00000050: 0ca3 f5bc ef70 583d 7975 eebd 4703 89bd
00000060: bcb5 17bc 9401 833d 02a4 993d 5030 07be
00000070: 55df eabc 6173 2cbd 6257 c13d c847 44bd
00000080: 24bb 443d f61a 1dbd 6958 d1bd 0ca9 b8bc
00000090: fd8b 1fbd 8257 9a3c ea53 283d 24c5 17bd
-0.09923145 0.002601902 -0.0576718 -0.025278755 -0.046362177 0.008373242 0.15378442 0.022502605
-0.066197805 0.05809616 0.08678455 0.14406304 -0.09276073 -0.056967486 -0.029014695 0.041119
0.06711578 -0.08187098 -0.09983721 0.05845858 -0.029984973 0.052842077 -0.116435 -0.06690078
-0.009259637 0.063967854 0.07501985 -0.13202024 -0.028670946 -0.04210222 0.09440495 -0.04792002
0.048030034 -0.03835579 -0.10221941 -0.022541545 -0.038951863 0.018840555 0.04109565 -0.037053242

linears.1.weight f4 [40, 40]
00000000: 4bd7 c7bd fbaf b7bd c998 ca3c e270 33bd
00000010: dbc6 1bbe e10a ad3d ff06 143e 2af5 29be
00000020: 83ba 76be e74d 873e a8ae e0bd 02af e23e
00000030: 5787 f83d d03b 9bbe c672 2abe a53b 10bf
00000040: eff8 e5bc 292c 3ebe a189 723d 551e 8a3d
00000050: 1b04 d6bd a11a a23d 41b2 523e abe8 d7bd
00000060: 0548 26bd 30d3 483e 12bb 03bd 1c8a 8dbd
00000070: 025f fb3d 598e 8a3e 6b5c b8bd ee3a 36be
00000080: 9656 fdbd ae89 bc3c de30 7bbd 0405 473d
00000090: 7b1f 6a3e 06f9 b4bd dfcb 473e 3111 94bd
000000a0: a563 813e 54ef bdbd c9a9 8a3e 5c01 03be
000000b0: 9dcd 103e 373f b5bc d6ba f7bd 7977 9bbd
000000c0: 00fc 173e cade 56be edbe dcbd fe73 dfbe
000000d0: dc7d 2e3e 2323 93bc 6368 9a3d c4a9 32be
000000e0: decc b4bd ae69 203e cf89 3d3d 43b2 adbe
000000f0: 24c5 bc3e 6233 053e 1e63 a8bd 12a6 be3d
00000100: ce11 0b3d 912d b8bd 0e62 67be a4d5 163e
00000110: 67c7 5d3d 69f4 93bd 896d 67be 078e a63d
00000120: 2543 5f3e c9de 24be 03c8 163e 0180 b03c
00000130: 8093 863d 309c d53d 4303 3b3e ba42 d53d
00000140: f489 7a3d 664b 8b3e 5668 b43d 942b 43bd
00000150: 4058 cabc 4e8e be3d 6dde 9bbd 9feb 17bb
00000160: 4fe4 8c3c 6bed 8a3d 6d53 a53d 6355 0a3e
00000170: e904 bebd 6494 7ebe 7b08 003e d4fd 423e
00000180: 1895 f1bd c748 38be 0a0e fc3b 3dc0 b9bd
00000190: 4984 65be ea5f 2a3d d66e 463e 43b0 dd3d
000001a0: f48f 883e 7d48 62bd 4b93 933d fcbc 6bbe
000001b0: e3ec 913d fa27 9e3d 4585 5c3d d4ba aabe
000001c0: 65d7 4f3e 5d06 2c3e 5099 c7bd ed35 09bd
000001d0: 5e89 b03e 6b9f fe3d 992f c53c 3f07 d6bd
000001e0: c4b5 d2bd 8207 29be c624 fbbd 113a 88be
000001f0: b6d6 fa3c 4205 df3c 6544 0e3f 7d40 65be
00000200: 5980 733d bc8f d43d fcba 053e 1188 3c3e
00000210: b0b6 c2bc 2e66 1cbd 7397 1abb 1685 883e
00000220: d589 ffbd d246 dc3c b078 bdbe b4b9 fd3c
00000230: 2de5 83be 6421 81bd f286 3a3b c645 58bd
00000240: 4ce0 5f3e 7191 573e 6f7e b7bc fda3 3cbe
00000250: b639 32be 18ca c3be 5a3e 57bd 0715 6b3e
00000260: 5060 aebd 843a 4f3e 5174 9dbe 0b25 2c3e
00000270: b6ec f23d 7946 49bd 26b9 b73c 7e9b 6dbd
00000280: a102 0cbe 32ee 9dbd 4df6 e23e b8fe 443e
00000290: 5365 ac3c 36c9 d7bd d2fc 1d3d 47d2 333e
000002a0: 27ce 76bd e33c f93d 29b0 323d 40c1 70be
000002b0: f237 f2bd efb1 843e f466 1a3b 2dd7 053e
000002c0: 69a5 22bd 2311 adbd 3a0e 3dbd 89c4 69be
000002d0: c708 bcbc 46fe 063e cdbc 6c3e 35ba 27be
000002e0: 2484 1c3d 1ab4 b23e 8b08 ae3e b9f3 07be
000002f0: 4b42 5a3e 6737 8a3d a693 94be e43e 363e
00000300: ce32 0abd 5ab8 673d ef7b 6a3a 765a 7f3d
00000310: ae7f 053d 380c 81be c318 20bd 000d 3f3d
00000320: d68c 88bd 2193 1b3d e286 82bd fcb3 d7bd
00000330: bc0b 3cbd 8716 ad3d 1b0d 2ebd 9c3a 43be
00000340: a918 40bd a452 5bbe e0f3 0abe fb82 073e
00000350: 66fe 27bd db05 9b3d e8cf 64be 901d 72bd
00000360: d132 09be 8e3f 9b3e ceea efbd c7ed aebe
00000370: d741 b3bd cd92 5cbe 0cba 95be d20a f23d
00000380: d087 da3d b5c9 23be 880e 96be f615 b8bd
00000390: 2b8e cd3b d71c ca3d 56fe 2f3e 679a 233d
000003a0: 6628 263e e98a cebd c309 633e 2dce ad3e
000003b0: 570d febd a64d 9fbb f8a0 bc3d 373d 40bd
000003c0: 4479 9fbc a421 cc3d 129a 61bd 517e eb3d
000003d0: d6f0 e5bd f030 0b3e 4a95 96bd 4b7c 1abe
000003e0: cf1a 8e3d 0d49 d23d 7428 a83e af5c d33d
000003f0: 9839 15be 60cc 843d 872b fa3c 6acb 3cbe
-0.09757861 -0.089691125 0.024731057 -0.043808825 -0.15212576 0.084493406 0.14455794 -0.16597429
-0.24094586 0.26426622 -0.10970813 0.44274145 0.12135189 -0.3031907 -0.16645345 -0.5634101
-0.028072802 -0.18571533 0.059213284 0.067440666 -0.10450002 0.07915235 0.20575811 -0.10542425
-0.040596027 0.19611812 -0.032160826 -0.06911108 0.12273981 0.27061728 -0.09002002 -0.17795917
-0.123700306 0.02301487 -0.0613259 0.048588768 0.22863571 -0.0883656 0.19511364 -0.072298415
0.25271335 -0.09274164 0.2708266 -0.12793487 0.14140935 -0.02212487 -0.12096183 -0.07591147
0.14842224 -0.20983425 -0.10778604 -0.43643183 0.17040199 -0.01796109 0.075394414 -0.17447573
-0.08828138 0.15665314 0.046274003 -0.33925065 0.36869156 0.13007882 -0.0822203 0.09309019
0.033952527 -0.08993066 -0.22595999 0.14729935 0.054145243 -0.07224352 -0.22600378 0.08132558
0.21802957 -0.16100611 0.14724736 0.021545412 0.06571102 0.10430181 0.18262963 0.10413118
0.06116672 0.27205962 0.08808963 -0.04764898 -0.024700284 0.09304486 -0.07610784 -0.0023181213
0.01719871 0.06783565 0.08072553 0.13509135 -0.0927828 -0.24861294 0.12503235 0.1904214
-0.117960155 -0.17996512 0.0076921033 -0.0906987 -0.22413744 0.041595377 0.19378218 0.10824635
0.26672328 -0.05524491 0.07205828 -0.2302131 0.07125261 0.07722469 0.053838033 -0.33345664
0.2029701 0.16799302 -0.09746039 -0.033498693 0.34479803 0.1243275 0.024070548 -0.10450601
-0.10288575 -0.1650677 -0.12262873 -0.266068 0.03061996 0.027224187 0.5557311 -0.22387882
0.059448574 0.10378978 0.1305961 0.1841128 -0.023768753 -0.038183384 -0.0023588806 0.26664037
-0.12477461 0.026889239 -0.3700614 0.03097234 -0.25760785 -0.06305197 0.0028461781 -0.052800916
0.21862906 0.21051575 -0.022399155 -0.18421932 -0.17404827 -0.38240123 -0.052549697 0.2295724
-0.08514464 0.20237166 -0.30752805 0.16811006 0.11861555 -0.049139474 0.022427153 -0.058009617
-0.13672878 -0.07711448 0.44328538 0.19237792 0.021044409 -0.10536425 0.038571186 0.17560683
-0.060255196 0.12169816 0.04362503 -0.23511219 -0.11827077 0.25917003 0.00235599 0.13070364
-0.03970853 -0.08450534 -0.046156146 -0.22828878 -0.022953404 0.13182935 0.23118897 -0.16379626
0.038211957 0.34903032 0.33990893 -0.13276567 0.21314351 0.067488484 -0.29018897 0.17797428
-0.033739857 0.056572296 0.0008944859 0.06234213 0.032592468 -0.25204635 -0.039086115 0.046643257
-0.06667487 0.03798211 -0.06373383 -0.10532376 -0.04590963 0.084515624 -0.042492967 -0.19065326
-0.046898518 -0.21418244 -0.13569593 0.13233559 -0.041014098 0.07569476 -0.22344935 -0.059110224
-0.13398291 0.30321926 -0.11714707 -0.34165785 -0.08752792 -0.21540375 -0.29243505 0.1181847
0.106704354 -0.15994914 -0.2930796 -0.08988564 0.0062730513 0.09868782 0.17186865 0.03994217
0.16226348 -0.10085089 0.22171693 0.33946362 -0.12404888 -0.0048615513 0.0921039 -0.04693338
-0.019467004 0.09967354 -0.055078574 0.11498702 -0.112275764 0.13592887 -0.073526934 -0.15086477
0.06938707 0.102678396 0.32843363 0.10320412 -0.14572752 0.06484294 0.030538334 -0.18436971

linears.1.bias f4 [40]
00000000: 6515 2a3d 37c0 09be 6e0e bebc fea5 823c
00000010: 6f1a aebc 7edf 043b 96cc fcbc 64b8 1dbd
00000020: 3dfa 39bd da6e c73c 9df4 453d 360c 313d
00000030: 563b 013d 822c 233c 9069 263d 02e0 83bd
00000040: 6113 2b3d d523 bcbb 1ca4 2b3c 124c 243d
00000050: 13a4 afbc 4090 363d 9872 b93d 7ca9 0b3d
00000060: 8421 ddbc 8857 af3d e807 853c 317a 5d3d
00000070: 2524 a3bd 03f6 43bd 10be 173d be56 243d
00000080: b309 aebd 05a9 8b3d 3941 19bd eda1 943c
00000090: bc74 f1bc 3b29 5dbd e630 a4bd f0b5 21bd
0.04152431 -0.1345223 -0.02320024 0.015948292 -0.021252839 0.0020274813 -0.030859273 -0.038505927
-0.04540466 0.02434485 0.048328985 0.043224536 0.031550728 0.009959342 0.040628016 -0.064392105
0.041766528 -0.005741576 0.010476138 0.04011161 -0.021440541 0.04457116 0.0905506 0.03409718
-0.02699352 0.08561617 0.016239122 0.05407161 -0.079658784 -0.047842037 0.037046492 0.040121786
-0.08497944 0.06819347 -0.037415717 0.018143618 -0.029474609 -0.0539944 -0.08017139 -0.03948015

linears.2.weight f4 [40, 40]
00000000: b26b 6e3d 390a 423d f7e4 e33c 2b49 10be
00000010: 0131 f23c 6a91 90be ccd9 503c 0633 203e
00000020: dec5 88be 8353 acbe c3aa 943e aeb1 e0bd
00000030: 962c 183d 4db0 a6be 0b83 113e ef01 72bc
00000040: ec23 16be d902 bfbd b75f 793e 52b8 9dbe
00000050: a81a 33bc 1f8b 433d 340c 28be 9e9d 49be
00000060: 9f6b 7ebe f4ed ec3d 75a1 4fbe 4c5a 153e
00000070: efe2 01bd d5a0 e73e 8ea8 65be a030 563e
00000080: 416c 70be ecfd 773c 2172 043e fc74 993b
00000090: 69f0 49be 3756 a23d 64f3 3f3e 833f 883e
000000a0: 3627 f53d d8e5 7ebe e413 cdbd a33e 5a3d
000000b0: 6113 423c bc8e ecbd adeb 8cbe ea6b fa3c
000000c0: e0c8 c3be 5cb1 2c3d ccc6 a23e 1dff 14be
000000d0: d62b 553c a7f8 583e 62e7 0e3c b02c b9bd
000000e0: 062c 9e3e 156e 3dbe 98ea ed3c 1a16 a63e
000000f0: c2af 79be db4a abbd e79c 0b3e ad9d 0d3b
00000100: 4eff 27bd 21ef 5dbd ba28 3bbe 90dc 023e
00000110: 097b 86be dd54 03bd 4d0f 073d 9640 313e
00000120: 2136 e4be 84b1 813e ae76 f6bd d7f8 17bd
00000130: ee73 d5bd 9635 d93d a5ca 01be dfc9 c43d
00000140: a2dc 10be 018a 42be 9a84 85be 7e6d 453e
00000150: 0523 94bc 9387 90bd d764 db3d 75d8 8fbe
00000160: 7ff3 8abe 0419 d63c 5500 9c3e 0d15 c13d
00000170: 24d9 a4bd 0e7d 343e ae7c 2e3e 882d 643e
00000180: a75c af3e 5d47 12be 620d 403d e6fb 853e
00000190: ae73 aa3d 4f98 b33e 2b9e 8cbb 4ab4 813d
000001a0: 1c53 70bd c5a9 a33d 60ba 2fbe 3ad4 6bbc
000001b0: 9839 58be 0b03 b0bd 9797 0ebd 926d 973d
000001c0: 0920 babc fc35 8d3e 1d7a 2b3e 115c c33d
000001d0: ad79 973d b0d5 1ebe f2bc 103e 7fd4 113d
000001e0: d818 c2be fd37 87bd b3f7 8abd 02c7 61bc
000001f0: c41e a9bd 9d4f 363b d3ba b53d 9cc2 473c
00000200: c18d 363e 9f80 1f3d c981 edbd a7b4 78bc
00000210: e4b6 1abc e94f bc3c b09a 75bc ca1b a63e
00000220: e033 23bc 2a94 543e 3786 5ebe 94b6 a3bd
00000230: 9598 82bd d133 523e dda1 323d 9ffd 09bd
00000240: a603 ce3d 654f 833e 670b 12be d3cb 903d
00000250: 4c64 8dbe ec25 debd 7aa5 99be 8a2a 00be
00000260: f111 2f3d 3770 e63b 1641 7cbe 1215 01be
00000270: 7df8 59bd 77d8 103d 8bdf 443e e829 313d
00000280: 1ca8 e1bd eeea d4bc 2109 ffbd 41be febd
00000290: 1e5c 343e c856 eb3e f383 513e 5bc2 19be
000002a0: d1f3 863e efb6 c23e 544a 93be e797 7d3e
000002b0: dee4 ccbd c391 c5bc 98bd 3bbe 9a1e 623d
000002c0: 853d 18be 89a3 89be 5e8d febe 6871 db3c
000002d0: fa3e d53c dd85 8b3d 2432 f0bd c409 e43e
000002e0: 3c35 7abe 11ce eebc 31ce 103f 5ca5 6fbd
000002f0: 8f24 86bd 7ddb 6c3d 1aa6 f03e dfba ec3d
00000300: 0d17 01be bc0f 29bd 114a 22be ad51 71be
00000310: 6e48 bd3d 03a0 86be 0504 9cbe 8dda 283c
00000320: 13b4 b83a ea5b bd3d 5581 a9bc 39b0 c4bd
00000330: 231e 213e e6be a4bd 2297 3dbe d71b 39bd
00000340: a600 2a3e 7639 a1be 8703 2e3d 2ab4 be3d
00000350: 756c 2f3b 03d3 01bd 5ee8 12bd d52c bebd
00000360: 27e7 dbbd 5207 debd 2b5b c13e 37c5 1dbd
00000370: 2e24 133d cc95 27be 33c8 80bd 5f8d bb3d
00000380: 9af7 73bc ba50 9ebd d1e4 3ebe 4511 9abd
00000390: e95a a3bd 70ea 3f3e 67d3 bfbe 29ec 85bd
000003a0: a97a 63bd d2b2 fb3d 37b2 0cbd b066 063d
000003b0: 2a34 dabc 7e4b 5bbe 465b cb3c bd61 2abd
000003c0: 4cc1 e4bd 32f1 adbc 08ab 203e 0a8b 72be
000003d0: 3d5d 083d 368c d73d a931 983e 1e05 7bbc
000003e0: d594 8e3d 7c32 343e 6fd4 8f3e 5de4 b9bd
000003f0: c1b6 333c d755 6b3e c17f 00be 5d46 f73c
0.058208175 0.04737303 0.02781914 -0.14090411 0.029564383 -0.28235942 0.012747239 0.15644464
-0.2671346 -0.33657464 0.2903653 -0.1097139 0.037151895 -0.32556382 0.14210145 -0.014770969
-0.1466214 -0.09326715 0.24352919 -0.30804688 -0.010931648 0.047740098 -0.16410905 -0.19689032
-0.24845742 0.115688235 -0.20276435 0.14585227 -0.03171056 0.45239893 -0.2242758 0.20916986
-0.23478796 0.015136223 0.12934162 0.004683135 -0.19720615 0.079266004 0.1874519 0.26610956
0.119703695 -0.24892366 -0.100135595 0.05328239 0.011845441 -0.11550662 -0.27523556 0.030569036
-0.38239193 0.04216133 0.31792295 -0.14550443 0.01301094 0.21188603 0.008722158 -0.090417266
0.30892962 -0.18499024 0.029042527 0.32438737 -0.24383453 -0.08363887 0.13634072 0.0021608875
-0.041014962 -0.05418313 -0.18277255 0.1277945 -0.26265743 -0.032063354 0.032973576 0.17309794
-0.44572547 0.25330746 -0.12034355 -0.037102547 -0.104225025 0.10605924 -0.12674959 0.09608816
-0.14146665 -0.18997957 -0.2607773 0.19280049 -0.018083105 -0.07057109 0.10712593 -0.2809483
-0.27138898 0.026134975 0.30469003 0.09427843 -0.08049229 0.1762583 0.17039749 0.22282994
0.34250376 -0.14285035 0.046887763 0.26168746 0.083228454 0.3507714 -0.004291316 0.063332155
-0.05867301 0.07991365 -0.1716094 -0.0143938605 -0.2111572 -0.085943304 -0.034812536 0.07393946
-0.022720354 0.2758025 0.16745801 0.09539045 0.07396255 -0.15511203 0.14134577 0.035603043
-0.3790958 -0.06602476 -0.06785526 -0.013780357 -0.08257821 0.002781845 0.088735245 0.012192395
0.17827512 0.038941022 -0.1159702 -0.01517979 -0.009443019 0.022987323 -0.014990494 0.32443076
-0.009961098 0.20759645 -0.21730886 -0.079938084 -0.06376759 0.20527579 0.043611396 -0.033689138
0.1005929 0.2564651 -0.14262162 0.070701264 -0.27615583 -0.10847077 -0.3000906 -0.12516227
0.04274172 0.00703242 -0.24634203 -0.12605694 -0.053215493 0.035362687 0.192259 0.043252856
-0.110183924 -0.02599093 -0.12452913 -0.12438632 0.17613265 0.45964646 0.20460491 -0.15015547
0.26357892 0.38030192 -0.28767645 0.24764977 -0.100045905 -0.024117356 -0.18334043 0.055204965
-0.14867218 -0.2688258 -0.4971723 0.026787475 0.026031006 0.06812642 -0.117283136 0.445387
-0.2443437 -0.029150994 0.56564623 -0.05850731 -0.06549942 0.057826508 0.47001725 0.1155908
-0.1260645 -0.04127477 -0.15848567 -0.23566313 0.092423305 -0.26293954 -0.30471817 0.010306013
0.0014091752 0.09246047 -0.020691553 -0.09603924 0.15734152 -0.080442235 -0.18514684 -0.045192566
0.1660181 -0.31489152 0.042483833 0.09311707 0.0026767526 -0.031695377 -0.035866134 -0.09285895
-0.10737448 -0.1084124 0.37764868 -0.038518157 0.035923176 -0.16365737 -0.06288185 0.09157824
-0.014890576 -0.07730241 -0.18641974 -0.07522825 -0.07976324 0.18741775 -0.37465975 -0.065391846
-0.0555369 0.12289967 -0.034349646 0.032812774 -0.026636202 -0.21415517 0.024823796 -0.041597117
-0.11169681 -0.021233175 0.15690243 -0.23685852 0.033292044 0.1052479 0.29725388 -0.015321044
0.06961981 0.17597383 0.2809176 -0.0907676 0.010968865 0.22981964 -0.12548734 0.030184919

linears.2.bias f4 [40]
00000000: ce45 26bd 52b8 6a3d 92a0 1b3d b5bc f7bc
00000010: 728e c33d f9ca 25bd cb45 5e3c 4426 eabc
00000020: cabe 92bd 26e7 4d3b 239e 18bd 681f 0d3d
00000030: 5151 02bd d39c b83d b4ad 003d 60fb cbbc
00000040: ba5e 24bc 2f25 3cbb eb69 9a3c 9a40 043c
00000050: 10c4 32bd 186b 11bd b498 0dbd b6ba 9f3d
00000060: c3e4 163d 85d1 60bc f595 4f3c cdfd 6bbd
00000070: 9a35 213d bac0 b0bc 74fc 8dbc 8ceb 153d
00000080: aa83 f13c 953d 343c 5ac7 e53c 2be9 6c3d
00000090: 522b 9fbc 56b5 b9bc 6449 ffbc e5e3 d4bc
-0.040593915 0.057304688 0.03799493 -0.03024135 0.09548654 -0.040476773 0.013566445 -0.0285827
-0.071652964 0.0031418293 -0.037260186 0.03445378 -0.03181583 0.09014287 0.031415656 -0.024900138
-0.01003235 -0.0028708687 0.018849334 0.008072043 -0.04364401 -0.035502523 -0.034569457 0.07799284
0.036839258 -0.013721828 0.01267003 -0.05761509 0.03935776 -0.021576274 -0.017332293 0.036601588
0.029481728 0.01100101 0.02804916 0.057839554 -0.019429836 -0.022669476 -0.031162925 -0.025987575

linears.3.weight f4 [40, 40]
00000000: 5b05 9a3e 8748 723d f539 6c3e 2a04 273d
00000010: 7839 b8be 7b9d d33c c3d6 833c 8081 cfbd
00000020: ba8f c4bd d297 fd3d b908 81bd 9833 803e
00000030: 2573 b1bc b774 d2bc c74e 83be 7e6b 973c
00000040: 6126 0e3d e50e e1bd a824 a13d 305a 5d3e
00000050: 7119 4abb dcc5 b3bd d821 1ebe 1298 813e
00000060: 3152 333d 56ae b33c a731 a03d 53e4 0d3e
00000070: 29f0 a6bd a374 93be c9c8 423d 3bbd 1a3d
00000080: 0388 243e 0d57 033e 0abc 1abe f579 70bd
00000090: 07f7 073e b389 95bd b02d 9cbd 59dc a03e
000000a0: 796d b4bd f5f9 d63d 76e6 5dbe 2500 aebd
000000b0: 65b7 3cbe 94e5 773e d94c 5a3c 3c76 19be
000000c0: 248a 373c b581 33bd 098d 05be b789 403e
000000d0: b796 14be 30c8 29bd 7ce3 40bd 6733 93be
000000e0: 522f 9bbe 9f92 613c 5d02 8bbd d5ea 663e
000000f0: ed38 c5bc 37fc 6dbe d4eb 4cbe 765f 923e
00000100: 04af 923d 01b3 013e 1573 b93e 5b30 2fbe
00000110: f8a8 293e 492b e33c 23cd 1fbe 6093 69bd
00000120: 03d9 4cbe 2887 32bc ba6b e2bb 8354 af3e
00000130: 1c8d 51bd db64 263d 7b49 44be c132 aebc
00000140: 1767 58bd a8bb aa3e 34f8 f33c 4914 8f3d
00000150: 3697 0a3e 2d95 43be e4c9 90be 96f9 583d
00000160: 90f0 bcbd ceac 00be 30e9 e03d 23ec a93e
00000170: 86b3 d3bd 8e7e 20be d582 ad3d 1518 ecbd
00000180: 092f 4e3d da5f ba3c f193 773e b31e 883c
00000190: 2ecf fcbd ca6b d23c 6974 88be b7b2 a8bc
000001a0: 6757 0d3e 6c61 4c3e 281c d83d 7cb1 4f3c
000001b0: c95b ee3d e8fd 98bd 7e00 213e 45d0 a33d
000001c0: 7d47 3f3e bc68 febd 8934 34be 5c2f 843e
000001d0: 14e9 3fbe c172 373d 977d 5bbd 5121 343e
000001e0: 8972 94bc 0026 ba3d a7d3 4d3e 81e0 22be
000001f0: aa56 8bbd 8942 7d3e 8057 053e 227c 9c3d
00000200: b6b2 93bd 743a c2bd 2b87 793b 86ad 703e
00000210: 0f47 523e 660d 89be b563 72be df15 fe3d
00000220: c28a 2cbe 71de 803d f267 8c3d 94c6 033e
00000230: 085d 68bd b2ab 81bd 0bbe bbbd 67c8 723c
00000240: 4b33 443e a5d3 af3b 94a3 7a3d 209d 24be
00000250: 7d9f 8bbe 0e2f a93d 0c7a 01be 1c05 7cbd
00000260: 63bf 4dbe 687f 43bd e9e2 afbe 6d72 4e3d
00000270: f462 323e 7b77 7b3d 0e7d 8fbe 575c 6fbe
00000280: 716a a0bd 4c68 b13d efa3 f0bb 9804 a2be
00000290: 6e74 ca3e af7f 00be 0787 61bd 1d51 a8be
000002a0: 59b8 3d3c d927 92bb 2d45 6cbe a43b 1cbd
000002b0: 010d dbbd 346c 363e 3d0b 3d3e ab15 193e
000002c0: 4ad5 0b3e d734 983d a541 b4bd fe90 1dbd
000002d0: cc20 063e 63aa a4be 8e88 22be 0043 84be
000002e0: 096d 2b3e 9f9c 6cbd 2318 a3bd 02ba 1dbf
000002f0: 2663 1b3d 593f 5c3d 46a6 20be 992f 793d
00000300: dc19 d3bd aae3 df3e 9dc2 a43d ad6d dc3d
00000310: f80d dfbd 4eb0 273e cf82 273e 6bcd 72be
00000320: 90e8 ad3d e730 893b 6780 9dbe 2166 053e
00000330: 0512 653c d187 e9bc bc64 6dbe 273d 3a3e
00000340: 7a08 b6bd d5fd 8dbe b013 d3bb cd2c c7bc
00000350: 92eb 193e ce10 7dbb 14c7 65bd 21e4 ddbd
00000360: c9db 213d 9ad8 8e3e 3c3b 98bb 2158 fa3d
00000370: 9205 00be 4157 783e f12d 4dbc a595 5f3c
00000380: da27 ffbd de0f 273d 4155 06bc d81b 653e
00000390: e2e9 64bd 220e 423d a104 9bbd f2d1 d63e
000003a0: ac78 bd3d a4dd 31bd d66f 0abe 62c3 ebbd
000003b0: 58ca 3b3d c973 01bd 75bb b5bc 920a bb3e
000003c0: d287 94be a9f7 b5be c8db 483e 0608 cf3e
000003d0: 6a77 6cbc 39f0 cebd bec4 043e 4625 7c3d
000003e0: 33fa 90be 872a 593b c424 ccbc 7c92 1abe
000003f0: b63a 873e d407 11be 6c8a 52bd 50f5 5dbd
0.3008221 0.0591512 0.23068984 0.040775456 -0.35981345 0.025831928 0.016093617 -0.10132122
-0.09597726 0.12382473 -0.06300492 0.25039363 -0.02166135 -0.02569042 -0.2564604 0.018483873
0.03470457 -0.10989169 0.0786832 0.21616435 -0.0030837918 -0.08777973 -0.15442598 0.25311333
0.043779556 0.021933716 0.078219704 0.1385663 -0.08151276 -0.28799924 0.047554765 0.03777812
0.1606751 0.12826176 -0.15110794 -0.058710057 0.13277827 -0.07301655 -0.07625902 0.31418112
-0.08809943 0.10496894 -0.21669945 -0.08496121 -0.18429334 0.24208671 0.013323986 -0.14986509
0.011202369 -0.04382487 -0.13042082 0.18802534 -0.14510618 -0.04145068 -0.047091946 -0.28750154
-0.3030954 0.013767867 -0.0678756 0.22550519 -0.024074996 -0.23240744 -0.20011836 0.28588456
0.07162288 0.12665941 0.36220613 -0.1710829 0.16568363 0.0277306 -0.15605597 -0.057025313
-0.20004658 -0.010896482 -0.0069098147 0.34244165 -0.051159963 0.040623527 -0.19168656 -0.021264436
-0.05283269 0.33346295 0.029781438 0.06986291 0.13534245 -0.19099875 -0.2827903 0.0529724
-0.09225571 -0.1256592 0.10981977 0.3318797 -0.10336976 -0.15673277 0.0847222 -0.11528031
0.050337825 0.022750784 0.24177529 0.016616201 -0.12344204 0.025686163 -0.26651314 -0.02059303
0.13802873 0.19959038 0.105522454 0.012676593 0.116386004 -0.07470304 0.15722844 0.07998709
0.18679614 -0.1242232 -0.17598166 0.25817382 -0.18741256 0.044787172 -0.05358657 0.17590834
-0.01812102 0.09089279 0.2010027 -0.15905954 -0.06803639 0.24732412 0.1302166 0.07640864
-0.07211821 -0.09483805 0.003807495 0.23503694 0.20534919 -0.26768035 -0.23670848 0.12406515
-0.16849807 0.06292427 0.068557635 0.1286872 -0.056729347 -0.063315764 -0.09167107 0.014818287
0.19160192 0.005365806 0.061191157 -0.16075563 -0.27270117 0.08260928 -0.12644213 -0.06152831
-0.2009254 -0.047728926 -0.34352806 0.050402094 0.1742056 0.061393242 -0.28025097 -0.23375069
-0.07832802 0.08662471 -0.007343761 -0.3164413 0.39541954 -0.12548707 -0.055060413 -0.32874385
0.011579596 -0.0044603166 -0.23073263 -0.038142815 -0.1069584 0.17814714 0.18461318 0.14949672
0.13655582 0.074319534 -0.08801583 -0.038468353 0.13098449 -0.32161245 -0.15872404 -0.25832367
0.16740812 -0.057766553 -0.07963588 -0.6161195 0.037936352 0.05377135 -0.15688428 0.06083641
-0.10307667 0.4372838 0.08044932 0.107631065 -0.10891336 0.16375849 0.16358493 -0.23711173
0.084916234 0.004186738 -0.30762026 0.1302724 0.013981347 -0.028507145 -0.23182958 0.1818739
-0.088883355 -0.2773272 -0.006441556 -0.024313355 0.15031269 -0.0038614753 -0.05609806 -0.10834528
0.039516244 0.2789963 -0.004645733 0.122238405 -0.12502125 0.24252035 -0.01252316 0.013646518
-0.12458773 0.040786617 -0.008199037 0.22373903 -0.05588711 0.04737676 -0.07569242 0.4195705
0.09251532 -0.043424264 -0.13519225 -0.11511876 0.045847267 -0.031604562 -0.022184113 0.36531502
-0.29009873 -0.35540512 0.1961509 0.4043581 -0.014432767 -0.101044126 0.12965676 0.061558984
-0.28315887 0.003313692 -0.024919875 -0.15094942 0.2641198 -0.14163142 -0.05140154 -0.054189026

linears.3.bias f4 [40]
00000000: 66ea 77bc 6436 993c 8492 c93c bc44 323c
00000010: 7c8e 343d a3f7 adbc a95d a9bc 9abf e53c
00000020: 55f1 28bd 8b34 10bd dd98 893c 3058 52bc
00000030: 2735 43bc 4df2 99bc 629f fd3c 6c0e 14bd
00000040: 67b0 583d 9cf0 d1bc 03f5 0fbd 4b92 67bd
00000050: a930 133d 75d9 e6bc 43a6 fbbb 176c 423d
00000060: 4d8c b5bc 6be9 073c 2195 95bb 2c2a 1b3c
00000070: 0ca8 fcbc d4c9 e43d 68dc 72bd 0c96 2ebd
00000080: 79a6 b0ba 5406 1c3d 1dcb c8bc 5ee2 863b
00000090: 7b8a a7bb a723 e13c 5dbe c0bc 5cb6 bcbc
-0.015131569 0.018702693 0.024605997 0.010880645 0.044081196 -0.021236246 -0.020674543 0.028045464
-0.041245777 -0.03520636 0.016796524 -0.012838408 -0.011914528 -0.018792296 0.030959789 -0.036146566
0.052902605 -0.025627427 -0.03514577 -0.056536 0.035935078 -0.028179863 -0.007679732 0.047466364
-0.022161627 0.008295397 -0.0045648967 0.009470504 -0.03084185 0.11171308 -0.059292227 -0.042623565
-0.0013477347 0.038091972 -0.024510914 0.0041163405 -0.0051129437 0.02748282 -0.023528272 -0.023036174

linears.4.weight f4 [40, 40]
00000000: ba71 41be 3b23 3a3e 8ff2 8cbe 7b6a 0bbd
00000010: d0e1 b23d bdf0 91bc 2f38 49be d70b fa3d
00000020: 0358 7abe 0534 88bc 82bc 3dbc 91ab bbbc
00000030: 65d0 273e dbc3 913e 8e4b 1bbe 3af8 3abd
00000040: b802 f3bd e7da 32be 6c65 833e a2df b0be
00000050: 0eb9 873d 225f d8bd 4a48 51bc ec68 41be
00000060: b59c c4bd ee61 c5bd 0edf afbd 95ad 06bd
00000070: 5f7f 323d 999d 833d 44e0 a8be e3b2 053d
00000080: 4de0 ab3e 2c7f 3a3e 38c3 853b 85aa 593d
00000090: a7d0 78be e98d 273e f1dd bcbe de78 403e
000000a0: 9553 173d cfc1 293e 299b 0cbd 711e 0dbe
000000b0: fe0a b7bd af8d 88be 2d78 d73d 0982 c63e
000000c0: 2d64 cdbd cb1d e4bd 75b8 ba3d b477 0d3e
000000d0: 43b0 1dbe 6e9c 1dbe 9360 c93d 5b16 14be
000000e0: 9529 4dbd 2618 23bd 7a38 453e 217f 393e
000000f0: 408c f53d b439 003c dd71 25be c520 363d
00000100: e26f 13be 78d2 7dbe b11d a63d f20c e73d
00000110: 9091 7d3d 7cb8 0e3e 31ae 08be ff25 cabc
00000120: 54cc 4d39 754b 43be 6d90 623d bd1c c23e
00000130: ccd0 163e 4925 f53c 294b eebc c99d a03e
00000140: a121 25be ccef 973d 75a0 943d 95ec f9bc
00000150: 8b8a 883e 45e1 22be 046b 893d bfa3 313e
00000160: cf5e 86bd 72c5 f73d 15a0 aa3e de67 cf3e
00000170: cef3 503e e998 013c cd66 53be 6d8d 4cbe
00000180: 90e0 31be e328 9d3d 3f7b cb3d 9433 40be
00000190: 730f d23b f4a4 d53d cf3f 183e 5034 9bbb
000001a0: 7f76 3f3d 05ba e2be 6e0e 7cbd 4083 ff3c
000001b0: 11f2 1fbf 5f1f 84be b5f4 9f3d f446 08be
000001c0: efbf 41be 5390 473d 72b1 5b3d 9ecd 3d3e
000001d0: f5a1 f03d d3fd e13d 3c1d bc3a 7e52 2e3d
000001e0: 207b 0f3d 2240 b5be 27fb 4ebe 3c09 e1bd
000001f0: 1adf c0b9 7419 a73e c224 9f3e 6e73 c8bd
00000200: f2a2 d9bd 3354 d1bd c9fa 1f3d ba2e 173e
00000210: 0e71 f73d e789 da3d a2ed cfbb 6301 64bd
00000220: 5135 b63d 7d50 bbbd c082 4e3e 44d8 a53c
00000230: c3d1 33bc cede 3f3e dce0 523e 45de e93c
00000240: bbc9 bc3d 5779 01be dab5 543e 3fb6 223e
00000250: d9b3 313e 9177 a7bd 2911 ac3d 6df4 b9bc
00000260: 52a6 8f3c a6a4 9cbc c3c8 0f3e 90f6 413e
00000270: f19a bdbd a058 a3be 765c 6f3e 52dd aa3d
00000280: b22f c43d c3a1 a13d 667b 553d aefe 7f3d
00000290: 3ece 003e 8852 29bd 2872 c2bd 8c91 7ebe
000002a0: 3144 f93d 42b9 fdbd 1079 80bd a3c3 34be
000002b0: d96f debd 6f6c 0ebe dcd9 b5bd d0ad b23e
000002c0: 7a2e 3b3e 3552 da3c d261 08be c9bb ebbc
000002d0: 4dca 0c3d 45e2 fcbc 4e89 42be 4b06 373d
000002e0: e071 3c3e 1609 313a 60f3 063e f422 b1bd
000002f0: e43e 54be b850 9f3d 8ea7 d53e 0ed4 e5bd
00000300: 1afb 2e3e 92e1 2c3d 919f ef3d a694 2c3e
00000310: b3a6 913e c09d c23c 3cc2 afbd df74 32be
00000320: 6d9c 153e 1138 2d3e 95ae 48bd 970e f83d
00000330: 7da0 b8be 5632 cf3d 1387 d439 0c89 85be
00000340: 76a8 efbd 7364 63bd b68d 11be 22ea d9bd
00000350: aae6 ecbd 5e7a bcbd 1c57 babd 1add 32be
00000360: d70e d4bd 199d 8d3d 472e 1e3e 7a7f 44be
00000370: d97b 213e aea8 d7bd 4bdb 9cbc 5c02 9dbe
00000380: 326d 94bd d6f9 b4bd 39bd 87be 6391 033d
00000390: 21a0 81be 4afa efbd 62c7 423d 712b 693e
000003a0: f2da 943d 0f60 ff3c f26d c53d 2170 513e
000003b0: 6b10 323e 5334 81bc 8e4a 0cbd 11b9 ae3d
000003c0: a100 c1bd 8799 9ebd ee54 81bd a28a 5c3c
000003d0: 8896 4cbe df5b c0bd cfaa 26be 2842 38be
000003e0: c2c9 82bd 0755 aa3a 616f 8ebe 3615 04be
000003f0: 08f4 60bd 294f 07be 4f80 b4bd 4489 34bc
-0.1889104 0.18177502 -0.27528808 -0.034037095 0.087344766 -0.017814988 -0.19650339 0.122092895
-0.24447636 -0.016626367 -0.011580588 -0.022908958 0.1638809 0.28469738 -0.1516554 -0.045646884
-0.11865753 -0.17466317 0.25663316 -0.34545618 0.06627093 -0.1056502 -0.012773583 -0.18887681
-0.09600202 -0.09637819 -0.08587466 -0.032880384 0.0435785 0.06426544 -0.329836 0.032641303
0.33569565 0.18212575 0.00408211 0.053141136 -0.24298345 0.16362728 -0.36888078 0.18796107
0.036944944 0.16577838 -0.03432766 -0.13781144 -0.089376435 -0.26670596 0.105209686 0.38771084
-0.10028873 -0.11138495 0.09117214 0.13815194 -0.1539927 -0.15391704 0.09832873 -0.14461653
-0.050088484 -0.03981795 0.19259825 0.18114902 0.11989641 0.0078262575 -0.16156717 0.044464845
-0.14398149 -0.24787319 0.08111132 0.11281766 0.061906397 0.13937563 -0.13347699 -0.024676321
0.00019626442 -0.19071753 0.055313516 0.3791255 0.14728087 0.029925006 -0.029088574 0.3137038
-0.1612611 0.074187845 0.07257167 -0.030508319 0.266682 -0.15906246 0.06709865 0.1734762
-0.06561052 0.120982066 0.33325258 0.40508932 0.20405504 0.007909992 -0.20644684 -0.19975825
-0.1737082 0.07673814 0.09935617 -0.18769675 0.006410533 0.10431853 0.14868091 -0.0047364607
0.046743866 -0.44282547 -0.0615372 0.031190515 -0.6247874 -0.25805184 0.07810346 -0.13308316
-0.18920873 0.048721623 0.053636022 0.18535468 0.11749641 0.11034741 0.0014351974 0.04255914
0.03502953 -0.35400492 -0.20212995 -0.109880894 -0.00036787317 0.32636607 0.3108273 -0.097876415
-0.106267825 -0.10221138 0.039057527 0.14763919 0.1208211 0.10670834 -0.0063454667 -0.055665385
0.08896888 -0.09146211 0.20167065 0.020244725 -0.010975304 0.18737337 0.2059359 0.02854837
0.092181645 -0.12643944 0.20772496 0.15889834 0.17353763 -0.08177102 0.084017105 -0.02269956
0.017535362 -0.01912148 0.14041428 0.18941712 -0.09258068 -0.31903553 0.23375115 0.08342995
0.0957941 0.07892182 0.052119635 0.06249874 0.12578675 -0.041338474 -0.0949443 -0.24860209
0.121712096 -0.12388851 -0.06273091 -0.17652754 -0.10861177 -0.13908552 -0.08879444 0.34898233
0.18279448 0.026650527 -0.13318565 -0.028776066 0.034372617 -0.030869612 -0.1899769 0.044683736
0.18402815 0.0006753368 0.13178778 -0.08649245 -0.20727116 0.07779068 0.41729397 -0.11222087
0.17087975 0.042207308 0.11700357 0.1685358 0.28447494 0.023756862 -0.08581969 -0.17427395
0.14610453 0.16915919 -0.04899462 0.12112158 -0.36059943 0.10117023 0.0004053643 -0.2608112
-0.11702053 -0.055515718 -0.14214215 -0.106403604 -0.11567433 -0.09203027 -0.09098646 -0.17467156
-0.10354393 0.069147296 0.15447341 -0.19189253 0.157699 -0.1053022 -0.019147536 -0.30665863
-0.0724739 -0.08836715 -0.26511553 0.032121073 -0.2531748 -0.11717661 0.047553428 0.22770478
0.07268323 0.031173734 0.09640111 0.2045293 0.17389075 -0.01577202 -0.03425079 0.08531392
-0.09423948 -0.07744127 -0.06315027 0.013460787 -0.19979298 -0.09392523 -0.16276096 -0.17993987
-0.063861385 0.0012995311 -0.2781935 -0.12898716 -0.054920226 -0.13213791 -0.088135354 -0.011019055

linears.4.bias f4 [40]
00000000: 2e39 543c 635f e23c 5dba 403d e327 92bc
00000010: 2c00 873c aaba 99bc 27dd cbbc b4ef a3bd
00000020: f7e5 9a3c c82d 123d de99 673d 5196 ccbc
00000030: 9acd e7bc 0dca dabc 6b4e 5e3d d6e7 dabc
00000040: 4d3e deba 4fb7 0a3d ab07 9dbc a5c7 073b
00000050: 4a60 c8bc 5a3d 963c 286f 573d 69cf 8abc
00000060: da05 c6bd 2ccb bfbc da35 c0bc c6ab 62bc
00000070: b4f7 05bd 1d2d 123c 5bab 23bd 4d9a 8b3c
00000080: e8f4 2b3c 24e1 aebc 005e 22bd b99e 433d
00000090: b393 f1bc 38b7 f4bc 9194 bd3c de9d 80ba
0.012953086 0.027633375 0.04705273 -0.017841285 0.016479574 -0.018765766 -0.024885727 -0.08004704
0.018908484 0.03568819 0.056543224 -0.02497402 -0.02829628 -0.026707673 0.054274004 -0.026721876
-0.0016955823 0.033866223 -0.019168695 0.0020718363 -0.024459977 0.018339802 0.05259624 -0.016944604
-0.09669085 -0.02341231 -0.023463178 -0.013834899 -0.03270693 0.008921889 -0.03995834 0.01704135
0.010495402 -0.02134759 -0.039640427 0.04775879 -0.029489374 -0.029872522 0.023142131 -0.0009812673

linears.5.weight f4 [40, 40]
00000000: 96ac 113d e6e5 2b3e f0e8 5ebd 2926 cb3d
00000010: 0ab7 6f3d e168 09be 1fbf 963d 8ff9 a03c
00000020: d38c a4bc 38d5 f93d 206d 0fbe 8393 f83d
00000030: 89a3 66bd a239 5fbd 699a 7c3e 35de 773e
00000040: c95e 12be 6e08 64ba 20e3 fe3d 16d8 6d3e
00000050: 11ef 5d3e c4ff bdbb 0b9c 733d d7ef 45bd
00000060: 33bb 063c bedf 033e aa23 89bd 8d36 833d
00000070: 560b 40be f585 8dbe 81f7 9c3d efa7 26bc
00000080: a2e8 abbd 8edc 933d 5dc2 c0bb c3b0 f3bd
00000090: 20b7 27be 5ceb bb3c 4153 103e 4a70 443e
000000a0: f28f 23be 811c 133d 8ddf 9abe 17ab 1d3e
000000b0: c6f2 eebd 4cac 3bbe 806c 0ebe 72a9 423e
000000c0: 34a4 c1bc 6e88 c13d 5c4a 8abd fcf7 5ebe
000000d0: b55f 9dbe 1307 edbe c175 5ebd ede7 b93e
000000e0: f146 1fbe e74d 09bd ec03 d23c fa01 04be
000000f0: b761 3ebe 5e2e 24bd e1cd 933e 7cf5 d33e
00000100: 333b df3e fd7e 0bbd ef3a 67be 3d3b a73d
00000110: 2f5d 0a3e 0199 45be 9d84 f1bd 75ac 413d
00000120: 4ba1 6bbe c08c db3d a446 b03e 2442 2dbe
00000130: 95b7 ac3d 8275 ab3d f120 2fbe dab8 6abd
00000140: 2b7e 103e 5681 8d3b 2d3d 0c3d c5f8 8cbe
00000150: e21b 5a3e a778 a0bc 07d6 383e d497 673d
00000160: 5e95 b1bd 041c a23e 0c52 2cbe 901c 5a3e
00000170: 5393 563d 542f da3d 1d85 cabc d49f 6c3d
00000180: 69ba 97be acda 863d 4f0a 073e ed0e 363e
00000190: 10ce ca3d c916 c1bd a9e9 3a3e 6952 febd
000001a0: d7ed 023d c79c 243d a95e 54be 0581 02bd
000001b0: 9fc2 403d c72b ebbd d168 bb3b 3b2f 793d
000001c0: cdd2 c43e ab5e 0cbe 597e fcbd 96da 1dbe
000001d0: 368a 24be a78f 33bd 5082 68bd c852 66be
000001e0: 8fa3 91bd cc51 06be 76b5 ac3e 9d81 713d
000001f0: 1892 9c3a 76bb 1a3d 6676 4839 8ae1 443e
00000200: 6799 15be dbb7 1b3e 1653 e43d 936e a93c
00000210: df26 b1b8 98aa fd3c 86b9 903e d048 5abe
00000220: 376d 8f3d 926b 713d e89c 233d 689d 46be
00000230: ad68 babd abe9 3d3e 81cf df3d 19dd f1bd
00000240: 6735 96bd 05ea c73a a619 703d 0bdc 893e
00000250: 0bd4 85bd f880 8e3e 1ca9 9ebe 35c2 71be
00000260: adb3 803e 1192 973d f904 453d 9381 173e
00000270: 803a 9f3d 7aed d23d 8c15 9fbd d645 123d
00000280: a76a 52bd a713 e1bd a2ff 8dbd acd0 40bb
00000290: b996 b1bc 7996 de3c 5f1c 2fbd 6852 99bd
000002a0: f5c2 83bd 5eb6 2cbe c58f 113e 9bf4 623e
000002b0: 073d e9bd 96fa 753e 364f c33d 1f41 973e
000002c0: 78af b33d f7cf 653d 5c6d 89be 2a36 3abd
000002d0: 85dd 57be 86de a0bd f8f9 0f3e d3d6 193e
000002e0: d94a 48bd e836 83bd 0ffa dc3e cf66 af3c
000002f0: 9e34 463d e621 6dbd cb40 98bd bb30 803c
00000300: 69b3 bc3e 28c7 58be eb50 e8bd 1c86 a6bd
00000310: ca51 20bd f266 423e 42d8 663d ef55 5f3e
00000320: aad9 b93b f1b3 883e 031c 933e 5eff e03b
00000330: c321 29be 74b4 b63d 80b7 f43d adbc c13d
00000340: 7794 753e 543b f83d e7f3 d23d d51c edbd
00000350: 37c7 05be 7f19 473e 3f77 95bd fdd2 c93a
00000360: ad77 73be a7f2 153e c94d b73d 4425 4dbe
00000370: 8ebe 8e3d 589d 763c 37be 983d 42ca 16be
00000380: a370 853d d183 ecbc afe8 ee3c 1f63 e8bc
00000390: ae11 afbd 8816 96bd e3a7 813d 7887 b03c
000003a0: 2e18 273e c84d c23d ada6 26be 693c 8f3c
000003b0: 33d6 11be fba9 0fbd b080 8ebe b9c3 6f3c
000003c0: 0073 d63e 34f2 b5bd 203b 2e3e 24cf 6bbe
000003d0: 5c4e f53d 5742 adbe 4c74 ca3d 511b 523e
000003e0: 523f c73e 379c 4c3e 1863 c9bd 8cd9 83bc
000003f0: de0d 7bbe ba77 a4be 3f3f 9a3d 7fcb 59be
0.03556498 0.16786918 -0.054421365 0.09919388 0.05852417 -0.13418914 0.07360672 0.019650249
-0.020086681 0.121988714 -0.14006472 0.12137511 -0.056308303 -0.054498322 0.24668278 0.24205859
-0.1429397 -0.0008698766 0.124456644 0.23226961 0.21673228 -0.005798312 0.059474986 -0.048324432
0.008223343 0.1287832 -0.066962555 0.06406889 -0.18754324 -0.27641264 0.07664395 -0.010171874
-0.083939806 0.07219802 -0.005882545 -0.11898949 -0.1637845 0.022939377 0.14094259 0.1918346
-0.1597288 0.035915855 -0.3024868 0.15397297 -0.11667399 -0.18327445 -0.13908577 0.19009951
-0.023637868 0.0944985 -0.06752464 -0.21774286 -0.3073708 -0.4629446 -0.054311518 0.36309758
-0.15554406 -0.03352156 0.025636636 -0.12891379 -0.18591963 -0.04008328 0.2886801 0.41398227
0.43599853 -0.034056652 -0.22581075 0.08165596 0.13512109 -0.19296648 -0.11792872 0.04728361
-0.23010747 0.10720205 0.34428895 -0.16919762 0.08433453 0.08372022 -0.1710241 -0.057305194
0.1411063 0.0043183966 0.03423803 -0.27533546 0.21299699 -0.019588782 0.18050395 0.05654128
-0.08671068 0.31662 -0.16828173 0.21299958 0.052386593 0.106535584 -0.024721676 0.05776961
-0.29634407 0.06584677 0.13187526 0.17779131 0.099025846 -0.09428174 0.18253197 -0.12418062
0.031965103 0.040188577 -0.20739235 -0.031861324 0.047060605 -0.11482959 0.005719282 0.060836058
0.38442078 -0.13707988 -0.123287864 -0.15415415 -0.16068348 -0.04383817 -0.0567649 -0.22492516
-0.071112745 -0.1311714 0.33732194 0.0589615 0.0011945395 0.037776433 0.00019117593 0.19226661
-0.146093 0.15206854 0.1114866 0.020682609 -8.447258e-05 0.030965135 0.28266543 -0.21316838
0.07003253 0.058940478 0.03994456 -0.19395983 -0.091019966 0.18546169 0.1092825 -0.11809749
-0.073344044 0.0015252238 0.05861821 0.26925692 -0.065345846 0.2783277 -0.30988395 -0.2360924
0.25137082 0.07400907 0.048100445 0.14795522 0.0777483 0.10299201 -0.077677816 0.035711132
-0.051371243 -0.109900765 -0.06933524 -0.0029421253 -0.021678315 0.02717136 -0.042751666 -0.07486421
-0.064336695 -0.16866443 0.14215 0.22163622 -0.11388593 0.24021372 0.09536593 0.2954187
0.087737024 0.056106534 -0.26841247 -0.04546181 -0.21080597 -0.07854943 0.140602 0.15023355
-0.048899505 -0.06406957 0.4315953 0.021411328 0.048390023 -0.057893656 -0.07434233 0.015648236
0.3685563 -0.21169722 -0.11343559 -0.08131048 -0.0391405 0.18984583 0.056358583 0.21810125
0.0056716995 0.26699784 0.2873231 0.0068663796 -0.16516785 0.089211375 0.11949062 0.09459815
0.23982416 0.12120691 0.10300427 -0.11577765 -0.13064276 0.1944332 -0.07298135 0.0015397962
-0.23776121 0.14643346 0.08950383 -0.20033747 0.06969939 0.015052162 0.074581556 -0.14725593
0.065156244 -0.028871449 0.029163687 -0.028367577 -0.08548294 -0.07328516 0.0633085 0.021548972
0.16317818 0.09487492 -0.1627452 0.01748486 -0.14241867 -0.035074215 -0.27832556 0.014634066
0.41884613 -0.08884087 0.17014742 -0.23028237 0.119778365 -0.33839676 0.09885463 0.20518233
0.38915497 0.19981466 -0.09833354 -0.016094945 -0.24517009 -0.32122594 0.075315945 -0.21269034

linears.5.bias f4 [40]
00000000: a0f0 393d df2e 4cbd 3666 0b3d 09f5 bfbb
00000010: 7669 9a3b 71ee 843c 913e 273d de25 12bd
00000020: 3433 17bd e74b 163d 2c0e 553c a889 bfbc
00000030: 5dad a23c 7142 683c 9d0c b03c ebf1 1fbd
00000040: 764c 1fbd 5354 61bd ee2f b3bd 1962 75bd
00000050: a092 b63c 68fe 573d 08a4 bf3c 18ab 773d
00000060: b5dc 32bc b266 d83c 78d9 d1bc 8971 b43c
00000070: 6656 4c3b f64b b2bc 6fa6 4e3b e0ba d9bc
00000080: 978a 18bd 43f7 1ebd cbcc 14bc ac0b aa3c
00000090: 00bb 26bd e922 adbc e864 8a3c 3212 92bc
0.045395494 -0.049849387 0.034033023 -0.005858068 0.004712279 0.016226979 0.040831152 -0.035680644
-0.036914065 0.03669348 0.013003867 -0.02338107 0.019858057 0.014175997 0.02149039 -0.03904907
-0.03889128 -0.05501206 -0.08749376 -0.059908006 0.022286713 0.052732855 0.023393646 0.060465902
-0.0109168785 0.026416156 -0.025616392 0.022026794 0.0031179427 -0.021764737 0.0031532308 -0.026578367
-0.037241545 -0.038810026 -0.00908203 0.020757519 -0.04070568 -0.02113481 0.016893819 -0.017830942

linears.6.weight f4 [1, 40]
00000000: c1b2 c9be fc99 523e 085a adbd 3d18 903e
00000010: 9eb0 11ba b3dc bebe c232 3fbe 8802 bd3e
00000020: 76c8 393e 884d a7bd a46f 65be 55b6 1c3d
00000030: 4887 37be 199b d3bd 71c4 f1bd 214e 3a3e
00000040: 3291 2a3f 2309 513e e4d3 9d3c b78d 753e
00000050: 1794 0abe 3b5b 80bd 01bc 6fbe 84c0 41bc
00000060: 5c66 493e 5e91 81be c33c 333e ab95 c0be
00000070: 3127 67bd 11c2 1b3d bd56 ee3c 4fdf a03e
00000080: df11 833e 3451 1a3e f8e1 83bc 2237 b6be
00000090: f93c de3d 6020 263f c6f9 a7be 7c53 143f
-0.3939419 0.20566553 -0.08464438 0.28143492 -0.0005557629 -0.37277755 -0.18671706 0.36915994
0.18142876 -0.08169085 -0.22405869 0.038259823 -0.179227 -0.10332317 -0.11805046 0.18193866
0.666278 0.20413642 0.019266076 0.23979841 -0.13533054 -0.06267401 -0.23411562 -0.011825684
0.19667953 -0.2530622 0.17503648 -0.37614188 -0.05643386 0.038026873 0.029094094 0.3142037
0.25599572 0.15070039 -0.016098961 -0.35588938 0.10851473 0.6489315 -0.3280775 0.5793989

exp_avg f4 [40, 2]
00000000: 2c1d a53a 2142 6f3a 25c7 47ba cf0c b538
00000010: 9b36 2e3b 72a9 4d3a 0580 74b8 dcbf 9fb8
00000020: d1f1 7b3a 1988 203a dded 073a 6acd 80b8
00000030: a0d2 30ba 7e43 d4b9 8eaa 73ba 2c04 a038
00000040: c8cf 953a c089 9338 bff3 30bb 442b 1fba
00000050: dc17 23ba 4242 beb9 555d 03bb b347 2dba
00000060: 594f f93a beb8 f739 f90c 6a3a 26b6 d339
00000070: 5b5a c8b8 6939 7639 0cae 94ba 510d 58b9
00000080: 8097 d9ba af0e 41b8 44d1 173b 5d73 fc39
00000090: d6b2 973a 6513 a839 9d75 c9ba 20c2 d7b9
000000a0: eb1c 8b3a 8f25 2837 1f4c 2dba 76c1 83b9
000000b0: 49a8 c239 74de 033a 7f45 2f3a 9ddd 6839
000000c0: 186a d0b9 244a f339 de38 b6ba 70b3 0db9
000000d0: 7b4f 2ebb f2e2 4dba 4e2e ff3a 9262 0e3a
000000e0: 799a 97b8 7b02 7639 e52a c238 2f8e c239
000000f0: a7d2 cbba 8e3c 27ba ec22 f73a bd37 513a
00000100: 66a8 8dba b0de 18ba 7646 bcb8 4759 b839
00000110: c8ca 883a a625 be39 4c1d 333a 2154 b3b7
00000120: 7693 af38 8f58 3a3a 784d 5c39 b082 91b9
00000130: 2192 2fba 0716 06b9 f3d1 193a 48a2 f038
0.0012597195 0.00091269804 -0.00076209224 8.633138e-05 0.002658284 0.0007845379 -5.829336e-05 -7.6174474e-05
0.00096109236 0.0006123796 0.00051852857 -6.141777e-05 -0.0006745253 -0.00040486077 -0.0009295129 7.6301716e-05
0.0011429721 7.035164e-05 -0.0027000753 -0.0006071816 -0.0006221512 -0.0003628899 -0.0020044644 -0.000661011
0.001902084 0.00047249155 0.00089283247 0.00040380767 -9.553573e-05 0.00023481775 -0.0011343374 -0.00020604326
-0.0016600937 -4.602846e-05 0.0023165504 0.00048151138 0.0011573683 0.00032057907 -0.0015370134 -0.0004115263
0.0010613477 1.0022325e-05 -0.0006610769 -0.00025130407 0.00037127946 0.00050304015 0.0006686076 0.00022207802
-0.00039751898 0.0004640381 -0.0013902446 -0.00013513654 -0.0026597667 -0.0007853947 0.0019468756 0.0005431558
-7.229014e-05 0.00023461312 9.2586306e-05 0.00037108499 -0.001555045 -0.0006379568 0.0018855012 0.0007981023
-0.0010807633 -0.0005831523 -8.977663e-05 0.00035161732 0.001043641 0.00036267674 0.00068326737 -2.1377638e-05
8.372117e-05 0.0007108533 0.00021009694 -0.00027753925 -0.0006697495 -0.00012787442 0.00058677717 0.00011474319

exp_avg_sq f4 [40, 2]
00000000: d9d5 a03a bd94 423a be55 c839 95a9 6f37
00000010: 2088 ae3b 936d 0c3a 3834 9036 993f 9336
00000020: ea0b 3e3a c62c aa39 c7a2 4f39 ccd0 7a36
00000030: 8b50 ad39 b3b2 0f39 b3cc 203a c5ca 0537
00000040: 21ac 753a 8aa5 be36 c6db b03b a5d0 a439
00000050: ecc3 9b39 538b eb38 5cb4 443b 1c07 ba39
00000060: aedb 2b3b 1a98 3b39 2ce0 233a aa5f 0e39
00000070: c431 8436 fc22 5738 8168 6d3a 9771 1238
00000080: 7ed2 033b 889b 6436 2ecc 793b 7883 1f39
00000090: 045f 7f3a fa24 b838 4c46 e63a e4e0 1039
000000a0: 2a9a 4f3a 22cd c635 c612 a039 95d3 4938
000000b0: 4254 ed38 6e6d 5a39 9931 ab39 6405 3038
000000c0: 8929 c538 2470 5f39 22e1 b73a bb62 8337
000000d0: 1d47 b03b bc3d 0b3a 18e5 2f3b a391 6139
000000e0: 4a47 0936 447f 8238 c21c 4037 6410 0839
000000f0: 2cc2 e83a 3557 b839 8149 363b 5b26 133a
00000100: 2eeb 773a d7fd a439 4a51 8036 1fd0 db38
00000110: 9008 4a3a 0d79 d538 7b8f b739 f7c2 1135
00000120: 1293 4837 5d28 ee39 3c50 f737 488b 9838
00000130: f36e b739 b685 b137 64c5 8939 a32a 2537
0.0012270763 0.00074226764 0.00038210856 1.4284994e-05 0.005326286 0.0005356904 4.2976135e-06 4.388345e-06
0.00072497 0.00032458286 0.00019801698 3.7374439e-06 0.0003305714 0.00013704113 0.0006134018 7.974629e-06
0.00093716575 5.6817125e-06 0.005397293 0.0003143597 0.00029709877 0.000112316244 0.003001473 0.00035481981
0.0026223469 0.00017890372 0.0006251361 0.00013577813 3.9397e-06 5.1292576e-05 0.0009056405 3.49149e-05
0.0020114477 3.4065179e-06 0.0038116085 0.00015212398 0.00097416365 8.780691e-05 0.0017568558 0.00013816688
0.00079193956 1.4811851e-06 0.00030531565 4.8119186e-05 0.00011316735 0.00020830866 0.00032652615 4.196669e-05
9.4014285e-05 0.00021308713 0.0014028887 1.5662392e-05 0.005379571 0.00053116283 0.0026839431 0.00021511926
2.0456087e-06 6.222588e-05 1.14507875e-05 0.00012976077 0.0017758063 0.0003516019 0.0027814808 0.00056133204
0.0009457347 0.00031469643 3.8241606e-06 0.00010481499 0.00077069644 0.00010179179 0.0003501138 5.430042e-07
1.1955171e-05 0.0004542497 2.9482057e-05 7.273868e-05 0.00034987144 2.1162308e-05 0.00026277744 9.8446935e-06

exp_avg f4 [40]
00000000: d534 233b 4656 7b39 4c9d 0b3b 1b15 feb8
00000010: 9520 d93a 7c74 48b9 35bf 97ba 594b 8e39
00000020: ea3a 2b39 2224 dcba c655 8cba 7e70 dfba
00000030: f191 ae3a ab2e 883a ed50 1e3a a851 10ba
00000040: 2933 8bb8 26bc a33a a188 683a 8589 90ba
00000050: 8f48 06b6 a235 37ba 1d43 b23a 2b0a 173a
00000060: 8a22 b13a ff6d b0b9 76f4 08bb 0702 c83a
00000070: 7926 323a 33ed 893a 8ade f0ba 4c00 073b
00000080: 6c42 caba 2da8 7a3a 18c7 853a dca6 0ab9
00000090: 4bac ed3a 4251 45ba 3e90 c7b9 62de 9b39
0.0024903317 0.00023969365 0.0021303473 -0.00012115595 0.0016565496 -0.0001911688 -0.001157737 0.0002714049
0.00016329778 -0.0016795436 -0.0010706715 -0.0017047075 0.001331864 0.0010389885 0.00060392806 -0.0005505332
-6.637566e-05 0.0012491986 0.0008870457 -0.0011027312 -2.000979e-06 -0.0006988888 0.0013600324 0.0005761708
0.0013514322 -0.0003365129 -0.0020897663 0.0015259393 0.0006795894 0.0010522961 -0.0018376869 0.0020599542
-0.0015431172 0.00095618033 0.0010206429 -0.00013222866 0.0018133012 -0.0007527062 -0.00038063707 0.00029729592

exp_avg_sq f4 [40]
00000000: a71c 8d3b 5459 8538 0a7f 493b ef06 2737
00000010: 9c13 fd3a d0c3 f137 3588 683a c338 8538
00000020: 47b5 9137 529c f93a 6e38 503a e078 fd3a
00000030: c7c8 943a d48a 4e3a 67ff 9039 7584 3e39
00000040: 65e9 0e37 372f 7d3a 3815 0a3a 2e3e 533a
00000050: 389e a636 bf7a ab39 8323 a23a 246e 6139
00000060: 3ad5 b03a cbfe 9738 d4fb 453b fc0f bd3a
00000070: c212 be39 32e2 523a f59f 103b be29 493b
00000080: f7f5 e53a e57f 283a 9c8b 343a e560 5137
00000090: 6e7b 1d3b 635c e039 b0b7 0a39 d22f 9638
0.004306394 6.358573e-05 0.0030745887 9.95559e-06 0.0019308212 2.8820621e-05 0.0008870394 6.352507e-05
1.736976e-05 0.001904378 0.0007942979 0.0019338392 0.001135134 0.00078789634 0.0002765611 0.00018169156
8.518201e-06 0.00096582196 0.0005267444 0.0008058277 4.9656046e-06 0.00032707115 0.0012370202 0.00021498703
0.0013491281 7.2477e-05 0.0030209916 0.0014424319 0.000362536 0.000804457 0.0022067998 0.0030695046
0.0017544617 0.0006427749 0.00068872585 1.2479931e-05 0.0024029869 0.00042793443 0.00013229134 7.1614646e-05
