pdebench/models/newly_trained_models/Advection/PINN/1D_Advection_Sols_beta4.0_PINN.pt-10000.pt (torch, 119037 bytes, 39 tensors)

linears.0.weight f4 [40, 2]
00000000: 5d50 df3e 5b4e 2ebd c578 5d3d de92 143f
00000010: 4784 98bd e5ca 833e 0556 0dbd 8cb6 b53e
00000020: 19bb c93b 554b dfbd e8eb d2be 3ddd 4b3c
00000030: e819 853b 74c9 dbbd c013 3dbe f7c5 fcbd
00000040: 99c1 0d3e 5fd3 273e 17ad 98be 8959 60be
00000050: 1d7b 31be ab2a 2c3e 084d 40be 9462 073d
00000060: dd99 b53e 98a4 ffbc afec 893d a57a ee3c
00000070: fb53 853e 9a61 0fbe 2357 9ebe 78f2 993d
00000080: 362c cebe e0ba 373d 54b1 a13d 5c07 f83e
00000090: 8b0a 033e 31ee a33e aa91 2dbe 7382 c8bd
000000a0: da6e 343d 9946 eabd 0d4d 003e 87ad 373e
000000b0: 3836 4b3e a044 babe eb9e 4ebe cd7a 963e
000000c0: 6a59 2cbe 6f00 203c f931 cf3d b686 b6be
000000d0: 8825 54be ac56 ccbd 0cae 8c3e cba8 05be
000000e0: 7a9f 70be f184 44bd 2a2a 05bd 16f7 973e
000000f0: 9591 aa3d c456 0c3d eb01 89be e4ae 833e
00000100: 55f3 153e 01fa 92be 97e4 ec3e f6ab 2bbd
00000110: c7f9 393e 384b 863e ad57 203e ea72 563e
00000120: 6666 853d 730c 353e 28f5 29be f862 afbd
00000130: a62f 6d3c 717f 223e d8eb db3e 7b32 773e
0.43616 -0.042555194 0.054070253 0.580366 -0.07447105 0.25740734 -0.034505863 0.35490835
0.006156337 -0.1090304 -0.41195607 0.012442884 0.004061926 -0.107317835 -0.18464565 -0.12342446
0.13843383 0.16389225 -0.29819557 -0.21909155 -0.1733212 0.16813152 -0.18779385 0.033052996
0.3546895 -0.031206414 0.06734597 0.029111216 0.26040635 -0.14002076 -0.30925855 0.0751695
-0.40268105 0.044855952 0.07895151 0.48443115 0.1279699 0.32017663 -0.16950098 -0.09790506
0.04405103 -0.11439247 0.12529393 0.17937289 0.19844902 -0.36380482 -0.2017781 0.29390565
-0.16830984 0.009765728 0.101169534 -0.3564965 -0.20717442 -0.09977469 0.27476537 -0.1305267
-0.23498335 -0.047978345 -0.032510914 0.296807 0.08328549 0.034262434 -0.26759276 0.25719368
0.14643605 -0.28706363 0.4626815 -0.04191204 0.18161689 0.26229262 0.15658446 0.20942274
0.065136716 0.1768053 -0.16597426 -0.08563799 0.014476692 0.15868928 0.42953372 0.2414035

linears.0.bias f4 [40]
00000000: 4328 d93c cd54 40bd 1079 863d c826 3a3d
00000010: 81b5 063d 83f1 993d 5450 8a3d 9376 623d
00000020: c018 6c3d 54c2 d3bc f757 453c 6185 60bd
00000030: f4f6 ebbd 7dc3 b73d 8311 68bd 3030 80bd
00000040: 632d f0bc 7927 493d 100d 36bc d96a 693c
00000050: 7d23 0ebd df7b 18bd 862d ac3d 6d0f 60bd
00000060: 0e4c a0ba 47e7 893d ad0b d13b 1094 89bd
00000070: 0722 a33d e9c0 683d 3689 81bd 07d5 0fbc
00000080: 9976 8b3d aad8 1fbd 9424 d0bd 1c93 c03d
00000090: 2881 98bd d4fc 84bd e6d5 bb3d 6ed2 b4bd
0.026508456 -0.046955872 0.065660596 0.04544714 0.03288794 0.07516768 0.067536026 0.055288862
0.05764079 -0.025849499 0.012044898 -0.0548147 -0.11521712 0.08972833 -0.056657325 -0.06259191
-0.029318517 0.04910991 -0.011111513 0.014246666 -0.034701813 -0.037227508 0.084071204 -0.05470221
-0.0012229697 0.06733566 0.0063795657 -0.06717694 0.079654746 0.0568246 -0.06324999 -0.008778817
0.0680973 -0.039024986 -0.10163227 0.09403059 -0.074465096 -0.06493536 0.09171657 -0.08829199

linears.1.weight f4 [40, 40]
00000000: d48f b9bd d794 a53d 4082 92bd b731 49bd
00000010: 468b 21bd 1f8b 0ebe 1b52 3b3d ed12 2a3e
00000020: 4a43 44bc 555d adbd d512 1e3e 5d70 19be
00000030: 7a2d f63c b72f 88be 2a74 de3e 4ce4 4ebe
00000040: f9c3 69be 2355 a33d ca48 9a3d e230 25be
00000050: 162a 09be 4d97 d6bd a379 44be 486c 50be
00000060: bc58 26be f774 1bbe 2bd7 26be 7f91 003e
00000070: ca7d 0cbd f51c 253e c7e4 da3d 25d6 dd3d
00000080: d761 5a3e 6adf 2e3e 42c7 313e f118 febd
00000090: 4277 4cbe 5a31 913e ddec f4be a0f0 ac3e
000000a0: 68e9 d1be 03b6 8dbd 3d6e 683d bb51 9e3c
000000b0: 5a09 28bd 411b 913e afee 4bbe 27c2 7d3e
000000c0: 42f9 41bd c1c0 f9bd d2e1 183e d00f f03d
000000d0: 9416 14be 9add 43be b633 83be 44a8 143f
000000e0: 2116 8e3e f611 98be 53e8 75be 13ab e23e
000000f0: 1fd6 643d 0d76 ec3d 4ae3 39be a773 f33d
00000100: 0cde f73e bb2e 44be c6ac 803d 19ec bebe
00000110: c113 2bbe bec1 c83d 5b10 843d d035 393e
00000120: 7691 debe e18e 26be 13ee 60bc dc6c 25be
00000130: 73b6 3ebd bf01 873e 6733 c2be 97fe 82bd
00000140: 8f93 29be 8d8a fc3d 468b b33d ff2e 453e
00000150: fdfe 173e 2c9f a53d 4912 8e3d 982c 55be
00000160: 228a c9bc 5229 813e 7962 2f3e 74b5 cdbd
00000170: 7e0e cdbe c943 f73c 99af 14be 4c21 51bd
00000180: e4d7 82bd d7e0 70be 2fbc adbe 6e99 87bd
00000190: bd38 6d3d 47a0 053e 2314 323d 2abc 0bbd
000001a0: 17e6 823e 2d90 e43b 053d 49be 4429 ee3d
000001b0: 57eb 8ebc 7b46 473e 0699 c43e f736 2b3e
000001c0: 1297 00be c029 f13e 869c 7abe bace 41be
000001d0: 49a6 e4bd 2fa2 b43d f716 723d 5613 97bd
000001e0: 0cfa ebbd 5e04 febd b8bf d63d 9938 7e3e
000001f0: ea95 063e 34e4 f33d fc8f 363e cf60 78be
00000200: a983 213e 2c95 eabd e5bc 5fbe 0feb b73c
00000210: e1aa 34bd 0811 04be f1c8 ed3d b13b 2bbe
00000220: 9c58 88be 5682 7e3e 6247 0e3e cbc2 a13d
00000230: 771c 613e 9f50 31bc 2d88 7cbd 313d a9bd
00000240: 354c 11be 44f9 cf3c 0c3f 75be be57 ff3e
00000250: 7119 02be 2ba2 973d d6ca f5bd 9f3e bd3e
00000260: e39d ccbd 268c 393e c326 523d b9ef 6fbe
00000270: 3ffb 4bbe 155f 0f3e 9e4e 1cbe b1ef 2a3d
00000280: dab9 6e3e 0aa8 aebd be08 e13b ca23 82be
00000290: dc88 aabd 2507 0fbe 6e6c 663d eb17 783e
000002a0: 991f 2d3c 6cd4 233e 8c61 69be fcf4 3fbd
000002b0: 2ec0 5f3e 89c7 77bc e1e0 74be 95f0 953e
000002c0: 0117 b6bd 9ed4 70be 1766 3dbd 538d 313d
000002d0: 211d 833e 7312 f0bd 765f ab3c a90e de3d
000002e0: 464a 1f3e 3531 8e3e c14f 36be fb56 06bc
000002f0: 5fcd 6d38 45e6 b73c 6490 17be df20 f0be
00000300: ead1 64be ec49 6e3e 9d31 33be 6238 c73d
00000310: fbef 4ebe 9da0 8e3e b2c0 ecbb f50f 8e3d
00000320: 47b4 4f3d 1afa 3b3d c284 ce3d eb08 c2bd
00000330: c1fa 8c3a 81db 243b bd32 0a3e a018 92be
00000340: e46d 09bd 4459 f33d 3c9f 533d 0852 c5bd
00000350: 239d 07be 36c2 36be a5f7 a93e b99b 51be
00000360: 55df 78be 1de7 eebd cbae bf3d 71c6 75be
00000370: 3af7 d3bd 9a03 3cbe eef1 293e 256e e13d
00000380: e753 fcbd 26e4 4bbd d166 0d3e c7a7 6b3e
00000390: 3070 59be 2e88 74be 330a 603d 846d 10be
000003a0: 7e95 1cbe 3a90 2a3e 9f25 78bd 1aad 4d3e
000003b0: a31d c43d 993b fb3b b25d ac3e c117 bfbd
000003c0: 97db ab3d eb96 acbe 8cdc 76ba 6a64 a4bd
000003d0: b07b 4c3e b877 0fbe edb4 6a3e db88 7f3d
000003e0: 5dbb cdbd 693d 293e c22d 35be 4ad1 09be
000003f0: 899c 9d3d 4103 30be 1c81 16bd aa51 983d
-0.09060636 0.080850296 -0.071537495 -0.049119677 -0.039439462 -0.13920258 0.0457326 0.16608782
-0.011978934 -0.08465067 0.15436871 -0.1498427 0.030050982 -0.26598904 0.43448 -0.20204276
-0.22828664 0.07975223 0.07533415 -0.16131929 -0.13394961 -0.10478077 -0.19187026 -0.20353806
-0.16244787 -0.15181337 -0.16293018 0.12555502 -0.03429965 0.16124327 0.10688167 0.108318605
0.21326385 0.17077413 0.17361167 -0.12407101 -0.19967368 0.28357965 -0.47836962 0.33777332
-0.40998387 -0.069194816 0.056745756 0.019326081 -0.041024543 0.28341106 -0.1991527 0.24781094
-0.04735685 -0.12194968 0.14929894 0.11721766 -0.14461738 -0.19127503 -0.2562539 0.5806925
0.27751258 -0.29701203 -0.24014406 0.44271144 0.055868264 0.11545954 -0.1815311 0.11887293
0.48411596 -0.19158451 0.06282954 -0.37289503 -0.16706754 0.098025784 0.06448432 0.18086934
-0.43470353 -0.16265441 -0.013728636 -0.16154808 -0.046560716 0.2636852 -0.37929842 -0.063962154
-0.16560195 0.12331114 0.08766799 0.19256209 0.14843364 0.08087 0.06937081 -0.20817792
-0.024602 0.25226837 0.17127408 -0.10044375 -0.4005012 0.03018369 -0.1452011 -0.051057145
-0.06388834 -0.2352327 -0.33932635 -0.06621061 0.057915438 0.13049422 0.043476235 -0.034114994
0.2556617 0.006975195 -0.19652183 0.116289645 -0.017446203 0.1946048 0.38397998 0.16720186
-0.12557629 0.47102165 -0.24473771 -0.18926516 -0.11164529 0.088199966 0.059103932 -0.07376735
-0.11522302 -0.12403177 0.10485786 0.24826278 0.13143125 0.11908761 0.17828363 -0.2425568
0.1577288 -0.114542335 -0.21849401 0.022450952 -0.044108275 -0.12897122 0.11610592 -0.16721989
-0.26630104 0.24854407 0.13894418 0.07898482 0.21983515 -0.010822444 -0.061653305 -0.082636245
-0.14189227 0.025387414 -0.23949832 0.4987163 -0.12705018 0.07403978 -0.120015785 0.3696184
-0.09991052 0.18119869 0.051306497 -0.2343129 -0.19920062 0.14001115 -0.15264365 0.041732494
0.23313084 -0.08528145 0.006867497 -0.2541793 -0.08326885 -0.13967569 0.05625575 0.24227874
0.0105666155 0.15999001 -0.22791117 -0.046864495 0.21850654 -0.0151232565 -0.2391391 0.29285112
-0.088911064 -0.23518607 -0.04623994 0.043347668 0.2560816 -0.11722269 0.020919543 0.1084264
0.15555677 0.27771917 -0.17803861 -0.008199449 5.669647e-05 0.022448668 -0.14801174 -0.4690008
-0.22345701 0.23270386 -0.17499395 0.09727551 -0.20208733 0.27856913 -0.0072251195 0.06936637
0.050709035 0.045892812 0.10083915 -0.09474357 0.0010755883 0.0025155249 0.13495918 -0.28534412
-0.033552065 0.118822604 0.05166553 -0.09634787 -0.13243537 -0.17847523 0.3319675 -0.2046956
-0.24303944 -0.11665175 0.09359511 -0.2400148 -0.10349889 -0.18360749 0.16596195 0.110073365
-0.123206906 -0.049778126 0.13808753 0.2301322 -0.21234202 -0.23880073 0.054697227 -0.14104277
-0.15291402 0.1665658 -0.060582753 0.20085564 0.09575965 0.0076670167 0.33665234 -0.093307026
0.08391493 -0.3370889 -0.00094170193 -0.08026965 0.19969058 -0.14010513 0.2292058 0.062386375
-0.10045502 0.16527332 -0.17693236 -0.13458744 0.07695872 -0.17188741 -0.036744222 0.07437451

linears.1.bias f4 [40]
00000000: 8c9d d0bd 2cf1 a5bd 7eb8 863d fe61 583d
00000010: 53da a5bc 5de1 b4bb 35d1 4a3d a6ca 42bd
00000020: 40ac 3bbd 99f9 533d 830c 8ebc d664 ed3c
00000030: f405 f2bb 677c ff3d b273 9e3d ef98 9d3d
00000040: 3ba3 65bd b402 4c3d 13cd f03c 4871 8ebc
00000050: 5f53 56bd c867 01bd b9a1 f93c 87a3 343d
00000060: 11c8 96bc 726c 913d c8da 3c3d 3dff f8bd
00000070: 600f 003d 6ba1 453d b302 ee3c da47 a53d
00000080: bf40 553d 94e9 cf3c d671 3fbd aff5 c6bd
00000090: 284d c8bb d9a0 653d df7e 0fbd 487e 8b3c
-0.101863 -0.081026405 0.06578158 0.052827828 -0.020245707 -0.0055200295 0.04951592 -0.04755654
-0.045818567 0.051751707 -0.01733995 0.028978746 -0.0073859636 0.124749 0.07736911 0.076951854
-0.05606387 0.049807265 0.029394662 -0.017388001 -0.052325603 -0.031593114 0.030472623 0.044101264
-0.018405946 0.071007624 0.046107084 -0.12158058 0.031264663 0.048249643 0.029054021 0.08070345
0.0520637 0.025379933 -0.04673942 -0.09714829 -0.0061127134 0.0560616 -0.035033103 0.017027989

linears.2.weight f4 [40, 40]
00000000: 5bed af3b b674 873e 0619 893d bb42 3f3e
00000010: b334 10be 14ec 85bd 734c 31be 8787 bf3e
00000020: a57c be3e a534 2dbb 6aed a53e 64a3 753e
00000030: c6f4 673e 9c72 abbd ae77 08bd 5e5a 9c3c
00000040: 40d4 3dbe a7ef fe3d 5959 27be f748 fdbb
00000050: 6b74 4a3d 3c9f 6f3d ba2f a13e 978b d93e
00000060: 4722 1ebd 7487 5abe cc5f f93d 80ac 5d3e
00000070: 5f57 b43d 8d83 44be ef48 193e 83ab c33d
00000080: 0a6f 3a3b 5d5d 83bd 4e4f 4c3e 4d9b 48be
00000090: cf37 ac3d 4f17 45be a2bb 52be ba57 993c
000000a0: 8c45 edbd 0806 0b3e 8fd4 b8be 7f3a f03b
000000b0: f63e bcbe 16d5 2bbe b239 16bf 117e 903d
000000c0: b09f 1ebe 714d 04be 62dc e13d f99b a3be
000000d0: bdfc 85bc 5bbc 803d 3dd3 a73e b0f5 70be
000000e0: 9674 0fbe 7ace d8be 4913 793e 058c 2a3d
000000f0: 7bb1 4dbe 2cba c5be c13c 623e 80fb 7cbc
00000100: 0e8b 87bd d879 97be 290d 9cbe 5d34 3ebd
00000110: fbc9 e5bd 0fb9 d7bd 8cc7 21be 25db 84be
00000120: daca f0bc 0e1c 63bb 6d34 4bbe d846 b63d
00000130: 8254 3e3e 4ae1 1ebe e37c e03e 1f3f f7be
00000140: 9ab0 413e 4d4b 9ebe 692b 463e b1f3 c23e
00000150: e361 d0be 5ac4 373d 6a01 9dbe fb21 38bd
00000160: 66bb aabe bbdf 93bd 800d 113e a942 ff3d
00000170: a564 0abd 82bd 903e efab 17be 1ad9 4dbd
00000180: 7908 11bc a75b c53d b8ad 9cbd c478 523e
00000190: f6bd 9dbe 3287 a43d 0be6 bd3e 2447 553e
000001a0: c898 2d3e 346a 2c3d fdf7 aa3e 4208 4bbe
000001b0: 5dea b33e ccf9 79bc df1c 4f3e 10c2 1d3e
000001c0: f7ae de3c 5576 2dbe fbf0 093e 3041 96bd
000001d0: e828 4bbe 99ed 04be b744 2cbd ac44 4a3e
000001e0: 24f7 a4be b7fb 6c3e d256 80ba 6bf8 c73d
000001f0: 2cad 50be 8d28 5bbe 9c7c c2be 3221 bb3c
00000200: 4235 393e 5236 38bc dd7d 82be 54ee 94be
00000210: db8e 783e 723f 143d 7b9a a83d a2c7 ae3e
00000220: bb8d d13c 0d1e 2dbd fad9 eabc 4c16 29be
00000230: cdab b8bc e5f7 303d 8662 283e a07d af3e
00000240: 0e0c bebe 142a 01be ff9a 0d3e ce96 cabd
00000250: 3365 083e 891e 0c3c 2b68 29be a6b7 b53d
00000260: e498 b93d 9c2b e13c a62a cc3d 116b 18be
00000270: 5bdc 41bc b3f5 2cbe 07e5 043e 4545 a73a
00000280: 789d fbbc 6d6d 21bd b28c f63d 787b e8bc
00000290: 9ba1 3ebe 6e28 a9bd 6863 90bd 9039 42bd
000002a0: dea7 4e3e 081e fd3d cab5 ec3e fd42 1f3d
000002b0: 07d2 723e 3aa3 12be af0b f53c 8a14 803e
000002c0: aa0c b23d 79a7 71be 4921 8ebd a79c 663e
000002d0: 1aa3 1dbe 3d75 053e 5f7b 693e 32b0 d9bd
000002e0: 8618 853e a814 993d c20d 203d 123d 033e
000002f0: 2e74 413e 6ba4 1cbe 2a5a eabd 0edd 0dbd
00000300: 2d21 2fbe e5c7 2d3d eec5 3dbc e425 863e
00000310: 1082 bfba 6cf7 0e3e c543 5d3e fbbb 04bd
00000320: 8753 3a3e bd64 85bd 9bee 9bbd ad8b c93d
00000330: b62b 863e 7788 063e 4f07 763d fffb 453d
00000340: d26c 003e 5cbb bf3c 6847 9b3d bb25 da3e
00000350: 6ece d43d 56e2 14be ad66 2bbe a0da dabc
00000360: ea89 86bd 07b8 393e b2db 783e 2aa2 d6bb
00000370: cc66 043d b33d 17bd f239 913a 393f 96be
00000380: 23ac 813b ec38 21bd 1230 303d 4e7d 92bd
00000390: 6478 513d b92e df3b eaf4 663e cc73 943d
000003a0: 1a6c 9cbd 72e8 3f3e 3ce5 d73d 6cb8 1dbd
000003b0: 0d7f 9bbc ec37 b2bd 783a b93e 0e85 803e
000003c0: fc30 463e abac 83be c6f8 4e3e 8b23 3f3e
000003d0: 8d92 54bd bf7d 6e3e 1e90 f73d 76ac a93d
000003e0: a57f 89bd cb85 b9bc 8ddb 3a3e 151b ad3d
000003f0: ee4a bbbd eb57 f63c 0a24 99bd 152f ab3e
0.005368871 0.2645623 0.06694226 0.186778 -0.14082603 -0.06539169 -0.1731432 0.37408087
0.3720447 -0.0026429084 0.32407695 0.2398811 0.22651967 -0.083714694 -0.03331726 0.01908606
-0.18537998 0.12448054 -0.16342677 -0.0077296454 0.04942743 0.058501467 0.31481725 0.4248931
-0.03860691 -0.21340734 0.12176475 0.21647835 0.08805727 -0.19190808 0.14969228 0.09554198
0.0028447532 -0.06414292 0.19952127 -0.19590493 0.08409082 -0.19247173 -0.20579389 0.01871859
-0.11585531 0.1357652 -0.3609967 0.007331192 -0.36766785 -0.16780505 -0.58681786 0.07055295
-0.15490603 -0.12920167 0.11028363 -0.31954935 -0.016355867 0.06285926 0.3277835 -0.23531222
-0.14009318 -0.4234503 0.24323763 0.04163744 -0.20087235 -0.386186 0.22093488 -0.015440822
-0.066183195 -0.29585147 -0.3047879 -0.046436656 -0.11220165 -0.10533344 -0.15798777 -0.25948444
-0.029393602 -0.0034654173 -0.19844218 0.08900231 0.18586925 -0.15515628 0.4384528 -0.48290345
0.18915024 -0.30916825 0.19352497 0.38076547 -0.40699682 0.04486499 -0.3066514 -0.04495428
-0.333461 -0.072204076 0.14165306 0.12463886 -0.03378739 0.28269583 -0.14811681 -0.050255872
-0.008852118 0.09636622 -0.07650322 0.20553881 -0.3080899 0.08033599 0.3708957 0.20827919
0.16952813 0.04209347 0.33392325 -0.19827369 0.35139742 -0.01525731 0.20225857 0.1540606
0.02718304 -0.16939671 0.13470833 -0.07336652 -0.19839823 -0.12981261 -0.04205772 0.19752759
-0.32219803 0.23142897 -0.00097915 0.09764179 -0.2037856 -0.21402188 -0.37985694 0.022842977
0.18086722 -0.01124342 -0.2548665 -0.2908808 0.24273245 0.03619332 0.0823259 0.34136683
0.025580278 -0.042264987 -0.028668392 -0.16512412 -0.022542858 0.04320516 0.16443834 0.34275532
-0.37118572 -0.12613708 0.13828658 -0.09892045 0.13319854 0.008552202 -0.16543643 0.08872919
0.09062365 0.027486615 0.09969072 -0.14884593 -0.011832322 -0.16890602 0.12977992 0.0012761733
-0.030714735 -0.039410997 0.12038554 -0.028379187 -0.18616335 -0.082596645 -0.0705021 -0.047418177
0.20181224 0.12359244 0.46232444 0.038882244 0.23712932 -0.14320078 0.029912798 0.2501567
0.08693822 -0.23599042 -0.069399424 0.22520696 -0.1539425 0.13033004 0.22800969 -0.1062931
0.25995272 0.07474643 0.03907562 0.12816265 0.18891975 -0.15297095 -0.11442979 -0.034634642
-0.171025 0.042426962 -0.011582835 0.26200783 -0.0014610905 0.13961571 0.21607883 -0.032405835
0.18195926 -0.06513355 -0.0761387 0.09841094 0.26205224 0.13137995 0.060065564 0.048336025
0.12541512 0.02340477 0.07581979 0.4260691 0.10390936 -0.14539465 -0.16738386 -0.026715577
-0.06569274 0.18136607 0.24302557 -0.006550093 0.032324597 -0.036924075 0.0011079891 -0.2934511
0.003957288 -0.039360926 0.043014593 -0.07152806 0.051140204 0.0068109897 0.22554365 0.07248649
-0.07637806 0.18741015 0.1054177 -0.038505957 -0.018981481 -0.087020725 0.3617742 0.25101513
0.19354624 -0.25717673 0.20212087 0.18665902 -0.051897574 0.23290156 0.12088035 0.082848474
-0.067137994 -0.022646805 0.18247814 0.08452431 -0.09145151 0.03007122 -0.07477577 0.33434358

linears.2.bias f4 [40]
00000000: b6ef 22bc ac13 d5bd 6004 033e c2e2 273d
00000010: 59a7 0abd c49f f6bb a966 d33c 5d1e 78bd
00000020: cd86 86bc a579 3bbd 1bb7 133d de3b 0e3c
00000030: 9f1a 4fbd cda0 3dbd 6387 0bbd f560 80bd
00000040: 7cfb 11be f656 013b 98c2 e83c 9032 18bd
00000050: d81e 90bd 178e 453d a627 20bd 9de7 a2bc
00000060: 76e2 713c e50e 333d 0872 6ebc 2edc 73bc
00000070: 1948 12bc e77a 473d d71e 0abc dcc3 76bd
00000080: fbc8 c23c c893 513c 68e9 2fbd 3431 e63c
00000090: 43b5 91bd 9d7b f0bc 493b 2abe 85e8 00bd
-0.009944847 -0.10404143 0.12794638 0.040987737 -0.033851 -0.0075263698 0.025805788 -0.06057583
-0.0164217 -0.045770306 0.036063295 0.008681266 -0.050562497 -0.04629593 -0.03406466 -0.06268493
-0.1425609 0.001973567 0.028413102 -0.037157595 -0.07037133 0.04823121 -0.03910031 -0.019885832
0.014763465 0.043715376 -0.014553554 -0.014884038 -0.008928322 0.048701193 -0.008430204 -0.06024538
0.023777476 0.012791581 -0.042947203 0.028099634 -0.07114651 -0.029355818 -0.16624178 -0.031471748

linears.3.weight f4 [40, 40]
00000000: 0467 c63d 7983 cfbd f1d8 353e 3741 373e
00000010: 48f1 003d 84be e33d 976e d73c b524 fbbd
00000020: ea3f 41bd 079f aabe 072e eb3d f79f 723e
00000030: e28f 0fbe e536 a8be 7c12 66bd 832f 963e
00000040: b68f 783d e282 333e 2d70 39bc 0ca9 dcbe
00000050: 32fe d23c bf96 08bb 4496 c33d acf7 aa3b
00000060: 2b79 8ebd 44b3 37be 0cb7 b53d 2760 5b3e
00000070: 6c05 61be a48a c7bc bf67 f63d 0cc4 143d
00000080: 20f2 373d 85d3 cc3e 6dd1 acbd 2f05 b33d
00000090: d700 a9be 5e2f a9be 198e ed3c 0d0b 94be
000000a0: ea23 db3d 2c49 4f3e cc8c 87be f256 883e
000000b0: 73be 5fbe 5629 993e fbd0 5dbe 7d83 313e
000000c0: 83e4 0cbd a7e1 2abe d117 0bbe b9de 29bd
000000d0: 3e46 993e d92b ea3d d8ec 023e f8a9 16be
000000e0: 596d 863d c568 c0bd 3979 45bd a941 433e
000000f0: 2c8c 5f3d 9a27 4bbe fba0 9d3e 0f36 ef3d
00000100: e638 0dbe ccd6 ccbd f8d1 503e 2e2c 133e
00000110: 995c e63e c7c5 d0be 481f 46bb c014 0f3e
00000120: a6e8 243e a7b3 5fbc e426 193e bfdc e0bc
00000130: a47e 34bd 9077 de3d 3aee 5d3e 732d 37bd
00000140: c56c 87bd e4a2 d0bd 1146 ab3d 3eea 583e
00000150: 1a03 e8bc 953b d5bd 8bdc 0e3d 87fd 1fbe
00000160: be4e 7e3c e6c2 8a3e caba 243e 5582 203e
00000170: 757a 32be 9649 f23c 9574 f23d 5218 9cbe
00000180: 048c 93be ef1b 163d d6f1 04bc 2d8d 9e3e
00000190: 8710 76bc 50d3 c93d 73d5 3dbe e66b 30bd
000001a0: 05ec 8c3e 2c9e d2bd e9cb bcbc d9c5 133d
000001b0: 5632 d33c 33dd db3d 7b43 0fbd 3b62 1ebd
000001c0: 5b0e 8f3e c193 94be b3c9 d93d a47f af3d
000001d0: cb43 993e e817 21bb 9b61 e3bd be96 1a3c
000001e0: 3f85 d4bc 0d72 81be 679b 5abd 6a85 a33c
000001f0: a739 383e 1248 ae3d 4efe a63b 7351 9e3e
00000200: 7fe2 0b3f 15e9 c2be 6076 14be 4858 e13b
00000210: b0bc 8fbd 382c 87bd 37ef 853c 0f6f 2a3e
00000220: 887e 8d3d 29c0 763d 01d6 953d 6ca6 3ebe
00000230: 309b 733d 076e 523e d909 82bd 0784 153e
00000240: c712 e13d 642c 56be 02dd 083e c616 04be
00000250: a340 1cbe 391e 69bd ada7 863d 791a 453d
00000260: 0db9 083f 2861 b13e 389d c93e 0d56 5d3d
00000270: 00df 40be 975e 0fbd 7e8b 6d3e c3c4 e83c
00000280: 4c3d 28bd 8955 f53e e60b acbd 44b9 193e
00000290: ff07 d7be 76be 783d faf5 213d bc3a 5dbe
000002a0: b8fa 27be f767 d33c 4acd 61be c2fb 5ebd
000002b0: 4c28 3ebd a89c 1a3e 75b5 e5be 101f d23c
000002c0: cecd c23d 1c37 88bc f544 333d 9b29 4d3e
000002d0: e3b9 833e dace 9fbd 26ef 30be 469f c7bd
000002e0: 8564 5cbd 9065 023e f2a9 38be 25ae deba
000002f0: 4409 7e3d e8ad bdbd 5b48 1fbe 97e6 25be
00000300: 27db 48bd f126 52be 051c 95bd aa81 7bbd
00000310: 42d6 543e 37b9 6fbe 2450 5bbe 7a33 1bbe
00000320: b7dd f03d 2ca9 89be 3726 7e3e 8b2c 14be
00000330: 78f3 6c3d b772 4ebe d955 23be c6ed 043e
00000340: b08e 0bbe d496 043d e86f e6bc ed4c 2dbe
00000350: a1f5 eabd ae3d 6e3c f246 453d 1d90 8bbe
00000360: c79a 18be 57a0 163e 82c1 843d 9563 75bc
00000370: 093a dabe c512 9a3e e486 e23d 85e5 0fbe
00000380: ea9c 943d a1fc a53d f53f 8f3c de57 17be
00000390: 2653 823e a26c f43b 7bcb 813e dd32 81bd
000003a0: 26d1 9cbd 04f3 423e e16c 9fbd af3e 56be
000003b0: 2e3f 34be 479b af3d 7831 5cbe d237 28be
000003c0: c545 2fbd d4ca 8d3e ae8d 88be 8fcc 5c3e
000003d0: 3cdb 323e 4cbe b23c 03b9 3dbe ac49 363e
000003e0: 2fa5 20bc b06b 4b3e f6e9 bbbd 0fa9 3e3e
000003f0: 5371 843e dc3c 813e aa75 d83b 8086 073e
0.096876174 -0.10132498 0.17758538 0.17895971 0.031480104 0.11120322 0.02629785 -0.12262861
-0.047180094 -0.33324453 0.114833884 0.23693834 -0.1401973 -0.3285438 -0.05616997 0.29333124
0.06068393 0.17530397 -0.011318249 -0.43097723 0.025755975 -0.0020841805 0.09550145 0.005217513
-0.06956705 -0.17939478 0.08872804 0.21423398 -0.21974725 -0.024358101 0.12031507 0.036319777
0.044908643 0.40005127 -0.08438382 0.08741223 -0.33008453 -0.3304395 0.028998422 -0.2891468
0.107002094 0.20242757 -0.26474607 0.26628834 -0.21849994 0.2991435 -0.21661751 0.17335315
-0.034397613 -0.16687642 -0.13583304 -0.04147217 0.29936403 0.114341445 0.12785661 -0.14713275
0.06563825 -0.09394983 -0.04821131 0.19068016 0.054577038 -0.19839326 0.3078688 0.11680233
-0.13791236 -0.10001907 0.20392597 0.14372322 0.4499252 -0.40775892 -0.0030231047 0.13972759
0.16104373 -0.013653672 0.14956242 -0.02744901 -0.044066086 0.108626485 0.21672907 -0.044721078
-0.06612543 -0.10187319 0.083629735 0.21183106 -0.028321791 -0.10411755 0.034878295 -0.15624057
0.015521703 0.2710182 0.1608688 0.15674718 -0.17429526 0.029576104 0.118386425 -0.30487305
-0.2881776 0.036647733 -0.008114299 0.30967084 -0.015018589 0.09854758 -0.18538456 -0.04307165
0.2752382 -0.10284075 -0.02304645 0.036077354 0.025780838 0.1073555 -0.034976464 -0.0386679
0.2794064 -0.29018977 0.10634174 0.085692674 0.29934534 -0.00245809 -0.11102601 0.009435354
-0.025942443 -0.25282326 -0.05337086 0.019961078 0.17990743 0.0850984 0.0050962334 0.30921516
0.5464248 -0.38068452 -0.14498281 0.006876979 -0.07018411 -0.06600231 0.016349418 0.16643928
0.069088995 0.060241852 0.07316209 -0.18618172 0.05947417 0.20549785 -0.063495345 0.14601146
0.109899096 -0.20915371 0.13365558 -0.12899312 -0.15259032 -0.05691359 0.0657495 0.04812095
0.53407365 0.34644437 0.3937776 0.054037143 -0.18835068 -0.035002317 0.23197743 0.028414136
-0.041074082 0.4791682 -0.08400707 0.1501208 -0.41998288 0.060728513 0.039541222 -0.21604437
-0.16404235 0.02580641 -0.22050968 -0.054439314 -0.04642515 0.15098822 -0.44865003 0.025649577
0.095119104 -0.01662784 0.043766934 0.20035402 0.25727758 -0.07803126 -0.17278728 -0.09747176
-0.0538068 0.12734056 -0.18033579 -0.0016989155 0.062020555 -0.092616856 -0.15554945 -0.16201244
-0.049037125 -0.20522667 -0.07280735 -0.061402954 0.20784858 -0.23410498 -0.2141729 -0.15156356
0.11761039 -0.2688688 0.24819265 -0.14470117 0.057849377 -0.20160948 -0.15950717 0.12981328
-0.1362865 0.032370403 -0.028129533 -0.16923876 -0.11472631 0.014541073 0.04816336 -0.27258387
-0.14902793 0.14709602 0.06482221 -0.0149773555 -0.42622402 0.30092445 0.110608846 -0.14052399
0.072564915 0.08104826 0.017486552 -0.14779612 0.25454062 0.007459239 0.25350556 -0.063085295
-0.076570794 0.19038016 -0.07784439 -0.2092235 -0.17602226 0.08574539 -0.21503246 -0.16427544
-0.042791147 0.27693808 -0.26670593 0.21562408 0.17466444 0.021819256 -0.18527608 0.17801541
-0.009805008 0.19865298 -0.09175484 0.18619178 0.2586771 0.25241745 0.0066058235 0.13234901

linears.3.bias f4 [40]
00000000: aeca 0d3d c64d 0bbd 311d c93c b351 9d3c
00000010: 35c7 acbc 2045 263d ccd0 0ebd f2c9 933c
00000020: 90a0 f7bd 601c 58bb 7a02 6c3d e43e 65ba
00000030: 5117 bfbc 62c5 0dbd aa23 c9bc 84de 083c
00000040: caaf c8bc c08a b9ba 8f65 03bd 8cc0 3d3d
00000050: b8ce c93c fcff df3c 0f41 47bc de3d 9fbd
00000060: 3b9e debc 20c7 0cbd 5381 083e 63e5 573d
00000070: 37f5 66bd aef5 b5bc 6091 c4ba 1b24 823d
00000080: 69ea 3abd 1520 053d ed67 843c 0ec5 00bd
00000090: 6cd7 3ebd e518 1c3c 8a5c ecbc e3fb 4abb
0.03461712 -0.034009717 0.024550052 0.019203996 -0.021091083 0.040593266 -0.034867093 0.018040631
-0.12091172 -0.0032975897 0.05761955 -0.0008745028 -0.023326548 -0.034612067 -0.024553139 0.008353833
-0.024497885 -0.0014155731 -0.032079276 0.046326205 0.024634704 0.027343743 -0.012161507 -0.07775472
-0.02717506 -0.034369588 0.13330583 0.052708995 -0.0563862 -0.022211876 -0.0014996938 0.06354543
-0.045633707 0.0325013 0.016162837 -0.031437926 -0.04659216 0.00952742 -0.02885272 -0.003097289

linears.4.weight f4 [40, 40]
00000000: 87e9 483d 2867 843e dcf0 b8bd fa8c 97bd
00000010: 6907 5a3e 74bb c53d e7c3 b03e b319 62bd
00000020: 4ba2 c6bd 79d7 0bbd cb0d 67bd 357a 5abd
00000030: d94f a33d 506e 063e 1dcd 65bc 4b5c e1bc
00000040: ddaf 00bd cb95 6fbe 2fa6 7f3b 5445 123d
00000050: 4f5d f6be e723 713c 67fb 2d3e c15d 8ebe
00000060: ad73 d2bd 0b59 92bd cf38 253e a83a 2d3e
00000070: 5895 af3e cf50 a23e 243e 18be a678 35be
00000080: 1c3a fb3d 46db 18bc 8fd2 d9bd bcfe 95be
00000090: 1ae7 893d 6eb1 8dbe 0fc3 843d 9427 f5bd
000000a0: 7079 a73e 58fd 623e 5229 223e 7141 e33a
000000b0: 568c 46bd cd9c e6bb c3e5 6f3e 06f7 1bbe
000000c0: 2d2d 79bd 1ca2 9abd 4c3e 5fbe 257b b5bd
000000d0: 992e e63e 1004 19bd 412f 783e 26d9 d1bd
000000e0: f666 15be 40c1 613c 41a7 e8ba 0839 6ebd
000000f0: 0eb1 753c 586f 52be ff6d 25bd aff6 dabd
00000100: 330b b4bd d0fe 5b3d ed62 f6bd dd56 963e
00000110: 92f5 0dbd 311b c83d 692a 2dbe 3e8f 8cbd
00000120: db9b 8b3e 9e7a fabd 7352 96be 7191 efbd
00000130: 35b7 4f3e 5873 25be 6a62 f03d 343a 8bbd
00000140: fa18 913e 7f3a 38be 4b0d c93e 56bf 473e
00000150: 6dab e5bd ecda 9c3e 0c90 63be 24d7 eebe
00000160: 3e06 05bf c7e9 2bbc acfb 803e 4030 893e
00000170: 8e63 2cbe 54a8 2cbd 1a1f 86be bf8e cbbd
00000180: 6ce2 96be 71ed 413d 3507 d9be b07f 113e
00000190: e038 a13d eb89 d93e ccc4 9bbd 1be1 d3be
000001a0: 03d5 01bf bcc5 8ebe 8ac4 b33e b746 34be
000001b0: 7ee4 2fbe 3367 1fbe dee0 923c a455 423d
000001c0: 65c4 ebbe 1d80 ef3e b947 e2bd f354 84be
000001d0: 1a73 2abd fb87 a33d c710 25bf 66d4 de3e
000001e0: 27d5 a63e b5a9 bf3e e333 b6bd 481b c9bd
000001f0: 1aa2 9a3c de6b 0dbd 493b 783d 836b 3a3e
00000200: 5a2e 3c3e f0b3 f0bb 7e91 b33d 7dfd 44be
00000210: a15e 963e 7bc2 8fbe d214 a2bd 8a69 aabe
00000220: e3ca 153e 630d 1c3e 66b2 29be 97c4 2c3e
00000230: b81a aa3d 9e51 46bd b654 fbbd 4842 89be
00000240: bd34 733e 3d5b 92be 3f5c 273e 9741 7abd
00000250: a1b2 77be 86f6 803e 1026 163c f266 cb3d
00000260: ab9e f2bd 00e7 6e3e 37a0 9dbd 48c1 123e
00000270: 03b0 163e 2371 593d 9e84 89bc 22b6 94bc
00000280: 073f ec3d 6682 f7bc 04f4 18bb f789 ab3d
00000290: 3537 7f3e 6cc8 e4bd d4cf 07bd 918a 5d3e
000002a0: dc7d e03c 13d6 76be 732e ca3e d0f5 e63d
000002b0: a046 afbe a01b 253e b00b 393d a243 fa3e
000002c0: 881c cdbd 3d32 3f3d 90bd 2bba 5915 bb3c
000002d0: 1ff6 34bd f60f 823c 0f31 c93d 7823 1abb
000002e0: 726c 913d dd1a e5bc af4b d43d bd49 34be
000002f0: 7c9b febd 3d2b 153e 26a1 7cbe 7334 2ebe
00000300: 7782 82be 6dcb a13e adc9 653e 3d70 c6be
00000310: 4c43 2dbe 869c 183d 12ff d03d c70c b3bb
00000320: 0d38 aa3e 870f f13e 4cca 20be 8fb5 a83e
00000330: 9954 49bd e053 d23d 987f 9abe 43fc 033e
00000340: b700 5abd 5098 b63e e5c6 733d 09b8 453e
00000350: 21eb babd 00b7 debd ac74 573d fd7d 833d
00000360: 8e67 793e ec7c 65bd e626 40bd a0c3 efbe
00000370: d93b d6bc b837 1dbe 0ab6 a0bd 3649 98bd
00000380: 1b15 c6be 47df 6fbe bea5 f03e 951b 5c3e
00000390: 21f9 d53e 8bc6 743c acb7 bebc fdf7 ab3e
000003a0: 3f24 07be 1c71 1f3e 7e9a 52be cadb e03d
000003b0: 15ff 10be 5c62 bcbe fd10 573d 1e04 2abe
000003c0: a1f6 b03d 6cc1 49be a2cb 623c b2ef 8dbd
000003d0: 5f09 613d 9e21 8f3c ef05 263e 7ff2 433e
000003e0: 6216 023e 3459 73be e2d4 ab3e fc50 4fbe
000003f0: 6b2c 313e df06 3cbe 2cbc 553d 9158 6fbe
0.049050834 0.25859952 -0.09030315 -0.07399936 0.21291889 0.096548945 0.34524462 -0.05520029
-0.09698924 -0.034141038 -0.05640964 -0.053339202 0.07974214 0.13128018 -0.014025954 -0.027509829
-0.031417716 -0.23396985 0.0039008965 0.035710648 -0.48118064 0.014718032 0.16990434 -0.27805904
-0.1027597 -0.0714589 0.16134952 0.16916907 0.34293628 0.31702277 -0.14867455 -0.17721805
0.12266943 -0.009329623 -0.10635864 -0.2929591 0.06733532 -0.2767443 0.06482517 -0.119704396
0.32709837 0.22166955 0.15836075 0.0017338229 -0.04847368 -0.007037735 0.23427491 -0.1523095
-0.0608341 -0.07550451 -0.21801108 -0.088613786 0.44957426 -0.03735739 0.24236776 -0.10246496
-0.14590058 0.013778985 -0.0017750041 -0.058159858 0.014995826 -0.20550287 -0.040388104 -0.106915824
-0.087911986 0.053709805 -0.12030587 0.29363146 -0.034658022 0.09770811 -0.1691071 -0.06863259
0.27267346 -0.122304186 -0.2935978 -0.116976626 0.20284732 -0.16157281 0.11737521 -0.06798211
0.28339368 -0.17991064 0.39267954 0.19506583 -0.112143375 0.30635774 -0.22222918 -0.46648514
-0.5196265 -0.010492749 0.2519201 0.26794624 -0.16834852 -0.042152718 -0.26195604 -0.09939336
-0.2946962 0.047345582 -0.4238831 0.14208865 0.07872176 0.42488036 -0.076058954 -0.4138268
-0.50715655 -0.27885234 0.35110885 -0.176051 -0.17177007 -0.15566711 0.01792949 0.047444955
-0.46048275 0.4677743 -0.11048836 -0.2584606 -0.041613676 0.079849206 -0.64478725 0.43521422
0.32584497 0.37434164 -0.08896615 -0.098196566 0.018876124 -0.0345267 0.060603414 0.18205075
0.18377057 -0.007345669 0.08767985 -0.19237323 0.2936907 -0.28078064 -0.079141274 -0.33283645
0.14628176 0.15239482 -0.1657196 0.16871868 0.083058774 -0.04841768 -0.12272017 -0.2680838
0.23750587 -0.28585234 0.16343783 -0.061097708 -0.24189235 0.25188082 0.009164348 0.09931745
-0.1184667 0.23330307 -0.07696574 0.14331543 0.1471558 0.05308641 -0.01678687 -0.018153254
0.11535459 -0.030213546 -0.0023338804 0.08375924 0.24923404 -0.1117104 -0.033157185 0.2163489
0.027403764 -0.241051 0.39488563 0.11277354 -0.3423357 0.1612382 0.04517716 0.48879725
-0.100152075 0.04667877 -0.00065513793 0.022837328 -0.044180032 0.015876751 0.0982381 -0.0023519676
0.071007624 -0.027966911 0.10365998 -0.17606254 -0.12432 0.14567275 -0.24670848 -0.17012195
-0.25490162 0.31600514 0.22440214 -0.38757506 -0.16920203 0.037258647 0.10204901 -0.0054641697
0.33245888 0.4708216 -0.1570217 0.32951018 -0.049152944 0.10269904 -0.3017547 0.12889199
-0.053223338 0.3566308 0.059515852 0.19308485 -0.091268785 -0.10874748 0.0526015 0.06420515
0.24355909 -0.056027338 -0.046912096 -0.46828938 -0.026151584 -0.15353286 -0.07847221 -0.07435839
-0.38687977 -0.23425017 0.4700145 0.21494897 0.41791633 0.014939914 -0.023280941 0.33587638
-0.1319742 0.15570492 -0.20566747 0.109794214 -0.14159806 -0.36793792 0.052506436 -0.16603133
0.08640791 -0.19702691 0.013842495 -0.06930484 0.054940578 0.017472085 0.16213201 0.19135474
0.12703851 -0.23764497 0.33560854 -0.20245737 0.173021 -0.18361996 0.052181408 -0.23373629

linears.4.bias f4 [40]
00000000: 1006 8dbd f44d 0dbe 6ad5 a33d 3cae d8bc
00000010: 6fdf bd3c 56e8 2e3d 9b94 2a3c 7ea4 353d
00000020: 5d9f 97bc 6bf8 aebb c810 84bc 96b3 1a3d
00000030: 67d4 15bd 2e92 dd3c 1096 ec3c 942d 4ebc
00000040: 6708 2dbd bcfd d0ba c825 a2bd ee80 2dbd
00000050: 8986 803c 8871 1bbc 70c9 c2bb 23aa edbc
00000060: b420 903c 1dea 06bb 60eb a7bc 81c2 0e3e
00000070: ddbf 8dbb 0a40 f63b fac4 953c 4d64 b0bb
00000080: c267 893d 59da 40bc 14fb 803d 82fc c13c
00000090: 714a bd3b f203 5bbd b356 d0bb 68d3 803c
-0.06885922 -0.13799268 0.0799969 -0.026450269 0.02317783 0.04270204 0.010411407 0.044346325
-0.018508608 -0.0053396723 -0.016121283 0.037768923 -0.036579516 0.027047243 0.02888015 -0.012584109
-0.04224434 -0.0015944759 -0.079173625 -0.042359285 0.015689151 -0.009487517 -0.0059444234 -0.029011792
0.017593719 -0.002058632 -0.020497978 0.13941385 -0.0043258504 0.0075149583 0.018282402 -0.0053830505
0.06709243 -0.011770808 0.06297889 0.023679975 0.0057766964 -0.05347056 -0.0063579916 0.015725806

linears.5.weight f4 [40, 40]
00000000: 42d9 833e 55fa d8be 005c b83e f66a 9fbe
00000010: 8eab d2be 404a 36be 6496 5f3d 29d0 babd
00000020: 4c20 1dbe 3f72 383e 38d0 3b3c efca 7f3c
00000030: 5762 f63d 25c7 87ba e89b 4a3e 77ed b2be
00000040: 3ad3 8cbd 379d 5fbd 9db5 1b3e 07d4 00be
00000050: c996 93be 4f99 f9bd bc4b 273e a5d3 4dbe
00000060: 2cab 1c3b 25d3 903e 22a6 593d cdcf 333e
00000070: 49b5 b13e 08f2 273e f95c 2d3e d120 c3bd
00000080: 983d 8a3d 2293 4d3e e47d 713c fa2a ccba
00000090: 8824 033e 968a ec3d 151e 06be 40ae 42bc
000000a0: a2eb 9fbd 4cfc b43c 0977 8a3d ef7e 12be
000000b0: f98b 03be 6da9 4b3e d944 91bc 0fcb bfbc
000000c0: ef45 f1bd a8d2 a63c ea05 6ebd 0619 90be
000000d0: 313b 6bbd 0c38 e23d 00a0 dd3c 31de 40bd
000000e0: be5a d9bd 56f7 03bc c889 613e 8fa3 113d
000000f0: acaa ec3e 9a7d 65be b04a 823e 923e c7bd
00000100: 05d5 643e e15f 873e 3b1d ba3d cf3e 603d
00000110: 1fd9 2fbe cf3d 1d3e 8ac3 a23c f9e9 373e
00000120: 9fbe 1cbe 9c91 b03c 4e22 463e 4a11 8d3d
00000130: e08b 6c3d ea74 b2bc 57a8 a43d f515 373d
00000140: e464 7dbd 063f 53be 93c9 86bd 263d debe
00000150: b2fb 89bd f796 fbbe 0b80 8c3e 9519 debd
00000160: 1fb3 0c3e 66b3 84bb 1e7d 52bd 0186 e3bd
00000170: 1efa e7bd a552 e5bd 4300 7abe 1281 023e
00000180: fa0b 493c 0f8e 73be 0f10 ccbc e5f2 c2be
00000190: 6f46 29bc bea2 f7bd f4b4 2ebd 0dd7 c5bc
000001a0: db71 a8bd b69c e23d e59c 3e3e a61b 7e3e
000001b0: 30dd 6b3d ccdf 8d3e 6042 c1bd a152 943e
000001c0: 9d66 cabe d99e 33be 75a5 7abd c42a b93d
000001d0: ec6a 113e 64c9 cb3e 3a99 e3bd fc64 02be
000001e0: 8258 183d 891f 743e d1c5 ea3b 3053 5f3d
000001f0: d88e 18be b033 dbbe 0cdc d4ba d314 d0be
00000200: f40a 4bbe 1d53 dbbe 938e 22bf f189 abbd
00000210: 8f42 043f 1667 aabe fa36 be3d 7c7f be3e
00000220: fb43 033d 6917 efbe f0bb 56bf af8c 483e
00000230: 5b2b bdbe b5cc b6be 9bd7 a3ba 5772 a83e
00000240: d4ab fcbd 92a9 7dbe e387 98be cded 553e
00000250: e81f 9d3e 17d9 963c a9fc 84be fddd 463e
00000260: 8da9 46bd e640 46bd 9774 7bbe df47 843e
00000270: 8370 bebd 8771 1c3c 3312 f53e 44c3 18be
00000280: 5135 bd3d 735d 0e3e dab9 873d c08c 6b3e
00000290: 4876 a3bd 32dd c13d d677 823d 56c9 de3a
000002a0: 19f8 d23c dfa8 4c3e 3725 23bc 15c2 c4be
000002b0: 00d5 b1be cd3e 72bd 5525 1ebd b4cf bfbd
000002c0: 3c10 debd 879c 823c 3876 fabd c482 f53e
000002d0: bc7b f03d 732b 913e f91d 9f3d ce14 a5bc
000002e0: f025 533e c6de 0f3e a8d3 9e3e d15f f8bb
000002f0: 7a31 ca3c 8309 aa3d d9bc 8abd 2ee9 a1be
00000300: 83c8 d43d 392f c7bd 5f56 033d ba08 9abd
00000310: 8c82 733e ab08 cf3d 23a2 343c 68a8 df3d
00000320: 9044 783e e68b fe3d 99c1 0cbd e873 af3e
00000330: 49dc cf3e 78d4 b03c eda6 70be 4836 83bd
00000340: 8090 1d3c bb05 493e 3d0f 8ebd d4ae 6abe
00000350: d36b 7f3e 95fb 923d eea6 853c 28e0 973d
00000360: a163 25be bdd6 b53d 3af1 0bbe 3de3 1d3d
00000370: 97da 373e 36cb 113e 5904 09be 2ba6 b5be
00000380: a390 fabd 9fad 633d 55de 4bbc 0a2c 513d
00000390: bf3a 05bc 3b65 0a3e 7e0b cbbd 707a b33d
000003a0: a6ca 663d 48cb b73c b0e2 8d3d c535 89bd
000003b0: 4f41 b53d cdb6 173e 1f37 90bc d677 2c3e
000003c0: 9b27 aebe 956c d33c 3ee2 1b3e 308d b83c
000003d0: 1115 8cbe 3d8e a9be 2181 36bd de3c f0bd
000003e0: 8f10 b83c 0e6a b43d 2301 913c 34b1 6cbd
000003f0: b897 4ebe 4236 9d3e c25a 42be 944b 073d
0.25751692 -0.42378488 0.3600769 -0.31136292 -0.4114651 -0.17801762 0.054586783 -0.09121735
-0.15344352 0.18012331 0.011463217 0.015612348 0.120304756 -0.0010359032 0.19786036 -0.34946796
-0.06876226 -0.05459329 0.15205999 -0.12580882 -0.28825977 -0.121874444 0.16337484 -0.20100267
0.0023905737 0.2828609 0.053136952 0.17559738 0.34708622 0.16400921 0.16929998 -0.095277436
0.06750029 0.20075658 0.014739487 -0.0015576773 0.12806904 0.11549871 -0.13097413 -0.011882365
-0.07808615 0.02209296 0.067609854 -0.14306234 -0.12846364 0.1988885 -0.017733024 -0.023412256
-0.11780917 0.02036412 -0.05811111 -0.2814409 -0.057429496 0.11045846 0.027053833 -0.0470869
-0.10613011 -0.008054575 0.22025216 0.035556372 0.46223962 -0.22411194 0.25447607 -0.09728731
0.22346886 0.26440337 0.090876065 0.0547474 -0.17172669 0.1535561 0.01986863 0.17960347
-0.15307091 0.021553807 0.19349024 0.06888063 0.057750583 -0.021784265 0.08039921 0.044698674
-0.061863795 -0.2062951 -0.06581416 -0.43406028 -0.0673746 -0.49138615 0.2744144 -0.10844723
0.13740204 -0.0040497063 -0.051388852 -0.111095436 -0.11327003 -0.11197404 -0.24414162 0.12744549
0.012270922 -0.2378466 -0.024910001 -0.3807594 -0.010331734 -0.120915875 -0.04265304 -0.024150396
-0.08224841 0.110650465 0.18614538 0.24815235 0.057583988 0.27709806 -0.09436488 0.2896929
-0.39531413 -0.17541064 -0.06119295 0.0904136 0.14200944 0.39802086 -0.1111321 -0.12733835
0.037193783 0.23840155 0.007164695 0.054522693 -0.1489824 -0.42812872 -0.0016239895 -0.40640888
-0.19828397 -0.42836848 -0.634988 -0.083759196 0.5166406 -0.33281773 0.0928783 0.37206638
0.032047253 -0.46697548 -0.8388052 0.19584917 -0.3694714 -0.35703054 -0.0012500169 0.32899734
-0.12337461 -0.24771717 -0.29791173 0.20891495 0.30688405 0.018414063 -0.25974014 0.1942062
-0.04850154 -0.048401736 -0.24556194 0.25836083 -0.09298804 0.009548551 0.47865447 -0.14918238
0.09238685 0.13902836 0.06627245 0.2300291 -0.07981545 0.09466018 0.06370513 0.0016997259
0.025753068 0.19986294 -0.009957603 -0.38429323 -0.3473282 -0.059141923 -0.03860982 -0.09365788
-0.1084294 0.015943779 -0.1222958 0.4795133 0.117423505 0.28353462 0.07769389 -0.020151522
0.20619941 0.14049825 0.31020856 -0.0075797816 0.024681795 0.083025955 -0.06774301 -0.31623214
0.10389807 -0.09725804 0.03206479 -0.07521196 0.23780268 0.10109075 0.0110249845 0.10920793
0.24244905 0.12429027 -0.034364317 0.34268117 0.40597752 0.021585688 -0.23501177 -0.06406838
0.009616971 0.19631092 -0.069365 -0.22918254 0.24943475 0.07176892 0.01631495 0.07415801
-0.16151287 0.08878849 -0.1366624 0.03854679 0.17954479 0.14237675 -0.13380565 -0.3547834
-0.122346185 0.0555855 -0.012443145 0.05106739 -0.008131682 0.13515179 -0.09914301 0.087635875
0.056345604 0.0224358 0.06928003 -0.06699709 0.08850347 0.14815827 -0.017604409 0.16842589
-0.34014592 0.025808612 0.15223023 0.022528261 -0.27359822 -0.33116332 -0.04455674 -0.117303595
0.022468833 0.08809291 0.017700737 -0.05778618 -0.20175064 0.30705458 -0.18979934 0.03303106

linears.5.bias f4 [40]
00000000: 7069 f7bb 4a27 283d ee3b 12bd 7011 76bc
00000010: 9207 c83c b45a 54bd 36d7 c4bc 7c7e 9a3d
00000020: 0360 9f3d c4cc 013d 26f4 153d 6402 b2bd
00000030: 2888 903b 6874 a0bb 8e22 58bd 4eaf dbbc
00000040: 3f6d b8bc ab50 803c d459 0bbd bbb3 5dbd
00000050: 5d93 c03d 7a81 6e3d 078d efbc 7250 4c3c
00000060: 70dc a23c 810d 733c 5e33 08bd ed2a a43c
00000070: 4d1f a9bd adaf c63c 5fd7 43bd 85dc 39bd
00000080: b5e5 ba3d fdf0 283d c21a a43c a7a4 81bc
00000090: f444 443d c6ba 42bc 19a0 e7bb f13e ea3c
-0.007550411 0.041053094 -0.035701685 -0.015018806 0.024417672 -0.051844314 -0.024028402 0.07543656
0.07781985 0.03168942 0.03660979 -0.08691862 0.0044107623 -0.004896689 -0.05276733 -0.02681699
-0.02251303 0.015663465 -0.034021214 -0.054126482 0.09403107 0.058228947 -0.029242052 0.0124703515
0.019880503 0.014834763 -0.033252113 0.02004 -0.08257923 0.02425369 -0.047812816 -0.04537632
0.091258444 0.04124545 0.02003229 -0.015825583 0.04791732 -0.011885351 -0.0070686457 0.028594466

linears.6.weight f4 [1, 40]
00000000: 9e4e cd3d 6f23 39be a027 693e 82d0 c63d
00000010: 4e22 58bd 81f4 063e afb2 993e e16b 953c
00000020: e2a6 47be 9636 a6bd fdc6 28be 6e84 513e
00000030: 3668 123e 30f0 23bf 5373 e03c 6e3d f73e
00000040: f5e5 cd3e e850 16bf 32a6 ae3d 45b8 b73e
00000050: ebc6 2dbe d383 39be eada 563e 6d85 c8be
00000060: 022b 92be 7303 2fbf c8d4 193e 9fff 1dbe
00000070: 9f60 923e 0c63 9abe bfec 943d d34b 063d
00000080: 056d c5bd a2d3 bfbe 2d64 8ebe 8b1e f93d
00000090: d610 b7be 7a7a ef3d 2398 363d 3555 58be
0.10024761 -0.18079923 0.22769022 0.097077385 -0.05276709 0.13179208 0.30019137 0.018239917
-0.19497254 -0.0811588 -0.16482158 0.20460674 0.14297566 -0.6403837 0.02739874 0.48289055
0.40214506 -0.58717203 0.08527793 0.35882774 -0.16970412 -0.18116693 0.20981947 -0.39164296
-0.28548437 -0.6836464 0.15022576 -0.15429543 0.2858934 -0.30153692 0.07271718 0.032787155
-0.096399345 -0.3746615 -0.27810803 0.12164029 -0.35755032 0.116932824 0.044578683 -0.21126254

exp_avg f4 [40, 2]
00000000: 818b f4b9 b8bf 8739 f44f 0fba b393 cdb8
00000010: 0164 a03a 5761 fc39 dcbf 7f3a b630 8439
00000020: 9283 83b7 811b f038 2b9c d63a ff46 5b39
00000030: 8f4d 9b3a f855 583a f94b 323a 0037 f536
00000040: 9c25 b739 a1ab 9639 58a1 7539 5221 e5b8
00000050: 5e7b 893a 641c 87b8 5052 383a bd65 a8b9
00000060: 1675 f2ba 2c2d d4b9 ce7c 6d3a 3edc bd39
00000070: 4396 7bbb 8b3e 3bba 4aca 8a39 c7dc 06ba
00000080: c24f 673a e9e9 b2b9 9cec 8a3a 39f2 d439
00000090: 5bf2 f8b9 f7bc 3f37 7464 0b3a 1d9a 76b7
000000a0: 8663 eab9 3c8b ddb8 7c38 aeb8 6689 71b7
000000b0: e08d 9c39 5aed ac39 de54 3aba c735 a3b9
000000c0: 4e62 c43a 8984 a5b8 2821 d739 c6d7 2f39
000000d0: 2618 243a 8336 1d38 c894 63bb ffd4 1bba
000000e0: 9f0c f03a cd4b 8939 a3e6 043b e2c9 123a
000000f0: f02f bcba 6e37 dbb9 8191 733a beea 6937
00000100: 563e 193a 9678 083a d821 99ba 5ee9 4f39
00000110: 56b8 41bb 7a0a 38ba 00f0 2e3a 87b1 9539
00000120: 1edd c7ba 8b3d 4eb9 9e8c d2b8 5c61 52b9
00000130: f1a2 bb3a 09f4 2e3a 87aa 09bb 83ca e3b9
-0.00046643245 0.00025892048 -0.0005466931 -9.802673e-05 0.0012236835 0.0004813771 0.00097560673 0.00025213294
-1.5677684e-05 0.00011449215 0.0016373446 0.00020911916 0.0011848676 0.00082525564 0.0006801482 7.307972e-06
0.000349325 0.00028738103 0.00023425126 -0.00010925777 0.0010489037 -6.44259e-05 0.00070313085 -0.00032119258
-0.0018498029 -0.00040469447 0.000905943 0.00036212982 -0.0038389124 -0.00071428035 0.00026472128 -0.0005144593
0.00088238355 -0.00034125082 0.001059908 0.0004061626 -0.00047482815 1.1428484e-05 0.0005317398 -1.4698625e-05
-0.0004470611 -0.000105640356 -8.3074876e-05 -1.439671e-05 0.00029860344 0.00032983237 -0.0007107983 -0.0003112985
0.001498291 -7.8925e-05 0.000410327 0.00016769682 0.0006259702 3.7482485e-05 -0.0034726132 -0.00059445197
0.0018314308 0.00026187152 0.0020279072 0.0005599541 -0.0014357548 -0.00041812233 0.0009291396 1.3942537e-05
0.00058457756 0.0005205957 -0.001168306 0.00019827994 -0.0029559336 -0.0007020604 0.0006673336 0.00028551763
-0.0015248393 -0.00019668617 -0.00010039772 -0.0002006343 0.0014315528 0.00066739373 -0.0021006183 -0.00043447697

exp_avg_sq f4 [40, 2]
00000000: 0017 8938 f102 a137 72f2 a638 fff7 2636
00000010: 712a dd39 ab1d 9238 e17c 8e39 8d7f ae37
00000020: 9565 e433 b2af c436 30a3 533a 6701 8c37
00000030: a878 dd39 a4b5 7539 e28e 0c39 86d7 0235
00000040: b2ab 0f38 d7bb c037 1087 8237 de14 3a36
00000050: 93ea b239 77d1 2e35 9a44 1839 2107 f237
00000060: 4e8a 863a aa20 8138 f29a 8539 9c73 4938
00000070: 0466 8f3b 2733 5f39 aa30 aa37 5ecf b038
00000080: c667 7139 a8a3 0138 101f a239 5e56 2238
00000090: e54a 8e38 b285 c033 3751 ac38 ea95 ec33
000000a0: 5cf1 8838 a1c2 8d36 5fd4 0a36 799c 5133
000000b0: c578 e137 8e61 0238 e77e 2839 eb4d 1f38
000000c0: 693d 2e3a 9d8f a735 4e12 5b38 f8b1 2137
000000d0: a31f eb38 da78 0535 d490 6a3b 2c0b 2039
000000e0: 2c26 7d3a 9cc7 e137 b387 9d3a 3a32 ca38
000000f0: de10 1e3a 9e2d 7938 12bb 8239 a365 3035
00000100: 7f72 cf38 a831 ae38 64c0 d339 9a8b 1b37
00000110: 862a 263b 144f 2339 4a1a 0939 6f00 b837
00000120: 52f9 323a 5646 9937 5ea9 4c36 3b14 3437
00000130: b4f2 1f3a 37e2 0e39 806d ab3a b1d9 5338
6.536953e-05 1.9194065e-05 7.960656e-05 2.488028e-06 0.00042184026 6.9673486e-05 0.00027177393 2.0801812e-05
1.0635555e-07 5.861709e-06 0.0008073328 1.6689954e-05 0.000422423 0.00023432687 0.00013404668 4.87424e-07
3.425376e-05 2.2975653e-05 1.5560101e-05 2.7728306e-06 0.00034125577 6.512486e-07 0.00014521406 2.8851968e-05
0.0010264607 6.1572835e-05 0.0002548318 4.8029804e-05 0.004376175 0.00021285993 2.028824e-05 8.430959e-05
0.0002302221 3.0908413e-05 0.0003092219 3.8704246e-05 6.785038e-05 8.965016e-08 8.2167266e-05 1.10168756e-07
6.529942e-05 4.2247852e-06 2.0687219e-06 4.8803916e-08 2.6878328e-05 3.108527e-05 0.00016069003 3.798112e-05
0.0006646724 1.2484267e-06 5.2230716e-05 9.637784e-06 0.00011211566 4.9722223e-07 0.003579189 0.00015262951
0.0009656872 2.691504e-05 0.0012018591 9.641466e-05 0.0006029735 5.940871e-05 0.0002493491 6.571301e-07
9.891856e-05 8.306216e-05 0.00040388398 9.2712235e-06 0.0025354936 0.0001557435 0.00013075132 2.1934711e-05
0.0006827313 1.8271774e-05 3.0496954e-06 1.0733546e-05 0.0006101534 0.00013626447 0.0013078898 5.050906e-05

exp_avg f4 [40]
00000000: 70f9 4c3a 6a3b 93b9 403b b03a d8ad 3c3a
00000010: da8e a239 0e42 0f3a bc3e 1b3b 90e7 be38
00000020: ef6c 403a e7e0 9fb9 127a 79b8 3fa1 57ba
00000030: 5974 94ba a71d 813a c17f 0abb b59a c0ba
00000040: 4254 84ba 1fae 893a b40e 6e38 2be9 0eb9
00000050: cc02 beb9 7e1f 04b8 774d 733a d6ae 72ba
00000060: 3b3e 71b9 b8a5 e839 ad75 8d38 ea77 e5ba
00000070: eb8c 3f3a 169f c73a abfb a1ba 2ab0 c836
00000080: 86ee bb3a 3c74 e939 2b8f 01bb ae59 443a
00000090: 8f54 31ba 3167 10ba 31ed f33a 60d8 8fba
0.00078191515 -0.00028082292 0.0013445392 0.00071975356 0.0003100548 0.000546486 0.0023688516 9.103038e-05
0.0007340451 -0.0003049441 -5.9479913e-05 -0.00082256267 -0.0011326178 0.0009850756 -0.0021133276 -0.0014694544
-0.0010095912 0.0010504163 5.6757315e-05 -0.00013629037 -0.00036241708 -3.1500582e-05 0.00092812575 -0.000925762
-0.00023006734 0.00044373958 6.745323e-05 -0.0017507051 0.000730707 0.0015229906 -0.0012358328 5.9809727e-06
0.0014338053 0.00044527825 -0.0019769173 0.000749017 -0.00067646144 -0.0005508541 0.0018610117 -0.0010974519

exp_avg_sq f4 [40]
00000000: c42f 3139 b102 cb37 e439 0e3a 22b5 2739
00000010: 1198 1c38 b4d4 0039 4eb1 df3a 0e22 5e36
00000020: 9a12 2739 edba ec37 8569 2436 b304 4839
00000030: 39ae ed39 6c7e a539 c126 c73a aac0 263a
00000040: 8db5 8d39 43cb a939 327a 1e35 8bf4 6036
00000050: 8e81 3438 6782 c634 367c 8439 81bf 8d39
00000060: a634 3437 8f39 8a38 16d5 0c36 b2f8 8a3a
00000070: e3fc 3639 61e2 463a e5cd fe39 4eb4 b035
00000080: a21f 1b3a 7f9a 3c38 5f7b a43a 2368 3039
00000090: 5094 2239 e8b3 b538 2b96 8a3a 0448 dd39
0.0001689783 2.4200739e-05 0.00054254965 0.00015993838 3.733492e-05 0.0001228627 0.0017066391 3.31004e-06
0.0001593329 2.8220436e-05 2.4499325e-06 0.00019075237 0.0004533397 0.00031565444 0.0015194045 0.00063611066
0.00027028882 0.00032385634 5.9037404e-07 3.3520944e-06 4.3036e-05 3.6975254e-07 0.00025269546 0.00027036297
1.0741094e-05 6.591074e-05 2.0985658e-06 0.0010602681 0.0001745108 0.00075868337 0.0004860006 1.3165497e-06
0.00059174944 4.496658e-05 0.0012548974 0.00016823462 0.00015504775 8.664263e-05 0.0010573318 0.0004220606
