pdebench/models/newly_trained_models/Advection/PINN/1D_Advection_Sols_beta0.1_PINN.pt-15000.pt (torch, 119037 bytes, 39 tensors)

linears.0.weight f4 [40, 2]
00000000: 6250 0b3d fed5 4dbe f98d 38be 4f57 293e
00000010: 1c43 86be 3099 323d d920 7a3e 5460 f0bd
00000020: 435e 333d 4663 1dbd 089a fe3c 9651 42be
00000030: f126 cbbd dc8f 803e 4f55 053f cbd6 153e
00000040: c066 003e 82c3 b73e 177d 2ebe d344 b0bd
00000050: 204a 1dbd 8c68 063e 9618 8a3e befc 053d
00000060: 0092 2ebc 16b9 943c 60f8 03bd ae8d abbd
00000070: fb35 a23e c700 743b 2e6c 1e3e 8242 313e
00000080: cd3c 993e 3cf2 713e 469a 28be 665b 20be
00000090: b1d0 01bb 6c52 c6be 883d bcbd bc05 973e
000000a0: df51 88be bbd3 b83e 8e7a a03e 7a28 953d
000000b0: 97cc fbbd 37f8 ddbc cc4d c03e 7971 62be
000000c0: d032 d5be b5c2 4f3e cdd9 0d3e eceb 07be
000000d0: 2fe0 083c 6fbe 1e3e a04b 8f3c 9757 ee3e
000000e0: 3e7e 94be 3fca 95bb 3740 67be 458c 583c
000000f0: e6b5 32bd 8e1c 183e 249d 3c3e ef7a 83be
00000100: f097 b4bd 3658 233e 7dfe b8be 6576 aa3e
00000110: 845f 71bd 39c2 9d3e ec59 0ebf c3fa b33d
00000120: 9735 9abe e9d8 663c ac61 7cbe 8079 1fbe
00000130: 8ae1 d6be 2ae1 be3d 8fcc 303e 1503 36bd
0.034012206 -0.20101163 -0.18022908 0.16537212 -0.26223075 0.043603122 0.24426593 -0.11737123
0.043791067 -0.038424753 0.031079307 -0.18976435 -0.09919537 0.25109756 0.52083296 0.14632718
0.12539196 0.35891348 -0.17039905 -0.08606877 -0.03840077 0.13125819 0.26971883 0.032711737
-0.010654926 0.018154662 -0.03221929 -0.08376633 0.3168181 0.0037231909 0.15470955 0.17310527
0.299292 0.23627561 -0.164651 -0.15659866 -0.0019808228 -0.38734758 -0.09191424 0.29496562
-0.26624963 0.36099038 0.31343502 0.07283111 -0.12294882 -0.027095897 0.37559354 -0.22113599
-0.4164033 0.20289119 0.13852616 -0.13273591 0.008354231 0.15502332 0.017492115 0.465512
-0.29002565 -0.0045712288 -0.2258309 0.013217037 -0.043630503 0.14854643 0.1841932 -0.25679728
-0.08818042 0.15951619 -0.3613166 0.33293453 -0.05892898 0.30812243 -0.5560596 0.087880634
-0.3011901 0.014089801 -0.24646634 -0.15573692 -0.41968948 0.093202904 0.17265533 -0.044436533

linears.0.bias f4 [40]
00000000: dbef 3d3d 0024 94bc bd9b 8b3d 9082 423d
00000010: 365b 05be 07a6 f7bc c55b 523d 8116 083c
00000020: abf2 c1bd f875 b03d b27a 563d afde 8e3d
00000030: f799 153e d080 a43d 4e84 773c c7d2 cfbd
00000040: 03f3 bdbd 4f78 eb3d 359c 2dbd 3ff8 993d
00000050: 056f 95bd b58f c0bd 196a e63d 65a8 d33c
00000060: 69f4 4bbd 4066 993d e886 663d 979c 9dbd
00000070: d4b8 65bd f388 f73d 4661 993d 03db fcbd
00000080: 5186 b03d 4d7b a13d d430 213d b579 633c
00000090: 0f85 c63c aec4 a13d 4160 f13d 4644 3bbd
0.046371322 -0.018083572 0.06816814 0.047487795 -0.13023075 -0.030230535 0.05135705 0.008306147
-0.09470113 0.08616251 0.052363105 0.06976067 0.14609514 0.080323815 0.0151072275 -0.101476245
-0.092748664 0.114975564 -0.0423853 0.07518052 -0.07296566 -0.0940241 0.11250705 0.025837133
-0.049793635 0.07490206 0.056281 -0.07695883 -0.05608447 0.12086668 0.074892566 -0.12346461
0.08619369 0.07884846 0.039353207 0.013883998 0.02423337 0.07898842 0.11785937 -0.045719407

linears.1.weight f4 [40, 40]
00000000: b744 393d 1454 ff3b 12da edbc 79dd 843c
00000010: b9f2 f8bc 6e94 e53d 1af1 643e 0db4 003f
00000020: cef1 eabe ac8c 3c3d 6f2f dbbd 297b 43be
00000030: 6ddf aa3d 89d2 debc 10ab 813d 280e b53d
00000040: a4bd bfbd 370c 2fbe 08a6 723c ab29 bfbe
00000050: a2c3 af3d 3312 3bbd 6cdd 283c 7683 9b3d
00000060: 68f0 313d cfc9 4bbe 9df0 78be 4e16 4e3c
00000070: c8a8 71bd ffe8 9b3e 0d6c f43a 0ba4 323e
00000080: 1325 a0bd 5548 fb3d 169d ef3c 411a 3cbd
00000090: 3c08 08bd e2f5 913e d4f9 a03c 0746 553e
000000a0: c056 e8bd 2191 753d b550 e13c 7f9a dcbd
000000b0: 85e3 3dbe 79a4 41bd a92d 7bbe 5a52 9d3e
000000c0: 2086 65bd 6c92 23be 22de 8dbd ca3a bbbc
000000d0: 2f05 4bbe a93c b4be f5f9 0ebe 1420 12be
000000e0: cfed 343e 25ad 9bbd 988d 59be 067e 67bd
000000f0: f734 5c3e bee2 9b3d 7dfc a8be a59d 613d
00000100: e405 763e aa7a 11be d398 06bd 8cfa 733e
00000110: a4d4 e53c a5d4 a5bd 3193 3fbe 3c4f 89bd
00000120: c89e 95bd e0ec 8dbe 0add f8bd cd46 12be
00000130: 963c 8abd 2b0a 5dbe 2521 2bbe f8df e3ba
00000140: eec5 873d 4091 76be 5752 ecbd e264 5c3e
00000150: fda5 b0bd 057f 5e3b 9768 8fbd 83a5 053e
00000160: 0276 71be d1ea b7bc 49ea d0be ad6b 863d
00000170: ad02 e73d ea90 193d 5d05 c53d 74a8 e23c
00000180: 77f0 823e 6964 973d ca3b d63c f57e b1be
00000190: 34cb cb3c a687 a63d 56c6 59be c04a 73bd
000001a0: 2cc4 f7bd ddb5 833d 59cf 1d3d 438b 1f3e
000001b0: 6ce4 053e cfc7 723d bb1f ed3d 96dc 8cbd
000001c0: 7b43 12be e0a3 02be 851f 21be 3e9e a63d
000001d0: b5e5 bbbe 523c 61be d495 a53e 3c6f e03b
000001e0: 9993 adbd 2d38 ffbd eebc a53e 589d 4ebe
000001f0: e374 503e 2324 04be ea2d a43c aa84 b1be
00000200: 1bb5 10be 9705 04be c150 c53a ffa3 d33d
00000210: bbd7 1abe 8779 43be c024 dd3d 828d 7ebb
00000220: 7435 68be 144a 83be 2ad1 593d 4abe 013e
00000230: 382d 67be fcc4 a3bd 8f10 3d3e 1749 43be
00000240: e052 583e f2a4 10be 377e 44be b8cb 193e
00000250: f8a3 ad3e 39d8 9dbc 5b23 e23e eb66 983e
00000260: 2478 163e 8749 90be 6c25 213e a3da ef3e
00000270: a142 b73e 17e0 4b3d e947 3b3d 0cdb 29be
00000280: 90e0 bc3c f118 d9bc 5c55 6cbc 8328 123e
00000290: edfb e2bc 40be 533d ea09 353e 8bd4 42be
000002a0: 8430 cdbc 6c38 473e 36f4 2ebe 5e6d 11be
000002b0: b5da a6bd 4e50 7cbd 5c48 11be ae0c 07be
000002c0: 127e 17bd 92a6 503e 4b47 9b3c 4563 a33e
000002d0: c774 853e ca3d 36be 1254 523e bf05 9ebd
000002e0: 752a 67be 7121 8c3d 7a18 41be dc24 323d
000002f0: f9fd 7abe 71f7 893d dc20 d23e e098 5f3d
00000300: 8491 4c3e 8e49 24bd 6681 563e 34f6 6c3e
00000310: 805a 643c cc43 833e 9470 8bbd eb15 a2be
00000320: ba51 db3d b113 583e b782 a2be cb0c b7bc
00000330: ac96 543e 0853 fa3d c6ae 243e 06b3 a5bc
00000340: 8729 0abe 68b3 3bbe ff5f 0e3d d59f 01be
00000350: 811e 6c3e 07be 8cbe 88c8 843e 7de5 7fbd
00000360: dbb8 84bd e69b 28be 0dbc 81bc 21ae fa3d
00000370: 2801 c93c 5f5b 633c 850d 223e 0576 333e
00000380: 9491 b13d bf53 8f3d 8650 1cbe 1a54 633e
00000390: 6f0e 24bc 3f7f b03d 8322 d6bc 3d5d bf3c
000003a0: bc6e 6dbd 1c24 083e 2e8a 4f3c 9e3a dd3d
000003b0: b7ea c2bd 84a8 dbbd adfa 203e 79fe 3cbe
000003c0: 51a9 27be 310d e2bd 9d29 a6bd 10f5 043f
000003d0: 1560 cbbe 3a59 63be ddbf 6cbe 6f9c 6e3e
000003e0: ad70 0a3e 9320 d8bd b727 953d 57de bb3d
000003f0: 7066 873e f6f9 c93d 164d bb3e eb4d f6bd
0.045231547 0.0077920053 -0.029034648 0.016218888 -0.030389177 0.11209951 0.22357598 0.50274736
-0.45887607 0.046032593 -0.107024066 -0.1908995 0.08343396 -0.0272 0.06331456 0.08840591
-0.09362343 -0.17094503 0.014810093 -0.37336478 0.08582236 -0.045671653 0.010306697 0.075934336
0.04344216 -0.19901203 -0.24310537 0.01257856 -0.058998853 0.304512 0.0018647924 0.1744539
-0.07819571 0.122696556 0.02924971 -0.045923475 -0.033210978 0.28507906 0.019650377 0.20827495
-0.11344671 0.05995286 0.027504304 -0.10771655 -0.18543823 -0.047275994 -0.24529137 0.30726892
-0.056036115 -0.15973824 -0.06927134 -0.022855181 -0.19826196 -0.3520253 -0.13962539 -0.1427005
0.17668842 -0.07601384 -0.2124542 -0.05651667 0.2150458 0.07611607 -0.33005133 0.055081982
0.24025685 -0.14206949 -0.03286059 0.23826045 0.028055497 -0.08097199 -0.18708493 -0.06704566
-0.07305676 -0.27719784 -0.12151535 -0.14284821 -0.06749837 -0.2158591 -0.16711862 -0.0017385473
0.06629549 -0.24078846 -0.115391426 0.21522859 -0.0862541 0.0033950221 -0.07002371 0.13051419
-0.23580173 -0.022450836 -0.40803745 0.06563506 0.11279807 0.037491716 0.096201636 0.027668215
0.25574085 0.073921986 0.026151557 -0.34667173 0.024877168 0.08131342 -0.21267065 -0.05939746
-0.12097964 0.06431172 0.03852782 0.15580468 0.13075417 0.059272584 0.11578318 -0.06878011
-0.14283554 -0.12757826 -0.1573468 0.08135651 -0.3669869 -0.21995667 0.32340872 0.0068491977
-0.08475418 -0.124618866 0.32370704 -0.2017721 0.20357089 -0.1290441 0.020041425 -0.34671527
-0.14131586 -0.12892757 0.0015053974 0.10334014 -0.15121357 -0.19089328 0.10798025 -0.003884167
-0.22676641 -0.25642455 0.05317799 0.12670246 -0.22575843 -0.07996556 0.18463348 -0.1907085
0.21125364 -0.14125422 -0.19188772 0.15019119 0.3391416 -0.019268142 0.441676 0.2976602
0.14694268 -0.28181097 0.15736932 0.46846494 0.3579302 0.049774256 0.045722876 -0.16587466
0.023056298 -0.02650115 -0.014424648 0.14273266 -0.027708018 0.05169511 0.17679563 -0.19026391
-0.025047548 0.19455117 -0.17085347 -0.14201877 -0.08147184 -0.061600022 -0.14187759 -0.1318843
-0.036985464 0.20376042 0.018954894 0.31911674 0.26065657 -0.17797008 0.20539883 -0.0771594
-0.2257479 0.06842316 -0.18856993 0.043492183 -0.24510945 0.06736649 0.41040695 0.054589152
0.19977385 -0.04010921 0.20947799 0.23140794 0.0139375925 0.25637662 -0.06808582 -0.31657347
0.107089475 0.21101262 -0.31740353 -0.022344967 0.20760602 0.12222868 0.16082296 -0.020226967
-0.13492404 -0.18330157 0.034759518 -0.12658627 0.23058511 -0.2748873 0.25934243 -0.062474716
-0.06480571 -0.1646572 -0.01583674 0.12240244 0.024536684 0.013876765 0.1582547 0.1752549
0.08670345 0.06998395 -0.15265092 0.22200051 -0.010013207 0.0861802 -0.026139503 0.02335989
-0.057966933 0.13295025 0.012667222 0.10802196 -0.095174246 -0.10725501 0.15720625 -0.18456449
-0.16373183 -0.11037672 -0.08113406 0.51936436 -0.39721742 -0.22202006 -0.23120065 0.23301862
0.13519545 -0.10553088 0.07282966 0.09173267 0.2644534 0.098621294 0.3658225 -0.120265804

linears.1.bias f4 [40]
00000000: 3b60 bf3c 6152 6cbd df07 23bc ca27 003c
00000010: b4ad 4d3d 9c56 67bc 49f9 703d a7ad 613d
00000020: 66e4 07bd 85c8 3ebc 475c b83d e2ee afbd
00000030: 885a e23c add5 14be 30b8 39bd 8410 9abc
00000040: 5c2d 87bd de26 7dbd 5c4e 88bd 99ee 4c3d
00000050: aa79 9ebd dac2 5d3d c284 fdbd 16b7 3d3d
00000060: cf6e a6bd 9275 80bd 80db acbd 1046 e4bd
00000070: bd45 91bd 8d1c 1cbe ad16 8a3d 86c0 b6bc
00000080: abd7 5b3d b7f5 7abd 9b25 82bd 1563 733d
00000090: 377c d8bd 98de 133e 99c5 60bb 2e97 dfbc
0.023361316 -0.05769575 -0.009950607 0.007821986 0.050214484 -0.01411977 0.058831487 0.05509725
-0.033176802 -0.011644487 0.090019755 -0.08590485 0.02763106 -0.14534636 -0.04534167 -0.018806703
-0.066004485 -0.061804645 -0.06655571 0.050032232 -0.07738049 0.054140903 -0.12378837 0.046317182
-0.08126604 -0.06272425 -0.08440304 -0.11146176 -0.0709338 -0.15245266 0.06742606 -0.0223086
0.053672474 -0.06126949 -0.06354829 0.059420664 -0.10570567 0.14440382 -0.0034297465 -0.027293768

linears.2.weight f4 [40, 40]
00000000: a439 a5bd 54fd fdbd 447e f9bd a5bb ff3d
00000010: fe78 893d 31aa 223e 5d74 943d a3d1 673e
00000020: 9ca8 5f3d 7a3f 5fbd 7214 873d 75ff 86be
00000030: ca5c 6a3d 0f12 01bf cc74 16be 3417 cfbd
00000040: ee79 6d3c c4a9 1f3e 0fce 00be d79c f9bd
00000050: aa6d d3be 20a0 13bd dbfa c9be ffb7 55bd
00000060: b6ff a0bd c883 c2bd 74bb 63be 2775 dcbe
00000070: 1f6f 323c 3e71 2dbe 902b dfbd 1757 12be
00000080: ff6d c0bd a752 d7bd 3670 a5bd d108 203e
00000090: 9a30 04be c4b9 e03d 2770 08be 01a5 113e
000000a0: 0045 a63d 5dd0 143e c8bd 993b 4482 293e
000000b0: 55bb 54be 29fc 4b3e 6668 2e3e 8626 9cbd
000000c0: 382e 4a3d f493 273b affd 2ebd 87bc 223e
000000d0: 546d 533d 411e 243e 3f9c aa3b 1a70 e2be
000000e0: 1982 f23c 6544 0ebe 0279 0f3e effe f9bd
000000f0: 44d5 9fbc 14c1 4b3e daa5 72bd cd09 d03d
00000100: 416d 9c3e 996b a3bd 22bf 953d 37fc ef3e
00000110: 9cbd 0abd b53c 383e 70a4 2fbd 1db8 ad3e
00000120: 4d58 58be b889 eabc 06d9 a4bd 0e18 0bbe
00000130: 667a ac3c 3328 93bd b173 2d3a 3dfa 4b3e
00000140: ec30 b83a e1b9 9abd fdd4 df3e 68c5 b93d
00000150: c3aa 1ebe 9fe9 2fbe 393a 853e 2e75 393b
00000160: bff6 8bbe c558 88bd f525 7fbe 61ee 5ebd
00000170: a608 a8bd 3bc0 9abd 0569 a9bd 2240 88be
00000180: 26e8 9f3d 6bcf 2a3e b4e4 14bc 25e7 0abc
00000190: 0220 f6bd 997d de3d 18e8 4f3d 12af b1bd
000001a0: 22ea 8ebd acea 203d 0254 5cbd 4c41 d73e
000001b0: a44a 86be 5ec2 af3c 4eb0 003e 1a49 abbc
000001c0: b192 433e 463f c1be d322 c13d ce8b 1c3d
000001d0: 2ed5 673c 061c 4d3e 652e b63d a029 453d
000001e0: c58a cf3d 7830 b0be f012 60bd c52a 3d3d
000001f0: e9fd 35bc 2b26 823d 9e31 313d ab3e 51bc
00000200: 224b 9a3d 3590 d43d b5a5 063d 7857 8ebe
00000210: 38e3 a93d 9d01 3fbe cedd 213d 15cd adbe
00000220: c9e8 77be 7d76 8bbe c94e 8cbe 5b1f 523e
00000230: ab79 d5be e13b c53e 955d 9abe 08c1 693c
00000240: 25d4 d33d f8a5 fcbd 2515 44bc dba3 90be
00000250: 71b4 d1bd 81e5 22bf 2a08 203e 1980 25be
00000260: 61f3 be3d 20ad 99be cd97 063e 2f61 a4bd
00000270: 9827 56be 1aea bc3e f592 f9bd 4c14 1d3e
00000280: dab4 89be ec49 4dbe 496f 95be e5d6 0abe
00000290: a6a6 983e f073 ecbc c0c9 803e 9565 893e
000002a0: a5dd 1bbe 3bf4 f6bd 4c6d 1d3e e524 49be
000002b0: 9d49 22be 972f bc3d 04ac 693d dcf2 edbc
000002c0: 56c4 873d 8b17 b5be a3be 95bc 6a6d 233e
000002d0: cc7c b53d ff0e c63d f847 1abd 3b68 a6bd
000002e0: 07d7 dbbd 3b3d 6abd 8ae8 dbbd 22cd 2abe
000002f0: ce46 ccbe 7ba1 69be 0526 3d3e b194 18be
00000300: d30e 743d 9a58 6ebc 3916 0cbe d387 893e
00000310: 44c5 5bbd 3c05 a4bd e5e8 833e bb6b cd3d
00000320: 95cf 683c 397d 91be 5a81 12be 6570 393e
00000330: d972 dc3e 7129 7fbe ae50 7bbe 92a5 8e3e
00000340: c4fe d03e 2295 c83e 555d 90be 3526 b6be
00000350: 7997 4dba 0223 73be 21ba 9fbd 1355 a73e
00000360: 6006 36be abf2 873e 5dd5 80be 759a 4dbd
00000370: 0dd1 b4be a318 afbe 22a2 a7bd f589 8b3c
00000380: bb81 70be dc6a 693e da36 6f3d 21a0 aabd
00000390: 50db 223d 2c54 85bd 4b8d 56be e9b0 07bf
000003a0: 87b7 7b3d c7f9 efbd 8ddd 0dbe 8e5c 743e
000003b0: ca93 2e3c c920 99be f30d b1bc ca36 d2bd
000003c0: 9485 1bbe 7e0c d0ba 9400 163d 3097 92bd
000003d0: 42c9 9cbc 1e60 3c3e 7971 13be 1cd0 073e
000003e0: 2069 1fbd 080f fbbd f8da a13b b388 a5be
000003f0: 5b5a 3dbe e171 35be 1c99 8a3d 4ce6 14bd
-0.08067635 -0.12401834 -0.121822864 0.12486962 0.067125306 0.15885235 0.07248757 0.22638564
0.054604158 -0.054503895 0.065956965 -0.26366773 0.057217397 -0.5041818 -0.14692992 -0.101118475
0.014494402 0.15592104 -0.12578605 -0.12188118 -0.41294605 -0.03604138 -0.394492 -0.052177425
-0.07861273 -0.094977915 -0.22239476 -0.4305813 0.010890751 -0.1693773 -0.10896981 -0.14291035
-0.0939598 -0.105138116 -0.08078043 0.15628363 -0.12909165 0.10972932 -0.13324033 0.142231
0.081186295 0.1453261 0.004691813 0.16553599 -0.20774586 0.1992041 0.17032012 -0.07624535
0.049360484 0.0025570365 -0.0427224 0.1589223 0.051617935 0.16027166 0.0052066143 -0.44226152
0.029603051 -0.13893278 0.14011005 -0.12206828 -0.019510873 0.19897872 -0.0592402 0.10158119
0.30552104 -0.07979507 0.07311846 0.46872112 -0.03387223 0.17991908 -0.04288143 0.3392953
-0.21127434 -0.028630123 -0.080492064 -0.13583395 0.021054458 -0.07185402 0.00066166656 0.19919677
0.0014052666 -0.07554985 0.43717185 0.090708554 -0.15494828 -0.17178963 0.26020983 0.0028298604
-0.2733669 -0.066575564 -0.24916823 -0.054426555 -0.082047746 -0.07556196 -0.08271984 -0.2661143
0.07807951 0.16680686 -0.00908773 -0.008477961 -0.12017824 0.108637996 0.05075845 -0.0867597
-0.06978251 0.0392863 -0.053791054 0.42042005 -0.2622882 0.021454986 0.12567255 -0.020908881
0.19098927 -0.37743586 0.0943047 0.038219266 0.014149947 0.20030221 0.08895568 0.0481354
0.1013389 -0.3441198 -0.05470556 0.046183366 -0.0111079 0.06354936 0.04326021 -0.012771289
0.07533862 0.10379068 0.032872874 -0.27801108 0.08295292 -0.18652959 0.03951817 -0.33945528
-0.24209894 -0.27238837 -0.27403858 0.20519774 -0.41694388 0.38522246 -0.30149522 0.014267214
0.10343198 -0.123363435 -0.011967932 -0.28250012 -0.102394946 -0.63631445 0.15628114 -0.16162147
0.093237646 -0.30014896 0.13143845 -0.08026349 -0.20913541 0.36897355 -0.12186233 0.15339774
-0.2689579 -0.2004773 -0.29186466 -0.13558538 0.29814643 -0.028863877 0.25153923 0.26835313
-0.1522127 -0.12058302 0.15373725 -0.1964298 -0.15848394 0.091887645 0.057048813 -0.029046468
0.06629245 -0.35369524 -0.01827938 0.15959707 0.08861694 0.09670829 -0.03766629 -0.08125349
-0.107343726 -0.0571873 -0.10737713 -0.16679814 -0.3989777 -0.22815506 0.18471535 -0.14900471
0.05958445 -0.014547491 -0.13680352 0.26861438 -0.053654924 -0.08008811 0.25763622 0.100303136
0.014209648 -0.2841585 -0.14307156 0.18109281 0.43056372 -0.24918152 -0.24542496 0.27860695
0.4081937 0.3917628 -0.28196207 -0.35576025 -0.00078427006 -0.23743823 -0.07799173 0.32682094
-0.1777587 0.26552328 -0.25162783 -0.05019613 -0.35315743 -0.34198484 -0.08185221 0.017033556
-0.23486988 0.2279467 0.05840192 -0.083313234 0.039759934 -0.06510195 -0.20952336 -0.5300432
0.061454322 -0.11717563 -0.13854046 0.23863432 0.010655353 -0.29907826 -0.021613097 -0.102643564
-0.15187675 -0.0015872864 0.036621645 -0.07157743 -0.019138936 0.18396041 -0.14398755 0.13262981
-0.038918614 -0.12258726 0.004939433 -0.32330856 -0.18491499 -0.17719223 0.067674845 -0.03635244

linears.2.bias f4 [40]
00000000: ccf0 743d 2d3f b0bd ea68 76bd bf5f ba3d
00000010: 1a95 733d 4407 963c 7faa ecbc 451f 703d
00000020: 01b2 29bd b7a1 483d 4022 b2b8 2d85 1b3d
00000030: 8b86 d53d 4768 5ebc 1a97 7b3d abca 633d
00000040: 6667 dfba bde1 8e3c d0ed b83c c2ca 9a3c
00000050: efd9 473d c65a f13c 202d 223d 238f ebbd
00000060: eebd 0fbd ce99 efbc a156 17bd ac0a 98bb
00000070: b160 223d 6f88 babc ea82 44bd 4981 e8bc
00000080: 5153 17bd ac48 db3c ba85 453d 1501 2bbd
00000090: 56e3 343d f6ba afbd 0131 c4bc 0182 f53c
0.059799954 -0.086058 -0.060158648 0.09100293 0.059468366 0.018314011 -0.028889893 0.05862357
-0.041429523 0.04898235 -8.494081e-05 0.037968803 0.10426053 -0.013574666 0.0614234 0.0556132
-0.0017044365 0.017441625 0.022574335 0.01889551 0.048791822 0.02946223 0.039593816 -0.115019105
-0.03509324 -0.029248144 -0.03694785 -0.004639944 0.039642993 -0.022770135 -0.047976412 -0.02838196
-0.03694469 0.026768051 0.048223235 -0.04174908 0.044162117 -0.08580582 -0.023949148 0.029969217

linears.3.weight f4 [40, 40]
00000000: 045d fa3d aaec 26bd db73 f4bb 13cc 19be
00000010: 3693 1dbe 8da2 58bd 254e 573e b340 9b3e
00000020: bce8 29be 4079 4bbe aaf7 f83a 0b86 363e
00000030: 6590 11be ca16 84be 20e9 8dbe 4dda 7ebe
00000040: 4683 a5bd 0fd9 08bc 7d12 483e 6814 7d3e
00000050: c3e5 52be 857b 6dbe e7a0 49be 4c2e 293e
00000060: ea10 20be 57c0 3b3c cac4 26bd 449b eabd
00000070: 8400 37bc 5403 193f 1da9 043e ef9f 31be
00000080: 4c5f fabd 76b0 84be 1773 153c aabd 00be
00000090: e22e 91be 14e7 b53e b275 28be 1e34 0bbe
000000a0: 2485 b93c 45cc cd3d a206 fc3d bcc2 7d3d
000000b0: 2cdf 093d a296 9fbe 155f bcbe fc3d 45be
000000c0: 7dec 65be 7f89 4a3e 26e6 83bd 5757 503e
000000d0: 822d 8d3d e566 643e fa19 97be d5f3 803d
000000e0: c419 b33d 0a54 4bbc 4176 38be 291e 97bd
000000f0: 1578 873e 32be 3e3e 5968 12be 57be 51bd
00000100: db7a 633d c590 e2bd b597 423e 7d75 95bd
00000110: c228 dc3b 7433 b93d 8cf3 05be 3910 8d3d
00000120: 893d 15be d915 01bc 1e97 45bd 47f3 83be
00000130: 3604 b9bc deeb 05be eb5c 393e f27f c13b
00000140: ffc6 63be 0e66 e3bd bbcd e73d 6321 713d
00000150: f278 4a3e 04c5 3c3c 4a19 92be caec aa3d
00000160: 9353 11be 52ab 413e 4cc4 123e 683c b2bc
00000170: c87b 80bd 9083 be3e 17b7 26bc 3533 dc3e
00000180: 7c96 bfbe 1e44 81bc 0e41 8cbe 2d18 a53d
00000190: 68bb 0b3d 76be 05be 8090 e4bd b7c0 cf3e
000001a0: 1e02 88be 9f89 4e3e 039d 4fbe 5fbb 8abe
000001b0: ce97 e33c 4e93 a53b fd48 9d3d 5ef0 743d
000001c0: 328e 393e b8e9 8bbe 6ca6 333e d3d9 31be
000001d0: 0fe2 29be 6156 7d3e 3ccf fdbd cac1 5d3e
000001e0: f131 983c 8adc 093e 5a49 553e d4e9 ddbd
000001f0: 4459 5b3e 6160 3d3e 653b 5f3d 8bc7 99bd
00000200: f8ea 2e3e eaf4 7b3e a6f0 5d3e b651 07bd
00000210: de70 a9be 04ec 833d c5a0 65be 3408 9d3c
00000220: 7d59 7ebe 34fe 803d e852 b33e bb3d 8b3d
00000230: 281b 8ebe 8168 bd3d 219e e53b ebcb 5d3e
00000240: 6c01 c5bc b155 0dbe 483d c8bc d592 1a3e
00000250: 09db c0bd 6458 75bd 4256 203e 01cd cbbd
00000260: 88db e1bc d53d 2abe f6a6 613d 4aa0 0dbe
00000270: 5b78 1c3d 3019 ef3c cd78 413d 89c6 15bd
00000280: ec89 60be c6a5 093e 2acd 533e a153 33bd
00000290: 549b 8b3e 8d07 a7bc 93c6 ae3c cf8f be3d
000002a0: 3d80 683e 9abb 1a3e f8c3 823d 483e fa3c
000002b0: c725 373e 97be 813e 92d6 24bd 0f0e 853e
000002c0: d945 303b 279a 0bbd 4441 753e 1e68 2fbe
000002d0: 1592 37be 39a1 1bbb 912a 9bbe 5927 a1bd
000002e0: 15cd 20bd ef69 86bd 9fc4 5e3e 2378 b43d
000002f0: 3dbd e63d 912e 4ebe b8d1 9b3c e293 bd3d
00000300: 5e10 91bd 0996 953e a0a1 37be 9c39 1ebd
00000310: 1de0 a63e 4ef8 e43c ca06 b8bd e14e 8abe
00000320: 9f3c a1bc 729e b13d 217f eabd d2e1 0d3e
00000330: b1d4 2bbe 2cee af3d ec4a 9dbd 6127 2c3e
00000340: 9089 84bd 4a18 753e 3319 b43d 6f9f 183e
00000350: 44ca 713c e9ed 033e 9ba3 643d f162 483e
00000360: 19ca 383d 473b c6bd 7611 ba3e 9137 5e3e
00000370: 5a9a 9d3d 1243 2a3d 8a05 a53e 6a1b 06bf
00000380: 1707 bdbc f64f 84bd 5a41 ec3c 8850 08bd
00000390: a456 b23c 8622 e8bd 3122 9dbd d4ba 02be
000003a0: 17fb ba3c 0972 3c3d b437 973e 97d6 89be
000003b0: 444b e73d 908f d0b9 7456 9fbd a479 113e
000003c0: 2caf 5f3c 8c45 8bbe fef5 00bb 750b 993d
000003d0: 8c1b 0cbe 73b0 d73d 97b2 b13c 9139 273e
000003e0: eecf 9cbe 9429 1c3e e6a9 363d dc39 6ebc
000003f0: bdb8 a63d c95c 033d b10b 053e 1d11 493e
0.122247726 -0.040753044 -0.0074601 -0.15019254 -0.15388188 -0.052889396 0.21025904 0.303228
-0.16592687 -0.19870472 0.0018994708 0.17824571 -0.14215238 -0.25798637 -0.27716923 -0.24887963
-0.08081679 -0.008352532 0.19538303 0.24714816 -0.2059546 -0.2319165 -0.19690286 0.16521567
-0.15631452 0.011459432 -0.040715016 -0.11455396 -0.0111695565 0.59770703 0.12955137 -0.17346166
-0.12225208 -0.2591588 0.009121678 -0.12572351 -0.2835608 0.3552786 -0.16451147 -0.135941
0.022646494 0.10048727 0.123059526 0.06195329 0.0336601 -0.3116961 -0.36791292 -0.19261926
-0.22453494 0.19779013 -0.06440382 0.20345818 0.068934456 0.22304876 -0.29512006 0.06296507
0.08745149 -0.012410173 -0.1801386 -0.073787995 0.26458803 0.18627241 -0.14297618 -0.051206913
0.055537086 -0.11062769 0.19003184 -0.072978 0.006718726 0.09043017 -0.13081187 0.0688786
-0.14574255 -0.007878744 -0.04823982 -0.25771543 -0.022585016 -0.13078257 0.18101852 0.005905145
-0.2224388 -0.1110345 0.11318537 0.05886973 0.197727 0.011521582 -0.2853492 0.08345945
-0.14192037 0.1891301 0.14332694 -0.02175732 -0.062736094 0.3720975 -0.010175488 0.43007818
-0.37419498 -0.015779551 -0.27393383 0.08061252 0.03411427 -0.13060936 -0.11160374 0.40576717
-0.26564115 0.20169686 -0.20274739 -0.27096078 0.027782347 0.0050529605 0.07679937 0.059799545
0.1812065 -0.2732675 0.17543954 -0.1736825 -0.16590141 0.24739982 -0.123930424 0.21655956
0.018578501 0.13463035 0.20828763 -0.10835615 0.21420771 0.18493797 0.054500002 -0.07508763
0.17081821 0.24605146 0.21673831 -0.03303691 -0.33093923 0.06441501 -0.2242461 0.01916895
-0.24838825 0.062984854 0.3502419 0.067988835 -0.27755094 0.09248448 0.007007376 0.2165982
-0.02404853 -0.1380222 -0.024443284 0.15095074 -0.09416778 -0.05989875 0.15657905 -0.09951211
-0.027570501 -0.1662515 0.055090867 -0.13830677 0.038200717 0.029186815 0.047234345 -0.03656629
-0.21927613 0.13442144 0.20683733 -0.043780927 0.27266943 -0.020389343 0.021334922 0.09304773
0.22705169 0.15110627 0.06385034 0.030547276 0.17885505 0.2534072 -0.040243693 0.25987288
0.0026897101 -0.034082558 0.23950678 -0.17129561 -0.1792682 -0.002374722 -0.30305913 -0.07868833
-0.03925808 -0.06563174 0.21754692 0.08811977 0.11266563 -0.20134951 0.0190209 0.09256722
-0.070832 0.2921603 -0.17932749 -0.03862916 0.3259286 0.027950432 -0.0898567 -0.27013305
-0.019682227 0.08672799 -0.11450029 0.13855675 -0.16780354 0.085903496 -0.07680306 0.16811897
-0.064715505 0.23935047 0.08793869 0.14904569 0.014757697 0.12883724 0.05582009 0.19568993
0.04511461 -0.09679275 0.36341447 0.21700884 0.07695456 0.04156787 0.32230788 -0.5238558
-0.02307467 -0.06460564 0.028839756 -0.033279926 0.02176983 -0.1133471 -0.07672537 -0.12766582
0.022824807 0.04600719 0.29534686 -0.26921532 0.11293653 -0.00039779814 -0.077801615 0.14206558
0.013652604 -0.27201498 -0.0019677873 0.074728884 -0.13682383 0.10531702 0.021691604 0.16330554
-0.30627388 0.15250236 0.04459562 -0.014540162 0.08140705 0.03207091 0.12992741 0.19635434

linears.3.bias f4 [40]
00000000: 6bfd 67bd c882 df3c 322b b0bb c3de a13c
00000010: 0bb4 4b3c c3db 883c 475b 373d 3582 da3d
00000020: 17c0 af3c d7ab b4bd b82d b33c b27d 80bd
00000030: a392 04bd 067e 62b9 6674 72bd 6924 e8bc
00000040: e31a 383c 85bb bdbc 9e32 0a3d b000 173d
00000050: e1c2 ef3d 378c 8d3c 87c1 8a3d f831 013d
00000060: 5eeb 9b3c 8c61 303d 160a 55bc 63a1 0b3d
00000070: 8e92 143d 883b 61bd af5a c53b 0e75 283d
00000080: 8186 7cbd 657c 32bd 703e 3ebd f4a3 9d3b
00000090: d02b dc3c 528e 69bc 9565 e6b9 cb21 203d
-0.056638163 0.027284041 -0.005376243 0.019759541 0.012433062 0.016706353 0.044764783 0.10669366
0.0214539 -0.08821838 0.021872386 -0.062739745 -0.032366406 -0.00021599987 -0.059193037 -0.028337674
0.011236879 -0.023160705 0.03373968 0.03686589 0.11707092 0.017278774 0.06775194 0.031541795
0.01903313 0.043061778 -0.013002893 0.034089457 0.036272578 -0.054988414 0.006022773 0.041127257
-0.06165171 -0.043575663 -0.046446264 0.0048108045 0.02687636 -0.014255123 -0.00043944703 0.039094727

linears.4.weight f4 [40, 40]
00000000: e216 163d ac6d cc3d 227b b23d 4923 ecbd
00000010: 3220 2bbb fed0 bc3d 6d60 86bb c024 0e3e
00000020: 0429 2dbe a924 7cbe 1bae a13e 955c e73d
00000030: 51b3 193e 3010 b1bc d90e 0a3e 0eb9 983d
00000040: decb e0be 453c b6bc 6278 94bd a66e 7a3c
00000050: 8f75 4cbd 1e5e b9bc 08ab cdbc 23c8 db3c
00000060: c1d7 c4bc 958e 72be 98af a03d 3c58 2bbe
00000070: 0e67 99bb 0605 6d3e e38f b63c 9ef1 d3be
00000080: 6dbf a6bd 7f6e b4bd bb97 933e 1c07 a73e
00000090: 23d0 ee3b 5995 b0bb 3fb2 353d bc8c e73d
000000a0: bfb9 7abd 37ab 91be 1840 eabd bd21 cd3e
000000b0: cf5c 5cbe 7069 e5bd e0ee 85be a108 863a
000000c0: da66 8cbc adb5 54be 822f 1c3e 54fc 463e
000000d0: 08b8 9d3c 1cb8 62bd 6996 83bd 3f23 713d
000000e0: 877f 6abd c8f1 23bd 6f37 52be 0a6c ba3d
000000f0: 50f4 a2be eac5 993a d0b4 533c 1ac3 36be
00000100: 2157 71bb 82fd a6bc 9d0b 9abc cd70 273e
00000110: 07ff 5cbe d911 a63d 8639 1fbe 0dda a5be
00000120: d584 66bd 3a2f 163e 6f3d 913d 24dd 7e3e
00000130: 6131 53be 3942 8ebd 63ec 413d 4577 0abe
00000140: 0118 ca3d e4df 1dbe 9e24 aebd d3a6 543e
00000150: 168f c3bb 9a0d 0cbe f392 1dbd 3dee a93e
00000160: 0741 ce3e c2c1 023e 330e d3bd cc6f 1a3e
00000170: e229 5abd 2b22 c73d 018d 8dbd bc82 adbc
00000180: a960 48be 6ca0 a63d de06 28bd 5888 b1be
00000190: bef6 723d 5155 b9bd 552f 19be 4704 143c
000001a0: 58a3 043e fea4 40be 6089 693e 975e 473d
000001b0: 99bd e73d df9e 8d3e 9749 b13c ed5f 33be
000001c0: 201e dcbe eb1d 563e d0ce c43e 34ef 19be
000001d0: c039 acbd 4280 5bbe 40a3 97be 5dd6 b13d
000001e0: 05dd 9cbe cec8 48bc 0105 63be 7759 01be
000001f0: dcde c3ba 0bc7 873d 1d69 463d 7b9d dd3d
00000200: 945e ed3d 8314 4d3e 6386 3c3e e988 efba
00000210: 2d81 19be 5b48 4c3d 8bb2 473e e43d af3d
00000220: 0d49 90bc 7066 5fbe 6d42 893e bf5c 7abc
00000230: 8060 853e 789d 7fbd 683a 19bb 3c1b fcbe
00000240: 5aa9 e8bd 9c20 d7bd a0a0 493d 337e a4bd
00000250: 0f99 e93d 5e72 b1bd 8ec4 7e3c 2e91 7bbd
00000260: 595a 16be 7af6 3abd 740c 893e 4244 503e
00000270: 3ded 8f3d 2293 813e 2b92 743d 1285 3c3e
00000280: 56eb cdbd c3be c23e 6f7e 863e aba9 7ebe
00000290: 062b 4f3d fce7 ecbd 53ff 59bc f680 88be
000002a0: f391 02be 23b3 1ebd 895a 593e a7c7 0cbd
000002b0: d280 a63d cc1a 013f 3959 f6bc 1fa5 f3bd
000002c0: ccc9 98be be9a aa3e 8ea1 f7be 1a7f c8ba
000002d0: 2340 c3bd 4b5a ccbe cf83 adbd f121 1ebd
000002e0: 22e2 ac3d 6a49 d23e 4c13 01be 2f07 e43d
000002f0: a8e6 2d3e 6dee f0bd aece a13e 0f95 f1bd
00000300: 9447 4a3f d7d8 ff3d 30b7 b73d 952a b53e
00000310: f8cd 26be e818 e6bd 3a31 c2bd 1edf 9fbd
00000320: 8cfc b13e bf44 f3bc fdec 843e f9d6 1bbe
00000330: a1c4 a5bc f998 80be 402f 973c c0d4 6cbd
00000340: 2b24 40be 1db7 9abe 7558 37be 1566 a33d
00000350: 68f3 dabd d96b 1dbd 9fc6 29bd 36c3 9abb
00000360: 1791 06be 2432 bbbe d090 c73d d492 283e
00000370: 882a 8e3d 986a 4bbc ae78 293b d82d 853e
00000380: 6478 8ebd 0812 383e 06c3 273e c492 103d
00000390: c61e 52be ac5e 84bd bb72 983c b931 a8be
000003a0: ce01 b53e 8655 15bd 1480 113d eed1 fabd
000003b0: 4b1c 33bd 0735 56be 422b a33c d42f 1b3e
000003c0: 3eed 2abc 3397 18bd c556 93be 96a8 22be
000003d0: c6e0 0cbe 9fa7 0bbe a153 16be 68e0 9bbe
000003e0: 970d bf3d f454 ae3d 0afd ebba aa1b b5bb
000003f0: d649 cf3d dc98 e0bd be0c fe3d c8f1 d93d
0.036642917 0.09981856 0.08714892 -0.115301676 -0.002611172 0.092195496 -0.0041008503 0.13881207
-0.16910177 -0.2462336 0.31578144 0.112969555 0.1500981 -0.021614164 0.13482226 0.074571714
-0.43905538 -0.022245536 -0.07249524 0.01528517 -0.0499168 -0.022627886 -0.025105968 0.026828831
-0.02402866 -0.23687203 0.07845992 -0.16732877 -0.0046814745 0.23146448 0.022285407 -0.41395277
-0.0814198 -0.08810138 0.288267 0.32622612 0.0072879954 -0.0053888974 0.04435944 0.1130614
-0.061212298 -0.2845094 -0.11438006 0.40064803 -0.21519779 -0.11201751 -0.2615881 0.001022596
-0.017138887 -0.20772429 0.15252498 0.19432193 0.019252792 -0.05535136 -0.06425173 0.058871504
-0.057250526 -0.040025502 -0.20528959 0.09102638 -0.3182702 0.0011731957 0.012921527 -0.17847863
-0.0036825615 -0.020384554 -0.018804366 0.16351624 -0.2158166 0.08108873 -0.15549287 -0.32392922
-0.056279022 0.14666453 0.07091796 0.24889046 -0.20624305 -0.06946225 0.047344577 -0.1352206
0.0986786 -0.15417439 -0.08503078 0.20766763 -0.005967985 -0.13677064 -0.03847022 0.33189574
0.40283987 0.12769225 -0.10305443 0.1508171 -0.0532626 0.09723314 -0.0691166 -0.021180503
-0.19568123 0.08136067 -0.041022174 -0.34674335 0.059317343 -0.09049476 -0.14959462 0.009034223
0.12952936 -0.1881294 0.2280631 0.048674192 0.1131546 0.27660272 0.021641536 -0.17517062
-0.42991734 0.2090985 0.38439035 -0.15032655 -0.084094524 -0.21435645 -0.29616737 0.08683465
-0.30637375 -0.012254907 -0.22169878 -0.12631784 -0.0014943737 0.06629761 0.048440088 0.10821053
0.11590305 0.20027356 0.1841064 -0.0018275055 -0.14990683 0.04987369 0.19501702 0.085567266
-0.017612958 -0.2181642 0.2680849 -0.015280901 0.26050186 -0.062406033 -0.002338076 -0.49239528
-0.11360426 -0.105042666 0.04922545 -0.08031883 0.11406147 -0.08664392 0.015549792 -0.06141775
-0.14682902 -0.045645215 0.26767313 0.20338538 0.070276715 0.25307566 0.05970971 0.18410137
-0.100546524 0.38036165 0.26268336 -0.2486941 0.05057814 -0.11567685 -0.013305503 -0.2666089
-0.12750988 -0.038745057 0.21225943 -0.03437009 0.08130039 0.50431514 -0.030071842 -0.11896729
-0.2984146 0.33321184 -0.48365444 -0.0015296668 -0.095337175 -0.39912638 -0.08472406 -0.038606588
0.08441569 0.41071635 -0.12605017 0.11134183 0.1698252 -0.11764226 0.31602997 -0.11796009
0.7901547 0.12492531 0.08970487 0.3538405 -0.16289508 -0.11235219 -0.094820455 -0.07806228
0.3476299 -0.029695867 0.25962058 -0.15218724 -0.020235362 -0.2511671 0.018455148 -0.05782008
-0.18763797 -0.3021783 -0.17904837 0.07978455 -0.10690957 -0.03843293 -0.041449185 -0.004722978
-0.13141285 -0.36561692 0.09744418 0.1646226 0.06941706 -0.012415551 0.0025859284 0.26011539
-0.069565564 0.17975628 0.1638299 0.035296217 -0.20519552 -0.0646337 0.018609395 -0.32850435
0.3535294 -0.036458515 0.035522535 -0.12247072 -0.043728154 -0.20918666 0.019918088 0.15154964
-0.0104325395 -0.03725357 -0.28777137 -0.15884623 -0.1375762 -0.13638161 -0.1468034 -0.30444646
0.09328764 0.08512297 -0.0018004489 -0.0055269795 0.10121505 -0.109666556 0.12404774 0.10641819

linears.4.bias f4 [40]
00000000: df14 54bd bf14 913c d732 94bc f69d cbbc
00000010: 8343 b83c feec a8bc e5a1 94bd f9ac 813c
00000020: cd2d a13b 6c2f eabc 3a60 0abe 62ee 063d
00000030: 8da4 1cbc 7391 693c 414f 383c c082 4f3c
00000040: 5173 41bd f24f 123c f734 673d 8810 a2bc
00000050: c96f c0bc 94e4 143e 9199 e43c 1577 1b3b
00000060: 78a7 1d3d fabf 073c 73e5 0cbd 34c3 b3bb
00000070: cef3 81bd 7c63 693c a5b6 8d3d 9ca1 e73c
00000080: bb82 b43c d54e 8ebc 6b42 1a3c 1fb8 693d
00000090: d177 4cbc 4506 54bd a821 afbd 9b40 e93b
-0.051777717 0.017710088 -0.018090649 -0.024855595 0.02249313 -0.02062082 -0.072574414 0.01582955
0.00491879 -0.028587066 -0.1351327 0.032942183 -0.009560716 0.014255869 0.011249364 0.012665451
-0.047229115 0.008930193 0.056446996 -0.019783273 -0.023490803 0.1454032 0.027905257 0.0023722101
0.03848979 0.008285517 -0.034398507 -0.0054859165 -0.0634533 0.01424491 0.06919602 0.028275304
0.022034993 -0.017371574 0.009415249 0.057060357 -0.012479738 -0.05176379 -0.08551341 0.0071182973

linears.5.weight f4 [40, 40]
00000000: 19bb 2e3e 933d 3dbc 0e23 47ba a4f0 d73b
00000010: 93ad b7bd ae95 913e 0340 44bc 069c 1cbd
00000020: cdff fc3d a8aa 61bd b7cd 063e 3cf4 3e3e
00000030: d547 18bd 9d0f 9a3c b39b 8cbb 3bc7 cc3d
00000040: fbf1 823e cef1 43be 21f9 b83c 0185 ddbe
00000050: 9e26 16be 585c 48be 0139 9cbe 6cef b7bd
00000060: e557 853d de4e 91ba 9edf 7fbe e93b 643d
00000070: c2c4 0fbc 0cb9 e63d 12a5 103e c11d 0f3e
00000080: b87d 8a3b 6b09 15be d11a bfbd 3550 ea3d
00000090: 6fe6 4a3e e011 5cbe e8b6 8bbe 1895 913e
000000a0: 69f1 a4bd dddc 6c3c 46fb e1bd 5b19 cebd
000000b0: 2615 7439 e94b 08bd 8861 aabd 86c1 eebe
000000c0: e3bc 9f3d a90e 303e a5b6 babd 22b1 7b3d
000000d0: 1c53 1d3e d626 86bd b4d9 f23d a601 21bd
000000e0: 69b4 1e3d 06dc 3e3e 426b 383d 98a6 3ebc
000000f0: 772e 2d3d 0f3f b0bd 01d9 40be 1108 9ebd
00000100: 44c0 9b3d cf57 0abe 198e a5bc 3d7c 31bc
00000110: 5710 a9be 715c 9ebd bbc2 993c 3692 023e
00000120: 12e0 bf3c 9784 1ebd df19 b3bd 6d36 63bd
00000130: 8dbf 0bbd d270 163e 903e 52be f186 2e3d
00000140: 23d2 3dbe dcac 553d a2eb b4bd 7d31 7d3d
00000150: d795 5a3d fe64 28be 104c bbbd 8333 703e
00000160: ccd1 b3be bada 583d 22d0 a8be 63c2 b23d
00000170: 7239 0dbe 857c 9e3c 7ea5 573c 3317 313d
00000180: a578 143e f04c 6c3e f72b 513e 4056 ef3d
00000190: 850d b8bd f623 043e 0aa7 95be 394e dd3e
000001a0: e125 7abd a600 9dbc 5eaf 8bbd 18a3 b0be
000001b0: 8dba 5fbe 5c5a 80be 94ff e5bd a70c a1bd
000001c0: 5d1a 06bc cac5 a13e b7b3 b8bd 07c1 e0bc
000001d0: dabf 94be 0779 723e 0de9 8f3b b137 38bd
000001e0: a667 4fbe 22f0 c13e 9a7a 0f3e d3fa 97be
000001f0: 9a6f f63d 7029 db3d 9dcc e63d fa7e 5a3e
00000200: 6542 a53d 558e 903d ab11 4fbd 6dc9 5dbd
00000210: 70b1 163e 91e1 0a3d 9579 80bd 38d9 04bd
00000220: 8090 cebc 7434 eebc dd87 303e 19bf 28bd
00000230: 4f78 8fbe 3e24 3c3e 2f9f ab3d d36e acbd
00000240: b76a 7d3e fa7d 353e a99b f6bc ce97 00be
00000250: 5444 a23e e740 18be 2c40 b5bd 7f5e 8a3d
00000260: 5d93 fd3c 859c 713e f16d dcbd feb1 5ebd
00000270: 4453 a9be e17c ed3d 2f00 26be eea2 7abd
00000280: 0b52 7ebd 5a26 8fbe 5c5a efbc 43a9 6a3d
00000290: de56 eebd 2573 c33c 361b 39be 8f8c 69be
000002a0: b8eb 6dbe c6f6 743e 08ab 2e3e aad6 90bd
000002b0: 4ce4 e03d 73f9 e9bd 6f23 03bd 19b5 503e
000002c0: c8e9 4e3e ac8b 753b 728f 4c3d 2591 07bd
000002d0: 4f6e 97bd 35c0 a03e 811c 1fbe e993 163e
000002e0: 611f 2b3e a323 003e 3195 533e b163 2e3c
000002f0: 5a11 7e3d 5fc2 843e 312b 1ebe 3bce 9abe
00000300: 82f8 2a3e 4a90 a13e a754 333c c681 8f3d
00000310: 4a10 323e 7d75 453e 9e65 b43d 2575 063e
00000320: a174 733d 4f56 f13d 4753 9a3c 4131 acbd
00000330: 0edb eb3d 17a5 77bc 0f2f 67bd 9c6a b2bc
00000340: 3549 ddbc c9f1 a83d dee9 14be 68ef 0f3e
00000350: e8bb 85bd 2485 c6bd ecd4 fcbe 147e 1cbe
00000360: 2c6a 3b3e 4cdd 423e 95d3 a93d b71d 39bd
00000370: 47ad e53d f851 083d dd0d f13d 218e c2bc
00000380: e9e9 9d38 4f90 e13d 2906 ee3d 2ee8 d53d
00000390: b7aa 4c3d 4fc3 a53e b7a5 70bd 05d5 3fbe
000003a0: ebb0 dfbc bac3 53bd 34f5 4a3d 84d5 2fbd
000003b0: 7160 01be 714a a2be 6cba e1bd 6cd9 f73d
000003c0: d008 92be 1237 1ebd 3f1d b53e c113 c7bd
000003d0: bd4c c73d 01a1 473e 55c0 3b3e 3303 753e
000003e0: 6ca6 d83c 038e 6cbd f363 9b3d eade 033e
000003f0: 0012 823d 9cc2 833d 5a3f a8be 8fc2 403e
0.1706356 -0.011550325 -0.0007596471 0.006589966 -0.089686535 0.2843451 -0.011978152 -0.038234733
0.123534776 -0.05509439 0.13164411 0.18647856 -0.03717788 0.018806273 -0.0042910217 0.09998938
0.2557524 -0.1913521 0.022579731 -0.43265536 -0.14663169 -0.19566476 -0.3051224 -0.08981213
0.06510905 -0.0011086126 -0.24987647 0.055721197 -0.008774938 0.11265764 0.1412547 0.13976194
0.0042264126 -0.14554374 -0.09331287 0.114410795 0.19814466 -0.21491194 -0.27287984 0.28434062
-0.08053858 0.014456955 -0.11034255 -0.1006343 0.00023277532 -0.03327552 -0.08319384 -0.46632022
0.07799699 0.17193092 -0.09116868 0.061448224 0.15363735 -0.06550376 0.1185793 -0.039308213
0.03874627 0.1863862 0.045024164 -0.011636399 0.04228064 -0.086057775 -0.1883278 -0.07716382
0.07605031 -0.13510059 -0.020209359 -0.010832843 -0.3302028 -0.077324755 0.018769613 0.12751088
0.023422275 -0.038700666 -0.08745169 -0.055471826 -0.034118224 0.14691475 -0.20531678 0.04260916
-0.18537192 0.052166805 -0.08834006 0.061814774 0.053365555 -0.16444775 -0.09145367 0.2345715
-0.35121 0.05294297 -0.32971293 0.087284826 -0.13791445 0.019346485 0.013162015 0.043235015
0.14499147 0.23076224 0.20426928 0.11686373 -0.08986954 0.12904343 -0.29229003 0.43223742
-0.06107128 -0.019165348 -0.06820558 -0.3449943 -0.21848507 -0.2506894 -0.11230388 -0.07863741
-0.008184996 0.31596214 -0.09018653 -0.027435793 -0.2905262 0.23678981 0.0043917955 -0.044974986
-0.20254382 0.3787852 0.14011613 -0.2968355 0.12033005 0.10701263 0.11269496 0.213375
0.080693044 0.07058398 -0.05055396 -0.054147173 0.14716125 0.033906523 -0.0627319 -0.03243372
-0.025215387 -0.029077746 0.17239328 -0.04119787 -0.28021476 0.183732 0.08379971 -0.084195755
0.2474774 0.17723837 -0.030103521 -0.12557909 0.31692755 -0.14868508 -0.088501304 0.06756305
0.030954057 0.23594864 -0.10763157 -0.054368965 -0.3307134 0.115960844 -0.16211008 -0.061190538
-0.06208996 -0.27958947 -0.029217891 0.057290327 -0.11637662 0.023858616 -0.18076786 -0.22807525
-0.23234451 0.23922262 0.1705743 -0.07072194 0.10981044 -0.11424532 -0.032016214 0.20381583
0.20206368 0.0037467284 0.049941488 -0.033097405 -0.073940866 0.31396642 -0.15538217 0.14704861
0.16711189 0.12513594 0.20662381 0.0106438855 0.062028266 0.25929543 -0.15446164 -0.30235466
0.1669636 0.31555396 0.010945476 0.07007174 0.17389026 0.192831 0.088084444 0.13130625
0.059437398 0.1178404 0.018838538 -0.08407832 0.11516391 -0.015115044 -0.056441363 -0.021779351
-0.027012447 0.08249242 -0.14542338 0.1405617 -0.06529981 -0.09693363 -0.49381196 -0.1528247
0.1830222 0.1902973 0.08292309 -0.045194354 0.11214691 0.033281296 0.11770222 -0.023749413
7.5299125e-05 0.11013853 0.11622269 0.104446754 0.049967494 0.3237557 -0.058751788 -0.18733604
-0.02730604 -0.05170033 0.04955025 -0.042928234 -0.12634446 -0.3169742 -0.11021885 0.12102017
-0.28522348 -0.038626738 0.35373875 -0.09720565 0.097314335 0.19495012 0.18335088 0.23927002
0.026446544 -0.05775262 0.07587423 0.12878004 0.063510895 0.06433603 -0.32860833 0.18824218

linears.5.bias f4 [40]
00000000: 2de8 133c 5530 463d 1743 693d cef4 b03d
00000010: f1c1 67bd d19d 013d 2ab5 28bd cb2e 573c
00000020: b6ad 14be 3b23 003d b6c0 073d 40cc 22bd
00000030: 2d34 93bc fbeb 5bbd eb00 afbd dab6 efbc
00000040: 3d53 bbbd a148 793c 1619 0fbd f1ba 19bb
00000050: 5e57 38bc fd97 ca3c d599 23bd 47bc 143c
00000060: d0ab 17bd 48bb 29bd e34c b03c 1027 29bd
00000070: 76ae c9bc e61f f7bb 9200 a43c e189 0cbc
00000080: b055 81bc 391a 1d3d be5d e53c a085 b93c
00000090: 97a5 98bb b1c4 963c 4cde b0bc 3804 ed3c
0.009027523 0.048385937 0.056948747 0.08640443 -0.05658144 0.031644646 -0.041188397 0.013133715
-0.1451939 0.0312836 0.033142768 -0.03974557 -0.017969215 -0.053691845 -0.08545097 -0.029261995
-0.09146736 0.01521507 -0.034936033 -0.0023457373 -0.011251299 0.024730677 -0.039941628 0.009078092
-0.037029088 -0.04143837 0.021521037 -0.04129702 -0.024619322 -0.0075416444 0.020019803 -0.008577795
-0.01578793 0.038355086 0.027998801 0.022646725 -0.0046584117 0.018404337 -0.021590374 0.028932676

linears.6.weight f4 [1, 40]
00000000: 7dc5 24be 6d21 52be 7b01 09be 761a 97be
00000010: 5a30 103e f64d debe 7ec7 fa39 ebea 40be
00000020: 4964 1a3e 4715 4cbe 87e8 edbe f2c0 7f3d
00000030: 8b61 c83d afff 943e 5b4b 2638 4a79 8e3e
00000040: 5e1f 053e 1ae0 2cbf c0e4 3f3d d746 f43d
00000050: 3c95 1b3d 4240 13be 165f 9739 adcc 69be
00000060: 03c4 7b3e 02c0 043e 45c5 4bbe 08b5 843e
00000070: bab8 003e de4c dc3d 5c7f 363e 9a47 c13d
00000080: e2a9 223d fdb3 f9bd 32dc 8ebe 6faa 07bd
00000090: e607 493d 390d 87b9 2e50 463e 3e0f 77bd
-0.16090961 -0.20520563 -0.13379471 -0.29512376 0.14080945 -0.43418854 0.0004783235 -0.18839614
0.15077318 -0.19929992 -0.46466467 0.062439866 0.0978423 0.2910132 3.9647664e-05 0.2782691
0.13000247 -0.6752945 0.046849012 0.11927574 0.037984118 -0.14379981 0.0002887181 -0.22831984
0.24586491 0.1296387 -0.19899471 0.25919366 0.12570468 0.10756849 0.17822021 0.09437485
0.039712794 -0.12192533 -0.2790237 -0.033121523 0.0490798 -0.00025759058 0.19366524 -0.06031727

exp_avg f4 [40, 2]
00000000: c198 9837 43b0 95b9 ff57 a7b9 0ea5 a339
00000010: 83d8 23bb 1236 dcb9 48e3 833a d792 18ba
00000020: 128f 623b fce6 e23a fa6a d739 5488 d239
00000030: 710e 03bb bbbb e4b9 a478 883a ef43 73ba
00000040: 832c e63a f646 d439 a0dc 2fbb a9ba 6dba
00000050: cec4 87ba 1a20 3dba ddab 0139 def0 58ba
00000060: 2a1f c2bb f79b 3ebb e57d 5dbb 3da1 c0ba
00000070: 9fce 4b3a af3b 54b9 9aba 663b a9af c33a
00000080: 8a90 093b 4794 3a39 e524 8fbb 2fad acba
00000090: ce43 9c39 5b26 9839 3b3d 2abb 1f7d 49ba
000000a0: 7e96 2b39 591d 183a 3c93 0e3b 5807 7f39
000000b0: 0f2a eebb 29ae 33bb f911 1c3a bb54 e8b9
000000c0: 9cc8 77ba 602c 1c3a 9059 f1b7 bdda 0bba
000000d0: 9e51 b7ba 9491 19ba f88a ad3a ae07 d739
000000e0: 1edc 3fb8 fde7 4e3a a215 8fbb 8427 d1ba
000000f0: 3d2a 42bb 549a 79ba 6153 743b a4f1 c63a
00000100: 26b5 89bb e457 c6ba 139f 9bba 6292 a1b8
00000110: f70c 25ba 8180 5bb9 2868 11ba 0cd0 663a
00000120: e790 cbba d9ac fa39 bf31 27bb d817 c4b9
00000130: 602b 41bb 5807 61ba bf48 403b c1e9 ac39
1.8190944e-05 -0.0002855082 -0.00031918284 0.00031212758 -0.0025000877 -0.00042001955 0.0010062242 -0.00058202207
0.003457014 0.001731127 0.000410877 0.00040155894 -0.0019997621 -0.0004362742 0.001041193 -0.0009279837
0.0017560873 0.0004048866 -0.0026834384 -0.0009068647 -0.0010358335 -0.00072145613 0.00012366423 -0.0008275638
-0.005924125 -0.0029084662 -0.0033796963 -0.001469649 0.00077746244 -0.0002024013 0.0035206438 0.001492967
0.0020990693 0.0001779358 -0.004368412 -0.0013174171 0.00029805157 0.00029020276 -0.0025976438 -0.0007686186
0.00016363894 0.0005802713 0.002175524 0.00024321431 -0.0072681974 -0.002741704 0.0005953606 -0.00044313617
-0.00094521954 0.000595754 -2.8771145e-05 -0.0005335024 -0.0013986116 -0.00058581796 0.0013240268 0.00041013717
-4.574295e-05 0.00078928453 -0.0043665925 -0.0015957211 -0.0029627227 -0.0009521593 0.0037281143 0.0015178216
-0.004202503 -0.0015132395 -0.0011872969 -7.704344e-05 -0.00062961824 -0.00020933339 -0.00055468315 0.0008804805
-0.0015530855 0.00047812497 -0.0025511829 -0.00037401798 -0.0029475316 -0.0008584163 0.0029340235 0.00032980557

exp_avg_sq f4 [40, 2]
00000000: 899f 0231 87e7 b336 8248 9b36 8751 0537
00000010: 27ad ce39 5399 3d37 d0f4 7a38 95f4 bd37
00000020: 9db8 463a 3a33 4e39 96d8 4737 f77e 3737
00000030: 3e3f 8a39 56d4 5e37 410a 8738 1202 7838
00000040: 1807 5039 0dab 4337 e190 e739 ac8b 5938
00000050: d869 9538 b46e 1038 4b7b 4535 5bf3 4238
00000060: b528 123b 33cc 103a fe55 373a fa38 0e39
00000070: cf29 1438 7c0c 5436 5ea1 4a3a 6620 1739
00000080: 0fc8 9039 febb 0936 452e 9c3a 3325 e238
00000090: 73d6 df36 d4c1 d636 4c88 df39 d62d 2438
000000a0: 32cb 2236 b5e0 bd37 680b 9639 310f 5d36
000000b0: cc42 533b 8a9f f139 42fe aa37 5b09 7937
000000c0: 8664 7238 fca0 c737 3c87 9133 b33e 9537
000000d0: 5a9d 0539 e0aa ca37 da01 f538 00c5 4037
000000e0: 98f8 4f34 2aa1 3138 e984 9a3a ba74 2439
000000f0: fe9b 103a acc7 7838 f8b9 5b3a 9c77 1539
00000100: a518 913a a55b 1b39 acc9 ae38 86a2 7a34
00000110: 7aae d437 78d9 5336 63e2 8f37 5cf4 6138
00000120: 65f9 1639 c3ed 8d37 2504 d339 3066 2137
00000130: 9c12 0e3a a252 4038 407e 0d3a a1be c436
1.9008175e-09 5.361569e-06 4.627801e-06 7.9464e-06 0.0003942039 1.1300976e-05 5.9832644e-05 2.2644448e-05
0.000758061 0.00019664774 1.1911752e-05 1.0937211e-05 0.0002636853 1.3281669e-05 6.4392116e-05 5.9129736e-05
0.00019839068 1.1662732e-05 0.00044167697 5.186691e-05 7.1245886e-05 3.4435376e-05 7.3567634e-07 4.6479847e-05
0.0022302095 0.0005523592 0.000699371 0.000135634 3.5324887e-05 3.1597729e-06 0.0007729734 0.00014412552
0.00027614876 2.0524017e-06 0.0011915645 0.00010783449 6.670883e-06 6.4002616e-06 0.00042635424 3.9143335e-05
2.4258156e-06 2.2635193e-05 0.00028618728 3.2940409e-06 0.003223586 0.00046085968 2.0383977e-05 1.4843735e-05
5.7790916e-05 2.3797613e-05 6.776688e-08 1.779138e-05 0.00012742486 2.4159846e-05 0.00011682855 1.1489959e-05
1.9368815e-07 4.2350184e-05 0.0011788878 0.00015683743 0.0005516409 5.9313767e-05 0.00083818985 0.00014254305
0.0011069967 0.00014816092 8.334531e-05 2.334219e-07 2.5353616e-05 3.1568034e-06 1.7152348e-05 5.3871758e-05
0.00014398021 1.6919226e-05 0.00040248144 9.62014e-06 0.0005419643 4.5853325e-05 0.0005397536 5.8634473e-06

exp_avg f4 [40]
00000000: 58ee 31ba a91e 353a 4428 90ba d4df b7ba
00000010: 6838 8c3b 0781 803a 0dc8 92ba f61b 0ebb
00000020: 1286 993a ba33 1ebb f221 efba 88db 02bb
00000030: 4b95 f0bb ba24 75bb a2ca ecb9 ede8 7a3b
00000040: 77b5 103a cc40 5cbb ad79 533a bc89 08bb
00000050: c01c bb3a bfc1 3b3a 8f91 e3bb 8d1b 8bba
00000060: f75b ca3a 8ca7 b4ba a373 c9ba f15c 8a3a
00000070: 2d35 f03a 4e69 82bb ffe9 21bb 0602 803b
00000080: a002 81bb 8b6e 88b9 0d0f 2cba 03c3 093b
00000090: 61c5 8c3a 4660 94ba e966 08bb 55ff 6a3a
-0.000678753 0.0006909171 -0.0010998328 -0.0014028498 0.004279185 0.0009804078 -0.0011198536 -0.0021684146
0.001171293 -0.0024139718 -0.001824437 -0.0019967277 -0.007342016 -0.0037405924 -0.000451644 0.0038285807
0.00055202044 -0.0033607958 0.00080671423 -0.002083405 0.0014275536 0.00071623543 -0.006944842 -0.0010613069
0.0015438785 -0.0013782843 -0.0015369545 0.0010556263 0.0018326394 -0.0039798385 -0.0024706123 0.003906491
-0.0039370805 -0.00026022302 -0.0006563522 0.0021020777 0.0010739976 -0.0011320196 -0.0020813292 0.0008964439

exp_avg_sq f4 [40]
00000000: 6174 1338 a451 3338 b16c 8738 1441 1a39
00000010: b157 963a dbad 8b38 0989 9938 77a6 c439
00000020: 8d74 a538 2aa2 b039 e3a0 6d39 8d27 9739
00000030: 8dee 5d3b 5278 5e3a d198 aa37 6df7 693a
00000040: 9a02 4e37 d62c 273a b507 3f38 abef 8439
00000050: 15b1 1839 93f7 a637 27de 363b b669 bd38
00000060: ee92 3539 62ec 0139 3706 1b39 b1a7 8e38
00000070: 410c 8439 d834 713a 6da3 b939 7539 6a3a
00000080: 6d1e 713a ebe3 ed35 38e1 d937 e483 ae39
00000090: 72fb e338 08e2 8838 dbc4 8139 4a14 0f38
3.5155917e-05 4.275296e-05 6.457547e-05 0.00014710828 0.0011470226 6.6604196e-05 7.321133e-05 0.0003750806
7.8895224e-05 0.00033690158 0.00022662016 0.00028830432 0.0033864111 0.0008486557 2.033674e-05 0.0008925114
1.2279163e-05 0.00063772255 4.5545126e-05 0.00025355569 0.00014561818 1.9904028e-05 0.002790341 9.0319125e-05
0.0001731624 0.00012390458 0.00014784267 6.8023226e-05 0.00025186132 0.0009201295 0.0003540771 0.00089349534
0.0009197954 1.7724209e-06 2.5973291e-05 0.00033286132 0.00010871039 6.527087e-05 0.00024751466 3.4112752e-05
