pdebench/models/newly_trained_models/Advection/PINN/1D_Advection_Sols_beta1.0_PINN.pt-10000.pt (torch, 119037 bytes, 39 tensors)

linears.0.weight f4 [40, 2]
-0.103824206 0.33823478 -0.13886029 0.08573486 0.55545676 0.053485706 0.2314396 -0.068767995
0.18030025 0.1018364 0.23146683 -0.0035329475 0.25368464 0.3135107 0.13703196 -0.09826014
0.118484765 -0.19584289 -0.10522691 0.012379112 -0.15024431 -0.286804 0.4193999 0.25907755
-0.30385235 -0.15624256 -0.07144498 0.05375286 0.1745067 -0.04172743 0.18570435 0.18744382
-0.22739148 0.20779888 0.13606186 0.29177946 -0.20465228 0.2215597 0.17151551 0.033741225
-0.3075878 0.100257 -0.014703133 0.1863985 0.21037981 -0.029224593 -0.11490431 -0.07830023
0.0814708 -0.083508745 0.38479638 0.008673706 0.24702023 0.03749958 -0.24941875 0.009873923
0.18643166 0.25753418 -0.00932113 0.13000168 -0.094898984 -0.15497339 0.11046979 0.07456323
-0.032987487 0.07181391 -0.31492716 -0.09928864 -0.48730776 0.26528683 -0.4372492 -0.008787936
0.06545676 -0.23363161 0.23439792 0.0580961 -0.19854769 0.2888444 -0.094613016 -0.22148925
00000000: c9a1 d4bd 1c2d ad3e 6431 0ebe c295 af3d
00000010: 6a32 0e3f d413 5b3d 81fe 6c3e 3cd6 8cbd
00000020: a1a0 383e 9a8f d03d a405 6d3e 0689 67bb
00000030: f4e2 813e 7984 a03e 1b52 0c3e 9d3c c9bd
00000040: 24a8 f23d 0a8b 48be 3581 d7bd c2d1 4a3c
00000050: a5d9 19be f9d7 92be 95bb d63e d0a5 843e
00000060: 8992 9bbe 0dfe 1fbe bf51 92bd f52b 5c3d
00000070: e2b1 323e 62ea 2abd 4829 3e3e 46f1 3f3e
00000080: 50d9 68be 3bc9 543e cd53 0b3e 1e64 953e
00000090: 5e90 51be 8ce0 623e c3a1 2f3e 3d34 0a3d
000000a0: 267c 9dbe 8b53 cd3d 69e5 70bc 40df 3e3e
000000b0: ce6d 573e 6a68 efbc f352 ebbd df5b a0bd
000000c0: 2ada a63d a206 abbd 0804 c53e 291c 0e3c
000000d0: dff2 7c3e 2999 193d a167 7fbe 3cc6 213c
000000e0: f1e7 3e3e 85db 833e a7b7 18bc 291f 053e
000000f0: 665a c2bd 58b1 1ebe fc3d e23d 9bb4 983d
00000100: e31d 07bd 2c13 933d 223e a1be d857 cbbd
00000110: 6780 f9be add3 873e 21df dfbe 46fb 0fbc
00000120: 320e 863d 203d 6fbe 0206 703e 2df6 6d3d
00000130: 1650 4bbe 6ae3 933e 78c4 c1bd 14ce 62be

linears.0.bias f4 [40]
-0.036893077 0.04366049 -0.14214091 0.03824885 -0.08633733 0.08011705 -0.063149795 -0.117406026
0.009748321 -0.053279772 -0.08007229 -0.0076146475 0.0037896584 -0.055832837 -0.035327096 -0.14947142
0.104554445 0.29706052 -0.01257375 -0.07468494 0.013901334 -0.03653047 0.056497358 0.06171911
-0.057413243 -0.10202786 -0.049336907 0.06741814 0.09647815 -0.00036701202 -0.0553299 -0.10528446
0.06884755 0.06790502 0.029969938 0.11755654 -0.0011649118 0.04924703 -0.05624745 -0.07541252
00000000: 321d 17bd 58d5 323d 638d 11be d3aa 1c3d
00000010: a0d1 b0bd 6814 a43d ae54 81bd 9272 f0bd
00000020: 6cb7 1f3c e43b 5abd f1fc a3bd 4b84 f9bb
00000030: eb5b 783b f9b0 64bd 25b3 10bd 090f 19be
00000040: a420 d63d 5118 983e 2102 4ebc 6bf4 98bd
00000050: 6cc2 633c f9a0 15bd c669 673d 2dcd 7c3d
00000060: 262a 6bbd fcf3 d0bd 7f15 4abd 8612 8a3d
00000070: 5696 c53d 856b c0b9 9ba1 62bd 619f d7bd
00000080: f2ff 8c3d ca11 8b3d 8483 f53c 7cc1 f03d
00000090: f4af 98ba 41b7 493d ba63 66bd e171 9abd

linears.1.weight f4 [40, 40]
0.074373156 -0.16130085 0.20992613 -0.13605061 0.13152923 0.29514095 0.17761725 -0.14935793
-0.007781875 0.21640031 -0.08201941 0.20148413 0.09454788 -0.17554192 0.02511327 -0.14975552
-0.3117852 0.26934034 0.14696029 0.37750986 0.039944828 -0.28003302 -0.009386842 -0.15017232
-0.007828695 0.10412374 0.4454408 0.17923181 0.13985312 0.02162128 0.213094 -0.1436362
0.13984701 -0.20584127 -0.15258776 -0.15979616 -0.10220436 -0.078534834 -0.2737686 -0.0640717
-0.0031962486 -0.241413 0.17270209 -0.026071277 0.3460185 -0.07964588 -0.07089973 0.25843328
0.25724286 -0.14860876 0.20556858 -0.04311496 -0.010301599 -0.1343253 0.04058405 0.27655748
-0.26514593 -0.17409697 0.0047179055 0.2856289 0.057569526 -0.1498831 -0.082436174 -0.19027878
0.12188522 0.35966372 0.2913101 0.0953385 -0.09477979 0.20506376 -0.033036478 0.24657033
-0.09839111 0.00010582623 -0.15394408 -0.29493606 -0.24874137 0.035693 -0.13010861 -0.13699122
-0.022532245 0.08405026 -0.07377378 -0.094604366 -0.030488461 0.06400333 -0.025416039 -0.23734364
-0.0227839 0.0732283 -0.09457431 0.017293356 -0.13191299 0.027021665 0.09610106 -0.050910726
0.25014794 0.13572407 -0.06286473 -0.14442419 -0.06941512 0.32433498 -0.08324646 0.32733065
-0.11556262 -0.03286193 -0.04355202 -0.11666924 -0.09220208 0.03827978 -0.015698297 0.036695298
0.19462521 0.052817296 0.3201583 -0.061980773 -0.17252174 0.22570217 -0.13685669 -0.16679318
-0.1338308 0.12831081 -0.09182357 -0.02003822 0.2517701 -0.0167209 0.107124366 0.2587377
-0.073730074 0.19485839 0.36082956 -0.44427624 0.06933334 0.11986279 -0.07857007 0.1994396
-0.037446406 -0.20593588 -0.274553 0.12846063 -0.11237498 -0.054363526 0.02975281 -0.35085395
0.14840652 0.052648902 0.32792887 0.012930449 0.033139057 0.15304941 0.18342845 -0.0376698
-0.18788224 -0.028436277 -0.3942511 -0.052722838 -0.104050115 -0.1629343 -0.24176797 -0.007341177
0.2486907 0.19001023 -0.16913988 -0.35599962 0.020993216 0.22315234 0.08634511 -0.19570765
-0.17957452 -0.103891194 0.1706398 0.07944074 -0.2223299 0.22234161 -0.19608013 -0.33282226
-0.1158172 0.20878363 -0.0009327458 0.17111877 0.037321124 -0.04417441 -0.16802545 0.007929518
0.009320959 -0.17298236 -0.15212123 0.06035996 -0.3244892 -0.04408861 -0.22508143 -0.08950014
-0.048215136 0.18494792 0.14863689 0.36850473 0.3758615 -0.28555512 0.21085835 -0.2497774
0.27991846 -0.091925785 -0.12874983 0.123804584 -0.046086077 -0.085206 -0.17017394 0.20693985
-0.36252388 0.07586103 0.05582825 0.15635179 0.08683607 0.24979554 -0.29418793 -0.13033865
0.1172921 0.1558909 0.04691433 0.38207114 -0.057498414 -0.0028808273 -0.06388193 -0.0010134921
-0.08917882 -0.17217824 -0.01826789 0.11704739 -0.17986235 0.07461946 0.28193521 -0.2080333
0.06876278 0.08790431 -0.146829 0.1254688 0.044320166 -0.17775504 -0.051121097 0.10550566
8.738379e-05 0.14083408 -0.11597389 0.35477492 -0.1170921 -0.14735988 -0.31247696 0.07384116
-0.21432509 0.16054805 0.113765486 0.14785029 0.21921375 -0.032696463 0.021087814 0.029315805
00000000: f450 983d 0d2c 25be e0f6 563e da50 0bbe
00000010: 99af 063e b71c 973e 4ce1 353e 49f1 18be
00000020: 19ff febb 0b98 5d3e cbf9 a7bd db51 4e3e
00000030: 52a2 c13d 43c1 33be 58ba cd3c 8359 19be
00000040: 4fa2 9fbe fae6 893e c27c 163e f948 c13e
00000050: 309d 233d 7d60 8fbe 45cb 19bc c6c6 19be
00000060: ed43 00bc d43e d53d d110 e43e 8b88 373e
00000070: a835 0f3e 1c1f b13c 5035 5a3e 5e15 13be
00000080: 0e34 0f3e 0ec8 52be f73f 1cbe 9ba1 23be
00000090: 8550 d1bd dfd6 a0bd 662b 8cbe 0638 83bd
000000a0: 2778 51bb f834 77be d1d8 303e 6e93 d5bc
000000b0: 5629 b13e 611d a3bd e133 91bd 5e51 843e
000000c0: 56b5 833e e52c 18be 9280 523e 5099 30bd
000000d0: 0ac8 28bc 928c 09be 763b 263d f198 8d3e
000000e0: 35c1 87be 7a46 32be a998 9a3b f43d 923e
000000f0: 06ce 6b3d f57a 19be 4cd4 a8bd 71d8 42be
00000100: f59e f93d d825 b83e 9926 953e d540 c33d
00000110: e81b c2bd 3cfc 513e 4251 07bd ef7c 7c3e
00000120: 4781 c9bd 06ef dd38 84a3 1dbe dc01 97be
00000130: 0fb6 7ebe d332 123d 313b 05be 6d47 0cbe
00000140: 8b95 b8bc 8b22 ac3d b516 97bd efbf c1bd
00000150: f0c2 f9bc 2e14 833d 4c35 d0bc 360a 73be
00000160: 4da5 babc b8f8 953d 2db0 c1bd ccaa 8d3c
00000170: 3314 07be 8a5c dd3c a2d0 c43d c487 50bd
00000180: 6413 803e 40fb 0a3e 39bf 80bd efe3 13be
00000190: 8429 8ebd 3c0f a63e 1f7d aabd e297 a73e
000001a0: 18ac ecbd 3b9a 06bd 9a63 32bd 48f0 eebd
000001b0: 72d4 bcbd 42cb 1c3d b799 80bc cf4d 163d
000001c0: d54b 473e f356 583d caeb a33e 8ddf 7dbd
000001d0: 8aa9 30be 781e 673e 2924 0cbe d5cb 2abe
000001e0: f10a 09be e963 033e ff0d bcbd 3127 a4bc
000001f0: 03e8 803e 45fa 88bc 0564 db3d 4579 843e
00000200: cbff 96bd f588 473e a7be b83e 2d78 e3be
00000210: a3fe 8d3d 9f7a f53d 58e9 a0bd e539 4c3e
00000220: 6761 19bd dbe0 52be 3692 8cbe 2f8b 033e
00000230: da24 e6bd 4aac 5ebd 2abc f33c 21a3 b3be
00000240: e1f7 173e 60a6 573d 4be6 a73e 3cda 533c
00000250: d2bc 073d fcb8 1c3e abd4 3b3e a64b 1abd
00000260: 3464 40be 32f3 e8bc 48db c9be e7f3 57bd
00000270: 3a18 d5bd 40d8 26be 0692 77be 428e f0bb
00000280: c6a8 7e3e 0b92 423e 0133 2dbe 9545 b6be
00000290: f7f9 ab3c 0c82 643e b4d5 b03d 9667 48be
000002a0: 62e2 37be e8c4 d4bd 33bc 2e3e d4b1 a23d
000002b0: 73aa 63be 85ad 633e 3bc9 48be ae67 aabe
000002c0: 9131 edbd 60cb 553e 8383 74ba c239 2f3e
000002d0: 09de 183d 3af0 34bd dd0e 2cbe cfea 013c
000002e0: f0b6 183c 4a22 31be abc5 1bbe 013c 773d
000002f0: 7323 a6be 4296 34bd bf7b 66be d94b b7bd
00000300: 3c7d 45bd fd62 3d3e 4534 183e a7ac bc3e
00000310: eb70 c03e 4834 92be 40eb 573e a6c5 7fbe
00000320: 7951 8f3e 9643 bcbd ffd6 03be 428d fd3d
00000330: c1c4 3cbd 7c80 aebd 1442 2ebe 0ae8 533e
00000340: bb9c b9be 075d 9b3d 2aac 643d af1a 203e
00000350: 1cd7 b13d 67ca 7f3e cd9f 96be 7f77 05be
00000360: d736 f03d dda1 1f3e 3e29 403d d49e c33e
00000370: 7583 6bbd 43cc 3cbb 88d4 82bd 27d7 84ba
00000380: 63a3 b6bd 7e4f 30be 8ba6 95bc 8bb6 ef3d
00000390: d62d 38be 16d2 983d d059 903e ae06 55be
000003a0: 80d3 8c3d 2d07 b43d 575a 16be e57a 003e
000003b0: 1089 353d 6b05 36be 5b64 51bd 5a13 d83d
000003c0: d141 b738 cf36 103e b883 edbd 0fa5 b53e
000003d0: fccd efbd 82e5 16be fbfc 9fbe 093a 973d
000003e0: 0978 5bbe b566 243e e1fd e83d 1166 173e
000003f0: 9279 603e baec 05bd 5ac0 ac3c b327 f03c

linears.1.bias f4 [40]
0.027226463 -0.07128653 0.067779474 -0.1055324 -0.011400965 -0.0061425674 0.033027597 -0.107490115
0.041374832 -0.04939504 -0.054781996 0.030632116 -0.0372031 0.081513986 -0.09121144 -0.017566483
0.0068243593 -0.150497 0.0010292362 0.025007438 0.011484605 -0.055466067 -0.11277221 0.036758207
0.059525516 -0.017491138 -0.113458335 0.063776225 -0.056490704 0.045336638 0.023249311 -0.23397791
-0.05139421 0.1709866 -0.092353456 0.040017784 -0.05854406 0.012456784 -0.023639938 -0.11608545
00000000: 080a df3c acfe 91bd f7cf 8a3d 5f21 d8bd
00000010: 1dcb 3abc 9747 c9bb f247 073d c723 dcbd
00000020: a878 293d 7452 4abd 1663 60bd 34f0 fa3c
00000030: 4762 18bd cef0 a63d 10cd babd 96e7 8fbc
00000040: e09e df3b e31b 1abe 70e7 863a 66dc cc3c
00000050: ed29 3c3c 6330 63bd 1ef5 e6bd c68f 163d
00000060: 07d1 733d 9349 8fbc d85c e8bd 1c9d 823d
00000070: cc62 67bd e9b2 393d 5775 be3c e897 6fbe
00000080: bc82 52bd 1c17 2f3e cf23 bdbd b0e9 233d
00000090: e5cb 6fbd 8a17 4c3c 8ba8 c1bc 35be edbd

linears.2.weight f4 [40, 40]
0.066859625 0.20628677 -0.08626715 0.2616955 0.16665187 -0.14097893 -0.16987042 0.08722089
0.069678865 -0.20430468 0.22718449 -0.07275543 0.048844915 0.02291605 -0.15553132 0.0015555822
0.23029836 0.059675768 0.2256207 -0.029942565 0.009126301 0.14432931 0.031407062 -0.009579298
0.0935778 -0.28467146 -0.20549454 -0.044113334 0.29305324 0.031754334 -0.22887531 -0.005033676
-0.26867208 -0.16971022 -0.1529298 -0.027720027 0.22789055 0.034827664 0.004020321 -0.04142979
-0.00848388 0.16058312 -0.024086937 0.18422799 -0.25705937 0.05020524 -0.18685962 0.042967577
0.006061454 -0.08335647 -0.0090228915 -0.15860158 0.3757314 0.15508056 0.029100876 0.14498867
-0.25705254 0.06788666 -0.09394444 -0.26849097 0.083034605 0.023151455 -0.03181543 -0.014267796
0.11651313 0.17822857 -0.16610667 -0.17081745 0.031739224 -0.09197706 -0.05310111 -0.18039443
-0.27189586 0.046906527 -0.03703993 0.13051443 0.05858876 0.025383364 0.10841231 -0.077799544
0.07277707 -0.30029815 0.074534886 -9.704942e-05 0.11349287 0.03130733 -0.10021812 -0.107911505
-0.028179454 -0.22452477 -0.3920254 0.28425124 -0.18591338 0.112319894 -0.358356 -0.19251476
0.49614522 -0.22009537 -0.06606583 -0.02944101 0.0060989 -0.24752311 -0.106607884 -0.18620917
-0.051069688 -0.12822412 0.058297098 0.45128542 -0.13587782 0.20395081 -0.15766002 -0.060238622
0.016007977 -0.07961101 0.040655736 -0.040178273 0.0054564592 0.14962295 -0.14522228 -0.056571558
-0.45976362 -0.007207828 -0.16259146 0.14540552 0.081724264 -0.071106814 0.3512852 -0.19170067
-0.12085783 0.12037071 0.25725254 -0.011284573 0.14987667 0.018555298 0.09483903 0.057477675
0.29234013 0.33254158 0.026108325 -0.093710825 -0.10169795 0.14966768 -0.15212837 0.035698887
-0.16151066 0.14232302 0.07549425 0.48678342 -0.277427 0.21087235 0.11793654 0.18350397
0.16595374 -0.1560456 0.135086 0.074596435 0.22084004 -0.21257062 0.015567239 0.25027034
-0.039014727 -0.31293187 -0.010093201 -0.07271884 -0.24530943 0.045974374 0.20457251 -0.11426496
-0.1315022 0.0669993 -0.13704038 0.113527365 0.011309768 0.07170395 -0.06113463 -0.32240924
0.12298261 -0.29838568 -0.27189767 0.064625226 -0.16765663 -0.035559744 0.013466587 -0.12534614
-0.065236524 -0.032851756 -0.45237562 0.15536705 -0.12969291 0.25137013 0.081835106 -0.23159352
0.17464216 0.053345956 -0.28707957 0.043762773 -0.18137766 -0.065597266 -0.09110051 -0.29187787
0.027829073 0.13332236 -0.09564274 0.07240303 -0.16830967 -0.1875541 -0.023033569 0.025919085
-0.10191542 -0.049067155 -0.020109553 0.028733907 0.288384 -0.10448885 0.0847803 0.051258653
0.1163855 0.014888202 0.07682942 0.041131184 0.1176719 0.11062054 -0.0013203259 0.14868712
0.011162373 -0.58243275 -0.11196278 -0.39849865 0.26006386 0.25613752 -0.17220168 -0.057143856
0.12901801 0.13196154 -0.19045638 0.25176564 0.07638861 -0.17513183 0.020822145 -0.2694758
0.009275918 0.46023312 -0.15539482 0.23115827 -0.103103 0.029130751 -0.13120805 0.36253524
0.0010873601 -0.033184692 -0.25261915 -0.061258093 0.19432135 -0.059513908 0.008817766 0.2779352
00000000: b3ed 883d d73c 533e d5ac b0bd f4fc 853e
00000010: caa6 2a3e c85c 10be 83f2 2dbe dea0 b23d
00000020: cbb3 8e3d 3f35 51be 0da3 683e cd00 95bd
00000030: 9b11 483d 71ba bb3c 9a43 1fbe ade4 cb3a
00000040: 55d3 6b3e 946e 743d 1d09 673e 1c4a f5bc
00000050: 7b86 153c 10cb 133e b1a4 003d 7df2 1cbc
00000060: b8a5 bf3d 75c0 91be 296d 52be 2fb0 34bd
00000070: 130b 963e d510 023d 4a5e 6abe 89f1 a4bb
00000080: 638f 89be 84c8 2dbe a199 1cbe 1c15 e3bc
00000090: 245c 693e 74a7 0e3d e6bc 833b 49b2 29bd
000000a0: f9ff 0abc e76f 243e f851 c5bc 43a6 3c3e
000000b0: 499d 83be 02a4 4d3d 2158 3fbe c5fe 2f3d
000000c0: 299f c63b ccb6 aabd c0d4 13bc 7468 22be
000000d0: de5f c03e 70cd 1e3e f664 ee3c e977 143e
000000e0: 649c 83be 2908 8b3d f165 c0bd a677 89be
000000f0: 0c0e aa3d 1fa8 bd3c e550 02bd 79c3 69bc
00000100: 709e ee3d 8d81 363e de17 2abe c5ea 2ebe
00000110: fd00 023d 785e bcbd 8d80 59bd 51b9 38be
00000120: ef35 8bbe 0f21 403d 2eb7 17bd 93a5 053e
00000130: c5fa 6f3d c6f0 cf3c 4607 de3d 5e55 9fbd
00000140: 250c 953d aec0 99be bfa5 983d 0387 cbb8
00000150: f36e e83d 1d3c 003d 283f cdbd b500 ddbd
00000160: 99d8 e6bc d2e9 65be 8eb7 c8be 6189 913e
00000170: 1460 3ebe f907 e63d 707a b7be 9722 45be
00000180: bf06 fe3e ae60 61be 864d 87bd 462e f1bc
00000190: 48d9 c73b b376 7dbe 3c55 dabd 9ead 3ebe
000001a0: 732e 51bd 2f4d 03be f0c8 6e3d e20e e73e
000001b0: 8e23 0bbe 7bd8 503e a171 21be c6bc 76bd
000001c0: 2923 833c 190b a3bd a186 263d f991 24bd
000001d0: 19cc b23b c236 193e 26b5 14be 94b7 67bd
000001e0: 2366 ebbe a52f ecbb 607e 26be 2fe5 143e
000001f0: 0d5f a73d 73a0 91bd a7db b33e 2e4d 44be
00000200: 4f84 f7bd eb84 f63d 9bb6 833e eee2 38bc
00000210: 4579 193e 4801 983c f73a c23d b66d 6b3d
00000220: 9bad 953e e442 aa3e 20e1 d53c 76eb bfbd
00000230: 0447 d0bd 7c42 193e 8ac7 1bbe ff38 123d
00000240: 0d63 25be 20bd 113e bb9c 9a3d ad3b f93e
00000250: e90a 8ebe ecee 573e b688 f13d 77e8 3b3e
00000260: c7ef 293e 6bca 1fbe fc53 0a3e 04c6 983d
00000270: e423 623e 1dac 59be bc0d 7f3c 6f23 803e
00000280: e8cd 1fbd 9b38 a0be f45d 25bc 9ded 94bd
00000290: 6532 7bbe a04f 3c3d 757b 513e bf03 eabd
000002a0: 83a8 06be ee36 893d 5054 0cbe 0981 e83d
000002b0: 9b4c 393c 85d9 923d 4e68 7abd d312 a5be
000002c0: 4ede fb3d 02c6 98be 2c36 8bbe 3b5a 843d
000002d0: 2eae 2bbe 18a7 11bd f6a2 5c3c bd5a 00be
000002e0: ba9a 85bd 908f 06bd c79d e7be 8a18 1f3e
000002f0: 38ce 04be 96b3 803e 2a99 a73d da26 6dbe
00000300: 65d5 323e 4a81 5a3d 18fc 92be 9840 333d
00000310: 11bb 39be dc57 86bd e792 babd 0471 95be
00000320: ccf9 e33c a885 083e 57e0 c3bd 0a48 943d
00000330: 5f59 2cbe 2f0e 40be e5b0 bcbc 4354 d43c
00000340: 08b9 d0bd a4fa 48bd cabc a4bc 5f63 eb3c
00000350: 11a7 933e 40fe d5bd 4ba1 ad3d 98f4 513d
00000360: 855b ee3d a5ed 733c be58 9d3d 2c79 283d
00000370: f7fd f03d 068d e23d c90e adba 7041 183e
00000380: 63e2 363c 501a 15bf be4c e5bd 0408 ccbe
00000390: 1727 853e 7524 833e a355 30be ad0f 6abd
000003a0: 4c1d 043e ed20 073e ff06 43be 6de7 803e
000003b0: a271 9c3d c255 33be 3493 aa3c bbf8 89be
000003c0: 05fa 173c ada3 eb3e d21f 1fbe c1b4 6c3e
000003d0: aa27 d3bd 9da3 ee3c 675b 06be 389e b93e
000003e0: c085 8e3a acec 07bd 4c57 81be c4e9 7abd
000003f0: 2dfc 463e dbc4 73bd 6478 103c 864d 8e3e

linears.2.bias f4 [40]
0.024585724 -0.021282123 0.032795273 -0.037294142 0.047275484 0.010656498 -0.02957721 0.031943724
0.042184263 0.005362877 0.0451346 0.026687227 0.01968177 -0.036499947 0.0908005 0.038781587
0.04091879 -0.04411265 -0.05370926 0.08575871 -0.067523584 0.046303507 0.11730315 -0.032404765
0.057311423 0.048138577 0.028659182 0.020969143 -0.02036517 0.039627522 0.042798832 -0.006945402
-0.0339892 0.02902833 0.013980386 0.049986616 0.038416665 -0.019096913 -0.014473406 -0.09172458
00000000: 0068 c93c d957 aebc 5654 063d bec1 18bd
00000010: f0a3 413d 9898 2e3c e84b f2bc 6cd7 023d
00000020: 68c9 2c3d 13bb af3b 0fdf 383d 2c9f da3c
00000030: aa3b a13c f880 15bd 9df5 b93d 71d9 1e3d
00000040: 769a 273d 77af 34bd 3efe 5bbd 43a2 af3d
00000050: ce49 8abd bfa8 3d3d a23c f03d dcba 04bd
00000060: 62bf 6a3d f52c 453d a9c6 ea3c 7bc7 ab3c
00000070: dbd4 a6bc 7850 223d d44d 2f3d 4196 e3bb
00000080: 4238 0bbd d2cc ed3c fd0d 653c c4be 4c3d
00000090: cb5a 1d3d 2171 9cbc dd21 6dbc 19da bbbd

linears.3.weight f4 [40, 40]
-0.047494914 -0.016573237 0.22054034 -0.11381981 0.2764632 0.00389964 -0.1623812 0.2466785
0.023994418 0.3899679 -0.1773457 -0.053939488 0.022358358 0.007325817 -0.05839155 -0.036989987
-0.04902144 -0.2950907 0.102542765 -0.05733953 -0.063974515 0.07071404 0.09421559 0.28204632
-0.025324827 0.19412117 0.2626286 -0.2591293 -0.023546303 0.26634577 0.073407605 -0.11253479
-0.21224579 -0.044932816 0.18504745 0.3601371 0.018302983 -0.00049914594 0.019564386 -0.09151005
-0.19400485 -0.11083385 0.033109665 -0.05066159 0.021670539 -0.13217013 0.025407456 -0.02377154
-0.13691181 -0.015765883 0.15178172 -0.09491297 -0.18237874 0.12707818 -0.12697816 -0.0113456445
-0.30508646 -0.12643795 -0.08200538 -0.08762967 -0.06177455 -0.2109323 0.1380297 -0.08111881
0.18844928 0.10662832 0.019219661 -0.4243401 0.17156029 -0.1306795 -0.08130378 0.22514032
0.02032881 0.0038280895 0.07272039 0.0032537808 -0.05792717 -0.10848121 0.05761801 0.037028715
-0.004900677 -0.07752729 0.17328253 0.033168137 0.05859432 0.024997128 -0.04499667 -0.16204332
-0.15304825 -0.06633597 0.21064873 0.2959038 -0.1270194 -0.010875081 -0.017685333 -0.107773684
-0.11051223 0.0043818397 0.10589854 0.28908366 0.08889346 -0.04034264 -0.06468414 -0.32107878
-0.21177143 0.10858699 0.09395023 0.012154789 -0.1756583 0.40723106 -0.18233913 0.28190854
0.16887097 -0.04843254 0.20917521 -0.14356248 0.10238009 -0.03532033 0.15481508 -0.036529135
0.070149645 0.089252084 -0.0017706712 0.004018651 0.16221696 0.15217668 -0.14065675 -0.061412424
0.10884063 0.13972479 -0.30537894 -0.29789612 -0.13161673 0.030824192 0.09726019 0.2490676
0.10936778 -0.18385564 0.019549867 -0.14687197 0.073723115 0.19850267 0.033057764 0.2886984
-0.38062412 0.17526038 0.2109569 -0.10104406 -0.11908318 -0.14140184 -0.016743522 0.3324675
-0.029399667 -0.26303428 -0.3691217 -0.14862531 -0.0149953365 -0.021734351 -0.06518696 0.04692954
-0.2722947 0.07977255 -0.10820047 0.6648376 -0.18546335 -0.2998745 0.08117086 -0.1914959
-0.19198969 -0.24157658 -0.12645675 0.06797868 -0.05010813 0.1465876 0.075466335 -0.44347107
-0.23120384 0.10830374 -0.036291003 0.0900991 -0.16842358 0.010437612 -0.4027032 -0.27091816
-0.26591977 0.19395135 -0.1776176 0.20027503 0.19475794 0.071024075 -0.30228606 0.0732052
0.18390115 -0.119264185 0.08343944 -0.28944272 -0.3537186 0.20930293 0.1324197 -0.14746161
0.14318277 0.4020798 0.09755622 0.11314377 -0.40809128 0.08304842 0.062420364 0.09898735
0.13148873 0.2092886 -0.09517032 0.23332141 -0.09026844 0.031208845 -0.07418215 -0.067324035
-0.029560909 -0.20550871 -0.11926947 -0.22000623 -0.11426014 -0.10297804 -0.3682289 0.1794065
0.12463161 -0.026764901 0.042432703 0.1970833 0.4035157 0.055745654 0.015000677 -0.015505036
0.0005745371 0.17462185 0.049520172 0.11575357 -0.20295681 -0.06686496 0.11423253 -0.19687028
0.025696576 -0.14925765 -0.054315876 -0.25205097 0.16475572 -0.006258992 0.04160309 0.18035957
0.15164483 0.057503812 0.23293677 0.10514641 -0.08601729 -0.2022334 0.033102322 -0.19294845
00000000: 078a 42bd 99c4 87bc 54d5 613e 5c1a e9bd
00000010: 968c 8d3e 1a91 7f3b 4247 26be 4a99 7c3e
00000020: f18f c43c dfa9 c73e 1c9a 35be a7ef 5cbd
00000030: e028 b73c 680d f03b fa2b 6fbd d082 17bd
00000040: b5ca 48bd 2116 97be f101 d23d dbdc 6abd
00000050: 1205 83bd 86d2 903d 1af4 c03d 6068 903e
00000060: 0376 cfbc b3c7 463e 4177 863e 98ac 84be
00000070: 2de4 c0bc 795e 883e ba56 963d a478 e6bd
00000080: f656 59be 790b 38bd 147d 3d3e e463 b83e
00000090: 23f0 953c 1ed9 02ba 7e45 a03c 9f69 bbbd
000000a0: 35a9 46be dcfc e2bd 009e 073d 8782 4fbd
000000b0: 6a86 b13c 9b57 07be 4c23 d03c 88bc c2bc
000000c0: 9c32 0cbe 7427 81bc ab6c 1b3e bb61 c2bd
000000d0: 7ec1 3abe c820 023e 9006 02be 15e3 39bc
000000e0: 4b34 9cbe f378 01be 70f2 a7bd 2f77 b3bd
000000f0: 4f07 7dbd a3fe 57be a857 0d3e 9e21 a6bd
00000100: d9f8 403e f35f da3d 8d72 9d3c 1b43 d9be
00000110: 80ad 2f3e d9d0 05be 9982 a6bd 2f8b 663e
00000120: 9b88 a63c afe0 7a3b 6eee 943d 623d 553b
00000130: 0a45 6dbd 662b debd dd00 6c3d 6cab 173d
00000140: dc95 a0bb a1c6 9ebd fa70 313e 50db 073d
00000150: 9900 703d c7c6 cc3c 6e4e 38bd afee 25be
00000160: aeb8 1cbe 27db 87bd 4db4 573e b480 973e
00000170: 6011 02be 652d 32bc d5e0 90bc 73b8 dcbd
00000180: 3c54 e2bd 8995 8f3b 55e1 d83d c602 943e
00000190: c60d b63d 533e 25bd 1e79 84bd 7064 a4be
000001a0: 9cda 58be db62 de3d fa68 c03d e124 473c
000001b0: c5df 33be 9780 d03e 1cb7 3abe 5156 903e
000001c0: 83ec 2c3e 3361 46bd 0732 563e 0b02 13be
000001d0: a7ac d13d 0dac 10bd d887 1e3e 939f 15bd
000001e0: 9eaa 8f3d ccc9 b63d de15 e8ba e3ae 833b
000001f0: 341c 263e 34d4 1b3e 5308 10be 988b 7bbd
00000200: d6e7 de3d 0414 0f3e a15a 9cbe d785 98be
00000210: 89c6 06be 0483 fc3c 5a30 c73d 940b 7f3e
00000220: 37fc df3d a744 3cbe 0b27 a03c 9b65 16be
00000230: 25fc 963d 4944 4b3e 9467 073d 47d0 933e
00000240: 2ae1 c2be 7577 333e 1605 583e 30f0 cebd
00000250: e2e1 f3bd a5cb 10be b629 89bc 2e39 aa3e
00000260: 92d7 f0bc 6eac 86be 85fd bcbe 3c31 18be
00000270: 00af 75bc 3d0c b2bc be80 85bd 3039 403d
00000280: 366a 8bbe ca5f a33d 3598 ddbd cc32 2a3f
00000290: 1bea 3dbe 2789 99be e83c a63d 8017 44be
000002a0: f298 44be da5f 77be e17d 01be 6838 8b3d
000002b0: 2f3e 4dbd 0f1b 163e 188e 9a3d a40e e3be
000002c0: b3c0 6cbe 5ace dd3d e0a5 14bd e085 b83d
000002d0: 3b77 2cbe 8502 2b3c 1d2f cebe c9b5 8abe
000002e0: a326 88be 2f9b 463e 63e1 35be e614 4d3e
000002f0: a06e 473e 1275 913d 3dc5 9abe 9cec 953d
00000300: 9550 3c3e c840 f4bd 4ce2 aa3d d631 94be
00000310: 9b1a b5be 8253 563e 0899 073e 2d00 17be
00000320: 819e 123e 67dd cd3e 8ecb c73d ecb7 e73d
00000330: 57f1 d0be 4a15 aa3d 7fac 7f3d e1b9 ca3d
00000340: fba4 063e c04f 563e a8e8 c2bd cfeb 6e3e
00000350: a9de b8bd b1a9 ff3c d0ec 97bd 2fe1 89bd
00000360: b829 f2bc e070 52be 8d43 f4bd 5049 61be
00000370: 3801 eabd 27e6 d2bd 8088 bcbe 56b6 373e
00000380: dc3e ff3d 1142 dbbc eacd 2d3d 34d0 493e
00000390: 9c99 ce3e 8e55 643d 66c5 753c d608 7ebc
000003a0: 889c 163a 12d0 323e aad5 4a3d 3510 ed3d
000003b0: e9d3 4fbe 7ff0 88bd bff2 e93d 5d98 49be
000003c0: a081 d23c ffd6 18be 537a 5ebd d30c 81be
000003d0: b9b5 283e 3b18 cdbb 0068 2a3d 2eb0 383e
000003e0: c848 1b3e 1e89 6b3d fa86 6e3e 0057 d73d
000003f0: d529 b0bd 4616 4fbe 4d96 073d 4794 45be

linears.3.bias f4 [40]
0.07850376 -0.037942216 0.013010072 0.016251711 -0.052756235 -0.0030710832 0.008089429 -0.047330435
0.034495953 0.016741328 0.044541918 -0.01735734 -0.018468685 -0.049669005 -0.038911033 -0.039635666
0.005586275 0.0024709771 -0.029951824 -0.081628464 0.02820781 0.008521068 -0.0062579648 -0.0013194449
-0.028132264 -0.058689315 -0.02817498 0.026251787 -0.0956009 0.034055103 0.0235049 -0.012380227
-0.031623818 0.06147364 -0.019246696 0.10494752 0.030788938 -0.051332362 0.030494373 0.008053018
00000000: 94c6 a03d 4c69 1bbd 3228 553c 4f22 853c
00000010: ec16 58bd 3a44 49bb 8689 043c 8fdd 41bd
00000020: a14b 0d3d 1c25 893c 9671 363d fb30 8ebc
00000030: a44b 97bc ba71 4bbd 2d61 1fbd 0259 22bd
00000040: 120d b73b 1ef0 213b 875d f5bc d32c a7bd
00000050: 1114 e73c f39b 0b3c 9d0f cdbb 39f1 acba
00000060: a275 e6bc 3564 70bd 37cf e6bc fd0d d73c
00000070: 68ca c3bd 5d7d 0b3d 598d c03c 70d6 4abc
00000080: fa87 01bd c9cb 7b3d 3fab 9dbc baee d63d
00000090: 1539 fc3c e241 52bd 56cf f93c cef0 033c

linears.4.weight f4 [40, 40]
0.19242142 -0.44051543 -0.3142764 -0.1469422 -0.6291452 0.2109838 -0.08278513 -0.22036317
0.40575525 0.3727609 -0.19295935 -0.15909384 0.19168413 0.07950263 -0.13250837 0.31904542
0.03306064 0.39348456 0.22633271 0.1854804 -0.38630372 -0.55436265 -0.23867382 -0.2727776
-0.21249795 0.006376646 0.0043490943 0.3415285 0.030051526 0.2425098 -0.12756012 -0.27708986
-0.4078734 0.11570075 -0.3918944 0.08216667 0.34787443 -0.49032477 0.34082797 0.10822594
0.30444872 -0.2568797 0.16619381 0.26670533 0.30525917 0.10352461 0.086197086 -0.34413177
-0.10338354 -0.08714434 0.21687253 0.015082387 0.11015369 -0.10558325 -0.5396315 0.0052472907
-0.16544737 0.06556471 0.0866075 -0.1192574 0.058089804 -0.08560296 -0.052585788 -0.09144043
0.10326109 0.3188325 -0.15632302 -0.05080472 0.06945716 -0.11367252 -0.018832954 -0.08634059
-0.024188725 0.2626392 0.07674623 -0.16138674 0.12814444 -0.11017267 -0.1816558 -0.15048702
-0.14250195 -0.37466764 0.11788597 0.19179279 -0.054925106 0.01871935 0.13263614 0.20839228
-0.057144195 -0.1806942 -0.21871907 -0.0017437909 0.08111053 0.20894618 0.019783786 0.105341926
-0.22976844 0.11478032 0.15880416 0.10677412 0.3612805 0.2385022 0.16705336 -0.073670335
-0.026075728 -0.2001299 -0.09647806 0.20357344 0.30835992 0.21943681 0.25961304 0.13236283
0.0406772 -0.13448681 0.15850678 -0.25647575 -0.1058958 -0.14405826 -0.034663588 -0.17710122
-0.13758163 0.016605943 -0.3106399 0.041187435 -0.18626997 0.101558715 0.15025288 -0.049899302
0.12400608 0.15746115 -0.17079718 -0.04000545 0.22901672 -0.03706234 0.03911896 0.020666685
-0.011721503 0.23315103 0.009669307 0.089410916 0.18678817 -0.28567842 0.03830926 -0.003634194
0.0376289 -0.06862172 -0.0890971 0.23151834 0.13751526 0.28859136 0.1776372 0.19126275
-0.13901898 -0.4336449 -0.1086854 0.1119757 0.086474515 0.082537144 0.10335892 0.19714838
0.009100086 0.27675453 -0.090365194 -0.20811892 -0.17407444 0.059178565 -0.03785535 -0.022842092
-0.33944547 -0.09148852 -0.09255855 -0.11370495 -0.06680778 -0.17562118 -0.18579228 -0.26245028
0.27899933 -0.11799341 -0.15560566 0.059467502 -0.13618094 -0.1068807 -0.20225278 -0.104707256
0.10571445 0.11212796 0.0050530983 -0.03470897 0.008568175 0.3773754 -0.13664815 0.24747649
-0.20112893 -0.048129052 0.00089269114 -0.06451173 -0.018902091 -0.0979563 0.14904442 0.18086353
0.042859558 0.1337483 -0.041225456 0.13880956 -0.076165676 -0.17266165 -0.05860806 -0.19640304
-0.12496725 -0.33906025 -0.044719264 0.023800293 -0.28052837 -0.15601996 -0.15401511 -0.0040499405
-0.15427887 0.3636416 -0.005833752 0.045997106 0.05236311 0.042239532 0.13570446 0.18478529
0.24418837 0.19759162 0.1951834 -0.006396954 -0.21806435 0.13379619 -0.006906856 0.04704135
0.24451523 -0.20229168 -0.18341008 -0.0695402 0.0658933 0.07906433 0.081080146 -0.33339858
0.12474158 -0.041964795 -0.012716799 -0.04374935 0.2471197 -0.29364476 -0.0690434 -0.0021709546
0.35797 0.06867563 0.11875863 -0.07177956 -0.2501102 0.15339817 0.0044648615 -0.2079443
00000000: 1f0a 453e 3d8b e1be d6e8 a0be 0478 16be
00000010: a90f 21bf 230c 583e 408b a9bd e2a6 61be
00000020: 27bf cf3e 84da be3e 2397 45be 7fe9 22be
00000030: d848 443e 46d2 a23d 46b0 07be ec59 a33e
00000040: 986a 073d cf76 c93e c3c3 673e 93ee 3d3e
00000050: 9ac9 c5be b6ea 0dbf e966 74be 81a9 8bbe
00000060: 1099 59be 2ff3 d03b d982 8e3b d3dc ae3e
00000070: 9e2e f63c 7d54 783e 1f9f 02be b9de 8dbe
00000080: c8d4 d0be 84f4 ec3d 62a6 c8be 0047 a83d
00000090: 991c b23e d90b fbbe 0181 ae3e 90a5 dd3d
000000a0: b4e0 9b3e bc85 83be b62e 2a3e 9a8d 883e
000000b0: ee4a 9c3e b604 d43d 1988 b03d 0a32 b0be
000000c0: c0ba d3bd bb78 b2bd d513 5e3e 1e1c 773c
000000d0: 4298 e13d 083c d8bd 4a25 0abf 77f1 ab3b
000000e0: 096b 29be ca46 863d 465f b13d 393d f4bd
000000f0: 93ef 6d3d 9b50 afbd 3264 57bd 1f45 bbbd
00000100: 8d7a d33d 033e a33e 2413 20be 9c18 50bd
00000110: 8e3f 8e3d 23cd e8bd 9147 9abc 56d3 b0bd
00000120: 6f27 c6bc a578 863e 212d 9d3d 9142 25be
00000130: 4c38 033e 35a2 e1bd fa03 3abe 4519 1abe
00000140: 08ec 11be 70d4 bfbe 336e f13d 5465 443e
00000150: 26f9 60bd 5359 993c c5d1 073e c964 553e
00000160: 0810 6abd e607 39be e4f7 5fbe ea8f e4ba
00000170: 471d a63d fdf5 553e 9b11 a23c 82bd d73d
00000180: 6b48 6bbe f211 eb3d 8f9d 223e 64ac da3d
00000190: c2f9 b83e ec39 743e 0910 2b3e 79e0 96bd
000001a0: c49c d5bc daee 4cbe 4a96 c5bd 8e75 503e
000001b0: 5ae1 9d3e 0bb4 603e 00ec 843e 1f8a 073e
000001c0: 239d 263d e9b6 09be 9a4f 223e ca50 83be
000001d0: e6df d8bd 0284 13be 68fb 0dbd 065a 35be
000001e0: 33e2 0cbe 3009 883c 310c 9fbe 28b4 283d
000001f0: 8ebd 3ebe 04fe cf3d e4db 193e 3663 4cbd
00000200: e6f6 fd3d 7f3d 213e 75e5 2ebe c1dc 23bd
00000210: 5c83 6a3e aece 17bd 343b 203d 2e4d a93c
00000220: 8c0b 40bc 25bf 6e3e 036c 1e3c 121d b73d
00000230: 6645 3f3e 7144 92be 2cea 1c3d a82b 6ebb
00000240: c320 1a3d 8b89 8cbd 8a78 b6bd 2513 6d3e
00000250: cdd0 0c3e 3fc2 933e 87e6 353e 62da 433e
00000260: fe5a 0ebe b406 debe 7396 debd 8453 e53d
00000270: 8d19 b13d 3c09 a93d d7ad d33d 44e1 493e
00000280: 8718 153c c5b2 8d3e 6311 b9bd 201d 55be
00000290: 9240 32be 3965 723d 360e 1bbd 571f bbbc
000002a0: cccb adbe 555e bbbd 568f bdbd 24de e8bd
000002b0: 84d2 88bd 0ad6 33be 5540 3ebe e25f 86be
000002c0: 00d9 8e3e 87a6 f1bd 1757 1fbe 3294 733d
000002d0: 0473 0bbe 45e4 dabd 5a1b 4fbe c270 d6bd
000002e0: d180 d83d 58a3 e53d 7694 a53b fe2a 0ebd
000002f0: 8861 0c3c 5937 c13e 7eed 0bbe 7a6a 7d3e
00000300: bef4 4dbe f822 45bd 7d03 6a3a ba1e 84bd
00000310: 8fd8 9abc 509d c8bd 1a9f 183e 4a34 393e
00000320: 818d 2f3d 50f5 083e 06dc 28bd 1824 0e3e
00000330: c0fc 9bbd 37ce 30be 010f 70bd e11d 49be
00000340: d4ee ffbd 4e99 adbe 8c2b 37bd d5f8 c23c
00000350: 6aa1 8fbe b2c3 1fbe 23b6 1dbe 5db5 84bb
00000360: 48fb 1dbe 3b2f ba3e 0f29 bfbb 7667 3c3d
00000370: b37a 563d 5c03 2d3d 1cf6 0a3e 5b38 3d3e
00000380: 840c 7a3e 7555 4a3e 28de 473e 8a9d d1bb
00000390: 434c 5fbe de01 093e e852 e2bb 6eae 403d
000003a0: 3362 7a3e 8d25 4fbe dacf 3bbe 186b 8ebd
000003b0: 11f3 863d 7bec a13d 590d a63d 38b3 aabe
000003c0: 8378 ff3d 47e3 2bbd 1f5a 50bc 8532 33bd
000003d0: f20c 7d3e 9b58 96be a066 8dbd 9346 0ebb
000003e0: d847 b73e cfa5 8c3d b937 f33d 2901 93bd
000003f0: 720e 80be 6914 1d3e f94d 923b 5aef 54be

linears.4.bias f4 [40]
0.04504881 0.06509331 0.018999776 0.0035741166 -0.016315293 0.028792847 -0.010708233 0.031057274
-0.024743728 0.039979883 0.0027136372 0.094037406 -0.0020148098 -0.010699409 -0.011558296 0.010219611
0.11522474 0.011204097 -0.017238634 -0.026315555 -0.019512152 0.041028157 -0.0123723885 -0.032934222
0.019735517 -0.0064582746 0.021224573 0.02632764 -0.022259897 -0.02411398 -0.013915286 -0.075105645
0.010732659 0.014078674 -0.028129475 0.022483652 0.035854816 -0.008324328 0.023170784 -0.022321824
00000000: 1a85 383d a44f 853d 6ba5 9b3c ba3b 6a3b
00000010: a6a7 85bc fade eb3c 9671 2fbc d36b fe3c
00000020: 5cb3 cabc f2c1 233d 47d7 313b af96 c03d
00000030: e60a 04bb 934c 2fbc 025f 3dbc 2870 273c
00000040: f3fa eb3d 6491 373c 0938 8dbc b893 d7bc
00000050: f3d7 9fbc 240d 283d 8fb5 4abc 09e6 06bd
00000060: 61ac a13c ef9f d3bb 28df ad3c 10ad d73c
00000070: 635a b6bc ae8a c5bc f1fc 63bc fdd0 99bd
00000080: 09d8 2f3c 3daa 663c c96f e6bc a32f b83c
00000090: 80dc 123d c362 08bc a8d0 bd3c 42dc b6bc

linears.5.weight f4 [40, 40]
-0.02695523 0.021808114 -0.090485215 0.10978597 -0.20626567 -0.11655743 0.033079367 0.09117938
0.07991712 0.2475549 0.079435535 -0.2147681 0.07657652 0.098678194 -0.03289434 -0.028858066
-0.2475311 0.09091937 0.04966186 -0.051535193 0.07432749 -0.2280737 -0.23763269 -0.026923217
0.0016500611 -0.09405878 -0.10288808 0.32064566 -0.06617739 -0.07816663 -0.28930688 0.098813124
0.28964302 -0.03716601 0.28243065 -0.0070004435 0.0052510924 -0.022168322 -0.09171939 -0.0071645696
-0.101765305 -0.0739516 -0.107096836 -0.20109476 0.0073506734 0.019400503 -0.16031185 -0.25883472
0.069315396 -0.271515 0.22117484 0.13916558 0.059270248 -0.068554305 0.007809947 0.10091611
0.517982 -0.16929409 -0.15075849 0.2863145 0.14183162 -0.012020488 0.25103724 0.15910552
0.051893435 0.23258986 0.13667321 -0.081855625 -0.12879096 0.4935123 -0.23315218 0.13456562
-0.12292639 0.31520337 -0.0034580447 -0.0067483424 -0.03895503 0.15164691 0.11560667 0.27621612
-0.09068749 0.05420423 0.050266042 -0.10956513 0.2412992 0.03884868 -0.15208556 -0.5506331
-0.32441255 0.058942445 -0.33333966 0.073757604 -0.2670834 -0.24045911 -0.027126 0.30015427
-0.12260574 0.2725877 0.09001273 -0.027565213 0.04445895 -0.107476175 0.33881667 0.14840819
-0.052962426 -0.06858361 -0.3459477 -0.115843065 -0.041037798 0.046793304 -0.028308466 0.020202199
0.22926718 0.012534086 0.1841109 -0.04559453 -0.3014659 0.052753955 -0.07816153 -0.100289404
0.24557799 0.07147152 -0.007448772 -0.17918669 -0.18447909 -0.0587466 0.134999 -0.07581462
0.2406159 0.19932614 -0.34137297 -0.011978297 -0.10686234 0.035572674 0.3789759 0.1706045
-0.042279705 -0.34663895 0.0957026 -0.21629587 0.08294201 0.088819064 0.0092100585 0.010982858
0.025397977 0.015070274 0.047852073 -0.22910719 0.25611076 0.05732611 -0.211521 0.17869379
-0.16310781 0.12967436 -0.19428739 -0.009109758 -0.12820011 0.15572998 0.14470156 -0.048966277
0.1314908 0.13205312 0.36854544 0.26940763 -0.18249738 0.11871754 -0.19477838 -0.19473705
0.031294852 0.23246557 0.17164478 -0.09186118 -0.024524724 0.14089006 -0.2926833 -0.26403075
-0.005581482 -0.019662855 -0.1846343 0.22179435 0.017903706 0.107435666 -0.16779324 0.014866916
-0.071212135 -0.11040453 0.5257881 0.1505557 0.1991081 0.14543861 -0.165937 0.12949978
-0.10644662 0.16208172 0.17713277 0.124024644 -0.27959555 -0.19796325 0.09138589 0.023378652
0.36929354 0.05341364 -0.30871373 0.034920104 0.16542618 -0.0858809 0.16734864 0.1775442
0.13564667 -0.050935723 -0.15479606 0.18914223 0.09264695 0.10935755 0.1378862 -0.23816141
0.19267616 0.22320877 -0.26821864 -0.13229504 0.25526208 -0.13883759 -0.20133895 -0.08291959
-0.014901493 0.35223517 0.27934805 0.1420459 -0.4075458 0.048657823 0.026807325 -0.13334587
0.04868159 -0.17233974 -0.19608238 -0.048969727 0.18175924 0.06724829 -0.25978518 -0.012355517
-0.065666124 0.19430639 0.083997265 0.13762723 -0.14109577 0.09667321 -0.06852189 0.074918814
-0.08403618 -0.02943161 -0.2780245 -0.33601686 -0.029438837 -0.06699988 -0.1797461 -0.0028443239
00000000: 37d1 dcbc eea6 b23c 5050 b9bd 77d7 e03d
00000010: 4f37 53be a9b5 eebd 3b7e 073d 41bc ba3d
00000020: 96ab a33d 087f 7d3e 19af a23d 2bec 5bbe
00000030: 27d4 9c3d cb17 ca3d 37bc 06bd c067 ecbc
00000040: cb78 7dbe ef33 ba3d 3c6a 4b3d 9116 53bd
00000050: 0339 983d 278c 69be fc55 73be 148e dcbc
00000060: dd46 d83a e4a1 c0bd fcb6 d2bd ab2b a43e
00000070: 0388 87bd d315 a0bd 0820 94be 895e ca3d
00000080: 174c 943e 633b 18bd c09a 903e fa63 e5bb
00000090: 5b11 ac3b 579a b5bc 60d7 bbbd c4c4 eabb
000000a0: 546a d0bd f073 97bd 9655 dbbd c9eb 4dbe
000000b0: ebdd f03b ceed 9e3c ca28 24be fc85 84be
000000c0: 3bf5 8d3d 0404 8bbe a87b 623e 6c81 0e3e
000000d0: 5cc5 723d 3366 8cbd 95ea ff3b 1bad ce3d
000000e0: 789a 043f 6e5b 2dbe 6f60 1abe d097 923e
000000f0: 4f3c 113e 95f1 44bc f487 803e 8fec 223e
00000100: 368e 543d 092c 6e3e 10f4 0b3e eca3 a7bd
00000110: c7e1 03be a5ad fc3e 72bf 6ebe 92cb 093e
00000120: d5c0 fbbd 5662 a13e 5da0 62bb 3321 ddbb
00000130: 4f8f 1fbd 5449 1b3e 31c3 ec3d 336c 8d3e
00000140: 5dba b9bd 4105 5e3d c4e3 4d3d af63 e0bd
00000150: 2317 773e cb1f 1f3d 51bc 1bbe 4af6 0cbf
00000160: 6719 a6be a26d 713d 7fab aabe 3a0e 973d
00000170: 28bf 88be ea3a 76be 5837 debc d2ad 993e
00000180: b818 fbbd 9d90 8b3e 9858 b83d 71d0 e1bc
00000190: 971a 363d 781c dcbd 6179 ad3e 51f8 173e
000001a0: 21ef 58bd 9075 8cbd 0f20 b1be 213f edbd
000001b0: 4017 28bd 56aa 3f3d 28e7 e7bc 157f a53c
000001c0: 04c5 6a3e c45b 4d3c 9187 3c3e 54c1 3abd
000001d0: bd59 9abe 8814 583d 2713 a0bd 8864 cdbd
000001e0: cc78 7b3e a95f 923d d414 f4bb b77c 37be
000001f0: 16e8 3cbe 46a0 70bd 2e3d 0a3e b244 9bbd
00000200: 0464 763e 271c 4c3e 70c8 aebe 9e40 44bc
00000210: a4da dabd a7b4 113d 2109 c23e f2b2 2e3e
00000220: 7c2d 2dbd a97a b1be baff c33d aa7c 5dbe
00000230: 80dd a93d c5e6 b53d c9e5 163c 72f1 333c
00000240: 6b0f d03c 4fe9 763c 8900 443d 139b 6abe
00000250: f320 833e c8ce 6a3d f698 58be 81fb 363e
00000260: bc05 27be 5bc9 043e 46f3 46be 1841 15bc
00000270: e446 03be ae77 1f3e a52c 143e dd90 48bd
00000280: 86a5 063e ef38 073e fdb1 bc3e ccef 893e
00000290: 98e0 3abe 2e22 f33d fc73 47be 2669 47be
000002a0: 082f 003d 740b 6e3e a6c3 2f3e b721 bcbd
000002b0: 13e8 c8bc 7c45 103e 96da 95be 0a2f 87be
000002c0: dde4 b6bb ff13 a1bc c610 3dbe 0f1e 633e
000002d0: cbaa 923c 3b07 dc3d fed1 2bbe 5e94 733c
000002e0: abd7 91bd c51b e2bd 0d9a 063f 462b 1a3e
000002f0: fee2 4b3e dced 143e 64eb 29be 979b 043e
00000300: af00 dabd c0f8 253e 4b62 353e a200 fe3d
00000310: 2627 8fbe e1b6 4abe 8728 bb3d 9684 bf3c
00000320: 0b14 bd3e 43c8 5a3d ba0f 9ebe 6208 0f3d
00000330: 7b65 293e 53e2 afbd 715d 2b3e 26ce 353e
00000340: f6e6 0a3e faa1 50bd dc82 1ebe 80ae 413e
00000350: afbd bd3d daf6 df3d 0a32 0d3e 96e0 73be
00000360: e64c 453e d790 643e f453 89be 5a78 07be
00000370: b6b1 823e 712b 0ebe cc2b 4ebe bfd1 a9bd
00000380: 6425 74bc 2b58 b43e b506 8f3e 7b74 113e
00000390: d8a9 d0be 6d4d 473d 099b db3c d28b 08be
000003a0: 5966 473d d479 30be d2c9 48be 7b94 48bd
000003b0: 181f 3a3e 79b9 893d 9002 85be cb6e 4abc
000003c0: f67b 86bd 41f8 463e c206 ac3d 27ee 0c3e
000003d0: 697b 10be 9bfc c53d 3455 8cbd 096f 993d
000003e0: 291b acbd 8f1a f1bc 3a59 8ebe 670a acbe
000003f0: b729 f1bc 3c37 89bd 5d0f 38be d667 3abb

linears.5.bias f4 [40]
0.035540555 -0.021909285 -0.01340935 -0.047235947 0.009763925 0.040583774 0.0474219 0.0464071
0.012009527 0.021162344 -0.021180347 -0.039039213 -0.032051187 -0.08690384 -0.01716802 -0.060197912
-0.01686491 -0.016969385 -0.037086178 -0.0069772243 0.0084543815 0.007969422 0.036038667 0.03661058
0.045274828 0.05041096 0.033068877 0.024430167 0.08943447 0.0039567878 -0.026776448 0.0015967534
-0.05251891 -0.034509268 0.03631707 -0.03246946 0.021288253 0.01119253 0.06475116 -0.057667468
00000000: f992 113d 1a7b b3bc e4b2 5bbc 7b7a 41bd
00000010: dff8 1f3c 2c3b 263d 773d 423d 5f15 3e3d
00000020: 9bc3 443c a75c ad3c 6882 adbc 95e7 1fbd
00000030: 1b48 03bd a4fa b1bd f3a3 8cbc 1692 76bd
00000040: 4828 8abc 6103 8bbc ade7 17bd 33a1 e4bb
00000050: 3f84 0a3c 2e92 023c 489d 133d faf4 153d
00000060: 1972 393d b97b 4e3d 3b73 073d c621 c83c
00000070: 6b29 b73d f1a7 813b 485a dbbc 274a d13a
00000080: 121e 57bd 9759 0dbd 35c1 143d b2fe 04bd
00000090: b464 ae3c e060 373c 429c 843d b934 6cbd

linears.6.weight f4 [1, 40]
-0.009270278 0.080946796 0.26953557 0.006033206 -0.2663536 -0.3223984 -0.03625216 -0.1383879
-0.08644044 -0.3825313 0.077268146 0.13445717 0.04186514 0.16841337 0.20855968 0.10875724
0.13405031 0.060954887 0.43534285 0.2729819 -0.081837855 -0.6019968 -0.01949871 -0.09482776
-0.3570007 -0.25988787 0.0004626186 -0.11283554 -0.1432009 0.13434353 0.10890343 -0.21762225
0.39524445 0.0036258476 -0.18653937 0.04632074 -0.14577736 -0.2486013 -0.11250299 0.11171833
00000000: 5de2 17bc 6fc7 a53d 9100 8a3e 33b2 c53b
00000010: 805f 88be 6711 a5be 257d 14bd 8fb5 0dbe
00000020: af07 b1bd 24db c3be c33e 9e3d 24af 093e
00000030: c87a 2b3d 8e74 2c3e ab90 553e 1ebc de3d
00000040: 7c44 093e d5ab 793d 42e5 de3e 49c4 8b3e
00000050: 9b9a a7bd 761c 1abf c2bb 9fbc 0e35 c2bd
00000060: ccc8 b6be 0610 85be 9e8b f239 5216 e7bd
00000070: 42a3 12be 5a91 093e c308 df3d 5ed8 5ebe
00000080: 7b5d ca3e a19f 6d3b 2d04 3fbe d1ba 3d3d
00000090: a946 15be 5791 7ebe f867 e6bd 94cc e43d

exp_avg f4 [40, 2]
-8.406656e-05 -0.00032449493 0.0011789458 0.00019050749 -0.0014579976 -0.00014552515 -0.00040720546 0.00010956685
-0.0019598107 -0.0004944303 0.00035363104 0.00063403096 -0.0008115945 -0.0001599798 -0.0037158816 -0.0012791661
-0.001166204 0.00015997418 -1.8061994e-05 -0.00047431825 -0.00058787264 -0.0004383969 -0.0005061298 0.00020971241
0.0004431236 -7.561398e-05 -0.0005496574 -0.0007462078 -0.0011844726 3.368886e-05 -0.002575952 -0.0009103963
0.0029070515 0.0007968705 0.0013903703 0.00064181234 0.00029026333 -0.00024241765 -0.0018175303 -0.0004945194
0.0015856313 -3.0938703e-05 -0.00040325688 -0.00044692025 0.00015212837 0.00047870434 0.0014101851 0.00034284283
-0.0012145119 -0.00036517112 -0.0009630346 -4.987186e-05 -0.0019909542 -0.00019286008 0.0010999303 0.0003283085
0.0005452519 0.00043930372 -2.7309703e-05 3.698979e-05 -5.720317e-05 -0.0002662026 -0.0035482612 -0.0013885719
0.00087302417 0.00042332665 0.0009159881 1.2315866e-05 0.001168434 -5.0817704e-05 0.0012615324 8.04301e-05
-5.1808493e-05 -3.337735e-05 5.88392e-05 0.00056939595 -0.00068367174 -0.0006471058 -0.00042284236 -0.0002734897
00000000: e44c b0b8 f920 aab9 db86 9a3a f7c2 4739
00000010: 481a bfba 1c98 18b9 317e d5b9 41c7 e538
00000020: 2b70 00bb a89c 01ba 8e67 b939 1935 263a
00000030: 2fc1 54ba 40c0 27b9 2686 73bb b1a9 a7ba
00000040: 50db 98ba bebe 2739 d683 97b7 ebad f8b9
00000050: 771b 1aba a3d8 e5b9 ccad 04ba 3fe6 5b39
00000060: 0b53 e839 f292 9eb8 e216 10ba 289d 43ba
00000070: 4e40 9bba 234d 0d38 4ed1 28bb a9a7 6eba
00000080: 3b84 3e3b 13e5 503a 163d b63a 4c3f 283a
00000090: 7c2e 9839 7e31 7eb9 323a eeba a3a2 01ba
000000a0: f5d4 cf3a 2ec4 01b8 396c d3b9 9f50 eab9
000000b0: a684 1f39 9cfa fa39 f6d5 b83a 96bf b339
000000c0: 4230 9fba 7074 bfb9 2874 7cba 802d 51b8
000000d0: ab7a 02bb 7c3a 4ab9 892b 903a d220 ac39
000000e0: 3cef 0e3a 5952 e639 2417 e5b7 7c25 1b38
000000f0: 70ed 6fb8 1c91 8bb9 f289 68bb be00 b6ba
00000100: a9db 643a f1f1 dd39 ec1e 703a 3ea0 4e37
00000110: 2426 993a 1825 55b8 015a a53a 95ac a838
00000120: f24c 59b8 a8fe 0bb8 1cca 7638 8443 153a
00000130: 6f38 33ba 89a2 29ba f1b0 ddb9 2b63 8fb9

exp_avg_sq f4 [40, 2]
3.4555983e-06 2.7281989e-05 0.00034956884 6.6820494e-06 0.0005718588 6.961106e-06 4.718007e-05 2.9700986e-06
0.000991641 5.7066976e-05 4.2975822e-05 0.00011574089 0.00018701474 1.445486e-05 0.0035846324 0.0004217438
0.00035839924 5.665613e-06 6.023263e-07 5.4542084e-05 9.627605e-05 5.4963326e-05 6.342767e-05 1.1408513e-05
5.0275394e-05 1.3995892e-06 9.276859e-05 0.00014751061 0.00034665127 8.4046314e-07 0.0017959378 0.00025324532
0.0022298237 0.00018046139 0.0005216987 0.0001406396 2.467226e-05 1.4335095e-05 0.0008785336 6.382279e-05
0.0006672498 3.3901443e-07 5.461064e-05 6.132255e-05 9.694072e-06 6.984752e-05 0.0005189812 3.125662e-05
0.00038898623 3.4273402e-05 0.00023535681 2.668217e-07 0.0010368525 1.2922639e-05 0.00033583242 3.5977544e-05
8.1193546e-05 6.049811e-05 1.3706268e-07 1.754664e-06 2.7307046e-06 2.0742476e-05 0.0032689644 0.00050006824
0.00019252388 3.8602826e-05 0.0002198002 5.325119e-07 0.00037312406 2.6765067e-06 0.0004028174 1.0567912e-06
1.2563995e-06 3.3553513e-07 2.701037e-06 8.9698755e-05 0.00015015475 0.00013701354 5.2274136e-05 2.1088706e-05
00000000: bae6 6736 a0db e437 5646 b739 5e36 e036
00000010: cbe8 153a 7293 e936 37e3 4538 e851 4736
00000020: f3f9 813a 335b 6f38 f040 3438 ebb9 f238
00000030: 6319 4439 2783 7237 27ec 6a3b 7f1d dd39
00000040: 88e7 bb39 3f1b be36 8caf 2135 1ec4 6438
00000050: d0e7 c938 6c88 6638 7904 8538 3167 3f37
00000060: cbde 5238 85d9 bb35 c28c c238 14ad 1a39
00000070: bfbe b539 309c 6135 ac65 eb3a 03c6 8439
00000080: 3c22 123b 3c3a 3d39 9bc2 083a a878 1339
00000090: 46f7 ce37 c480 7037 644d 663a 99d8 8538
000000a0: 60ea 2e3a ca01 b634 ba0d 6538 4b9a 8038
000000b0: b9a3 2237 1a7b 9238 3d0c 083a 8a19 0338
000000c0: d9f0 cb39 c9c0 0f38 1dca 7639 b23f 8f34
000000d0: ffe6 873a 50ce 5837 aa12 b039 98e6 1638
000000e0: 7446 aa38 5abf 7d38 812b 1334 cc81 eb35
000000f0: 2641 3736 2100 ae37 1f3c 563b 0317 033a
00000100: 3ce0 4939 78e9 2138 2b7a 6639 f0f1 0e35
00000110: dd9f c339 099e 3336 3c31 d339 12d7 8d35
00000120: 8fa1 a835 9923 b434 7643 3536 a71c bc38
00000130: dc72 1d39 4bab 0f39 ed40 5b38 a7e7 b037

exp_avg f4 [40]
-0.0008296888 0.00041943032 -0.0003938695 0.000321377 -0.0012285992 0.0015573502 -0.00052384473 -0.0031678374
0.00041757544 -0.0011731277 -0.0011630567 0.0004968743 -0.00017417158 -0.0018652367 0.000114788076 -0.0023689307
0.001975435 0.0019086777 -0.0006550977 -0.0012145358 -0.00018640122 -0.0010838314 0.001236067 0.00086124724
-0.0008999329 -8.082053e-05 -0.0004953033 0.000793692 0.0012293098 9.900919e-05 -0.00061749807 -0.0034441217
0.0010480139 0.000120521494 -0.00030529665 0.00016509528 -7.000752e-05 0.0014144109 -0.001629533 -0.00070131995
00000000: 797f 59ba fce6 db39 4580 ceb9 7e7e a839
00000010: f308 a1ba 0020 cc3a a052 09ba 7e9b 4fbb
00000020: 07ee da39 a2c3 99ba b571 98ba ab40 023a
00000030: d4a1 36b9 f57a f4ba 61ba f038 1040 1bbb
00000040: 4d76 013b 992c fa3a ddba 2bba 0f31 9fba
00000050: b274 43b9 590f 8eba 8703 a23a 53c5 613a
00000060: 79e9 6bba 317e a9b8 3ed7 01ba c50f 503a
00000070: cb20 a13a 27a3 cf38 98df 21ba c6b6 61bb
00000080: 835d 893a 7cc0 fc38 3910 a0b9 6d1d 2d39
00000090: 00d1 92b8 c163 b93a 0e96 d5ba c9d8 37ba

exp_avg_sq f4 [40]
0.00019904155 4.186495e-05 4.3559292e-05 2.3446166e-05 0.00037278063 0.0006899256 8.7696026e-05 0.002588097
5.1312953e-05 0.00037731932 0.00037015174 7.656021e-05 9.692797e-06 0.00095882977 8.799461e-06 0.001518615
0.0010263701 0.00096558384 0.00011030784 0.0003908796 1.3148961e-05 0.00034191558 0.00043109982 0.000198369
0.00021053605 1.7320745e-06 6.687175e-05 0.00018510933 0.00039928025 5.690209e-06 0.00010852102 0.0030510619
0.00028138014 3.966733e-06 2.5853837e-05 6.1596943e-06 2.0108619e-06 0.0005705978 0.0007902884 0.00013739066
00000000: cfb5 5039 2698 2f38 6fb3 3638 42ae c437
00000010: c571 c339 20dc 343a 72e9 b738 109d 293b
00000020: dd38 5738 f1d2 c539 ed10 c239 f38e a038
00000030: 3f9e 2237 fa59 7b3a 66a1 1337 440c c73a
00000040: 4487 863a 3c1f 7d3a 1255 e738 f9ee cc39
00000050: 5c9a 5c37 2243 b339 3d05 e239 4601 5039
00000060: 57c3 5c39 a079 e835 7f3d 8c38 e819 4239
00000070: 7d56 d139 86ee be36 c795 e338 53f4 473b
00000080: 3486 9339 fa19 8536 b1e0 d837 5faf ce36
00000090: 58f2 0636 2c94 153a 5b2b 4f3a 8610 1039
