pdebench/models/newly_trained_models/Advection/PINN/1D_Advection_Sols_beta0.4_PINN.pt-10000.pt (torch, 119037 bytes, 39 tensors)

linears.0.weight f4 [40, 2]
00000000: 2b01 cfbd ab86 1abd caea 8fbe 2402 babb
00000010: 31de e23d 4183 c93c c37d 193c ffc8 26be
00000020: 270c d6bc 96b3 4c3d 4b99 243e bd7e 233d
00000030: 3a9d 273e fa52 313d 1a88 82be c227 2a3e
00000040: 9e9b 963e 9487 3fbe e6b7 87bd 6b60 febb
00000050: ff0a 85bd fd58 a53e 9da1 783c f780 28be
00000060: dc34 3d3e 3d8d f1bc 0f5c 85be e821 a83e
00000070: 1bf9 00be 7a82 253e 52ba 15be 2521 9a3e
00000080: db9c 75be 31df 94bd b833 8b3e 04e9 553e
00000090: a3af e83d c13d 9b3e 8607 cfbd 468e 2b3d
000000a0: e311 a03e e6e2 88bd 6f20 f9bd a089 893e
000000b0: 864e a0be e324 7abd fb5f c23d 45aa 55be
000000c0: 7c1a 80be c4d3 383e a19b 53be 9b31 603e
000000d0: 9401 79be 4406 e7bc a511 7a3e 9e26 953d
000000e0: d216 84bd 3309 01be 757c 68be 23f1 56be
000000f0: b471 66be 4ab5 003d 4d6a 003c dcf7 403d
00000100: faf0 2bbb b16b 313e 8658 ccbd dc3f 3f3d
00000110: 2f1e 983d b4e4 04be eda7 af3e 28bf d0bd
00000120: b6b3 ccbe 5b9b 9f3b 3493 ac3d 991d 1abe
00000130: 7b05 68be 2f82 aa3d 3454 93bc 4a57 03be
-0.10107645 -0.037726086 -0.28108817 -0.0056765247 0.11077536 0.02459872 0.009368363 -0.16287611
-0.026128842 0.049975954 0.16074102 0.03991579 0.16368571 0.043292023 -0.25494462 0.16616729
0.29415601 -0.18704063 -0.06626873 -0.0077629588 -0.06496238 0.32294455 0.01517525 -0.16455446
0.18477196 -0.029486293 -0.26046798 0.32838368 -0.12595026 0.16163054 -0.14621857 0.30103412
-0.23985617 -0.07269133 0.27187896 0.2088967 0.11361625 0.30320552 -0.10108857 0.04188373
0.31263646 -0.066839024 -0.12164389 0.26862812 -0.3130991 -0.061070334 0.09490963 -0.20865734
-0.25020206 0.18049532 -0.20664836 0.21893923 -0.24317008 -0.02820123 0.24420793 0.07282756
-0.06449665 -0.12601165 -0.22703727 -0.20990424 -0.22504312 0.03142289 0.007837844 0.047111377
-0.0026236163 0.17326237 -0.09977822 0.04669176 0.07427632 -0.12977868 0.34307805 -0.1019271
-0.3998086 0.0048708147 0.08426514 -0.15050353 -0.2265834 0.08325612 -0.017984487 -0.12826267

linears.0.bias f4 [40]
00000000: b243 d1bd f074 923b 522d 7abd ec6d 0b3c
00000010: 57c7 45bd 489a 633b 8c78 1f3e 6207 9c3c
00000020: c63d 91bd 454e 763d 8963 b43d 2627 163e
00000030: 9ca6 c4bd 695b 78bd 2b08 febc 0f0e 343d
00000040: 3b10 d53d ffb9 b6bd 5104 d9bd 921a 7f3d
00000050: 4b9d 84bd 2f3e 5a3d b20c f5bd fe2b 8abd
00000060: 5544 43bc 0a20 8b3d 2980 a23d bb77 0bbe
00000070: 7cea e5bc 7acb 34bd 334b c93d cf4f 4cbd
00000080: d9b1 4d3d 5889 25bd 3428 d4bd 175a eebc
00000090: d885 2cbd 4911 a13c f763 2d3d 8e99 febc
-0.1021799 0.0044695064 -0.061078377 0.008510094 -0.04828581 0.003472941 0.15573329 0.01904649
-0.070918605 0.060133237 0.08808047 0.14663371 -0.09602091 -0.06063405 -0.031009754 0.04395872
0.10403486 -0.08922195 -0.105965264 0.0622812 -0.06475314 0.05328196 -0.11965312 -0.06746672
-0.011918147 0.0679322 0.07934601 -0.13619892 -0.028065912 -0.044139363 0.09828796 -0.0498808
0.050218437 -0.040414184 -0.10359231 -0.029095693 -0.04211983 0.019661563 0.042331662 -0.03107908

linears.1.weight f4 [40, 40]
00000000: 3e94 cbbd 4979 bdbd f537 f93c 3473 8abd
00000010: a472 12be ae0d b53d aa32 163e 0bc6 28be
00000020: cb44 77be 3783 833e acc6 a7bd 5dee d83e
00000030: 881f fe3d 9276 98be 3611 27be 531b 0ebf
00000040: 6a8c 08bd a768 36be 2d85 9d3d f53b 853d
00000050: 0072 d2bd b7a1 b53d aa9d 4f3e c10f ecbd
00000060: a53e 21bd 9f87 4b3e 16d5 13bd 1dbc 82bd
00000070: 84d9 e83d 338f 873e 62ca bdbd f459 f9bd
00000080: 117a dabd ccf6 b63c cc61 8dbd 45d3 4b3d
00000090: 5d84 673e c246 c0bd 5d97 463e 84cc a9bd
000000a0: 6ddd 803e 2934 c3bd 4f52 8c3e a639 00be
000000b0: b0a2 0c3e 57f0 a1bc 50cb f6bd 65c1 a4bd
000000c0: 048b 1c3e 6a4b 5dbe 622e e0bd c545 e0be
000000d0: 43a3 343e f2d4 abbc d2ad 943d 11cb 51be
000000e0: 189c bbbd ab2a 223e 1e52 463d 0fe0 b0be
000000f0: 126e be3e 4fe1 f93d 3d55 aabd 2e59 c93d
00000100: e4f8 fa3c 5c00 c7bd 84be 6abe a602 1c3e
00000110: 041a 5c3d 412a 96bd 0996 6cbe 4fc7 9b3d
00000120: 30c3 5f3e 2e7f 26be a418 1b3e 0cb7 cc3c
00000130: c29a 823d fbeb dd3d dfc0 373e 17ad d13d
00000140: 32ea 803d 22a1 893e 32de bc3d a2ef 34bd
00000150: 181e d3bc 7137 c33d fa85 a0bd a0f9 b5bc
00000160: 404d c33c a48b 863d 3cae a13d 611a 063e
00000170: 9e2b b2bd 598f 80be ef06 de3d 8baa 413e
00000180: c43a 03be 12e6 33be 773a 8e3c 9337 c0bd
00000190: 1431 5bbe 0328 233d bb0a 483e 4683 e23d
000001a0: 625a 7b3e a284 72bd 0388 7c3d 7614 61be
000001b0: 1300 933d b573 9e3d 2e00 3e3d adf8 aabe
000001c0: 4186 4e3e 4126 2b3e 854f c1bd 16c3 8abc
000001d0: 0e6f b03e 0c1f 0f3e 0305 6b3c 9adc d4bd
000001e0: 3117 cfbd f32e 25be 5e28 f9bd 4145 87be
000001f0: dc88 063d ad41 b93c 7afc 0d3f cede 60be
00000200: 67e6 853d 24ab cf3d 6be7 013e bf51 3f3e
00000210: 703d bebc 730b 50bd bc28 1ebc af62 853e
00000220: dd64 e9bd a6cc ab3c 0259 c4be 9b7e e13c
00000230: ec13 85be 74c8 8bbd 3379 8b3b ba63 47bd
00000240: 98c5 5c3e 9b80 523e d46f 3fbc 89ec 44be
00000250: 0f24 2ebe d1fb c1be 2196 56bd 9f1f 6d3e
00000260: a95d b7bd 4ea9 503e 4b40 9cbe eb01 283e
00000270: 52cb f63d 0c70 09bd 5f29 d93a 9e8b 59bd
00000280: 550e 0abe 1be5 acbd b5ef e43e ebab 443e
00000290: f475 db3c 3a72 a9bd 5c13 133d 2c38 313e
000002a0: 2a49 70bd 7c09 f33d 3f72 313d 126c 7bbe
000002b0: 9cbc ebbd bd5e 853e 92fb f93a 3716 063e
000002c0: 0192 42bd 46a0 90bd 72cb ea3c 47ea 6bbe
000002d0: 1cf2 9ebc f70d 073e 4da6 6c3e 9e53 27be
000002e0: ddad 143d 0a2f b23e 85d6 ab3e 7b91 02be
000002f0: b03f 553e 73fc 7a3d f63f 96be e274 3b3e
00000300: 60e3 06bd acc4 433d bbb9 273b 5ce6 873d
00000310: a170 d53c dbc2 80be 82a4 27bd a4ca 373d
00000320: 756a 92bd 61e4 193d 1440 82bd 0884 dfbd
00000330: 5f43 45bd b981 ac3d 5ea2 17bd 65b1 41be
00000340: b410 42bd e3ba 5abe 878f 09be def6 0b3e
00000350: 45f1 2abd d8e9 993d 8e4c 63be 7fda 6fbd
00000360: 8bb7 08be 4a91 9b3e 007c fabd cba3 aebe
00000370: 975d b3bd dfb8 5bbe 9c07 9cbe 9a88 ef3d
00000380: 4e7e dc3d 98fa 22be fa45 96be 49ac b9bd
00000390: 06a9 a73b 1382 c03d f682 303e bb76 203d
000003a0: 1cd2 273e d1fb cebd 3114 613e 7561 ad3e
000003b0: 53b8 03be b6d8 f3bb 91b6 bb3d 79da 46bd
000003c0: f8c7 b1bc e80c cb3d 81ec 5ebd 7fd2 e33d
000003d0: 1e60 eebd 41aa 0b3e 876b 93bd de59 1abe
000003e0: 9f32 8e3d ed29 d23d aece aa3e 668c c73d
000003f0: b480 14be 0f03 863d 5944 013d 3880 3abe
-0.09940384 -0.09251649 0.03042219 -0.067602545 -0.14301544 0.088405 0.14667764 -0.16481797
-0.24147336 0.25686046 -0.081921905 0.42369357 0.12408358 -0.29777962 -0.16315159 -0.55510443
-0.033337034 -0.17813359 0.07691417 0.065055765 -0.1027565 0.08868735 0.20274988 -0.11526442
-0.039366383 0.19875954 -0.036091886 -0.06383536 0.11369613 0.2647644 -0.09267117 -0.1217536
-0.106678136 0.022334479 -0.06903419 0.04976203 0.22609086 -0.09388496 0.19393678 -0.082909614
0.25168934 -0.09531433 0.27406546 -0.12521991 0.13733935 -0.019767923 -0.120504975 -0.080446996
0.15287405 -0.216108 -0.10946347 -0.4380323 0.17640404 -0.020975564 0.07259716 -0.2048762
-0.09160632 0.15836589 0.048418157 -0.34545943 0.37193352 0.12201177 -0.08317039 0.09831463
0.030636258 -0.097168654 -0.22924238 0.15235385 0.053735748 -0.07332278 -0.23104109 0.076063745
0.21851802 -0.16259453 0.15146118 0.024989627 0.06377174 0.10836025 0.17944668 0.102380924
0.06294669 0.26880747 0.09222068 -0.044173844 -0.025771186 0.09532059 -0.07838054 -0.022213757
0.023840547 0.06569603 0.07894561 0.13096 -0.086997256 -0.25109366 0.10841166 0.18912713
-0.12815386 -0.17568234 0.017361863 -0.093856 -0.2140544 0.03983308 0.19535343 0.11060195
0.24546197 -0.05920852 0.06165315 -0.21980461 0.071777485 0.07736913 0.04638689 -0.3339285
0.20168401 0.16713811 -0.09438995 -0.016938727 0.34459728 0.13976687 0.014344457 -0.10393639
-0.10111845 -0.16131191 -0.121659026 -0.26420024 0.032845363 0.022614324 0.55463374 -0.21959993
0.065380864 0.10140064 0.12685935 0.18683527 -0.023222655 -0.05079217 -0.0096532665 0.26051852
-0.11396191 0.020971607 -0.38349158 0.02752619 -0.25991762 -0.06825343 0.0042563914 -0.04867909
0.21559751 0.20556872 -0.011684377 -0.19230856 -0.17005943 -0.37887433 -0.052389268 0.23156594
-0.08953411 0.20377085 -0.30517802 0.16406982 0.12050499 -0.03355412 0.0016568116 -0.053111665
-0.1348203 -0.08442136 0.44714132 0.19206207 0.026789643 -0.0827374 0.035907134 0.17306584
-0.058663525 0.118670434 0.043321844 -0.24552944 -0.11510584 0.26048842 0.0019072166 0.13094412
-0.04750252 -0.0706182 0.028661463 -0.23038588 -0.019402556 0.13188921 0.23110314 -0.16340491
0.03629862 0.34801513 0.33562103 -0.12750809 0.20825076 0.06127591 -0.29345673 0.18306306
-0.032931685 0.047794983 0.0025592882 0.066357344 0.026054682 -0.25148663 -0.04092837 0.044870988
-0.07149211 0.037571315 -0.06359878 -0.10913855 -0.048159953 0.0842318 -0.03702008 -0.18915327
-0.04737921 -0.21360354 -0.13433658 0.13668391 -0.041734 0.07515305 -0.22197172 -0.058557983
-0.13351266 0.30384284 -0.122306824 -0.3410934 -0.08758085 -0.21457241 -0.30474555 0.116959766
0.10766278 -0.15915906 -0.29350263 -0.09066064 0.0051165847 0.0939981 0.17237458 0.03917573
0.16388744 -0.10106624 0.21980359 0.33863416 -0.12863283 -0.0074416054 0.09165681 -0.048548196
-0.021701798 0.09914571 -0.054424766 0.11124133 -0.11639427 0.13639165 -0.071982436 -0.15073344
0.06943249 0.10261903 0.3336081 0.09743576 -0.14502221 0.06543552 0.031559322 -0.18212974

linears.1.bias f4 [40]
00000000: 4b5d 2d3d 4156 0dbe 7808 e2bc d987 8a3c
00000010: b178 d4bc 1208 c83b e38b 04bd 2350 25bd
00000020: a33b 4abd 1c0d e33c 2303 4d3d d2df 443d
00000030: e374 0c3d 9319 2fba 9451 353d 77b4 8ebd
00000040: aed1 303d 790a 53ba f524 f73b 1083 343d
00000050: 1a52 bcbc d649 443d 85a4 bf3d f61f 153d
00000060: 1a94 f5bc d0da b63d aca5 a33c e349 683d
00000070: eac5 adbd a128 52bd 4ac4 2a3d caf3 2e3d
00000080: 6ec0 b7bd 7731 903d f6f0 18bd 2011 6f3c
00000090: ca6a 03bd ae94 70bd 92b3 adbd 3181 31bd
0.0423253 -0.13802435 -0.027591929 0.01691048 -0.025936456 0.0061044777 -0.03235997 -0.040359627
-0.04937328 0.027716212 0.05005182 0.048065014 0.03429116 -0.0006679531 0.044267252 -0.06968015
0.043168716 -0.0008050572 0.0075422474 0.044070303 -0.022988368 0.047921978 0.093575515 0.036407433
-0.029977847 0.08928454 0.01997646 0.05671109 -0.08485015 -0.051308278 0.041691102 0.042712964
-0.0897225 0.07040685 -0.037339173 0.014591485 -0.032084264 -0.058735542 -0.08481516 -0.043336097

linears.2.weight f4 [40, 40]
00000000: 3d30 0d3d 5d7c 443d de4e aa3d 0d4a 12be
00000010: 4bbc a23d 31dc 95be 5e12 b03b 9b11 1e3e
00000020: 39c7 88be 10f1 d0be af1e 963e 888b eabd
00000030: b7f6 263d bfb3 a9be dc2b 193e d7b8 4abc
00000040: 646b 16be a97f a8bd 350d 813e 331e 9fbe
00000050: edd9 12bc b89f 4a3d e345 27be 287d 50be
00000060: fa2c 7fbe ba1a e93d 8350 6fbe c132 163e
00000070: 4803 07bd 077a ea3e e3ff 82be 94b3 5a3e
00000080: 78c1 70be 20b1 603c 39bc 003e 591d 203c
00000090: 588f 3dbe 3c5e b73d a042 9d3e 5f3e 873e
000000a0: 7a7c ee3d 3b22 81be fcdc c9bd d4b5 563d
000000b0: cc64 523c 6855 efbd 8b5f 8dbe ad23 1b3d
000000c0: 1810 c4be 59db 293d e510 a33e 651b 15be
000000d0: ced5 103c 7280 503e 6328 103c b7e2 b6bd
000000e0: 87db 973e 7569 3abe 4672 f13c ed0d a53e
000000f0: 379d 74be 3dc7 afbd d1b4 0a3e bf94 b038
00000100: 5b27 17bd f1c3 61bd 16bc 3bbe bbf7 003e
00000110: 296e 87be 02a7 f7bc f94b 033d 1784 313e
00000120: 6657 e5be a9fa 833e 3fd3 e1bd 697e 12bd
00000130: 262c d2bd 8f3a d73d a2ae 00be cfd4 c63d
00000140: a3cb 05be 961c a3be 0964 83be 078f 433e
00000150: ede9 8ebc e3c6 96bd 924e d33d c5fc 88be
00000160: d3df 92be 32a0 bb3c 4156 9e3e cc9f bd3d
00000170: 607b b0bd eab8 2e3e 81f9 2f3e 6412 5a3e
00000180: 2ebc b03e 035b 17be e960 4a3d 4eab 843e
00000190: 1cfc a93d 854c b83e cee1 753c 27ae 743d
000001a0: 6535 8dbd 1fdf a03d 57b1 32be a810 e5ba
000001b0: 1869 61be e20f abbd 7377 1abd 253d 9d3d
000001c0: 0cca 1cbd 134c 8f3e c14f 353e ac9b cd3d
000001d0: 5307 973d 52e7 1ebe c140 133e 1bf7 f93c
000001e0: f8a6 ebbe 609f 5bbd 461e a0bd 730f 4b39
000001f0: ba4a 72bd 6c86 ccbb def8 cf3d 8d09 d0bc
00000200: c176 733e afdd 4f3d dba0 f0bd e688 98bb
00000210: 5b72 853c 385a 363d 04ac 1b39 5c09 ce3e
00000220: a386 86bc 55de 9b3e 4c05 69be 8cdc 8ebd
00000230: bada 4abd 3665 633e ca10 3f3d 7a20 d0bc
00000240: 7a15 173e 2a51 8e3e f443 0abe f1aa 893d
00000250: 8a04 89be 344d dcbd e6c1 98be e506 e9bd
00000260: 8454 5c3d 7208 ad3c 8b45 85be f8dc 0bbe
00000270: 1482 08bc 6af4 0a3d bfc3 483e d795 8e3d
00000280: 965d e9bd 4b31 dcbc cfe8 26be 5e8e f7bd
00000290: c5f8 223e 9344 ee3e 120c 553e 45d7 19be
000002a0: e7b8 873e 9d3a e53e 4f31 94be 3189 823e
000002b0: 4ded d1bd 91b8 64bc c53c 40be f684 6c3d
000002c0: 89ff 17be 75b7 78be df7c 02bf 8e07 fd3c
000002d0: b1ee cc3c 99f7 8a3d 94ab efbd 83e7 e83e
000002e0: 9b16 78be 4281 d5bc acec 153f 8d84 71bd
000002f0: 37db 84bd b968 553d f746 f93e 85d9 e63d
00000300: a109 01be 3ec8 1fbd d68b 20be 9366 76be
00000310: 23fa ba3d 30cb 8cbe 2adf b2be 6dbc 503c
00000320: 3e20 0dba b82b bb3d b11b 81bc 5593 c2bd
00000330: 8cc7 283e 15e3 aebd 5977 41be b492 46bd
00000340: 2075 283e b723 a4be 7aab 3b3d 9a7b b13d
00000350: 716d b23b e250 13bd 2953 febc b63d bebd
00000360: 0e9a dabd 7515 d5bd 39b3 c43e 24a1 22bd
00000370: 1a68 183d 062d 24be 16c9 76bd 1dbf a33d
00000380: 607b 7ebc c058 9dbd f44b 44be 812b 96bd
00000390: c486 a8bd 514f 523e 01cf c2be 2b92 7bbd
000003a0: 0ce3 69bd 79c6 fc3d 3747 27bd 4877 113d
000003b0: 0f35 673c 2f7e 3cbe a65b 093d 0ca3 32bd
000003c0: 987c ebbd 2fee bbbc b74b 243e ad3b 73be
000003d0: 94d4 0e3d 681c d33d bef3 973e d081 88bc
000003e0: 5d4d 893d 9dc7 313e 11c8 903e f021 c4bd
000003f0: dce4 493c 46c9 5e3e 9ff4 fcbd a8c6 ed3c
0.03446983 0.047970165 0.08315824 -0.1428606 0.0794607 -0.29269555 0.0053732833 0.15436403
-0.26714495 -0.40808916 0.29320285 -0.11452395 0.04076263 -0.33144948 0.14958137 -0.012373171
-0.14689404 -0.08227474 0.2520539 -0.31077728 -0.00896309 0.049468726 -0.16335253 -0.20360243
-0.24919501 0.11382051 -0.23370557 0.14667799 -0.032962114 0.45796224 -0.2558585 0.21357566
-0.23511302 0.013714105 0.12571801 0.009772622 -0.18511713 0.08953521 0.30714893 0.26414773
0.11644836 -0.25221428 -0.098566025 0.0524195 0.012841415 -0.11686212 -0.27611956 0.03787582
-0.3829353 0.04146895 0.31848827 -0.14561231 0.0088400375 0.20361498 0.008798691 -0.08929961
0.29659674 -0.18204291 0.029473435 0.32237187 -0.23888098 -0.085829236 0.13545538 8.42004e-05
-0.036902767 -0.055118505 -0.18333468 0.12594502 -0.26451233 -0.030231003 0.032054875 0.17335545
-0.44793242 0.25777176 -0.1102662 -0.035765085 -0.10262327 0.10509216 -0.12566617 0.09708559
-0.13065962 -0.31857747 -0.25662258 0.1909753 -0.017445529 -0.073621534 0.103177205 -0.26755348
-0.2868639 0.022903536 0.30925182 0.092589945 -0.08617282 0.17062727 0.17185022 0.21296078
0.3451857 -0.14780812 0.049408827 0.25911945 0.08300039 0.3599588 0.015007449 0.059736397
-0.0689495 0.07855057 -0.17450462 -0.0017476277 -0.22012746 -0.08352639 -0.037711572 0.07677678
-0.038278624 0.27987728 0.17706205 0.10039458 0.07374444 -0.15517929 0.1438017 0.030513337
-0.46025825 -0.05361879 -0.07818274 0.00019365344 -0.059153296 -0.0062416103 0.101548895 -0.02539518
0.2377577 0.050748523 -0.11749431 -0.0046549914 0.01628988 0.044519633 0.00014846033 0.40241516
-0.016421622 0.30443063 -0.22755927 -0.0697566 -0.049525 0.22206578 0.04664687 -0.025406111
0.14754286 0.27796298 -0.13502485 0.067220576 -0.26761276 -0.10756913 -0.29835433 -0.11378268
0.053791538 0.021122191 -0.2602962 -0.13658512 -0.008331794 0.033924498 0.19605921 0.069621734
-0.11394803 -0.026878973 -0.16299747 -0.12087701 0.1591521 0.46536693 0.20805386 -0.15023525
0.26508257 0.4477128 -0.2894387 0.25495294 -0.1025034 -0.01396002 -0.18773182 0.05774399
-0.14843573 -0.24288733 -0.5097179 0.030887391 0.02501616 0.06785507 -0.11702648 0.4548913
-0.24227373 -0.026062611 0.5856426 -0.0589643 -0.064871244 0.052101824 0.48686954 0.11271957
-0.1260133 -0.039009325 -0.15678343 -0.24062566 0.09129741 -0.2749877 -0.34935886 0.012740237
-0.00053835276 0.09139198 -0.015760275 -0.095007576 0.16482371 -0.08539406 -0.18893184 -0.04847975
0.1645093 -0.32058498 0.04581783 0.08666153 0.0054451753 -0.035965808 -0.031045513 -0.09289114
-0.10673915 -0.10404483 0.38417986 -0.039704457 0.037208654 -0.160328 -0.060250364 0.07995436
-0.015532345 -0.07682943 -0.19169599 -0.073325165 -0.082288295 0.2053807 -0.38048556 -0.061418694
-0.057101294 0.12342543 -0.0408394 0.035514146 0.014111771 -0.1840751 0.03353467 -0.043612525
-0.11498374 -0.022940723 0.16044508 -0.23753233 0.0348707 0.103081524 0.29678148 -0.016663462
0.06704209 0.17361303 0.2827764 -0.095767856 0.012322631 0.21756467 -0.12351345 0.02902539

linears.2.bias f4 [40]
00000000: fed4 3abd 9f81 763d fa12 273d 7829 00bd
00000010: d847 cf3d 8350 31bd 7985 323c 7677 f6bc
00000020: a1dc 9bbd 9f53 6a39 0fe8 22bd e4c1 1b3d
00000030: 40b7 0ebd b90c c33d 748b 0e3d 1e90 f3bc
00000040: 8d37 a1bb ae81 a23b c56e 9a3c 796f 743b
00000050: f7a5 3cbd 3a9c 1ebd 0316 1cbd 8505 a83d
00000060: c86c 213d a293 42bc 4537 463c 04a0 68bd
00000070: 03d1 3d3d 9aa8 82bc bf98 b9bc b988 153d
00000080: 3ea4 bd3c eb29 453c 41e3 023d 998a 7b3d
00000090: df24 e1bc da19 a3bc 0247 0dbd 6e1c f2bc
-0.04561328 0.06018221 0.04078958 -0.031289548 0.10121125 -0.043289673 0.01089608 -0.03008626
-0.07610441 0.0002234713 -0.03977209 0.038026705 -0.03484273 0.09523911 0.03480096 -0.029731806
-0.0049199522 0.0049593067 0.018851647 0.0037297888 -0.046056714 -0.038723208 -0.03810693 0.08204178
0.039410383 -0.011876019 0.012098138 -0.056793228 0.046341907 -0.015949536 -0.022655843 0.036507342
0.023149606 0.01203392 0.031955007 0.061411474 -0.027483402 -0.019909788 -0.034491546 -0.029554572

linears.3.weight f4 [40, 40]
00000000: 3574 a33e 641c 683d f468 683e d607 3c3d
00000010: d542 cabe a289 a23c b659 f53c c5ef c8bd
00000020: abe8 bebd c3b5 fa3d 3bc5 7dbd ea3b 7d3e
00000030: 3c06 a9bc 1b93 f0bc 0fa6 84be 7594 a03c
00000040: 6b03 ed3c 5d88 dbbd 3955 9e3d 2454 5e3e
00000050: 478f f1b9 02fd b8bd c597 1bbe f02f 803e
00000060: 48d3 2c3d b290 033d 6ae2 a43d b273 103e
00000070: 72c0 acbd baa0 92be 4a80 4d3d c2dd 203d
00000080: 4a2c 233e dac1 fc3d ee08 22be db9a 7bbd
00000090: ab43 063e 4573 91bd 7112 97bd 67c5 9e3e
000000a0: dd9f b7bd 2e65 443e a4f9 55be 03ff 6cbd
000000b0: 591d 3abe 96cc 793e 80d4 5b3c 4ebb 1dbe
000000c0: 0397 8ebc d171 28bd 1471 06be 4e4d 483e
000000d0: 1d9b 3bbe c2f1 26bd 51eb 48bd 8189 99be
000000e0: be0b 9bbe 08d8 163c 2c8e 68bd 01bb 683e
000000f0: e4e8 09bd e7b0 68be eeee 56be 2cef a23e
00000100: 5e35 c73d f35d 023e a338 b93e 2f1e 31be
00000110: be9e 2b3e 4af6 b83c abc6 21be d829 83bd
00000120: 1b56 49be 0baf 53bc 3c14 cebb ae26 b53e
00000130: e88b 41bd 059e 0a3d 7e6d 5cbe 7e97 88bc
00000140: 70ac 5ebd bd8f aa3e b070 c43c 91ab 7a3d
00000150: 8e16 0d3e 398c 42be 7ae5 90be 492c 783d
00000160: 659f bbbd bf6c fbbd 8200 f83d 2860 aa3e
00000170: d1cb cebd 9a56 21be e850 a63d e9ce e4bd
00000180: b4e0 503d 9506 b43c 1052 773e 5473 873c
00000190: 8908 fcbd c278 3e3d 0983 81be 920d 9abc
000001a0: c0b0 0c3e dc4a 4c3e 0ead d73d 2277 4d3c
000001b0: e43a ed3d 1702 99bd a648 213e 41d9 a23d
000001c0: fe06 3f3e a725 ffbd 4a8e 33be 01f4 813e
000001d0: 0da5 40be 4e95 333d c385 68bd 2983 353e
000001e0: 0905 c5bc 80cc a33d 248c 3f3e 8144 ffbd
000001f0: e53f 7dbd 2987 773e 5f3d 003e 6f65 bd3d
00000200: aa79 7abd cef1 c3bd ed8f 923c 9f98 683e
00000210: 8875 5c3e 0ce3 93be 76f5 84be 23bf 083e
00000220: e9b7 25be e06d 903d 36fe 7e3d c5fd f83d
00000230: 06a3 41bd 9c10 4ebd 7413 a3bd 9bc6 b03b
00000240: 6dd2 3a3e 9f90 15ba 5156 5e3d 27b2 21be
00000250: bbff 92be 56c1 b93d 1736 f6bd b5b9 60bd
00000260: 710f 56be 6394 2bbd 995a adbe 944b 1c3d
00000270: 95ba 293e 6abe 8c3d a325 8abe 4334 72be
00000280: ccbb 39be f77c a83d 55f9 1ebc da97 a3be
00000290: 669b e13e 284d f8bd 3384 adbd 17d9 a6be
000002a0: 0b40 713c 9c45 bbba c789 65be c40d 2ebd
000002b0: 8579 cfbd 50f9 303e d069 373e 18e5 1d3e
000002c0: fbae 223e 1a0f a13d 581e bdbd b832 3ebd
000002d0: 4202 0b3e 035d a0be 412a 1fbe 5035 86be
000002e0: 3cd9 263e b6f5 9bbd bb48 ccbd 1624 1dbf
000002f0: 22d9 123d b5eb 723d f341 1ebe 9c1d 863d
00000300: 071f e2bd a625 e43e 91ec c13d d074 d63d
00000310: c41b eabd 8055 2c3e 6e1b 2b3e e7a0 77be
00000320: 5cac b33d 49a2 f23b 3263 9bbe 6b52 0f3e
00000330: a889 373c b8e3 cfbc e414 6abe bc96 353e
00000340: e2cb bbbd 8e05 8bbe d551 34bc 33cc a9bc
00000350: df84 163e 1106 033b 1a90 64bd c5a4 e4bd
00000360: f941 163d 5c0c 8d3e 2236 28ba a3c8 003e
00000370: 77c7 03be a0fb 743e d03a 7cbc ac7b 8b3c
00000380: 0702 f8bd faad 363d 5174 d5bb 337f 633e
00000390: e8f7 63bd cf86 333d e74a a0bd ae05 d53e
000003a0: eeda c33d de30 41bd 67a3 0dbe 6d82 e7bd
000003b0: 7e6e 493d 12d4 10bd 9aaa d1bc c6b1 bd3e
000003c0: 1069 97be e01a b9be d7b7 4b3e 1760 e13e
000003d0: f1da 07bb 3217 d2bd b82e 013e 930b 753d
000003e0: cc2c 90be 50b9 b93b c9ec aebc b820 25be
000003f0: c897 8a3e aea5 0ebe 639c 5bbd 0f0e 3abd
0.31924596 0.0566677 0.22696286 0.04590591 -0.39504114 0.019841019 0.029950004 -0.098113574
-0.09321722 0.122416995 -0.06195567 0.24729887 -0.020632856 -0.02936702 -0.25907943 0.01960204
0.028932294 -0.107193686 0.07731099 0.21711785 -0.00046073852 -0.090326324 -0.15194614 0.25036573
0.04219368 0.032120414 0.080509976 0.14106634 -0.084351435 -0.2863825 0.050171174 0.039273985
0.15934864 0.12341662 -0.15823719 -0.06142698 0.13111751 -0.07102064 -0.07376564 0.3100998
-0.089660384 0.19179222 -0.20896012 -0.057860386 -0.18175258 0.2439445 0.013417363 -0.15403482
-0.017405992 -0.04112417 -0.13129073 0.1956074 -0.1832089 -0.040757902 -0.04905254 -0.2998772
-0.30282396 0.009206779 -0.05677621 0.22727586 -0.033669367 -0.22723733 -0.20989582 0.318231
0.09726976 0.12731151 0.36176023 -0.1729667 0.16759774 0.022578377 -0.15798442 -0.064044654
-0.19661753 -0.012920151 -0.006289033 0.35381073 -0.047252566 0.033842105 -0.21526143 -0.0166738
-0.054363668 0.3331279 0.023979515 0.061198775 0.13778135 -0.18998803 -0.28300077 0.06058911
-0.091612615 -0.12276601 0.12109472 0.33276486 -0.10097469 -0.15755692 0.081209004 -0.111722775
0.050995544 0.021975795 0.24152398 0.016534485 -0.123063155 0.046501882 -0.25295284 -0.018805299
0.137393 0.19950432 0.105310544 0.0125406105 0.11583498 -0.07471102 0.1575037 0.07951594
0.18655011 -0.124583535 -0.17534748 0.25381473 -0.18812962 0.04384356 -0.05676819 0.17725815
-0.024050253 0.0799799 0.18705803 -0.12464238 -0.061828513 0.24172653 0.12523411 0.092478625
-0.061151184 -0.09567605 0.017890895 0.2271447 0.2152921 -0.2888416 -0.25968522 0.13354163
-0.16183437 0.07052207 0.062254153 0.12157778 -0.047274612 -0.05030881 -0.07962695 0.0053947694
0.18244334 -0.0005705449 0.054281536 -0.15790616 -0.28710732 0.09070079 -0.120220356 -0.054864604
-0.20904328 -0.04188956 -0.33858183 0.038158014 0.16575082 0.06872256 -0.2698184 -0.23652749
-0.18138045 0.0822696 -0.009703 -0.3195179 0.44063872 -0.121240914 -0.084724806 -0.325875
0.014724742 -0.0014287713 -0.22415839 -0.042493597 -0.101306 0.17282605 0.17911458 0.15419424
0.15887062 0.078642085 -0.09234303 -0.046435088 0.1357508 -0.31320962 -0.15543462 -0.2621255
0.16293806 -0.07615225 -0.0997481 -0.6138319 0.035851605 0.05930682 -0.15454845 0.06548616
-0.11041074 0.44559973 0.094689496 0.10471499 -0.11431077 0.1682949 0.16709682 -0.24182473
0.08773109 0.0074046 -0.30349118 0.13996284 0.011202253 -0.02537714 -0.22859532 0.17733282
-0.09169747 -0.27152675 -0.011005838 -0.020727253 0.14699124 0.001999263 -0.05580149 -0.1116424
0.03668401 0.27548492 -0.0006416758 0.12576537 -0.12869059 0.23924112 -0.015394881 0.017026745
-0.12109762 0.04459951 -0.00651411 0.22216491 -0.055656344 0.043829735 -0.078267865 0.41605896
0.09563242 -0.047165744 -0.13831864 -0.113041736 0.04917764 -0.035358496 -0.025594044 0.37049693
-0.29572344 -0.36153316 0.19894348 0.44018623 -0.0020729864 -0.102583304 0.12615478 0.05982549
-0.28159177 0.005667843 -0.021353142 -0.16125762 0.27068925 -0.1393039 -0.05361594 -0.045423564

linears.3.bias f4 [40]
00000000: bfd3 a0bc 3268 bd3c 9c3c d63c eb77 123a
00000010: 77d9 333d 0fb8 b7bc 98de a3bc 14fa 013d
00000020: 6a95 3abd fb8e 43bd 3469 683c 9bc0 3abc
00000030: 3d21 8bbb ec6e aebc acad 1b3d 351a 11bd
00000040: 7f3c 663d 901b 23bc 9874 12bd 8154 79bd
00000050: ac8b 043d 76c1 10bd 7146 eaba 6859 713d
00000060: 2097 c5bc 8b98 0f3b acb1 d13b 569d 26bc
00000070: dbc0 19bd 8bb6 ec3d 54e1 82bd 6f4f 36bd
00000080: f15d 443b e14c 293d 114f cdbc b7a9 ed3b
00000090: 2a4f 38bc 4b89 f03c ae19 d5bc e487 d3bc
-0.019632218 0.023120973 0.026151948 0.0005587327 0.043908563 -0.022426633 -0.020003602 0.031732634
-0.04555265 -0.04774378 0.014185239 -0.01139846 -0.0042459057 -0.021293126 0.038007423 -0.035425384
0.056210037 -0.009955302 -0.035755724 -0.060871605 0.032359764 -0.03534075 -0.0017873776 0.058923155
-0.024119914 0.002191099 0.006399354 -0.010169348 -0.037537437 0.11558255 -0.06390634 -0.044509348
0.002996322 0.041333083 -0.025062116 0.0072528976 -0.011249343 0.029362341 -0.026013222 -0.025821634

linears.4.weight f4 [40, 40]
00000000: 0824 40be 05db 3b3e 9924 8cbe 4933 ffbc
00000010: 83dc 973d 271b 85bc 7ecb 50be 93bb f43d
00000020: 3e36 7cbe 16fa 9bbc b6e0 49bc 0a49 c9bc
00000030: b130 273e acdc 903e 7cc2 1dbe ff72 3abd
00000040: 67b7 eebd 8b56 31be 8d92 823e 0467 aebe
00000050: 4b36 8b3d cf36 94bd 84c8 65bc b5d9 42be
00000060: e469 bebd 58d2 b7bd a422 b4bd e043 febc
00000070: 4ee9 353d 59c7 883d 9cc2 a9be 5659 f83c
00000080: 843d b13e a8af 3c3e 91e8 943c 8664 5c3d
00000090: 7dc2 76be 6067 293e edfc bdbe a752 3f3e
000000a0: 3c3e 1e3d ba9f 2b3e 9990 01bd 488d 0cbe
000000b0: 651c b6bd 1c0d 88be 22ca d53d 36df c53e
000000c0: 8840 e5bd 7883 f6bd e517 b93d 61ed 0c3e
000000d0: d26a 1ebe 5635 1fbe 53d7 c83d 942a 17be
000000e0: c62d 3cbd c2e7 1cbd 117a 433e 606a 3a3e
000000f0: 7036 f83d 322b 083c a3f4 26be def1 413d
00000100: 663e 11be cc72 7dbe ac4b a63d c7d5 eb3d
00000110: a14b 813d 908a 133e 5865 0abe 033b eabc
00000120: 2f2b b83c 6e26 40be 8f0f 603d 2b02 c33e
00000130: a8ac 173e 0bba 0a3d 2fc6 05bd 3f06 a03e
00000140: 4f40 26be 1fa7 953d 0bc3 923d e33d dfbc
00000150: f52e 873e 4718 1fbe 8803 7b3d 32d5 303e
00000160: 0241 84bd e510 f93d 9b0a ab3e 4d91 d03e
00000170: 1d35 533e 3659 083c 78bc 55be 5946 4bbe
00000180: d3f3 31be 645b 963d 603f ce3d 1656 3abe
00000190: 644e b53b f3ed e73d fd71 193e b3f1 b3bb
000001a0: 965c 413d f683 debe ebeb 7abd 28f4 fb3c
000001b0: 7da1 20bf 4b1f 84be 25c0 a03d 8143 08be
000001c0: cd6a 0ebe fc35 463d c1ad 7a3d 4da3 3a3e
000001d0: 6842 ef3d a73d e13d 0ffd f13a d765 333d
000001e0: 7e58 f93c c04c b7be e02c 53be acbf eabd
000001f0: 6e74 0d3c 5094 a13e e29b a33e 4d63 bdbd
00000200: a6f4 01be 76e0 d0bd 2c8b 2a3d 7365 1c3e
00000210: 9704 ff3d b9d0 e13d d4a8 d6ba e42c 87bd
00000220: d414 af3d 51ed c3bd a59b 503e cf75 503c
00000230: afe8 7fbc 31f4 353e 0a6d 573e 7c02 273d
00000240: 813e b13d dc6e 09be c50f 5a3e 60b3 1d3e
00000250: 0fd2 2c3e 4674 abbd e11b ab3d 89ea a9bc
00000260: 67ec bf3b a4b9 b7bc 197a 053e 7b6a 3d3e
00000270: 2939 c8bd 9b4c a5be ffdd 703e 1235 b33d
00000280: b89b cc3d 4c02 aa3d 0a96 693d a4c8 863d
00000290: 02c7 f63d 40eb 28bd 6577 c6bd 8f57 81be
000002a0: 5bc8 f13d 05aa 04be c119 89bd 8ced 37be
000002b0: 611f e5bd b5e1 12be be24 bcbd dc0a b13e
000002c0: 713d 413e cf69 ee3c bd76 0cbe 6d43 c9bc
000002d0: 9f52 1b3d 7c04 cdbc ebd0 46be 5543 183d
000002e0: b26e 413e 19e8 8a3b b398 043e ed2e a7bd
000002f0: bf23 51be a8e3 aa3d 119f d33e b1d3 f0bd
00000300: 6c04 423e 108b 423d 3b58 003e e8b2 303e
00000310: 9e5c 933e 1ede f33c 993e b9bd c5d1 36be
00000320: 2d33 1b3e 4c91 323e e8f6 32bd 20f3 f53d
00000330: 1252 b4be c9ed bd3d a1ec ad3c 88e9 86be
00000340: 874d fcbd 9b22 7abd 091a 17be bfcd e4bd
00000350: 4949 f9bd a6df c5bd 91d3 b9bd c967 3bbe
00000360: 7065 cabd fe1b 9d3d 799d 183e 954a 50be
00000370: 8243 263e 0293 fcbd e204 c8bc 9304 9abe
00000380: d07b 8dbd 223f dfbd cf56 83be c1bd 153d
00000390: bc25 7cbe 3ba6 e6bd 1ea5 2e3d 3c84 643e
000003a0: 9045 643d f72b 133d ec1e a83d 76e7 583e
000003b0: 6f2e 363e 134a 2ebc 0186 20bd 37fe a33d
000003c0: 4c04 b5bd 3829 91bd 46ef 64bd 0272 9b3c
000003d0: 61e7 52be ae70 b8bd 31d2 2fbe f64c 3ebe
000003e0: 5edc 65bd a709 08bc 6af6 90be bc21 0abe
000003f0: 858c 78bd 90a8 0dbe 0acc bfbd 51e5 80bb
-0.18763745 0.18345268 -0.27371672 -0.031152384 0.07415106 -0.016248299 -0.20390126 0.119498394
-0.24630067 -0.019040149 -0.012321642 -0.02457096 0.16327168 0.2829336 -0.15406221 -0.045519825
-0.11656075 -0.1731817 0.25502434 -0.3406297 0.06797465 -0.072370164 -0.014024857 -0.19028361
-0.09297541 -0.08975667 -0.0879567 -0.031038225 0.04441195 0.066786475 -0.33156288 0.030316036
0.34617245 0.18426383 0.018177303 0.053806804 -0.24097629 0.1654334 -0.3710703 0.18683873
0.03863357 0.1676015 -0.03163204 -0.1372577 -0.088921346 -0.26572502 0.104389444 0.3864686
-0.11193949 -0.120367944 0.09037761 0.13762428 -0.15470436 -0.1554769 0.09806695 -0.14762336
-0.04594209 -0.03830696 0.19089533 0.18204641 0.12119758 0.00831108 -0.16304259 0.047349803
-0.1418396 -0.24750823 0.08119902 0.11515384 0.06313253 0.14408326 -0.13515222 -0.028592592
0.022481529 -0.1876466 0.054702338 0.38087592 0.14811957 0.03386883 -0.032659706 0.31254765
-0.1623547 0.073072664 0.07166108 -0.02725119 0.26403013 -0.15536605 0.061282665 0.17268828
-0.06457712 0.121614255 0.3340653 0.40735856 0.2062573 0.008322051 -0.20872676 -0.19851054
-0.17378168 0.0734165 0.100706816 -0.18196902 0.0055330265 0.11324682 0.1498489 -0.0054914593
0.047207437 -0.43460053 -0.061260145 0.030756071 -0.6274641 -0.25805125 0.07849149 -0.13307
-0.13907929 0.048391327 0.06120086 0.18226357 0.11682588 0.109980874 0.0018462258 0.043798294
0.030437704 -0.35800743 -0.20622587 -0.1146234 0.008633716 0.31558466 0.31954867 -0.09247456
-0.12690982 -0.101990625 0.04163663 0.15273075 0.12452047 0.11026139 -0.0016377219 -0.06600359
0.085488945 -0.09566749 0.20371874 0.0127234 -0.015619441 0.17768933 0.21037689 0.040773854
0.086545 -0.13421196 0.21295078 0.15400457 0.16877006 -0.08371787 0.08354927 -0.020741718
0.005857039 -0.022427388 0.13034858 0.1849765 -0.097765274 -0.32285008 0.23522185 0.08750357
0.099906385 0.08301219 0.057027854 0.06581238 0.120496765 -0.041239977 -0.096907414 -0.25262114
0.11805793 -0.12955482 -0.06694365 -0.1796171 -0.11187626 -0.14343913 -0.091866955 0.34578598
0.18871094 0.029103188 -0.1371717 -0.024568284 0.03792059 -0.025026552 -0.19415633 0.037173588
0.18889883 0.004239094 0.12948875 -0.08163247 -0.20423792 0.08344203 0.41332296 -0.11759127
0.18947 0.0474959 0.12533657 0.17255747 0.287816 0.029769 -0.09045143 -0.17853458
0.15156241 0.17438239 -0.0436925 0.12009263 -0.35218865 0.092738695 0.021230998 -0.26350045
-0.12319475 -0.06106816 -0.14756025 -0.111720555 -0.12172181 -0.09661798 -0.09073556 -0.1830131
-0.09882629 0.07671355 0.14903821 -0.20340951 0.1623669 -0.12332727 -0.02441639 -0.30081615
-0.06908381 -0.109007135 -0.25652167 0.036557917 -0.2462377 -0.11262175 0.042637937 0.22316068
0.055730402 0.0359306 0.08209023 0.21182045 0.1779115 -0.010637778 -0.039190296 0.08007472
-0.0883871 -0.0708794 -0.05589225 0.018975262 -0.20596077 -0.09005867 -0.17170025 -0.18584046
-0.05611836 -0.008303083 -0.28313 -0.13489431 -0.060680885 -0.13833833 -0.09365089 -0.0039335866

linears.4.bias f4 [40]
00000000: 94a9 863c 7515 3b3d 5eb8 403d 7ff9 15bc
00000010: a331 ac3c f544 63bc fdfd d2bc 742e d0bd
00000020: 7c98 963c f4be 0e3d ce10 7e3d 51c8 c7bc
00000030: a410 55bc 4684 bdbc 5837 5b3d 02c8 c6bc
00000040: 45a9 9d3b 0901 183d d24c 20bc 9827 bc3a
00000050: d2b1 c8bc c7c4 a83c d370 693d 7f92 8fbc
00000060: aaa7 d6bd 9bbd 9bbc 7b21 debc 18b5 8bbc
00000070: e557 e3bc 26fb 2e3c 94db 2bbd dbb8 673c
00000080: 55f8 093c a201 d2bc 2948 31bd ba1c 4a3d
00000090: c354 ffbc fced cebc 57ff 993c 3da9 d93b
0.016438283 0.04567476 0.047050826 -0.009153723 0.021019762 -0.013871421 -0.025755877 -0.1016511
0.018383257 0.034850076 0.062027745 -0.02438751 -0.013004456 -0.023134362 0.053519577 -0.024265293
0.0048114383 0.037110362 -0.00978394 0.0014355062 -0.024498854 0.020601643 0.056992363 -0.01752591
-0.10481198 -0.01901131 -0.027115574 -0.017054126 -0.027751872 0.010679996 -0.041957453 0.014143194
0.008421023 -0.025635544 -0.043281708 0.049343802 -0.031168347 -0.025259964 0.018798513 0.006642489

linears.5.weight f4 [40, 40]
00000000: f4ed fc3c 21a2 c73d 8618 65bd 522a cd3d
00000010: 216a 703d 1699 05be ff10 993d 806c fe3c
00000020: e109 babc 8435 033e dda9 10be c7ce f93d
00000030: 4337 65bd e698 58bd 5a15 6e3e bd8d 773e
00000040: 16ca 12be be75 84bc 4ed5 fe3d 6972 6c3e
00000050: 39da 603e 3cea a3bb 0b8f 57bc abe1 3cbd
00000060: 66c4 933c 0d21 083e 3d89 6cbd 9c10 6d3d
00000070: a49b 41be e926 8fbe fdcb a53d 785b 38bc
00000080: 4ab9 acbd 1ca9 9a3d 557f 783b 507c f4bd
00000090: f893 28be d597 ff3c a88a 0d3e e9c9 4a3e
000000a0: 050b 24be 5290 243d c5ed 9abe 9f8d 1b3e
000000b0: 931e edbd 53b1 3bbe fad3 0bbe 47ff 423e
000000c0: 76a4 a2bc d5f2 cb3d e0e6 8abd b96d 60be
000000d0: 5426 9ebe aff4 ecbe 39ed f0bc 3728 b93e
000000e0: 4c8c 22be e1a4 17bc acf7 e93c 3672 efbd
000000f0: 828c 3ebe 92c3 23bd b542 923e 57ea d33e
00000100: 7f26 e03e c4e4 05bd 393d 66be c40f 9d3d
00000110: 0191 093e 59f7 4fbe f791 b0bd 2006 413d
00000120: b186 6abe 830f da3d 3755 ab3e 6f4e 38be
00000130: d373 ac3d 5856 933d c890 2cbe 58ea 71bd
00000140: 26bc 093e 260a fabb d969 063d 2d8c 8cbe
00000150: b419 5a3e f66c 7cbc 3cc7 373e f127 953d
00000160: 018b b5bd 5346 a43e 6b7a 2dbe a378 5a3e
00000170: c7bb 573d a947 dd3d b56e 22bd 10d4 6b3d
00000180: 872e 96be 59c3 723d 4f43 063e 6fb5 343e
00000190: 73e4 d03d 890d bfbd 5e9f 343e 1fd9 f9bd
000001a0: 4331 a13d 2b90 353d de17 32be 7196 0fbd
000001b0: 8fe0 3a3d fdc0 ecbd dd7e d93b 0240 753d
000001c0: b6bc c43e 7cea 08be f598 f3bd 082d 1dbe
000001d0: 1b74 25be 9e80 1abd e2aa 71bd 246e 5ebe
000001e0: a881 90bd 4d14 fabd 2a46 ac3e 5f6e 633d
000001f0: 647c 453b 064c 1c3d 1063 143b 4706 443e
00000200: cc5d 0fbe a9c4 1d3e a54a e23d 6264 913c
00000210: f36f 40bb c732 023d 35e2 a43e bbcc 5cbe
00000220: 80bf 8a3d 8e13 ce3d 4284 183d add8 3dbe
00000230: 95ae b9bd d230 3f3e 435e e73d 99c3 f0bd
00000240: 829f 99bd 0367 0f3b 52fc 6a3d 13cb 883e
00000250: 74c0 88bd 7b01 963e a0bb 9ebe ecc2 72be
00000260: 9b18 823e fb3d 973d 3ad7 483c 4668 133e
00000270: 3feb 9c3d 7d9d bc3d 685a 9cbd 946c 0b3d
00000280: eb88 65bd 9359 ffbd e86d 95bd 26e7 bbbb
00000290: 7585 9fbc e3ac f83c 6477 28bd 7323 96bd
000002a0: cacd 82bd 9bac 29be 81d5 0d3e 3c26 613e
000002b0: 96c4 eebd 0984 793e acb4 c03d e18c 943e
000002c0: 6ab6 b23d dee5 5f3d 3787 8abe b865 43bd
000002d0: 98bd 53be bcde 9bbd 1c29 0a3e c2b7 1d3e
000002e0: af9a 29bd 0885 7cbd 7316 e03e 6f4c a83c
000002f0: 22c8 373d 6b17 6fbd 7834 93bd 07d6 573c
00000300: ed0d be3e e20f 54be 447b e4bd 9df9 a6bd
00000310: 60ab 29bd 1f19 473e 4ef9 543d 4cdf 653e
00000320: ac80 91ba 7bb8 7e3e 6094 903e 18e1 873b
00000330: 0042 25be 6d62 c33d 1a66 f73d d9ae cb3d
00000340: fc19 773e 23fe f73d a5ab c93d fe74 f4bd
00000350: 6ee2 08be 0f2c 4c3e 9ec5 babd 80ff a3ba
00000360: ea01 73be 1fbc 123e cffa ad3d 9956 54be
00000370: 8e74 9a3d b5a8 a23c 6655 8f3d cf3c 11be
00000380: 05f1 9b3d 2980 cabc 8eea 1e3d 1f8b bdbc
00000390: 39f5 b7bd e067 8dbd 15c5 6e3d 45e1 893c
000003a0: 6a65 2b3e 98fd ce3d d9bf 24be f8c9 c23c
000003b0: 23d7 16be 1228 cabc 2eb9 91be 73ac c53c
000003c0: b663 d33e 4d55 edbd 75cf 2d3e 30b1 69be
000003d0: e500 f33d 1074 abbe 9c5c cb3d 1165 643e
000003e0: 4197 c53e d19c 643e 1390 c9bd d8e5 6bbc
000003f0: 4a2d 79be cb3d a4be 7fb7 6c3d ea5a 58be
0.030875184 0.097477205 -0.05593159 0.100178376 0.058694962 -0.13046679 0.07473945 0.031057596
-0.022709789 0.12813383 -0.14127298 0.12197643 -0.055960905 -0.05288019 0.23250332 0.24175163
-0.14334902 -0.016169425 0.124430284 0.23090519 0.21958245 -0.005002288 -0.013156663 -0.04611365
0.018037986 0.13293858 -0.057748068 0.057877168 -0.18907028 -0.27959374 0.08095548 -0.011252277
-0.084337786 0.07551786 0.0037917693 -0.11937773 -0.16462696 0.031200329 0.13822424 0.19803585
-0.16019829 0.040176697 -0.3025953 0.15190743 -0.11578097 -0.18329363 -0.13655081 0.19042693
-0.019853812 0.09958426 -0.06782317 -0.21916856 -0.30888617 -0.4628043 -0.029409992 0.36163494
-0.15873832 -0.009255619 0.028560482 -0.11691706 -0.18608287 -0.039981432 0.28566518 0.41389725
0.4377937 -0.03268887 -0.22484292 0.07669023 0.13434221 -0.203092 -0.086215906 0.047124982
-0.22902943 0.1064749 0.3346345 -0.1799867 0.08420529 0.07194203 -0.16852105 -0.05906138
0.13450679 -0.0076306043 0.032815788 -0.27450696 0.21298867 -0.015406838 0.17947096 0.07283009
-0.088644035 0.32084903 -0.1694123 0.21335082 0.052669313 0.10804684 -0.03965636 0.057575285
-0.29332373 0.05926833 0.13111614 0.17647336 0.10199823 -0.093287535 0.17638919 -0.12199616
0.07870724 0.044326942 -0.17391917 -0.03505558 0.045624312 -0.11560247 0.0066374377 0.059875496
0.38425225 -0.13370699 -0.118944086 -0.1534921 -0.16157572 -0.037720315 -0.059000857 -0.21721703
-0.0705598 -0.12210903 0.3364728 0.05552518 0.0030133957 0.03815844 0.0022642054 0.1914302
-0.14000624 0.15407051 0.110493936 0.017748062 -0.0029363602 0.031786706 0.32203832 -0.21562473
0.06774807 0.100623235 0.037235506 -0.18539687 -0.09066502 0.18670967 0.11297276 -0.11756057
-0.07501127 0.0021881468 0.057369538 0.26717433 -0.066773325 0.29298005 -0.31002522 -0.2370717
0.25409397 0.07384869 0.012258345 0.14395246 0.07662057 0.09209726 -0.07634431 0.034039095
-0.05603878 -0.12468257 -0.072963536 -0.005734342 -0.019472817 0.030355876 -0.041129485 -0.0733098
-0.063869074 -0.1656975 0.13850977 0.21987242 -0.116585895 0.24366774 0.094094604 0.29013732
0.08726199 0.054662578 -0.27056286 -0.04770443 -0.20677793 -0.076108426 0.13492244 0.1540213
-0.041407283 -0.061650306 0.43767127 0.020544259 0.044868596 -0.058371942 -0.07187742 0.013173587
0.3712 -0.20709184 -0.111563236 -0.08153079 -0.0414232 0.19443177 0.051995568 0.22448462
-0.0011100969 0.24875061 0.282382 0.0041467063 -0.16138458 0.095402576 0.12080021 0.09945459
0.24131006 0.121090196 0.09847192 -0.11936377 -0.13367626 0.19938682 -0.09119724 -0.0012512058
-0.23731199 0.14329575 0.084951036 -0.2073616 0.07541762 0.019855836 0.0699871 -0.14183353
0.0761433 -0.024719315 0.038797908 -0.023137627 -0.089823194 -0.06904578 0.05829342 0.01683105
0.16737905 0.10106963 -0.16088809 0.023777947 -0.14730506 -0.02467731 -0.28461593 0.024130082
0.4128701 -0.115885355 0.1697367 -0.22821498 0.11865405 -0.33486986 0.09929773 0.22304179
0.3859196 0.22325446 -0.09841933 -0.014398061 -0.24333683 -0.32078394 0.057792183 -0.21128431

linears.5.bias f4 [40]
00000000: 1632 1a3d b474 67bd b34b 043d 051a c5bb
00000010: d120 863b f724 bc3c 690b b53c 1016 ffbc
00000020: 9e8e e8bc d55a fa3c 20e1 123c 6cbf d0bc
00000030: c56e a03c ecdf 683c f853 ab3c b163 22bd
00000040: bf7d 2bbd 5918 9bbd 61d1 0dbe 10d6 b7bd
00000050: b098 bb3c 752a 943d 5f4e 7f3c c412 ed3d
00000060: 554f 4cbc 75c5 103d f413 c1bc 6392 a63c
00000070: b4d1 92ba 96ba a0bc ba7c 0c3c a3d4 c2bc
00000080: 7bd3 2abd 2370 15bd a2e4 85bc 7b7b d33c
00000090: 696e 3bbd 2a06 aebc 4c36 993c b7db 4ebc
0.037645422 -0.05650778 0.032298755 -0.0060150647 0.0040932675 0.022966845 0.022100167 -0.03113845
-0.028388318 0.03056089 0.008964807 -0.025481902 0.019584069 0.014213543 0.020914063 -0.039645854
-0.041867968 -0.07573003 -0.13849403 -0.08976376 0.022899956 0.072346605 0.01558265 0.11575845
-0.012470086 0.03534456 -0.023569085 0.020333475 -0.0011201412 -0.019620221 0.008574659 -0.023783034
-0.04170559 -0.036483895 -0.016344372 0.025815716 -0.045759592 -0.021243174 0.018702649 -0.012625626

linears.6.weight f4 [1, 40]
00000000: fca1 b0be fa05 4b3e ecb6 96bd 47d0 8c3e
00000010: 3853 073a 316d bdbe a819 16be 39b8 bb3e
00000020: 3e02 303e 9d70 99bd 7fe1 64be cb55 153d
00000030: 6d9b 32be ab70 cdbd 7e25 eabd a364 2b3e
00000040: f344 293f e395 463e 0ed6 4c3c 7625 683e
00000050: cfff 06be 715f a4ba b58d 6ebe 36e2 71bb
00000060: 2cb6 483e f08f 73be 875a 313e 5dcc bebe
00000070: 90a3 50bd 09b5 123d 15ef cb3c e406 a03e
00000080: 4a32 7c3e 4aeb 163e 8ad3 0cbc 36cb b5be
00000090: d7be 433d 903b 253f edb5 a7be 9c20 143f
-0.34498584 0.19826499 -0.07359108 0.27502653 0.0005162242 -0.3699737 -0.14658225 0.36663988
0.17188355 -0.074921824 -0.22351645 0.03645877 -0.17442103 -0.10031255 -0.11432932 0.16737609
0.66120833 0.19393115 0.0125022065 0.2267054 -0.1318352 -0.0012540651 -0.23296244 -0.0036908514
0.19600743 -0.23785377 0.1731969 -0.37265292 -0.050937235 0.03581718 0.024894277 0.31255257
0.24628559 0.14738193 -0.008595357 -0.355066 0.04778942 0.6454401 -0.32755986 0.5786226

exp_avg f4 [40, 2]
00000000: c5d4 e1ba 4510 b3ba 398f 9c3a 9718 1fb9
00000010: f680 74bb 7c58 96ba 0796 af36 5413 5d38
00000020: 44e4 a3ba 768c 65ba 2a8e 39ba 75fa 0a39
00000030: c319 873a 21b6 393a 21dc ab3a 17b9 f6b8
00000040: ae71 deba 0e8e 26b9 df56 803b c72b 773a
00000050: fe7c 733a 1bec 143a e524 393b 3f60 7f3a
00000060: fd45 38bb 3ae1 48ba 04e5 a7ba eee8 20ba
00000070: 3ed6 3039 94bb a5b9 83f5 d43a 9ff2 ad39
00000080: 9df5 183b d83f 5a38 7c5e 4fbb c0f7 1fba
00000090: 1e57 d3ba 8254 03ba 02e7 0e3b 137b 203a
000000a0: 0ecb cdba 2404 3eb8 2260 8e3a bcf1 db39
000000b0: f1ad dfb9 db5d 4aba 2596 81ba 15e1 c1b9
000000c0: 606e 2b3a 0766 30ba cef3 fa3a e820 5a39
000000d0: 13da 693b b819 8c3a 3cf8 3fbb ef89 66ba
000000e0: 3d3b 3539 0e19 afb9 b194 91b8 152b 0fba
000000f0: 9bcd 183b 2980 8f3a e4e7 1ebb 0430 89ba
00000100: 5ee2 b33a 9b73 4d3a 8389 0f39 8335 06ba
00000110: f26f ddba 5352 26ba a5fb 7fba beef 4338
00000120: 1088 2638 ad76 7dba 5b92 9db9 4d8b ac39
00000130: b2ce 653a 81ef 1e39 b06c 4bba 0ce0 0bb9
-0.0017229548 -0.0013661465 0.0011944539 -0.00015172582 -0.0037308312 -0.0011470462 5.232872e-06 5.2708507e-05
-0.0012503942 -0.0008756587 -0.0007078374 0.00013254008 0.001030736 0.0007084329 0.0013111868 -0.0001176467
-0.0016971135 -0.00015883913 0.003916606 0.00094288256 0.00092883396 0.00056809344 0.002825075 0.000974182
-0.0028117888 -0.0007662956 -0.0012809341 -0.0006138225 0.0001686448 -0.0003161101 0.0016247485 0.00033177898
0.0023339756 5.203471e-05 -0.003164201 -0.0006102286 -0.0016123985 -0.0005009846 0.0021805172 0.0006121855
-0.0015700774 -4.5303386e-05 0.001086239 0.0004195104 -0.0004266347 -0.0007719674 -0.0009886666 -0.00036979528
0.00065395795 -0.00067290704 0.0019146146 0.00020802359 0.003568296 0.0010688817 -0.0029292246 -0.00087943574
0.00017283573 -0.00033397268 -6.941835e-05 -0.0005461437 0.002331591 0.0010948229 -0.0024247104 -0.001046658
0.0013724079 0.0007837356 0.0001368877 -0.0005119668 -0.0016894324 -0.0006344665 -0.0009764976 4.67149e-05
3.9704202e-05 -0.0009668868 -0.00030054417 0.00032910184 0.0008766457 0.00015157276 -0.0007760031 -0.00013339537

exp_avg_sq f4 [40, 2]
00000000: b339 4e3a a4d1 f439 11ee bb39 d7aa b536
00000010: dc8d 6c3b 56a6 ae39 88b8 1934 f989 9135
00000020: 6f18 df39 3810 5139 9c0f 0639 9f97 8336
00000030: 6045 8e39 7de9 f538 0253 e839 bec6 5936
00000040: 7720 3f3a da1a a536 6c82 803b 42b4 6439
00000050: dd83 6539 d4c3 a338 14aa 063b 8098 7839
00000060: 3d58 043b 8cc2 1639 3527 de39 370e b838
00000070: 578d ea36 4d48 dd37 72c3 303a 3571 c737
00000080: da09 b83a 5a0c 2635 b86f 2d3b 2783 cb38
00000090: 2142 313a 3519 7838 fa0c a13a aa47 c738
000000a0: 0eb8 233a 93ee fa34 c52c 9939 af43 2e38
000000b0: 03fa 5c38 0309 1b39 329d 8139 5c5e 0a38
000000c0: 9fab d738 a37a f038 5b96 7b3a 1c9e 2a37
000000d0: 0855 5c3b 9f62 9b39 7c05 0f3b 6696 4339
000000e0: b4cf f536 0752 e937 213a fd35 154e 9a38
000000f0: 7a7c b53a 3261 9439 ef55 d13a a43d 9b39
00000100: ff7c 053a 793c 2539 75b6 9d36 a123 8838
00000110: 70ab 373a 2fa9 c038 503d 7a39 2449 4235
00000120: e4d3 9d34 c84a 8139 5a5c bf37 d9c4 fa37
00000130: a8b0 5b39 0e27 cf36 ec7e 2b39 06d7 b536
0.0007866874 0.000466955 0.00035844793 5.4141087e-06 0.0036095297 0.00033311796 1.4316367e-07 1.0843497e-06
0.0004255208 0.00019937835 0.00012785051 3.9217553e-06 0.0002713604 0.00011726001 0.00044312334 3.2451203e-06
0.00072909094 4.920509e-06 0.0039217975 0.00021810926 0.00021888265 7.8089215e-05 0.0020548152 0.00023707934
0.0020194196 0.00014377589 0.0004237235 8.7764514e-05 6.9901976e-06 2.637892e-05 0.0006742991 2.3775365e-05
0.0014041022 6.1857793e-07 0.0026464295 9.704223e-05 0.0006761868 5.9151283e-05 0.0012287193 9.502408e-05
0.0006245383 4.6739714e-07 0.0002921579 4.1547868e-05 5.268493e-05 0.00014785309 0.00024721917 3.2989643e-05
0.00010283966 0.00011466935 0.0009597295 1.0169602e-05 0.0033620019 0.00029637382 0.0021823337 0.00018652677
7.325749e-06 2.7813961e-05 1.8866887e-06 7.357836e-05 0.0013846301 0.00028301176 0.0015971045 0.0002960983
0.0005092173 0.00015758154 4.7002054e-06 6.491622e-05 0.0007006442 9.186786e-05 0.00023864699 7.2377065e-07
2.93977e-07 0.00024660514 2.2811979e-05 2.9893987e-05 0.00020951277 6.1736273e-06 0.00016355113 5.4192524e-06

exp_avg f4 [40]
00000000: d355 5ebb 47d9 0cba 7dac 2dbb 0157 b938
00000010: c4d2 10bb 3058 c939 5b8f e53a 0a08 f8b9
00000020: a9be 53b9 d2f3 0b3b d68c c03a 2af6 133b
00000030: 0e7b e5ba 72db b6ba 9fba 5cba 07d9 2a3a
00000040: f3aa 90b8 48e9 adba fc29 9bba cca4 b93a
00000050: 431e 2138 d3f6 863a f66c ffba 901a 5dba
00000060: 99f3 f6ba ea75 b339 39f5 223b df77 07bb
00000070: a6a6 6dba cd5d bcba 5ff6 2d3b 8ae0 25bb
00000080: 2c25 f73a 75a3 b0ba 434a c5ba 2dc8 8239
00000090: 5c8e 22bb a063 693a ec24 a439 220c a6b9
-0.0033925667 -0.0005372953 -0.0026500516 8.837693e-05 -0.0022098282 0.00038403412 0.0017514037 -0.00047308236
-0.00020193555 0.0021355045 0.001469041 0.0022577145 -0.0017507987 -0.0013950898 -0.00084201427 0.0006517325
-6.898297e-05 -0.0013268376 -0.0011838074 0.0014163493 3.8413575e-05 0.0010296948 -0.0019487429 -0.0008434439
-0.0018840908 0.00034229393 0.0024865402 -0.0020670814 -0.0009065665 -0.0014371217 0.0026544554 -0.0025310838
0.0018855683 -0.0013476448 -0.0015052039 0.00024944675 -0.002480409 0.000890309 0.00031308027 -0.00031671027

exp_avg_sq f4 [40]
00000000: 30e8 463b ee8e 5138 4806 043b 226a 1436
00000010: f80c aa3a 3b85 0338 5033 4d3a eee4 3a38
00000020: 535f 9137 7eee ac3a daaf 143a 191f b73a
00000030: 74e0 643a 6624 0a3a 8dd8 3639 6e24 0639
00000040: 4f76 b135 5416 1b3a 5776 ca39 f653 163a
00000050: a564 2035 7fa3 9139 ba70 7b3a c3e3 4639
00000060: 473f 673a 8298 4038 6347 eb3a eead 9c3a
00000070: bc1a 5639 766e 093a f989 f33a 5ced ea3a
00000080: c988 803a f7a7 ec39 1652 1b3a 5202 5f37
00000090: c5c1 cc3a bc3f 5f39 92de 1f38 88df 0d38
0.0030350797 4.9962597e-05 0.0020145345 2.2115496e-06 0.0012973836 3.1356914e-05 0.00078277756 4.4559063e-05
1.7329736e-05 0.0013193635 0.0005671956 0.001397106 0.0008730956 0.0005269706 0.00017437544 0.00012792807
1.322196e-06 0.0005916108 0.00038616612 0.0005734557 5.97511e-07 0.0002777837 0.00095916877 0.000189676
0.000882138 4.59184e-05 0.0017950352 0.001195369 0.0002041859 0.0005242595 0.0018580548 0.0017923522
0.000980639 0.0004513857 0.00059250125 1.3292376e-05 0.0015621713 0.0002129068 3.811584e-05 3.38252e-05
