pdebench/models/newly_trained_models/Advection/PINN/1D_Advection_Sols_beta4.0_PINN.pt-5000.pt (torch, 117827 bytes, 39 tensors)

linears.0.weight f4 [40, 2]
000000 b1 ed de 3e 1a 5b 36 bd c9 ca 5f 3d a2 b3 16 3f
       0.4354072 -0.044520475 0.05463675 0.5886785
000010 51 36 8f bd 8f de 84 3e 8d 82 ee bc d4 9d b8 3e
       -0.06992782 0.2595105 -0.029114986 0.36057913
000020 0e 01 32 3c 9b 9f e1 bd 3a ad d2 be 88 91 42 3c
       0.010864509 -0.110167705 -0.41147786 0.011875518
000030 ac 21 d8 3b 88 90 da bd 72 42 3d be c5 c2 28 be
       0.006595811 -0.106720984 -0.18482378 -0.16480549
000040 98 ef 14 3e 6d 61 27 3e f2 f2 9e be 5a 1e 6b be
       0.14544523 0.16345759 -0.31044728 -0.22960797
000050 62 14 31 be c0 3b 38 3e 18 41 3f be 26 d6 07 3d
       -0.17292932 0.17991543 -0.18677175 0.033163212
000060 47 a8 b4 3e f4 84 0d bd 15 d7 90 3d c9 58 01 3d
       0.35284635 -0.034550622 0.07072274 0.031578813
000070 d5 dd 83 3e 3f be 13 be 43 13 9d be 94 b6 9d 3d
       0.25755182 -0.14428042 -0.30678758 0.0770084
000080 31 dd ce be e6 b9 3a 3d 50 54 aa 3d 5d b9 f8 3e
       -0.4040313 0.045587443 0.083168626 0.4857892
000090 a7 07 05 3e 26 3b b9 3e 32 bc 2d be 07 cd 09 be
       0.129912 0.3617794 -0.16966322 -0.13457118
0000a0 dd d6 0c 3d 4c 0d 0c be dd df 1a 3e e3 19 6f 3e
       0.034384597 -0.13676947 0.1512446 0.23349719
0000b0 65 b9 54 3e db e3 bb be 57 47 53 be 50 0d 98 3e
       0.20773847 -0.36697277 -0.20632683 0.29697657
0000c0 f2 78 29 be ba f1 d5 3c bb 4c d7 3d 19 09 b8 be
       -0.16550043 0.02611624 0.10512682 -0.3594444
0000d0 bd c8 50 be 7a 69 d8 bd d7 68 8b 3e 13 28 0a be
       -0.20389076 -0.10566993 0.27228424 -0.1349185
0000e0 32 b0 6e be 9a cb 47 bd 44 b5 eb bc 1c b9 98 3e
       -0.233094 -0.048778154 -0.028772958 0.29828727
0000f0 44 67 a8 3d 88 bb 01 3d 9c 55 88 be b9 b8 8e 3e
       0.08222821 0.031672984 -0.26627815 0.27875307
000100 6a 96 19 3e 8a ac 94 be d8 b1 ec 3e 59 c0 2c bd
       0.14998785 -0.29037887 0.46229434 -0.042175625
000110 fd e2 37 3e c1 0b 88 3e dd 00 23 3e 9c 15 59 3e
       0.17957683 0.26571468 0.15918298 0.2119965
000120 41 a2 85 3d e4 fc 40 3e 2f 30 3b be 8b b2 b7 bd
       0.06525088 0.1884647 -0.182801 -0.08969601
000130 59 c6 98 3c 48 0f 24 3e 5d 9c dc 3e 2b 8d 81 3e
       0.018649267 0.16021454 0.43088046 0.25303015

linears.0.bias f4 [40]
000000 ed 65 be 3c b7 a6 07 bd 16 d1 7a 3d ba e8 34 3d
       0.023241961 -0.033117976 0.061234556 0.044167258
000010 d6 e2 db 3c c8 b5 83 3d 7f 31 7e 3d 29 c3 ca 3c
       0.026841562 0.064311564 0.062058922 0.024751263
000020 d9 a1 56 3d dd 1f e2 bc 5b 82 de 3b a1 75 53 bd
       0.052400444 -0.027603084 0.006790442 -0.05162585
000030 26 dd de bd 9a 5f ac 3d 32 c0 52 bd e4 1e 6b bd
       -0.108820245 0.08416672 -0.051452823 -0.057402506
000040 d4 04 e4 bc 76 18 35 3d 41 06 84 bb 5d 98 83 3b
       -0.027834333 0.04421278 -0.004029066 0.004015966
000050 8b 5e 19 bd f9 7e a1 bc 45 3c 9e 3d 8e 6c 46 bd
       -0.03744368 -0.019713866 0.07726339 -0.04844337
000060 ea c8 1e 3c fa 01 75 3d d0 97 78 3c f3 c1 7b bd
       0.009691456 0.059816338 0.015172914 -0.06146426
000070 5f 6f 91 3d a5 7a 58 3d f7 d2 68 bd b1 10 6e bc
       0.071013205 0.052851338 -0.056841817 -0.014530347
000080 bc 91 7a 3d 63 d2 1b bd 90 aa c2 bd ca a6 b5 3d
       0.06117414 -0.038042437 -0.095051885 0.08869703
000090 db 40 77 bd b6 29 7c bd 42 a0 b1 3d e3 e0 9c bd
       -0.060364585 -0.061563216 0.08673145 -0.07660081

linears.1.weight f4 [40, 40]
000000 ab 0f bd bd bd 17 a2 3d 76 73 91 bd 35 f1 51 bd
       -0.09231504 0.07914684 -0.071021006 -0.051255424
000010 b8 ba 71 bc e4 6f 0b be cc 0c 59 3d 30 4d 2d 3e
       -0.01475399 -0.13616902 0.05299072 0.16923976
000020 bb db 6a bc 0e 9e aa bd 10 d2 1f 3e 46 25 18 be
       -0.014334614 -0.08330928 0.15607476 -0.14857969
000030 6b 9b d2 3c 59 aa 88 be b6 ee dc 3e 4e 89 4d be
       0.025708875 -0.26692465 0.43150872 -0.20071909
000040 6d f8 67 be 56 65 a0 3d 69 ed 96 3d 59 04 22 be
       -0.2265336 0.07831828 0.07369501 -0.15821971
000050 98 8a 00 be 49 01 dc bd 64 08 45 be 59 e2 4e be
       -0.1255287 -0.107424326 -0.19241482 -0.20203532
000060 bd 5d 23 be ee 21 1b be 6f 67 24 be c8 73 fa 3d
       -0.15953727 -0.15149662 -0.16055082 0.12229115
000070 34 4c f6 bc 34 49 23 3e 54 b8 ce 3d 71 e5 df 3d
       -0.030065633 0.15945894 0.100937515 0.10932434
000080 e6 a0 59 3e e1 38 2c 3e 0f 35 2d 3e 6d 59 00 be
       0.21252784 0.16818573 0.16914771 -0.12534113
000090 6b c6 52 be b1 4c 92 3e 4c 3a f5 be 7c db ab 3e
       -0.20583503 0.28574136 -0.4789604 0.3356589
0000a0 a2 ce be be b1 48 79 bd 72 3a 7d 3d 3b 52 cb 3c
       -0.37267023 -0.06086034 0.061823316 0.024819484
0000b0 e0 34 36 bd e5 4c 80 3e 41 97 3e be 7a 2e 69 3e
       -0.04448402 0.25058666 -0.18612386 0.22771636
0000c0 74 9e 1a bd ff 64 08 be b1 f0 14 3e 58 d6 c8 3d
       -0.03774877 -0.13319777 0.14544941 0.09806508
0000d0 30 a4 0f be 51 30 39 be 37 27 81 be 11 d4 0d 3f
       -0.14027476 -0.18084837 -0.2522523 0.5540171
0000e0 63 ab 78 3e dd 4a 94 be 67 1a 6f be 39 d3 dc 3e
       0.24284129 -0.28963366 -0.23349915 0.431299
0000f0 a4 f2 56 3d 8e e3 ff 3d c1 0c 29 be 87 7e d9 3d
       0.052477494 0.124945745 -0.16508771 0.10619836
000100 af 0a c5 3e 8b e3 41 be 01 50 1f 3d e8 28 bd be
       0.38484713 -0.18934457 0.038894657 -0.36945271
000110 37 ca 38 be 65 36 d4 3d 2f af 81 3d ce 60 30 3e
       -0.18045889 0.103619374 0.06332242 0.17224428
000120 35 39 d6 be cb 58 ca bd f1 40 11 3b 92 e7 1b be
       -0.4184052 -0.09880217 0.0022163952 -0.15225056
000130 02 0b 2a bd 24 d8 80 3e 97 4d be be 77 aa 18 bd
       -0.041514404 0.25164902 -0.3716857 -0.037271943
000140 ca a3 2b be fa b5 f3 3d 0e 40 a5 3d e2 98 40 3e
       -0.167617 0.11899944 0.08068858 0.1880832
000150 81 2b 11 3e c4 fd a5 3d 33 3a 5d 3d a1 ae 54 be
       0.14176752 0.081050426 0.05401058 -0.2076974
000160 2c ec da bc 59 7e 82 3e 54 47 30 3e 52 0c c8 bd
       -0.026723944 0.2548702 0.1721471 -0.09767975
000170 44 0e cc be e2 a5 d7 3c ce 28 14 be a8 5f 46 bd
       -0.39854634 0.026324216 -0.14468691 -0.04843107
000180 3c 93 7d bd ab 9f 74 be 1f 33 af be f0 6e 86 bd
       -0.06190799 -0.23889033 -0.3421869 -0.065641284
000190 07 5b 77 3d ff 49 04 3e e3 35 2a 3d a8 ea 06 bd
       0.060389545 0.12918852 0.041555297 -0.03293863
0001a0 71 29 83 3e 8b 4c e5 3b aa a8 47 be af 01 f0 3d
       0.25617555 0.00699765 -0.19497934 0.11719071
0001b0 d0 25 9a bc dd 97 42 3e f3 27 c7 3e c8 37 2d 3e
       -0.018816859 0.19003244 0.38897666 0.1691581
0001c0 5d d3 02 be 8f cb f0 3e bd e3 79 be 03 2d 45 be
       -0.12775941 0.47030303 -0.24403282 -0.19255452
0001d0 67 a6 e0 bd dd f6 b8 3d a4 52 5f 3d ad ff 99 bd
       -0.10969239 0.090314604 0.05452217 -0.075194694
0001e0 25 0e f2 bd 39 dc 06 be 55 86 d3 3d 43 1e 73 3e
       -0.11819104 -0.13169946 0.10328356 0.23742013
0001f0 b3 58 04 3e 2b 1e fa 3d 4c 61 02 3e 1f 3a 75 be
       0.12924461 0.12212785 0.12732428 -0.23947953
000200 5d 3b 1c 3e 87 86 e5 bd a0 27 5d be af 18 d6 3c
       0.1525702 -0.112073 -0.21597147 0.026134817
000210 10 07 41 bd 56 08 0c be 36 2d e8 3d 94 ba 27 be
       -0.047125876 -0.13675055 0.11336748 -0.16379768
000220 1c c4 86 be ce ab 76 3e a9 10 0c 3e 20 78 a8 3d
       -0.26321495 0.24088976 0.1367823 0.08226037
000230 36 82 64 3e 81 bb 5a bc c6 53 86 bd f3 39 a1 bd
       0.22315297 -0.0133503685 -0.06558947 -0.07872381
000240 67 f1 0d be fd fd a7 3c 97 cc 71 be 2e ee fd 3e
       -0.13861619 0.020506853 -0.23613201 0.4959578
000250 1f b7 fd bd 09 2a 83 3d 44 ba f9 bd 08 89 be 3e
       -0.12388443 0.06404502 -0.121937305 0.37213922
000260 8f ca d5 bd 31 a7 36 3e ed e0 49 3d cc 07 75 be
       -0.104390256 0.17837216 0.04928677 -0.23928756
000270 1b 81 4d be 28 6d 14 3e f3 f1 2c be 7b e3 22 3d
       -0.20068781 0.14494765 -0.16889171 0.039767724
000280 d2 b6 67 3e 7a 45 ed bd 1a 54 4b bb 08 2b 89 be
       0.22628334 -0.11585517 -0.003102547 -0.26790643
000290 e7 ee fd bc 1d c2 0b be f8 88 82 3d 3a 53 85 3e
       -0.030997707 -0.13648267 0.06373781 0.2604006
0002a0 6d 60 44 bc 29 af 3e 3e a7 1e 6f be 13 40 ff bc
       -0.01198588 0.18621506 -0.23351537 -0.031158483
0002b0 aa 70 5f 3e fc b1 d5 bc 52 98 72 be 01 7c 9b 3e
       0.21820322 -0.026085846 -0.23690918 0.30368045
0002c0 e7 2c a7 bd e2 6d 83 be 55 c5 9d bd 30 3b 81 3d
       -0.08162861 -0.2566977 -0.07703654 0.06310117
0002d0 4e 57 87 3e 46 71 14 be 74 9b f6 3c 7a e9 ce 3d
       0.26433796 -0.14496335 0.030103423 0.10103126
0002e0 41 1e 22 3e 68 55 96 3e 11 26 1f be a0 6c cb bb
       0.15831853 0.29362035 -0.15541865 -0.0062080175
0002f0 eb 7a 84 3b a8 fb 22 3c 89 ef 18 be da a4 f2 be
       0.0040429733 0.009947695 -0.14935125 -0.47391397
000300 39 ce 59 be 4b da 6b 3e a2 08 46 be 50 f8 a0 3d
       -0.21270074 0.23032491 -0.1933923 0.07859862
000310 f9 57 66 be 3d 4e 9a 3e ef 43 95 bc 82 fc 60 3d
       -0.22494496 0.30137816 -0.01822087 0.05492831
000320 ba f4 44 3d 7a 3b 0d 3d d6 33 ce 3d 4f fe c8 bd
       0.048084952 0.03448055 0.10068481 -0.098141305
000330 b8 ac 1b 3c 3d bb be 3b 0c 59 0d 3e 1a 20 90 be
       0.009501629 0.0058206604 0.138035 -0.28149492
000340 9b 38 1d bd 84 d6 f7 3d 2f 51 5b 3d 27 bc bf bd
       -0.03838406 0.121014625 0.05354422 -0.09362059
000350 20 44 0b be 54 28 3c be 6b 8d a8 3e 07 e6 4e be
       -0.13600206 -0.18374759 0.32920393 -0.20204936
000360 29 1c 76 be de f3 fe bd 07 c1 ba 3d 7d 1a 72 be
       -0.2403418 -0.12448858 0.09118848 -0.23642917
000370 66 34 d1 bd f1 8a 3f be 66 ca 27 3e 5b 59 e6 3d
       -0.10215072 -0.18705346 0.16385803 0.11247512
000380 e0 0c f6 bd 5a a5 53 bd 75 2c 11 3e 1f b5 68 3e
       -0.120141745 -0.051671363 0.14177115 0.22725342
000390 2b 6a 55 be 86 d4 77 be b8 91 50 3d 32 9c 0e be
       -0.20841281 -0.24202165 0.05092022 -0.13926771
0003a0 5c e6 1e be 97 ab 27 3e 69 ac 83 bd d3 81 49 3e
       -0.15517563 0.1637405 -0.06429369 0.1967843
0003b0 d3 d1 b8 3d ca ef 43 3c ff f6 a2 3e fa d9 c3 bd
       0.09024396 0.011959026 0.31829068 -0.0956306
0003c0 6f 32 a1 3d 85 5b b3 be e1 f2 1f bc 53 53 b7 bd
       0.078709476 -0.3503076 -0.009762497 -0.0895144
0003d0 f0 8e 49 3e 4d 73 10 be 9a 07 61 3e a6 a1 7e 3d
       0.19683433 -0.14106484 0.21975556 0.06216588
0003e0 da 0e d9 bd 22 6b 2a 3e 0e cb 35 be 3a f1 ff bd
       -0.10598536 0.1664243 -0.1775324 -0.12497182
0003f0 f7 7a a8 3d bc d5 3c be de 81 02 bd ec 1b ab 3d
       0.08226579 -0.18440908 -0.031862132 0.08354935

linears.1.bias f4 [40]
000000 89 ee c2 bd 63 79 90 bd 22 eb 5f 3d 57 b8 bc 3c
       -0.09518153 -0.07054403 0.0546676 0.023037119
000010 b7 3c dd bc b8 55 fc 3b 77 83 1c 3d b7 71 2e bd
       -0.02700649 0.007700648 0.038211312 -0.042588916
000020 b3 c1 27 bd 39 e1 1e 3d 3a 63 e5 bc 44 45 d8 3c
       -0.04095621 0.038789008 -0.028001416 0.026400216
000030 07 27 76 bc bb 1e f2 3d 49 6f 95 3d 38 79 8f 3d
       -0.015023953 0.118222676 0.072966166 0.070055425
000040 65 ec 49 bd a5 d9 38 3d 77 51 84 3c 2b 97 ab bc
       -0.04929771 0.045129437 0.016152127 -0.020946106
000050 98 4e 31 bd 2d ab e1 bc 4c 3d b4 3c 35 4c 12 3d
       -0.043287843 -0.027547443 0.022001885 0.035717208
000060 08 2f 87 bb d4 2d 84 3d af 66 2a 3d b8 ef ee bd
       -0.0041254796 0.064540535 0.041601833 -0.116668165
000070 2a 57 dc 3c 62 a4 32 3d ff 62 c7 3c 8e 1d 90 3d
       0.026897032 0.0436138 0.024339197 0.07036887
000080 ea a6 4e 3d 15 c6 af 3c 61 48 30 bd db 96 bc bd
       0.05045215 0.021456758 -0.043037776 -0.09208461
000090 83 1b 4c bb 57 b3 28 3d e9 f2 d1 bc 30 8a 96 3c
       -0.0031144328 0.041186657 -0.025628524 0.01837644

linears.2.weight f4 [40, 40]
000000 0a 71 cb 3b 8e 29 91 3e 8a 5c 90 3d b1 75 2d 3e
       0.0062085437 0.28352016 0.070489004 0.16939427
000010 29 0e 0d be 0f 30 92 bd ce 37 37 be ab 46 bf 3e
       -0.13774933 -0.07138073 -0.17892382 0.37358603
000020 09 69 c1 3e 2f f3 ba 3b 50 cd a3 3e 23 5e 69 3e
       0.37775448 0.0057052593 0.31992579 0.22789817
000030 e3 d6 6d 3e 08 1f af bd 4c 9e 05 bd 99 75 27 3b
       0.23226504 -0.085508406 -0.032621667 0.0025552271
000040 6c 1c 3d be 03 d8 c8 3d 2b 48 22 be b1 0c 34 bc
       -0.18467873 0.09806826 -0.15847842 -0.010989354
000050 47 ac 4e 3d fb 86 3f 3d 35 ca a0 3e 75 82 cd 3e
       0.050457265 0.046759587 0.31404272 0.40138593
000060 e8 57 2f bd 6c 07 5f be f3 f9 e1 3d be 3e 62 3e
       -0.042808443 -0.21780175 0.11034002 0.22094247
000070 29 44 86 3d 28 12 54 be ea d3 15 3e 4c 63 a6 3d
       0.06555969 -0.20710051 0.1463162 0.08124408
000080 83 35 ab 38 e2 74 80 bd f3 1d 4e 3e b4 a2 46 be
       8.163883e-05 -0.062722936 0.20128612 -0.19398004
000090 e5 ef bc 3d ee fd 47 be d8 d2 64 be 2f 9f 20 3c
       0.09225444 -0.1953046 -0.22346056 0.009803577
0000a0 5d f7 c5 bd cf cd e7 3d ba 80 c3 be 5e be b6 3c
       -0.096663214 0.11318552 -0.38184148 0.022307571
0000b0 d7 eb c0 be ee f4 10 be 73 99 e3 be ed f7 e8 3d
       -0.37679932 -0.14155933 -0.4445301 0.11375413
0000c0 c9 23 27 be 05 bc 0c be 7f 40 e5 3d 6c 21 9b be
       -0.16322245 -0.13743599 0.11193942 -0.30298936
0000d0 88 48 23 bd 74 9e 78 3d 0a d3 a3 3e 7a 20 61 be
       -0.039864093 0.060697988 0.31996948 -0.21985045
0000e0 64 13 cd bd aa fd d1 be c9 95 76 3e d8 fe c6 3d
       -0.10013464 -0.41013843 0.24080576 0.09716576
0000f0 10 f1 48 be a5 fc bf be 78 b4 63 3e b7 b7 7d bb
       -0.19623208 -0.3749744 0.22236812 -0.003871424
000100 d0 d2 10 bd 18 2a 93 be b3 33 98 be 60 29 5a bd
       -0.035357296 -0.28743052 -0.29726943 -0.053262115
000110 40 d7 c6 bd b6 da af bd 11 d7 1e be 54 16 72 be
       -0.097090244 -0.08586638 -0.15511729 -0.2364133
000120 a1 9c bb bc 97 7b 9b bc 10 f6 4e be 6a 68 bc 3d
       -0.022901835 -0.01897983 -0.20211053 0.09199603
000130 f8 c9 29 3e d5 e6 16 be 94 03 cf 3e e1 b1 ec be
       0.16580951 -0.14736493 0.40432417 -0.4622946
000140 41 43 41 3e 4c b7 97 be 69 02 4c 3e 5c 20 be 3e
       0.18873312 -0.29632032 0.19922794 0.37134063
000150 42 ee ca be fd dc 15 3d 5f 2b a2 be c7 d6 44 bd
       -0.396349 0.036587704 -0.31673715 -0.04805639
000160 b2 b4 94 be e0 62 76 bd ab db 07 3e 81 ce ee 3d
       -0.2904411 -0.06015289 0.1326739 0.11660481
000170 5d 07 09 bd 24 e1 8f 3e 69 03 15 be 75 fe 70 bd
       -0.033454288 0.28101456 -0.14552082 -0.05883642
000180 ac 34 4a bc f4 48 b3 3d be 98 84 bd 46 eb 4b 3e
       -0.0123416595 0.08754149 -0.06474446 0.19913968
000190 db d1 9e be ad 30 8e 3d dc ff c2 3e 8e 3e 4a 3e
       -0.31019482 0.06942878 0.3808583 0.19750425
0001a0 0d 72 26 3e d7 55 2e 3d 42 d5 a4 3e 2d 34 41 be
       0.16254444 0.042562332 0.32193953 -0.1886756
0001b0 45 3d ad 3e 9d 54 00 bd 43 60 1a 3e 73 c6 10 3e
       0.33835807 -0.031330694 0.15075783 0.14138202
0001c0 73 44 2d 3c b6 45 29 be 37 df f2 3d 85 6d 8f bd
       0.010575402 -0.16530499 0.11858981 -0.07003311
0001d0 c8 6a 42 be 6d 97 02 be 1d 47 0d bd de 6b 42 3e
       -0.18986046 -0.12753077 -0.034491647 0.1898646
0001e0 57 ad 9e be 43 8c 70 3e 41 22 81 bb 72 be c6 3d
       -0.30991623 0.23491006 -0.003940851 0.09704293
0001f0 19 6f 4b be aa 1a 5a be 78 7b bf be ac 5f fc 3c
       -0.19866599 -0.21299234 -0.37398887 0.030807339
000200 37 a3 54 3e 4a 5c 01 bc 93 9e 82 be 58 86 94 be
       0.20765387 -0.007895539 -0.25511608 -0.29008746
000210 5b a5 79 3e 95 45 49 3c 4f 43 9b 3d 94 17 af 3e
       0.24379484 0.012284656 0.075811975 0.34197676
000220 be fd 03 3d f1 3f 2b bd db f0 de bc a9 f4 24 be
       0.03222441 -0.041809026 -0.027214458 -0.16108955
000230 4f da 37 3c 51 f2 27 3d 89 a8 23 3e 76 02 ae 3e
       0.011221482 0.041002575 0.1598226 0.33986253
000240 b2 e1 bc be 3a 69 0c be c5 3f 0c 3e 89 48 2f bd
       -0.36890942 -0.13712016 0.13696201 -0.042793784
000250 90 4b 05 3e a5 14 93 3b 27 a0 34 be 4c d8 ae 3d
       0.13017106 0.004488545 -0.17639218 0.08537349
000260 44 90 af 3d 94 56 b8 3c 31 6c c3 3d 15 cc e3 bd
       0.08572438 0.022502221 0.0954212 -0.1112291
000270 60 a7 50 bc 1f 20 33 be bc 5d 04 3e a8 cf 21 3b
       -0.012735218 -0.17492722 0.12926382 0.0024690423
000280 6e db 1d bd 63 30 2a bd 4a 5a f8 3d fc 79 f6 bc
       -0.038539343 -0.04155005 0.12126596 -0.030087464
000290 b8 56 3a be be 22 aa bd 0f 30 88 bd 32 a4 41 bd
       -0.18197143 -0.08307408 -0.066497914 -0.04727573
0002a0 20 62 52 3e 92 be fd 3d a8 9c ea 3e 14 1f 16 3d
       0.20545244 0.12389864 0.45822644 0.036650732
0002b0 99 17 78 3e 17 d2 0c be 7e 50 0b 3d 98 49 7e 3e
       0.24227752 -0.13752018 0.03401231 0.24832761
0002c0 c9 ba b8 3d 05 24 76 be 52 d5 86 bd f9 32 66 3e
       0.090200014 -0.24037178 -0.06583656 0.22480382
0002d0 68 50 10 be c3 0a 05 3e 4e 55 61 3e f6 28 de bd
       -0.14093173 0.12992387 0.22005197 -0.108476564
0002e0 fb 79 84 3e 7c 8a 95 3d 6f 04 10 3d 0d 10 05 3e
       0.25874314 0.073018044 0.03516048 0.12994404
0002f0 1b a2 3f 3e 3f 31 21 be 2e dd f2 bd e6 d4 fe bc
       0.18714182 -0.15741442 -0.11858593 -0.031107377
000300 40 7e 34 be be 68 2c 3d 67 ed 41 bc 42 52 85 3e
       -0.17626286 0.042092077 -0.011836386 0.2603932
000310 67 e2 c7 b9 4b ab 0a 3e 28 4d 7a 3e 24 57 07 bd
       -0.0003812492 0.13541906 0.24443495 -0.03304209
000320 ba 37 37 3e 19 63 88 bd 16 e3 99 bd 90 4c c7 3d
       0.17892352 -0.066595264 -0.07514016 0.097314
000330 c9 9f 8e 3e 4e 4c 04 3e 77 c4 67 3d 54 26 39 3d
       0.2785628 0.12919733 0.056583848 0.04520257
000340 93 ee fb 3d 8d 9b ac 3c d0 2e 9f 3d ca 2e d9 3e
       0.12301364 0.021070266 0.07772601 0.4241851
000350 d6 8e f0 3d a4 50 11 be 98 01 29 be 13 c0 ea bc
       0.11745994 -0.14190918 -0.16504514 -0.028656041
000360 f4 5b 8b bd bc 32 35 3e 66 68 75 3e 8e b9 11 bc
       -0.06804648 0.17695135 0.23965606 -0.008894337
000370 be f3 f4 3c 3d b4 16 bd 2c 87 b9 3a 51 48 97 be
       0.029901382 -0.036792982 0.0014154664 -0.2954736
000380 6b 1d cf 3a 19 0c 19 bd ab 23 0e 3d ac 26 99 bd
       0.0015801614 -0.037365053 0.034701984 -0.07478079
000390 62 8b 52 3d ef 57 4c bc 42 b4 69 3e ab 6d 98 3d
       0.051402457 -0.012472137 0.22822669 0.074427925
0003a0 16 5b 9c bd 60 a4 42 3e c6 75 ec 3d e9 5e 2b bd
       -0.07634561 0.19008017 0.11545901 -0.04183856
0003b0 1f d6 8d bc 8a 3d af bd 0f 5a b8 3e b1 8e 7e 3e
       -0.017314015 -0.085566595 0.3600621 0.2485912
0003c0 a1 19 45 3e 26 ba 82 be 6d 45 4e 3e a3 6c 3d 3e
       0.19248058 -0.25532645 0.20143671 0.18498473
0003d0 63 1b 4b bd 45 52 6b 3e e5 e0 f1 3d 50 dd a4 3d
       -0.049586665 0.22980602 0.11810473 0.080500245
0003e0 1e 4d 89 bd 73 fa 3e bd 9b 5d 47 3e 22 8d a7 3d
       -0.06704162 -0.046625566 0.19469301 0.08181216
0003f0 56 25 aa bd d1 23 00 3d 46 0b 9a bd 7b 95 a9 3e
       -0.083079025 0.031284157 -0.075216815 0.33121857

linears.2.bias f4 [40]
000000 4b 63 bc bc 13 bc b5 bd 12 37 df 3d e6 77 09 3d
       -0.022996565 -0.08873763 0.10899176 0.03356161
000010 b9 d4 05 bd d8 f9 c7 b9 cb 3d a7 3c 12 45 61 bd
       -0.03267357 -0.00038142386 0.020415207 -0.05499751
000020 54 9b 52 bc ea bd 25 bd 6e 2e 0a 3d 9d da 59 3c
       -0.012854416 -0.04046432 0.033735685 0.01329675
000030 d4 93 34 bd 75 5f 26 bd 16 8a 01 bd cd 72 64 bd
       -0.044086292 -0.04061838 -0.03162583 -0.055773545
000040 89 40 0d be bd 92 64 3c 16 97 ec 3c 7e 4d ec bc
       -0.1379415 0.013951001 0.028880637 -0.028845545
000050 87 5f 89 bd 7a 33 32 3d 15 31 dc bc 79 eb 69 bc
       -0.067076735 0.043506123 -0.026878873 -0.014277332
000060 64 84 5a 3c 9b bd 11 3d ec c0 80 bc 2c 6c 81 bc
       0.013337228 0.035581212 -0.015716992 -0.01579865
000070 0c 85 69 3b 4a 66 1d 3d 77 47 39 bc 9c 34 66 bd
       0.003563228 0.03842763 -0.011308542 -0.056202516
000080 eb 86 8d 3c b8 ee 22 3c 72 5f 18 bd 34 8e d4 3c
       0.017276248 0.00994461 -0.0372004 0.025946714
000090 c6 95 6a bd 5e 66 c9 bc a9 e5 24 be 30 81 e2 bc
       -0.05727174 -0.024584945 -0.16103233 -0.027649492

linears.3.weight f4 [40, 40]
000000 37 3c b8 3d 27 7f 8d bd 58 78 33 3e 03 c3 35 3e
       0.0899586 -0.06909018 0.17526376 0.17750172
000010 45 43 d0 3c c5 b5 e0 3d 32 3c f5 3b 58 d4 f9 bd
       0.025422702 0.1097217 0.0074839825 -0.121987045
000020 3c 68 41 bd 30 76 9e be 81 89 ed 3d 0c 7a 73 3e
       -0.047218546 -0.30949545 0.115984924 0.23777026
000030 22 12 0a be 5c 48 96 be b1 02 71 bd 15 92 95 3e
       -0.1348348 -0.2935208 -0.058840457 0.29213014
000040 b9 f3 7d 3d d9 4d 33 3e a6 98 fe bb 20 d1 cf be
       0.06200001 0.17510165 -0.007769662 -0.40589237
000050 3b 83 d6 3c 13 7c 21 bb f0 57 ce 3d 2b 68 26 bb
       0.026185622 -0.0024640604 0.100753665 -0.0025391679
000060 af cb 90 bd e6 c0 34 be f5 07 b2 3d 10 36 5a 3e
       -0.070700996 -0.1765171 0.08692924 0.21309686
000070 75 50 5b be 02 f9 9a bc a3 14 fb 3d 89 c4 18 3d
       -0.2141741 -0.018917564 0.122597955 0.037296806
000080 d3 48 24 3d 63 b8 c8 3e 6a ef ad bd 06 b7 86 3d
       0.040108513 0.39203176 -0.0849293 0.06577878
000090 4b 02 93 be f7 22 a6 be 06 5b f7 3c 24 e9 93 be
       -0.28712687 -0.3244855 0.03019477 -0.2888881
0000a0 d7 fd e9 3d a6 87 2d 3e b4 ee 82 be 7b 15 89 3e
       0.11425369 0.16946277 -0.2557274 0.267742
0000b0 ef f9 6b be 31 7c 9c 3e 08 6a 41 be 43 17 28 3e
       -0.23044561 0.305635 -0.18888104 0.16415124
0000c0 83 b5 02 bd 1b f7 46 be 2a 3a f8 bd 07 43 11 bd
       -0.031911384 -0.19430201 -0.12120469 -0.035464313
0000d0 7f 18 8e 3e 90 88 ad 3d dd 00 0d 3e 6d 11 0e be
       0.27753064 0.08473313 0.1376986 -0.13873835
0000e0 9c e1 62 3d 44 cd ce bd fb 06 1b bd 21 98 1f 3e
       0.05539094 -0.10097745 -0.037848454 0.15585376
0000f0 4a d2 3b 3d 49 51 45 be 2b 04 9b 3e 5d ef 20 3e
       0.045854844 -0.19269289 0.30276617 0.1571631
000100 0c 6a ff bd 9f 63 d8 bd 4f 9a 5e 3e 8d b3 1c 3e
       -0.12471399 -0.10565876 0.21738552 0.15302868
000110 c0 22 dc 3e d2 40 d4 be 7b 38 23 bb eb 76 07 3e
       0.42995262 -0.41455704 -0.002490549 0.13228957
000120 44 0c 43 3e 38 10 fa 3c 3b 1e 12 3e e0 14 bb 3a
       0.19047648 0.030525312 0.14269345 0.0014273189
000130 ab 83 8c bd 92 1d 93 3d d0 80 56 3e ab 74 5f bd
       -0.06861051 0.071833745 0.20947576 -0.054554623
000140 c5 41 88 bd ad c2 ab bd bc 36 ab 3d bf 71 61 3e
       -0.066531695 -0.08386741 0.08360049 0.22016047
000150 02 21 f8 bc 5e d2 e9 bd 5e b6 e1 3c 4e 17 23 be
       -0.030289177 -0.114170775 0.02755278 -0.15926859
000160 cb 9e f4 3b e6 7c 91 3e b5 d0 2a 3e 57 4d 14 3e
       0.0074652187 0.28415602 0.16681178 0.14482628
000170 63 53 31 be 0d e7 36 3d 12 2f dd 3d 44 7d a0 be
       -0.17316966 0.04465394 0.107999936 -0.3134557
000180 69 b5 94 be 84 e8 dc 3c 49 07 ab 3a cf e8 a1 3e
       -0.29044655 0.02696634 0.0013048436 0.3162293
000190 fc 77 9d bc cb fa d2 3d 26 dd 41 be 7e 91 5a bd
       -0.019222252 0.10301741 -0.18932018 -0.05336141
0001a0 e3 0d 8f 3e 3b 41 bf bd c2 06 10 bd 7d 80 d8 3c
       0.27940282 -0.093386136 -0.035162695 0.026428455
0001b0 d2 60 fa 3c bd 38 d0 3d 4f 17 3f bd 09 de 32 bd
       0.030563746 0.10167072 -0.04665309 -0.04366878
0001c0 6d a0 87 3e ec a3 99 be 38 71 cb 3d bf 45 a2 3d
       0.26489583 -0.30007875 0.09933704 0.07923459
0001d0 23 27 a1 3e 11 c3 19 3c 2f 1a ea bd cc a1 50 3b
       0.3147517 0.009384886 -0.114307754 0.003183472
0001e0 9e 05 b8 bc 39 f4 6b be c1 ca 58 bd 80 4b c5 3c
       -0.022463616 -0.23042382 -0.052927736 0.024083853
0001f0 4c 21 2f 3e 22 45 9e 3d 82 54 c8 3b 0f 06 9b 3e
       0.17102545 0.0772803 0.0061135897 0.3027806
000200 f1 15 0a 3f 34 f1 c0 be 28 ab 0a be ce c0 a8 39
       0.5393973 -0.37684023 -0.13541853 0.00032187108
000210 58 12 99 bd ba ea 57 bd 0a d2 07 3c a5 53 21 3e
       -0.07474202 -0.052714087 0.008289823 0.15754564
000220 09 81 81 3d 80 ca 52 3d 64 a3 a8 3d 6b 31 31 be
       0.0632344 0.05146265 0.08234289 -0.17304008
000230 e1 d8 5a 3d 05 a2 58 3e e5 df 83 bd 5e 05 0b 3e
       0.053429488 0.21155556 -0.06439189 0.13576266
000240 f9 1b e5 3d 05 1c 4d be b3 2c 00 3e ba e4 0c be
       0.11186976 -0.2003022 0.12517051 -0.13759127
000250 4a 68 10 be ce ef 80 bd b0 d0 76 3d 1f 66 2c 3d
       -0.14102283 -0.06295739 0.060257614 0.042089578
000260 84 9e 05 3f 59 99 ac 3e 05 8e c5 3e 07 68 40 3d
       0.52195 0.33710745 0.38584915 0.04697421
000270 7a a6 34 be 9b 28 cc bc fb f9 67 3e 88 f3 b0 3c
       -0.17641631 -0.024921706 0.22653954 0.0216005
000280 ed df 51 bd d0 20 eb 3e c1 6d 5c bd e9 7e 17 3e
       -0.051238943 0.4592347 -0.053815607 0.14794506
000290 88 22 da be 27 8a 88 3d 05 ca 53 3d 6d 69 60 be
       -0.4260447 0.066669755 0.051706333 -0.21915217
0002a0 be b8 26 be b2 ff 4e 3c 6f 3e 58 be 84 74 50 bd
       -0.16281411 0.012634205 -0.21117567 -0.050892368
0002b0 75 15 b5 bd 17 1b 0b 3e 5a f1 e2 be a6 10 de 3c
       -0.08841983 0.13584553 -0.44324762 0.027107548
0002c0 f8 90 b8 3d 56 2d ca bc 2a 43 1a 3d 13 8e 44 3e
       0.090120256 -0.024679821 0.03766171 0.19194822
0002d0 3e ff 82 3e 13 69 9e bd 18 12 30 be b4 dd b1 bd
       0.2558536 -0.07734885 -0.17194402 -0.08684865
0002e0 f5 34 42 bd 5d 97 f8 3d 85 f2 2f be 74 19 80 3a
       -0.047413785 0.12138245 -0.17182358 0.0009773211
0002f0 cf fd 59 3d b0 54 b3 bd eb 71 05 be 2a c2 2c be
       0.053220566 -0.08756387 -0.13031738 -0.16870943
000300 07 1c 4c bd 27 b3 4a be 47 2e 9a bd e9 9d 4d bd
       -0.049831416 -0.19794904 -0.07528358 -0.050199423
000310 f2 e7 4e 3e e0 b5 7c be 53 cb 5c be 7c 64 25 be
       0.20205668 -0.24678755 -0.21561937 -0.16151613
000320 54 5a f4 3d 0a e8 88 be 1d 82 7d 3e 18 9a 12 be
       0.11931291 -0.26739532 0.24756666 -0.14316595
000330 ca 69 5f 3d 35 aa 4e be c7 a3 24 be 71 73 0a 3e
       0.054544248 -0.20182116 -0.16078101 0.135206
000340 b3 78 08 be 10 80 0d 3d 34 be d9 bc 9c 18 2d be
       -0.13327293 0.034545958 -0.026579954 -0.16903919
000350 5f e6 ed bd df c8 81 3c 5a f8 4a 3d 8f b3 8b be
       -0.116162054 0.015842853 0.049553253 -0.2728543
000360 82 b1 11 be 1e 6a 17 3e f5 ac 98 3d bb 66 80 bc
       -0.1422787 0.14786574 0.07454864 -0.015673986
000370 5b cb d9 be cd 68 98 3e cf ff e3 3d 05 db 10 be
       -0.4253796 0.29767457 0.11132776 -0.1414605
000380 84 dc b9 3d 24 7a a5 3d 52 ec 83 3c 5d b1 16 be
       0.09075263 0.08079937 0.016103897 -0.14716096
000390 05 d6 81 3e b6 1e 43 3c 00 e1 81 3e 6d 52 60 bd
       0.25358596 0.0119091775 0.25366974 -0.054766107
0003a0 8d a8 a1 bd 23 1b 41 3e 12 99 9e bd ef 8f 55 be
       -0.07893477 0.18858008 -0.077440396 -0.20855688
0003b0 18 65 31 be 5c 17 b1 3d 01 92 5a be 92 55 51 be
       -0.1732372 0.086470336 -0.21344759 -0.20442799
0003c0 bd ba 1e bd f5 c0 85 3e 73 b4 86 be 78 23 5f 3e
       -0.038752306 0.26123777 -0.26309547 0.21790874
0003d0 8a a2 40 3e 12 93 dc 3c 54 86 34 be ca d8 34 3e
       0.18812004 0.026925597 -0.17629367 0.17660823
0003e0 35 0e 1d bc f6 1a 3f 3e 4e ac c2 bd a1 72 3f 3e
       -0.009585907 0.18662629 -0.09505521 0.18696071
0003f0 78 e8 81 3e d2 33 74 3e e8 21 4e 3c c1 94 0d 3e
       0.25372672 0.23847893 0.012581326 0.13826276

linears.3.bias f4 [40]
000000 f7 08 f8 3c ad 46 b3 bc 98 a1 bc 3c a8 f8 b0 3c
       0.030277712 -0.021884287 0.023026273 0.021602944
000010 92 24 b6 3b 0d db 1b 3d 79 39 ee bc 28 0c 8b 3c
       0.0055585587 0.0380507 -0.02908014 0.01697357
000020 9e 30 f7 bd 0c 2b 5f bc f0 34 62 3d 5f 34 4f bb
       -0.1206982 -0.013621103 0.055226266 -0.003161691
000030 bb 1e cd bc ef 52 2a bd a1 2b bd bc 03 eb 2a 3c
       -0.025039067 -0.041582998 -0.023092093 0.010432008
000040 b4 d4 80 bc 64 5b 50 bc db 99 00 bd 96 bc 04 3d
       -0.015726425 -0.012717102 -0.031396728 0.032406412
000050 4b b5 c6 3c 7f f9 b4 3c ee 6d 48 bc b0 38 9c bd
       0.02425637 0.022091625 -0.0122332405 -0.07628
000060 0c b1 dd bc 02 60 1f bd 42 1c f5 3d 4e ad 6e 3d
       -0.027061962 -0.03890992 0.119682804 0.058270745
000070 b9 69 68 bc 36 75 9d bc 96 fb 21 bc 9e 5a ea 3c
       -0.0141853625 -0.01922093 -0.009886643 0.028607663
000080 48 e6 29 bd 4d cd f7 3c 59 d4 7d 3c ab a5 b5 bc
       -0.04147938 0.030249262 0.015492522 -0.022173723
000090 2b 61 08 bd 1f 29 29 3c 82 69 b7 bc 3b 19 ee bb
       -0.03329579 0.010324745 -0.022389177 -0.0072661913

linears.4.weight f4 [40, 40]
000000 97 5a 14 3d 2e 09 85 3e 0e 99 bb bd c2 48 9c bd
       0.036219206 0.25983566 -0.09160052 -0.07631065
000010 3e 1b 5b 3e 6c a8 c1 3d 5d 4b b1 3e ba 00 5e bd
       0.21397111 0.09455952 0.3462781 -0.05419991
000020 4f 81 c2 bd 1d 51 e6 bc 2f f3 6a bd 6d d2 67 bd
       -0.0949732 -0.02811485 -0.057360824 -0.056597162
000030 95 dd b2 3d ee dd 0b 3e 23 3a 31 bc 5c 7b d3 bc
       0.0873367 0.13658878 -0.0108170835 -0.025815658
000040 b1 c1 f9 bc 1c 6b 6c be 22 f9 a2 3b 52 01 0f 3d
       -0.030487867 -0.23087734 0.0049735466 0.03491337
000050 c8 41 f8 be 8c bb 6b 3c b5 93 2e 3e 69 eb 8c be
       -0.48487687 0.014387976 0.17048533 -0.27523354
000060 e3 70 cd bd 37 e2 87 bd 2b 35 10 3e ed b9 24 3e
       -0.10031297 -0.06634944 0.14082782 0.1608655
000070 0c 19 b0 3e a3 83 a3 3e 2d cc 0d be d1 c3 34 be
       0.3439411 0.31936368 -0.13847418 -0.17652823
000080 09 34 fe 3d bd 52 3d bc 7d b7 d3 bd fa a5 94 be
       0.12412269 -0.011555371 -0.10337732 -0.2903288
000090 eb b1 49 3d 8c e6 88 be 52 f2 89 3d c3 5f f3 bd
       0.04924194 -0.26738393 0.06735672 -0.118834995
0000a0 fc f1 aa 3e 05 d7 5b 3e a3 8b 1d 3e 68 77 dc 3b
       0.33387744 0.21468742 0.15385298 0.0067281015
0000b0 93 57 64 bd 00 a6 24 bc 68 df 2b 3e e7 2a 18 be
       -0.05574758 -0.010049343 0.16784441 -0.14860116
0000c0 56 c2 6e bd d8 2c 7f bd f9 fd 54 be 5d c1 a1 bd
       -0.058290802 -0.062298626 -0.20800008 -0.07898209
0000d0 ec 93 de 3e a7 06 35 bd 55 d1 6e 3e 7d 25 c7 bd
       0.4347223 -0.044195797 0.23322041 -0.09723947
0000e0 c6 c1 0f be 88 e1 f1 3c 14 b8 98 3a 47 39 81 bd
       -0.14038762 0.029526487 0.0011651539 -0.06309753
0000f0 70 9d db 3c 71 b3 4b be 57 a2 0a bd 32 29 df bd
       0.02680847 -0.1989267 -0.033846226 -0.10896529
000100 d9 21 b8 bd fc 12 11 3d b6 51 e9 bd b8 2d 96 3e
       -0.08990831 0.035418496 -0.11392538 0.29331756
000110 0e 1f 11 bd c7 87 cb 3d b5 8e 15 be ea 27 5e bd
       -0.035430007 0.09938007 -0.1460522 -0.054237284
000120 22 4b 37 3e 35 86 00 be 77 06 9b be 6e 1c e4 bd
       0.17899755 -0.12551196 -0.3027837 -0.11138235
000130 9c 6b 42 3e 94 d7 2b be 6f 51 f5 3d 5f c1 87 bd
       0.18986362 -0.16781455 0.11978423 -0.066286795
000140 2b 95 90 3e ed 19 29 be c4 ac c8 3e 90 c2 46 3e
       0.28238806 -0.16513796 0.3919431 0.19410157
000150 f3 b4 e6 bd 5c 1a 9a 3e 35 56 64 be 6a 62 ee be
       -0.11264982 0.30098236 -0.2229851 -0.4655946
000160 62 78 03 bf 0b d8 17 bc a7 86 7e 3e ec 02 8a 3e
       -0.51355565 -0.009267817 0.24856053 0.26955354
000170 17 8a 2c be 45 b5 35 bd dd bb 7f be 5e 18 c5 bd
       -0.16849552 -0.044362325 -0.24974008 -0.09623788
000180 04 0f 96 be 89 dc 43 3d 20 fb d6 be 24 00 11 3e
       -0.2930833 0.04781774 -0.41988468 0.1416021
000190 4f 06 a2 3d de 40 dc 3e 8b 10 97 bd 38 b5 ba be
       0.079113595 0.4301824 -0.07376202 -0.36466384
0001a0 ec 21 f4 be b4 b4 8f be 7e 39 b3 3e 1a cf 09 be
       -0.4768213 -0.28067553 0.350048 -0.13457909
0001b0 c6 6a 2c be e6 74 d8 bd 1a 3c 8b 3c 9a eb 43 3d
       -0.16837606 -0.105691716 0.016996432 0.04783211
0001c0 c7 31 ec be bf d3 eb 3e 7a 8d e5 bd 84 99 80 be
       -0.46131727 0.46059987 -0.11208625 -0.25117123
0001d0 b6 c6 39 bd ad 2c 9e 3d be bb 22 bf 6b bc e3 3e
       -0.04535552 0.07723365 -0.6356772 0.4447969
0001e0 30 2e a2 3e d3 fc bf 3e 00 54 b0 bd 90 fd ca bd
       0.31675863 0.37497577 -0.08609772 -0.099116445
0001f0 3c b1 a5 3c 80 6d 0a bd dd a2 6a 3d fe 11 37 3e
       0.020226113 -0.033795834 0.057284225 0.17877957
000200 15 34 3c 3e 74 0b fa bb 17 9f c2 3d 58 70 47 be
       0.18379243 -0.00763076 0.09503 -0.1947645
000210 9a fb 97 3e 23 97 8e be 45 8e 81 bd 4d 05 ab be
       0.29684144 -0.27849683 -0.06325964 -0.33402482
000220 a8 5d 15 3e 24 a6 18 3e 93 f6 2b be b4 a9 2d 3e
       0.14586508 0.14907128 -0.1679328 0.16959268
000230 4e 0c a2 3d f5 c5 01 bd 03 05 fa bd 56 d5 82 be
       0.07912503 -0.031682927 -0.12207987 -0.25553387
000240 2b b7 78 3e 3c f5 8d be e3 53 1a 3e 9b ab c1 bd
       0.24288623 -0.2772616 0.15071063 -0.09456559
000250 60 23 7b be 7c 2c 7f 3e 19 61 45 3c c3 97 c0 3d
       -0.24525213 0.24919313 0.012047076 0.09403946
000260 9e 44 f5 bd bf 4f 6d 3e 7f 80 98 bd 9c 6f 15 3e
       -0.11975978 0.23174952 -0.07446384 0.14593357
000270 24 34 08 3e c3 e8 67 3d 48 11 b8 bc 7c 52 45 3c
       0.1330114 0.056618463 -0.022469178 0.012043592
000280 ba 2f ed 3d 5c 0a f3 bc 8d ed 1e bb 99 5c a9 3d
       0.11581369 -0.029668026 -0.0024250478 0.08269615
000290 ee 30 80 3e 06 82 e5 bd 1f 00 c6 bc b6 b5 5e 3e
       0.2503733 -0.11206441 -0.02416998 0.21749005
0002a0 1f 4a e6 3c 9c e7 78 be 58 3f c8 3e dd a6 e5 3d
       0.028111516 -0.24307102 0.39110827 0.11213467
0002b0 40 f0 af be 9e df 24 3e 2c c0 3f 3d f1 03 fa 3e
       -0.34362984 0.16100928 0.04681413 0.48831132
0002c0 ef 6a ce bd 34 0a 39 3d 78 d6 7e 3a 62 a0 b9 3c
       -0.1007899 0.045175746 0.00097212894 0.022659484
0002d0 93 ef 31 bd a0 75 23 3c 2a 2e c7 3d 46 5b 69 bb
       -0.043441366 0.009976774 0.09725602 -0.0035607382
0002e0 8c 52 92 3d a9 02 ce bc 65 83 d7 3d 05 28 32 be
       0.07144651 -0.025147753 0.105231084 -0.17398079
0002f0 a5 af fb bd 9c db 0d 3e ce ff 7b be 4c c9 2e be
       -0.12289361 0.13853306 -0.246093 -0.17068976
000300 2d 91 80 be 9c df a1 3e 4f 9d 66 3e d2 35 c8 be
       -0.2511076 0.31615913 0.22520946 -0.39103562
000310 87 1c 2b be 65 a2 1a 3d e0 8f d5 3d fd a9 57 bc
       -0.16710101 0.037752528 0.104278326 -0.013163087
000320 13 b5 c9 3e ee 0d ef 3e f3 b1 1b be a0 89 a7 3e
       0.3939596 0.46690315 -0.15204601 0.32722187
000330 d6 7b 39 bd 8b 71 db 3d 2e ba 9d be e9 92 fe 3d
       -0.045284115 0.10715016 -0.30806106 0.12430365
000340 12 59 6b bd 7d 0b b0 3e 6b e5 85 3d 54 c3 52 3e
       -0.05745799 0.34383765 0.06537899 0.20582324
000350 ef 7f e4 bd 84 3b e3 bd 85 1a 42 3d 0c 0f 74 3d
       -0.11157214 -0.11095336 0.047388572 0.059584662
000360 51 e4 73 3e e1 a4 51 bd f5 53 53 bd 68 18 ed be
       0.23817565 -0.05118263 -0.05159374 -0.46307683
000370 fc 1e be 39 d4 a4 18 be 56 2f af bd e9 bc a0 bd
       0.0003626271 -0.14906627 -0.085539505 -0.07848532
000380 b2 5e c8 be 9d 9a 79 be 43 71 fa 3e 16 d9 5a 3e
       -0.39134747 -0.24375387 0.48914537 0.21371874
000390 a6 24 d4 3e 89 a9 15 3c 3e 65 82 bc ef 0a b3 3e
       0.4143421 0.009134659 -0.015917417 0.3496928
0003a0 24 b3 0d be 28 af 23 3e 57 70 5a be c9 de d4 3d
       -0.13837868 0.15984786 -0.21331917 0.103940554
0003b0 64 c4 0f be 7b 2b c4 be c6 45 47 3d fa f1 25 be
       -0.14039761 -0.38314423 0.048650526 -0.16205588
0003c0 e3 44 c5 3d 11 dd 4c be 5e 77 4f 3c 53 12 8c bd
       0.0963228 -0.20006205 0.012662737 -0.068394326
0003d0 88 b0 58 3d 7d bc 9d 3c 7f 23 02 3e ec 29 44 3e
       0.05290273 0.019254917 0.12708853 0.19156617
0003e0 e1 50 00 3e 39 b2 72 be c3 44 ac 3e dc 0d 4b be
       0.12530853 -0.23700799 0.3364621 -0.19829506
0003f0 b0 ac 29 3e c7 de 3f be 13 d5 26 3d 43 9a 6f be
       0.16569781 -0.18737327 0.040730547 -0.2339869

linears.4.bias f4 [40]
000000 7d 25 80 bd 9a ce 1c bd c5 6f a1 3d 85 e7 bb bc
       -0.0625715 -0.038282968 0.078826465 -0.022937546
000010 ce dc 8b 3c 91 20 3e 3d 96 a4 89 3c 4d e4 44 3d
       0.017073061 0.046417776 0.016802114 0.048069287
000020 84 53 9c bc 6c ba ce bb eb bb 77 bc 80 c3 eb 3c
       -0.019082792 -0.0063088443 -0.015120487 0.028779745
000030 a2 97 de bc 09 43 fb 3c bf a4 c4 3c 7c 5c 25 3a
       -0.027171914 0.030671613 0.024004338 0.0006308032
000040 5b 12 9c bc e8 b5 31 bb dd 34 68 bd 8a ac de bc
       -0.019051721 -0.0027116481 -0.05669104 -0.027181882
000050 c0 90 82 3c eb 23 20 bc c0 f4 5a ba 97 a0 d4 bc
       0.015938163 -0.0097741885 -0.00083525106 -0.025955481
000060 3d 59 d8 3c 93 ff 69 bc 08 f2 a9 bc e5 80 f6 3d
       0.02640974 -0.014282125 -0.020745292 0.120363034
000070 90 3a 7b bb e8 26 03 3c fc 7d 80 3c 33 44 f3 3b
       -0.0038334467 0.008004881 0.015685074 0.0074239015
000080 15 c1 8a 3d 57 15 58 bc 00 1e 80 3c 53 30 9d 3c
       0.06775109 -0.013188682 0.015639305 0.019188082
000090 4c 5a 24 3c 9b 3c 08 bd b8 71 0c 3b 42 f4 82 3c
       0.010031294 -0.033260923 0.0021430086 0.015985612

linears.5.weight f4 [40, 40]
000000 85 3b 86 3e 8d ed d1 be 17 04 a8 3e 99 20 95 be
       0.26217285 -0.4100155 0.3281562 -0.29126433
000010 a3 25 d8 be 5e 8c 36 be bd 2c 5d 3d c1 ee be bd
       -0.42216215 -0.17826983 0.053997744 -0.093228824
000020 52 b9 1b be b1 4f 3a 3e e2 d2 26 3c 42 ac 3a 3c
       -0.15207413 0.18194462 0.010182114 0.0113936085
000030 c2 91 fa 3d f9 70 7d bb c5 23 26 3e 0a 19 b4 be
       0.12234832 -0.0038672073 0.16224582 -0.35175353
000040 4e 64 7b bd 43 18 63 bd a8 02 19 3e ed 3a d7 bd
       -0.061374955 -0.05544306 0.1494242 -0.10509286
000050 ba f8 94 be ec af fc bd 11 dc 2c 3e d9 10 49 be
       -0.29096013 -0.12338242 0.16880824 -0.19635333
000060 61 8a 39 3c ce 92 92 3e ce 9d 55 3d db 28 32 3e
       0.011324496 0.28627628 0.052152447 0.17398398
000070 f8 fe b2 3e 7b 00 27 3e bc ae 29 3e bb 21 bc bd
       0.3496015 0.16308777 0.16570562 -0.09186121
000080 73 d7 7d 3d 1e d2 4c 3e f8 65 6f 3c 89 21 11 ba
       0.061973047 0.20002028 0.014611714 -0.0005536308
000090 ec 21 05 3e 6c a6 0f 3e 46 b2 04 be 45 0c 81 bc
       0.13001221 0.14028329 -0.12958631 -0.01575292
0000a0 5c 33 a4 bd de 5b 9e 3c 75 60 8f 3d 05 1a 38 be
       -0.080176085 0.019330915 0.070008196 -0.17978676
0000b0 38 e8 f0 bd 76 59 48 3e dc a2 e4 bb 2b c7 c6 bc
       -0.11763042 0.19565377 -0.006977422 -0.024264893
0000c0 72 6e 0e be f0 9a 5e 3c f2 e9 79 bd 7c 2b 90 be
       -0.13909319 0.013586745 -0.061014123 -0.28158176
0000d0 53 fa 4e bd 1a fb e3 3d 87 e4 04 3d c3 f0 2c bd
       -0.050531697 0.11131878 0.032444503 -0.042221796
0000e0 e3 50 e1 bd 09 b8 32 bc 9b 10 60 3e 3d fa 52 3b
       -0.11001756 -0.010908135 0.21881334 0.003219261
0000f0 14 18 ec 3e 72 b6 67 be fd 36 82 3e 27 cb cb bd
       0.4611212 -0.22628191 0.25432578 -0.099508576
000100 6e 7c 63 3e 31 7c 83 3e ef 04 b3 3d 0a 4c 60 3d
       0.22215435 0.25680688 0.087411754 0.054760017
000110 b1 f1 2e be 74 41 22 3e 0b ca b0 3c e5 1c 3c 3e
       -0.17084385 0.15845281 0.021580717 0.18370397
000120 0b 19 1d be ad c8 c0 3b 8a 49 40 3e 49 de 90 3d
       -0.15341584 0.0058832974 0.18778053 0.070736475
000130 3e 2d 6c 3d b2 cb 01 bd 9d 4d ac 3d df 8a 41 3d
       0.057660334 -0.0316884 0.08413241 0.04725158
000140 f0 09 52 bd fc bc 4f be 8a e1 86 bd f8 c0 ce be
       -0.05127901 -0.20286936 -0.06585987 -0.40381598
000150 d3 67 95 bd d9 79 fb be 20 56 7d 3e 41 b3 e0 bd
       -0.072951935 -0.491164 0.24739885 -0.1097169
000160 05 df 13 3e 58 49 89 b8 7d bf 4f bd 2f a9 e1 bd
       0.14440544 -6.5463304e-05 -0.050719727 -0.11018597
000170 e7 77 08 be fb d5 e9 bd 5e 08 81 be 3c bf fd 3d
       -0.13326989 -0.11417767 -0.25201696 0.12389991
000180 4f ab 50 3c 28 cb 72 be d0 b7 cf bc d8 99 b1 be
       0.012736156 -0.2371031 -0.025356203 -0.34687686
000190 22 df 40 bc 33 08 f8 bd 2d c7 1c bd a8 d8 47 bc
       -0.011771949 -0.12110939 -0.038275886 -0.012197651
0001a0 35 36 9e bd ce c1 f5 3d d2 ad 3f 3e b2 e7 73 3e
       -0.07725183 0.11999856 0.18718651 0.23818853
0001b0 16 9f 6d 3d 59 c7 8c 3e 53 dd c3 bd 13 28 8f 3e
       0.058013044 0.2749584 -0.095636986 0.27960262
0001c0 7c dc c9 be 66 92 31 be af e4 69 bd 9b be ba 3d
       -0.3942603 -0.17341003 -0.057102855 0.09118386
0001d0 e1 a0 12 3e f8 55 ce 3e 3d b0 de bd 35 80 06 be
       0.14319183 0.40299964 -0.108734585 -0.13134845
0001e0 d4 77 8b 3c f8 2b 74 3e 1e 84 ce bc 29 28 04 3d
       0.017024912 0.23844898 -0.025209483 0.032264862
0001f0 d4 cb 63 be b3 e3 c3 be ad bb 7b bd 8c d4 b2 be
       -0.22245723 -0.38259658 -0.06145828 -0.34927785
000200 76 36 3c be 6c 77 91 be d0 79 0f bf 97 04 ed bd
       -0.1838015 -0.28411424 -0.56045246 -0.11573141
000210 3c a6 fb 3e 6e 90 8b be a1 93 01 3e 7e 91 af 3e
       0.49150264 -0.2725863 0.12653972 0.3429069
000220 dd 37 87 3d 38 29 cf be 86 91 41 bf 4d fa e9 3d
       0.06602452 -0.40461135 -0.75612676 0.11424694
000230 2c 74 a5 be 05 67 98 be 85 40 cb bc 91 9b b2 3e
       -0.32315195 -0.29766098 -0.024811039 0.34884313
000240 f1 c9 16 be 59 a5 d6 bd 3b 21 58 be 83 0d 6c 3e
       -0.14725472 -0.10480756 -0.21106426 0.2305203
000250 7d 89 8a 3e 32 29 65 bd e4 f0 45 be b6 53 59 3e
       0.2705802 -0.05594749 -0.19330174 0.2122334
000260 c9 b3 a5 bd d1 ce 68 bd 7b 30 31 be ba bb 45 3e
       -0.08090932 -0.05683786 -0.1730365 0.19309893
000270 3d 39 00 be d5 83 44 3d 3c cf d3 3e 05 0c 9d bd
       -0.12521835 0.047977287 0.41369045 -0.07668308
000280 88 24 59 3d 4d 58 0c 3e 90 73 82 3d 30 43 38 3e
       0.053013355 0.13705559 0.06369698 0.1799438
000290 6c e9 98 bd ab 31 c6 3d c8 7a 99 3d d6 31 bb 3b
       -0.07466397 0.09677442 0.07494122 0.005712728
0002a0 96 73 b4 bb 37 68 4b 3e 1c 73 ea bb ad 47 c7 be
       -0.005506943 0.19863974 -0.0071548354 -0.38921872
0002b0 f3 09 ad be a8 93 59 bd 1b df 01 bd 61 58 be bd
       -0.33796653 -0.05311933 -0.03170691 -0.09294201
0002c0 df c1 d9 bd f8 0b 98 3c a0 cc f1 bd 15 46 90 3e
       -0.10632681 0.018560395 -0.11806607 0.28178468
0002d0 bc 31 f6 3d dd 0f 93 3e 31 8f 8e 3d e0 7e e8 bc
       0.12021205 0.2872304 0.06960905 -0.028380811
0002e0 02 cd 48 3e 68 ba 08 3e 07 01 a0 3e 8e 00 6f bb
       0.19609454 0.13352358 0.31250784 -0.0036468836
0002f0 b1 f6 a7 3c 60 82 a8 3d ae 3f 80 bd 30 ea 95 be
       0.020503374 0.08227992 -0.06262146 -0.29280233
000300 10 2f ca 3d 70 32 da bd a3 41 fa 3c 1a 36 a1 bd
       0.09872258 -0.106541514 0.030548876 -0.07871647
000310 49 c8 6d 3e 4e 92 ca 3d f7 a4 2c 3c 59 98 ed 3d
       0.23220934 0.09891187 0.010537378 0.11601324
000320 3b ee 74 3e 6c 56 de 3d 75 dd 16 bd dd 4b bd 3e
       0.23919003 0.108563274 -0.03683229 0.36971942
000330 4d 0f cb 3e 45 40 bb 3c d7 5f 76 be c8 1a 86 bd
       0.3966011 0.022857795 -0.24059997 -0.06548077
000340 fc ed b0 3c be d5 4d 3e 3a ef 8c bd 58 b2 68 be
       0.021597855 0.20101067 -0.06881566 -0.22724283
000350 d7 33 7d 3e dd ec 8d 3d 4f 1c 74 3c 8c 3a 92 3d
       0.24726807 0.06929944 0.014899327 0.07140073
000360 6e 96 22 be 15 f4 b6 3d 0b 3e 0d be 60 17 1a 3d
       -0.15877697 0.08933274 -0.13793199 0.03761995
000370 7d 54 36 3e 68 da 11 3e c3 47 08 be 12 64 b4 be
       0.17805667 0.14243472 -0.13308625 -0.35232598
000380 f2 0b f7 bd 9f 48 78 3d 86 e7 39 bc cd 0f 53 3d
       -0.12062825 0.060616132 -0.011346703 0.05152874
000390 66 d3 e3 bb 41 30 07 3e e0 57 d2 bd bc ed b2 3d
       -0.006952691 0.13202001 -0.10270667 0.087367505
0003a0 a2 de 71 3d c9 63 54 3d 1d a3 93 3d 48 60 88 bd
       0.05905021 0.051852975 0.07208846 -0.06658989
0003b0 9f 5c b8 3d cf 5f 22 3e 35 26 a3 bc ac fc 28 3e
       0.09002041 0.1585686 -0.01991568 0.16502637
0003c0 3c 97 b1 be 7b 90 85 3c e4 3b 26 3e 91 02 58 3d
       -0.34685695 0.016304245 0.16233784 0.052736823
0003d0 8b f4 88 be 90 e3 a7 be 7f ef 5f bd da ab 00 be
       -0.2674907 -0.32790804 -0.05467176 -0.12565556
0003e0 37 34 1c 3d 91 ab a7 3d 50 4b 5c 3b 03 94 46 bd
       0.038135733 0.081870206 0.0033614226 -0.048481
0003f0 42 ee 53 be a1 fd 96 3e e6 c5 38 be 34 8c 20 3d
       -0.20696357 0.29490378 -0.18044242 0.039196208

linears.5.bias f4 [40]
000000 03 99 38 bc 7d 19 0f 3d 99 57 0d bd 92 49 31 bd
       -0.01126695 0.034936417 -0.034507368 -0.043283053
000010 d2 e8 9f 3c 6b 7c e4 bc 3f 1f 33 bc f1 2c a4 3d
       0.019520197 -0.027891358 -0.010932743 0.080163844
000020 8f 0e 24 3d 42 af b7 3c 16 8c 02 3d 82 b9 51 bd
       0.040052947 0.022422437 0.031871878 -0.051202305
000030 ca 0c e7 3b 61 0c 06 3a 10 8f 2f bd ba 46 b4 bc
       0.007051085 0.0005113539 -0.042861044 -0.022006381
000040 30 69 b6 bc de 15 8e 3c b2 15 ca bc b9 fb 0b bd
       -0.022266954 0.017344411 -0.024668548 -0.03417561
000050 11 b2 1c 3d ee 17 11 3d ec 92 d4 bc a3 a0 5f 3c
       0.038255755 0.03542321 -0.025948964 0.013649139
000060 6d 02 15 3c b7 18 94 3c d9 87 f0 bc cc 12 89 3c
       0.009094817 0.018078191 -0.029361652 0.016732596
000070 86 5b 29 bd 97 b5 d5 3c d6 8a c1 bc 25 78 fe bc
       -0.04134705 0.026087565 -0.023625772 -0.031063149
000080 69 9d 71 3d 9c d0 c4 3c 8a 82 a7 3c 6d 0e 7a bc
       0.05898801 0.024025254 0.020447988 -0.015262228
000090 b0 ee 0e 3d 26 69 58 bc 4a 50 db 3a 22 d9 c8 3c
       0.0348956 -0.013208663 0.0016732302 0.0245176

linears.6.weight f4 [1, 40]
000000 be 4b e2 3d e6 fc 3b be 75 d1 69 3e 60 22 ba 3d
       0.11049603 -0.18358192 0.22833808 0.09088588
000010 6c 9c 52 bd c0 ad 0d 3e 2e bd 98 3e 3a a6 91 3c
       -0.051418707 0.13835812 0.29831833 0.017779458
000020 dc 01 49 be 9a b0 a8 bd 02 01 34 be 37 11 66 3e
       -0.19629616 -0.08236809 -0.1757851 0.22467504
000030 80 08 13 3e c6 d9 23 bf d1 f9 f6 3c b0 d4 fb 3e
       0.14358711 -0.6400417 0.030148419 0.49185705
000040 6b f5 cf 3e b6 d4 19 bf 10 f6 ba 3d 50 63 b9 3e
       0.40616927 -0.60090196 0.09128964 0.36208582
000050 6d 96 54 be 15 61 3e be bd 4f 5b 3e 87 bd c8 be
       -0.20760508 -0.18591721 0.21417136 -0.39207098
000060 bf 91 93 be 9c f9 2e bf 7e 09 1f 3e a6 7b 1d be
       -0.28822133 -0.68349624 0.15530965 -0.153792
000070 90 82 97 3e e6 e4 a4 be 29 90 98 3d c5 01 1d 3d
       0.295918 -0.32205886 0.07449371 0.038331766
000080 1f e1 ca bd 47 96 c2 be a4 91 95 be 58 e0 fb 3d
       -0.0990622 -0.38005278 -0.29212677 0.122986495
000090 5d 30 b7 be fb 13 f9 3d 8a 03 39 3d d0 9e 59 be
       -0.35779086 0.12162014 0.04516939 -0.21251988

exp_avg f4 [40, 2]
000000 0d 43 ab b9 1b 69 2f 39 60 12 b0 b9 b3 5c ba b7
       -0.00032665618 0.00016728455 -0.00033583026 -2.2216094e-05
000010 d6 05 62 3a 5a 54 93 39 b0 a3 40 3a e9 59 04 39
       0.00086220854 0.00028100872 0.000734861 0.00012621995
000020 8e 11 67 b8 b6 56 fe 38 43 ac 9b 3a ba 87 19 39
       -5.509104e-05 0.00012127815 0.00118769 0.00014641779
000030 43 4e 64 3a ca 71 21 3a d3 72 d5 39 63 06 29 b8
       0.00087091717 0.00061586185 0.00040712077 -4.0298688e-05
000040 ae ba 9b 39 51 b2 3f 39 a0 39 d1 38 61 1b a8 b8
       0.0002970299 0.00018281607 9.97663e-05 -8.015964e-05
000050 44 93 44 3a 97 14 9c 36 7b 21 de 39 00 56 8a b9
       0.0007498751 4.6515593e-06 0.00042368085 -0.00026385486
000060 1c 4b b0 ba 71 bb be b9 11 0c 50 3a 20 57 b5 39
       -0.0013450119 -0.0003637928 0.00079363683 0.00034587923
000070 b6 03 3e bb 5e 62 2d ba c2 6e f7 38 9c 24 cb b9
       -0.002899391 -0.0006614084 0.00011798508 -0.00038746453
000080 35 f8 0d 3a 0c c5 40 b9 7b dc 43 3a 1e 62 0c 39
       0.0005415709 -0.00018383953 0.0007471514 0.00013387992
000090 b2 55 94 b9 b0 7d 99 37 25 d5 bc 39 62 36 a1 37
       -0.00028292608 1.829755e-05 0.0003601696 1.921802e-05
0000a0 69 74 e7 b9 0a d1 a5 b7 9e 1a ff b3 59 57 5e 38
       -0.00044146486 -1.9766874e-05 -1.18792045e-07 5.3010273e-05
0000b0 7a d2 86 39 78 d9 36 39 0a 15 21 ba f7 eb 55 b9
       0.0002571529 0.00017437886 -0.00061447977 -0.00020401167
0000c0 e8 e7 91 3a 5e 81 f8 37 b7 0e b7 39 2a ff ea 38
       0.0011131736 2.9624145e-05 0.00034915443 0.000112055175
0000d0 4b 8c e1 39 06 82 11 37 83 85 26 bb dc 32 15 ba
       0.0004301987 8.672947e-06 -0.002540917 -0.00056914776
0000e0 25 0c a4 3a 82 7b 2c 39 96 8b cd 3a f5 d2 b9 39
       0.0012515826 0.00016449208 0.0015681859 0.00035443125
0000f0 39 8a 7f ba 09 1c 8f b9 ff 30 29 3a bd 04 7f b6
       -0.0009748075 -0.00027295973 0.00064541394 -3.800072e-06
000100 b6 c5 e9 39 8d 25 9b 39 93 5f 4b ba 21 d9 3a 39
       0.0004458853 0.0002959188 -0.0007758077 0.00017819229
000110 4a 4b 0e bb 8e ef cf b9 8d 3e f7 39 c8 a8 fc 38
       -0.0021712356 -0.000396606 0.00047158115 0.00012047734
000120 83 8c 82 ba b9 88 ce b8 d9 50 1a b9 96 0f fa b8
       -0.0009960089 -9.848312e-05 -0.00014716703 -0.00011923832
000130 e9 9d 99 3a e5 b3 e3 39 6a 37 bb ba 68 4b 04 b9
       0.0011720035 0.00043430846 -0.0014283482 -0.00012616592

exp_avg_sq f4 [40, 2]
000000 5b 07 7d 38 3e b0 5d 38 58 a9 fe 38 70 4c 98 36
       6.032675e-05 5.2854644e-05 0.000121432065 4.5388515e-06
000010 f4 25 0a 3a bf 52 c6 38 4a 7b c5 39 94 69 db 37
       0.00052699377 9.4567884e-05 0.00037666626 2.6155998e-05
000020 78 75 27 37 aa 44 75 37 c2 a1 84 3a ed 3b da 37
       9.981326e-06 1.4619125e-05 0.0010119008 2.601553e-05
000030 8c 90 26 3a d2 4d d3 39 7f 9f 1f 39 84 81 45 36
       0.00063539366 0.00040303037 0.00015222839 2.9430676e-06
000040 24 03 3d 38 b3 6e 21 38 9d 42 56 37 39 04 22 37
       4.5064036e-05 3.8488488e-05 1.2770904e-05 9.656936e-06
000050 df fc cb 39 b8 9b b7 36 5d a3 f0 38 ba 8a df 38
       0.0003890758 5.471953e-06 0.000114745206 0.000106593085
000060 70 95 a0 3a 0d cf d8 38 c9 e8 f8 39 f5 66 d9 38
       0.0012251567 0.00010338249 0.00047475685 0.000103665436
000070 9a e1 ce 3b 01 6f c2 39 a2 e5 16 37 ab 7f 5d 39
       0.006313515 0.00037085268 8.994162e-06 0.00021123762
000080 07 0d 53 39 08 31 a7 38 2c cc d0 39 ba e9 46 38
       0.00020127381 7.972313e-05 0.00039824971 4.7424553e-05
000090 3e 66 59 38 fd b1 97 35 44 59 b6 38 66 8b f9 34
       5.1832052e-05 1.1302178e-06 8.695063e-05 4.648129e-07
0000a0 d3 d6 d7 38 d4 64 c7 35 4e 3f 66 35 58 36 2a 36
       0.00010292013 1.4856e-06 8.57738e-07 2.5363606e-06
0000b0 ba fb 45 38 0d 2f 45 38 e4 4f 9e 39 30 31 62 38
       4.72029e-05 4.701228e-05 0.00030195632 5.392841e-05
0000c0 a4 4c 7e 3a 72 45 7a 36 47 11 d3 38 76 6a aa 37
       0.00097007514 3.7293325e-06 0.00010064482 2.0315154e-05
0000d0 c0 d1 09 39 56 ff 82 35 2d b9 9b 3b 2e c4 70 39
       0.00013143476 9.760067e-07 0.0047522993 0.00022961266
0000e0 70 b7 94 3a b2 eb be 37 4c 26 e9 3a 0e 24 3c 39
       0.0011346173 2.275952e-05 0.0017787903 0.00017942509
0000f0 e6 97 45 3a 25 a9 bc 38 b8 d8 8a 39 cb 92 87 36
       0.0007537588 8.996044e-05 0.0002648288 4.0404025e-06
000100 d6 68 53 39 c7 5a 08 39 65 8e e9 39 32 d3 24 38
       0.00020161583 0.00013003788 0.00044547315 3.9297338e-05
000110 91 e4 6c 3b 8e b6 7f 39 cf d3 2d 39 5d 05 a3 37
       0.0036146978 0.00024386702 0.0001657747 1.9433612e-05
000120 16 83 51 3a cd a2 36 37 f5 f0 87 37 c5 4d b3 37
       0.00079922506 1.088595e-05 1.6205458e-05 2.1374677e-05
000130 e6 a5 8e 3a fc 9a 79 39 21 68 e8 3a 14 37 8a 38
       0.0010883182 0.00023804227 0.0017731228 6.590612e-05
