pdebench/models/newly_trained_models/Advection/PINN/1D_Advection_Sols_beta4.0_PINN.pt-15000.pt (torch, 119037 bytes, 39 tensors)

linears.0.weight f4 [40, 2]
0.43434522 -0.043269325 0.052316584 0.5691636 -0.07900831 0.25528556 -0.03938623 0.34860903
0.0017946344 -0.106386974 -0.41221893 0.012719726 0.00066078076 -0.10822361 -0.18440308 -0.10598315
0.12991518 0.1621178 -0.28881565 -0.2085234 -0.17321335 0.1604571 -0.18775856 0.033407494
0.35618755 -0.029788144 0.06316583 0.026565716 0.26274347 -0.13771619 -0.3049767 0.07533762
-0.400403 0.047940213 0.07500942 0.4835782 0.12700248 0.28129095 -0.16801111 -0.086754784
0.05143102 -0.10438125 0.109851 0.13603644 0.1872828 -0.36221382 -0.1963039 0.2932271
-0.17003421 0.0072503076 0.094593756 -0.35510427 -0.2088837 -0.10037165 0.27669364 -0.12862477
-0.23623252 -0.047491714 -0.036183164 0.29540187 0.08409724 0.035151526 -0.268822 0.23691268
0.14139955 -0.28592777 0.4627309 -0.042591956 0.18343067 0.2602214 0.1529398 0.20818026
0.0653286 0.17236985 -0.13509755 -0.083380215 0.0101222815 0.15752794 0.4287705 0.23438573
00000000: 7f62 de3e 2d3b 31bd ea49 563d b5b4 113f
00000010: 1ccf a1bd cab4 823e 7553 21bd e27c b23e
00000020: f039 eb3a 6ae1 d9bd 5c0e d3be 6666 503c
00000030: 3f38 2d3a 57a4 ddbd 29d4 3cbe b20d d9bd
00000040: 7c08 053e 3502 263e a5df 93be 2887 55be
00000050: d75e 31be de4e 243e c843 40be 4cd6 083d
00000060: 375e b63e 4406 f4bc 165d 813d 58a0 d93c
00000070: 5086 863e 7905 0dbe e825 9cbe 9c4a 9a3d
00000080: 9f01 cdbe f55c 443d 8a9e 993d 9097 f73e
00000090: f00c 023e 5e05 903e 1b0b 2cbe 7eac b1bd
000000a0: 55a9 523d d6c5 d5bd 90f9 e03d 234d 0b3e
000000b0: 10c7 3f3e 1774 b9be e403 49be dd21 963e
000000c0: 731d 2ebe fd93 ed3b 5fba c13d 3ad0 b5be
000000d0: 9ce5 55be a78f cdbd caaa 8d3e 36b6 03be
000000e0: f0e6 71be ac86 42bd cc34 14bd ea3e 973e
000000f0: 2c3b ac3d 0cfb 0f3d 0aa3 89be 3d99 723e
00000100: 0bcb 103e 2065 92be 11eb ec3e e774 2ebd
00000110: 40d5 3b3e bd3b 853e 409c 1c3e 352d 553e
00000120: 00cb 853d b981 303e 0357 0abe 3fc3 aabd
00000130: edd7 253c 014f 213e cf87 db3e d002 703e

linears.0.bias f4 [40]
0.027114559 -0.060546465 0.068021305 0.04532889 0.038455173 0.08456006 0.070878915 0.07340486
0.059343763 -0.02116302 0.024382126 -0.05572872 -0.12063584 0.09276034 -0.061456446 -0.06522258
-0.027553316 0.052019384 -0.033357177 0.028380254 -0.031157099 -0.05873345 0.087399215 -0.058284633
0.002039946 0.07127546 0.00786943 -0.07265116 0.08647966 0.059595298 -0.068570174 0.0025962966
0.072154604 -0.04146214 -0.10717474 0.09704899 -0.082927644 -0.065490425 0.09465162 -0.097657375
00000000: 5a1f de3c 92ff 77bd c14e 8b3d c9aa 393d
00000010: 2c83 1d3d d32d ad3d f728 913d 4a55 963d
00000020: 7212 733d 125e adbc 06bd c73c cc43 64bd
00000030: ec0f f7bd 22f9 bd3d c1b9 7bbd 6b93 85bd
00000040: 7eb7 e1bc 4712 553d 89a1 08bd b57d e83c
00000050: 2c3d ffbc 7c92 70bd 5cfe b23d debb 6ebd
00000060: 9db0 053b def8 913d c8ee 003c 22ca 94bd
00000070: 3f1c b13d 331a 743d 856e 8cbd a126 2a3b
00000080: cbc5 933d 34d4 29bd 6e7e dbbd 9fc1 c63d
00000090: f8d5 a9bd d81f 86bd b5d8 c13d 9700 c8bd

linears.1.weight f4 [40, 40]
-0.08949916 0.08094912 -0.076140255 -0.048529178 -0.052707054 -0.14139757 0.043660264 0.16363911
-0.010420568 -0.08554345 0.1526149 -0.15064114 0.033248633 -0.2653638 0.43692043 -0.20291895
-0.22946584 0.08031465 0.076662816 -0.16378623 -0.14198756 -0.10304802 -0.19053338 -0.20553672
-0.16451277 -0.15002194 -0.16423593 0.12820463 -0.03726726 0.16143592 0.110699445 0.10733915
0.21489818 0.17262451 0.17658468 -0.123352796 -0.19561881 0.28209686 -0.47846428 0.33932772
-0.43997478 -0.0740308 0.054467 0.016689867 -0.029167844 0.29207703 -0.20283988 0.27198127
-0.05215606 -0.11535816 0.15063928 0.12731332 -0.14650145 -0.19617863 -0.2584443 0.5964849
0.30560264 -0.30091417 -0.24370359 0.44791794 0.056197565 0.10035839 -0.18693447 0.12297499
0.5199865 -0.19116993 0.077989474 -0.3747483 -0.16245712 0.09531046 0.06412345 0.18652445
-0.44020355 -0.17698537 -0.06328274 -0.16653277 -0.051129352 0.2694292 -0.38292852 -0.12405164
-0.16569637 0.12686868 0.093627974 0.19545154 0.1310284 0.0819679 0.06808629 -0.20743945
-0.024563726 0.25171214 0.173055 -0.10057151 -0.40281743 0.030669771 -0.14716765 -0.051090367
-0.06370606 -0.2335286 -0.33844402 -0.06508064 0.059363138 0.13089871 0.04102343 -0.03147328
0.25680056 -0.0005021544 -0.19674167 0.11414492 -0.015761498 0.19742823 0.3817393 0.16790165
-0.128395 0.47013247 -0.24531443 -0.188444 -0.1118958 0.08837805 0.060858164 -0.0737446
-0.114059895 -0.1257076 0.103422225 0.24741538 0.14540768 0.117532946 0.22417273 -0.24383314
0.15974599 -0.11494882 -0.22021513 0.021021647 -0.042349145 -0.1252057 0.117956534 -0.16869387
-0.26756582 0.24924056 0.1386148 0.07797792 0.22068015 -0.010234625 -0.05888183 -0.08547418
-0.14327578 0.029322078 -0.24069597 0.5005653 -0.12866507 0.073139116 -0.11914521 0.3678717
-0.096581236 0.1824463 0.051979307 -0.23275556 -0.19959716 0.13783394 -0.14866035 0.042368975
0.23027061 -0.047441166 0.016062092 -0.24163207 -0.13940293 -0.1370996 0.052383192 0.24171309
0.03765974 0.15418084 -0.22151831 -0.044573206 0.21532871 -0.00535773 -0.24360424 0.29578108
-0.08603763 -0.21324567 -0.016694393 0.043617047 0.24845886 -0.11130774 0.0120576415 0.11604317
0.15904608 0.26383555 -0.18043666 -0.0125250565 0.0018781078 0.033939634 -0.15020128 -0.4635191
-0.23315005 0.22923392 -0.17163563 0.11868959 -0.19710883 0.2638285 0.0029389933 0.069954105
0.052630037 0.05393792 0.10099859 -0.08982816 -0.013447556 -0.000107161584 0.13028198 -0.28853917
-0.029652452 0.11679934 0.050030507 -0.09822388 -0.1295287 -0.17471726 0.33433354 -0.20660391
-0.24503231 -0.11020834 0.096590966 -0.24276075 -0.10386478 -0.1804145 0.16749336 0.10806104
-0.12550868 -0.048933778 0.13540834 0.23259595 -0.21544199 -0.23456839 0.057630118 -0.1426787
-0.15115978 0.16874132 -0.05701136 0.20417915 0.10019572 0.004334818 0.3479365 -0.090992525
0.087129995 -0.32894474 0.0022172956 -0.07587486 0.19337693 -0.14175095 0.2337129 0.05968236
-0.093074 0.1588428 -0.17715576 -0.14068605 0.07730338 -0.16509405 -0.036235172 0.0692465
00000000: 564b b7bd a7c8 a53d 6cef 9bbd 88c6 46bd
00000010: 5ae3 57bd 86ca 10be 1bd5 323d 0391 273e
00000020: 08bb 2abc 6831 afbd 1547 1c3e ac41 1abe
00000030: b82f 083d c4dd 87be 09b4 df3e fcc9 4fbe
00000040: 18f9 6abe 027c a43d 6501 9d3d 94b7 27be
00000050: 3065 11be d70a d3bd 2f1b 43be 3878 52be
00000060: 0976 28be 5a9f 19be 772d 28be 1348 033e
00000070: 8ea5 18bd 754f 253e 64b6 e23d a1d4 db3d
00000080: 450e 5c3e 7bc4 303e 9dd2 343e 64a0 fcbd
00000090: 4c50 48be 006f 903e 45f9 f4be 5dbc ad3e
000000a0: 6044 e1be 769d 97bd ca18 5f3d 30b9 883c
000000b0: 67f1 eebc 1f8b 953e 42b5 4fbe 2141 8b3e
000000c0: 98a1 55bd e640 ecbd 2f41 1a3e 6c5e 023e
000000d0: 7a04 16be 0de3 48be d052 84be 3cb3 183f
000000e0: f377 9c3e 6c11 9abe 6f8d 79be 8055 e53e
000000f0: 6b2f 663d b388 cd3d c06b 3fbe 50da fb3d
00000100: d61d 053f 0dc2 43be f2b8 9f3d 02df bfbe
00000110: 295b 26be 2132 c33d 2853 833d 4400 3f3e
00000120: 5c62 e1be a73b 35be 629a 81bd 9187 2abe
00000130: 036d 51bd a0f2 893e 350f c4be c90e febd
00000140: 4fac 29be dde9 013e 06c0 bf3d 7324 483e
00000150: 4f2c 063e c9de a73d d370 8b3d 026b 54be
00000160: de39 c9bc 6ae0 803e 5435 313e 70f8 cdbd
00000170: 163e cebe 2c3f fb3c 1eb3 16be 2244 51bd
00000180: 5378 82bd 1f22 6fbe 8948 adbe 0049 85bd
00000190: c326 733d 500a 063e 2f08 283d 20ea 00bd
000001a0: 5d7b 833e 03a3 03ba a676 49be d0c4 e93d
000001b0: 421e 81bc a02a 4a3e 5573 c33e 69ee 2b3e
000001c0: fb79 03be 34b5 f03e b533 7bbe 77f7 40be
000001d0: a029 e5bd 8dff b43d 6946 793d 6907 97bd
000001e0: 3c98 e9bd 7eb9 00be 08cf d33d 755a 7d3e
000001f0: c0e5 143e 1db5 f03d 898d 653e 65af 79be
00000200: 7494 233e 496a ebbd 1380 61be 9735 ac3c
00000210: 4c76 2dbd ec35 00be 3293 f13d 16be 2cbe
00000220: 63fe 88be eb38 7f3e 0af1 0d3e e3b2 9f3d
00000230: faf9 613e 21af 27bc 132e 71bd 160d afbd
00000240: e3b6 12be db34 f03c 0179 76be 0c25 003f
00000250: c7c0 03be f6c9 953d 6702 f4bd ae59 bc3e
00000260: 62cc c5bd 34d3 3a3e 41e8 543d 7957 6ebe
00000270: 3363 4cbe 5724 0d3e 6b3a 18be 178b 2d3d
00000280: 0fcc 6b3e ab51 42bd a694 833c 666e 77be
00000290: a4bf 0ebe d663 0cbe c28f 563d a383 773e
000002a0: 1941 1a3d 95e1 1d3e b2d5 62be 6592 36bd
000002b0: 217f 5c3e e68f afbb 6473 79be 9e70 973e
000002c0: 7f34 b0bd 135d 5abe aec2 88bc caa7 323d
000002d0: 006c 7e3e 50f5 e3bd 6a8d 453c 0ba8 ed3d
000002e0: fadc 223e 7415 873e 63c4 38be e535 4dbc
000002f0: d72a f63a 4904 0b3d 5dce 19be 6052 edbe
00000300: e3be 6ebe 4cbc 6a3e 40c1 2fbe 8713 f33d
00000310: e6d6 49be 8714 873e 209c 403b 1944 8f3d
00000320: 9892 573d 02ee 5c3d 59d8 ce3d d4f7 b7bd
00000330: 2353 5cbc f0bb e0b8 a468 053e 68bb 93be
00000340: b3e9 f2bc 7e34 ef3d caec 4c3d 9a29 c9bd
00000350: 2ca3 04be 15e9 32be c42d ab3e fa8f 53be
00000360: c0e9 7abe e9b4 e1bd 7cd1 c53d 4696 78be
00000370: 0fb7 d4bd 94be 38be 6183 2b3e 1b4f dd3d
00000380: 5985 00be c96e 48bd 7ca8 0a3e a22d 6e3e
00000390: d39c 5cbe b232 70be 8f0d 6c3d 5d1a 12be
000003a0: a1c9 1abe 86ca 2c3e be84 69bd 5714 513e
000003b0: 6a33 cd3d 170b 8e3b bc24 b23e 4a5a babd
000003c0: 3671 b23d 726b a8be 0c50 113b 4764 9bbd
000003d0: 9a04 463e 2927 11be 6f52 6f3e 7e75 743d
000003e0: 959d bebd b0a7 223e 5268 35be 0110 10be
000003f0: 3c51 9e3d 6a0e 29be 556b 14bd 1cd1 8d3d

linears.1.bias f4 [40]
-0.107336394 -0.086723566 0.07115111 0.052757148 -0.01408502 -0.022003477 0.055224314 -0.052541073
-0.04904005 0.057262193 -0.015007211 0.030701078 -0.00867812 0.12988381 0.08115557 0.08117349
-0.059960544 0.052493665 0.052908666 -0.013503658 -0.05723992 -0.03597185 0.03304216 0.049544655
-0.029689535 0.07620678 0.049077313 -0.1251974 0.032323405 0.051251564 0.033036444 0.087857865
0.053281467 0.03017869 -0.050149202 -0.10122118 -0.0076068407 0.06225749 -0.04542818 0.013836512
00000000: 2fd3 dbbd 209c b1bd acb7 913d e117 583d
00000010: dbc4 66bc a340 b4bc e432 623d 4f35 57bd
00000020: 38de 48bd c38b 6a3d cee0 75bc d480 fb3c
00000030: ac2e 0ebc 4300 053e e434 a63d 493e a63d
00000040: 3099 75bd 9903 573d c2b6 583d 723e 5dbc
00000050: 6874 6abd 3857 13bd 3757 073d 56ef 4a3d
00000060: 7837 f3bc 4d12 9c3d 4b05 493d bf33 00be
00000070: 8c65 043d 29ed 513d 3951 073d d3ee b33d
00000080: ab3d 5a3d 4d39 f73c 4069 4dbd 0d4d cfbd
00000090: ce42 f9bb b601 7f3d e612 3abd 8ab2 623c

linears.2.weight f4 [40, 40]
0.0042486982 0.2644278 0.068529285 0.18634637 -0.14025265 -0.065342076 -0.17026229 0.3739485
0.36962625 0.022348126 0.31697887 0.23998055 0.21496153 -0.08297956 -0.030929498 0.020041425
-0.18628138 0.13226022 -0.1586725 -0.0077862274 0.049539085 0.05091655 0.31361032 0.43154576
-0.03867623 -0.2097146 0.12518762 0.21447809 0.091092885 -0.18343769 0.14995393 0.094784446
0.0017088308 -0.06303779 0.17534281 -0.19658859 0.08414895 -0.18879177 -0.22133128 0.01911925
-0.121080935 0.15065385 -0.3400112 -0.0029040931 -0.36355406 -0.20075004 -0.6836371 0.060346205
-0.15313129 -0.11821274 0.11197009 -0.33272123 -0.018756876 0.06282498 0.33935526 -0.2459507
-0.14851446 -0.43026644 0.24690126 -0.025642209 -0.20120099 -0.39776087 0.21770686 -0.022748442
-0.11387013 -0.294133 -0.30877748 -0.044667438 -0.120768756 -0.110289596 -0.15950114 -0.27724618
-0.032006927 0.009733799 -0.20593168 0.0876442 0.20134935 -0.15699504 0.4443638 -0.50982076
0.18603282 -0.31653625 0.19320455 0.38428432 -0.41613474 0.047556743 -0.30302352 -0.045806542
-0.37785745 -0.07834996 0.14283487 0.12753475 -0.06120696 0.2878041 -0.14575534 -0.04709551
-0.008897464 0.099627964 -0.080068566 0.20678434 -0.31027004 0.08527261 0.37224847 0.21187213
0.1715241 0.04447748 0.3383 -0.20907451 0.35746548 -0.0063993307 0.23275042 0.1616863
0.044837657 -0.16854313 0.14081728 -0.07885174 -0.20151122 -0.12488188 -0.0797088 0.199504
-0.3265989 0.22878608 -0.00043558277 0.09742286 -0.19926777 -0.21450654 -0.37939388 0.020558266
0.15656976 -0.013073874 -0.25893793 -0.29164767 0.23757209 0.041776784 0.08590965 0.3404978
0.024259927 -0.043832827 -0.028379908 -0.16619849 -0.024227403 0.0438414 0.14957872 0.34282586
-0.37215102 -0.12266058 0.13600165 -0.10846907 0.13439335 0.009589229 -0.1636101 0.091653384
0.08595975 0.030027099 0.100815624 -0.15384874 -0.011265729 -0.16563822 0.09850712 0.0002497482
-0.028677152 -0.036556624 0.12387951 -0.02765443 -0.19186072 -0.083344124 -0.07310058 -0.050098125
0.19681749 0.12479713 0.46883237 0.039562188 0.21792397 -0.14023748 0.029362898 0.2509692
0.08240424 -0.23320271 -0.07005051 0.22425297 -0.191989 0.12998831 0.23733515 -0.104958616
0.259617 0.07770354 0.04275547 0.12258159 0.18940735 -0.14983529 -0.10825072 -0.038732197
-0.16428392 0.043717667 -0.012638669 0.24247082 -0.0014294591 0.162028 0.19963118 -0.032727048
0.18426248 -0.06337241 -0.07670705 0.09898754 0.26027355 0.13285756 0.06140351 0.05059851
0.12713866 0.026310427 0.063730784 0.42739657 0.084020734 -0.14796093 -0.16921826 -0.025102723
-0.06416486 0.18456887 0.24446043 -0.0049478235 0.034006882 -0.03734629 0.0020721725 -0.29261586
0.0055593885 -0.040653244 0.056992553 -0.069261074 0.050492533 0.011947095 0.22395939 0.070383936
-0.076393716 0.18545935 0.100747466 -0.036142066 -0.020136183 -0.0880479 0.35966823 0.25282046
0.1944996 -0.25700572 0.20199862 0.18672483 -0.05294985 0.23418552 0.12019314 0.084546074
-0.06622085 -0.01577717 0.17504457 0.08556877 -0.08626901 0.029073581 -0.07559008 0.33603337
00000000: aa38 8b3b 1563 873e 1559 8c3d 95d1 3e3e
00000010: 649e 0fbe 11d2 85bd 3d59 2ebe 2e76 bf3e
00000020: a73f bd3e 6b13 b73c 0e4b a23e 76bd 753e
00000030: e01e 5c3e 30f1 a9bd dc5f fdbc ea2d a43c
00000040: 8cc0 3ebe 396f 073e 0b7b 22be 9c23 ffbb
00000050: 7fe9 4a3d df8d 503d 8891 a03e 91f3 dc3e
00000060: f76a 1ebd 6dbf 56be 2f31 003e 25a0 5b3e
00000070: e88e ba3d 17d7 3bbe 868d 193e 591e c23d
00000080: d9fa df3a f519 81bd 118d 333e 854e 49be
00000090: 4956 ac3d a152 41be aba4 62be f99f 9c3c
000000a0: 48f9 f7bd 0145 1a3e f315 aebe 9952 3ebb
000000b0: c223 babe 6b91 4dbe d702 2fbf 952d 773d
000000c0: 73ce 1cbe 8519 f2bd 9350 e53d 705a aabe
000000d0: 05a8 99bc 62aa 803d f9bf ad3e 80da 7bbe
000000e0: 2d14 18be e24b dcbe afd3 7c3e 9c0f d2bc
000000f0: a207 4ebe 50a7 cbbe 8cee 5e3e f15a babc
00000100: be34 e9bd 9a98 96be 1518 9ebe 34f5 36bd
00000110: 9c55 f7bd 83df e1bd 4454 23be 36f3 8dbe
00000120: b219 03bd 837a 1f3c c1df 52be cd7e b33d
00000130: 862e 4e3e 4fc3 20be a783 e33e 9d83 02bf
00000140: 637f 3e3e 0a11 a2be 6ad7 453e eac0 c43e
00000150: 9d0f d5be dcca 423d e625 9bbe a49f 3bbd
00000160: 8876 c1be f275 a0bd 4e43 123e 7898 023e
00000170: 26b4 7abd 0f5b 933e e340 15be 39e7 40bd
00000180: abc6 11bc bf09 cc3d fdfa a3bd 46bf 533e
00000190: b7db 9ebe 68a3 ae3d 5a97 be3e 02f5 583e
000001a0: 03a4 2f3e 052e 363d a835 ad3e a117 56be
000001b0: b705 b73e 7ab1 d1bb 2056 6e3e 1891 253e
000001c0: b1a7 373d 9296 2cbe 6832 103e 057d a1bd
000001d0: f558 4ebe 12c2 ffbd 5e3e a3bd c74a 4c3e
000001e0: f937 a7be e646 6a3e ee5e e4b9 a385 c73d
000001f0: da0c 4cbe 9aa7 5bbe ea3f c2be cf69 a83c
00000200: d353 203e cd33 56bc 8393 84be d852 95be
00000210: 1946 733e 221e 2b3d 66f1 af3d ba55 ae3e
00000220: c1bc c63c 0d8a 33bd fb7c e8bc f02f 2abe
00000230: 8c78 c6bc 0a93 333d 2a2b 193e df86 af3e
00000240: 948a bebe 7835 fbbd 0444 0b3e 0825 debd
00000250: 699e 093e 241c 1d3c 6889 27be c5b4 bb3d
00000260: aa0b b03d 64fb f53c 6c78 ce3d 868a 1dbe
00000270: e493 38bc 119d 29be 1abe c93d a3f0 8239
00000280: 59ec eabc 66bc 15bd 8ab4 fd3d 8b8b e2bc
00000290: 2377 44be 53b0 aabd c2b5 95bd b133 4dbd
000002a0: 868a 493e a395 ff3d cc0a f03e f60b 223d
000002b0: 7627 5f3e 6a9a 0fbe 768a f03c 097f 803e
000002c0: 8ec3 a83d b1cc 6ebe a476 8fbd 92a2 653e
000002d0: c498 44be a81b 053e fc07 733e 8bf4 d6bd
000002e0: 85ec 843e 0923 9f3d 5c20 2f3d 0f0c fb3d
000002f0: 00f4 413e 6c6e 19be 8eb2 ddbd a7a5 1ebd
00000300: 0b3a 28be 4c11 333d 6c12 4fbc 454a 783e
00000310: b05c bbba abea 253e 1e6c 4c3e cc0c 06bd
00000320: 4eaf 3c3e 65c9 81bd 9618 9dbd fbb9 ca3d
00000330: 9342 853e d00b 083e 3f82 7b3d 6240 4f3d
00000340: a330 023e f788 d73c 4985 823d b9d3 da3e
00000350: 1013 ac3d 1283 17be 8d47 2dbe 3aa4 cdbc
00000360: de68 83bd 9fff 3c3e d653 7a3e 5a21 a2bb
00000370: cd4a 0b3d 6cf8 18bd 49cd 073b bfd1 95be
00000380: 882b b63b 0484 26bd 0671 693d c0d8 8dbd
00000390: 42d1 4e3d c0bd 433c 9c55 653e 7425 903d
000003a0: 4f74 9cbd 0ee9 3d3e b054 ce3d b409 14bd
000003b0: a3f4 a4bc 7552 b4bd 6f26 b83e af71 813e
000003c0: e72a 473e 4196 83be bad8 4e3e cb34 3f3e
000003d0: f1e1 58bd 54ce 6f3e d227 f63d 7e26 ad3d
000003e0: cc9e 87bd 203f 81bc e23e 333e ae3e af3d
000003f0: cfad b0bd b82b ee3c f9ce 9abd 910c ac3e

linears.2.bias f4 [40]
-0.0050797146 -0.113000505 0.13930838 0.04586573 -0.035672106 -0.014245321 0.027790124 -0.0640783
-0.018613733 -0.05046217 0.038485873 -0.0018296279 -0.05538897 -0.050711863 -0.038005214 -0.0634424
-0.14560018 -0.004277808 0.026154634 -0.037356373 -0.07349823 0.05200637 -0.04467578 -0.0269326
0.017328933 0.047984794 -0.009908256 -0.01388315 -0.009305477 0.047739305 -0.0055555673 -0.0629341
0.0323449 0.015546472 -0.046351556 0.028821409 -0.078589864 -0.031578686 -0.1692906 -0.035631634
00000000: bc73 a6bb cf6c e7bd dba6 0e3e b4dd 3b3d
00000010: ea1c 12bd 3565 69bc 1da8 e33c 7c3b 83bd
00000020: d47b 98bc 6cb1 4ebd 5da3 1d3d 20d0 efba
00000030: 8bdf 62bd 3eb7 4fbd 5bab 1bbd 17ee 81bd
00000040: 3718 15be db2c 8cbb 3e42 d63c ff02 19bd
00000050: 3d86 96bd a204 553d f3fd 36bd c2a1 dcbc
00000060: 68f5 8d3c b48b 443d 3d56 22bc 2776 63bc
00000070: 0076 18bc 4a8a 433d 7a0b b6bb 98e3 80bd
00000080: 167c 043d a1b6 7e3c 21db 3dbd e01a ec3c
00000090: b9f3 a0bd a758 01bd 845a 2dbe 7af2 11bd

linears.3.weight f4 [40, 40]
0.09895682 -0.119351774 0.18016638 0.18012507 0.036778368 0.11200962 0.033152338 -0.123106815
-0.047535583 -0.35258648 0.112936616 0.23734073 -0.14209576 -0.34690782 -0.05472625 0.2946852
0.059585795 0.1764429 -0.014963171 -0.43565577 0.025730927 -0.0019411687 0.09353858 0.008272736
-0.07132385 -0.18148325 0.09030955 0.21516664 -0.2154444 -0.03071192 0.10672595 0.035810176
0.048776127 0.40751338 -0.083860055 0.093389206 -0.35938323 -0.33683366 0.0281786 -0.28855386
0.097186774 0.2141192 -0.26917082 0.26254013 -0.22895622 0.29658702 -0.23295593 0.1766834
-0.034438234 -0.1534437 -0.13924998 -0.03978191 0.31204262 0.12875071 0.1252939 -0.15145926
0.06970669 -0.08955229 -0.05580255 0.20741355 0.058856968 -0.20109855 0.3140664 0.10311207
-0.14341024 -0.097780466 0.20016657 0.14107095 0.46790066 -0.39564383 3.7277485e-05 0.14520258
0.15451977 -0.026892446 0.15329228 -0.045364078 -0.030826433 0.120081745 0.21964808 -0.038203236
-0.06991708 -0.10140287 0.08136402 0.19673109 -0.022909448 -0.10216617 0.03374827 -0.15274614
0.015254847 0.27086964 0.15353371 0.16295482 -0.17056914 0.030039614 0.11774567 -0.3036216
-0.282812 0.04173635 -0.01747084 0.31178313 -0.007848849 0.09629513 -0.18081743 -0.042859647
0.26077047 -0.10424071 -0.020314485 0.036996443 0.027976412 0.106857285 -0.032188714 -0.03344336
0.2827764 -0.28903183 0.11282823 0.08300146 0.29813194 -0.0025852453 -0.10625584 0.026448825
-0.022407262 -0.26257533 -0.048295163 0.0228149 0.18315668 0.08487565 0.010428137 0.30815494
0.545056 -0.39135468 -0.14681834 0.0060398974 -0.07210539 -0.077724434 0.016759211 0.16816024
0.06761114 0.061094675 0.070885696 -0.19329108 0.058784477 0.20625398 -0.06654208 0.14714652
0.11033627 -0.21059899 0.1347907 -0.12835762 -0.15275185 -0.059570264 0.049686298 0.046869356
0.538575 0.352615 0.3935838 0.058523767 -0.20470957 -0.041627057 0.23070577 0.028285647
-0.04181073 0.49373448 -0.09406348 0.14546087 -0.40912178 0.058069542 0.03147335 -0.20391995
-0.1622837 0.03327555 -0.23514348 -0.053086307 -0.027514897 0.15984331 -0.44997486 0.028628502
0.10931787 -0.0079507185 0.035373103 0.20613013 0.26761556 -0.087573655 -0.15957627 -0.103971206
-0.06333622 0.12730125 -0.18431224 -0.0008435559 0.07069092 -0.097624734 -0.17493998 -0.14835463
-0.04535977 -0.20703462 -0.06425501 -0.0698299 0.20970502 -0.22739835 -0.20345138 -0.13211943
0.11746718 -0.26999322 0.2488382 -0.14704862 0.06070592 -0.20167921 -0.15881237 0.124588005
-0.1392018 0.030930934 -0.029059526 -0.1690107 -0.113395594 0.013613321 0.046703577 -0.27250633
-0.15567833 0.14722605 0.055791587 -0.014256647 -0.4271255 0.30379322 0.11274003 -0.14012857
0.054801486 0.081617154 0.018589864 -0.14852175 0.2536821 0.003140318 0.25632685 -0.06882365
-0.07476107 0.19164123 -0.078215875 -0.21016371 -0.17804836 0.08527053 -0.21623343 -0.13868019
-0.042991772 0.2863388 -0.27022377 0.21526995 0.1610092 0.014399455 -0.19015075 0.18010612
-0.0090835765 0.20744404 -0.08884597 0.18294798 0.2616083 0.2603708 5.905726e-05 0.12176413
00000000: e0a9 ca3d b46e f4bd 897d 383e b572 383e
00000010: eaa4 163d 4d65 e53d bfca 073d 6d1f fcbd
00000020: acb4 42bd 3786 b4be 504b e73d 7309 733e
00000030: 8d81 11be e79d b1be a228 60bd fbe0 963e
00000040: 3c10 743d 73ad 343e 1728 75bc 460e dfbe
00000050: aac9 d23c d06e feba 2891 bf3d 5f8a 073c
00000060: 3d12 92bd bfd6 39be 37f4 b83d a554 5c3e
00000070: 759d 5cbe 9097 fbbc 2393 da3d b1ad 123d
00000080: 7ac9 473d 98a5 d03e d2be abbd d742 bf3d
00000090: 1401 b8be 7675 acbe cfd6 e63c 55bd 93be
000000a0: dc09 c73d 1042 5b3e c2d0 89be a96b 863e
000000b0: 8073 6abe 41da 973e 008c 6ebe 7eec 343e
000000c0: 1b0f 0dbd 5820 1dbe 8c97 0ebe 5bf2 22bd
000000d0: 0dc4 9f3e 3ad7 033e 0b4d 003e 2318 1bbe
000000e0: 62c2 8e3d 3167 b7bd 3791 64bd 3864 543e
000000f0: 0114 713d c7ec 4dbe 50cd a03e 6c2c d33d
00000100: 22da 12be 2041 c8bd 77f8 4c3e e774 103e
00000110: ad90 ef3e d491 cabe 655a 1c38 fcaf 143e
00000120: 6e3a 1e3e 8c4d dcbc a7f8 1c3e afcf 39bd
00000130: b787 fcbc 6bed f53d 6deb 603e ff7a 1cbd
00000140: b030 8fbd 4fac cfbd 2ea2 a63d e073 493e
00000150: 98ac bbbc 7f3c d1bd a03b 0a3d 7c69 1cbe
00000160: 77ef 793c 6daf 8a3e f137 1d3e a1dd 263e
00000170: ada9 2ebe a315 f63c a424 f13d 4a74 9bbe
00000180: bccc 90be bcf3 2a3d 021f 8fbc 0aa2 9f3e
00000190: 7598 00bc 6236 c53d 3428 39be 998d 2fbd
000001a0: b583 853e 277c d5bd 906a a6bc 9589 173d
000001b0: ca2e e53c fed7 da3d 50d8 03bd e8fb 08bd
000001c0: 11c8 903e fbfb 93be 7d12 e73d abfc a93d
000001d0: c0a4 983e 386d 29bb a99c d9bd 35ab d83c
000001e0: 6f8f b7bc 4670 86be 26d1 45bd 50e6 ba3c
000001f0: 6d8d 3b3e 49d3 ad3d c7da 2a3c 7cc6 9d3e
00000200: ca88 0b3f a45f c8be 8c57 16be 55ea c53b
00000210: feab 93bd fd2d 9fbd 9d4a 893c 3332 2c3e
00000220: b677 8a3d 693e 7a3d 852c 913d 19ee 45be
00000230: fec7 703d 3e34 533e 3747 88bd 94ad 163e
00000240: fbf7 e13d 43a7 57be 9306 0a3e 2e70 03be
00000250: fb6a 1cbe f3ff 73bd dc83 4b3d 15fa 3f3d
00000260: 0de0 093f f489 b43e d183 c93e 9eb6 6f3d
00000270: 639f 51be 2281 2abd 223e 6c3e 4db7 e73c
00000280: ba41 2bbd c4ca fc3e 5ba4 c0bd b2f3 143e
00000290: 6978 d1be 54da 6d3d 33ea 003d 64d0 50be
000002a0: b32d 26be f14b 083d 74c9 70be 0771 59bd
000002b0: ec66 e1bc f7ad 233e 1b63 e6be 5286 ea3c
000002c0: 0ce2 df3d bb43 02bc 63e3 103d c713 533e
000002d0: e804 893e d159 b3bd f667 23be dbee d4bd
000002e0: 6cb6 81bd 425b 023e 59bc 3cbe 1422 5dba
000002f0: 67c6 903d 7aef c7bd 7723 33be 47ea 17be
00000300: 2bcb 39bd e200 54be 2198 83bd fb02 8fbd
00000310: eabc 563e 1ddb 68be 8f55 50be 514a 07be
00000320: a292 f03d 8d3c 8abe 71cf 7e3e ea93 16be
00000330: c5a6 783d ff84 4ebe b69f 22be ff27 ff3d
00000340: eb8a 0ebe df62 fd3c 3e0e eebc 2411 2dbe
00000350: f33b e8bd 680a 5f3c 404c 3f3d f385 8bbe
00000360: 246a 1fbe 6dc2 163e b885 643d b694 69bc
00000370: 32b0 dabe c98a 9b3e 3fe4 e63d dd7d 0fbe
00000380: 8677 603d e526 a73d c549 983c 1616 18be
00000390: 9fe2 813e cbcd 4d3b 463d 833e 6af3 8cbd
000003a0: 551c 99bd 993d 443e a52f a0bd 2835 57be
000003b0: 4f52 36be 51a2 ae3d 4c6c 5dbe 2e02 0ebe
000003c0: 2418 30bd 009b 923e c55a 8abe ba6f 5c3e
000003d0: 99df 243e b1eb 6b3c e1b6 42be bd6d 383e
000003e0: 48d3 14bc 366c 543e e0f4 b5bd b756 3b3e
000003f0: 86f1 853e 524f 853e 40b4 7738 795f f93d

linears.3.bias f4 [40]
0.03795177 -0.04080248 0.024138646 0.023044553 -0.041190952 0.042077377 -0.039286524 0.0181716
-0.12185188 0.0031135036 0.0596356 -0.0004531037 -0.026853152 -0.027781263 -0.025405128 0.0060939807
-0.026284961 0.015481329 -0.033434194 0.03664837 0.027310552 0.029975265 -0.014502351 -0.078662306
-0.02841445 -0.031116555 0.13947979 0.053539105 -0.06325471 -0.025327198 0.0009871844 0.081862785
-0.04833845 0.03461864 0.014860387 -0.035209164 -0.05861795 0.007873404 -0.031454597 0.00030363494
00000000: 5173 1b3d 8020 27bd 69be c53c eec7 bc3c
00000010: d8b7 28bd 5459 2c3d e8ea 20bd 9bdc 943c
00000020: 7a8d f9bd ec0b 4c3b 7544 743d 8d8e edb9
00000030: 24fb dbbc 8895 e3bc 6a1e d0bc 04b0 c73b
00000040: 8f53 d7bc 66a5 7d3c 4bf2 08bd 9a1c 163d
00000050: 61ba df3c b08e f53c 459b 6dbc b419 a1bd
00000060: 6cc5 e8bc 25e8 febc cad3 0e3e d24b 5b3d
00000070: af8b 81bd fc7a cfbc 6964 813a ada7 a73d
00000080: 8afe 45bd 46cc 0d3d fb78 733c 7c37 10bd
00000090: 6019 70bd 73ff 003c 89d6 00bd 3131 9f39

linears.4.weight f4 [40, 40]
0.049026366 0.25883186 -0.090109795 -0.074262924 0.21521725 0.09622524 0.34496716 -0.054471713
-0.09680072 -0.03951087 -0.056642763 -0.052123673 0.07674687 0.12703304 -0.0134678995 -0.027535867
-0.031359054 -0.24481958 0.0041401377 0.035775073 -0.4807483 0.013731389 0.16979001 -0.27914396
-0.1029187 -0.07419197 0.16484591 0.17608239 0.34307966 0.3161982 -0.1491365 -0.18555935
0.12518902 -0.009295558 -0.10681282 -0.29183072 0.07393784 -0.27842674 0.06547712 -0.12156492
0.317644 0.24548835 0.16075654 -0.0017849912 -0.041697722 -0.007602151 0.27356556 -0.15384108
-0.0613374 -0.08687198 -0.23692767 -0.098686166 0.46149367 -0.031909794 0.26757604 -0.10523517
-0.14952995 -0.0012639405 -0.003995038 -0.054629356 0.0042011584 -0.21885848 -0.046214014 -0.10244814
-0.08367397 0.0900634 -0.13142113 0.2961407 -0.03165117 0.10230704 -0.19061127 -0.084388435
0.30784482 -0.12055977 -0.2855721 -0.11529857 0.2143436 -0.15438917 0.11941649 -0.07132719
0.28422916 -0.18486401 0.39090413 0.19585684 -0.11215347 0.3086922 -0.22184588 -0.46524352
-0.52151865 -0.011245167 0.24121283 0.26689938 -0.16823703 -0.04189383 -0.2663084 -0.10041823
-0.29469898 0.04698505 -0.4252846 0.14222986 0.07871887 0.41233593 -0.07607115 -0.45102623
-0.5165111 -0.2724946 0.35197693 -0.09880165 -0.17028446 -0.18205582 0.01973117 0.047442906
-0.459777 0.47033176 -0.11007995 -0.25569528 -0.04187914 0.08017615 -0.6464287 0.42828044
0.32870576 0.3756443 -0.09220608 -0.09941289 0.018249907 -0.03663976 0.06377459 0.18754567
0.18369435 -0.0101213185 0.08320587 -0.1949086 0.29600158 -0.28148985 -0.079835765 -0.33222267
0.1456183 0.1515219 -0.16372211 0.17017804 0.08168091 -0.05548592 -0.1234802 -0.281017
0.2341842 -0.2837835 0.16759199 -0.04344874 -0.23784903 0.2610158 0.0036516495 0.098993614
-0.114803396 0.2363004 -0.07538495 0.14523348 0.16404375 0.053737186 -0.011967098 -0.028721513
0.116683476 -0.028425429 -0.0026479734 0.08473563 0.24711254 -0.11263506 -0.033881523 0.21650292
0.028228592 -0.23830374 0.39556274 0.11421295 -0.3424127 0.16175117 0.045642674 0.48999482
-0.0992158 0.049700063 0.00029381615 0.021930171 -0.04351138 0.017339773 0.09934115 0.0009289476
0.072511055 -0.03322493 0.104401514 -0.18208225 -0.12390626 0.14928022 -0.24892956 -0.16809875
-0.2579908 0.31463543 0.22321568 -0.38784277 -0.16930902 0.036237504 0.10208289 -0.0041208672
0.3248241 0.47293523 -0.15986297 0.3336969 -0.057066098 0.10052015 -0.29823557 0.13087122
-0.05111568 0.37402618 0.056349747 0.16872118 -0.07780028 -0.1057189 0.05458413 0.06652559
0.24691316 -0.051696148 -0.044170372 -0.47179276 -0.035609167 -0.15579905 -0.073310174 -0.07234793
-0.3848915 -0.22776845 0.46423173 0.21231283 0.4200148 0.018290976 -0.025872538 0.33390257
-0.12957272 0.15359357 -0.20563252 0.11174969 -0.14465143 -0.36564654 0.054323178 -0.16760917
0.08227007 -0.18543294 0.014401832 -0.069274 0.055637144 0.014324899 0.1698536 0.19188684
0.12982611 -0.2372103 0.33104762 -0.20369098 0.17564392 -0.18177024 0.06802335 -0.23235162
00000000: dfcf 483d 9c85 843e 7c8b b8bd 2917 98bd
00000010: e961 5c3e bd11 c53d 899f b03e bb1d 5fbd
00000020: 753f c6bd 26d6 21bd 3e02 68bd a27f 55bd
00000030: 772d 9d3d f314 023e 77a8 5cbc e692 e1bc
00000040: 5a72 00bd fcb1 7abe fea9 873b e288 123d
00000050: a424 f6be 9ff9 603c 6fdd 2d3e f5eb 8ebe
00000060: 0ac7 d2bd f6f1 97bd 5ecd 283e f14e 343e
00000070: 23a8 af3e bbe4 a13e 3db7 18be 4503 3ebe
00000080: 8d31 003e 654c 18bc aec0 dabd d66a 95be
00000090: b96c 973d f38d 8ebe de18 863d 07f7 f8bd
000000a0: 3ca2 a23e 4c61 7b3e 5d9d 243e 5ef6 e9ba
000000b0: 3bcb 2abd 771b f9bb c910 8c3e 8488 1dbe
000000c0: ed3c 7bbd f0e9 b1bd 2b9d 72be f91b cabd
000000d0: e648 ec3e d8b3 02bd baff 883e 8985 d7bd
000000e0: 611e 19be ceaa a5ba cfe8 82bb 08c3 5fbd
000000f0: dfa9 893b 701c 60be e84a 3dbd 55d0 d1bd
00000100: 425d abbd 2973 b83d 4393 06be c19f 973e
00000110: a8a4 01bd 5a86 d13d 9a2f 43be d8d3 acbd
00000120: d69d 9d3e 0ae8 f6bd 8236 92be a821 ecbd
00000130: e47c 5b3e 3218 1ebe a290 f43d fd13 92bd
00000140: 7c86 913e fe4c 3dbe 9624 c83e b28e 483e
00000150: b8b0 e5bd e70c 9e3e 912b 63be 6634 eebe
00000160: 3f82 05bf a63d 38bc 7f00 773e 09a7 883e
00000170: 5446 2cbe dd98 2bbd 9359 88be 13a8 cdbd
00000180: c9e2 96be 6573 403d e7be d9be b4a4 113e
00000190: 5c37 a13d b21d d33e 31cb 9bbd e9ec e6be
000001a0: 123a 04bf 6a84 8bbe 5236 b43e 8558 cabd
000001b0: 0d5f 2ebe d76c 3abe 43a3 a13c 7e53 423d
000001c0: e467 ebbe 53cf f03e 9971 e1bd 7eea 82be
000001d0: 7689 2bbd 6533 a43d 5a7c 25bf 9347 db3e
000001e0: 1f4c a83e 7354 c03e 8bd6 bcbd fc98 cbbd
000001f0: d480 953c 9313 16bd 419c 823d f90b 403e
00000200: 5f1a 3c3e e3d3 25bc d767 aa3d 1f96 47be
00000210: 858d 973e 701f 90be ef80 a3bd 1719 aabe
00000220: f71c 153e 8f28 1b3e c5a6 27be 2743 2e3e
00000230: 5248 a73d 3445 63bd 30e3 fcbd 76e1 8fbe
00000240: fccd 6f3e 124c 91be 3c9d 2b3e 4ef7 31bd
00000250: b28e 73be dda3 853e 8350 6f3b 2abd ca3d
00000260: 0b1e ebbd bbf8 713e 6d63 9abd 16b8 143e
00000270: 16fb 273e 861b 5c3d a611 44bc 6149 ebbc
00000280: bff7 ee3d 72dc e8bc 9f89 2dbb e089 ad3d
00000290: 120b 7d3e 36ad e6bd 5ac7 0abd f1b2 5d3e
000002a0: a63f e73c e505 74be 3387 ca3e 7be8 e93d
000002b0: b850 afbe 19a2 253e d0f3 3a3d 9ae0 fa3e
000002c0: a731 cbbd 4b92 4b3d 560b 9a39 e7a6 b33c
000002d0: fd38 32bd 240c 8e3c 5f73 cb3d 9e84 733a
000002e0: ad80 943d dd16 08bd 76d0 d53d c573 3abe
000002f0: 91c2 fdbd eadc 183e 64e7 7ebe 1422 2cbe
00000300: 5f17 84be e517 a13e a792 643e 5493 c6be
00000310: 585f 2dbe c76d 143d d610 d13d 5708 87bb
00000320: 584f a63e 9124 f23e 1eb3 23be 52da aa3e
00000330: 24be 69bd 82dd cd3d 55b2 98be 1b03 063e
00000340: ad5e 51bd 5c80 bf3e fece 663d 3fc5 2c3e
00000350: c155 9fbd 2783 d8bd 9c93 5f3d 923e 883d
00000360: ced6 7c3e 57bf 53bd feeb 34bd d28e f1be
00000370: ebda 11bd c989 1fbe a523 96bd 272b 94bd
00000380: 8010 c5be 223c 69be c8af ed3e 8968 593e
00000390: 2e0c d73e f5d6 953c a5f2 d3bc 47f5 aa3e
000003a0: b6ae 04be a247 1d3e 5591 52be 05dd e43d
000003b0: 811f 14be 0636 bbbe fb81 5e3d bda1 2bbe
000003c0: 367d a83d 22e2 3dbe a9f5 6b3c 87df 8dbd
000003d0: c6e3 633d fbb2 6a3c 1aee 2d3e fc7d 443e
000003e0: 23f1 043e 42e7 72be 137f a93e 5e94 50be
000003f0: 00dc 333e fa21 3abe d34f 8b3d 95ed 6dbe

linears.4.bias f4 [40]
-0.07241474 -0.18505457 0.08091103 -0.029646628 0.025581276 0.04105847 0.004755619 0.044153493
-0.014310925 0.0005782403 -0.018489892 0.04203193 -0.04651861 0.023660673 0.03278071 -0.037307665
-0.058758873 0.005949822 -0.08244528 -0.06827348 0.019494392 -0.008274931 -0.0037612235 -0.029345006
0.019627253 0.0044536637 -0.008766663 0.1601489 -0.0092369 0.0050913272 0.020287571 -0.020964468
0.06649081 -0.009569647 0.09112213 0.027848754 0.0036102666 -0.054848194 -0.012314938 0.015655112
00000000: 2e4e 94bd f27e 3dbe afb4 a53d 7cdd f2bc
00000010: d38f d13c ed2c 283d 06d5 9b3b 4bda 343d
00000020: 5f78 6abc 0d95 173a 1d78 97bc ac29 2c3d
00000030: 4c8a 3ebd 07d4 c13c 1145 063d eccf 18bd
00000040: 25ad 70bd b9f6 c23b 12d9 a8bd f7d2 8bbd
00000050: b4b2 9f3c 9493 07bc dc7e 76bb f064 f0bc
00000060: 55c9 a03c 0af0 913b 0da2 0fbc 13fe 233e
00000070: 5e56 17bc 26d5 a63b 1f32 a63c adbd abbc
00000080: 552c 883d 02ca 1cbc 3d9e ba3d 1223 e43c
00000090: 399a 6c3b 80a8 60bd 98c4 49bc 263f 803c

linears.5.weight f4 [40, 40]
0.25294548 -0.43034187 0.368585 -0.324744 -0.3923655 -0.17578469 0.05396805 -0.08812414
-0.1486154 0.17986768 0.013914523 0.026418949 0.117344454 0.0025217067 0.20636205 -0.35176703
-0.08736258 -0.052456323 0.15518431 -0.13575877 -0.28453872 -0.11924942 0.15678036 -0.20834523
-0.01709322 0.28356114 0.055666737 0.1789474 0.34329438 0.16332617 0.17390737 -0.09894269
0.074070096 0.20366442 0.016744507 -0.0045001595 0.12579678 0.10119309 -0.13421641 -0.007971699
-0.0682756 0.023495961 0.06768201 -0.14168377 -0.13671497 0.20040846 -0.030139746 -0.02406859
-0.12978369 0.02597883 -0.05652672 -0.28109357 -0.072592534 0.10942625 0.023776451 -0.048857916
-0.10383779 -0.0063988413 0.22056657 0.055105515 0.46147904 -0.22307092 0.25547236 -0.090181276
0.2262414 0.27285382 0.092244044 0.051917244 -0.17154358 0.15085979 0.016883489 0.17444782
-0.15249148 0.022578696 0.198663 0.06867075 0.058014356 -0.013874082 0.07982883 0.042025022
-0.068817995 -0.20847398 -0.06568091 -0.434715 -0.061047524 -0.49034372 0.3263697 -0.106676556
0.15153866 -0.007913062 -0.05170389 -0.11115124 -0.101433694 -0.10964752 -0.23823012 0.12858208
0.010840766 -0.23814535 -0.024084827 -0.39315584 -0.0055737565 -0.120533146 -0.04393483 -0.044836286
-0.08441611 0.10789262 0.18612097 0.25820398 0.056414656 0.2779514 -0.08971636 0.29051748
-0.39551148 -0.17444175 -0.06612714 0.08958157 0.1414545 0.3919796 -0.123211026 -0.12027368
0.008755371 0.22422898 0.020341566 0.089426644 -0.1260823 -0.348922 -0.035760608 -0.3737866
-0.17580235 -0.37974605 -0.63475734 -0.07043715 0.489328 -0.31890854 0.10950314 0.35573778
0.014687224 -0.4748641 -0.8644286 0.29388654 -0.31706318 -0.36069807 0.019357393 0.26482335
-0.10204563 -0.21174744 -0.29937446 0.23799743 0.32561883 0.03994175 -0.13992584 0.17927547
-0.035261843 -0.03064549 -0.1911183 0.26351672 -0.079455554 -0.016843077 0.4450897 -0.08815746
0.10286325 0.13575886 0.07154797 0.24086979 -0.0839044 0.091938704 0.0524998 -0.0028309808
0.0139046265 0.20168985 -0.012532206 -0.37925503 -0.37085104 -0.0640196 -0.03954925 -0.092486344
-0.110833 0.013490426 -0.12621415 0.6320321 0.113266736 0.2804043 0.08416464 -0.009748006
0.215139 0.15132573 0.30748108 -0.00908655 0.028775511 0.08423979 -0.07380423 -0.33412778
0.1091413 -0.09061299 0.03424183 -0.07123207 0.24230729 0.10394702 0.011883905 0.10341292
0.24382819 0.12954138 -0.0370053 0.33799773 0.4155223 0.020355653 -0.22847138 -0.06319249
0.010036277 0.19141121 -0.07045644 -0.23081025 0.25381327 0.07274459 0.012339394 0.07527734
-0.16441299 0.08754732 -0.13646188 0.04271289 0.18010041 0.14175153 -0.13495383 -0.35927567
-0.12720114 0.050607517 -0.01331567 0.050193205 -0.00861217 0.13785087 -0.096623585 0.09134148
0.054301463 0.008990083 0.06596607 -0.06725531 0.088178374 0.13622306 -0.015880171 0.1699474
-0.3407479 0.02888398 0.14805858 0.019052055 -0.27348045 -0.32415795 -0.041322473 -0.108321585
0.036886156 0.09258827 0.026059942 -0.06175849 -0.19493271 0.3153413 -0.18675217 0.030780135
00000000: 1282 813e c555 dcbe 2cb7 bc3e d844 a6be
00000010: 21e4 c8be e700 34be 9a0d 5d3d 6e7a b4bd
00000020: a32e 18be 3c2f 383e bdf9 633c 8d6c d83c
00000030: 4a52 f03d 3843 253b 9350 533e cf1a b4be
00000040: 27eb b2bd 71dc 56bd a3e8 1e3e 5904 0bbe
00000050: 0faf 91be 0a39 f4bd 088b 203e 7458 55be
00000060: 1507 8cbc ed2e 913e ce02 643d fd3d 373e
00000070: 48c4 af3e fa3e 273e c614 323e 77a2 cabd
00000080: 10b2 973d 688d 503e c72b 893c 1376 93bb
00000090: dfd0 003e 533e cf3d 0770 09be bb9b 02bc
000000a0: 14d4 8bbd 9a7a c03c de9c 8a3d 8d15 11be
000000b0: 02ff 0bbe e037 4d3e a1e7 f6bc 7e2b c5bc
000000c0: 04e6 04be 8ed1 d43c 9088 67bd 7feb 8fbe
000000d0: 65ab 94bd df1a e03d d5c6 c23c 3d1f 48bd
000000e0: e8a8 d4bd 5fad d1bb 34dc 613e 52b6 613d
000000f0: fb46 ec3e b46c 64be 46cd 823e f6b0 b8bd
00000100: d3ab 673e 7fb3 8b3e 72ea bc3d 2da7 543d
00000110: 1fa9 2fbe fd7a 1a3e 3e4f 8a3c 73a2 323e
00000120: ba26 1cbe f5f6 b83c 506e 4b3e 40a3 8c3d
00000130: 76a0 6d3d 1e50 63bc 4c7d a33d 6e22 2c3d
00000140: 73f0 8cbd 347a 55be b783 86bd f792 debe
00000150: f80c 7abd 550e fbbe ee19 a73e 3d79 dabd
00000160: f32c 1b3e caa5 01bc 75c7 53bd 43a3 e3bd
00000170: 78bc cfbd e18e e0bd 99f2 73be 05ab 033e
00000180: 789d 313c 60dc 73be 8b4d c5bc b94b c9be
00000190: 0fa4 b6bb 15da f6bd 02f5 33bd 41a6 37bd
000001a0: 5ae2 acbd cef6 dc3d 7f96 3e3e 5033 843e
000001b0: 0e13 673d a54f 8e3e 36bd b7bd b5be 943e
000001c0: 7b80 cabe dca0 32be aa6d 87bd 8b76 b73d
000001d0: 73d9 103e 8db1 c83e 1056 fcbd 0c52 f6bd
000001e0: b072 0f3c 489c 653e 5ba3 a63c 5125 b73d
000001f0: b81b 01be e8a5 b2be b779 12bd f560 bfbe
00000200: 8805 34be 136e c2be 757f 22bf 5a41 90bd
00000210: 3389 fa3e fb47 a3be 2f43 e03d 4323 b63e
00000220: afa2 703c 6321 f3be 314b 5dbf 4c78 963e
00000230: 1b56 a2be 6bad b8be 6593 9e3c ed96 873e
00000240: 4dfd d0bd 52d4 58be 9c47 99be 99b5 733e
00000250: 83b7 a63e f699 233d b848 0fbe fd93 373e
00000260: b96e 10bd 400c fbbc 84b4 43be aaeb 863e
00000270: 98b9 a2bd 7efa 89bc cce2 e33e e68b b4bd
00000280: f8a9 d23d 5f04 0b3e be87 923d 92a6 763e
00000290: 12d6 abbd 5c4a bc3d 080a 573d fa87 39bb
000002a0: 3bd0 633c c987 4e3e e253 4dbc b72d c2be
000002b0: 30e0 bdbe b51c 83bd 65fe 21bd 7b69 bdbd
000002c0: 69fc e2bd f306 5d3c 483e 01be dbcc 213f
000002d0: 64f8 e73d 2791 8f3e 835e ac3d 1ab6 1fbc
000002e0: 664d 5c3e 22f5 1a3e 296e 9d3e c1df 14bc
000002f0: 9fba eb3c e985 ac3d ac26 97bd cc12 abbe
00000300: 7985 df3d 4e93 b9bd 2941 0c3d 1fe2 91bd
00000310: 671f 783e 2de2 d43d b6b4 423c 27ca d33d
00000320: 19ae 793e 7fa6 043e df92 17bd 0a0e ad3e
00000330: 57bf d43e e6c0 a63c 67f4 69be 106b 81bd
00000340: 326f 243c 4d01 443e 774b 90bd 8659 6cbe
00000350: d0f3 813e 1efb 943d 2b2b 4a3c 022b 9a3d
00000360: e15b 28be 024c b33d aabc 0bbe b6f3 2e3d
00000370: 3e6c 383e 5027 113e 5631 0abe fbf2 b7be
00000380: 0441 02be d449 4f3d f829 5abc 6497 4d3d
00000390: 0f1a 0dbc c728 0d3e 96e2 c5bd 3e11 bb3d
000003a0: 366b 5e3d 244b 133c 3819 873d 27bd 89bd
000003b0: dd96 b43d 0f7e 0b3e 2217 82bc b106 2e3e
000003c0: 8276 aebe 199e ec3c ab9c 173e 0e13 9c3c
000003d0: a105 8cbe 08f8 a5be c141 29bd b5d7 ddbd
000003e0: f015 173d eb9e bd3d a97b d53c 78f6 7cbd
000003f0: 719c 47be 6a74 a13e f63b 3fbe 9f26 fc3c

linears.5.bias f4 [40]
-0.0032754212 0.04220776 -0.03512958 -0.0018781022 0.030802473 -0.062189423 -0.029128075 0.06492766
0.09000737 0.038137 0.028896958 -0.1218223 -0.0020111348 -0.010662529 -0.061965164 -0.025046432
-0.023259856 0.012733019 -0.040793832 -0.06498248 0.13091005 0.061768193 -0.030204026 0.01322798
0.027288055 0.011382231 -0.026015883 0.019269634 -0.10336482 0.017275972 -0.052823793 -0.053980183
0.09898986 0.04344631 0.015572119 -0.0128574595 0.058458854 -0.009508382 -0.010854895 0.035441827
00000000: 73a8 56bb 0be2 2c3d 09e4 0fbd a72a f6ba
00000010: 7855 fc3c 56ba 7ebd 009e eebc cbf8 843d
00000020: c955 b83d 8b35 1c3d 50b9 ec3c f87d f9bd
00000030: 3ecd 03bb e3b1 2ebc 2fcf 7dbd 2d2e cdbc
00000040: 748b bebc 279e 503c 6f17 27bd 8915 85bd
00000050: 490d 063e a500 7d3d 6f6e f7bc 2bba 583c
00000060: 338b df3c 897c 3a3c 431f d5bc 5adb 9d3c
00000070: efb0 d3bd 5786 8d3c c35d 58bd 531a 5dbd
00000080: 32bb ca3d c2f4 313d 3322 7f3c 18a8 52bc
00000090: 8d72 6f3d 0bc9 1bbc bbd8 31bc 732b 113d

linears.6.weight f4 [1, 40]
0.09173807 -0.1782317 0.22606571 0.097956136 -0.053167842 0.1273896 0.30066478 0.017937718
-0.19282916 -0.07917851 -0.15104665 0.19689205 0.14248323 -0.6411 0.025077378 0.4726552
0.397626 -0.5767219 0.08091486 0.35262975 -0.13257304 -0.17682049 0.20584908 -0.38955992
-0.28341293 -0.6837025 0.12967627 -0.15461835 0.28228122 -0.28964555 0.070533134 0.027195211
-0.09282278 -0.371334 -0.2630819 0.11445039 -0.3572278 0.110534124 0.04025187 -0.21001293
00000000: 2be1 bb3d 5f82 36be c57d 673e 3a9d c83d
00000010: 86c6 59bd 6b72 023e bcf0 993e 1ff2 923c
00000020: 0275 45be 5828 a2bd f9ab 1abe 129e 493e
00000030: 20e7 113e 211f 24bf 136f cd3c ddff f13e
00000040: a395 cb3e 0ca4 13bf b1b6 a53d e38b b43e
00000050: 3ac1 07be 6e10 35be 1aca 523e 6674 c7be
00000060: 801b 91be 2107 2fbf dbc9 043e 4654 1ebe
00000070: 2a87 903e 6c4c 94be ad73 903d 7ec8 de3c
00000080: df19 bebd 7d1f bebe acb2 86be f764 ea3d
00000090: 90e6 b6be b75f e23d 25df 243d a10d 57be

exp_avg f4 [40, 2]
-0.00010337717 6.885358e-05 -0.00011144957 -1.1828221e-05 0.00028228684 0.00011188969 0.00020378175 4.8054295e-05
1.0164174e-05 2.1156235e-05 0.00036477917 3.4532706e-05 0.0002447256 0.00019177441 0.00014154692 2.8164923e-06
7.312955e-05 6.251754e-05 5.223517e-05 -2.7329328e-05 0.00024256232 -1.4089143e-05 0.00016435616 -7.1187394e-05
-0.00043665196 -9.55172e-05 0.00018694352 8.189418e-05 -0.00081596576 -0.00015130562 4.983643e-05 -0.00013089985
0.00020436282 -8.76659e-05 0.00022536326 7.8026234e-05 -0.00012535662 6.0307457e-06 0.00012297783 -1.4288158e-05
-8.671005e-05 -2.4062014e-05 -2.7944698e-05 -2.0159914e-06 7.235694e-05 8.0526486e-05 -0.00013054207 -6.500964e-05
0.00030644063 -3.907127e-05 6.886516e-05 2.4584095e-05 0.00012429895 -5.025289e-06 -0.0007450844 -0.00012509561
0.00040171645 5.482296e-05 0.00044238768 0.000108856904 -0.0003252836 -9.5785574e-05 0.00021363274 2.6488074e-06
0.00010345553 0.00011528473 -0.0002463014 5.2030307e-05 -0.0006162187 -0.00013117093 0.00014451104 5.9865375e-05
-0.000354108 -5.4463686e-05 -1.5859487e-05 -4.655925e-05 0.00029308954 0.00014950182 -0.00043514126 -5.5990567e-05
00000000: 32cc d8b8 7c65 9038 08ba e9b8 d371 46b7
00000010: e6ff 9339 52a6 ea38 3fae 5539 e88d 4938
00000020: cb86 2a37 ab78 b137 d53f bf39 36d7 1038
00000030: 844e 8039 0d17 4939 366c 1439 f802 3d36
00000040: 215d 9938 d91b 8338 1617 5b38 4941 e5b7
00000050: 5458 7e39 6960 6cb7 0557 2c39 714a 95b8
00000060: 6fee e4b9 6850 c8b8 4506 4439 9abe ab38
00000070: 89e6 55ba cba7 1eb9 7607 5138 2942 09b9
00000080: 3a4a 5639 46d9 b7b8 7d4f 6c39 04a2 a338
00000090: 2972 03b9 b65b ca36 9cf3 0039 2cb7 6fb7
000000a0: 1bd8 b5b8 c8d8 c9b7 c86a eab7 784a 07b6
000000b0: 56be 9738 54e0 a838 1fe2 08b9 c955 88b8
000000c0: c4a9 a039 75e0 23b8 b46b 9038 f139 ce37
000000d0: 3f56 0239 e79e a8b6 c551 43ba 192c 03b9
000000e0: 789d d239 b4f1 6538 45f0 e739 1b4a e438
000000f0: d38a aab9 7de0 c8b8 9a02 6039 2ac2 3136
00000100: 44f6 d838 05c5 f138 0422 81b9 1e3b 5a38
00000110: bd89 21ba ee8a 09b9 e387 1739 f517 7b38
00000120: 92a7 b9b9 f06f 64b8 fd09 85b7 9d48 43b8
00000130: d0a9 9939 97c3 1c39 ac23 e4b9 6ad7 6ab8

exp_avg_sq f4 [40, 2]
5.9840793e-05 1.9775056e-05 6.187027e-05 2.5077202e-06 0.00033956685 6.695034e-05 0.00018124605 1.6087877e-05
2.2755189e-09 2.3711102e-06 0.0006439169 1.1098151e-05 0.0002708575 0.00020828382 0.00010853261 7.259675e-07
2.361344e-05 1.8805424e-05 1.7305041e-05 1.9274946e-06 0.000276042 1.7634883e-07 0.00014110823 1.840662e-05
0.00085963117 5.109126e-05 0.00016232904 3.4324123e-05 0.0031665242 0.00015784561 1.8672148e-05 7.45338e-05
0.00023201724 2.6566766e-05 0.00022328651 3.6856633e-05 6.702175e-05 1.2596557e-07 7.697364e-05 7.721384e-07
2.7614715e-05 4.426499e-06 3.6654028e-06 3.7223213e-08 1.5374455e-05 3.1563337e-05 7.722629e-05 3.1452626e-05
0.00047749025 3.2620653e-06 2.1728161e-05 5.4231477e-06 8.209687e-05 5.9417616e-08 0.0026728732 0.0001222556
0.0007886404 2.5905747e-05 0.0008426984 7.255832e-05 0.0004826623 5.8044294e-05 0.00022174041 1.0354862e-06
5.5769124e-05 7.943027e-05 0.00032522375 7.4631957e-06 0.0018033311 0.00011815432 9.408984e-05 2.266139e-05
0.00058282516 2.5528196e-05 5.1632725e-07 1.0874649e-05 0.0003847851 0.00011901894 0.0009654953 3.814552e-05
00000000: 90fd 7a38 9ce2 a537 59c0 8138 4e4a 2836
00000010: e407 b239 b167 8c38 de0c 3e39 74f4 8637
00000020: 5a5f 1c31 5d1f 1f36 88cc 283a 3232 3a37
00000030: e101 8e39 c366 5a39 009c e338 1be0 4235
00000040: 7a15 c637 57c0 9d37 4b2a 9137 1b5a 0136
00000050: bbb9 9039 665a 3d34 74f6 1339 ea67 9a37
00000060: df58 613a d34a 5638 df36 2a39 3ff7 0f38
00000070: 7685 4f3b 5c83 2539 22a2 9c37 074f 9c38
00000080: a749 7339 b2db de37 0422 6a39 8296 1a38
00000090: 078e 8c38 2741 0734 e96c a138 f244 4f35
000000a0: 26a6 e737 5687 9436 24fb 7536 5bdf 1f33
000000b0: 64f8 8037 e062 0438 8cf4 a138 00ec 0338
000000c0: a857 fa39 dbe9 5a36 df44 b637 7cf8 b536
000000d0: 6c2b ac38 5c32 7f33 5f2b 2f3b bd31 0039
000000e0: c3bc 4e3a 2b50 d937 88e8 5c3a 742a 9838
000000f0: d60d fd39 9674 7338 fd82 6839 09fb 8a35
00000100: a4e9 6938 cd93 a638 cb82 aa39 5d6c fa36
00000110: c05d ec3a 9ec9 f738 1952 c538 f718 be37
00000120: bcc8 183a 6225 d637 bd99 0a35 4372 3637
00000130: fbbc c939 cf99 f938 4b19 7d3a 71fe 1f38

exp_avg f4 [40]
9.698736e-05 -6.6476736e-05 0.0002900088 0.0001633676 4.138333e-05 0.00017317064 0.00042672816 4.500951e-05
0.000121046716 -2.922358e-05 7.3009025e-05 -7.148381e-05 -0.00029800987 0.00018863953 -0.00050529523 -0.00021291636
-9.9987694e-05 0.00022482578 -2.9686566e-05 -7.3940055e-07 -9.277695e-05 -1.0811235e-05 0.0001739579 -0.00016985604
2.5484624e-05 6.977526e-05 2.136631e-05 -0.0004483549 0.00021581899 0.0003488611 -0.00028894382 6.675006e-05
0.0002402781 1.5704678e-05 -0.00043081833 0.0001633759 -0.00022552139 -9.161095e-05 0.00035944284 -0.0002647196
00000000: b165 cb38 6d69 8bb8 520c 9839 a84d 2b39
00000010: 0393 2d38 2495 3539 7cba df39 98c8 3c38
00000020: 76da fd38 2925 f5b7 6c1c 9938 94e9 95b8
00000030: 353e 9cb9 8acd 4539 ca75 04ba 4d42 5fb9
00000040: 7cb0 d1b8 36bf 6b39 6a07 f9b7 387b 46b5
00000050: 3f91 c2b8 e761 35b7 7868 3639 621b 32b9
00000060: d0c7 d537 4f54 9238 cd3b b337 2d11 ebb9
00000070: 784d 6239 58e7 b639 627d 97b9 2afc 8b38
00000080: 29f3 7b39 8abd 8337 75df e1b9 e24f 2b39
00000090: f079 6cb9 411f c0b8 9a73 bc39 10ca 8ab9

exp_avg_sq f4 [40]
0.00014044919 2.0542333e-05 0.00047268416 0.0001123061 1.5116743e-05 8.7571876e-05 0.0013647283 4.5665042e-06
0.00012112658 1.5516092e-05 3.9579104e-06 0.00011944368 0.0003666348 0.0002218053 0.0010707048 0.0005053709
0.00019387635 0.0002779888 6.842494e-07 5.5569926e-06 3.253386e-05 5.1604906e-07 0.00021977878 0.00019505234
2.2177175e-05 3.3478762e-05 2.4971237e-07 0.0008077023 0.00016815582 0.00054011535 0.00042654204 4.3634896e-06
0.00050896883 4.250455e-05 0.0008947982 0.00015485748 0.00019127637 7.5356285e-05 0.00084107753 0.00031388924
00000000: 8b45 1339 5352 ac37 98d2 f739 e185 eb38
00000010: eb9d 7d37 cba6 b738 afe0 b23a f939 9936
00000020: 5605 fe38 8e28 8237 31ce 8436 d67d fa38
00000030: e438 c039 6894 6839 e456 8c3a de7a 043a
00000040: 494b 4b39 06bf 9139 43ad 3735 3476 ba36
00000050: f774 0838 9f86 0a35 6b74 6639 f786 4c39
00000060: 1f09 ba37 8c6b 0c38 3510 8634 fcbb 533a
00000070: fc52 3039 8796 0d3a 81a1 df39 176a 9236
00000080: 526c 053a ea46 3238 e490 6a3a 3d61 2239
00000090: 5c91 4839 9908 9e38 c27b 5c3a 8091 a439
