pdebench/models/newly_trained_models/Advection/PINN/1D_Advection_Sols_beta0.4_PINN.pt-15000.pt (torch, 119037 bytes, 39 tensors)

linears.0.weight f4 [40, 2]
0	0xbdcb5d84	-0.09929946
1	0xbd18ed08	-0.037335426
2	0xbe9058e5	-0.2819282
3	0xbadf4930	-0.0017035361
4	0x3de6a177	0.11261266
5	0x3cce214a	0.025162358
6	0x3c9bf335	0.019036869
7	0xbe20cd0e	-0.15703222
8	0xbcbe8129	-0.023254948
9	0x3d52649f	0.05136549
10	0x3e237545	0.15962704
11	0x3d08bb6a	0.033381857
12	0x3e251027	0.16119443
13	0x3d2e554e	0.04256182
14	0xbe830aac	-0.2559408
15	0x3e1e14cb	0.1543762
16	0x3e97324a	0.29530555
17	0xbe328540	-0.17433643
18	0xbd8c8bf0	-0.068626285
19	0xbc201c28	-0.009772338
20	0xbd8cc76d	-0.06873975
21	0x3ea32eee	0.31871742
22	0x3c51c009	0.012802132
23	0xbe2b5d56	-0.16734824
24	0x3e3ed79b	0.18636934
25	0xbce6ccf3	-0.0281739
26	0xbe844c98	-0.25839686
27	0x3eab19bc	0.3341807
28	0xbdf09a5d	-0.117481925
29	0x3e26b360	0.16279364
30	0xbe17746b	-0.14790504
31	0x3e964c46	0.29355067
32	0xbe76ca18	-0.2410053
33	0xbd62134a	-0.055194177
34	0x3e8b20af	0.27173373
35	0x3e4e3971	0.201391
36	0x3de74614	0.11292663
37	0x3e9b1a89	0.30293682
38	0xbdd1510b	-0.10220536
39	0x3d2d2c17	0.042278375
40	0x3ea06ed8	0.31334567
41	0xbd8691af	-0.06570756
42	0xbdfe2809	-0.1240998
43	0x3e86c742	0.26323897
44	0xbea0898c	-0.3135494
45	0xbd778218	-0.0604268
46	0x3dc82257	0.09772175
47	0xbe51419e	-0.20435187
48	0xbe803d0d	-0.25046578
49	0x3e375424	0.17903191
50	0xbe540a64	-0.20707089
51	0x3e587efe	0.21142194
52	0xbe79c8cf	-0.24393009
53	0xbcdecf04	-0.027198322
54	0x3e7b57de	0.24545237
55	0x3d92e72a	0.07172997
56	0xbd570745	-0.052497167
57	0xbdf69821	-0.12040735
58	0xbe663856	-0.22482428
59	0xbe562fb7	-0.2091664
60	0xbe67938d	-0.2261488
61	0x3d000b77	0.031260934
62	0x3c2ce7e8	0.010553338
63	0x3d4878b0	0.04894322
64	0xbba2a6b6	-0.004963721
65	0x3e30148d	0.1719534
66	0xbdbb4495	-0.0914394
67	0x3d48c2ac	0.04901378
68	0x3d9e2dd9	0.077235885
69	0xbe02dc6f	-0.12779401
70	0x3eafa165	0.34302822
71	0xbdc2428e	-0.094853505
72	0xbed837d2	-0.42230088
73	0x3bbe0590	0.005799003
74	0x3d9f91a6	0.07791452
75	0xbe1ce6c8	-0.15322411
76	0xbe676d26	-0.2260023
77	0x3da0efb8	0.07858223
78	0xbc61c90b	-0.013780843
79	0xbdf9e8c4	-0.122026

linears.0.bias f4 [40]
0	0xbdd690ab	-0.10476812
1	0x3bcca865	0.00624566
2	0xbd83c5b1	-0.06434191
3	0x3d1cfffe	0.03833007
4	0xbd4d177e	-0.050071232
5	0xb8b5f0ee	-8.675629e-05
6	0x3e2154ee	0.15755054
7	0x3c90119d	0.017586524
8	0xbd9d706b	-0.07687458
9	0x3d7f9dcb	0.062406342
10	0x3db69fd7	0.08917206
11	0x3e18a815	0.14907868
12	0xbdcb7589	-0.099345274
13	0xbd847aeb	-0.06468757
14	0xbd065c17	-0.032802667
15	0x3d3f4925	0.046700615
16	0x3df8d2bc	0.121495694
17	0xbdc62aac	-0.09676108
18	0xbde57d03	-0.11205485
19	0x3d87e7b6	0.06635992
20	0xbdb29ccf	-0.08721315
21	0x3d5ee5b5	0.054418284
22	0xbdfa9908	-0.1223622
23	0xbd8c0fbb	-0.06838938
24	0xbc6672d4	-0.014065463
25	0x3d9583da	0.07300539
26	0x3daa9cdf	0.08330702
27	0xbe0f51b8	-0.13996017
28	0xbcd4bd1f	-0.025969086
29	0xbd3ab92e	-0.045586757
30	0x3dd0724c	0.101780504
31	0xbd53a62e	-0.051672153
32	0x3d54206c	0.051788732
33	0xbd2ad4b7	-0.041706767
34	0xbdd6ded1	-0.104917176
35	0xbd0c4ba8	-0.03425184
36	0xbd37797f	-0.044793602
37	0x3ca3be1c	0.019988112
38	0x3d31a25a	0.04336772
39	0xbcc91727	-0.024547173

linears.1.weight f4 [40, 40]
0	0xbdd05dd9	-0.1017415
1	0xbdc498ad	-0.09599433
2	0x3d103277	0.035204377
3	0xbd72d97b	-0.059289437
4	0xbe114c0e	-0.14189169
5	0x3dbc08d0	0.09181368
6	0x3e193a99	0.1496376
7	0xbe2c7120	-0.16840029
8	0xbe72fbb0	-0.23728824
9	0x3e8003d5	0.25002924
10	0xbdaf75bc	-0.08567378
11	0x3eda106d	0.42590657
12	0x3e032f68	0.12811053
13	0xbe9a9076	-0.3018834
14	0xbe2b58be	-0.16733071
15	0xbf103fb7	-0.5634722
16	0xbd17b5f6	-0.037038766
17	0xbe321d49	-0.17393984
18	0x3da50001	0.08056641
19	0x3d741178	0.059586972
20	0xbdcab1cf	-0.098971955
21	0x3da27923	0.07933261
22	0x3e4c0b8d	0.19926281
23	0xbdd4bc7c	-0.10387513
24	0xbd30b3d8	-0.043140262
25	0x3e466def	0.19377874
26	0xbd237e96	-0.039915644
27	0xbd766ad4	-0.060160473
28	0x3de131e7	0.10995846
29	0x3e85c419	0.26126173
30	0xbdc5ab3f	-0.09651803
31	0xbdcd9df1	-0.100398906
32	0xbddacd90	-0.10683739
33	0x3c985086	0.018593084
34	0xbd48c1bd	-0.04901289
35	0x3d5a1479	0.05324218
36	0x3e63751a	0.2221264
37	0xbdb6a443	-0.08918049
38	0x3e428181	0.18994714
39	0xbda8eec7	-0.08248668
40	0x3e806b8c	0.25082052
41	0xbdc804e1	-0.097665556
42	0x3e8dbbe5	0.27682415
43	0xbdfa8238	-0.122318685
44	0x3e08b6a8	0.13350928
45	0xbc8f9e96	-0.017531674
46	0xbdf62602	-0.12018968
47	0xbdac478f	-0.08412086
48	0x3e204c48	0.15654099
49	0xbe61d781	-0.22054864
50	0xbde2b8fa	-0.11070438
51	0xbee149b1	-0.44001535
52	0x3e3a2735	0.18179019
53	0xbcbc0bf7	-0.022954924
54	0x3d903f53	0.07043328
55	0xbe653bca	-0.22386089
56	0xbdc397a1	-0.09550405
57	0x3e240350	0.16016889
58	0x3d50d98b	0.050988715
59	0xbeb3cd7b	-0.35117707
60	0x3ebff797	0.37493584
61	0x3defa329	0.11701042
62	0xbdabeeab	-0.08395132
63	0x3dd09a39	0.10185666
64	0x3ce52616	0.027972262
65	0xbdd3a29a	-0.10333748
66	0xbe6dbe23	-0.23217063
67	0x3e20e715	0.15713151
68	0x3d5a5409	0.0533028
69	0xbd984aa1	-0.07436109
70	0xbe713b4d	-0.23557778
71	0x3d90c7b4	0.0706934
72	0x3e608de3	0.21929125
73	0xbe27b70f	-0.16378425
74	0x3e1e8fd1	0.15484549
75	0x3ce5d082	0.028053526
76	0x3d7fff83	0.062499534
77	0x3de4a764	0.1116474
78	0x3e351a67	0.17685853
79	0x3dccfc46	0.10009055
80	0x3d83b77f	0.064314835
81	0x3e864e56	0.2623164
82	0x3dc012a0	0.093785524
83	0xbd2c432c	-0.042056248
84	0xbcd660ea	-0.02616926
85	0x3dccceb9	0.10000367
86	0xbda48329	-0.08032829
87	0xbce765de	-0.028246816
88	0x3cd0dc1e	0.025495585
89	0x3d849bf3	0.064750575
90	0x3d9f4b1a	0.07777996
91	0x3e01d32d	0.12678213
92	0xbdad39d8	-0.084582984
93	0xbe80a521	-0.25125983
94	0x3dd4006a	0.103516415
95	0x3e41377a	0.18868819
96	0xbe0962b5	-0.1341656
97	0xbe2987e0	-0.16555738
98	0x3cef5f1b	0.029220155
99	0xbdc23507	-0.094827704
100	0xbe5852ed	-0.21125384
101	0x3d20b285	0.03923275
102	0x3e499573	0.19685917
103	0x3de43b6c	0.11144146
104	0x3e743e8a	0.23851982
105	0xbd77c72d	-0.060492683
106	0x3d6c9b3b	0.057765227
107	0xbe5c5588	-0.21517003
108	0x3d916e9f	0.071011774
109	0x3d9e217f	0.077212326
110	0x3d33394e	0.043755822
111	0xbeaaf2f4	-0.33388484
112	0x3e4e58d7	0.20151077
113	0x3e2a7240	0.16645145
114	0xbdbe1c8a	-0.09282787
115	0xbb991522	-0.0046717087
116	0x3eb09d25	0.34494892
117	0x3e12c7c4	0.14334017
118	0x3c5d4003	0.013504031
119	0xbdd6afe7	-0.104827695
120	0xbdcbfae7	-0.09959965
121	0xbe21c41b	-0.15797465
122	0xbdee1f50	-0.11627066
123	0xbe8824f7	-0.26590702
124	0x3d1879d9	0.037225578
125	0x3c9c0705	0.019046316
126	0x3f0dbe5f	0.5536861
127	0xbe4b9922	-0.19882634
128	0x3d893f22	0.06701495
129	0x3dc8b550	0.098002076
130	0x3e00766b	0.12545173
131	0x3e3f466d	0.18679209
132	0xbcbae895	-0.022815982
133	0xbd4b25df	-0.049596664
134	0xbb5736bb	-0.0032839018
135	0x3e841318	0.25795817
136	0xbdc99a0a	-0.09843834
137	0x3ca001b9	0.019532071
138	0xbec5c225	-0.38624683
139	0x3ccb594b	0.024822852
140	0xbe867ac8	-0.2626555
141	0xbd904b1e	-0.070455775
142	0x3bae3822	0.00531675
143	0xbd3fbe1f	-0.046812173
144	0x3e61ffd2	0.22070244
145	0x3e50b484	0.20381361
146	0xbc1a4ca2	-0.009417685
147	0xbe49e53a	-0.19716349
148	0xbe2be355	-0.16785939
149	0xbec115b3	-0.37711868
150	0xbd555671	-0.05208439
151	0x3e720cb1	0.23637654
152	0xbdbc0737	-0.091810636
153	0x3e532adc	0.20621818
154	0xbe9ba21c	-0.30397117
155	0x3e222c36	0.15837178
156	0x3df9961e	0.12186836
157	0xbd27ce01	-0.040967945
158	0xbb95f6ff	-0.0045765634
159	0xbd4c81b8	-0.049928397
160	0xbe084738	-0.13308418
161	0xbdbefa5a	-0.093250945
162	0x3ee6a31c	0.45046318
163	0x3e462e5a	0.19353619
164	0x3ceb29d5	0.02870647
165	0xbd6ffd03	-0.0585909
166	0x3d097943	0.03356291
167	0x3e2d2414	0.16908294
168	0xbd666cb2	-0.056256004
169	0x3ded953f	0.11600732
170	0x3d2bdb6a	0.041957296
171	0xbe8110ef	-0.25208232
172	0xbde52d7a	-0.111903146
173	0x3e84b085	0.25915924
174	0xba83775d	-0.001003008
175	0x3e04f25b	0.12983076
176	0xbd575cb3	-0.05257864
177	0xbd780d63	-0.06055964
178	0x3dda4cb8	0.10659164
179	0xbe6e3b23	-0.23264746
180	0xbc843072	-0.016136382
181	0x3e05dcf9	0.13072576
182	0x3e6cfdd0	0.23143697
183	0xbe25ef0d	-0.16204472
184	0x3d05f15e	0.03270089
185	0x3eb1302d	0.34607068
186	0x3ea9ca9c	0.3316239
187	0xbdfba1dd	-0.12286732
188	0x3e5285a3	0.20558791
189	0x3d6e618f	0.058198508
190	0xbe97f17e	-0.2967643
191	0x3e3e50a6	0.18585452
192	0xbd088668	-0.033331305
193	0x3bd2e7ee	0.0064363396
194	0x3b98f633	0.004668021
195	0x3d91e71b	0.07124158
196	0x3c7d136b	0.015446524
197	0xbe7e94f9	-0.24861516
198	0xbd31b512	-0.043385573
199	0x3d349f78	0.044097394
200	0xbd98abf3	-0.07454672
201	0x3d1c3369	0.038134966
202	0xbd819059	-0.0632636
203	0xbde6b77a	-0.11265464
204	0xbd472294	-0.04861696
205	0x3da668b8	0.08125442
206	0xbd08600a	-0.033294715
207	0xbe404a02	-0.18778232
208	0xbd42ca67	-0.047556307
209	0xbe5aa3c0	-0.21351528
210	0xbe0882e9	-0.13331188
211	0x3e0f4b18	0.1399349
212	0xbd2ca696	-0.042151056
213	0x3d9a561b	0.075359546
214	0xbe617e3a	-0.22020808
215	0xbd6e297b	-0.058145028
216	0xbe082740	-0.13296223
217	0x3e9be655	0.30449167
218	0xbdfe8f38	-0.124296606
219	0xbeae8e10	-0.3409276
220	0xbdb2cf85	-0.087309875
221	0xbe5b2c41	-0.214036
222	0xbe9f918d	-0.31165734
223	0x3dee108f	0.11624252
224	0x3dde7f3d	0.108641125
225	0xbe227f0d	-0.15868779
226	0xbe967c34	-0.29391634
227	0xbdbafeb4	-0.09130612
228	0x3bb47c85	0.005508008
229	0x3dbba290	0.09161866
230	0x3e30caa7	0.17264806
231	0x3d20f030	0.03929156
232	0x3e28b11b	0.1647381
233	0xbdc1d08e	-0.09463607
234	0x3e5fd308	0.21857846
235	0x3eaceda9	0.3377507
236	0xbe07495e	-0.13211581
237	0xbc242cb6	-0.010020426
238	0x3dba7003	0.09103396
239	0xbd4861de	-0.04892146
240	0xbcb602cd	-0.022218132
241	0x3dcbdcf3	0.09954252
242	0xbd605f3c	-0.054778323
243	0x3de904c9	0.11377866
244	0xbdfc4f7f	-0.1231985
245	0x3e0ac847	0.13552962
246	0xbd936fbf	-0.07199048
247	0xbe1a5b86	-0.15073976
248	0x3d8eb7c4	0.06968644
249	0x3dd36aa3	0.10323074
250	0x3eaa0bea	0.33212215
251	0x3deaef53	0.11471429
252	0xbe144b78	-0.14481914
253	0x3d85faff	0.06542014
254	0x3d023455	0.03178819
255	0xbe3ab4d4	-0.18233043

linears.1.bias f4 [40]
0	0x3d3fd231	0.046831314
1	0xbe10c4d2	-0.14137581
2	0xbcffc681	-0.031222584
3	0x3c90487c	0.017612688
4	0xbcf712e8	-0.030160382
5	0x3c1951c2	0.0093578715
6	0xbd0c49b1	-0.034249965
7	0xbd2ae3ca	-0.041721143
8	0xbd589657	-0.05287775
9	0x3cfc622f	0.030808536
10	0x3d550e1d	0.052015413
11	0x3d5786cd	0.05261879
12	0x3d1882a8	0.03723398
13	0xb960991a	-0.0002141934
14	0x3d43a061	0.04776037
15	0xbd98858a	-0.074473456
16	0x3d36792d	0.044549156
17	0xbb5ab5a3	-0.0033372424
18	0x3bd2761f	0.0064227725
19	0x3d43bdba	0.04778836
20	0xbcc77055	-0.024345556
21	0x3d52ab19	0.051432703
22	0x3dc56d2c	0.096399635
23	0x3d18a3c4	0.037265554
24	0xbd062efb	-0.032759648
25	0x3dbde9ad	0.09273086
26	0x3cbda3fe	0.023149487
27	0x3d70e630	0.058813274
28	0xbdb76906	-0.089555785
29	0xbd5e1290	-0.05421692
30	0x3d3b0108	0.04565528
31	0x3d38d2c3	0.045122873
32	0xbdc05ab5	-0.09392301
33	0x3d955e15	0.07293335
34	0xbd191c62	-0.037380584
35	0x3c3a3ca6	0.011366999
36	0xbd09b733	-0.033621978
37	0xbd814681	-0.06312276
38	0xbdb6870a	-0.089124754
39	0xbd4273f2	-0.047473855

linears.2.weight f4 [40, 40]
0	0x3cdd048c	0.026979707
1	0x3d47644b	0.04867963
2	0x3e02df72	0.1278055
3	0xbe13d1de	-0.14435527
4	0x3dbd1f13	0.092344426
5	0xbe98752d	-0.29776898
6	0x3b516b8d	0.0031954974
7	0x3e1c678a	0.15273872
8	0xbe88d269	-0.2672303
9	0xbeec8500	-0.4619522
10	0x3e972593	0.29520854
11	0xbdf4593c	-0.119310826
12	0x3d2dcd4c	0.042432114
13	0xbea527bc	-0.32256877
14	0x3e1cd476	0.15315422
15	0xbc3d2b1c	-0.011545923
16	0xbe166467	-0.14686738
17	0xbdbdaef6	-0.09261887
18	0x3e84b167	0.25916597
19	0xbea0148f	-0.31265685
20	0xbc05de83	-0.008170727
21	0x3d4f146d	0.05055659
22	0xbe26a66d	-0.16274424
23	0xbe53d851	-0.20687987
24	0xbe804889	-0.2505534
25	0x3de5c07a	0.112183526
26	0xbe7c99aa	-0.24667993
27	0x3e16a5e9	0.14711727
28	0xbd09c1a2	-0.03363193
29	0x3eecb2e5	0.46230236
30	0xbe884d79	-0.26621607
31	0x3e5e8413	0.2173007
32	0xbe70989d	-0.23495717
33	0x3c4d116e	0.012516363
34	0x3ddc933d	0.10770271
35	0x3c54aae7	0.012980199
36	0xbe38596d	-0.18002863
37	0x3dccf174	0.10006991
38	0x3eb3c493	0.35110912
39	0x3e866d4d	0.26255265
40	0x3de31286	0.110875174
41	0xbe82b584	-0.2552911
42	0xbdc76c4c	-0.09737453
43	0x3d520f10	0.051283896
44	0x3c58aea8	0.013225235
45	0xbdf1da8d	-0.118092634
46	0xbe8db359	-0.27675894
47	0x3d2e8dd3	0.042615723
48	0xbec468e7	-0.38361284
49	0x3d281e52	0.04104454
50	0x3ea33066	0.31872863
51	0xbe1506a6	-0.14553317
52	0x3b5cf141	0.0033713134
53	0x3e5caccd	0.21550293
54	0x3c0ed664	0.008718107
55	0xbdb331b5	-0.08749715
56	0x3e92c5d7	0.28666565
57	0xbe3346fb	-0.17507546
58	0x3cf47581	0.029841186
59	0x3ea417e9	0.32049492
60	0xbe6ad688	-0.229334
61	0xbdb5c0f4	-0.088746935
62	0x3e096d94	0.13420707
63	0xba7f158b	-0.0009730688
64	0xbd064a52	-0.03278572
65	0xbd62116a	-0.05519239
66	0xbe3c33e2	-0.18379167
67	0x3dfd5fe8	0.12371808
68	0xbe883206	-0.26600665
69	0xbce9f695	-0.028559962
70	0x3cffeb1d	0.03124004
71	0x3e316a0d	0.17325611
72	0xbee66305	-0.4499742
73	0x3e871db6	0.26389855
74	0xbdca4122	-0.09875704
75	0xbd0d9d80	-0.03457403
76	0xbdcf9cf6	-0.1013736
77	0x3dd51981	0.10405255
78	0xbdffde54	-0.124935776
79	0x3dc9c125	0.098512925
80	0xbe031c21	-0.12803699
81	0xbed04d89	-0.40684155
82	0xbe81dbdb	-0.2536305
83	0x3e429752	0.19003037
84	0xbc8c4669	-0.017123418
85	0xbd9cc7fd	-0.07655332
86	0x3dcd1ebf	0.1001563
87	0xbe84f68e	-0.25969356
88	0xbe99fc0b	-0.30075106
89	0x3caa0c55	0.020757833
90	0x3ea03aee	0.3129496
91	0x3dbc2460	0.091866255
92	0xbdbd20ad	-0.09234748
93	0x3e276f0b	0.16350953
94	0x3e31b8d9	0.1735567
95	0x3e53374e	0.20626566
96	0x3eb2ad77	0.34897968
97	0xbe257b29	-0.16160263
98	0x3d515a03	0.051111232
99	0x3e83c90a	0.25739318
100	0x3da7dbbb	0.08196207
101	0x3ebc6b0b	0.36800417
102	0x3cc6c8cb	0.024265667
103	0x3d6c382a	0.05767075
104	0xbd8fe472	-0.07025994
105	0x3da278da	0.07933207
106	0xbe34fe5c	-0.17675155
107	0x3b51e97c	0.0032030037
108	0xbe68f993	-0.22751455
109	0xbda6a3af	-0.08136689
110	0xbd24d34d	-0.040240575
111	0x3da1e0ba	0.07904191
112	0xbd591c30	-0.053005397
113	0x3e937a98	0.2880447
114	0x3e42edd1	0.19036032
115	0x3dd5ce0f	0.10439693
116	0x3d98218d	0.07428274
117	0xbe1f5dc8	-0.15563118
118	0x3e1557f1	0.14584328
119	0x3ce14e73	0.027503228
120	0xbf030cb1	-0.5119124
121	0xbd072185	-0.03299095
122	0xbda5e165	-0.08099631
123	0x3c0e95c2	0.008702697
124	0xbd2716dc	-0.040793285
125	0xbc3f4975	-0.011675228
126	0x3dd3ecc7	0.10347896
127	0xbdef81a6	-0.1169465
128	0x3e8970e9	0.26843956
129	0x3d572f6b	0.052535456
130	0xbdecf9e5	-0.11571101
131	0xbb21a25c	-0.0024663424
132	0x3d1cb9e4	0.038263217
133	0x3ddd7da1	0.108149774
134	0x3c25d1bb	0.010120804
135	0x3ee16bfb	0.44027695
136	0xbd36ea0d	-0.044656802
137	0x3efd1224	0.49427903
138	0xbe6b288f	-0.2296469
139	0xbd828857	-0.06373661
140	0xbcff7fe9	-0.031188922
141	0x3e872c2b	0.26400885
142	0x3d5cb833	0.053886604
143	0xbcb6d106	-0.022316467
144	0x3e2b8230	0.16748881
145	0x3e979cea	0.29611903
146	0xbe09d33c	-0.13459486
147	0x3d88df85	0.06683258
148	0xbe88378f	-0.26604888
149	0xbdd86e36	-0.10567896
150	0xbe99847f	-0.299839
151	0xbddf0ee5	-0.10891513
152	0x3d678c90	0.056530535
153	0x3d21604e	0.039398484
154	0xbe8ca59e	-0.27470106
155	0xbe0d4891	-0.13797213
156	0x3c76c52a	0.015061656
157	0x3d130870	0.03589672
158	0x3e4b39da	0.19846287
159	0x3d99ba81	0.07506276
160	0xbdea801b	-0.114502154
161	0xbce222e4	-0.027604528
162	0xbe55fe5f	-0.20897816
163	0xbdf37db6	-0.11889212
164	0x3e175e18	0.14781988
165	0x3ef0c1dd	0.47022906
166	0x3e573829	0.21017517
167	0xbe18a94b	-0.1490833
168	0x3e87fd25	0.2656032
169	0x3f000089	0.50000817
170	0xbe952c29	-0.29135254
171	0x3e85671a	0.26055223
172	0xbdd51c74	-0.10405818
173	0xbc837ee3	-0.016051715
174	0xbe43924a	-0.19098774
175	0x3d6d8bd4	0.05799468
176	0xbe18217c	-0.14856523
177	0xbe63db41	-0.22251607
178	0xbf04a98d	-0.51821214
179	0x3d082b2f	0.033244308
180	0x3cc84b08	0.02444984
181	0x3d898b58	0.06716031
182	0xbdf06c70	-0.11739433
183	0x3eeb188a	0.4591716
184	0xbe763255	-0.24042638
185	0xbcc5a86e	-0.024128165
186	0x3f19633a	0.5991703
187	0xbd7357de	-0.05940997
188	0xbd8396f2	-0.06425275
189	0x3d426e03	0.047468197
190	0x3efea16d	0.49732533
191	0x3ddf6f12	0.10909857
192	0xbe01372d	-0.12618704
193	0xbd1a2061	-0.037628535
194	0xbe100a44	-0.14066416
195	0xbe7a06e1	-0.24416687
196	0x3db61ab5	0.08891813
197	0xbe9284d6	-0.2861697
198	0xbec9258a	-0.39286453
199	0x3c6e6f0c	0.014552843
200	0xbbd59778	-0.0065183006
201	0x3db85f13	0.09002509
202	0xbc4fa173	-0.01267277
203	0xbdbdd72f	-0.09269559
204	0x3e2eebb2	0.17082098
205	0xbdb68cd1	-0.08913577
206	0xbe42d7d7	-0.19027649
207	0xbd572fd4	-0.052535847
208	0x3e27088b	0.16311853
209	0xbea699ba	-0.3253916
210	0x3d4832fd	0.04887675
211	0x3db25137	0.08706897
212	0x3c06ec64	0.008235071
213	0xbc6766c2	-0.01412362
214	0xbcde5c34	-0.027143575
215	0xbdbdbd76	-0.092646524
216	0xbdd74159	-0.10510511
217	0xbdd0c407	-0.10193639
218	0x3ec4ffa9	0.38476303
219	0xbd1af63d	-0.037832487
220	0x3d145d52	0.03622181
221	0xbe20e4af	-0.15712236
222	0xbd6c39e8	-0.05767241
223	0x3daa0001	0.08300782
224	0xbc8c4108	-0.017120853
225	0xbd9a13f3	-0.07523336
226	0xbe48c8e0	-0.19607878
227	0xbd92317c	-0.07138345
228	0xbdad254a	-0.08454378
229	0x3e53adea	0.20671812
230	0xbec53702	-0.3851853
231	0xbd6b950a	-0.05751518
232	0xbd70fb4a	-0.058833398
233	0x3dffba1e	0.12486671
234	0xbd8ac027	-0.067749314
235	0x3d1c1a60	0.03811109
236	0x3cc26ff8	0.023735031
237	0xbe32208d	-0.1739523
238	0x3d29a2ac	0.0414149
239	0xbd3c3ec1	-0.045958284
240	0xbdeeca80	-0.116597176
241	0xbcc6c852	-0.024265442
242	0x3e2691ae	0.1626651
243	0xbe725dcb	-0.23668592
244	0x3d0cfa30	0.034418285
245	0x3dd09f63	0.101866506
246	0x3e983a41	0.29731944
247	0xbc97db55	-0.018537203
248	0x3d8504a7	0.06495028
249	0x3e302bfe	0.17204282
250	0x3e91932c	0.28432596
251	0xbdca8758	-0.09889096
252	0x3c5a7e0e	0.013335718
253	0x3e562252	0.2091153
254	0xbdfa6261	-0.122257955
255	0x3ce540ae	0.027984943

linears.2.bias f4 [40]
0	0xbd4dd635	-0.050253112
1	0x3d80243a	0.0625691
2	0x3d33067e	0.043707363
3	0xbd0ca4d1	-0.03433687
4	0x3dd92df8	0.10604471
5	0xbd363925	-0.04448809
6	0x3c1a6395	0.009423156
7	0xbd006a67	-0.031351473
8	0xbda3c0b7	-0.07995742
9	0xbb092e54	-0.0020932155
10	0xbd2b1bb5	-0.04177447
11	0x3d2d00de	0.042237155
12	0xbd186453	-0.03720505
13	0x3dcab692	0.09898104
14	0x3d16d275	0.0368218
15	0xbd12b0b1	-0.035813037
16	0xb94c80ee	-0.00019502986
17	0x3c22a152	0.009926157
18	0x3ca61242	0.020272378
19	0x37cac4ab	2.4171857e-05
20	0xbd45aca8	-0.04826036
21	0xbd29ac20	-0.041423917
22	0xbd2cb2f1	-0.04216284
23	0x3daf1433	0.085487746
24	0x3d2c83aa	0.042117752
25	0xbc425b83	-0.011862638
26	0x3be9577a	0.0071210237
27	0xbd6089cb	-0.05481891
28	0x3d59964b	0.053121846
29	0xbc3d06f1	-0.0115372995
30	0xbcde2cd3	-0.027120983
31	0x3d014eb1	0.031569187
32	0x3c85f054	0.016349949
33	0x3c53c69c	0.01292577
34	0x3d1387e0	0.036018252
35	0x3d84d30b	0.06485566
36	0xbd13b0b7	-0.0360572
37	0xbc933ac4	-0.017972358
38	0xbd1a77ad	-0.037711788
39	0xbd08fa5b	-0.033441883

linears.3.weight f4 [40, 40]
0	0x3eb04950	0.34430933
1	0x3d6210bb	0.055191737
2	0x3e665963	0.22495036
3	0x3d424189	0.04742578
4	0xbee568ee	-0.44806617
5	0x3c5a9615	0.013341446
6	0x3d179869	0.037010584
7	0xbdc5f218	-0.09665316
8	0xbdbbb840	-0.09166002
9	0x3df5e9ad	0.12007461
10	0xbd7e004f	-0.062012013
11	0x3e7bc5a0	0.24587107
12	0xbca7ffaf	-0.020507662
13	0xbcf90ad5	-0.030400673
14	0xbe849c66	-0.25900573
15	0x3ca78800	0.020450592
16	0x3c790f87	0.015201456
17	0xbdd64951	-0.10463203
18	0x3d9cc7ec	0.076553196
19	0x3e5f289b	0.21792834
20	0x3a15dd94	0.00057169166
21	0xbdc20bc5	-0.09474901
22	0xbe1a0f17	-0.15044819
23	0x3e7ea97c	0.2486934
24	0x3d29a3d7	0.041416015
25	0x3d13a626	0.036047123
26	0x3d8b3c39	0.06798596
27	0x3e114f34	0.1419037
28	0xbdb05adf	-0.08611082
29	0xbe926957	-0.28595993
30	0x3d536942	0.051614054
31	0x3d2528e2	0.040322192
32	0x3e234b6c	0.1594674
33	0x3e016e17	0.12639652
34	0xbe27b19b	-0.16376345
35	0xbd818dbe	-0.06325863
36	0x3e05e3a9	0.13075127
37	0xbd8f0450	-0.069832444
38	0xbd93d764	-0.07218817
39	0x3e9aa7d4	0.30206168
40	0xbdbc5d1d	-0.091974474
41	0x3e6958b1	0.2278774
42	0xbe4a31b9	-0.1974553
43	0xbc635f8a	-0.013877759
44	0xbe36f4e9	-0.17866863
45	0x3e7a7f61	0.24462654
46	0x3c4d0a54	0.012514669
47	0xbe232549	-0.15932192
48	0xbd7f44aa	-0.062321343
49	0xbd238abc	-0.03992723
50	0xbe0856e4	-0.13314396
51	0x3e4cb3f5	0.19990523
52	0xbe4c87bd	-0.19973655
53	0xbd1fdc08	-0.039028198
54	0xbd4cbf5c	-0.049987182
55	0xbea0e1e0	-0.3142233
56	0xbe9a3a42	-0.30122572
57	0x3be37a8f	0.0069421004
58	0xbd4af834	-0.04955311
59	0x3e68da11	0.22739436
60	0xbd1af385	-0.037829895
61	0xbe6115b3	-0.21980934
62	0xbe6462e0	-0.22303343
63	0x3eb0c884	0.3452798
64	0x3dee309e	0.11630367
65	0x3e0272d8	0.12739122
66	0x3eb8ce7a	0.3609503
67	0xbe331403	-0.17488103
68	0x3e2e4c3a	0.17021266
69	0x3ca56f13	0.020194566
70	0xbe245aec	-0.16050309
71	0xbd8c67e5	-0.06855754
72	0xbe47e098	-0.1951927
73	0xbc6259bd	-0.013815341
74	0xbb9678c8	-0.004592035
75	0x3ebc5a29	0.36787537
76	0xbd3daae8	-0.046305567
77	0x3cf300e1	0.029663505
78	0xbe789c17	-0.24278294
79	0xbc6332bb	-0.013867076
80	0xbd67f51c	-0.05663024
81	0x3eaa64bf	0.33279988
82	0x3cc8da82	0.024518255
83	0x3d557dd9	0.05212197
84	0x3e100bef	0.14067052
85	0xbe424a41	-0.18973638
86	0xbe915eb4	-0.28392565
87	0x3d850588	0.064951956
88	0xbdbb7309	-0.091528006
89	0xbdf81e0d	-0.12115107
90	0x3e03a096	0.12854227
91	0x3eaa7dd5	0.33299127
92	0xbdc857ba	-0.097823575
93	0xbe20f678	-0.1571902
94	0x3da06771	0.0783223
95	0xbddd93be	-0.10819195
96	0x3d5723ea	0.052524485
97	0x3cb2dd58	0.02183406
98	0x3e767a20	0.24070024
99	0x3c805ab8	0.015668258
100	0xbdf96422	-0.12177302
101	0x3d7e2d26	0.062054776
102	0xbe7c298f	-0.24625228
103	0xbc8b8117	-0.017029328
104	0x3e0b8483	0.13624768
105	0x3e4b962c	0.19881505
106	0x3dd681c6	0.10473971
107	0x3c433abe	0.011915861
108	0x3dee6bd8	0.11641663
109	0xbd9727f2	-0.07380666
110	0x3e204ea7	0.15655003
111	0x3da54d08	0.08071333
112	0x3e3e16c5	0.18563373
113	0xbdfe99a8	-0.12431651
114	0xbe31d848	-0.17367661
115	0x3e81d49c	0.2535752
116	0xbe424a04	-0.18973547
117	0x3d31d1a4	0.04341282
118	0xbd7f31d1	-0.062303368
119	0x3e3624e7	0.17787515
120	0xbd00bf89	-0.031432662
121	0x3d99ec37	0.075157575
122	0x3e3b94c9	0.18318476
123	0xbdebd3e4	-0.11515024
124	0xbd665a03	-0.056238186
125	0x3e6d0001	0.23144533
126	0x3deef308	0.11667448
127	0x3dc40913	0.09572043
128	0xbd66bc5e	-0.056331985
129	0xbddcd733	-0.107832335
130	0x3ca8734b	0.020562788
131	0x3e634bf0	0.22196937
132	0x3e610978	0.21976268
133	0xbe925b59	-0.28585318
134	0xbe848e33	-0.2588974
135	0x3e0e5859	0.1390089
136	0xbe1f4165	-0.1555229
137	0x3d9e9f99	0.077452846
138	0x3d68b3bb	0.05681203
139	0x3de95d55	0.11394755
140	0xbd2cadb4	-0.042157844
141	0xbd5265a4	-0.051366463
142	0xbd9a37c3	-0.07530167
143	0x3a290f89	0.00064491533
144	0x3e35f48a	0.17769065
145	0xbbe795bb	-0.00706741
146	0x3d382c73	0.044964265
147	0xbe321677	-0.17391382
148	0xbe90d5c3	-0.28288087
149	0x3dc5174b	0.096235834
150	0xbe093272	-0.1339815
151	0xbd478d7c	-0.048718914
152	0xbe5ba13b	-0.21448223
153	0xbd09e4b7	-0.033665385
154	0xbea8d4e5	-0.32974926
155	0x3d091843	0.033470403
156	0x3e23206f	0.15930341
157	0x3d986ea2	0.074429765
158	0xbe880e72	-0.2657352
159	0xbe79b42e	-0.2438514
160	0xbe8cea2f	-0.27522418
161	0x3da0cecf	0.078519456
162	0xbc4bad62	-0.012431474
163	0xbea8b5e5	-0.32951275
164	0x3ef70e53	0.48253116
165	0xbdf1727b	-0.117894135
166	0xbdeebdb3	-0.11657276
167	0xbea50a62	-0.32234484
168	0x3c928880	0.017887354
169	0x3b55a55b	0.003259978
170	0xbe5fb459	-0.21846141
171	0xbd4088c9	-0.04700545
172	0xbdc4f23b	-0.09616514
173	0x3e2cab36	0.16862187
174	0x3e327462	0.17427209
175	0x3e22daf3	0.15903835
176	0x3e3982d7	0.18116318
177	0x3da9f6f7	0.08299058
178	0xbdc765aa	-0.09736188
179	0xbd659eee	-0.05605977
180	0x3e1005bf	0.14064692
181	0xbe9b9871	-0.3038974
182	0xbe1be0b0	-0.1522243
183	0xbe87f19a	-0.26551515
184	0x3e224322	0.15845922
185	0xbdb29551	-0.08719886
186	0xbdefcb32	-0.11708678
187	0xbf1c5a38	-0.6107516
188	0x3d0923e3	0.03348149
189	0x3d84ccf0	0.06484401
190	0xbe1bc533	-0.15211944
191	0x3d8ef7b5	0.0698084
192	0xbdef05d3	-0.11671033
193	0x3ee943ae	0.45559448
194	0x3e020eab	0.12700908
195	0x3dd0e8b2	0.10200633
196	0xbdf61712	-0.12016119
197	0x3e313b31	0.17307736
198	0x3e2e6d31	0.1703384
199	0xbe814b34	-0.25252688
200	0x3dbd957e	0.09257029
201	0x3c14b692	0.009076731
202	0xbe9b1177	-0.30286762
203	0x3e1ea563	0.15492778
204	0x3bc7bf1b	0.0060957796
205	0xbca47535	-0.02007542
206	0xbe63efde	-0.22259471
207	0x3e3559c4	0.17710024
208	0xbdbe9033	-0.093048476
209	0xbe864578	-0.26224875
210	0xbc54d1c4	-0.012989465
211	0xbc8f5e36	-0.017500978
212	0x3e144e42	0.14482978
213	0xba50e25d	-0.0007968301
214	0xbd6e8d0f	-0.058239993
215	0xbdea1648	-0.11430031
216	0x3d01ed71	0.031720582
217	0x3e8b24c5	0.2717649
218	0x3b44f138	0.0030051004
219	0x3e05a1d5	0.13050015
220	0xbe06a566	-0.13149032
221	0x3e716b58	0.23576105
222	0xbc848fe1	-0.016181888
223	0x3c9cbbea	0.019132573
224	0xbdf2c523	-0.11854007
225	0x3d4b41dd	0.04962336
226	0xbb2b39dd	-0.0026127019
227	0x3e680a18	0.226601
228	0xbd7412f2	-0.05958838
229	0x3d26c157	0.040711727
230	0xbd96b9d9	-0.073596664
231	0x3ed37c16	0.41305608
232	0x3dca7139	0.09884877
233	0xbd571c5e	-0.052517287
234	0xbe1337a5	-0.14376695
235	0xbde70066	-0.11279373
236	0x3d560301	0.05224896
237	0xbd1fae62	-0.038984664
238	0xbcdd49c7	-0.027012719
239	0x3ec0f05f	0.3768339
240	0xbe9c5cb0	-0.30539465
241	0xbeb8fdca	-0.36131126
242	0x3e4db1b2	0.20087317
243	0x3ee0ffa2	0.43945032
244	0x3ceacf94	0.028663434
245	0xbdd0c26b	-0.10193332
246	0x3dfc1306	0.12308316
247	0x3d73b172	0.059495397
248	0xbe90c316	-0.2827384
249	0x3c1192da	0.00888511
250	0xbca7f6a3	-0.020503348
251	0xbe259ca4	-0.16173035
252	0x3e8b1842	0.27166945
253	0xbe0cbf45	-0.13744839
254	0xbd600ee2	-0.054701693
255	0xbd34be5c	-0.044126853

linears.3.bias f4 [40]
0	0xbcbc54f6	-0.022989731
1	0x3ce2f7ff	0.027706144
2	0x3ce95a4e	0.028485443
3	0xb55bb74d	-8.1850595e-07
4	0x3d311841	0.04323602
5	0xbcd93aef	-0.02651736
6	0xbc9322ba	-0.017960895
7	0x3d12536a	0.03572408
8	0xbd4c446b	-0.049869936
9	0xbd6099f6	-0.05483433
10	0x3c6a4ae5	0.014300083
11	0xbc086c81	-0.008326651
12	0x3b020fa1	0.0019845741
13	0xbcd860f8	-0.026413426
14	0x3d38fd62	0.04516352
15	0xbd169cc1	-0.036770586
16	0x3d762fcb	0.060104173
17	0xbb7831bf	-0.0037871448
18	0xbd1235cc	-0.035695836
19	0xbd8272da	-0.063695624
20	0x3cf41588	0.029795423
21	0xbd2fe858	-0.04294619
22	0x3b6e8be7	0.0036399306
23	0x3d7f45f6	0.06232258
24	0xbccf0e1a	-0.025275279
25	0xbb245dfb	-0.002508043
26	0x3c22d91b	0.009939457
27	0xbca3743f	-0.019952891
28	0xbd344a31	-0.044016067
29	0x3df3b10c	0.118990034
30	0xbd970ba2	-0.07375266
31	0xbd3eca8d	-0.046579886
32	0x3bff3e13	0.0077893822
33	0x3d33f8bb	0.04393838
34	0xbcd4ed2e	-0.025992002
35	0x3c2e813e	0.010650931
36	0xbc67637d	-0.014122841
37	0x3d00e94a	0.03147248
38	0xbce7d9d1	-0.028302105
39	0xbcd5773f	-0.026057838

linears.4.weight f4 [40, 40]
0	0xbe3d998f	-0.18515609
1	0x3e3f05b5	0.18654521
2	0xbe8a93f7	-0.27066013
3	0xbce4bad4	-0.027921118
4	0x3d9a378d	0.07530127
5	0xbc8a7f7a	-0.016906489
6	0xbe50ce84	-0.2039128
7	0x3defaab2	0.117024794
8	0xbe8197b0	-0.2531104
9	0xbcc8ab45	-0.02449573
10	0xbc7548cc	-0.014970969
11	0xbcd00343	-0.02539218
12	0x3e25098b	0.16116922
13	0x3e8f6af7	0.28011295
14	0xbe1fe0db	-0.1561312
15	0xbd66a5ed	-0.056310583
16	0xbde74b38	-0.11293644
17	0xbe32df43	-0.1746798
18	0x3e80eeb6	0.25182122
19	0xbeaefc6f	-0.34176967
20	0x3d90b167	0.07065087
21	0xbd380f7a	-0.044936635
22	0xbc870b6c	-0.016484939
23	0xbe399ae4	-0.18125492
24	0xbdb71f89	-0.08941562
25	0xbdb7d64f	-0.08976423
26	0xbdb75600	-0.0895195
27	0xbce402ab	-0.027833303
28	0x3d3b584c	0.045738503
29	0x3d912647	0.07087379
30	0xbeac3305	-0.33632675
31	0x3cd93682	0.02651525
32	0x3eb877cd	0.360289
33	0x3e404a2c	0.18778294
34	0x3ca3d8a0	0.020000756
35	0x3d65bad4	0.056086376
36	0xbe74ba03	-0.23899083
37	0x3e2cb6aa	0.16866556
38	0xbebfee1a	-0.37486345
39	0x3e3ccdb6	0.18437847
40	0x3d25cfd8	0.04048142
41	0x3e2e21c3	0.17005067
42	0xbce730e3	-0.028221553
43	0xbe0bcdd8	-0.13652742
44	0xbdb4143b	-0.08792921
45	0xbe88de62	-0.26732165
46	0x3dd506b4	0.10401669
47	0x3ec52ef1	0.38512376
48	0xbdfeb765	-0.124373235
49	0xbe0a74df	-0.13521145
50	0x3db21e60	0.086972
51	0x3e0c942c	0.13728398
52	0xbe1fcd05	-0.15605552
53	0xbe220b38	-0.15824592
54	0x3dc83014	0.09774795
55	0xbe1bec28	-0.15226805
56	0xbd276b4d	-0.040873814
57	0xbd1afe9a	-0.037840463
58	0x3e40ce44	0.18828684
59	0x3e3a0d75	0.18169196
60	0x3dfc2c81	0.12313176
61	0x3c0c4723	0.008561882
62	0xbe28d892	-0.16488865
63	0x3d551c67	0.05202904
64	0xbe0ebab5	-0.1393841
65	0xbe7d7f7d	-0.24755664
66	0x3da6b07a	0.08139129
67	0x3df0bbeb	0.117545925
68	0x3d838348	0.06421524
69	0x3e186a70	0.14884353
70	0xbe1296c5	-0.14315327
71	0xbd068213	-0.032838892
72	0x3d7e791f	0.06212723
73	0xbe3c7284	-0.18403059
74	0x3d5cd6e9	0.05391589
75	0x3ec435be	0.38322252
76	0x3e18cb0f	0.1492121
77	0x3d1cb10d	0.038254786
78	0xbd160c1b	-0.03663264
79	0x3e9f1cab	0.3107656
80	0xbe25d19d	-0.16193242
81	0x3d9850ba	0.07437272
82	0x3d9513b6	0.0727915
83	0xbc9ce8cc	-0.019153975
84	0x3e880cc5	0.26572242
85	0xbe1d3f37	-0.15356146
86	0x3d610032	0.054931827
87	0x3e2ef8ff	0.17087172
88	0xbd869a76	-0.0657243
89	0x3df5ff4f	0.12011587
90	0x3eaa7c0e	0.3329777
91	0x3ed2151a	0.41031724
92	0x3e533464	0.20625454
93	0x3be94ddb	0.007119877
94	0xbe5c11e9	-0.21491207
95	0xbe4c8205	-0.19971474
96	0xbe30218c	-0.17200297
97	0x3d8ba44c	0.068184465
98	0x3dcc2ed9	0.09969873
99	0xbe3ef522	-0.18648198
100	0x3bdea060	0.0067940205
101	0x3df2d736	0.118574545
102	0x3e18dded	0.14928408
103	0xbb80ab51	-0.0039266725
104	0x3d4bc0e3	0.049744498
105	0xbedcd6db	-0.43132672
106	0xbd830254	-0.063969284
107	0x3d02a551	0.03189594
108	0xbf211151	-0.6291705
109	0xbe83269b	-0.2561539
110	0x3d9d5c19	0.07683582
111	0xbe0a3178	-0.13495433
112	0xbe0289f3	-0.12747936
113	0x3d4d18ed	0.0500726
114	0x3d81606a	0.06317218
115	0x3e3aa1fd	0.18225856
116	0x3df0c45e	0.11756204
117	0x3de4703c	0.111542195
118	0x397d860b	0.00024177895
119	0x3d304075	0.04303022
120	0x3cdc80b9	0.026916848
121	0xbeba0483	-0.36331567
122	0xbe5990b7	-0.2124661
123	0xbdf3dfaf	-0.11907899
124	0x3c601a83	0.013678196
125	0x3e9e2fcb	0.30895838
126	0x3ea64eef	0.32482097
127	0xbdb479d5	-0.088123
128	0xbe08ad88	-0.13347447
129	0xbdc7da3a	-0.0975842
130	0x3d3d62df	0.04623687
131	0x3e1fbf7c	0.15600389
132	0x3e02daf5	0.12778838
133	0x3ded237f	0.11579036
134	0x3b1d5280	0.0024005473
135	0xbd92a39c	-0.07160112
136	0x3da0b65a	0.07847281
137	0xbdc8d562	-0.098063245
138	0x3e5529e1	0.20816757
139	0x3c0584ce	0.008149339
140	0xbcaa2ab3	-0.020772314
141	0x3e2e36eb	0.17013137
142	0x3e5b4916	0.21414599
143	0x3d41e372	0.04733605
144	0x3da5313a	0.0806603
145	0xbe0f2a5b	-0.13981001
146	0x3e5df7a3	0.21676497
147	0x3e1a492b	0.15066974
148	0x3e298ee6	0.16558418
149	0xbdb56232	-0.0885662
150	0x3db700ae	0.089356765
151	0xbc77b312	-0.015118377
152	0x3c21a151	0.009865121
153	0xbce8b71a	-0.028407622
154	0x3dfdeda9	0.12398846
155	0x3e37dad4	0.1795457
156	0xbdd0564e	-0.10172711
157	0xbea8c1c6	-0.32960337
158	0x3e75ac0d	0.23991413
159	0x3dbc6531	0.09198988
160	0x3dd47c2b	0.10375246
161	0x3db6ed70	0.08932006
162	0x3d82ccf2	0.063867465
163	0x3d8e9b75	0.06963245
164	0x3df507c3	0.11964371
165	0xbd2d1568	-0.042256743
166	0xbdcd2e54	-0.10018602
167	0xbe835a07	-0.25654623
168	0x3de91d92	0.11382593
169	0xbe0c4ba9	-0.13700737
170	0xbd954ce8	-0.07290059
171	0xbe39f08e	-0.1815817
172	0xbded2a44	-0.11580327
173	0xbe194c0f	-0.1497042
174	0xbdc2195a	-0.09477492
175	0x3eb045df	0.34428307
176	0x3e49715d	0.19672151
177	0x3d0797e7	0.03310385
178	0xbe12eab5	-0.14347346
179	0xbcbd0fb9	-0.023078786
180	0x3d330a19	0.0437108
181	0xbcacb54c	-0.021082543
182	0xbe4b732d	-0.19868155
183	0x3d1c8b10	0.038218558
184	0x3e485e64	0.19567257
185	0x3bfe2b7f	0.00775665
186	0x3e036328	0.12830794
187	0xbd9f553f	-0.07779931
188	0xbe4ecb73	-0.20194797
189	0x3db91236	0.090366766
190	0x3ecfabc1	0.40560725
191	0xbdff8faa	-0.124785736
192	0x3e33843c	0.17530912
193	0x3d6015e2	0.05470837
194	0x3e020746	0.12698087
195	0x3e370af2	0.17875269
196	0x3e9524ee	0.29129738
197	0x3d1959c2	0.037439115
198	0xbdc6b595	-0.09702603
199	0xbe3c79eb	-0.18405883
200	0x3e20d348	0.15705597
201	0x3e36f4bc	0.17866796
202	0xbd1ffc7d	-0.03905915
203	0x3de89e4a	0.11358316
204	0xbeb3bae3	-0.3510352
205	0x3dae75b1	0.085185416
206	0x3ceaaa83	0.02864576
207	0xbe89a498	-0.26883388
208	0xbe037381	-0.1283703
209	0xbd86ee15	-0.06588379
210	0xbe1c33a0	-0.15254068
211	0xbdfed530	-0.12443006
212	0xbe02350d	-0.1271555
213	0xbdcf43ae	-0.10120331
214	0xbdaffd4a	-0.08593233
215	0xbe41753e	-0.1889238
216	0xbdc1c1b6	-0.094607756
217	0x3db7a03e	0.08966111
218	0x3e13bcf9	0.14427556
219	0xbe4b9776	-0.19881997
220	0x3e2acd81	0.16679956
221	0xbe0a0e5d	-0.13482042
222	0xbcf17402	-0.029474262
223	0xbe9803a0	-0.29690266
224	0xbd8790e1	-0.0661943
225	0xbded0657	-0.11573475
226	0xbe8044b2	-0.2505241
227	0x3d262451	0.040561978
228	0xbe725c51	-0.23668028
229	0xbdde700a	-0.108612135
230	0x3d1c2266	0.038118742
231	0x3e6071fd	0.21918483
232	0x3d2f4bc1	0.042796854
233	0x3d240212	0.040041037
234	0x3d9694b0	0.07352579
235	0x3e5f368b	0.2179815
236	0x3e3ccd97	0.18437801
237	0xbbcca0ba	-0.006244746
238	0xbd31ea62	-0.043436415
239	0x3d9abd6a	0.07555659
240	0xbda33355	-0.07968775
241	0xbd77d4c8	-0.06050566
242	0xbd3af028	-0.045639187
243	0x3cba84a3	0.022768324
244	0xbe573241	-0.21015264
245	0xbdb52280	-0.08844471
246	0xbe355b3b	-0.17710583
247	0xbe442c0c	-0.19157428
248	0xbd5b4a05	-0.053537387
249	0xbc1dfb51	-0.009642438
250	0xbe94c097	-0.29053184
251	0xbe103e5a	-0.14086285
252	0xbd8f776e	-0.07005201
253	0xbe182016	-0.1485599
254	0xbdc8c235	-0.09802667
255	0xba50da0d	-0.00079670624

linears.4.bias f4 [40]
0	0x3cc6562c	0.024211012
1	0x3d8505c7	0.064952426
2	0x3d48b2d5	0.048998673
3	0xbb858599	-0.004074764
4	0x3cd87306	0.026422035
5	0xbc1a6a59	-0.009424769
6	0xbce58a4a	-0.028020043
7	0xbdfaec32	-0.12252082
8	0x3cbd5000	0.023109436
9	0x3d052ea8	0.032515198
10	0x3d863511	0.0655309
11	0xbcd99afa	-0.026563156
12	0xbc60c07c	-0.013717767
13	0xbcacaf66	-0.02107973
14	0x3d5a45ff	0.05328941
15	0xbca0fb6d	-0.01965114
16	0x3c5d54f1	0.013509021
17	0x3d2f6fdb	0.042831283
18	0x3b4d97e9	0.0031371063
19	0x3add2a1f	0.0016873515
20	0xbccea34d	-0.025224352
21	0x3c88587e	0.016643759
22	0x3d5cc182	0.05389548
23	0xbc9ae9bc	-0.018910281
24	0xbdee4cb8	-0.11635727
25	0xbcbfba0a	-0.02340414
26	0xbcf394e4	-0.029734083
27	0xbc9f68a6	-0.01945908
28	0xbcda31d7	-0.026635094
29	0x3c54877b	0.012971754
30	0xbd39042e	-0.04517
31	0x3c6debb2	0.014521526
32	0x3bb22f35	0.0054377564
33	0xbce8484d	-0.028354788
34	0xbd3e4705	-0.04645445
35	0x3d521d7a	0.051297642
36	0xbd0861e5	-0.033296485
37	0xbca1d9cc	-0.019757174
38	0x3c8375c2	0.016047362
39	0x3c9ca77b	0.01912283

linears.5.weight f4 [40, 40]
0	0x3cd637f7	0.026149733
1	0x3d29941a	0.041401006
2	0xbd68adf1	-0.05680651
3	0x3dcf4514	0.101205975
4	0x3d6ffa8f	0.05858856
5	0xbe032446	-0.12806806
6	0x3d9c4879	0.076310106
7	0x3d4698d3	0.04848559
8	0xbcd0bc60	-0.02548045
9	0x3e142330	0.14466548
10	0xbe118e66	-0.14214477
11	0x3dfb07ff	0.122573845
12	0xbd656ff1	-0.05601496
13	0xbd547a43	-0.05187441
14	0x3e71eed5	0.23626263
15	0x3e776886	0.24160966
16	0xbe13b473	-0.14424305
17	0xbc87e35c	-0.016587906
18	0x3dff49c9	0.12465245
19	0x3e6e8644	0.23293406
20	0x3e6317b0	0.22177005
21	0xbb941c62	-0.004519985
22	0xbd7d149c	-0.061787233
23	0xbd3733b2	-0.044727035
24	0x3cdf403c	0.027252309
25	0x3e0bfbdd	0.13670297
26	0xbd3b0f29	-0.045668755
27	0x3d1646ae	0.0366885
28	0xbe42f3ee	-0.19038364
29	0xbe9209f8	-0.2852323
30	0x3dbdaea5	0.092618264
31	0xbc428555	-0.011872609
32	0xbdadde0c	-0.08489618
33	0x3d9ff726	0.07810812
34	0x3cb10729	0.02160986
35	0xbdfb5ed6	-0.12273948
36	0xbe28f9c7	-0.16501532
37	0x3d0f49ed	0.03498261
38	0x3e0c69d7	0.1371225
39	0x3e4d2edf	0.20037411
40	0xbe265521	-0.16243412
41	0x3d270d32	0.04078407
42	0xbe9bd85c	-0.30438507
43	0x3e184b63	0.14872508
44	0xbde86d5b	-0.11348983
45	0xbe3a12ad	-0.18171187
46	0xbe08c2c4	-0.13355547
47	0x3e4638bf	0.19357584
48	0xbc700b2a	-0.014651099
49	0x3dd4982c	0.10380587
50	0xbd8eb30d	-0.06967745
51	0xbe6333a6	-0.22187671
52	0xbe9f2e46	-0.3108999
53	0xbeec140a	-0.4610904
54	0xbc2e49fc	-0.010637756
55	0x3eb806c6	0.35942668
56	0xbe271e29	-0.16320099
57	0xbb530463	-0.003219866
58	0x3d05504a	0.032547273
59	0xbde61cf1	-0.11235989
60	0xbe3cfcc8	-0.18455803
61	0xbd1d473f	-0.038398024
62	0x3e8f6ef6	0.28014344
63	0x3ed4c302	0.4155503
64	0x3ee1c9bc	0.44099224
65	0xbcf9c70a	-0.030490417
66	0xbe63a1a8	-0.22229636
67	0x3d8df595	0.06931607
68	0x3e07efd3	0.1327508
69	0xbe59c2c2	-0.212657
70	0xbda1d330	-0.07901609
71	0x3d39edfc	0.045392975
72	0xbe67e7ff	-0.22647093
73	0x3ddd0a00	0.10792923
74	0x3eab9d10	0.33518267
75	0xbe3e6029	-0.1859137
76	0x3da8d08a	0.08242901
77	0x3d4d4967	0.05011883
78	0xbe2b7ffa	-0.16748038
79	0xbd6dce3b	-0.058058005
80	0x3e01ef5a	0.12688962
81	0xbc905a92	-0.017621312
82	0x3d0733d7	0.033008423
83	0xbe8b82c5	-0.27248207
84	0x3e58a2a8	0.21155798
85	0xbc58ddfc	-0.013236519
86	0x3e38af60	0.1803565
87	0x3db21bd2	0.086967126
88	0xbdbc0cf5	-0.09182159
89	0x3eacb688	0.3373301
90	0xbe2d5693	-0.16927557
91	0x3e5c2275	0.2149752
92	0x3d5c75f1	0.053823415
93	0x3ddd6565	0.10810355
94	0xbd0e4694	-0.034735277
95	0x3d6f9257	0.05848917
96	0xbe94d9e1	-0.29072478
97	0x3d7cf92e	0.061761074
98	0x3e060c66	0.13090667
99	0x3e36977b	0.17831223
100	0x3dd49977	0.103808336
101	0xbdc09646	-0.094036624
102	0x3e2e75ef	0.17037176
103	0xbdf8ce58	-0.12148732
104	0x3df0899f	0.11744999
105	0x3d4ba152	0.049714394
106	0xbe0a26ac	-0.13491315
107	0xbd1f0c7e	-0.038830273
108	0x3d3937af	0.04521912
109	0xbdf2e737	-0.11860507
110	0x3c320668	0.010865785
111	0x3d779f00	0.06045437
112	0x3ec3ee8e	0.3826794
113	0xbe06a0cc	-0.13147277
114	0xbde77670	-0.11301887
115	0xbe1f7d15	-0.15575059
116	0xbe24a208	-0.16077435
117	0xbd193e56	-0.037412964
118	0xbd6f388b	-0.058403533
119	0xbe5d2f68	-0.21600115
120	0xbd8ece02	-0.069728866
121	0xbde9fdd6	-0.114253685
122	0x3eabef2b	0.33580908
123	0x3d58d57d	0.052937973
124	0x3b909bb1	0.004413091
125	0x3d1ce6e6	0.03830614
126	0x3b4d7a75	0.0031353508
127	0x3e42f5bf	0.19039057
128	0xbe09a612	-0.13442257
129	0x3e1ce3e5	0.1532131
130	0x3de0de55	0.109799065
131	0x3c7fe2c9	0.015618035
132	0xbb87b61d	-0.0041415826
133	0x3d04ae7d	0.032392967
134	0x3eb06fb5	0.34460226
135	0xbe5e66df	-0.2171893
136	0x3d87ee5e	0.06637262
137	0x3de73ddf	0.11291098
138	0x3d105b6a	0.03524343
139	0xbe3da9c5	-0.18521793
140	0xbdb9744b	-0.09055384
141	0x3e4002a2	0.18751004
142	0x3dec1d51	0.11529029
143	0xbdefed1d	-0.11715148
144	0xbd9c9739	-0.07646031
145	0x3b0bc3d0	0.002132643
146	0x3d63c7fb	0.055610638
147	0x3e87f4f4	0.26554072
148	0xbd89bf89	-0.067259856
149	0x3e960e88	0.2930796
150	0xbe9e37ed	-0.30902043
151	0xbe738491	-0.23781039
152	0x3e83257b	0.25614533
153	0x3d96d3fc	0.073646516
154	0x3b0faaf0	0.0021921955
155	0x3e11a6c6	0.14223775
156	0x3d9b12d5	0.07571951
157	0x3d9a765e	0.07542108
158	0xbd98fb68	-0.07469827
159	0x3d0877a9	0.03331724
160	0xbd686886	-0.056740306
161	0xbe037494	-0.1283744
162	0xbd967ef3	-0.073484324
163	0xbbe72887	-0.007054392
164	0xbcb96d88	-0.022635236
165	0x3cf9a1a9	0.030472593
166	0xbd211051	-0.0393222
167	0xbdc20e4e	-0.09475385
168	0xbd8f22a6	-0.069890305
169	0xbe1f34e7	-0.15547524
170	0x3e0cdea8	0.13756812
171	0x3e64d9f6	0.2234877
172	0xbde8e8e1	-0.11372543
173	0x3e79bb48	0.24387848
174	0x3dd85002	0.10562135
175	0x3e8dfd29	0.27732208
176	0x3db86e7d	0.09005449
177	0x3d99f393	0.07517161
178	0xbe8bcbc9	-0.27303913
179	0xbd28b1ba	-0.04118512
180	0xbe524c1f	-0.2053685
181	0xbda70d53	-0.08156838
182	0x3e0e031d	0.13868375
183	0x3e1e462b	0.15456454
184	0xbd12c3f7	-0.035831418
185	0xbd722e98	-0.059126467
186	0x3ee1e9c8	0.44123673
187	0x3cb125a3	0.021624392
188	0x3d386976	0.04502245
189	0xbd8ec74c	-0.069716066
190	0xbd4fff35	-0.050780494
191	0x3c682d16	0.014170906
192	0x3ebf1231	0.37318566
193	0xbe508562	-0.20363382
194	0xbdd8da79	-0.10588545
195	0xbdc5999a	-0.09648438
196	0xbd1fd641	-0.039022688
197	0x3e3afcb6	0.18260464
198	0x3d4b6a43	0.049661886
199	0x3e64f332	0.22358397
200	0xbbe5f129	-0.007017274
201	0x3e75bb9a	0.23997346
202	0x3e8e765d	0.2782468
203	0x3a677186	0.0008828867
204	0xbe2174da	-0.15767232
205	0x3dcec0cc	0.10095367
206	0x3dfec468	0.12439805
207	0x3dd424a3	0.103585504
208	0x3e78a063	0.24279933
209	0x3e00b58f	0.12569259
210	0x3dc17be8	0.09447461
211	0xbdfbb973	-0.12291231
212	0xbe0d0d70	-0.13774657
213	0x3e50a346	0.20374784
214	0xbdce117a	-0.10061927
215	0xbbb74e8d	-0.005594081
216	0xbe73252d	-0.2374465
217	0x3e195c48	0.14976609
218	0x3da0c599	0.07850189
219	0xbe596ca1	-0.21232845
220	0x3da52dee	0.08065401
221	0x3cc62cc7	0.024191273
222	0x3d8e8c50	0.06960356
223	0xbe0c8996	-0.1372436
224	0x3dab3a2c	0.08360705
225	0xbc9c73ea	-0.01909824
226	0x3d430856	0.04761537
227	0xbc6d77cc	-0.014493894
228	0xbdc1b421	-0.09458185
229	0xbd8656b4	-0.06559506
230	0x3d65844d	0.056034375
231	0x3c4fa0c8	0.012672611
232	0x3e2f5481	0.1712208
233	0x3dda13c0	0.10648298
234	0xbe2337fb	-0.15939324
235	0x3ce63214	0.028100051
236	0xbe1b2ada	-0.15153065
237	0xbc86e05d	-0.016464407
238	0xbe94d607	-0.2906954
239	0x3cf5f5d1	0.030024441
240	0x3ed0434b	0.4067634
241	0xbe0860d3	-0.13318186
242	0x3e2f33d2	0.17109612
243	0xbe668547	-0.22511779
244	0x3dee0144	0.11621335
245	0xbeaafc37	-0.3339555
246	0x3dcd144b	0.10013636
247	0x3e841d56	0.25803632
248	0x3ec35153	0.38147983
249	0x3e81c7ee	0.25347847
250	0xbdc6d279	-0.09708113
251	0xbc3e4328	-0.011612691
252	0xbe76da64	-0.24106747
253	0xbea4e328	-0.32204556
254	0x3d730046	0.059326433
255	0xbe5683ab	-0.20948665

linears.5.bias f4 [40]
0	0x3ca2c89c	0.019871049
1	0xbd806f6b	-0.06271251
2	0x3ce1514a	0.027504582
3	0xbbace505	-0.0052763247
4	0x3b3d9711	0.0028929154
5	0x3ccf3f95	0.025298873
6	0x3c0b7c64	0.008513544
7	0xbccdb3fd	-0.02511024
8	0xbc9e1212	-0.019295726
9	0x3cbe7836	0.02325068
10	0x3b87cc18	0.004144203
11	0xbcd8a2f5	-0.026444891
12	0x3c951aff	0.01820135
13	0x3c638ee2	0.013889046
14	0x3c9d5ed0	0.01921025
15	0xbcd922cd	-0.026505852
16	0xbd3c7018	-0.04600534
17	0xbdd08162	-0.10180928
18	0xbe242b66	-0.1603218
19	0xbdeb56fe	-0.11491202
20	0x3cb1045d	0.021608526
21	0x3de6f300	0.11276817
22	0x3c0ad746	0.008474177
23	0x3d52ad7a	0.05143497
24	0xbc5b7b17	-0.013396046
25	0x3d19c906	0.037545227
26	0xbca54789	-0.020175712
27	0x3c81d80d	0.015850091
28	0xbbf72a2d	-0.0075428695
29	0xbc80a830	-0.015705198
30	0x3c78e25b	0.015190686
31	0xbcae7eb3	-0.02130065
32	0xbd3784f1	-0.044804517
33	0xbd001d19	-0.03127775
34	0xbcc0144f	-0.023447184
35	0x3d020c7f	0.0317502
36	0xbd5463ff	-0.051853176
37	0xbcb48779	-0.022037255
38	0x3cc1d8df	0.023662983
39	0xbc1c206f	-0.009529217

linears.6.weight f4 [1, 40]
0	0xbea5414b	-0.32276377
1	0x3e43c970	0.19119811
2	0xbd848d04	-0.06472209
3	0x3e8a16b0	0.26970434
4	0x3acc36f2	0.001558034
5	0xbebc6995	-0.36799303
6	0xbe030b6b	-0.12797324
7	0x3ebaf0c7	0.36511824
8	0x3e25659d	0.16152044
9	0xbd88afed	-0.0667418
10	0xbe644d7c	-0.22295183
11	0x3d0f64bf	0.03500819
12	0xbe2e8611	-0.1704333
13	0xbdc7cf09	-0.09756286
14	0xbde1ea28	-0.1103099
15	0x3e0601ab	0.13086574
16	0x3f2882eb	0.65824765
17	0x3e33e4d9	0.17567767
18	0x3b947ee0	0.0045317262
19	0x3e54aa84	0.20768172
20	0xbe04bf54	-0.12963611
21	0x393a3c92	0.00017760906
22	0xbe6e3be3	-0.23265032
23	0xb8d4ce07	-0.00010147323
24	0x3e482841	0.19546606
25	0xbe6ac2db	-0.22925894
26	0x3e2ff786	0.17184266
27	0xbebd8494	-0.37015212
28	0xbd421bc9	-0.04738978
29	0x3d0d9c17	0.034572687
30	0x3c9c325d	0.019066984
31	0x3e9f88ce	0.3115906
32	0x3e7601b3	0.24024086
33	0x3e14c81f	0.14529465
34	0xbb6f6118	-0.0036526378
35	0xbeb57a01	-0.35444644
36	0x3bfc2cf8	0.0076957904
37	0x3f23ffe1	0.64062315
38	0xbea76a61	-0.32698348
39	0x3f1409ae	0.5782727

exp_avg f4 [40, 2]
0	0x3a04d1ac	0.0005066644
1	0x39e5bc23	0.00043818456
2	0xb9bfa414	-0.00036552607
3	0x389727c4	7.207648e-05
4	0x3a8c27d2	0.001069302
5	0x39bab22d	0.00035609436
6	0xb7069693	-8.022081e-06
7	0xb7fa896f	-2.986632e-05
8	0x39aa746b	0.00032511665
9	0x398f3867	0.00027317108
10	0x395869e9	0.0002063882
11	0xb8003d84	-3.057487e-05
12	0xb9a0bcde	-0.00030658295
13	0xb9787684	-0.00023695274
14	0xb9c3a61c	-0.0003731706
15	0x3830efcd	4.2185e-05
16	0x3a086b74	0.0005204
17	0x3851140a	4.9848146e-05
18	0xba9216ff	-0.0011145769
19	0xb9978052	-0.0002889657
20	0xb98f6b0c	-0.00027354842
21	0xb93ee77c	-0.00018206047
22	0xba5629e9	-0.0008169697
23	0xb9a1d034	-0.00030863436
24	0x3a5945ef	0.0008288314
25	0x3981303a	0.0002464073
26	0x39c3a0f5	0.0003731322
27	0x392fc647	0.00016763165
28	0xb8819044	-6.178071e-05
29	0x38ce4b7b	9.836905e-05
30	0xba04b0f6	-0.00050617696
31	0xb8ec027a	-0.00011253818
32	0xba31da2c	-0.00067845243
33	0xb81355a2	-3.5127283e-05
34	0x3a745e23	0.0009321889
35	0x396482a9	0.00021792449
36	0x39fbda5f	0.0004803715
37	0x393a37a5	0.00017759071
38	0xba2887e9	-0.00064289436
39	0xb958735d	-0.00020642341
40	0x39f9ddac	0.0004765814
41	0x38143e18	3.534378e-05
42	0xb9ab580b	-0.0003268126
43	0xb90dc168	-0.00013518857
44	0x3903d05e	0.00012570756
45	0x3985efd7	0.0002554643
46	0x399d7cb3	0.00030038282
47	0x390b4fd9	0.00013285819
48	0xb9430e85	-0.00018602058
49	0x395b3267	0.00020904244
50	0xba11ab4b	-0.00055568357
51	0xb8923f37	-6.973597e-05
52	0xba84e993	-0.0010140411
53	0xb9b55d20	-0.00034592394
54	0x3a67450a	0.00088222383
55	0x399af486	0.00029555353
56	0xb8726190	-5.778816e-05
57	0x38b6efcc	8.723102e-05
58	0x37793071	1.4852835e-05
59	0x3930b0a4	0.00016850472
60	0xba3f4018	-0.00072956225
61	0xb9bfe228	-0.00036598858
62	0x3a1f5fbe	0.00060796354
63	0x399b4ba3	0.00029620258
64	0xb9bbdf47	-0.00035833774
65	0xb96a47a0	-0.00022342661
66	0xb82167a2	-3.8481907e-05
67	0x39229c5d	0.00015507774
68	0x3a06a2b6	0.000513594
69	0x395a7e03	0.00020837043
70	0x399970a7	0.00029266367
71	0xb763d918	-1.35808e-05
72	0xb72db330	-1.0353324e-05
73	0x39a30aff	0.00031097975
74	0x38e58e4a	0.00010946074
75	0xb897ad30	-7.2325e-05
76	0xb97308ff	-0.00023177637
77	0xb761343b	-1.3423206e-05
78	0x3940fbed	0.00018404397
79	0x37e6c974	2.7511946e-05

exp_avg_sq f4 [40, 2]
0	0x3a1442ae	0.0005655688
1	0x39c131b1	0.00036848852
2	0x39a2c234	0.0003104374
3	0x37258959	9.866745e-06
4	0x3b2c4537	0.0026286372
5	0x397ea46f	0.00024284584
6	0x33cf42ee	9.651363e-08
7	0x354911dd	7.490433e-07
8	0x3985152a	0.00025383505
9	0x391f246a	0.00015176987
10	0x38c3f4ea	9.3439434e-05
11	0x36659063	3.4207703e-06
12	0x395db85c	0.00021144882
13	0x38d916a3	0.00010351583
14	0x39a9821e	0.00032331137
15	0x3672e7ad	3.6195663e-06
16	0x3a1e37b7	0.0006035524
17	0x36c00ea9	5.7237526e-06
18	0x3b3d8338	0.0028917324
19	0x392af664	0.00016304251
20	0x3929d287	0.00016195523
21	0x387c59c6	6.016509e-05
22	0x3ac56253	0.001505921
23	0x3946d691	0.00018962684
24	0x3acd6d87	0.00156729
25	0x38f166cb	0.00011510922
26	0x39a07a8a	0.00030608877
27	0x388f6edd	6.839421e-05
28	0x370baa04	8.3246305e-06
29	0x37a8268e	2.0045114e-05
30	0x3a0fa750	0.00054799486
31	0x37b54408	2.1608561e-05
32	0x3a8af14a	0.0010600474
33	0x35496fe9	7.5041186e-07
34	0x3afda754	0.0019352236
35	0x38830ff2	6.249537e-05
36	0x39ffa667	0.0004876137
37	0x384c8b26	4.8766982e-05
38	0x3a75760f	0.00093636004
39	0x38a4012d	7.8203484e-05
40	0x3a05663e	0.00050887826
41	0x3595f402	1.1172381e-06
42	0x39799041	0.00023800229
43	0x38191cf3	3.6505004e-05
44	0x380999dc	3.2806638e-05
45	0x39034777	0.00012519756
46	0x394c47d8	0.0001948172
47	0x37f11c2e	2.8742561e-05
48	0x38a8cc42	8.04891e-05
49	0x38c75004	9.5039635e-05
50	0x3a35dc2e	0.00069374114
51	0x3712f7e8	8.759998e-06
52	0x3b19ddd5	0.002347817
53	0x3960de97	0.00021445226
54	0x3ae7c6b4	0.001768312
55	0x3927e9e1	0.00016013488
56	0x3706da71	8.037882e-06
57	0x379613f1	1.789068e-05
58	0x34e906c0	4.3404543e-07
59	0x386797c8	5.521605e-05
60	0x3a9aec07	0.0011819609
61	0x398bdb8a	0.00026675715
62	0x3a6f6717	0.0009132488
63	0x3946fe8a	0.00018977575
64	0x399d3c12	0.0002999013
65	0x38caf6b3	9.678062e-05
66	0x3691ac58	4.3414e-06
67	0x3852e2f0	5.0279254e-05
68	0x3a1cfc38	0.0005988511
69	0x38ad867c	8.2743325e-05
70	0x39466270	0.00018919422
71	0x34fade8c	4.6728053e-07
72	0x3558fe05	8.083592e-07
73	0x394f3d4c	0.00019763893
74	0x37d6b391	2.5594405e-05
75	0x3758f669	1.2931975e-05
76	0x3909a571	0.0001312697
77	0x35c75e32	1.485407e-06
78	0x38c7614b	9.507182e-05
79	0x36295358	2.5231475e-06

exp_avg f4 [40]
0	0x3a8a10c1	0.0010533558
1	0x39709568	0.00022943842
2	0x3a492dbe	0.00076743576
3	0xb852de99	-5.0275212e-05
4	0x3a2b062d	0.00065240526
5	0xb8f83c68	-0.00011836813
6	0xba1159ef	-0.0005544712
7	0x392d1ad6	0.00016508563
8	0x38b08339	8.416776e-05
9	0xba1be70e	-0.00059472106
10	0xb9e4a9b5	-0.0004361399
11	0xba358c08	-0.00069254683
12	0x3a091e5b	0.00052306586
13	0x39e2f7b8	0.00043290644
14	0x39863d64	0.0002560421
15	0xb9750066	-0.00023365169
16	0x3778a7ac	1.4820991e-05
17	0x39c34683	0.00037245834
18	0x39c7bda2	0.00038097525
19	0xb9e57e6d	-0.00043772478
20	0x372b3506	1.020474e-05
21	0xb9a535ff	-0.00031511483
22	0x3a22bd5e	0.00062080275
23	0x39932026	0.00028061977
24	0x3a1959eb	0.00058498856
25	0xb8e934d7	-0.00011120148
26	0xba3a0ec5	-0.0007097538
27	0x3a2752ea	0.00063828996
28	0x397d1359	0.00024135168
29	0x39df736c	0.0004261987
30	0xba6502c7	-0.00087360706
31	0x3a2ff409	0.0006712084
32	0xba05ac35	-0.0005099208
33	0x39d66a93	0.00040896665
34	0x39f2be51	0.00046299634
35	0xb89aed18	-7.3874544e-05
36	0x3a4ea610	0.00078830216
37	0xb95d2850	-0.0002109122
38	0xb7db59d6	-2.6148668e-05
39	0x383d98d2	4.5203436e-05

exp_avg_sq f4 [40]
0	0x3b16ecb1	0.0023029263
1	0x38933183	7.0187285e-05
2	0x3abcb051	0.0014395808
3	0x3624331a	2.446765e-06
4	0x3a73ca8a	0.0009299895
5	0x37ca04a7	2.4082443e-05
6	0x3a2a5e2d	0.00064990186
7	0x3814c5fa	3.547033e-05
8	0x37ea3438	2.791929e-05
9	0x3a792f33	0.00095056294
10	0x39d456bd	0.00040500416
11	0x3a8ebba2	0.0010889659
12	0x3a32378b	0.00067984377
13	0x39cfa363	0.0003960385
14	0x39023fc9	0.00012421528
15	0x39009467	0.00012262315
16	0x36aa9efd	5.0849035e-06
17	0x39cb68db	0.000387973
18	0x39a1d100	0.0003086403
19	0x39f16c9d	0.00046048025
20	0x3683b276	3.92488e-06
21	0x396c74a9	0.00022550173
22	0x3a482af0	0.0007635793
23	0x3931c423	0.00016953102
24	0x3a2a0227	0.0006485306
25	0x3838941d	4.400696e-05
26	0x3aa25ee1	0.0012387895
27	0x3a80a421	0.0009814539
28	0x38fa21c9	0.00011927222
29	0x39bda8ef	0.00036174754
30	0x3ad94169	0.001657528
31	0x3a904415	0.0011006618
32	0x3a1a90e0	0.0005896222
33	0x39a88c38	0.00032147928
34	0x3a029a1d	0.0004982071
35	0x36e638bf	6.8611403e-06
36	0x3a9d3404	0.0011993651
37	0x38bce8db	9.007911e-05
38	0x370c6df0	8.370247e-06
39	0x377cc2d0	1.5065729e-05
