pdebench/models/newly_trained_models/Advection/PINN1D_Advection_Sols_beta4.0_PINN.pt-15000.pt (torch, 119461 bytes, 39 tensors)

linears.0.weight f4 [40, 2]
0	0x3ecb3dcc	0.39695585
1	0xbcb03774	-0.021510817
2	0xbe912cb4	-0.28354418
3	0x3c9a2122	0.018814627
4	0x3e39d58f	0.18147872
5	0x3e87d8d2	0.26532608
6	0xbeae7dc2	-0.3408032
7	0x3e838c54	0.25693
8	0x3ed459d4	0.41474783
9	0xbdd55a7c	-0.10417649
10	0x3e66d462	0.22541955
11	0xbe8e7c8f	-0.27829406
12	0x3dea9698	0.11454505
13	0x3e138721	0.14407016
14	0xbd696e54	-0.056989983
15	0x3eea3c14	0.4574896
16	0xbe885a54	-0.26631415
17	0x3d80c27d	0.06287096
18	0x3d5fca57	0.054636326
19	0x3e45f33d	0.1933107
20	0xbeb34e7b	-0.35020813
21	0xbe4d1017	-0.20025669
22	0xbc9b0798	-0.01892452
23	0x3deff146	0.11715941
24	0x3d546dee	0.05186265
25	0xbdd9585b	-0.106125556
26	0x3ec32887	0.38116857
27	0xbd34992b	-0.044091385
28	0xbe004504	-0.12526327
29	0xbdeca3a5	-0.1155465
30	0xbe55d928	-0.2088362
31	0xbda5cd56	-0.08095805
32	0x3df0ddb1	0.11761034
33	0xbd33af89	-0.043868575
34	0xbf504766	-0.81358945
35	0xbe3146c5	-0.17312153
36	0x3e46242e	0.19349739
37	0x3ea842e4	0.32863533
38	0x3e6fcb68	0.23417437
39	0xbd5650f6	-0.052323304
40	0xbd0e3692	-0.03472001
41	0xbd62095c	-0.055184707
42	0xbe00eebb	-0.12591068
43	0xbc9d2a0f	-0.019185094
44	0xbe1de501	-0.1541939
45	0xbdb02b18	-0.086019695
46	0x3f31b368	0.6941438
47	0x3e002423	0.12513785
48	0x3e25c82b	0.1618964
49	0xbe17c0f7	-0.14819704
50	0xbe3695eb	-0.17830627
51	0x3d8a0ba2	0.067405
52	0x3d692608	0.056921035
53	0x3df8fce6	0.121576115
54	0x3dfd09b3	0.123553656
55	0x3e4b67b9	0.19863786
56	0xbe27c3f7	-0.16383348
57	0x3c8b69a6	0.01701815
58	0x3da87199	0.08224792
59	0x3a75ec1e	0.00093811925
60	0x3ed4021f	0.41407868
61	0xbcf9dac8	-0.03049983
62	0x3e01a51e	0.12660643
63	0x3e5c5051	0.21515013
64	0xbd9d5751	-0.0768267
65	0xbce33e49	-0.02773966
66	0x3e7ff2d3	0.24994974
67	0xbde67fa8	-0.11254817
68	0x3e1d7981	0.15378381
69	0x3d75e8d2	0.060036488
70	0x3de5fd94	0.11230007
71	0x3c3855ee	0.011250956
72	0x3ea6388a	0.3246501
73	0xbdbefcc0	-0.09325552
74	0xbdd75a26	-0.10515241
75	0x3ec658ac	0.38739526
76	0x3e47ae72	0.1950014
77	0x3deeec92	0.11666216
78	0xbead1630	-0.3380599
79	0x3e2d1656	0.16903052

linears.0.bias f4 [40]
0	0xbe426b60	-0.18986273
1	0x3dfc702f	0.12326085
2	0x3da37dd5	0.07982985
3	0xbd06c20a	-0.032899894
4	0xbcaef07f	-0.021354912
5	0x3b9fe29f	0.0048793103
6	0xbe0ff734	-0.14059144
7	0x3de26b58	0.110556304
8	0x3d9bfa1a	0.076160625
9	0x3d0e2abf	0.034708735
10	0x3e299b5c	0.16563171
11	0x3d0b2a7a	0.033976056
12	0xbdb11da3	-0.08648231
13	0x3d01a3d2	0.03165037
14	0xbd92472a	-0.0714248
15	0x3dea55b5	0.114421286
16	0xbdd71e88	-0.1050387
17	0x3c97933e	0.018502828
18	0x3d02cff0	0.031936586
19	0x3cd77f3e	0.026305791
20	0x3e1b997f	0.15195273
21	0x3d340003	0.043945324
22	0xbc864900	-0.016392231
23	0x3d6f0cc5	0.058361787
24	0xbdc0cd90	-0.09414208
25	0x3cee39a1	0.029080214
26	0xbd738ef9	-0.05946252
27	0xbdc5b6b4	-0.096539885
28	0x3daa7f87	0.08325105
29	0xbdc19cdb	-0.09453746
30	0xbc06ce2a	-0.008227864
31	0xbda6e27f	-0.081486695
32	0x3d920902	0.07130624
33	0x3c390a49	0.011293956
34	0x3bb15dfc	0.005412815
35	0x3d529401	0.05141068
36	0xbc7ce36f	-0.015435084
37	0xbd5aba31	-0.053400222
38	0xbe1e2606	-0.15444192
39	0x3cd7ded0	0.026351362

linears.1.weight f4 [40, 40]
0	0xbecf491a	-0.4048546
1	0xbd073c07	-0.03301623
2	0x3dbdd0fa	0.09268375
3	0x3e48b00b	0.19598405
4	0xbe0767db	-0.13223211
5	0x3e9238bd	0.28558913
6	0x3d57cd50	0.052686036
7	0xbe24717e	-0.16058919
8	0xbc3f7aa9	-0.011686959
9	0xbcfaef53	-0.030631697
10	0x39c16d48	0.0003689325
11	0x3d8cabd0	0.06868708
12	0x3dc630f6	0.09677307
13	0xbd63aa8c	-0.055582568
14	0x3e5fc517	0.21852528
15	0xbe34e035	-0.17663653
16	0xbd9b102f	-0.07571446
17	0xbd36c653	-0.04462273
18	0x3d0a9a0f	0.033838328
19	0xbe5d2cf8	-0.21599185
20	0x3d1ad975	0.03780504
21	0x3ee5eaac	0.44905603
22	0xbe1772e4	-0.14789921
23	0x3e09fc73	0.13475208
24	0xbc32457f	-0.010880827
25	0xbe07ef4c	-0.13274878
26	0xbe7cc981	-0.24686243
27	0x3df9d93e	0.12199639
28	0x3dae0461	0.08496929
29	0xbe6e3400	-0.23262024
30	0xbe54f7fc	-0.20797724
31	0xbdecbbb9	-0.11559243
32	0xbe3ef193	-0.18646841
33	0xbe40aa11	-0.18814875
34	0x3c003d8e	0.007827176
35	0xbe06475c	-0.13113159
36	0xbe43bafc	-0.19114298
37	0x3d7d8b1e	0.06190025
38	0x3e868e82	0.262806
39	0x3d748f1c	0.059706792
40	0xbc9c15f7	-0.019053442
41	0x3e9b86dc	0.30376327
42	0xbdb3158b	-0.08744343
43	0xbe0f0816	-0.13967928
44	0xbe2363e8	-0.1595608
45	0x3e062a28	0.13102019
46	0x3e56e3a3	0.20985274
47	0xbdda0934	-0.106462866
48	0xbd32aded	-0.0436229
49	0x3e9cd2bd	0.3062953
50	0x3db4f56c	0.08835873
51	0x3e967270	0.29384184
52	0x3e09d68e	0.13460752
53	0xbe4d928f	-0.20075439
54	0xbe093fdb	-0.13403265
55	0x3d683eb1	0.056700412
56	0x3e41035c	0.18848938
57	0x3e8c1e3e	0.27366823
58	0x3d861e94	0.06548801
59	0xbdbfacad	-0.09359107
60	0xbe8cbdb1	-0.27488473
61	0x3e8aa281	0.27077106
62	0x3e8e8cc5	0.27841774
63	0xbde373b4	-0.11106053
64	0xbde6170c	-0.112348646
65	0x3e1ddec1	0.15417005
66	0xbe2defe3	-0.16986041
67	0x3d8e9b44	0.06963208
68	0xbd9df68b	-0.0771304
69	0x3e20950c	0.15681857
70	0xbcfffd07	-0.031248583
71	0x3e00e6b8	0.12588012
72	0xbc8e91bc	-0.017403476
73	0xbd65cdd4	-0.056104496
74	0xbe9ad2f5	-0.30239072
75	0xbe03291c	-0.1280865
76	0xbe2989a8	-0.16556418
77	0x3dcc2867	0.09968644
78	0xbe2ced64	-0.16887432
79	0x3e6c217b	0.23059647
80	0x3e9dac39	0.30795458
81	0x3d59d754	0.05318387
82	0xbd6eb98f	-0.05828243
83	0x3e1b66e2	0.15175965
84	0x3e1a9ee7	0.15099679
85	0x3edac2a2	0.42726618
86	0x3e20a2f0	0.15687156
87	0x3e2ee652	0.17080048
88	0xbe2709f1	-0.16312386
89	0x3e0d9b7f	0.13828848
90	0xbd451ddd	-0.048124183
91	0xbd8bfe23	-0.06835582
92	0x3d90215e	0.07037614
93	0x3ea4a271	0.32155183
94	0xbc110afd	-0.0088527175
95	0xbdb7150f	-0.089395635
96	0xbdc58266	-0.09644012
97	0xbd5bdd78	-0.053678006
98	0x3dd8b19d	0.10580752
99	0xbcd13028	-0.025535658
100	0x3d15c2bf	0.036562677
101	0xbe2c9b0c	-0.1685602
102	0xbb876473	-0.0041318475
103	0x3ca61bac	0.020276867
104	0x3e667293	0.22504644
105	0xbcdb8501	-0.02679682
106	0x3e1f1a3b	0.1553735
107	0x3ec3c13e	0.3823337
108	0xbd7b116e	-0.06129592
109	0x3e07d225	0.13263758
110	0xbd219594	-0.03944929
111	0x3b405aa8	0.002935091
112	0x3e0c72d3	0.13715677
113	0xbdbc4258	-0.091923416
114	0xbeeb462f	-0.45951983
115	0xbd8c32b4	-0.06845608
116	0x3da70b67	0.08156472
117	0xbd9cfb32	-0.07665099
118	0x3e0f9c34	0.1402443
119	0xbccf7575	-0.025324563
120	0xbe081b07	-0.1329156
121	0xbc82b6b1	-0.015956255
122	0xbd20274e	-0.039099984
123	0x3e137d4e	0.14403269
124	0x3e920863	0.28522024
125	0x3e966e31	0.29380944
126	0x3e768da3	0.24077468
127	0xbda821ed	-0.08209596
128	0xbde7669f	-0.1129887
129	0x3cee6bd7	0.029104156
130	0xbe2f60fb	-0.17126839
131	0xbe0d3281	-0.13788797
132	0x3e812a92	0.2522779
133	0x3dc82646	0.09772925
134	0x3b351f9e	0.0027637254
135	0xbde92f5e	-0.11385988
136	0x3dd7749f	0.105202906
137	0xbd98d168	-0.07461816
138	0x3dc7b055	0.097504295
139	0x3c8f16d4	0.01746694
140	0xbec6444d	-0.38723984
141	0x3e58b6a2	0.21163419
142	0xbd02de12	-0.031950064
143	0x3e0eaea4	0.13933808
144	0xbd033516	-0.03203305
145	0xbdb0132d	-0.085974075
146	0xbdc298c7	-0.09501796
147	0xbc065ae0	-0.008200377
148	0x3c585ed3	0.013206202
149	0xbeaf0c02	-0.3418885
150	0x3eab6670	0.3347659
151	0x3e4698d3	0.19394235
152	0x3d0e748b	0.034779113
153	0x3e0a9eb3	0.13537101
154	0x3dc9bd3c	0.09850547
155	0x3d9bb6ab	0.076032005
156	0x3e56309b	0.20916979
157	0x3c9320f0	0.017960042
158	0x3e99b9ba	0.3002451
159	0xbd1ca636	-0.03824445
160	0x3e05fd21	0.13084842
161	0x3dc73dc2	0.09728576
162	0x3c0f6608	0.0087523535
163	0x3d136727	0.035987046
164	0x3d5f02d4	0.054446056
165	0xbe9ee315	-0.31032625
166	0xbcef955f	-0.02924603
167	0xbec5260a	-0.38505584
168	0xbc90ceae	-0.017676678
169	0xbcc31202	-0.023812298
170	0xbd41db7d	-0.04732846
171	0x3cb56d9e	0.022146996
172	0xbeb75683	-0.3580819
173	0x3e2676ce	0.16256258
174	0xbe144566	-0.14479598
175	0x3d953f11	0.072874196
176	0xbd9172c9	-0.07101972
177	0xbdebc506	-0.115121886
178	0x3e839d2a	0.25705844
179	0x3cba3dd9	0.02273457
180	0xbda73dbe	-0.08166073
181	0xbc8adc58	-0.016950771
182	0xbd8f733b	-0.070044
183	0x3e40c2e7	0.1882435
184	0x3e8784af	0.26468417
185	0x3cad3ab1	0.02114615
186	0x3d957edd	0.07299588
187	0x3dc8b533	0.09800186
188	0xbd028420	-0.031864285
189	0x3eb60511	0.3555074
190	0x3ec46398	0.38357234
191	0xbe9217a8	-0.28533673
192	0x3d98ab82	0.074545875
193	0x3d60ad70	0.054852903
194	0x3d28dec3	0.041228067
195	0x3d99f857	0.0751807
196	0x3e06caa8	0.13163245
197	0xbe10667d	-0.14101596
198	0x3e4e876e	0.2016885
199	0xbe1da1ab	-0.15393703
200	0x3e9e759e	0.3094911
201	0x3e00a2f1	0.12562157
202	0xbde9e9f2	-0.11421575
203	0xbe887039	-0.2664812
204	0xbd4c1c95	-0.049831945
205	0x3e0a1b9c	0.13487095
206	0x3c3b868d	0.011445654
207	0x3e022f83	0.12713437
208	0x3e8ff880	0.28119278
209	0x3d9a9fe2	0.075500265
210	0x3ca26d1a	0.019827414
211	0xbd6afa92	-0.05736787
212	0xbdbe4ed9	-0.09292383
213	0xbd4cc15f	-0.0499891
214	0x3e304218	0.17212713
215	0x3ccdedde	0.025137838
216	0xbe3a1844	-0.18173319
217	0x3e1f6222	0.15564778
218	0xbe1eec58	-0.15519845
219	0x3dab6b73	0.08370104
220	0xbc3767fc	-0.011194225
221	0x3cef0a04	0.02917958
222	0xbd3be297	-0.04587039
223	0xbea2db18	-0.3180778
224	0xbe7d9526	-0.24763927
225	0xbd974e82	-0.07388021
226	0xbe315297	-0.17316662
227	0xbd91f506	-0.07126813
228	0x3e5d3fd8	0.21606386
229	0x3e6110ed	0.21979113
230	0xbe43d3f6	-0.19123825
231	0x3e8da7d1	0.27667096
232	0x3e6f9629	0.23397125
233	0xbd4ae9a4	-0.049539223
234	0xbe575e24	-0.21032006
235	0xbe8cab43	-0.27474412
236	0x3e142a6b	0.14469306
237	0xbd9a30db	-0.0752885
238	0xbd2007e1	-0.039070014
239	0xbe195920	-0.14975405
240	0xbddc0187	-0.10742479
241	0x3cb2817d	0.02179026
242	0x3eac1aaf	0.33614108
243	0x3e0780bd	0.13232704
244	0x3e7edfba	0.24890032
245	0x3d0d4e47	0.03449848
246	0xbddb7558	-0.10715741
247	0x3aca1f9f	0.0015420801
248	0x3d95aa2b	0.073078476
249	0x3dc37bde	0.0954511
250	0xbd81cc46	-0.0633779
251	0x3bccd52b	0.0062509975
252	0x3e74aa71	0.23893143
253	0xbd7e5cc9	-0.062100206
254	0xbdf7db6d	-0.12102399
255	0x3e932b64	0.28744042

linears.1.bias f4 [40]
0	0xbce72b80	-0.028218985
1	0xbd158dc2	-0.036512144
2	0x3b9ff867	0.004881907
3	0xbd809074	-0.06277552
4	0x3c816306	0.015794288
5	0xbc12113b	-0.008915241
6	0x3d917973	0.07103243
7	0x3d9e907f	0.07742404
8	0x3c5845e0	0.013200253
9	0xbdd88d9e	-0.10573886
10	0xbd133a1b	-0.035944086
11	0x3dabeec0	0.08395147
12	0xbd3d19c6	-0.046167158
13	0xbd8df70d	-0.06931887
14	0xbd83bc37	-0.064323835
15	0xbd2b86d2	-0.04187662
16	0xbce78e13	-0.028265988
17	0xbcca8df3	-0.02472589
18	0x3d5fec57	0.05466875
19	0xbd87808a	-0.06616314
20	0x3d5419a8	0.05178228
21	0x3df60bdb	0.1201398
22	0x3c140a65	0.009035681
23	0xbd6f2561	-0.058385257
24	0xbd841bb0	-0.064505935
25	0x3dbc29a8	0.09187633
26	0xbb276770	-0.0025543831
27	0xbbbc0ce4	-0.0057388414
28	0xbdca84aa	-0.09888585
29	0x3da85065	0.08218459
30	0x3c838128	0.016052797
31	0xbd9b66ec	-0.0758799
32	0x3d2c7da9	0.042112026
33	0xbe011d06	-0.12608728
34	0x3db11ba0	0.08647847
35	0x3cc1ea14	0.023671187
36	0x3dbf325b	0.093357764
37	0xbdf6bd39	-0.1204781
38	0xbd49049d	-0.049076665
39	0x3cc63b33	0.02419815

linears.2.weight f4 [40, 40]
0	0x3d09c188	0.03363183
1	0xbdbba16d	-0.09161649
2	0x3e042907	0.12906276
3	0x3d1cb632	0.038259692
4	0x3da52b3f	0.08064889
5	0xbd50f6ba	-0.051016547
6	0xbe9d3c80	-0.3071022
7	0x3a87f5d0	0.001037294
8	0x3d2c25a9	0.042028103
9	0xbc330425	-0.010926281
10	0x3e6936fd	0.22774883
11	0x3dabbdc8	0.08385807
12	0x3e1c314c	0.1525318
13	0x3e4a4964	0.19754559
14	0xbd26684d	-0.040626813
15	0xbdcf559d	-0.10123751
16	0xbe16b280	-0.1471653
17	0xbdcd0ffc	-0.100128144
18	0x3d3a9779	0.04555461
19	0x3de02b78	0.10945791
20	0xbce6f250	-0.028191715
21	0xbe0219ce	-0.12705156
22	0x3e435899	0.19076766
23	0x3e46baa9	0.19407143
24	0xbe20dc45	-0.15709026
25	0xbcd359d6	-0.025799673
26	0xbdb09474	-0.08622065
27	0x3d376a96	0.044779383
28	0xbdfcc414	-0.123420864
29	0xbccd8647	-0.025088442
30	0xbea39c8d	-0.31955376
31	0xbdd8c817	-0.10585039
32	0x3e5f0838	0.21780479
33	0xbe48c617	-0.19606815
34	0xbd994d9d	-0.07485507
35	0x3e94dd5f	0.29075143
36	0x3d2ae76c	0.041724607
37	0x3da0db49	0.07854325
38	0xbe10b67c	-0.14132112
39	0xbe0f1549	-0.13972963
40	0xbc5281ff	-0.012848376
41	0xbde4ac4e	-0.11165677
42	0xbe2004b3	-0.15626793
43	0x3b9e4e43	0.004831107
44	0xbe3f24a2	-0.18666318
45	0xbea181cc	-0.3154434
46	0x3d6dd960	0.058068633
47	0x3dc4324a	0.095799044
48	0x3e94cf09	0.29064205
49	0x3e51a96f	0.2047479
50	0xbdd9d8bb	-0.10637041
51	0x3de07a1e	0.10960792
52	0xbe140d93	-0.14458303
53	0x3ca14c3a	0.019689668
54	0xbe835c42	-0.25656325
55	0x3e2d31b8	0.16913497
56	0x3d2f5b9e	0.042811982
57	0xbca6f374	-0.02037976
58	0xbe19a2d6	-0.15003523
59	0x3e2357d2	0.1595147
60	0xbe088c48	-0.13334763
61	0xbe72ef47	-0.2372409
62	0xbddc35aa	-0.10752423
63	0x3e27f866	0.1640335
64	0xbe09ef93	-0.13470297
65	0xbca20837	-0.019779308
66	0x3e8ce07c	0.27515018
67	0xbe47e640	-0.19521427
68	0x3e3491ff	0.17633818
69	0xbe438616	-0.19094118
70	0xbda19706	-0.078901336
71	0x3d215ebd	0.03939699
72	0x3d48b3c6	0.04899957
73	0x3e4e79b5	0.20163615
74	0x3ec2e902	0.38068396
75	0x3de03195	0.10946957
76	0xbea09d5a	-0.3137005
77	0xbe6f5faa	-0.23376337
78	0xbd43f6b0	-0.04784268
79	0xbd093762	-0.033500083
80	0x3d93118b	0.071810804
81	0xbc562f8a	-0.013072858
82	0xbe98bc68	-0.29831243
83	0xbdabf468	-0.08396226
84	0x3c9bec74	0.019033648
85	0xbdeca8fc	-0.11555669
86	0x3d218613	0.039434504
87	0x3d9eb902	0.07750131
88	0x3d4e8edd	0.050429214
89	0xbe2716bb	-0.16317265
90	0xbdf4fb83	-0.119620346
91	0xbdef39ca	-0.11680944
92	0x3c849aae	0.016187038
93	0xbd5feb94	-0.054668024
94	0x3d90f94c	0.070787996
95	0x3ddd9973	0.10820284
96	0x3e399c61	0.1812606
97	0xbe191bf7	-0.14952074
98	0xbde4dd2e	-0.11174999
99	0xbd5e4d1c	-0.054272756
100	0xbe1c9f49	-0.15295137
101	0xbe6919f4	-0.22763807
102	0x3eb1e551	0.34745267
103	0xbe8c1b12	-0.27364403
104	0xbe74eea5	-0.2391916
105	0x3e17e815	0.14834626
106	0x3d1b87ee	0.03797143
107	0x3d450e55	0.04810937
108	0xbd0790b3	-0.03309698
109	0x3cc934a5	0.024561236
110	0xbd696a42	-0.0569861
111	0x3e7c8e89	0.24663748
112	0xbec0c45b	-0.37649807
113	0x3ccbb608	0.024867073
114	0x3e61ae85	0.2203923
115	0x3dac683c	0.08418319
116	0xbd2858dc	-0.041100368
117	0xbe03f876	-0.12887749
118	0xbe63ef44	-0.22259241
119	0xbe33bcbf	-0.1755247
120	0xbda2c528	-0.07947761
121	0x3d36e2de	0.04464995
122	0x3d3a250c	0.045445487
123	0x3e7540c3	0.23950486
124	0xbddefdcb	-0.10888251
125	0xbe09a674	-0.13442403
126	0xbeaab7ac	-0.33343256
127	0xbdbf8cf9	-0.0935306
128	0x3d24e48d	0.040257026
129	0x3da4c481	0.08045293
130	0xbdf6ed31	-0.120569594
131	0xbe9962ea	-0.29958278
132	0x3e26b727	0.16280805
133	0x3e1f9603	0.15584569
134	0x3e1f9d2c	0.155873
135	0xbdb7b4e7	-0.08970051
136	0xbdbece27	-0.09316664
137	0xbe2258ff	-0.15854262
138	0x3e4f9e84	0.20275313
139	0x3cbaaebd	0.0227884
140	0xbda2f324	-0.07956532
141	0xbe8ecb18	-0.27889323
142	0xbe8e73f0	-0.27822828
143	0x3e3d0f95	0.18462975
144	0x3d37545a	0.04475818
145	0xbed2728b	-0.41103014
146	0x3c24aa1a	0.010050321
147	0x3dd3e35d	0.103461005
148	0xbde80bad	-0.11330352
149	0xbe3e954e	-0.18611643
150	0x3d80430e	0.0626279
151	0xbd1090d8	-0.035294384
152	0x3cfc2ddd	0.030783588
153	0x3f0a51a6	0.54030836
154	0x3d81dea6	0.06341295
155	0xbb800d8d	-0.0039078654
156	0xbe831a64	-0.25606072
157	0x3f0558b5	0.5208848
158	0x3e843043	0.2581807
159	0x3df9e1e6	0.1220129
160	0xbce1b69a	-0.027552892
161	0xbe2ef067	-0.17083894
162	0xbc6b9f99	-0.014381313
163	0xbe692d7e	-0.2277126
164	0xbd6d768a	-0.057974376
165	0x3e342e4c	0.17595786
166	0xbc9993c7	-0.018747224
167	0x3e3d4bf5	0.18486007
168	0xbe89a47f	-0.26883313
169	0x3e1a9a77	0.15097986
170	0x3dc34ed9	0.09536523
171	0xbdbb07ef	-0.091323726
172	0xbbbcc704	-0.005761029
173	0x3e1ae0c2	0.15124801
174	0xbdb70286	-0.08936028
175	0x3c596995	0.013269802
176	0x3d11f1ce	0.035630994
177	0xbbec38f0	-0.007208936
178	0xbb942f58	-0.0045222454
179	0xbd2fe779	-0.04294536
180	0xbe1a8e46	-0.15093336
181	0x3c525292	0.012837069
182	0x3cbb826c	0.022889338
183	0x3eb3ddaf	0.3513007
184	0xbbb528d4	-0.0055285487
185	0xbc870303	-0.016480928
186	0xbdab3a58	-0.083607376
187	0xbe1445dc	-0.14479774
188	0xbe59f0f6	-0.21283326
189	0x3b40d95d	0.0029426434
190	0xbda222c6	-0.07916789
191	0xbd5e8b10	-0.05433184
192	0x3d66dc77	0.056362595
193	0x3e180cc9	0.14848627
194	0x3dd1cf26	0.102445886
195	0xbe3e1965	-0.18564375
196	0x3d9c4353	0.076300286
197	0xbe8489ea	-0.2588647
198	0xbdff713a	-0.12472768
199	0x3e156acb	0.1459152
200	0x3e32a786	0.17446718
201	0x3e3dbd8c	0.18529338
202	0xbd5af589	-0.053456817
203	0xbe78205c	-0.24231094
204	0xbea15875	-0.315128
205	0x3e0d42fc	0.13795084
206	0x3e76b9f9	0.2409438
207	0x3c0c5cd0	0.00856705
208	0x3d961c45	0.07329611
209	0x3ea352c0	0.3189907
210	0xbe85a171	-0.26099733
211	0x3df98776	0.1218404
212	0xbe3babb3	-0.18327217
213	0x3ed87034	0.42273104
214	0xbd9645e3	-0.073375486
215	0x3ef5d34d	0.48012772
216	0xbdf1bb1c	-0.118032664
217	0xbc4d7476	-0.0125399735
218	0xbe54516a	-0.20734182
219	0xbea14d0c	-0.31504095
220	0xbe6c3742	-0.23067954
221	0xbe881a12	-0.2658239
222	0x3da8b5fd	0.082378365
223	0x3e34f973	0.17673282
224	0xbeb5146b	-0.3536714
225	0xbd810fd8	-0.0630185
226	0xbeb279b8	-0.3485849
227	0x3e111c0f	0.1417086
228	0x3f12b538	0.5730777
229	0x3abfa48b	0.0014621181
230	0xbdf7bfdf	-0.120971434
231	0x3e0c3fba	0.13696185
232	0xbf0d9234	-0.55301213
233	0xbec17b7f	-0.37789533
234	0x3e7dc3bc	0.24781698
235	0x3d14ebd7	0.036357727
236	0xbe5b3112	-0.21405438
237	0x3d14cd02	0.036328323
238	0x3e6cd649	0.23128618
239	0xbe5f5493	-0.21809606
240	0xbe079b14	-0.13242751
241	0xbdd75743	-0.10514691
242	0x3e587a49	0.21140398
243	0x3e22fa11	0.15915705
244	0x3e14809e	0.14502189
245	0x3e077fd0	0.1323235
246	0x3e6b60a6	0.22986087
247	0x3abc1130	0.0014348384
248	0xbe17d59f	-0.14827584
249	0xbe0b93a5	-0.1363054
250	0x3da56853	0.08076539
251	0x3dc1279b	0.09431382
252	0xbd88ed04	-0.06685832
253	0xbeb567cb	-0.3543075
254	0xbd802377	-0.062567644
255	0x3ea26882	0.31720358

linears.2.bias f4 [40]
0	0xbcfb317f	-0.03066325
1	0xbc819cb1	-0.015821787
2	0x3d1e532f	0.03865355
3	0xbd4a556a	-0.049397863
4	0x3a5fb6e2	0.00085340266
5	0xbd92c064	-0.07165602
6	0x3d2e7daa	0.04260031
7	0x3c0fa780	0.008767962
8	0xbd175590	-0.036946833
9	0xbce81a23	-0.028332775
10	0x3d7e2453	0.06204636
11	0xbc012c8e	-0.007884158
12	0x3d639243	0.055559408
13	0x3d0807e5	0.033210654
14	0xbcbabd5c	-0.022795372
15	0x3d5f99b4	0.054589942
16	0x3cf9d274	0.03049586
17	0xbc1a3467	-0.009411908
18	0xbb89a8fa	-0.004201052
19	0x3b0e9095	0.0021753658
20	0x3bc04131	0.0058671464
21	0x3db2ac48	0.08724266
22	0xbbe27c5d	-0.006911798
23	0x3dbc897a	0.09205909
24	0x3cd7b566	0.026331615
25	0x3d880551	0.06641639
26	0xbd2fef05	-0.042952556
27	0xbd7d9e0e	-0.06191831
28	0x3d4eef23	0.050521027
29	0xbd8f5af9	-0.069997735
30	0x3c7ef723	0.015561852
31	0x3aeea21f	0.0018206275
32	0x3d319704	0.04335691
33	0xbdabe5c6	-0.08393435
34	0x3c330463	0.010926339
35	0xbd1ae0e0	-0.037812114
36	0xbd75d1db	-0.060014587
37	0xbcdd5b4b	-0.027021071
38	0x3d9cc950	0.07655585
39	0xbc78d9ca	-0.015188644

linears.3.weight f4 [40, 40]
0	0xbe894a8d	-0.2681469
1	0xbdf2047a	-0.1181726
2	0xbe2930e4	-0.16522557
3	0x3eb4eb03	0.3533555
4	0xbe08531d	-0.13312955
5	0xbca33d53	-0.019926703
6	0xbe3a0d84	-0.18169218
7	0xbe053aaf	-0.13010667
8	0xbdad108f	-0.08450424
9	0x3d504351	0.050845448
10	0xbe067d64	-0.1313377
11	0xbe012175	-0.12610419
12	0xbcb4b938	-0.022060975
13	0xbccfe7a9	-0.025379019
14	0x3e40d211	0.18830134
15	0x3d5c756e	0.053822927
16	0xbe556f5f	-0.20843266
17	0xbe97aa23	-0.29621992
18	0xbe71530e	-0.23566839
19	0x3e9fd3a4	0.31216156
20	0x3cc639e0	0.024197519
21	0x3cedbc7c	0.02902054
22	0x3d83a9b0	0.0642885
23	0xbe01b54f	-0.1266682
24	0x3e74dac4	0.23911577
25	0xbc8c7284	-0.017144449
26	0x3eeeedac	0.46665704
27	0x3d1b0a4c	0.037851617
28	0xbe209ef1	-0.15685631
29	0xbe10c9fe	-0.14139554
30	0xbdc4a0a5	-0.09600953
31	0xbe32be92	-0.1745551
32	0xbe3c925d	-0.18415208
33	0x3dce0c58	0.10060948
34	0x3e710a21	0.2353902
35	0xbdbc92ef	-0.09207713
36	0x3bb70893	0.005585739
37	0x3cbde19c	0.023178868
38	0x3c8b0daf	0.016974298
39	0x3ddf6f9b	0.10909959
40	0x3da1b011	0.0789491
41	0xbdaf7b37	-0.08568423
42	0x3c582b6c	0.013193946
43	0xbebae20c	-0.36500585
44	0xbd9e3c90	-0.07726395
45	0xbd17c821	-0.037056092
46	0xbe630d15	-0.22172959
47	0xbe054515	-0.13014634
48	0xbd158132	-0.036500163
49	0x3ce6465d	0.028109724
50	0x3c6df798	0.014524363
51	0x3de3128d	0.11087523
52	0xbe258cbc	-0.16166967
53	0xbe0de05e	-0.1385512
54	0x3d28b27e	0.04118585
55	0xbb805075	-0.003915841
56	0x3e195ceb	0.14976852
57	0x3daaca86	0.083394095
58	0x3da026b3	0.07819881
59	0xbe3ad0dc	-0.18243736
60	0x3e35b713	0.17745619
61	0x3c580c4c	0.013186526
62	0xbe48635c	-0.19569153
63	0x3e3f8459	0.1870283
64	0xbe558fd8	-0.20855653
65	0x3e1af95f	0.1513419
66	0xbe090b13	-0.1338313
67	0xbd6caa40	-0.05777955
68	0xbe850d60	-0.25986767
69	0xbd7835c8	-0.060598165
70	0x3e2271b5	0.15863688
71	0xbddb3018	-0.107025325
72	0x3d49a4d6	0.049229465
73	0x3c0b22d9	0.008492195
74	0x3d2fea6b	0.042948168
75	0xbc2f3afd	-0.010695216
76	0x3c3a01fc	0.011353012
77	0xbefd534d	-0.49477616
78	0xbde495ed	-0.111614086
79	0x3dc31614	0.095256954
80	0x3e5518b4	0.20810205
81	0x3e13648c	0.14393824
82	0xbd69e9c9	-0.05710772
83	0xbd699eb0	-0.0570361
84	0xbe09c07a	-0.1345233
85	0xbdb0c7ff	-0.08631896
86	0xbe7fa53c	-0.24965376
87	0x3e3d127f	0.18464087
88	0xbb1fae33	-0.0024365305
89	0xbd880bb5	-0.06642858
90	0xbd8829c3	-0.066485904
91	0xbd556644	-0.05209948
92	0xbed267a2	-0.4109469
93	0xbe807040	-0.2508564
94	0x3e08b3d4	0.13349849
95	0xbee286bb	-0.44243416
96	0xbddd0a94	-0.10793033
97	0x3ea5ae89	0.32359722
98	0x3e96f946	0.29487056
99	0xbe0c7fd2	-0.13720635
100	0x3db91ba3	0.090384744
101	0xbdf7df12	-0.12103094
102	0x3dd14857	0.10218876
103	0xbd47634d	-0.048678685
104	0xbd765cde	-0.06014716
105	0x3e0e4135	0.13892062
106	0x3e1317ab	0.14364497
107	0xbde7b4aa	-0.11313756
108	0x3e2aa540	0.166646
109	0x3e88898f	0.2666745
110	0x3d5dc780	0.054145336
111	0xbce540ac	-0.02798494
112	0x3e2bfefd	0.16796489
113	0xbe2cd424	-0.168778
114	0xbe801562	-0.25016314
115	0x3e88648b	0.26639208
116	0xbe5975b0	-0.212363
117	0x3ccefd2b	0.025267204
118	0x3e376e17	0.1791309
119	0x3df95bf5	0.121757425
120	0x3c43c2ff	0.011948346
121	0xbb4da5a9	-0.0031379259
122	0xbe11db35	-0.14243777
123	0x3e76b937	0.24094091
124	0xbe1534e8	-0.14570963
125	0x3d9e9c2c	0.07744631
126	0x3e815bf0	0.25265455
127	0xbe4c6517	-0.19960438
128	0xbe83f727	-0.257745
129	0x3e16f83d	0.14743133
130	0xbe68cd09	-0.22734465
131	0xbd808602	-0.0627556
132	0xbe084d63	-0.1331077
133	0xbe16c580	-0.14723778
134	0x3ec5f9f3	0.3866726
135	0x3de75c03	0.11296847
136	0xbccfc54b	-0.025362631
137	0x3dd876df	0.10569548
138	0xbd2ef767	-0.04271641
139	0xbd7b5e8f	-0.061369475
140	0xbe107ee9	-0.14110912
141	0xbd958177	-0.07300084
142	0xbcc3e371	-0.023912163
143	0x3dc367a2	0.09541251
144	0xbf067e39	-0.5253635
145	0x3e31d3a7	0.17365895
146	0x3d581113	0.05275066
147	0x3f077bd8	0.52923346
148	0xbdd7be22	-0.10534312
149	0x3e2265bf	0.15859126
150	0xbe207f0b	-0.15673463
151	0xbd728f69	-0.059218798
152	0xbd46b24a	-0.048509873
153	0x3c93968e	0.018016126
154	0x3dca5ed6	0.0988137
155	0xbdc15139	-0.0943932
156	0xbcd62a86	-0.026143324
157	0x3e80254f	0.25028464
158	0xbe786747	-0.24258147
159	0x3da271d3	0.079318665
160	0x3d6e1e19	0.058134172
161	0x3df219fc	0.118213624
162	0xbdcc4160	-0.09973407
163	0x3e06a96d	0.13150568
164	0x3de2225b	0.11041709
165	0xbdedbc6c	-0.11608204
166	0xbdb4e212	-0.08832182
167	0xbe10ca80	-0.14139748
168	0x3ca23a8b	0.019803306
169	0xbd037cc6	-0.032101415
170	0xbd82e6a4	-0.063916475
171	0x3cb969a7	0.022633387
172	0x3d495881	0.04915667
173	0xbdc88241	-0.09790469
174	0xba828399	-0.0009957432
175	0x3e0c9217	0.13727604
176	0xba6d13fc	-0.00090438104
177	0x3e24cb6f	0.16093229
178	0x3e0fe945	0.14053829
179	0x3d1c85c8	0.03821352
180	0xbe44cd03	-0.19218831
181	0xbe073687	-0.13204394
182	0xbe15d1de	-0.14630839
183	0xbc15e894	-0.009149689
184	0xbd1c44a7	-0.03815141
185	0x3c8c438d	0.017122054
186	0x3c98e485	0.018663654
187	0x3e032a96	0.12809214
188	0x3df5b0fc	0.11996648
189	0x3e5563b9	0.20838822
190	0xbdb016e1	-0.08598114
191	0x3d7a1f83	0.06106521
192	0xbc31fa15	-0.010862847
193	0x3db08272	0.086186305
194	0xbe69ee1f	-0.22844742
195	0x3ea87724	0.32903397
196	0x3b441f9a	0.0029926063
197	0x3d563bc2	0.052303083
198	0x3d99a34e	0.07501851
199	0xbdfa973e	-0.122358784
200	0x3e00188d	0.12509365
201	0xbe3ec59b	-0.18630068
202	0x3e910d02	0.28330237
203	0xbda3187c	-0.079636544
204	0x3e5ad719	0.21371116
205	0x3c038d6a	0.008029321
206	0x3e216c14	0.15763885
207	0xbced532d	-0.028970325
208	0x3d7a5519	0.06111631
209	0x3dff8301	0.12476159
210	0xbd64671f	-0.055762406
211	0x3d203e9e	0.039122216
212	0x3d88f97b	0.066882096
213	0xbe6d2edd	-0.23162408
214	0xbe3698a2	-0.17831662
215	0x3dca4cca	0.098779276
216	0xbadbd2aa	-0.0016771157
217	0x3dd4bbe2	0.10387398
218	0x3b96bc37	0.0046000737
219	0x3cfd757c	0.03093981
220	0xbe56e246	-0.20984754
221	0x3f0119b0	0.5042982
222	0xbd3373b9	-0.043811534
223	0xbe689ceb	-0.2271611
224	0xbafe08fb	-0.0019381338
225	0xbdc8eed1	-0.098111756
226	0x3e2a3a64	0.16623837
227	0xbe69c1e2	-0.22827867
228	0x3ca7107d	0.020393604
229	0xbe992e2e	-0.29918045
230	0x3d051b8d	0.032496978
231	0xbe30e8c0	-0.17276287
232	0x3ddbeba9	0.10738308
233	0xbd7315b3	-0.059346866
234	0xbe37a0a2	-0.1793237
235	0x3e08db65	0.13364942
236	0xbd2e3151	-0.0425275
237	0xbc35b21a	-0.011089826
238	0xbd8f554c	-0.06998691
239	0x3de3c598	0.111216724
240	0xbdbc9e22	-0.09209849
241	0x3dba5593	0.09098353
242	0x3d32fd80	0.043698788
243	0xbe7530e9	-0.23944439
244	0xbde8340b	-0.113380514
245	0xbe7accb3	-0.24492149
246	0xbd4e27f4	-0.05033107
247	0x3e8e0df5	0.27745023
248	0x3e57336a	0.21015707
249	0xbd4b54f6	-0.049641572
250	0xbe1135fe	-0.14180753
251	0xbb925c0d	-0.0044665397
252	0x3db1d796	0.08683698
253	0x3e11166b	0.14168708
254	0xbe523534	-0.20528108
255	0xbd66f8aa	-0.05638949

linears.3.bias f4 [40]
0	0x3cea57da	0.028606344
1	0x3bda6471	0.0066648056
2	0xbced1d08	-0.028944507
3	0xbd459540	-0.04823804
4	0x3d20206f	0.03909343
5	0x3d8b2cfb	0.06795689
6	0x3cb3a3ea	0.021928746
7	0x3c8f3843	0.017482882
8	0xba835efc	-0.0010022814
9	0xbd542dc8	-0.051801473
10	0x3cc61717	0.024180932
11	0xbd25ad7a	-0.040448643
12	0x3c479b12	0.012182968
13	0x3c91c8a3	0.017795866
14	0xbccbbcc0	-0.024870276
15	0x3d8ecaf4	0.06972304
16	0xbda4e211	-0.08050931
17	0x3c523bcc	0.0128316395
18	0xbc72b9fc	-0.01481485
19	0x3b572915	0.0032830883
20	0xbcd95040	-0.026527524
21	0x3d1af1f8	0.037828416
22	0x3c9d4528	0.019198015
23	0xbd041065	-0.032242198
24	0x3d1bd519	0.038045023
25	0xbd3bc7fe	-0.045845024
26	0xbc676bc5	-0.014124815
27	0xbd1ced62	-0.038312323
28	0x3d51f432	0.051258273
29	0x3c1c81f3	0.009552467
30	0xbd6914e7	-0.0569047
31	0xbde3fc3f	-0.111320965
32	0xbcbd7cf6	-0.023130875
33	0x3cd48105	0.025940428
34	0xbe26f8ed	-0.16305895
35	0x3c84d582	0.01621509
36	0x3c586bab	0.013209264
37	0x3c85f520	0.016352236
38	0xbdcac025	-0.0989993
39	0x3d17058d	0.036870528

linears.4.weight f4 [40, 40]
0	0xbe32b909	-0.17453398
1	0xbe20d99b	-0.1570801
2	0x3d0422f6	0.032259904
3	0x3de0d763	0.10978582
4	0xbdd63108	-0.10458571
5	0xbe5ad1d5	-0.21369107
6	0xbe3d6bc0	-0.18498135
7	0x3e1161cc	0.14197463
8	0x3dfc25b8	0.12311882
9	0x3cf50f91	0.02991465
10	0xbdfbddd1	-0.122981675
11	0xbc535035	-0.012897541
12	0x3ed58ad1	0.4170747
13	0x3e47c371	0.19508149
14	0xbd154df0	-0.03645128
15	0xbd09fd98	-0.03368911
16	0x3da2e5e3	0.07954004
17	0xbd5e4a4b	-0.05427007
18	0xbd0a936d	-0.033832002
19	0xbe3c9981	-0.18417932
20	0x3e09a224	0.13440758
21	0xbea10505	-0.31449142
22	0x3d9da68d	0.07697783
23	0xbdefdcf5	-0.11712066
24	0xbd514bf3	-0.05109782
25	0x3b0aa3b7	0.002115471
26	0x3e51a60b	0.20473497
27	0xbdb56383	-0.08856871
28	0xbe3e57df	-0.18588208
29	0xbdcad0ad	-0.09903083
30	0xbcd91f71	-0.02650425
31	0x3e27f097	0.16400371
32	0x3e911dab	0.28342947
33	0x3e2ad0e1	0.16681243
34	0x3cf90349	0.030397074
35	0x3dfafaeb	0.1225489
36	0xbcc81059	-0.024421858
37	0xbe0330f7	-0.12811647
38	0x3e210e3c	0.15728086
39	0x3eacd2a4	0.33754456
40	0xbe89a133	-0.26880798
41	0xbe85347f	-0.26016614
42	0x3ddb6f09	0.10714538
43	0xbd992563	-0.07477834
44	0xbe92daaf	-0.28682467
45	0xbe2ac14d	-0.16675301
46	0xbe98e1b9	-0.29859713
47	0xbeb13b46	-0.34615535
48	0x3dc0d42c	0.094154686
49	0xbe1f2ec4	-0.15545183
50	0xbdbc8044	-0.09204152
51	0x3e29c334	0.1657837
52	0xbdb15624	-0.08659008
53	0x3d2ecfec	0.04267876
54	0x3da8edd5	0.08248488
55	0x3c080e4f	0.008304193
56	0x3def8542	0.11695339
57	0xbc53df42	-0.012931647
58	0xbe2ed4cf	-0.17073368
59	0xbc993fd9	-0.018707203
60	0x3dac1293	0.0840198
61	0x3be2560e	0.006907231
62	0xbe101f8c	-0.14074534
63	0x3e5d42c9	0.21607508
64	0x3b980d29	0.0046402407
65	0x3e2cc4d7	0.16871963
66	0xbe0b1815	-0.13583405
67	0x3d535f4d	0.051604558
68	0xbe626784	-0.221098
69	0xbdc43a6a	-0.09581454
70	0xbd93aab1	-0.07210291
71	0xbd847081	-0.06466771
72	0xbd6f8759	-0.058478687
73	0xbe3709de	-0.17874858
74	0x3e34f943	0.17673211
75	0x3dad2858	0.084549606
76	0xbdc3dc88	-0.095635474
77	0xbdc22eb1	-0.09481562
78	0x3d02319d	0.031785596
79	0xbccaf919	-0.024776982
80	0x3e85d830	0.261415
81	0xbddf03fd	-0.108894326
82	0xbd92e08c	-0.07171735
83	0x3e7b51a2	0.24542859
84	0x3d50aef7	0.05094811
85	0xbe0ffcea	-0.14061323
86	0xbe26a7fe	-0.16275021
87	0x3cb7b4b4	0.022425033
88	0xbe932672	-0.2874027
89	0xbd17886b	-0.036995333
90	0x3d0ebc66	0.03484764
91	0x3dd833c1	0.10556746
92	0x3f2e153b	0.68001145
93	0xbe3a61ee	-0.1820142
94	0xbcd5d483	-0.02610231
95	0x3dd0764a	0.10178812
96	0xbdc8e4b1	-0.098092444
97	0xbe236b2d	-0.15958853
98	0x3d894888	0.06703287
99	0xbe8532e1	-0.2601538
100	0x3e52bc15	0.2057956
101	0xbe19d5c8	-0.15022957
102	0x3c11b951	0.0088942805
103	0x3e14570b	0.1448633
104	0x3b422898	0.0029626247
105	0xbdb67739	-0.08909459
106	0xbe2eb6ca	-0.17061916
107	0xbd2bf051	-0.04197723
108	0x3e0ae12f	0.13562463
109	0xbedf6eb5	-0.4363915
110	0x3e6c0a5c	0.23050827
111	0xbca2444e	-0.01980796
112	0x3e01e515	0.12685044
113	0xbd98084a	-0.07423456
114	0x3dc9130c	0.09818086
115	0x3e0423de	0.12904307
116	0xbe9eaac9	-0.30989674
117	0x3e2360ba	0.15954867
118	0xbda059fa	-0.07829662
119	0xbe0e8ecf	-0.13921665
120	0x3e95e788	0.29278207
121	0x3e3a9f57	0.18224846
122	0x3e5ea1b5	0.21741374
123	0xbcaa76a8	-0.020808533
124	0x3dc73c82	0.09728338
125	0xbcc95f3c	-0.024581544
126	0xbc778bf8	-0.015109055
127	0x3ec5efe2	0.3865958
128	0x3e5f019e	0.2177796
129	0x3e8f4061	0.27978805
130	0x3d7234fd	0.059132565
131	0x3ec68a93	0.387776
132	0x3e1c902f	0.15289377
133	0x3e2cbd93	0.16869192
134	0xbbc88f4b	-0.0061205975
135	0x3e02f179	0.12787427
136	0x3ebdedda	0.3709553
137	0xbe2a7ebd	-0.1664991
138	0xbc8e9f1f	-0.01740986
139	0xbe726421	-0.23671009
140	0x3eb54179	0.35401514
141	0x3e998c25	0.29989734
142	0xbe040c0d	-0.12895222
143	0x3d3f7f08	0.046752006
144	0x3e81dd2b	0.2536405
145	0xbe2642c8	-0.16236413
146	0xbe42f292	-0.19037846
147	0x3dcf5a79	0.10124678
148	0x3e656d64	0.2240501
149	0x3e33dd53	0.17564897
150	0xbad252ac	-0.0016046367
151	0x3e0fcce1	0.14042999
152	0x3c76dffc	0.0150680505
153	0x3e9762d7	0.29567596
154	0xbca45fb4	-0.020065166
155	0xbeae3e3b	-0.34031853
156	0x3e49f6a4	0.19722992
157	0xbd0dce2d	-0.034620453
158	0x3dd1865c	0.10230705
159	0x3da24d8d	0.07924948
160	0xbdd99940	-0.10624933
161	0x3dc7d7d1	0.097579606
162	0x3e857b34	0.2607056
163	0xbe1521bd	-0.14563651
164	0x3e1b3f6a	0.1516091
165	0xbe6c8113	-0.23096113
166	0x3e9a28ce	0.30109257
167	0xbebb2b0b	-0.36556277
168	0x3e67bc01	0.22630312
169	0x3d4ac4b4	0.049503997
170	0x3ce61e13	0.028090512
171	0xbe784393	-0.24244528
172	0xbef8d80f	-0.4860234
173	0x3e87dd21	0.26535895
174	0x3da7ee2a	0.08199723
175	0x3e9ab038	0.3021257
176	0x3d7e344b	0.06206159
177	0x3dd466a8	0.103711426
178	0xbd6e6979	-0.058206055
179	0xba540999	-0.00080885884
180	0x3e2a8c04	0.16654974
181	0xbd970481	-0.07373906
182	0x3e3709b0	0.17874789
183	0xbe9dd670	-0.30827665
184	0x3d77c486	0.060490154
185	0x3e41927e	0.18903539
186	0xbdccff54	-0.100096375
187	0x3e4fa93a	0.20279399
188	0xbdc4eb6b	-0.09615215
189	0x3d8f5ecd	0.07000504
190	0xbd706ad9	-0.058695648
191	0xbe84f1e5	-0.259658
192	0x3e0d482f	0.13797067
193	0x3d8380e7	0.064210705
194	0xbd934a85	-0.07191948
195	0x3e210c8b	0.15727441
196	0xbd22a721	-0.039710168
197	0xbc5eb550	-0.013593033
198	0x3e40de1c	0.18834728
199	0xbe6db7e4	-0.2321468
200	0xbe23ffde	-0.16015574
201	0x3e4814b2	0.19539145
202	0x3e34f8e5	0.1767307
203	0x3db7c7eb	0.08973678
204	0xbd03b7ae	-0.032157592
205	0xbe3e7dc5	-0.18602665
206	0xbdbf16b7	-0.093305044
207	0x3e85777f	0.2606773
208	0xbd85b570	-0.06528747
209	0x3b163aaa	0.002292315
210	0x3ec2c213	0.38038692
211	0xbeca7926	-0.39545554
212	0xbeb4f036	-0.35339516
213	0x3c53d86f	0.01293002
214	0xbe1c847b	-0.15284912
215	0xbe5fb497	-0.21846233
216	0xbe91a5ba	-0.28446752
217	0xbddebffa	-0.108764604
218	0x3d91224b	0.07086619
219	0x3c8b758b	0.017023822
220	0x3dbfaf7f	0.09359645
221	0xbd5f8160	-0.05456674
222	0x3e509414	0.20368987
223	0xbe0980de	-0.13428065
224	0xbe0b796e	-0.1362054
225	0x3e4c2fa0	0.19940042
226	0x3e0c65a3	0.13710646
227	0x3e06210d	0.13098545
228	0xbacf0adf	-0.0015796087
229	0x3e4ff340	0.20307636
230	0x3eaf244f	0.3420739
231	0xbead3a13	-0.3383337
232	0xbec00bb6	-0.37508935
233	0x3c2fe262	0.010735126
234	0xbf1e45b6	-0.6182512
235	0x3dd7da1f	0.1053965
236	0xbe902e58	-0.28160357
237	0xbda86f5c	-0.08224365
238	0xbb84ed2e	-0.0040565943
239	0xbea35a58	-0.31904864
240	0x3d314956	0.04328283
241	0xbd8957c9	-0.06706197
242	0xbddef0bc	-0.1088576
243	0xbd265c27	-0.040615227
244	0xbe556028	-0.20837462
245	0xbe19696c	-0.14981622
246	0x3e6439b8	0.22287643
247	0x3d9bf761	0.07615543
248	0x3e2cf896	0.16891703
249	0xbe9ba56d	-0.30399647
250	0xbd1d6f31	-0.03843612
251	0xbd2327a3	-0.039832722
252	0xbe4f0825	-0.2021795
253	0x3e69923e	0.22809693
254	0x3e725a09	0.23667158
255	0xbe3a5444	-0.18196207

linears.4.bias f4 [40]
0	0xbcbe43a5	-0.023225615
1	0xbd42e234	-0.047579005
2	0xbc72909f	-0.014804988
3	0x3b0243f0	0.001987692
4	0x3ba7c490	0.0051198676
5	0xbb418d5d	-0.0029533722
6	0x3cdbf2ea	0.026849229
7	0x3c79d68a	0.015248904
8	0x3d1a1d12	0.03762538
9	0x3cb9ea49	0.022694724
10	0x3c173dfc	0.009231087
11	0x3d16248a	0.03665594
12	0xbcc39917	-0.02387671
13	0x3c9171c4	0.017754443
14	0xbd3804a3	-0.044926297
15	0xbe07f20e	-0.1327593
16	0x3cb7f007	0.022453321
17	0xbce16826	-0.027515482
18	0x3d697b1a	0.057002164
19	0xbc338192	-0.010956185
20	0x3d07a96b	0.033120554
21	0xbd7ea6b0	-0.062170684
22	0xbd4e0830	-0.050300777
23	0xbbc37a66	-0.0059655188
24	0x3d19c74d	0.037543584
25	0x3d05c35c	0.032657012
26	0x3c099bae	0.008398933
27	0xbcf2e308	-0.029649273
28	0x3c9a5f6d	0.01884433
29	0xbcef4eea	-0.029212434
30	0xbdd99876	-0.10624783
31	0x3e41b077	0.18914972
32	0x3c41724e	0.0118070375
33	0xbc814b21	-0.015782895
34	0xbd662bc3	-0.05619408
35	0xbe69c6a2	-0.22829679
36	0xbc33cce1	-0.01097414
37	0xbd0e2642	-0.034704454
38	0xbd05cfb4	-0.032668784
39	0x3d0a0419	0.033695314

linears.5.weight f4 [40, 40]
0	0xbe5369c9	-0.20645823
1	0xbe379619	-0.17928351
2	0x3da96955	0.082720436
3	0x3c8aabf1	0.016927691
4	0xbdaca602	-0.08430101
5	0x3ee2df4b	0.44310984
6	0x3e8b20c6	0.27173442
7	0xbb737988	-0.0037151296
8	0x3df9ea40	0.12202883
9	0x3e2242f5	0.15845855
10	0xbe84e8ad	-0.25958768
11	0xbdca305e	-0.098725066
12	0x3e2c180e	0.16806051
13	0x3d81b00b	0.06332406
14	0xbe23a191	-0.15979601
15	0x3d206e91	0.039167944
16	0x3ddabbcc	0.10680351
17	0xbd134753	-0.035956692
18	0x3d20d588	0.03926614
19	0xbe8ffd1c	-0.28122795
20	0xbd7a7331	-0.06114501
21	0x3d15b6c5	0.036551256
22	0x3d52309a	0.05131588
23	0xbe5193a6	-0.2046648
24	0x3e9ff34f	0.31240317
25	0x3d95f9d9	0.07323045
26	0x3d22028a	0.039553203
27	0xbd3ce7c7	-0.046119478
28	0x3df99afb	0.12187763
29	0xbdb94197	-0.090457134
30	0xbe62fc07	-0.22166453
31	0x3d80769e	0.062726244
32	0xbd54a330	-0.05191344
33	0xbe22af44	-0.15887171
34	0xbe9907a1	-0.29888633
35	0x3c4530ca	0.012035558
36	0xbe67b4aa	-0.22627512
37	0xbc575981	-0.013143898
38	0xbe5469c7	-0.20743476
39	0x3e31d55a	0.17366543
40	0x3d9ba939	0.07600636
41	0xbe1426e7	-0.14467965
42	0x3d04661b	0.032323938
43	0xbe1f7877	-0.15573297
44	0xbdffb793	-0.12486186
45	0xbcd7f771	-0.026363106
46	0x3d823055	0.06356875
47	0x3cee6904	0.02910281
48	0x3d7c8939	0.061654303
49	0x3e9eca74	0.31013834
50	0xbe83b730	-0.25725698
51	0x3d26dbd3	0.040736984
52	0x3e7bded1	0.24596716
53	0xbd80fc94	-0.062981755
54	0xbdf54927	-0.11976843
55	0xbe65e5f3	-0.22451
56	0x3ea040df	0.31299493
57	0x3d8551bf	0.065097325
58	0x3d5a815c	0.053346023
59	0x3dfa4623	0.12220409
60	0x3e334e24	0.17510277
61	0xbe4d4c93	-0.20048742
62	0xbe3a3e9d	-0.18187948
63	0xbdcedfc6	-0.10101275
64	0xbe05277b	-0.13003342
65	0xbe12e29c	-0.14344257
66	0x3c3f2e74	0.01166879
67	0xbe64c8c5	-0.22342212
68	0x3d232e82	0.039839275
69	0xbe6e68f8	-0.2328223
70	0x3db5f8cc	0.08885345
71	0x3e31d107	0.17364894
72	0x3d2759bd	0.040857065
73	0xbdca4936	-0.09877245
74	0xbd5bd188	-0.05366662
75	0xbeb73963	-0.3578597
76	0xbd4e5d8c	-0.050382182
77	0x3d7115f9	0.058858845
78	0xbdc0ef7b	-0.09420677
79	0xbe8170d1	-0.25281385
80	0x3e14dc5e	0.14537188
81	0xbd882144	-0.0664697
82	0xbd9ef76d	-0.077620365
83	0xbcc4c1ef	-0.024018256
84	0xbd1eaece	-0.038740925
85	0x3e83f3c6	0.25771922
86	0x3e09fb4a	0.13474765
87	0xbdaaa395	-0.08331982
88	0xbe13b89f	-0.14425896
89	0x3dd55ce7	0.1041811
90	0x3e28d38b	0.16486947
91	0xbba1e19a	-0.004940224
92	0xbe3d7ef8	-0.18505466
93	0xbd89f57c	-0.067362756
94	0x3e4ab2b8	0.19794738
95	0x3c92a85a	0.017902542
96	0xbddea5ba	-0.108714536
97	0x3e972d53	0.29526767
98	0x3ed73a96	0.42036885
99	0x3daca79d	0.08430407
100	0xbe98a421	-0.2981272
101	0xbd46cfd2	-0.048538037
102	0x3df1c3a2	0.11804892
103	0x3edda1ad	0.4328741
104	0xbe72f477	-0.23726068
105	0xbd61d56a	-0.055135168
106	0x3ca615ed	0.020274127
107	0x3db87823	0.09007289
108	0xbdebc2b4	-0.11511746
109	0xbee0c02b	-0.43896613
110	0x3e034055	0.1281751
111	0xbda5155f	-0.08060717
112	0xbe886200	-0.26637268
113	0xbdaeb98b	-0.08531483
114	0x3d6eb6f8	0.05827996
115	0xbebc7d9c	-0.36814582
116	0x39ff5c5c	0.00048706203
117	0xbd7370f5	-0.059433896
118	0xbd88471c	-0.06654188
119	0xbeab682f	-0.33477923
120	0xbda583e2	-0.08081795
121	0x3e2a370b	0.1662256
122	0x3d01c816	0.031684957
123	0xbdda8087	-0.10669046
124	0x3e93aeb6	0.2884423
125	0xbd7b1651	-0.06130058
126	0xbd6e02d8	-0.05810818
127	0xbd34e7eb	-0.044166487
128	0xbe0ee6d0	-0.13955235
129	0x3d668565	0.05627956
130	0xbe6b7b81	-0.22996332
131	0xbdd6e6d8	-0.10493249
132	0xbc5995f0	-0.013280377
133	0x3d928af2	0.07155408
134	0xbe9629ea	-0.29328853
135	0xbe484e73	-0.19561176
136	0xbc2c9d44	-0.010535542
137	0xbd00fd31	-0.031491462
138	0xbde0d528	-0.10978156
139	0x3d0e3ec5	0.03472783
140	0x3dbf337e	0.09335993
141	0x3e1d2a66	0.15348205
142	0x3e3ed40f	0.18635581
143	0xbe6c9b89	-0.23106207
144	0x3e1f706f	0.15570234
145	0x3ce86241	0.028367164
146	0xbd8d8dee	-0.069118366
147	0xbdbe47bb	-0.09291025
148	0xbdccec49	-0.10006005
149	0x3e2ac43e	0.16676423
150	0xbd90ffeb	-0.070800625
151	0x3e14788b	0.14499108
152	0xbd801a7f	-0.06255054
153	0x3e38ce00	0.18047333
154	0xbd22d479	-0.03975341
155	0x3e836455	0.25662485
156	0xbdea29e1	-0.11433769
157	0x3ede4505	0.43412033
158	0xbe582f62	-0.21111825
159	0xbcd88625	-0.026431153
160	0xbe916b41	-0.2840214
161	0xbe0554c9	-0.13020624
162	0x3df97d3b	0.12182089
163	0x3e76a073	0.24084644
164	0xbda4871d	-0.08033583
165	0x3e51e373	0.20496921
166	0x3d657e33	0.056028556
167	0x3e95b9e2	0.2924338
168	0xbcee62e9	-0.029099898
169	0xbd243f0c	-0.04009919
170	0xbdcf5e69	-0.10125429
171	0xbdf3d543	-0.11905911
172	0xbe00992e	-0.12558433
173	0x3d4338e2	0.04766167
174	0xbe0359ec	-0.12827271
175	0xbdb8cb6b	-0.09023174
176	0x3e489911	0.1958964
177	0xbd35ca6d	-0.0443825
178	0xbddcf832	-0.10789527
179	0x3e1b0dd7	0.15141998
180	0xbe44d3da	-0.1922144
181	0xbe22344a	-0.15840259
182	0xbd518e09	-0.051160846
183	0xbdc6f740	-0.09715128
184	0xbe49c0d2	-0.19702461
185	0xbdf46368	-0.11933023
186	0xbc4a4fd6	-0.012348136
187	0xbe027704	-0.12740713
188	0x3ead8109	0.3388751
189	0x3d2c577e	0.042075627
190	0x3dd64d2d	0.10463939
191	0x3e087791	0.13326861
192	0xbdd67d54	-0.10473123
193	0xbe1bd29a	-0.15217057
194	0xbd76573c	-0.060141787
195	0x3e2e257c	0.17006487
196	0xbe17cba5	-0.14823778
197	0x3ea0c6ff	0.31401822
198	0xbcb021fa	-0.021500576
199	0xbcd05401	-0.025430681
200	0x3d57ea5c	0.052713737
201	0xbe4d00d3	-0.20019846
202	0xbee78cd9	-0.45224646
203	0xbe802a1f	-0.25032136
204	0x3f039757	0.514028
205	0xbd24f4e0	-0.040272593
206	0x3da5f3a7	0.081031136
207	0xbe410853	-0.18850832
208	0x3d668a2f	0.056284126
209	0x3d0eff67	0.03491154
210	0x3e14b168	0.145208
211	0xbde180ae	-0.11010872
212	0x3d2bae86	0.041914485
213	0x3e075598	0.13216245
214	0xbd911b6c	-0.070853084
215	0xbeb27682	-0.3485604
216	0x3da5cf1b	0.08096143
217	0x3c149c42	0.009070458
218	0xbe53b592	-0.20674732
219	0x3df6c304	0.12048915
220	0xbca85596	-0.020548623
221	0x3decf0fc	0.115694016
222	0x3e4c9fe0	0.19982862
223	0x3d0761f1	0.03305239
224	0xbcca2317	-0.024674935
225	0x3c690df3	0.014224517
226	0x3cc8ba2b	0.024502834
227	0x3e4a4d67	0.19756089
228	0x3d267acf	0.040644463
229	0xbdb79380	-0.0896368
230	0xbce50168	-0.027954772
231	0x3d5a3e5e	0.053282134
232	0xbeb268da	-0.3484562
233	0xbd3847b2	-0.04499025
234	0x3e8d00c7	0.27539656
235	0x3d6062f4	0.05478187
236	0xbd7b526d	-0.061357904
237	0x3d1da62f	0.038488563
238	0x3eadeacb	0.33968195
239	0xbdcfa03a	-0.10137983
240	0xbd89d0b5	-0.06729261
241	0x3ddb1464	0.106972486
242	0x3e9cfd68	0.30662084
243	0xbda9d12e	-0.08291851
244	0x3e2eff1d	0.17089505
245	0xbd414c00	-0.04719162
246	0x3e24956c	0.16072625
247	0xbd0b46f3	-0.03400321
248	0x3dec9944	0.115526706
249	0xbd7959de	-0.06087672
250	0xbd656793	-0.05600698
251	0xbdb8790d	-0.090074636
252	0x3e5de944	0.21671015
253	0x3e843355	0.25820413
254	0xbe172ab3	-0.14762382
255	0x3e26491d	0.16238828

linears.5.bias f4 [40]
0	0x3d080c14	0.033214644
1	0xbcc115a1	-0.023569884
2	0xbd07a4bc	-0.033116087
3	0xbd45ee33	-0.048322868
4	0x3cf90c5d	0.030401403
5	0xbc6af277	-0.014340035
6	0xbdcdb5dc	-0.100444525
7	0x3b943ab2	0.0045235986
8	0xbdb59c62	-0.08867718
9	0x3c9644b2	0.018343303
10	0xbd047f59	-0.03234801
11	0x3ba7e2e5	0.0051234835
12	0xbd79909d	-0.06092893
13	0x3ddc4c56	0.107567474
14	0x3cffe8ce	0.03123894
15	0x3cc304be	0.023805972
16	0xbb0e967f	-0.0021757183
17	0xbcbf0194	-0.023316182
18	0xbe1398ae	-0.14413711
19	0x3cdb10db	0.026741436
20	0x3d1a7cac	0.037716553
21	0xbd44ae24	-0.048017636
22	0xbdbec7d0	-0.09315455
23	0xbc774f48	-0.015094586
24	0xbcc6e87c	-0.024280779
25	0xbd26a1b6	-0.040681563
26	0xbda78e0b	-0.081813894
27	0xbd8f75fb	-0.07004925
28	0xbc9f94ff	-0.019480227
29	0x3c8890c9	0.016670601
30	0xbe0b690a	-0.13614288
31	0x3d5c0dc8	0.05372408
32	0xbcf875a9	-0.030329542
33	0x3d4b9842	0.04970575
34	0xbdedc531	-0.11609877
35	0x3d20e57e	0.03928136
36	0xbd3df6fd	-0.046378125
37	0x3d803788	0.06260592
38	0x3cc0cee4	0.023536153
39	0x3c7e5935	0.015524198

linears.6.weight f4 [1, 40]
0	0xbe9bf857	-0.30462906
1	0x3de4d16b	0.11172756
2	0xbde80e45	-0.11330847
3	0x3ea738f0	0.32660627
4	0xbe9878f4	-0.2977978
5	0x3e12c9f3	0.1433485
6	0x3dd5a05d	0.104309775
7	0xbeb8ad5b	-0.3606976
8	0x3ebef346	0.37294978
9	0x39073b59	0.00012896712
10	0xbd2d54e9	-0.042317305
11	0xbd25898c	-0.040414378
12	0x3ed581d0	0.41700602
13	0xbd054087	-0.03253224
14	0xbea34b16	-0.31893224
15	0xbe523576	-0.20528206
16	0xbd6ba083	-0.057526123
17	0x3e961f74	0.29320872
18	0x3d8aa1b3	0.06769123
19	0xbf0d132e	-0.5510739
20	0xbdaae256	-0.083439514
21	0x39c68548	0.00037864805
22	0x3e8245e1	0.25443938
23	0x3e9c8696	0.3057143
24	0x3eb021e1	0.34400848
25	0x3ebfec79	0.37485102
26	0x3e8094cd	0.25113526
27	0x3dc52904	0.09626964
28	0x3e84e015	0.2595221
29	0xbe5f3b8f	-0.21800064
30	0x3e0d33f2	0.13789347
31	0x3af8a1d4	0.0018969127
32	0x3dde5727	0.10856467
33	0xbd1a1311	-0.03761584
34	0x3e9b9121	0.30384162
35	0xbd87c791	-0.06629861
36	0x3e6f838a	0.23390022
37	0xbe73b92f	-0.2380111
38	0xbe355820	-0.17709398
39	0xbd1efb87	-0.038814094

exp_avg f4 [40, 2]
0	0xba4d6381	-0.00078349566
1	0xb9758e72	-0.00023418086
2	0x3a083d65	0.0005197137
3	0x38e2dc1c	0.00010817518
4	0x3956242b	0.00020422104
5	0x38ddaaac	0.00010569891
6	0x39564dc0	0.00020437595
7	0xb8baf4e1	-8.9147834e-05
8	0xb9bce0e0	-0.000360257
9	0x37d35147	2.5191008e-05
10	0xb8ba92f9	-8.896547e-05
11	0xb6cf85e8	-6.1846695e-06
12	0xba3a1478	-0.0007098387
13	0xb97bf414	-0.00024028152
14	0x3986a7ac	0.00025683397
15	0x38273eb7	3.987431e-05
16	0x3a3e3c27	0.0007256888
17	0x390f1beb	0.00013647943
18	0x38f8d98e	0.00011866084
19	0x385330cc	5.0351766e-05
20	0x3a0548fb	0.00050844223
21	0x39055bf5	0.00012718125
22	0x38e74b8b	0.00011029009
23	0x38391892	4.413032e-05
24	0xba213418	-0.0006149425
25	0xb97caa9c	-0.0002409615
26	0xb9547642	-0.0002026195
27	0x3900435b	0.00012232123
28	0xb939d165	-0.0001772098
29	0xb8d191e8	-9.993074e-05
30	0x3a0423cf	0.0005040736
31	0x39327cbd	0.00017021871
32	0xba912514	-0.0011073672
33	0xb9b94d86	-0.0003534371
34	0x374c1098	1.2163211e-05
35	0xb9071727	-0.00012883228
36	0x383def4a	4.5283967e-05
37	0x38be0fd7	9.0628564e-05
38	0xb9ac2e05	-0.00032840684
39	0x379a7c42	1.8416093e-05
40	0x3a38dfec	0.000705241
41	0x39c08668	0.00036721234
42	0x39bf30d5	0.00036466742
43	0x3894a067	7.087067e-05
44	0x385953b8	5.18148e-05
45	0xb7fcf8f3	-3.0156667e-05
46	0x38f3eb82	0.0001163101
47	0x397598ce	0.00023421945
48	0xba55df2f	-0.0008158562
49	0xb97e2001	-0.0002423525
50	0x39d12ffe	0.00039899343
51	0x38b29bb9	8.516707e-05
52	0xb98a43fc	-0.00026372063
53	0xb7f033e0	-2.8634386e-05
54	0xba013802	-0.0004929305
55	0xb9145d30	-0.00014149095
56	0x39e23c92	0.00043151208
57	0x38d7e6ec	0.000102950115
58	0xba379a89	-0.00070039235
59	0xb97d91b9	-0.00024182246
60	0xb9cf8f1f	-0.0003958875
61	0x39015361	0.0001233346
62	0xb9a80428	-0.00032046554
63	0xb9076fdc	-0.00012916274
64	0x39e17715	0.00043004067
65	0x39508fb9	0.00019889967
66	0xb95a7a3b	-0.00020835634
67	0x3780b1d7	1.5341602e-05
68	0xb8dfd84d	-0.00010673758
69	0x37f63f9a	2.9355102e-05
70	0x381f3180	3.7954655e-05
71	0x39442707	0.00018706555
72	0xb99e8e8f	-0.00030242323
73	0x38613b11	5.369919e-05
74	0x364247c3	2.8950024e-06
75	0xb8774596	-5.8954196e-05
76	0xba641548	-0.0008700681
77	0xb9991057	-0.00029194608
78	0x39eb38b0	0.00044864928
79	0x37f775cf	2.9499553e-05

exp_avg_sq f4 [40, 2]
0	0x3a9024a9	0.0010997254
1	0x38d3f1ba	0.00010106289
2	0x39f7b782	0.00047248235
3	0x37c23816	2.315272e-05
4	0x38ad4567	8.26221e-05
5	0x37e372ee	2.7114027e-05
6	0x389c2fe0	7.447577e-05
7	0x377817aa	1.4787462e-05
8	0x396559a3	0.00021872534
9	0x364e4ea9	3.0742178e-06
10	0x3769e523	1.3941232e-05
11	0x312cef3e	2.5165288e-09
12	0x3a6ead8e	0.0009104841
13	0x38f3d052	0.000116259456
14	0x390dee4e	0.00013535583
15	0x371d3732	9.37078e-06
16	0x3a769355	0.00094061095
17	0x380fd9ad	3.4296583e-05
18	0x37e45a37	2.7221728e-05
19	0x3698edb2	4.5576244e-06
20	0x39ffb438	0.00048771664
21	0x3838d81b	4.4070282e-05
22	0x37b2f596	2.1333613e-05
23	0x3666027d	3.427412e-06
24	0x3a31fbf1	0.00067895564
25	0x38f1fc2f	0.000115387484
26	0x3896b914	7.187031e-05
27	0x37c9b8e2	2.404716e-05
28	0x387129e2	5.7497884e-05
29	0x3786c910	1.6067672e-05
30	0x39ebcc3e	0.00044974865
31	0x385ed254	5.3124808e-05
32	0x3b075589	0.0020650348
33	0x396ba24e	0.0002247181
34	0x34281d65	1.5656913e-07
35	0x37dc931d	2.6294549e-05
36	0x366f6d54	3.5677413e-06
37	0x3781a375	1.5454114e-05
38	0x39429bb8	0.00018559291
39	0x350cec86	5.249825e-07
40	0x3a6a2cad	0.0008933049
41	0x396a8902	0.00022367018
42	0x3978e734	0.00023737253
43	0x375baaed	1.3093214e-05
44	0x368f7a06	4.2759375e-06
45	0x357c414d	9.397234e-07
46	0x37dc24e0	2.6243215e-05
47	0x38d299dd	0.000100422396
48	0x3a99603c	0.0011701654
49	0x38d77a1c	0.000102747435
50	0x3996f371	0.00028791607
51	0x375fdc4c	1.3343128e-05
52	0x39016a01	0.00012341888
53	0x36174279	2.2539446e-06
54	0x39ef0087	0.00045586025
55	0x382a095f	4.0539886e-05
56	0x39ab5f79	0.00032686794
57	0x37aaf71f	2.0380654e-05
58	0x3a54f4f3	0.00081236585
59	0x38d2c97f	0.00010051112
60	0x39907263	0.00027551045
61	0x37c49986	2.343651e-05
62	0x39501690	0.00019844831
63	0x382b8fb5	4.0903415e-05
64	0x39a727bb	0.00031882324
65	0x38842de6	6.3028e-05
66	0x38a00e27	7.6320306e-05
67	0x34f66db8	4.5900902e-07
68	0x37b2764f	2.1274345e-05
69	0x35218246	6.0166747e-07
70	0x3691090b	4.3223895e-06
71	0x3873bf04	5.8113612e-05
72	0x391f30ea	0.00015181644
73	0x370f5bc9	8.544835e-06
74	0x32792470	1.45019925e-08
75	0x36d469ba	6.3304005e-06
76	0x3ab459fa	0.0013759725
77	0x39254f2a	0.00015765117
78	0x39bd708b	0.0003613274
79	0x3585a3f6	9.956991e-07

exp_avg f4 [40]
0	0xba2391ad	-0.0006239664
1	0x39a49b44	0.000313962
2	0x39ae916d	0.00033296217
3	0xb97438e7	-0.00023290851
4	0x38d74d3a	0.000102663835
5	0x36958dba	4.457045e-06
6	0xba2bce1b	-0.00065538444
7	0x39470126	0.00018978547
8	0x39c7aab7	0.0003808343
9	0x390e7d14	0.0001358877
10	0x39d675a2	0.00040904904
11	0x390e0904	0.00013545534
12	0xba28140b	-0.0006411678
13	0x399c0f5f	0.0002976609
14	0xb98058c0	-0.00024480186
15	0x39f4b052	0.00046670676
16	0xba793521	-0.0009506513
17	0xb9a67fb0	-0.00031757122
18	0x398126a7	0.00024633596
19	0x38892a15	6.5405075e-05
20	0x3a76552c	0.0009396847
21	0x3941a693	0.00018467968
22	0xb841a0e7	-4.6164638e-05
23	0x3a1c3f0f	0.0005960324
24	0xba213906	-0.000615016
25	0x394faded	0.00019805851
26	0xb911c606	-0.00013902047
27	0xb9c7b9dc	-0.00038094714
28	0x39936d72	0.00028119568
29	0xba2a9106	-0.00065065955
30	0x3996a96c	0.0002873646
31	0xb9b90037	-0.0003528611
32	0x3a097a28	0.0005244338
33	0x383c2a67	4.4862183e-05
34	0x38b1a395	8.470487e-05
35	0x39ece14a	0.0004518128
36	0x3917eb71	0.00014488191
37	0xb91bbee1	-0.0001485306
38	0xba56bddd	-0.0008191744
39	0x3818fe69	3.6476562e-05

exp_avg_sq f4 [40]
0	0x3a2ac778	0.00065147085
1	0x392a0916	0.00016215848
2	0x395fb9ee	0.00021336201
3	0x38f707a8	0.00011779304
4	0x3803f635	3.1462132e-05
5	0x33fc6cdc	1.1754466e-07
6	0x3a480822	0.00076306064
7	0x3899fc08	7.342553e-05
8	0x39839310	0.00025095837
9	0x3806b21d	3.211397e-05
10	0x399db2f6	0.0003007871
11	0x37ffd6c8	3.0498384e-05
12	0x3a452990	0.0007521147
13	0x393b4c62	0.00017862165
14	0x38e025da	0.00010688203
15	0x39c24ee0	0.0003706133
16	0x3ac0a123	0.001469646
17	0x394a6d8e	0.00019305033
18	0x38eb6313	0.00011224127
19	0x3752ef4c	1.2572691e-05
20	0x3acf6fca	0.0015826162
21	0x388272c5	6.2202605e-05
22	0x36b3025c	5.3348904e-06
23	0x3a2e9511	0.0006659786
24	0x3a29472a	0.00064574427
25	0x386af873	5.6021334e-05
26	0x37f0f9dd	2.8726581e-05
27	0x39865ca8	0.00025627506
28	0x3909a6e9	0.00013127517
29	0x3a3763bb	0.0006995757
30	0x3931251d	0.00016893861
31	0x397f2aac	0.00024334592
32	0x39fede8d	0.00048612469
33	0x36886311	4.0646487e-06
34	0x3771cb4f	1.4412056e-05
35	0x39d8d391	0.0004135636
36	0x38640d8d	5.4372056e-05
37	0x38357d82	4.327065e-05
38	0x3a99c23e	0.0011730862
39	0x35bb76c4	1.3967151e-06
