pdebench/models/newly_trained_models/Advection/PINN1D_Advection_Sols_beta4.0_PINN.pt-10000.pt (torch, 119461 bytes, 39 tensors)

linears.0.weight f4 [40, 2]
0.39620945 -0.01858556 -0.28251496 0.019704005 0.184146 0.26768255 -0.33982027 0.25346762
0.41578704 -0.10369243 0.22885035 -0.3090354 0.11316967 0.14506346 -0.05464561 0.46883586
-0.2647528 0.065891616 0.06086522 0.20039237 -0.34998965 -0.20344621 -0.013038457 0.12551993
0.04918136 -0.10756925 0.38122192 -0.04411763 -0.1294951 -0.118803635 -0.2079701 -0.08323666
0.115364015 -0.043487053 -0.8174031 -0.1710343 0.20042475 0.33379272 0.2338257 -0.050597157
-0.032290913 -0.05475179 -0.12470101 -0.02243482 -0.16091472 -0.08505219 0.6897803 0.124927096
0.16039543 -0.14967044 -0.17763677 0.062829055 0.056426335 0.12589334 0.12293884 0.20113878
-0.16318819 0.015544685 0.08014777 0.0009338295 0.41373488 -0.030599043 0.12681031 0.21761458
-0.07559792 -0.026741737 0.24858071 -0.1380083 0.1559613 0.07729931 0.121619076 0.012052567
0.32378516 -0.09780412 -0.16998436 0.38165104 0.19390385 0.11864876 -0.33705986 0.17507832
00000000: f7db ca3e bf40 98bc cda5 90be 4b6a a13c
00000010: c590 3c3e b00d 893e ecfc adbe 82c6 813e
00000020: 0ae2 d43e b25c d4bd bf57 6a3e e339 9ebe
00000030: 80c5 e73d 848b 143e 13d4 5fbd 410b f03e
00000040: ae8d 87be 2ff2 863d cf4d 793d a833 4d3e
00000050: d831 b3be 3454 50be 419f 55bc 4c88 003e
00000060: 6572 493d 444d dcbd 852f c33e b0b4 34bd
00000070: 5d9a 04be 524f f3bd 1df6 54be fb77 aabd
00000080: f843 ec3d 7b1f 32bd 5441 51bf 9e23 2fbe
00000090: 253c 4d3e e1e6 aa3e 0170 6f3e f73e 4fbd
000000a0: 7a43 04bd 6a43 60bd 3e63 ffbd 3ac9 b7bc
000000b0: d4c6 24be d82f aebd 7195 303f c7d9 ff3d
000000c0: b33e 243e 3543 19be 6ae6 35be 85ac 803d
000000d0: 4d1f 673d 2fea 003e 5cc7 fb3d 53f7 4d3e
000000e0: ce1a 27be 22af 7e3c 8424 a43d 3dcc 743a
000000f0: 0fd5 d33e d8aa fabc 90da 013e 5bd6 5e3e
00000100: 15d3 9abd 7d11 dbbc f18b 7e3e 0c52 0dbe
00000110: 52b4 1f3e 1a4f 9e3d 6c13 f93d 2178 453c
00000120: 2bc7 a53e 874d c8bd 6110 2ebe c467 c33e
00000130: bb8e 463e 1ffe f23d 1c93 acbe bb47 333e

linears.0.bias f4 [40]
-0.18522276 0.11872797 0.077688195 -0.029420028 -0.017823191 0.01568069 -0.13713993 0.11089332
0.07292391 0.03545805 0.16103205 0.03534741 -0.084424585 0.030471046 -0.069282904 0.11047018
-0.1017385 0.021555997 0.029025752 0.02972296 0.14912271 0.03949645 -0.02500433 0.05452848
-0.09084742 0.023280475 -0.05439901 -0.09296673 0.07946754 -0.091911346 -0.008877962 -0.07643714
0.06797136 0.011426509 0.009087098 0.049344912 -0.017370263 -0.049123902 -0.15082875 0.013756718
00000000: 09ab 3dbe a627 f33d fd1a 9f3d 4502 f1bc
00000010: f101 92bc ca74 803c 696e 0cbe 091c e33d
00000020: 2259 953d 763c 113d 96e5 243e 72c8 103d
00000030: cce6 acbd 6a9e f93c 32e4 8dbd 313e e23d
00000040: 465c d0bd 3496 b03c 6ac7 ed3c 917d f33c
00000050: a0b3 183e 08c7 213d e1d5 ccbc 4159 5f3d
00000060: 360e babd b2b6 be3c 7fd1 5ebd 5765 bebd
00000070: e1bf a23d 043c bcbd df74 11bc 138b 9cbd
00000080: 9234 8b3d 4136 3b3c 0de2 143c e41d 4a3d
00000090: 154c 8ebc 2536 49bd da72 1abe db63 613c

linears.1.weight f4 [40, 40]
-0.4046679 -0.033425163 0.09153159 0.19499798 -0.13214429 0.28724852 0.051332563 -0.16005212
-0.012418613 -0.03304147 0.0014237473 0.06752677 0.09695318 -0.055242736 0.21715888 -0.17670117
-0.07555553 -0.043956984 0.02676659 -0.2157588 0.038911667 0.4480851 -0.14565226 0.13493888
-0.010340336 -0.13409893 -0.24816842 0.11931693 0.084459275 -0.2326333 -0.20791547 -0.119082496
-0.18667668 -0.18808736 0.0060328245 -0.12618089 -0.19109063 0.058182172 0.26226598 0.05856807
-0.01910496 0.30359867 -0.08534334 -0.13736467 -0.16114017 0.12891938 0.21134834 -0.104158804
-0.043633737 0.3079782 0.08761082 0.29474345 0.13391568 -0.20235987 -0.13597645 0.055625413
0.18845576 0.27450722 0.06816044 -0.09603048 -0.27542943 0.26917017 0.28207934 -0.111415684
-0.11299793 0.15386198 -0.16235583 0.07321552 -0.07752609 0.15729865 -0.032531574 0.13124941
-0.018726029 -0.058752935 -0.3049265 -0.13255678 -0.16731168 0.10258008 -0.16793819 0.23125917
0.3066262 0.05447694 -0.057838716 0.15371285 0.14974816 0.42447323 0.15864728 0.17093533
-0.16162306 0.13998374 -0.04839241 -0.052511603 0.06721457 0.32053405 -0.008019086 -0.08905996
-0.09769233 -0.054254513 0.1066151 -0.026836764 0.031124119 -0.16814876 -0.004242303 0.020341327
0.22264801 -0.025272634 0.1594374 0.3847253 -0.060202565 0.13254161 -0.040418096 0.0054576932
0.13656749 -0.09369665 -0.45966744 -0.070788786 0.080104165 -0.07222336 0.14037564 -0.023595717
-0.13419572 -0.014748383 -0.038070202 0.14422113 0.285136 0.29323018 0.23956868 -0.085311845
-0.112017915 0.032283116 -0.17083506 -0.13589959 0.24994312 0.09805162 0.0019802314 -0.112786636
0.103492625 -0.07585819 0.09761662 0.017765073 -0.38350755 0.2122861 -0.033177853 0.14045118
-0.03351329 -0.085265055 -0.09471597 -0.008136761 0.014416105 -0.34360507 0.3348654 0.1944202
0.03596277 0.13532834 0.099308126 0.07563917 0.20896856 0.018410359 0.2989867 -0.03771133
0.13001417 0.09821836 0.0064700865 0.03729169 0.05363263 -0.31185406 -0.028622126 -0.38838184
-0.016562808 -0.028318796 -0.04719763 0.021827463 -0.3577741 0.16161345 -0.1411536 0.07353671
-0.071345285 -0.11561187 0.25606206 0.021708297 -0.08363058 -0.015986836 -0.06960416 0.18803358
0.2639356 0.022486905 0.07393808 0.09878696 -0.031043261 0.3555565 0.38278264 -0.28451732
0.0746418 0.053931758 0.040826965 0.072002 0.13076104 -0.1387948 0.20146266 -0.15260312
0.30634925 0.12775002 -0.111545466 -0.26897517 -0.05165391 0.13422921 0.008221851 0.13020353
0.28180066 0.077003054 0.022213662 -0.056372408 -0.095102616 -0.0475411 0.1698913 0.026321454
-0.1838851 0.15095209 -0.15290768 0.085081436 -0.008313718 0.018191654 -0.04744831 -0.31395367
-0.24979958 -0.08085948 -0.15781903 -0.067920774 0.21720715 0.21798 -0.18997802 0.2799569
0.2342529 -0.059448745 -0.20965287 -0.2733181 0.138948 -0.07559399 -0.0421262 -0.15506808
-0.09451951 0.009979502 0.34227636 0.12942873 0.25312507 0.038006827 -0.082826234 0.0015691714
0.0658194 0.09732476 -0.09197247 0.0056160646 0.24456874 -0.058560256 -0.123780586 0.25692013
00000000: a230 cfbe d3e8 08bd ea74 bb3d 8dad 473e
00000010: d550 07be 3d12 933e 1842 523d b4e4 23be
00000020: 7077 4bbc 7e56 07bd 089d ba3a 7a4b 8a3d
00000030: 648f c63d 3546 62bd e65e 5e3e 27f1 34be
00000040: dcbc 9abd 3d0c 34bd 9c45 db3c e0ef 5cbe
00000050: d761 1f3d 696b e53e de25 15be 6b2d 0a3e
00000060: 836a 29bc 3b51 09be dd1f 7ebe 6f5c f43d
00000070: fcf8 ac3d 6c37 6ebe cbe7 54be 86e1 f3bd
00000080: 2c28 3fbe f999 40be 00af c53b 9035 01be
00000090: 43ad 43be 6e50 6e3d ba47 863e 13e5 6f3d
000000a0: 0182 9cbc 4971 9b3e 7dc8 aebd 53a9 0cbe
000000b0: ee01 25be 7103 043e b36b 583e 3651 d5bd
000000c0: 4ab9 32bd 52af 9d3e 4d6d b33d 9de8 963e
000000d0: 3121 093e 6d37 4fbe 693d 0bbe 79d7 633d
000000e0: 8cfa 403e 368c 8c3e b397 8b3d a1ab c4bd
000000f0: 1605 8dbe acd0 893e b46c 903e e82d e4bd
00000100: 756b e7bd ff8d 1d3e 9b40 26be 05f2 953d
00000110: 00c6 9ebd e612 213e d43f 05bd 3f66 063e
00000120: 5467 99bc eba6 70bd 541f 9cbe f7bc 07be
00000130: c153 2bbe 8115 d23d fdf7 2bbe 34cf 6c3e
00000140: 1cfe 9c3e 3623 5f3d 4ae8 6cbd e766 1d3e
00000150: 9557 193e 8e54 d93e 6f74 223e ac09 2f3e
00000160: 8480 25be e657 0f3e 1f37 46bd 6816 57bd
00000170: cba7 893d 0a1d a43e 7c62 03bc 1165 b6bd
00000180: eb12 c8bd fb39 5ebd 0459 da3d c6d8 dbbc
00000190: 02f8 fe3c 302f 2cbe 0403 8bbb dba2 a63c
000001a0: d7fd 633e 8e08 cfbc 8f43 233e b7fa c43e
000001b0: f796 76bd fdb8 073e 728d 25bd 73d6 b23b
000001c0: 59d8 0b3e 07e4 bfbd 8859 ebbe b6f9 90bd
000001d0: a70d a43d d7e9 93bd a2be 0f3e ce4b c1bc
000001e0: 9a6a 09be 34a3 71bc 80ef 1bbd b4ae 133e
000001f0: 59fd 913e 4422 963e 7e51 753e fab7 aebd
00000200: a669 e5bd 4d3b 043d 63ef 2ebe 4329 0bbe
00000210: 17f1 7f3e 4acf c83d c5c6 013b aefc e6bd
00000220: f1f3 d33d 8a5b 9bbd 39eb c73d 0f88 913c
00000230: 1a5b c4be 8761 593e 80e5 07bd 6fd2 0f3e
00000240: 3b45 09bd 729f aebd 72fa c1bd 0d50 05bc
00000250: 8731 6c3c 01ed afbe 7a73 ab3e 1716 473e
00000260: b34d 133d 8393 0a3e 0f62 cb3d b6e8 9a3d
00000270: dbfb 553e 52d1 963c c914 993e 3277 1abd
00000280: 6f22 053e b526 c93d 0503 d43b 2cbf 183d
00000290: e3ad 5b3d 56ab 9fbe f378 eabc fcd9 c6be
000002a0: baae 87bc d2fc e7bc 4d52 41bd 82cf b23c
000002b0: 2b2e b7be ff7d 253e 928a 10be 6a9a 963d
000002c0: 7a1d 92bd ebc5 ecbd 911a 833e 99d5 b13c
000002d0: 8246 abbd d3f6 82bc a08c 8ebd e08b 403e
000002e0: 9122 873e 7536 b83c d96c 973d d150 ca3d
000002f0: 704e febc 800b b63e 16fc c33e 41ac 91be
00000300: cddd 983d 8ce7 5c3d 2d3a 273d c975 933d
00000310: 39e6 053e 3920 0ebe 3a4c 4e3e fe43 1cbe
00000320: cfd9 9c3e e7d0 023e f371 e4bd 1db7 89be
00000330: 0d93 53bd 6273 093e f1b4 063c 1354 053e
00000340: 2d48 903e c7b3 9d3d 6df9 b53c c1e6 66bd
00000350: 29c5 c2bd 75ba 42bd fcf7 2d3e 17a0 d73c
00000360: 604c 3cbe 2f93 1a3e d593 1cbe 2d3f ae3d
00000370: 4336 08bc aa06 953c 2959 42bd 89be a0be
00000380: 76cb 7fbe a899 a5bd 509b 21be 0c1a 8bbd
00000390: 8d6b 5e3e 2636 5f3e 9989 42be 8356 8f3e
000003a0: fedf 6f3e 8780 73bd 3eaf 56be 5af0 8bbe
000003b0: 6248 0e3e 06d1 9abd 868c 2cbd 2bca 1ebe
000003c0: 7293 c1bd 1181 233c d93e af3e f788 043e
000003d0: 9c99 813e 0cad 1b3d cda0 a9bd a8ac cd3a
000003e0: 52cc 863d 3452 c73d 105c bcbd f706 b83b
000003f0: 3a70 7a3e e1dc 6fbd ad80 fdbd 098b 833e

linears.1.bias f4 [40]
-0.026609464 -0.03565446 0.005786497 -0.053691383 0.012965376 -0.0047971406 0.051026884 0.07113275
0.0028937066 -0.10291719 -0.033028744 0.08032677 -0.043891337 -0.06474027 -0.06132365 -0.038466834
-0.026298216 -0.02516364 0.051968634 -0.063052274 0.048311513 0.1174571 0.006566149 -0.053155996
-0.062323093 0.088231035 -0.0028835344 -0.005941048 -0.096094735 0.07922637 0.009675815 -0.07329966
0.03599484 -0.12228759 0.08278235 0.021244928 0.09137465 -0.11660328 -0.04653241 0.022128023
00000000: 17fc d9bc 690a 12bd a89c bd3b 7feb 5bbd
00000010: ba6c 543c 5531 9dbb 9101 513d 0cae 913d
00000020: 57a4 3d3b 3fc6 d2bd 2649 07bd 5d82 a43d
00000030: 67c7 33bd 8c96 84bd 822e 7bbd 668f 1dbd
00000040: 5b6f d7bc fa23 cebc 10dd 543d 8d21 81bd
00000050: 4be2 453d 598d f03d da28 d73b 1aba 59bd
00000060: 8046 7fbd 79b2 b43d aef9 3cbb 1fad c2bb
00000070: 51cd c4bd 6f41 a23d 4f87 1e3c 221e 96bd
00000080: 536f 133d ea71 fabd cb89 a93d d809 ae3c
00000090: a222 bb3d b3cd eebd c598 3ebd d445 b53c

linears.2.weight f4 [40, 40]
0.027512716 -0.088053145 0.13010576 0.040275536 0.07743008 -0.053633217 -0.3095685 0.0005389058
0.04113795 -0.009003593 0.2265408 0.08199827 0.18287289 0.20312493 -0.03808838 -0.10375012
-0.1553687 -0.10135954 0.041831464 0.11121773 -0.029668454 -0.13724378 0.1878847 0.19485737
-0.15307455 -0.026472338 -0.088907264 0.04237851 -0.12162922 -0.025688296 -0.32086232 -0.10145987
0.20538394 -0.19427659 -0.0756829 0.29934877 0.041715417 0.08111224 -0.14131443 -0.14290869
-0.011240773 -0.10793962 -0.15812571 0.0031362213 -0.18996884 -0.31214806 0.050693452 0.09677509
0.291475 0.21302205 -0.108281486 0.10626737 -0.1444035 0.02241129 -0.25408635 0.17099072
0.031181004 -0.024924625 -0.15379433 0.16012605 -0.1382455 -0.24413566 -0.107161544 0.16318174
-0.13674305 -0.023103949 0.276197 -0.19424434 0.18284349 -0.19171816 -0.082158074 0.041644458
0.044053733 0.20555203 0.380195 0.08744053 -0.31278673 -0.23104599 -0.043613583 -0.037162405
0.07862175 -0.005649598 -0.30182838 -0.09029631 0.009474823 -0.112741105 0.046550516 0.08372387
0.057102643 -0.17173788 -0.12578468 -0.10942673 0.013365118 -0.04348352 0.06360698 0.12175776
0.17211488 -0.16317067 -0.123695746 -0.060245503 -0.1370703 -0.2195571 0.3546695 -0.28053078
-0.24607663 0.15442757 0.039056934 0.052863866 -0.03618084 0.02970855 -0.063025095 0.25730687
-0.38401997 0.018971168 0.22554038 0.08345313 -0.036254328 -0.13531592 -0.23003508 -0.18076548
-0.07808523 0.04396363 0.04471054 0.2380402 -0.1086651 -0.13390005 -0.3329787 -0.09194169
0.04246031 0.07183378 -0.121245444 -0.284618 0.16099344 0.15621266 0.1446054 -0.08840398
-0.08006974 -0.15764596 0.20344663 0.01682132 -0.078805625 -0.27595177 -0.27615163 0.18268253
0.044475943 -0.37312898 0.01247995 0.105171956 -0.1137127 -0.17911664 0.062806904 -0.034321543
0.03335764 0.46965417 0.06824427 -0.0025528234 -0.25420168 0.5034727 0.25854814 0.12254925
-0.034968916 -0.17221858 -0.009792115 -0.22901805 -0.06833297 0.16072765 -0.014514565 0.17087294
-0.26402685 0.14870837 0.08740278 -0.09385194 -0.015450318 0.16166629 -0.08653338 0.006601578
0.024498291 0.0017827298 0.005120425 -0.044544388 -0.1311081 0.02911607 0.014116862 0.34613878
-0.0179727 -0.012509417 -0.10038224 -0.14778854 -0.22247268 0.008203645 -0.07611251 -0.06802574
0.041368227 0.14611362 0.10377546 -0.13401906 0.07931761 -0.25931504 -0.13471954 0.15483019
0.14937992 0.16772439 -0.04797476 -0.239533 -0.2944217 0.13482809 0.24314532 0.0059776916
0.07039593 0.31863806 -0.25551525 0.121407054 -0.1850704 0.36141708 -0.07307227 0.3968665
-0.117019065 -0.0009918287 -0.19634618 -0.31445503 -0.22772726 -0.26454154 0.07826601 0.17779759
-0.34976098 -0.06323415 -0.34917977 0.13855267 0.5711642 0.00077558233 -0.07495304 0.13044345
-0.4059207 -0.37852383 0.2469421 0.029942881 -0.21655475 0.035779055 0.2299893 -0.19821468
-0.1295883 -0.103435755 0.21012138 0.15773803 0.14365 0.13474809 0.2183697 0.003980537
-0.14619714 -0.13699175 0.079442106 0.097449705 -0.059717186 -0.35168958 -0.06503639 0.3208825
00000000: 5962 e13c 3555 b4bd 723a 053e f6f7 243d
00000010: a993 9e3d 81ae 5bbd c37f 9ebe 5b45 0d3a
00000020: 4480 283d ce83 13bc 50fa 673e b5ee a73d
00000030: 0843 3b3e fbff 4f3e 9002 1cbd f17a d4bd
00000040: f918 1fbe 9795 cfbd 7857 2b3d 1fc6 e33d
00000050: 420b f3bc a289 0cbe d964 403e b188 473e
00000060: 93bf 1cbe 84dc d8bc 0315 b6bd 1795 2d3d
00000070: be18 f9bd 4370 d2bc 1148 a4be 31ca cfbd
00000080: 2b50 523e 71f0 46be a3ff 9abd 3e44 993e
00000090: c9dd 2a3d 2d1e a63d bbb4 10be a856 12be
000000a0: 382b 38bc 730f ddbd b5eb 21be 1089 4d3b
000000b0: 3187 42be dfd1 9fbe f0a3 4f3d 0532 c63d
000000c0: 363c 953e 7422 5a3e afc2 ddbd b5a2 d93d
000000d0: 83de 13be e297 b73c 9b17 82be 3118 2f3e
000000e0: 4e6f ff3c ba2e ccbc 437c 1dbe 15f8 233e
000000f0: 3a90 0dbe b3fe 79be 8377 dbbd 1d19 273e
00000100: 5f06 0cbe 7e44 bdbc b169 8d3e fde7 46be
00000110: 533b 3b3e c451 44be 7e42 a8bd 6193 2a3d
00000120: b071 343d 3b7c 523e eba8 c23e 0514 b33d
00000130: 9525 a0be 5297 6cbe 28a4 32bd 9b37 18bd
00000140: 7104 a13d 4320 b9bb 4089 9abe 46ed b8bd
00000150: 4a3c 1b3c cfe4 e6bd c1ab 3e3d 6c77 ab3d
00000160: 76e4 693d 0edc 2fbe b3cd 00be 1f1b e0bd
00000170: 5ef9 5a3c c71b 32bd 6044 823d 225c f93d
00000180: e23e 303e 3616 27be 3254 fdbd fdc3 76bd
00000190: 285c 0cbe 94d3 60be 3e97 b53e bba1 8fbe
000001a0: 83fb 7bbe 4322 1e3e 2afa 1f3d c887 583d
000001b0: 5c32 14bd 585f f33c 4d13 81bd babd 833e
000001c0: 449e c4be 6c69 9b3c 0ff4 663e 7ae9 aa3d
000001d0: 6b7f 14bd 4290 0abe 518e 6bbe 961a 39be
000001e0: 26eb 9fbd 3513 343d 6622 373d cfc0 733e
000001f0: cf8b debd 181d 09be 2f7c aabe ed4b bcbd
00000200: ddea 2d3d 971d 933d 884f f8bd 73b9 91be
00000210: 77db 243e 36f6 1f3e 7013 143e 250d b5bd
00000220: 9bfb a3bd f16d 21be 5054 503e ddcc 893c
00000230: d864 a1bd 8d49 8dbe bf63 8dbe 2111 3b3e
00000240: 682c 363d c30a bfbe b478 4c3c 6564 d73d
00000250: 34e2 e8bd 5a6a 37be e8a0 803d bf94 0cbd
00000260: 05a2 083d 8376 f03e a7c3 8b3d 454d 27bb
00000270: b926 82be 96e3 003f 6c60 843e 1afb fa3d
00000280: 913b 0fbd 115a 30be 1b6f 20bc b583 6abe
00000290: 28f2 8bbd ca95 243e 7fce 6dbc 51f9 2e3e
000002a0: 872e 87be 0247 183e 3b00 b33d 7235 c0bd
000002b0: 5523 7dbc d98b 253e 6a38 b1bd 0d52 d83b
000002c0: a4b0 c83c 7caa e93a 3dc9 a73b 2d74 36bd
000002d0: 3441 06be d384 ee3c 694a 673c 1a39 b13e
000002e0: 7c3b 93bc 4cf4 4cbc 3495 cdbd e155 17be
000002f0: e1cf 63be 9568 063c e0e0 9bbd 1451 8bbd
00000300: bb71 293d cf9e 153e 3a88 d43d 4b3c 09be
00000310: 4571 a23d f1c4 84be ebf3 09be ce8b 1e3e
00000320: 0df7 183e f1bf 2b3e 2f81 44bd 2448 75be
00000330: 71be 96be 6010 0a3e 16fb 783e 83e0 c33b
00000340: be2b 903d 8724 a33e e5d2 82be 43a4 f83d
00000350: 1883 3dbe a90b b93e eaa6 95bd 1632 cb3e
00000360: b1a7 efbd 4000 82ba f90e 49be 4000 a1be
00000370: 5631 69be fd71 87be ee49 a03d 9210 363e
00000380: df13 b3be e880 81bd b1c7 b2be c0e0 0d3e
00000390: d137 123f 7350 4b3a fb80 99bd f892 053e
000003a0: d7d4 cfbe e0cd c1be 64de 7c3e c64a f53c
000003b0: 87c0 5dbe 0f8d 123d 5182 6b3e caf8 4abe
000003c0: ccb2 04be 20d6 d3bd 0f2a 573e 1486 213e
000003d0: fc18 133e 67fb 093e 4e9c 5f3e 2a6f 823b
000003e0: b4b4 15be 9147 0cbe 8bb2 a23d b693 c73d
000003f0: 029a 74bd a810 b4be cd31 85bd b64a a43e

linears.2.bias f4 [40]
-0.034091987 -0.028142108 0.042533 -0.04532088 0.00059928163 -0.067565486 0.038774874 0.0042782
-0.034615777 -0.038089655 0.047952127 -0.005478285 0.05285761 0.030719664 -0.018048666 0.043720525
0.029409405 -0.01217703 -0.0043506976 0.0035146433 0.0108849965 0.08397616 -0.0078107514 -0.013981539
0.023243295 0.06514746 -0.04222218 -0.053643275 0.04996891 -0.061381716 0.027877325 0.0072541256
0.039391715 -0.08101027 0.0037634757 -0.03489825 -0.052455816 -0.02322099 0.0741681 -0.0101847835
00000000: 0aa4 0bbd 478a e6bc 1537 2e3d 63a2 39bd
00000010: 1c19 1d3a c65f 8abd 67d2 1e3d 2530 8c3b
00000020: 46c9 0dbd e603 1cbd 7369 443d 2f83 b3bb
00000030: 3981 583d cea7 fb3c ccda 93bc 4b14 333d
00000040: feeb f03c 2a82 47bc 4c90 8ebb ee55 663b
00000050: fc56 323c b1fb ab3d 55f1 ffbb d312 65bc
00000060: b968 be3c 086c 853d 2af1 2cbd 0db9 5bbd
00000070: 33ac 4c3d 656b 7bbd fd5e e43c 04b4 ed3b
00000080: 3559 213d b6e8 a5bd a5a4 763b 78f1 0ebd
00000090: e9db 56bd f239 bebc 72e5 973d 14de 26bc

linears.3.weight f4 [40, 40]
-0.23636077 -0.11815908 -0.1659519 0.35130814 -0.124451794 -0.021378765 -0.18169013 -0.12882307
-0.08504144 0.050575223 -0.1336743 -0.12623186 -0.021313112 -0.029518763 0.18700515 0.053518556
-0.20877573 -0.29528895 -0.23582646 0.31548712 0.02527703 0.034232683 0.061595056 -0.13073571
0.2403125 -0.015788881 0.46577862 0.036336783 -0.17485677 -0.13586311 -0.09931598 -0.1764658
-0.18267578 0.09907086 0.23580544 -0.08167665 0.0027267747 0.023147784 0.017349247 0.10895641
0.08361524 -0.09827686 0.005427194 -0.36127958 -0.06302393 -0.044604674 -0.21748196 -0.121492006
-0.030131549 0.017562095 0.021288117 0.10713596 -0.1482003 -0.1445002 0.033320073 -0.010688538
0.14586157 0.07806262 0.069114745 -0.17632738 0.17015302 0.010951367 -0.20211002 0.17440827
-0.20011227 0.14773387 -0.13508716 -0.06552013 -0.2602851 -0.057045717 0.15194054 -0.11609029
0.05795817 0.012761281 0.03720473 -0.0074507874 -0.0126228435 -0.48988762 -0.098623246 0.091767594
0.21782422 0.14189619 -0.0544659 -0.053848796 -0.12656821 -0.08435625 -0.24868682 0.18141335
-0.008983743 -0.067197405 -0.065064505 -0.04361256 -0.40974924 -0.23887247 0.13584442 -0.4403714
-0.097573325 0.323493 0.294706 -0.16335027 0.089216515 -0.12590198 0.13193917 -0.048473373
-0.062063634 0.14176828 0.14894652 -0.112396635 0.1719269 0.2601232 0.053380553 -0.021968195
0.16351417 -0.17208852 -0.24874265 0.26236966 -0.21317534 0.016555894 0.1808826 0.12227792
-0.004898256 -0.007298692 -0.13800731 0.23531365 -0.15754977 0.037985977 0.2537916 -0.20512956
-0.26127386 0.14137176 -0.21406646 -0.05814856 -0.12755683 -0.14254948 0.38821283 0.11750491
-0.021003712 0.11000614 -0.039084658 -0.065257475 -0.13752797 -0.06701208 -0.019951472 0.095118485
-0.4929809 0.17861566 0.050189354 0.51752514 -0.10150909 0.15379465 -0.15010671 -0.05279397
-0.053806737 0.012815505 0.10284302 -0.099453986 -0.030480092 0.24579005 -0.23675866 0.08254314
0.073864825 0.11774422 -0.09905496 0.12891977 0.12815326 -0.11583948 -0.090237014 -0.14173356
0.018588796 -0.031881627 -0.06744056 0.024217745 0.049830385 -0.09995255 -0.0006260578 0.13812448
0.0005935345 0.16274746 0.14113088 0.038898986 -0.19006597 -0.12746751 -0.1469606 -0.012864795
-0.038509257 0.019668913 0.014403261 0.12804443 0.11878312 0.20876394 -0.09430295 0.060969424
-0.011069951 0.08401408 -0.22674015 0.32996944 -0.0013118051 0.05066651 0.0752371 -0.1205505
0.14137667 -0.19246303 0.27496248 -0.0768536 0.2340169 -0.009317437 0.17709377 -0.015178827
0.06359002 0.11717215 -0.05131577 0.037222374 0.07047102 -0.23346688 -0.1944315 0.09251694
-0.003502809 0.09894473 -0.015014135 0.03121459 -0.22844584 0.5016928 -0.04446851 -0.23478131
0.0137656685 -0.09985253 0.16988015 -0.23585121 0.021928806 -0.29854143 0.03188779 -0.17829175
0.11532951 -0.057602998 -0.18417636 0.13481298 -0.045585096 -0.008552101 -0.065853074 0.106336765
-0.08036982 0.088261895 0.046749707 -0.2398181 -0.087887235 -0.19891164 -0.056301698 0.2740368
0.2076625 -0.050730005 -0.14677785 -0.0028277338 0.0879972 0.14293794 -0.19647123 -0.054665342
00000000: 8f08 72be 63fd f1bd 4bef 29be a9de b33e
00000010: 95e0 febd 8522 afbc fa0c 3abe 32ea 03be
00000020: 352a aebd f727 4f3d eae1 08be ed42 01be
00000030: d698 aebc 55d1 f1bc 477e 3f3e 4636 5b3d
00000040: 4ec9 55be 1d30 97be 7e7c 71be 8787 a13e
00000050: c611 cf3c 9237 0c3d 194b 7c3d 95df 05be
00000060: 7b14 763e af57 81bc 897a ee3e e1d5 143d
00000070: a70d 33be b31f 0bbe 2d66 cbbd 73b3 34be
00000080: 5c0f 3bbe aae5 ca3d fb76 713e 1646 a7bd
00000090: b0b3 323b 6ca0 bd3c 0220 8e3c 8a24 df3d
000000a0: 783e ab3d 6145 c9bd 9ad6 b13b a3f9 b8be
000000b0: b112 81bd 64b3 36bd 97b3 5ebe cdd0 f8bd
000000c0: 70d6 f6bc 62de 8f3c 6b64 ae3c 196a db3d
000000d0: d2c1 17be dcf7 13be a17a 083d fa1e 2fbc
000000e0: bc5c 153e 4bdf 9f3d 088c 8d3d 2a8f 34be
000000f0: 983c 2e3e 5d6d 333c eef5 4ebe 1598 323e
00000100: 3bea 4cbe 8c47 173e 4a54 0abe 6b2f 86bd
00000110: 1744 85be c5a8 69bd 4d96 1b3e bfc0 edbd
00000120: 8c65 6d3d b114 513c fd63 183d bc25 f4bb
00000130: 0bd0 4ebc 8dd2 fabe fcfa c9bd a6f0 bb3d
00000140: 500d 5f3e 3c4d 113e a317 5fbd 8e90 5cbd
00000150: 199b 01be f8c2 acbd c2a7 7ebe 6cc4 393e
00000160: 8d30 13bc cb9e 89bd 8a40 85bd 15a3 32bd
00000170: a7ca d1be fc9a 74be cd1a 0b3e 5c78 e1be
00000180: 86d4 c7bd e0a0 a53e b4e3 963e 4b45 27be
00000190: 26b7 b63d 73ec 00be 101b 073e 048c 46bd
000001a0: 7036 7ebd b42b 113e 7085 183e 3530 e6bd
000001b0: 9b0d 303e de2e 853e 91a5 5a3d a5f6 b3bc
000001c0: 4270 273e f937 30be 65b6 7ebe 5155 863e
000001d0: a34a 5abe 3aa0 873c 4a39 393e d96c fa3d
000001e0: 8d81 a0bb de29 efbb ca51 0dbe 10f6 703e
000001f0: ba54 21be 2f97 1b3d f9f0 813e 7c0d 52be
00000200: b0c5 85be c2c3 103e 3d34 5bbe 2f2d 6ebd
00000210: 429e 02be 7ef8 11be d5c3 c63e 6aa6 f03d
00000220: fa0f acbc e64a e13d 3c17 20bd b6a5 85bd
00000230: 22d4 0cbe a13d 89bd 4571 a3bc 7bcd c23d
00000240: fe67 fcbe 06e7 363e 5a93 4d3d 877c 043f
00000250: ffe3 cfbd 587c 1d3e 93b5 19be 7d3e 58bd
00000260: 7464 5cbd 20f8 513c 5c9f d23d 88ae cbbd
00000270: 63b1 f9bc 63b0 7b3e dd70 72be 610c a93d
00000280: 7146 973d e223 f13d 54dd cabd 8b03 043e
00000290: 9c3a 033e 403d edbd 2fce b8bd 9a22 11be
000002a0: 8847 983c 4f96 02bd 471e 8abd 4b64 c63c
000002b0: f21a 4c3d ecb3 ccbd 071e 24ba 8170 0d3e
000002c0: 6d97 1b3a 45a7 263e 9d84 103e 8b54 1f3d
000002d0: a7a0 42be d886 02be d77c 16be dcc6 52bc
000002e0: e2bb 1dbd b320 a13c a8fb 6b3c 141e 033e
000002f0: 9044 f33d 37c6 553e e821 c1bd 13bb 793d
00000300: bd5e 35bc 930f ac3d 922e 68be c1f1 a83e
00000310: e0f0 abba b087 4f3d e915 9a3d 2ee3 f6bd
00000320: 0cc5 103e 0715 45be e2c7 8c3e 6c65 9dbd
00000330: 20a2 6f3e 2aa8 18bc 1258 353e 9db0 78bc
00000340: 7c3b 823d f4f7 ef3d 7c30 52bd 7d76 183d
00000350: 1c53 903d f111 6fbe 0d19 47be 8579 bd3d
00000360: 628f 65bb 89a3 ca3d d9fd 75bc bdb5 ff3c
00000370: b5ed 69be f06e 003f 9d24 36bd 836a 70be
00000380: 6689 613c 7c7f ccbd 10f5 2d3e fb82 71be
00000390: 0aa4 b33c 6cda 98be c59c 023d 1d92 36be
000003a0: e131 ec3d 1ff1 6bbd ba98 3cbe 6a0c 0a3e
000003b0: 70b7 3abd 1d1e 0cbc fadd 86bd 17c7 d93d
000003c0: ef98 a4bd a7c2 b43d 9f7c 3f3d e092 75be
000003d0: 39fe b3bd 7eaf 4bbe 9c9c 66bd 8d4e 8c3e
000003e0: 7aa5 543e 44ca 4fbd ef4c 16be 8051 39bb
000003f0: e037 b43d 535e 123e c12f 49be c4e8 5fbd

linears.3.bias f4 [40]
0.028622437 0.01922221 -0.027487034 -0.041884605 0.039232682 0.06870648 0.021714814 0.01821238
-0.008608094 -0.050941974 0.028844696 -0.038891662 0.011724881 0.019939383 -0.028759873 0.049362622
-0.08020057 0.00899481 -0.018776726 0.002011509 -0.020786298 0.05083112 0.018195344 -0.030022115
0.035663385 -0.046835657 -0.012920185 -0.037090927 0.05224847 0.02843988 -0.056107584 -0.10874319
-0.029351356 0.031133702 -0.1463557 0.015204274 0.0129815405 0.019619549 -0.09518266 0.04446395
00000000: 9a79 ea3c e577 9d3c 7d2c e1bc 318f 2bbd
00000010: 73b2 203d fcb5 8c3d 44e3 b13c 2132 953c
00000020: f708 0dbc 88a8 50bd b64b ec3c dd4c 1fbd
00000030: b719 403c eb57 a33c d399 ebbc 7630 4a3d
00000040: 3240 a4bd f85e 133c a6d1 99bc 85d3 033b
00000050: 0748 aabc 4b34 503d 670e 953c f0f0 f5bc
00000060: c513 123d bfd6 3fbd 2faf 53bc a8ec 17bd
00000070: 7e02 563d c0fa e83c 11d1 65bd c0b4 debd
00000080: 4172 f0bc 1b0c ff3c 45de 15be 591b 793c
00000090: 87b0 543c 2db9 a03c 20ef c2bd d51f 363d

linears.4.weight f4 [40, 40]
-0.18514338 -0.15399909 0.03119377 0.10574619 -0.121128716 -0.21329698 -0.18612571 0.12863205
0.11920711 0.031377517 -0.11947467 -0.06701828 0.36142072 0.19114609 -0.036390997 -0.0254685
0.051348392 -0.059634652 -0.02943584 -0.17964815 0.13687956 -0.28799284 0.16335139 -0.12120078
-0.07224958 -0.010480133 0.21145794 -0.0867778 -0.20168945 -0.091819584 -0.01978168 0.13399822
0.27987558 0.16966213 0.02304087 0.1155925 -0.03578122 -0.12310515 0.15959792 0.31300837
-0.27105695 -0.26033366 0.10738641 -0.0739036 -0.29173562 -0.17072564 -0.30010188 -0.34770438
0.09324577 -0.15416755 -0.09277855 0.16345908 -0.086806454 0.041034643 0.0846344 0.008482339
0.117408976 -0.01403237 -0.16964583 -0.016876793 0.08413358 0.020026378 -0.13671982 0.21710391
0.0035193441 0.18767282 -0.13442369 0.052996915 -0.23648487 -0.09631869 -0.07447478 -0.0661612
-0.057271585 -0.17704149 0.1766 0.08302458 -0.09835251 -0.09334975 0.029263357 -0.054430533
0.26690665 -0.11177567 -0.06862913 0.23849012 0.05905763 -0.1325676 -0.15653257 0.026608562
-0.28287855 -0.042955313 0.033111684 0.10471306 0.674842 -0.17617893 -0.021330154 0.10940219
-0.16943474 -0.15476857 0.06669108 -0.2655508 0.20126389 -0.16543241 0.05410102 0.13904963
-0.0043282025 -0.1009463 -0.17470045 -0.0461645 0.11733056 -0.43789253 0.22912097 -0.020690728
0.12796845 -0.07848379 0.09914563 0.13329451 -0.3027133 0.15554118 -0.07313766 -0.11277145
0.29538774 0.18090199 0.21863948 -0.024823673 0.10323623 -0.018514663 -0.011280067 0.3895694
0.22041716 0.27616915 0.059201915 0.37306467 0.132416 0.17256442 -0.0026982676 0.13204369
0.3343379 -0.16353655 -0.01650048 -0.24013887 0.35113582 0.29943886 -0.10588056 0.042756293
0.25005364 -0.16910116 -0.1927524 0.09921035 0.21202464 0.17586438 -0.0012767925 0.12366209
0.014548499 0.29283345 -0.021764055 -0.3376983 0.20278594 -0.036770865 0.105881356 0.09837546
-0.110351056 0.09938398 0.25814113 -0.1388504 0.14474691 -0.23736984 0.2958597 -0.36706412
0.22315858 0.054396085 0.02890372 -0.24142283 -0.4788526 0.26080653 0.078467384 0.2937416
0.08328541 0.100408874 -0.058917753 0.0031668125 0.16953368 -0.04361269 0.16621771 -0.30416897
0.06682948 0.20080271 -0.09755286 0.20589457 -0.0724314 0.070238 -0.058837306 -0.25936005
0.13780366 0.06732848 -0.07210971 0.15455285 -0.045229178 -0.010973481 0.18411294 -0.255232
-0.14495549 0.18587892 0.17919296 0.07991194 -0.0070558023 -0.17636944 -0.083209366 0.2701074
-0.05552103 -0.0074016703 0.36946967 -0.39612508 -0.35806388 0.023304636 -0.14420481 -0.20862024
-0.29328665 -0.09940765 0.06687946 0.0076527726 0.083456144 -0.07973371 0.2163341 -0.14308031
-0.13281536 0.18482137 0.12431397 0.12139611 -0.006855314 0.19434614 0.3250345 -0.33998695
-0.36639982 0.00096387556 -0.6108846 0.11568558 -0.27715692 -0.09162173 0.005208813 -0.29086342
0.04899805 -0.07075627 -0.10493866 -0.023557149 -0.2007505 -0.15604165 0.21028122 0.078581944
0.17030421 -0.2967114 -0.042509068 -0.033177007 -0.19334967 0.23401387 0.20371193 -0.19699714
00000000: 3a96 3dbe f0b1 1dbe 148a ff3c 7591 d83d
00000010: 5512 f8bd 866a 5abe bd97 3ebe 1fb8 033e
00000020: db22 f43d b685 003d 23af f4bd e140 89bd
00000030: 230c b93e cdbb 433e ba0e 15bd 51a3 d0bc
00000040: b152 523d 7743 74bd 6e23 f1bc aff5 37be
00000050: 282a 0c3e cc73 93be 9645 273e 1d38 f8bd
00000060: 96f7 93bd ddb4 2bbc 6e88 583e 8fb8 b1bd
00000070: ae87 4ebe e80b bcbd 310d a2bc d436 093e
00000080: da4b 8f3e e9bb 2d3e 35c0 bc3c c3bb ec3d
00000090: 548f 12bd 8e1e fcbd a36d 233e a242 a03e
000000a0: fac7 8abe 744a 85be 68ed db3d c55a 97bd
000000b0: 5f5e 95be b4d2 2ebe f4a6 99be 4f06 b2be
000000c0: a3f7 be3d 19de 1dbe ae02 bebd d161 273e
000000d0: 95c7 b1bd f113 283d cd54 ad3d 82f9 0a3c
000000e0: 1e74 f03d 07e8 65bc a3b7 2dbe 3341 8abc
000000f0: 3a4e ac3d 5c0e a43c 4800 0cbe 7d50 5e3e
00000100: cca4 663b 4e2d 403e 5da6 09be 4b13 593d
00000110: 1729 72be bc42 c5bd 3c86 98bd 867f 87bd
00000120: 9c95 6abd 5d4a 35be a1d6 343e ca08 aa3d
00000130: 0a6d c9bd 272e bfbd b5b9 ef3c 8df2 5ebd
00000140: fda7 883e a4ea e4bd 6e8d 8cbd c136 743e
00000150: 6ae6 713d cdbf 07be 134a 20be 33fa d93c
00000160: 75d5 90be e9f1 2fbd 1ea0 073d cd73 d63d
00000170: 72c2 2c3f 4068 34be 93bc aebc 410e e03d
00000180: 4d80 2dbe a77b 1ebe 5595 883d 46f6 87be
00000190: 1f18 4e3e 1d67 29be 0899 5d3d 0763 0e3e
000001a0: 98d3 8dbb efbc cebd ade4 32be fd16 3dbd
000001b0: 014b f03d 7333 e0be b09e 6a3e 9a7f a9bc
000001c0: 290a 033e 1cbc a0bd dd0c cb3d 5b7e 083e
000001d0: 3dfd 9abe 3046 1f3e 33c9 95bd b8f4 e6bd
000001e0: 103d 973e 5f3e 393e 07e3 5f3e 045b cbbc
000001f0: 846d d33d 10ac 97bc 08d0 38bc a475 c73e
00000200: 09b5 613e 0b66 8d3e b57d 723d 5502 bf3e
00000210: 0f98 073e bab4 303e 6bd5 30bb 7636 073e
00000220: 562e ab3e 2076 27be 042c 87bc f7e6 75be
00000230: 13c8 b33e 0d50 993e e8d7 d8bd 3921 2f3d
00000240: 0807 803e db28 2dbe e360 45be cc2e cb3d
00000250: fd1c 593e cb15 343e 0c5a a7ba 8d42 fd3d
00000260: d45c 6e3c 44ee 953e 884a b2bc cbe6 acbe
00000270: 1ea7 4f3e 0c9d 16bd 53d8 d83d 1379 c93d
00000280: bcff e1bd d489 cb3d 132b 843e cd2e 0ebe
00000290: 8938 143e 1411 73be ec7a 973e d4ef bbbe
000002a0: af83 643e 6ece 5e3d 7fc7 ec3c 8c37 77be
000002b0: 2b2c f5be 6f88 853e 82b3 a03d 4d65 963e
000002c0: 8b91 aa3d 2ba3 cd3d be53 71bd 4c8a 4f3b
000002d0: 3d9a 2d3e 38a3 32bd fa34 2a3e 09bc 9bbe
000002e0: e5dd 883d 3a9f 4d3e cbc9 c7bd 07d6 523e
000002f0: ea56 94bd f1d8 8f3d 63ff 70bd d7ca 84be
00000300: 671c 0d3e 84e3 893d 41ae 93bd 1a43 1e3e
00000310: 3b42 39bd 1eca 33bc 1a88 3c3e c5ad 82be
00000320: 366f 14be 0b57 3e3e 5c7e 373e dfa8 a33d
00000330: 5c34 e7bb 319a 34be ac69 aabd 844b 8a3e
00000340: 056a 63bd b689 f2bb 212b bd3e e8d0 cabe
00000350: 2654 b7be 5de9 be3c 6daa 13be 8ba0 55be
00000360: ab29 96be 3d96 cbbd 19f8 883d 1cc4 fa3b
00000370: 0eeb aa3d 6d4b a3bd b086 5d3e a583 12be
00000380: c000 08be d041 3d3e 5398 fe3d 869e f83d
00000390: 8ba2 e0bb ad02 473e ec6a a63e c512 aebe
000003a0: c298 bbbe 98ac 7c3a ef62 1cbf 90ec ec3d
000003b0: 83e7 8dbe 2ca4 bbbd b1ae aa3b 0dec 94be
000003c0: 2eb2 483d aae8 90bd 15ea d6bd ecfa c0bc
000003d0: 8a91 4dbe 62c9 1fbe f653 573e 92ef a03d
000003e0: 3a64 2e3e 8eea 97be fd1d 2ebd 9de4 07bd
000003f0: 75fd 45be 55a1 6f3e dc99 503e 9eb9 49be

linears.4.bias f4 [40]
-0.021099687 -0.045856368 -0.010024945 0.005723764 0.0029446457 0.006855472 0.018983789 0.022810645
0.03759122 0.009962859 0.008882461 0.039130904 -0.02593263 0.0022922426 -0.039933097 -0.1294617
0.017404282 -0.023947407 0.060337164 -0.009468237 0.031532027 -0.060424533 -0.049227107 -0.003745382
0.007988128 0.03755208 0.009880052 -0.029609734 0.025181502 -0.03485727 -0.095297486 0.16397698
0.004345049 -0.02059415 -0.05655835 -0.1607708 -0.016558675 -0.03464398 -0.035696633 0.03547344
00000000: 40d9 acbc e3d3 3bbd ab3f 24bc 6a8e bb3b
00000010: f5fa 403b dea3 e03b e483 9b3c 64dd ba3c
00000020: 40f9 193d 423b 233c be87 113c ba47 203d
00000030: ab70 d4bc 7339 163b e390 23bd 9c91 04be
00000040: 6d93 8e3c 5a2d c4bc 1a24 773d aa20 1bbc
00000050: ba27 013d b77f 77bd 5da2 49bd 1575 75bb
00000060: a3e0 023c 36d0 193d f1df 213c 1d90 f2bc
00000070: 7049 ce3c 7fc6 0ebd 542b c3bd 95e9 273e
00000080: ea60 8e3b 10b5 a8bc baa9 67bd 1aa1 24be
00000090: 0fa6 87bc d9e6 0dbd a236 12bd 994c 113d

linears.5.weight f4 [40, 40]
-0.20812586 -0.18916088 0.071270935 0.025879988 -0.07906079 0.4384096 0.2761339 -0.007151131
0.12024945 0.15152237 -0.26036334 -0.1034346 0.16344316 0.06480009 -0.17320842 0.015573607
0.10234246 -0.04098617 0.046074778 -0.27813214 -0.063326806 0.030772092 0.055010684 -0.21412602
0.31515086 0.06822413 0.04803331 -0.050325856 0.1212648 -0.08852861 -0.22030258 0.06970296
-0.04868351 -0.16320558 -0.29716805 0.00698437 -0.2237789 -0.00723861 -0.20726338 0.17410499
0.08161705 -0.13370399 0.02664625 -0.16035286 -0.12191829 -0.025205066 0.065117694 0.028180769
0.059669845 0.3096904 -0.24261159 0.04104952 0.2446729 -0.057002243 -0.10767375 -0.20296206
0.31152415 0.063311554 0.043513097 0.117541544 0.17205648 -0.19999519 -0.17978212 -0.098417856
-0.12868942 -0.14471601 0.012108506 -0.2212481 0.035650138 -0.2304891 0.0920499 0.17362438
0.041441474 -0.100018956 -0.047235403 -0.35160694 -0.048247315 0.063690856 -0.08854087 -0.2420469
0.13970444 -0.07619082 -0.08158764 -0.025326213 -0.020870682 0.25895852 0.13317516 -0.08113927
-0.15109566 0.104467645 0.17289644 -0.003325851 -0.18372126 -0.06675927 0.18926238 0.006089748
-0.10729696 0.2896833 0.421142 0.083481036 -0.29631856 -0.054702323 0.11577299 0.40582344
-0.2399599 -0.054004785 0.025333153 0.09408497 -0.10952638 -0.44238696 0.12383195 -0.06291327
-0.26950544 -0.083762966 0.05779823 -0.3663549 -0.0026389165 -0.055221733 -0.07301148 -0.3316088
-0.07664093 0.1749096 0.036160145 -0.10763437 0.2563552 -0.06106098 -0.05793537 -0.04483896
-0.1240856 0.056882046 -0.22948687 -0.10497029 -0.013229961 0.06836683 -0.28522548 -0.18642004
-0.010583143 -0.019578502 -0.11048632 0.035667837 0.089877464 0.15649492 0.18752486 -0.20029692
0.15628421 0.02901206 -0.07439914 -0.09535354 -0.1037368 0.16835608 -0.06761632 0.1137361
-0.060993996 0.1799817 -0.039926454 0.24207832 -0.112771615 0.43077785 -0.20729046 -0.020933269
-0.28712475 -0.142227 0.12522067 0.26052237 -0.079928935 0.20149541 0.05899701 0.29013604
-0.026095388 -0.050894964 -0.093751974 -0.12231019 -0.12865324 0.045665517 -0.14437678 -0.10145609
0.1927845 -0.04515035 -0.09355894 0.15436944 -0.19318058 -0.1603996 -0.04842401 -0.102386415
-0.19613107 -0.12292003 -0.010021618 -0.13243929 0.33994982 0.042574532 0.10472835 0.13513063
-0.10196135 -0.1552923 -0.060272634 0.1648803 -0.14697254 0.30879366 -0.023214394 -0.011855773
0.054910332 -0.18942665 -0.4387388 -0.2608283 0.5048394 -0.03836863 0.07752292 -0.18683423
0.054348897 0.042896144 0.13439572 -0.1074473 0.04561066 0.12224335 -0.06074956 -0.32395637
0.08461047 0.015182444 -0.20426747 0.123927504 -0.021318024 0.11546967 0.1971326 0.048409253
-0.026283707 0.019328529 0.016155064 0.19883978 0.039535835 -0.09033136 -0.02733571 0.048691854
-0.349624 -0.04182222 0.27049312 0.036077186 -0.062428568 0.06263659 0.33983058 -0.13014007
-0.064045615 0.11511262 0.2908176 -0.093365185 0.18508348 -0.046277575 0.16065083 -0.03433796
0.09701963 -0.05375292 -0.067229256 -0.088720396 0.21686384 0.27057388 -0.14172028 0.1585203
00000000: f21e 55be 64b3 41be 7ff6 913d 4502 d43c
00000010: a0ea a1bd 3977 e03e 6c61 8d3e 0954 eabb
00000020: 5845 f63d ae28 1b3e 584e 85be 85d5 d3bd
00000030: a55d 273e e9b5 843d 8c5d 31be 7128 7f3c
00000040: ec98 d13d 1de1 27bd e8b8 3c3d 5667 8ebe
00000050: 7cb1 81bd c115 fc3c e252 613d da43 5bbe
00000060: 745b a13e 18b9 8b3d 93be 443d 7c22 4ebd
00000070: ae59 f83d 7d4e b5bd 0097 61be 6dc0 8e3d
00000080: 5c68 47bd 5d1f 27be 6926 98be 24dd e43b
00000090: 4c26 65be dd31 edbb da3c 54be 9448 323e
000000a0: d726 a73d b3e9 08be 3d49 da3c 8a33 24be
000000b0: 4cb0 f9bd db7a cebc 6d5c 853d 5bdb e63c
000000c0: 5e68 743d bd8f 9e3e 2c6f 78be 8b23 283d
000000d0: 888b 7a3e 2f7b 69bd 0e84 dcbd 49d5 4fbe
000000e0: 1880 9f3e 7da9 813d ca3a 323d 9fb9 f03d
000000f0: 932f 303e 8acb 4cbe ce18 38be 4d8f c9bd
00000100: 29c7 03be 6f30 14be c162 463c dd8e 62be
00000110: e105 123d 5605 6cbe a884 bc3d 97ca 313e
00000120: 89be 293d bdd6 ccbd e979 41bd d305 b4be
00000130: fa9e 45bd 5a70 823d ea54 b5bd 24db 77be
00000140: ae0e 0f3e ef09 9cbd 6c17 a7bd eb78 cfbc
00000150: fef8 aabc 3696 843e 125f 083e 582c a6bd
00000160: d2b8 1abe 22f3 d53d c40b 313e 85f6 59bb
00000170: 6d21 3cbe 16b9 88bd ffcd 413e 828c c73b
00000180: 82be dbbd 5f51 943e ed9f d73e 1bf8 aa3d
00000190: 11b7 97be 8b0f 60bd 641a ed3d 17c8 cf3e
000001a0: 0cb8 75be 1f34 5dbd 7987 cf3c 9faf c03d
000001b0: 5e4f e0bd 8b80 e2be 9b9b fd3d acd8 80bd
000001c0: 9efc 89be eb8b abbd d6bd 6c3d df92 bbbe
000001d0: acf1 2cbb 2f30 62bd 0b87 95bd a1c8 a9be
000001e0: ebf5 9cbd 811b 333e a91c 143d 696f dcbd
000001f0: fd40 833e 141b 7abd a34d 6dbd 0fa9 37bd
00000200: 9720 febd 26fd 683d 9bfe 6abe aafa d6bd
00000210: 7ac2 58bc e903 8c3d 1309 92be e5e4 3ebe
00000220: eb64 2dbc 1863 a0bc a746 e2bd 7018 123d
00000230: ad11 b83d 3440 203e 8406 403e a31a 4dbe
00000240: f808 203e b3aa ed3c 945e 98bd b748 c3bd
00000250: f673 d4bd 8965 2c3e 6d7a 8abd 79ee e83d
00000260: d7d4 79bd 1f4d 383e ec89 23bd 61e3 773e
00000270: cef4 e6bd ea8e dc3e f343 54be 3f7c abbc
00000280: 0402 93be f4a3 11be d939 003e 3063 853e
00000290: c8b1 a3bd d054 4e3e d9a6 713d b68c 943e
000002a0: ffc5 d5bc 3d77 50bd 0901 c0bd c47d fabd
000002b0: adbd 03be c40b 3b3d 82d7 13be 36c8 cfbd
000002c0: 4d69 453e 93ef 38bd d49b bfbd 0613 1e3e
000002d0: 21d1 45be cb3f 24be 4158 46bd f8af d1bd
000002e0: 95d6 48be 7fbd fbbd b631 24bc 2a9e 07be
000002f0: e70d ae3e a262 2e3d d17b d63d af5f 0a3e
00000300: 1dd1 d0bd f204 1fbe 70e0 76bd 62d6 283e
00000310: f87f 16be 341a 9e3e 1d2c bebc b73e 42bc
00000320: a8e9 603d 0ff9 41be 5fa2 e0be 498b 85be
00000330: 283d 013f 6d28 1dbd 56c4 9e3d 7951 3fbe
00000340: f39c 5e3d deb3 2f3d 089f 093e 540d dcbd
00000350: 3ed2 3a3d b95a fa3d 88d4 78bd 9cdd a5be
00000360: 4148 ad3d c9bf 783c 7e2b 51be b4cd fd3d
00000370: 23a3 aebc 5d7b ec3d 21dd 493e c848 463d
00000380: ee50 d7bc dd56 9e3c a057 843c a89c 4b3e
00000390: 54f0 213d a6ff b8bd 24ef dfbc 1c71 473d
000003a0: eb01 b3be c74d 2bbd 137e 8a3e acc5 133d
000003b0: 19b5 7fbd 9d47 803d 46fe ad3e 7043 05be
000003c0: 592a 83bd 2ac0 eb3d 0be6 943e 3f36 bfbd
000003d0: 8686 3d3e 8e8d 3dbd a781 243e f6a5 0cbd
000003e0: 3ab2 c63d 062c 5cbd 7eaf 89bd 0ab3 b5bd
000003f0: 8e11 5e3e a988 8a3e 1f1f 11be 2553 223e

linears.5.bias f4 [40]
0.039973468 -0.024271047 0.011321192 -0.0624918 0.032807264 -0.017684236 -0.091678634 0.012888343
-0.07425194 -0.091998585 -0.029532159 0.024310218 -0.06403249 0.12076618 0.031787302 0.028291918
0.007010907 -0.021816337 -0.11216431 0.026612733 0.039107088 -0.050873853 -0.08532307 -0.0178119
-0.023542536 -0.043216847 -0.081325136 -0.0682986 -0.02331342 0.022280607 -0.11275552 0.033238377
-0.029942194 0.04491613 -0.09854054 0.042221054 -0.04433042 0.061922543 0.022138957 0.032028545
00000000: 38bb 233d 13d4 c6bc 857c 393c 67f7 7fbd
00000010: e960 063d 88de 90bc 02c2 bbbd a129 533c
00000020: 6711 98bd c169 bcbd 6ded f1bc 3926 c73c
00000030: 7723 83bd 4254 f73d 6733 023d 74c4 e73c
00000040: c0bb e53b 2db8 b2bc 67b6 e5bd f202 da3c
00000050: c12e 203d 1a61 50bd ddbd aebd 43ea 91bc
00000060: 47dc c0bc 2604 31bd cb8d a6bd 23e0 8bbd
00000070: c9fb bebc d285 b63c 5eec e6bd f724 083d
00000080: 5549 f5bc faf9 373d 9fcf c9bd fcef 2c3d
00000090: d193 35bd 7ea2 7d3d c25c b53c 5d30 033d

linears.6.weight f4 [1, 40]
-0.30852884 0.11127744 -0.14883162 0.35448796 -0.30364624 0.15325077 0.10973069 -0.36116633
0.3817806 0.0001910864 -0.048883677 -0.08636933 0.4189219 -0.044777915 -0.32544816 -0.2158441
-0.074204676 0.29499748 0.0815568 -0.55359226 -0.08602104 0.01040633 0.25972915 0.30619526
0.3488717 0.38355258 0.25703847 0.10643496 0.25884554 -0.21958406 0.1420184 0.002861258
0.11158476 -0.035355795 0.31761858 -0.072466575 0.24105422 -0.24474901 -0.17644645 -0.06564965
00000000: 7ef7 9dbe 6de5 e33d 5167 18be 727f b53e
00000010: 8577 9bbe c5ed 1c3e 7cba e03d cbea b8be
00000020: bf78 c33e 5d5e 4839 403a 48bd 67e2 b0bd
00000030: ee7c d63e 0c69 37bd 24a1 a6be 3c06 5dbe
00000040: 9ff8 97bd e909 973e 4007 a73d 39b8 0dbf
00000050: cd2b b0bd 507f 2a3c 38fb 843e a0c5 9c3e
00000060: 509f b23e 0161 c43e 8c9a 833e 93fa d93d
00000070: 6787 843e a5da 60be 456d 113e f283 3b3b
00000080: 8d86 e43d 3dd1 10bd e79e a23e 5b69 94bd
00000090: ebd6 763e 7c9f 7abe 61ae 34be 5373 86bd

exp_avg f4 [40, 2]
-0.0018198375 -0.0005075287 0.0011417266 0.00025210803 0.0005195892 0.00028034972 0.0004712756 -0.00018592076
-0.0007397776 0.000103508726 -0.00017352313 -3.6938718e-07 -0.0015951484 -0.00057648204 0.000637644 0.0001907937
0.0016487441 0.0003310179 0.00031172647 0.000103373364 0.0012008038 0.00034929355 0.0002864273 9.8513956e-05
-0.0014222154 -0.00060415117 -0.0004820059 0.00021168822 -0.00043501623 -0.00019803505 0.0011320246 0.00035436836
-0.0021721385 -0.00066523935 5.1978814e-06 -0.00024016017 0.00010731111 0.0001884648 -0.0006811643 3.139437e-05
0.0016137095 0.0007284939 0.00085047446 0.00024772796 9.165713e-05 -5.4587133e-05 0.00031478473 0.0005162313
-0.0017080758 -0.00049791613 0.0010078613 0.00020720602 -0.00058203936 -3.590656e-05 -0.0012077888 -0.0003523052
0.00096715806 0.00023790162 -0.0013636628 -0.00046639403 -0.00088478706 0.00022276076 -0.0007756631 -0.00035216863
0.0008737025 0.00035790613 -0.00045218525 -5.514335e-07 -0.00028631176 -3.9495044e-05 0.00014004199 0.00039704298
-0.00061087584 0.00017959393 -6.6554435e-06 -0.00011852383 -0.0019833958 -0.0006222468 0.0010510786 0.00010121903
00000000: 9d87 eeba ad0b 05ba fda5 953a 5e2d 8439
00000010: 0a35 083a e7fb 9239 8a15 f739 b9f3 42b9
00000020: a2ed 41ba d312 d938 c3f3 35b9 3050 c6b4
00000030: 4c14 d1ba 0e1f 17ba 9127 273a cb0f 4839
00000040: ac1a d83a 788c ad39 386f a339 27ca d838
00000050: 4a64 9d3a 6321 b739 9f2b 9639 4799 ce38
00000060: a169 baba e65f 1eba bdb5 fcb9 a0f8 5d39
00000070: e412 e4b9 a1a7 4fb9 7160 943a 84ca b939
00000080: 705a 0ebb 7563 2eba 7669 ae36 81d3 7bb9
00000090: 370c e138 a29e 4539 2a90 32ba 73ad 0338
000000a0: 1b83 d33a 66f8 3e3a 60f2 5e3a 7ce1 8139
000000b0: 0c38 c038 7df4 64b8 b109 a539 b253 073a
000000c0: 83e1 dfba 9686 02ba 371a 843a 7145 5939
000000d0: 0094 18ba 609a 16b8 ab4e 9eba 9ab5 b8b9
000000e0: e188 7d3a 3b75 7939 eebc b2ba 5986 f4b9
000000f0: 0ef1 67ba e394 6939 df55 4bba 46a3 b8b9
00000100: 2f09 653a 59a5 bb39 4713 edb9 3906 14b5
00000110: 1d1c 96b9 7ba7 25b8 3cd8 1239 352a d039
00000120: 2f23 20ba 6151 3c39 d351 dfb6 ff8f f8b8
00000130: dcfb 01bb 471e 23ba 58c4 893a 8e45 d438

exp_avg_sq f4 [40, 2]
0.0016626193 0.00012065592 0.00063348113 3.069173e-05 0.00012855885 3.8577244e-05 0.00011337683 1.772689e-05
0.00028088604 8.274076e-06 1.3708473e-05 2.882494e-08 0.0012197825 0.00016558515 0.00019037175 1.2967014e-05
0.0013210948 5.1579784e-05 4.6567784e-05 4.5934003e-06 0.00069929153 5.537758e-05 4.0402258e-05 4.933154e-06
0.0009714411 0.00017819744 0.00012655821 2.5878728e-05 9.1886715e-05 1.881795e-05 0.00062751875 6.2147585e-05
0.002103558 0.00019085007 1.212461e-07 3.257686e-05 5.013244e-06 1.6851904e-05 0.00022834305 1.9263564e-06
0.0012316097 0.00026508578 0.0003732073 2.9702142e-05 3.811858e-06 1.3976604e-06 5.238101e-05 0.00012900597
0.0013452243 0.0001074711 0.0005316801 1.7150227e-05 0.0001649911 8.1117685e-07 0.00074879045 5.6178065e-05
0.0004640842 2.6245947e-05 0.00083670893 0.000104169376 0.0004008154 3.2373704e-05 0.00029708963 6.012588e-05
0.00035251127 6.198969e-05 0.00010036806 1.7106606e-07 4.7838377e-05 1.7088912e-06 7.896397e-06 8.8254055e-05
0.0001881685 2.0925367e-05 7.739636e-08 6.4979095e-06 0.0019089949 0.00018554191 0.0005603144 4.2205106e-06
00000000: 3fec d93a a708 fd38 3310 263a ffba 0038
00000010: c1cd 0639 00ce 2138 b9c4 ed38 35b4 9437
00000020: e343 9339 e3d0 0a37 71fd 6537 b79a f732
00000030: 1ce1 9f3a eda0 2d39 879e 4739 e78c 5937
00000040: 9628 ad3a 5f57 5838 c751 4338 0221 9a36
00000050: a950 373a 3945 6838 9875 2938 7887 a536
00000060: 4fa8 7e3a 83da 3a39 b6b4 0439 2516 d937
00000070: 4eb3 c038 3ddb 9d37 1280 243a 3b55 8238
00000080: d9db 093b ed1e 4839 e02f 0234 23a3 0838
00000090: 7037 a836 305d 8d37 5f6f 6f39 8d46 0136
000000a0: f76d a13a 36fb 8a39 09ab c339 dd28 f937
000000b0: 39cf 7f36 3f97 bb35 aeb3 5b38 c745 0739
000000c0: 3d52 b03a 1c62 e138 7360 0b3a d5dd 8f37
000000d0: 7601 2d39 a6bf 5935 7a4a 443a bda0 6b38
000000e0: 5450 f339 be2a dc37 9656 5b3a 8275 da38
000000f0: 8824 d239 00c9 0738 b2c2 9b39 ac2f 7c38
00000100: 43d1 b839 7600 8238 b17c d238 48ae 3734
00000110: 11a6 4838 0e5d e535 c47a 0437 0915 b938
00000120: 194f 4539 e288 af37 1935 a633 9e08 da36
00000130: 3d37 fa3a 078e 4239 10e2 123a e99d 8d36

exp_avg f4 [40]
-0.0012832324 0.0006638715 0.00078655756 -0.00050574954 0.000337685 3.0569365e-05 -0.0014347363 0.00048279733
0.00090288697 0.0002887905 0.0008997624 0.0003075685 -0.0014806045 0.0006384637 -0.0005016513 0.0009611164
-0.0017092617 -0.00068336213 0.0005054395 0.00021154607 0.0020191737 0.00048012103 -0.00013312731 0.001299867
-0.0012211318 0.00038765618 -0.00026652002 -0.0008490849 0.00059873407 -0.0012615338 0.0006211354 -0.00082873664
0.0010599962 4.268101e-05 9.988602e-05 0.0010784786 0.00040788978 -0.00030975285 -0.0017356384 0.00013005514
00000000: 2232 a8ba aa07 2e3a fc30 4e3a 4794 04ba
00000010: 500b b139 9b37 0038 c30d bcba f61f fd39
00000020: b8af 6c3a ce68 9739 08de 6b3a 2541 a139
00000030: d810 c2ba 935e 273a 4081 03ba 6ef3 7b3a
00000040: 4e09 e0ba a823 33ba 787f 043a 77d2 5d39
00000050: 1d54 043b c1b8 fb39 1798 0bb9 4d60 aa3a
00000060: 620e a0ba 553e cb39 b6bb 8bb9 2095 5eba
00000070: 5df4 1c3a 0d5a a5ba b1d3 223a 933f 59ba
00000080: 92ef 8a3a 6304 3338 e679 d138 bd5b 8d3a
00000090: 0ada d539 5366 a2b9 5c7e e3ba 695f 0839

exp_avg_sq f4 [40]
0.00084289804 0.00022337498 0.00032832005 0.00014614763 6.2392086e-05 1.3024007e-06 0.0010473215 0.00010957564
0.00041748065 4.1142008e-05 0.00040299687 4.959317e-05 0.0011523897 0.00021005396 0.00012609681 0.00047082122
0.001340587 0.00024611052 0.00013387762 2.568157e-05 0.0020889565 0.00013285888 9.348542e-06 0.0008959574
0.00071642175 7.230082e-05 3.5438858e-05 0.00037691515 0.00018485222 0.00078201597 0.00020848452 0.00035977815
0.0005663843 1.0701064e-06 4.886258e-06 0.00061843975 9.572467e-05 5.1666517e-05 0.0015433471 9.269918e-06
00000000: eef5 5c3a c439 6a39 5f22 ac39 353f 1939
00000010: 7fd8 8238 26ce ae35 4746 893a f9cb e538
00000020: 4ee1 da39 e58f 2c38 5349 d339 4302 5038
00000030: c80b 973a ee41 5c39 db38 0439 8ed8 f639
00000040: a3b6 af3a 6508 8139 8061 0c39 c06e d737
00000050: e0e6 083b 0950 0b39 afd7 1c37 afde 6a3a
00000060: 40ce 3b3a 35a0 9738 2fa4 1438 b29c c539
00000070: e4d4 4139 3400 4d3a a39c 5a39 9ba0 bc39
00000080: 6879 143a 93a0 8f35 a3f4 a336 ca1e 223a
00000090: cabf c838 80b4 5838 234a ca3a ff85 1b37
