pdebench/models/newly_trained_models/Advection/PINN1D_Advection_Sols_beta4.0_PINN.pt-5000.pt (torch, 119403 bytes, 39 tensors)

linears.0.weight f4 [40, 2]
0	0x3eca825c	0.3955258
1	0xbc689dd5	-0.014197786
2	0xbe8f6ff6	-0.28015107
3	0x3cba24fc	0.022722714
4	0x3e3f2a92	0.18668583
5	0x3e8cc3dc	0.2749318
6	0xbeab908a	-0.33508712
7	0x3e7db965	0.24777754
8	0x3ed4e45b	0.4158047
9	0xbdc4f355	-0.096167244
10	0x3e6b633d	0.22987075
11	0xbeb620ea	-0.35571986
12	0x3de434f8	0.111429155
13	0x3e156bc7	0.14591895
14	0xbd44f415	-0.048084337
15	0x3f00513b	0.5012395
16	0xbe864a2f	-0.26228473
17	0x3d87be71	0.06628121
18	0x3d892cfc	0.06698033
19	0x3e53e7e6	0.20693931
20	0xbeb2fd8f	-0.34959075
21	0xbe51e259	-0.20496501
22	0xbbd9ea32	-0.0066502327
23	0x3e0fd29a	0.14045182
24	0x3d3b646e	0.045750074
25	0xbde311d7	-0.11087387
26	0x3ec21d10	0.37912798
27	0xbd3837aa	-0.04497496
28	0xbe0a2f59	-0.13494624
29	0xbdfc0680	-0.12305927
30	0xbe53e365	-0.20692213
31	0xbdb2866f	-0.087170474
32	0x3de5cf28	0.112211525
33	0xbd3355c7	-0.043782976
34	0xbf4d8d26	-0.802935
35	0xbe2aa662	-0.16665033
36	0x3e5014fc	0.20320505
37	0x3eb0965a	0.3448971
38	0x3e6c78b6	0.23092923
39	0xbd7c0f6d	-0.06153815
40	0xbcf41c15	-0.029798547
41	0xbd606ad4	-0.05478938
42	0xbdfb3f0e	-0.12267886
43	0xbcb0ad04	-0.021566875
44	0xbe245b23	-0.16050391
45	0xbd970318	-0.07373637
46	0x3f2e9ee6	0.6821121
47	0x3e012d87	0.12615024
48	0x3e21edf7	0.15813433
49	0xbe18f2de	-0.14936396
50	0xbe352bd9	-0.17692508
51	0x3d5cff65	0.0539545
52	0x3d6569bc	0.05600904
53	0x3df66c19	0.12032337
54	0x3df9bf66	0.121947095
55	0x3e4fb161	0.20282508
56	0xbe26077f	-0.16213797
57	0x3c454d02	0.012042286
58	0x3d9fb3dd	0.07797978
59	0x39e67976	0.00043959514
60	0x3ed2b205	0.41151443
61	0xbcfed75d	-0.031108553
62	0x3e01b979	0.12668408
63	0x3e5f10b7	0.2178372
64	0xbd97cffd	-0.074127175
65	0xbccd718b	-0.025078556
66	0x3e79a573	0.2437952
67	0xbe1a0de4	-0.15044361
68	0x3e1ff6fd	0.15621562
69	0x3db0d2dd	0.08633969
70	0x3dff9670	0.124798656
71	0x3c22ff3d	0.009948549
72	0x3ea3cf28	0.31993985
73	0xbdcb8e6d	-0.09939275
74	0xbe4f098d	-0.20218487
75	0x3ec09b8b	0.3761867
76	0x3e4572e5	0.1928211
77	0x3df966ed	0.12177835
78	0xbeab4db1	-0.3345771
79	0x3e367bba	0.17820635

linears.0.bias f4 [40]
0	0xbe379503	-0.17927937
1	0x3deacac0	0.11464453
2	0x3d98865a	0.074475005
3	0xbcaaf25e	-0.020867523
4	0xbca5fac2	-0.020261172
5	0x3ccf2514	0.025286235
6	0xbe083972	-0.13303164
7	0x3deea65b	0.116528235
8	0x3d8f79b8	0.07005638
9	0x3d11a861	0.03556097
10	0x3e1fc7a6	0.15603504
11	0x3d0d1dea	0.034452356
12	0xbda787b7	-0.081801824
13	0x3ccf6d34	0.025320627
14	0xbd89d1a5	-0.0672944
15	0x3dd8d90b	0.10588273
16	0xbdc9aadd	-0.09847043
17	0x3cdc7317	0.026910348
18	0x3ccb05c4	0.024783023
19	0x3cc16526	0.023607802
20	0x3e142f8f	0.14471267
21	0x3d0e7faf	0.034789737
22	0xbcd82459	-0.02638452
23	0x3d45d26f	0.04829639
24	0xbdb3ed0a	-0.08785446
25	0x3ca0f94e	0.019650128
26	0xbd3542fc	-0.044253334
27	0xbdb8cbba	-0.09023233
28	0x3d9a68c1	0.075395115
29	0xbdb30623	-0.08741405
30	0xbc5b70ce	-0.013393594
31	0xbd903b3d	-0.07042549
32	0x3d808634	0.06275597
33	0xb99b82af	-0.0002966127
34	0x3c1c4793	0.009538549
35	0x3d368bd6	0.04456695
36	0xbcc70942	-0.024296407
37	0xbd3fa0d5	-0.04678424
38	0xbe1589de	-0.14603373
39	0x3c3db0a1	0.011577756

linears.1.weight f4 [40, 40]
0	0xbecf686d	-0.40509358
1	0xbd09043f	-0.033451315
2	0x3dcc5f96	0.09979169
3	0x3e4654de	0.19368312
4	0xbe05e2ba	-0.1307477
5	0x3e931079	0.28723505
6	0x3d499876	0.049217664
7	0xbe1e6c52	-0.15471008
8	0xbc573575	-0.013135304
9	0xbcebb664	-0.028773494
10	0x3a59f707	0.0008314703
11	0x3d8f435e	0.06995271
12	0x3dc11d3d	0.09429405
13	0xbd53bd53	-0.051694226
14	0x3e543268	0.20722353
15	0xbe353083	-0.17694287
16	0xbd9df901	-0.07713509
17	0xbd3d8f61	-0.046279315
18	0x3d16a430	0.036777675
19	0xbe598f6f	-0.21246122
20	0x3d31c7e3	0.043403517
21	0x3ee44aac	0.4458822
22	0xbe237c06	-0.1596528
23	0x3e102999	0.14078368
24	0xbc3c17d2	-0.011480289
25	0xbe0b766b	-0.13619392
26	0xbe79f1e4	-0.2440868
27	0x3df9bfbd	0.12194774
28	0x3dacfb2f	0.08446347
29	0xbe70212e	-0.23450157
30	0xbe52c626	-0.205834
31	0xbde668d7	-0.11250465
32	0xbe3e5662	-0.1858764
33	0xbe3ef540	-0.18648243
34	0x3cae9513	0.021311319
35	0xbdc5d1bd	-0.09659145
36	0xbe42b95a	-0.19016019
37	0x3d6c5b0e	0.057704024
38	0x3e85c9f5	0.26130643
39	0x3d6867c5	0.056739587
40	0xbc9a4566	-0.01883192
41	0x3e9b0e27	0.30284235
42	0xbd8ef7ff	-0.06980895
43	0xbe0e5b85	-0.139021
44	0xbe22e0e7	-0.15906106
45	0x3e03986b	0.12851112
46	0x3e56e285	0.20984848
47	0xbdc864e5	-0.09784869
48	0xbd38d0ae	-0.045120887
49	0x3ea12894	0.3147627
50	0x3db11407	0.08646398
51	0x3e981627	0.297044
52	0x3e0694c8	0.13142693
53	0xbe4b598d	-0.1985838
54	0xbe221b94	-0.15830833
55	0x3d607b6b	0.0548052
56	0x3e3fe399	0.18739165
57	0x3e8b4666	0.27202147
58	0x3dc1568d	0.094403364
59	0xbdbd43f3	-0.09241476
60	0xbe8a75f3	-0.27043113
61	0x3e887385	0.26650634
62	0x3e8bb61e	0.27287382
63	0xbdda746c	-0.10666737
64	0xbde88baa	-0.11354764
65	0x3e1aa985	0.15103729
66	0xbe2399f8	-0.15976703
67	0x3d99b8bc	0.075059384
68	0xbda0294d	-0.078203775
69	0x3e1f8e9f	0.1558175
70	0xbcf4ebf7	-0.029897673
71	0x3e0b0f60	0.13580084
72	0xbc96adca	-0.018393416
73	0xbd677db1	-0.056516353
74	0xbe97be97	-0.29637596
75	0xbdf0af39	-0.11752171
76	0xbe299f04	-0.16564566
77	0x3dd43bee	0.10362993
78	0xbe2c4d3a	-0.16826335
79	0x3e6a3387	0.22871219
80	0x3e9c70a5	0.3055469
81	0x3d639535	0.055562217
82	0xbd798462	-0.060917266
83	0x3e1f1e94	0.15539008
84	0x3e18401f	0.1486821
85	0x3ed95789	0.42449597
86	0x3e239b2e	0.15977165
87	0x3dcc8948	0.09987122
88	0xbe242e6b	-0.16033332
89	0x3e0cf01a	0.13763466
90	0xbd4450dc	-0.047928676
91	0xbd47941f	-0.048725244
92	0x3d8671fe	0.06564711
93	0x3ea3bce2	0.31980044
94	0xbbdf520e	-0.0068152016
95	0xbdb5d4be	-0.08878468
96	0xbdca1615	-0.09867493
97	0xbd62db4a	-0.05538491
98	0x3dd04740	0.1016984
99	0xbce5178f	-0.027965335
100	0x3cc883da	0.024476934
101	0xbe2bee75	-0.16790183
102	0xbb8c51d7	-0.004282217
103	0x3cace1e0	0.0211038
104	0x3e6262e2	0.22108033
105	0xbcc4d6fd	-0.024028296
106	0x3e269332	0.16267088
107	0x3ec53617	0.3851783
108	0xbd731639	-0.059347365
109	0x3e07d154	0.13263446
110	0xbd28310b	-0.041062396
111	0x3bb536b6	0.0055302037
112	0x3e0b1182	0.13580897
113	0xbdc35b1f	-0.09538864
114	0xbeeb5e72	-0.45970494
115	0xbd94f9f0	-0.07274234
116	0x3da157cd	0.07878075
117	0xbd950d8a	-0.07277973
118	0x3e0fb4d1	0.1403382
119	0xbcb43283	-0.021996742
120	0xbe0a8fa2	-0.13531354
121	0xbc5e8115	-0.01358058
122	0xbd2352c2	-0.039873846
123	0x3e143d70	0.14476562
124	0x3e9205de	0.285201
125	0x3e95bd47	0.2924597
126	0x3e730572	0.23732546
127	0xbdbbb3b8	-0.09165138
128	0xbde38219	-0.111087985
129	0x3d015e95	0.03158434
130	0xbe2e0444	-0.16993815
131	0xbe0ae8e3	-0.13565402
132	0x3e7ed86b	0.24887244
133	0x3dc9f1d0	0.09860575
134	0x3ab8f4fc	0.0014111097
135	0xbde3eb11	-0.1112882
136	0x3dd11880	0.10209751
137	0xbda267c6	-0.079299495
138	0x3dbc39e0	0.09190726
139	0x3c9564b9	0.018236505
140	0xbec2a540	-0.380167
141	0x3e5a9eaf	0.21349595
142	0xbd0eac38	-0.03483221
143	0x3e135d3a	0.14391032
144	0xbd0cd3c7	-0.034381654
145	0xbdad14da	-0.08451243
146	0xbdc583f7	-0.09644311
147	0xbc1f7d84	-0.009734515
148	0x3c809abf	0.015698789
149	0xbeb0d371	-0.34536317
150	0x3eaba7d1	0.3352647
151	0x3e45a453	0.19300966
152	0x3d1a7eae	0.037718467
153	0x3e0a373f	0.13497637
154	0x3dcb739e	0.099341616
155	0x3d9a8247	0.0754438
156	0x3e55f12c	0.20892781
157	0x3ca224d3	0.01979295
158	0x3e9826f8	0.2971723
159	0xbd177671	-0.03697819
160	0x3e04e65c	0.129785
161	0x3dca13e1	0.09867073
162	0x3b448989	0.0029989204
163	0x3d25d1a8	0.040483147
164	0x3d55c32b	0.05218808
165	0xbea17287	-0.3153269
166	0xbcca16c2	-0.024669055
167	0xbeced7c8	-0.40399003
168	0xbc7ca9e7	-0.015421367
169	0xbcf545e9	-0.029940562
170	0xbd44414d	-0.04791384
171	0x3cb944df	0.022615848
172	0xbeb67e31	-0.3564315
173	0x3e23fd5a	0.16014615
174	0xbe0d58c2	-0.1380339
175	0x3d955184	0.072909385
176	0xbd90a40f	-0.07062542
177	0xbdef9438	-0.11698192
178	0x3e812d4b	0.25229868
179	0x3ca17a6c	0.019711696
180	0xbdc1ad12	-0.09456839
181	0xbc811ab9	-0.015759813
182	0xbd8d422b	-0.06897386
183	0x3e4118b5	0.18857081
184	0x3e86a92a	0.26300937
185	0x3cc62d59	0.024191545
186	0x3da31def	0.07964694
187	0x3dd0d7ca	0.101974085
188	0xbcfcbda9	-0.030852156
189	0x3eb72235	0.35768285
190	0x3ec3791a	0.3817833
191	0xbe904fa3	-0.28185758
192	0x3d94aa76	0.07259075
193	0x3d526a50	0.05137092
194	0x3d24b0f7	0.04020783
195	0x3d8bc229	0.068241425
196	0x3e04412a	0.12915483
197	0xbe094230	-0.13404155
198	0x3e4febfc	0.20304865
199	0xbe19b7f8	-0.15011585
200	0x3e9bf18f	0.30457732
201	0x3e020b10	0.12699533
202	0xbdda5d13	-0.10662284
203	0xbe8ac5bd	-0.27103987
204	0xbd444e38	-0.047926158
205	0x3e078911	0.1323588
206	0x3c2e5398	0.0106400475
207	0x3e0a114c	0.1348316
208	0x3e8ea398	0.27859187
209	0x3da64f59	0.08120603
210	0x3c89f604	0.016840942
211	0xbd564672	-0.052313276
212	0xbdcc8337	-0.09985965
213	0xbd2dad3c	-0.042401537
214	0x3e29038d	0.16505261
215	0x3c9b9439	0.018991577
216	0xbe407cfb	-0.18797676
217	0x3e12e77c	0.14346117
218	0xbe17bd84	-0.14818388
219	0x3db77194	0.0895721
220	0xbb81077b	-0.0039376593
221	0x3bdacf4d	0.006677544
222	0xbd56e4d5	-0.052464325
223	0xbe9d534b	-0.3072761
224	0xbe824c8b	-0.25449023
225	0xbdb8aef2	-0.09017743
226	0xbe173503	-0.14766316
227	0xbd7ae019	-0.061248872
228	0x3e5cba7e	0.21555516
229	0x3e5c091c	0.2148785
230	0xbe3d7292	-0.18500736
231	0x3e9275a0	0.28605366
232	0x3e6d297d	0.23160358
233	0xbd63787c	-0.055534825
234	0xbe509c78	-0.20372188
235	0xbe89cdeb	-0.26914915
236	0x3e1079d0	0.14108968
237	0xbd9923d9	-0.074775405
238	0xbd1fd3db	-0.0390204
239	0xbe25b61f	-0.16182755
240	0xbd9daa8b	-0.07698544
241	0xbbd6f14b	-0.006559526
242	0x3eb15995	0.34638658
243	0x3dfe25f1	0.124095805
244	0x3e837579	0.25675562
245	0x3d37661c	0.044775113
246	0xbd868cbb	-0.06569811
247	0x3bdc0548	0.0067144968
248	0x3d60a737	0.05484697
249	0x3dc9baed	0.098501064
250	0xbdd82c5b	-0.10555335
251	0x3b96cedd	0.0046022967
252	0x3e7f7c40	0.24949741
253	0xbd68c0dd	-0.056824554
254	0xbdfdd8e7	-0.123948865
255	0x3e73bd4f	0.23802684

linears.1.bias f4 [40]
0	0xbcabe2b6	-0.020982128
1	0xbcedcb8e	-0.029027727
2	0x3c0c1879	0.008550757
3	0xbd4bbf04	-0.049742714
4	0xba8f8cff	-0.0010952054
5	0x3ab55de4	0.0013837186
6	0x3d15632c	0.03647153
7	0x3d578f63	0.05262698
8	0x3be04add	0.006844862
9	0xbdcc805e	-0.099854216
10	0xbd09aaf4	-0.0336103
11	0x3d973513	0.0738317
12	0xbd2b8362	-0.041873343
13	0xbd6fbadf	-0.058527824
14	0xbd6f23ff	-0.058383938
15	0xbcf6b012	-0.030113254
16	0xbcb2184a	-0.021740098
17	0xbcf2c105	-0.029633055
18	0x3d38a3f9	0.04507825
19	0xbd785dce	-0.060636334
20	0x3d2c3b8e	0.042048983
21	0x3de896e9	0.11356909
22	0x3bb61536	0.0055567278
23	0xbd20517a	-0.039140202
24	0xbd6e7ba1	-0.05822337
25	0x3daa3807	0.083114676
26	0x39ea6b84	0.00044712063
27	0xbb58ebb9	-0.0033099486
28	0xbdb433cd	-0.08798943
29	0x3d984592	0.074351445
30	0x3bee9528	0.0072809644
31	0xbd8d382b	-0.06895479
32	0x3cd96580	0.026537657
33	0xbdf1339e	-0.11777423
34	0x3daa2f1c	0.08309767
35	0x3c974906	0.018467437
36	0x3dbd4f56	0.09243648
37	0xbde647c6	-0.112441584
38	0xbd35db46	-0.04439857
39	0x3c87470d	0.016513372

linears.2.weight f4 [40, 40]
0	0x3c9c4025	0.019073555
1	0xbdbf64a4	-0.093453676
2	0x3e0a5cd0	0.13511968
3	0x3d3e340a	0.046436347
4	0x3da9fd53	0.08300271
5	0xbd77d59d	-0.060506452
6	0xbe9cdd3c	-0.30637538
7	0xbb4211ee	-0.0029612738
8	0x3d0ef93c	0.034905657
9	0xbc346626	-0.011010682
10	0x3e6debf8	0.23234546
11	0x3da0a8e4	0.07844713
12	0x3e48ccb6	0.19609341
13	0x3e4b4623	0.19850974
14	0xbd0c513b	-0.034257155
15	0xbde82997	-0.11336058
16	0xbe24e171	-0.16101624
17	0xbdc32aeb	-0.0952967
18	0x3d3f3911	0.046685282
19	0x3def8b7b	0.11696526
20	0xbcca0e69	-0.024665074
21	0xbe127817	-0.14303623
22	0x3e3982db	0.18116324
23	0x3e4bf5d9	0.19918002
24	0xbe14e99a	-0.14542237
25	0xbcba6ca4	-0.022756882
26	0xbdc631a2	-0.096774355
27	0x3d0dce8a	0.0346208
28	0xbe013da2	-0.12621167
29	0xbcedf25c	-0.02904623
30	0xbea19d69	-0.31565407
31	0xbdd90252	-0.10596146
32	0x3e563e40	0.20922184
33	0xbe45c36a	-0.19312826
34	0xbda5b622	-0.0809138
35	0x3e9a7ec1	0.3017483
36	0x3d0f6245	0.035005827
37	0x3db21d2d	0.08696971
38	0xbe162bae	-0.146651
39	0xbe0c367f	-0.13692664
40	0xbc36b141	-0.011150659
41	0xbdd86b52	-0.10567345
42	0xbe250deb	-0.1611859
43	0x3995a8e4	0.00028545328
44	0xbe45ce39	-0.19316949
45	0xbe9dc840	-0.3081684
46	0x3d3bd13f	0.04585385
47	0x3dc59258	0.096470535
48	0x3e9606cf	0.2930207
49	0x3e60b5fe	0.21944425
50	0xbde3207c	-0.1109018
51	0x3dd37471	0.10324944
52	0xbe1bed1f	-0.15227173
53	0x3cbf865f	0.023379503
54	0xbe813865	-0.25238338
55	0x3e2bc5ba	0.16774645
56	0x3ca40c5a	0.020025421
57	0xbce48ff4	-0.027900673
58	0xbe1efd0a	-0.15526214
59	0x3e220482	0.15822032
60	0xbe10a711	-0.14126231
61	0xbe6883e4	-0.22706562
62	0xbdddc83c	-0.10829207
63	0x3e2549b1	0.16141392
64	0xbe1137db	-0.14181463
65	0xbcb79523	-0.022409981
66	0x3e8cd53c	0.27506435
67	0xbe45a1bd	-0.1929998
68	0x3e39bb4d	0.18137856
69	0xbe404216	-0.1877521
70	0xbdaec639	-0.08533902
71	0x3d25603c	0.04037498
72	0x3d262d6d	0.040570665
73	0x3e5202b7	0.20508848
74	0x3ec3b093	0.38220653
75	0x3d9807e2	0.074233785
76	0xbe9eb877	-0.3100011
77	0xbe6c649f	-0.23085259
78	0xbd20b7b5	-0.039237697
79	0xbd2389e4	-0.039926425
80	0x3d81573f	0.06315469
81	0xbc9f77cb	-0.019466301
82	0xbe971d81	-0.29514697
83	0xbdb30384	-0.08740905
84	0x3be3e4b3	0.0069547533
85	0xbdc6f123	-0.09713962
86	0x3d2f2ac7	0.042765405
87	0x3d8d05c1	0.06885863
88	0x3d5cc1e4	0.053895846
89	0xbe2f2876	-0.17105278
90	0xbdfba194	-0.12286678
91	0xbdf0b174	-0.117525965
92	0xbc349dc1	-0.01102394
93	0xbd576b0c	-0.052592322
94	0x3d8d584c	0.06901607
95	0x3dc86d7d	0.09786508
96	0x3e3a74a2	0.18208554
97	0xbe2a9f7c	-0.16662401
98	0xbdc2e7d5	-0.09516875
99	0xbd6f017f	-0.058351036
100	0xbdfcf74c	-0.12351856
101	0xbe4acaa6	-0.19803867
102	0x3eaf153e	0.34195894
103	0xbe8db7c1	-0.27679256
104	0xbe83b68f	-0.2572522
105	0x3e1a5e50	0.1507504
106	0x3d05a95d	0.03263222
107	0x3d359725	0.044333596
108	0xbd26b7c7	-0.040702607
109	0x3cf3e7f5	0.029773692
110	0xbd6337b1	-0.055473033
111	0x3e4ca0d4	0.19983226
112	0xbeb7e4ac	-0.3591665
113	0x3caf75b4	0.02141843
114	0x3e624758	0.22097528
115	0x3dc921d6	0.09820907
116	0xbd2514a0	-0.040302873
117	0xbe08c425	-0.13356073
118	0xbe59f9cc	-0.21286696
119	0xbe2a8652	-0.16652802
120	0xbd9a604b	-0.07537898
121	0x3d328fce	0.043594174
122	0x3d2daf9e	0.04240381
123	0x3e719c1c	0.23594707
124	0xbddeb869	-0.10875017
125	0xbe06f5cd	-0.13179703
126	0xbeaa10ac	-0.33215845
127	0xbdb735a4	-0.08945778
128	0x3d3b0aa6	0.045664452
129	0x3d8b143a	0.06790967
130	0xbdfbfb8d	-0.12303839
131	0xbe89f8bd	-0.26947585
132	0x3e19bf07	0.15014277
133	0x3e20a7f5	0.1568907
134	0x3e03a997	0.12857662
135	0xbdb0b5a3	-0.086283945
136	0xbd8e937e	-0.06961726
137	0xbe20e8ee	-0.15713856
138	0x3e510708	0.20412838
139	0x3bfaf4aa	0.0076585608
140	0xbda0f429	-0.0785907
141	0xbe8a35ec	-0.26994264
142	0xbe8bd6ef	-0.2731242
143	0x3e377e79	0.17919339
144	0x3d2f74fc	0.042836174
145	0xbeadfc15	-0.33981386
146	0x3c771676	0.015081039
147	0x3ddde81a	0.108352855
148	0xbdec824e	-0.11548291
149	0xbe2f2309	-0.17103209
150	0x3d80a0a3	0.06280639
151	0xbd0b693a	-0.0340359
152	0x3d123029	0.03569046
153	0x3eb91ce6	0.3615486
154	0x3d98a5e2	0.07453515
155	0x3afc6aef	0.0019257943
156	0xbe808be0	-0.25106716
157	0x3ef431e0	0.47694302
158	0x3e848c70	0.25888395
159	0x3dfa4221	0.12219644
160	0xbd47df0b	-0.048796695
161	0xbe3933f4	-0.18086225
162	0x3b2885d3	0.002571453
163	0xbe649c47	-0.2232524
164	0xbd8bef6a	-0.06832774
165	0x3e131c5e	0.1436629
166	0x3b656454	0.0035002427
167	0x3e215bc6	0.15757665
168	0xbe885810	-0.26629686
169	0x3e00d1f0	0.12580085
170	0x3db63158	0.0889613
171	0xbdc799f3	-0.0974616
172	0x3ce4d10c	0.027931713
173	0x3e2626f8	0.16225803
174	0xbda81a1c	-0.08208105
175	0x3bb85a79	0.0056260196
176	0x3cb06f92	0.021537576
177	0x3bc76615	0.006085167
178	0x3c700c48	0.014651366
179	0xbd2d943b	-0.04237769
180	0xbdda0285	-0.10645012
181	0x3c2c1ea7	0.010505355
182	0x3b7a5e71	0.0038203264
183	0x3eaf8b2c	0.34285867
184	0xbc7410e2	-0.014896603
185	0xbc0b8109	-0.008514651
186	0xbdec0e3a	-0.11526151
187	0xbe22a714	-0.15884048
188	0xbe709a72	-0.23496416
189	0x3c0059ec	0.007833939
190	0xbd88e736	-0.06684725
191	0xbd9942e8	-0.074834645
192	0x3d430c3f	0.0476191
193	0x3e14c8d2	0.14529732
194	0x3dca8b80	0.09889889
195	0xbd6fd363	-0.058551203
196	0x3d97c959	0.07411451
197	0xbe846b94	-0.25863326
198	0xbe1c48ce	-0.15262148
199	0x3e2cb69b	0.16866533
200	0x3de4a6ec	0.1116465
201	0x3e0d6471	0.13807847
202	0xbcac4403	-0.021028524
203	0xbe5ce907	-0.21573268
204	0xbe26738b	-0.16255014
205	0x3df13978	0.117785394
206	0x3e802e0e	0.25035137
207	0xbaf9c835	-0.0019056859
208	0x3d600338	0.05469057
209	0x3ea2ebc1	0.3182049
210	0xbe6cdafe	-0.23130414
211	0x3df7556f	0.12076842
212	0xbe339e3c	-0.1754083
213	0x3ea10d66	0.31455535
214	0xbd934d6f	-0.07192504
215	0x3e754b0f	0.23954414
216	0xbdd931ed	-0.10605226
217	0x3cfb2b0e	0.030660179
218	0xbe32c004	-0.1745606
219	0xbe9fb035	-0.31189123
220	0xbe6155fd	-0.22005458
221	0xbe880468	-0.26565862
222	0x3d7eb995	0.062188704
223	0x3e3a7638	0.1820916
224	0xbea4bfa8	-0.32177472
225	0xbd83ecce	-0.06441651
226	0xbeb74da7	-0.35801432
227	0x3dfdb17b	0.12387367
228	0x3f10e06a	0.5659243
229	0xbb5baba4	-0.0033519054
230	0xbbff629a	-0.0077937366
231	0x3df04dc5	0.11733583
232	0xbeac3800	-0.33636475
233	0xbec22f0f	-0.37926528
234	0x3e780922	0.24222234
235	0x3cce7a57	0.02520482
236	0xbe67989b	-0.22616808
237	0x3d116eba	0.035505988
238	0x3e636cf9	0.22209539
239	0xbe2d56ef	-0.16927694
240	0xbe03ce9b	-0.12871782
241	0xbdd79cce	-0.10527955
242	0x3e58d4e2	0.21174958
243	0x3e244226	0.16040859
244	0x3e1642cf	0.14673923
245	0x3e0c09b7	0.13675581
246	0x3e568c5f	0.20951985
247	0x3ae4c213	0.0017452858
248	0xbe17665a	-0.14785138
249	0xbdf8d0eb	-0.12149223
250	0x3da80651	0.0820433
251	0x3dc1833f	0.09448861
252	0xbd88937f	-0.06668758
253	0xbeb4b8db	-0.35297284
254	0xbd7bfc3f	-0.061519857
255	0x3ea3680c	0.3191532

linears.2.bias f4 [40]
0	0xbd00856a	-0.031377234
1	0xbcfcdd58	-0.030867264
2	0x3d29c54c	0.041447923
3	0xbd27a22f	-0.040926155
4	0x3b5d716d	0.003378953
5	0xbd76b033	-0.06022663
6	0x3d004975	0.031320054
7	0xbc0ad21a	-0.008472944
8	0xbd02a848	-0.031898767
9	0xbd169940	-0.036767244
10	0x3d073178	0.03300616
11	0xbb34fd19	-0.0027616678
12	0x3d39b1a0	0.045335412
13	0x3cd4a51b	0.025957635
14	0xbc31eeba	-0.0108601395
15	0x3d2a7e71	0.04162449
16	0x3cd56167	0.026047422
17	0xbc790e71	-0.015201197
18	0xbc22120e	-0.009892
19	0x3ba24766	0.004952359
20	0x3cb40ad0	0.021977812
21	0x3da2709e	0.07931636
22	0xbc0da140	-0.008644402
23	0xbd7a8aad	-0.061167408
24	0x3caabe5a	0.02084272
25	0x3d81be78	0.06335157
26	0xbd2918d5	-0.041283447
27	0xbd229943	-0.039696943
28	0x3d43a5b7	0.04776546
29	0xbd5eee92	-0.054426737
30	0x3d0b9954	0.034081772
31	0x3c2dde81	0.010612131
32	0x3d05016e	0.032472067
33	0xbd91c85d	-0.071182944
34	0x3bda09e6	0.006654012
35	0xbd07509f	-0.03303587
36	0xbd20015a	-0.03906379
37	0xbca59f9c	-0.02021771
38	0x3d8f7297	0.07004278
39	0xbbfcb609	-0.00771213

linears.3.weight f4 [40, 40]
0	0xbe6fe504	-0.23427206
1	0xbdf0e79d	-0.11762927
2	0xbe2a68c9	-0.16641535
3	0x3eb22194	0.34791243
4	0xbdf73b43	-0.1207185
5	0xbcbf942c	-0.023386084
6	0xbe38ffdc	-0.18066353
7	0xbe02cb42	-0.12772849
8	0xbdae03e2	-0.08496834
9	0x3d4e5622	0.05037511
10	0xbe0a87f3	-0.13528423
11	0xbe018444	-0.12648112
12	0xbcaa4f97	-0.020789905
13	0xbd0dea81	-0.03464747
14	0x3e3dc539	0.18532266
15	0x3d5c5b25	0.05379786
16	0xbe560ea0	-0.20904016
17	0xbe96b90b	-0.29438052
18	0xbe71a7cd	-0.23599167
19	0x3ea35757	0.31902573
20	0x3cdd804f	0.027038721
21	0x3d29c656	0.041448914
22	0x3d6d2e4e	0.057905488
23	0xbe08dd61	-0.133657
24	0x3e776a36	0.2416161
25	0xbc7548b0	-0.014970943
26	0x3eee6986	0.46564883
27	0x3d0a66f6	0.033789597
28	0xbe3e53b9	-0.18586625
29	0xbe0c9639	-0.1372918
30	0xbdd37553	-0.10325112
31	0xbe365c46	-0.17808637
32	0xbe399cbd	-0.18126197
33	0x3dc64b52	0.09682335
34	0x3e72f064	0.23724514
35	0xbd9311a1	-0.07181097
36	0xbab501ab	-0.0013809701
37	0x3cc05340	0.023477197
38	0x3c8b9466	0.017038535
39	0x3ddefcdb	0.10888072
40	0x3da43327	0.08017569
41	0xbdd626a3	-0.10456588
42	0x3ab89d2a	0.0014084924
43	0xbeb881c9	-0.36036518
44	0xbd60a4ac	-0.054844543
45	0xbd493797	-0.04912528
46	0xbe5afd1d	-0.21385618
47	0xbdf090e2	-0.11746384
48	0xbcc9f669	-0.02465363
49	0x3c4c29cd	0.012461138
50	0x3cc5b418	0.024133727
51	0x3dd6585a	0.104660705
52	0xbe108ab4	-0.14115411
53	0xbe1bf8c5	-0.15231617
54	0x3cefdccb	0.029280087
55	0xbc617b51	-0.013762311
56	0x3e130266	0.14356384
57	0x3d99a45d	0.07502053
58	0x3d8264a5	0.06366853
59	0xbe2fbde1	-0.17162277
60	0x3e2b425d	0.16724534
61	0x3c1f1119	0.009708666
62	0xbe55fdab	-0.20897548
63	0x3e2abe67	0.16674195
64	0xbe48a08d	-0.19592495
65	0x3e13f22d	0.14447851
66	0xbe0b723d	-0.13617797
67	0xbd8fd680	-0.070233345
68	0xbe880eeb	-0.26573882
69	0xbd64a130	-0.055817783
70	0x3e17efd2	0.14837578
71	0xbdf59546	-0.11991362
72	0x3d7ddadc	0.0619763
73	0x3c83689f	0.016041098
74	0x3d0de430	0.034641445
75	0xbb2de7a1	-0.0026535767
76	0xbcda246b	-0.026628694
77	0xbef91777	-0.48650715
78	0xbdbc626a	-0.091984585
79	0x3db86004	0.090026885
80	0x3e675053	0.22589235
81	0x3e105636	0.14095387
82	0xbd59c51d	-0.053166497
83	0xbd529698	-0.05141315
84	0xbe01eea8	-0.12688696
85	0xbdab7494	-0.08371845
86	0xbe7dba48	-0.24778092
87	0x3e3894f9	0.18025579
88	0xbc4ee930	-0.012628838
89	0xbd8b0c45	-0.067894496
90	0xbd822cf3	-0.0635623
91	0xbd256705	-0.04038145
92	0xbed1b115	-0.40955415
93	0xbe6e07f4	-0.23245221
94	0x3e0bd6f7	0.13656221
95	0xbee18a8e	-0.4405102
96	0xbdc337dd	-0.095321395
97	0x3ea5b833	0.32367095
98	0x3e96ba86	0.2943918
99	0xbe3a2334	-0.18177491
100	0x3db2887b	0.08717438
101	0xbe08f2a2	-0.13373807
102	0x3e1789a5	0.14798601
103	0xbd45a9bd	-0.04825758
104	0xbd807b8b	-0.06273564
105	0x3e13ac67	0.14421235
106	0x3e1d19ab	0.15341823
107	0xbde4dd2e	-0.11174999
108	0x3e372676	0.17885765
109	0x3e85df45	0.26146904
110	0x3d6786b7	0.05652496
111	0xbcabac6f	-0.020956246
112	0x3e266279	0.16248502
113	0xbe3267e1	-0.17422439
114	0xbe7ff615	-0.24996217
115	0x3e83bcd6	0.25730008
116	0xbe599426	-0.2124792
117	0x3c6d982d	0.014501614
118	0x3e3ab659	0.18233623
119	0x3df4ef71	0.11959732
120	0xbc5f154b	-0.0136159165
121	0xbc760587	-0.015015966
122	0xbe09060d	-0.13381214
123	0x3e69b6f1	0.22823693
124	0xbe24f345	-0.16108425
125	0xbc5068a5	-0.012720262
126	0x3e865913	0.26239833
127	0xbe52f3f8	-0.20600879
128	0xbe881639	-0.26579455
129	0x3dfce61a	0.12348576
130	0xbe4268c9	-0.18985285
131	0xbd5631a5	-0.05229344
132	0xbdf04fe8	-0.11733991
133	0xbe0d6491	-0.13807894
134	0x3ec14086	0.3774454
135	0x3df81dae	0.12115036
136	0xbc85d630	-0.016337484
137	0x3de9b5d4	0.11411634
138	0xbd558355	-0.0521272
139	0xbd8e1bfa	-0.0693893
140	0xbe0bb356	-0.1364263
141	0xbd717115	-0.058945734
142	0xbc77c3d3	-0.015122372
143	0x3dae4877	0.08509915
144	0xbee3077c	-0.44341648
145	0x3e3d487d	0.18484683
146	0x3d4e86e2	0.050421603
147	0x3eeddc33	0.4645706
148	0xbdc4c5c5	-0.09608034
149	0x3e1759ee	0.14780399
150	0xbe0ef8b7	-0.13962065
151	0xbd358b3f	-0.04432225
152	0xbd6a6290	-0.057222903
153	0x3bc9ae43	0.006154807
154	0x3ddc2dce	0.10750924
155	0xbdd8d3d0	-0.10587275
156	0xbd1a8f87	-0.037734535
157	0x3e76a4ee	0.24086353
158	0xbe699418	-0.228104
159	0x3daf7088	0.085663855
160	0x3d948eb7	0.07253783
161	0x3df45b53	0.11931481
162	0xbdc7264d	-0.09724102
163	0x3dfd9ec8	0.12383801
164	0x3e09b95b	0.13449614
165	0xbded6e99	-0.115933605
166	0xbdbcce06	-0.09218983
167	0xbe123d65	-0.14281233
168	0x3c8b119e	0.016976174
169	0xbcfb659d	-0.030688101
170	0xbd921f51	-0.071348794
171	0x3cd91155	0.026497522
172	0x3d480862	0.04883612
173	0xbdd2a57c	-0.1028547
174	0xb987f24b	-0.0002592973
175	0x3e0fdf19	0.14049949
176	0x3b521735	0.003205729
177	0x3e29a397	0.16566311
178	0x3e121d19	0.14268912
179	0x3d206843	0.03916193
180	0xbe3ebe9d	-0.186274
181	0xbdf6351b	-0.12021848
182	0xbe179f8a	-0.14806953
183	0xbc778dab	-0.01510946
184	0xbd20b8b7	-0.039238658
185	0x3cbac1fd	0.022797579
186	0x3c1a0239	0.009399944
187	0x3e02450f	0.12721656
188	0x3dde258f	0.108470075
189	0x3e51b0e3	0.20477633
190	0xbdea7f3a	-0.11450048
191	0x3d7b5262	0.061357863
192	0xbc406044	-0.0117417015
193	0x3da47b70	0.08031356
194	0xbe647fad	-0.2231433
195	0x3eaab4be	0.3334102
196	0xbbe1f684	-0.006895842
197	0x3d4584c7	0.04822233
198	0x3d976319	0.07391948
199	0xbdf15e20	-0.11785531
200	0x3e1c0cc6	0.15239248
201	0xbe42352e	-0.18965599
202	0x3e8bafd1	0.27282575
203	0xbd975467	-0.07389145
204	0x3e7899d4	0.24277431
205	0xbc54bb15	-0.012984057
206	0x3e3beafe	0.18351361
207	0xbc455903	-0.012045148
208	0x3d838aee	0.06422983
209	0x3de91a99	0.11382026
210	0xbd53d912	-0.051720686
211	0x3d0b516b	0.034013193
212	0x3d820f99	0.06350631
213	0xbe73ecb8	-0.2382077
214	0xbe4ab2f0	-0.19794822
215	0x3db78f66	0.08962898
216	0xbbe3c25d	-0.00695066
217	0x3dc83bce	0.09777032
218	0xbc9c97d8	-0.019115373
219	0x3d0bde3a	0.03414748
220	0xbe6c69fb	-0.23087303
221	0x3efee6ab	0.4978536
222	0xbd427078	-0.04747054
223	0xbe788e8f	-0.24273132
224	0x3c8918b8	0.01673542
225	0xbdd3ab42	-0.10335399
226	0x3e32fa3f	0.17478274
227	0xbe70d356	-0.23518118
228	0x3c9915dc	0.018687181
229	0xbe96f2c9	-0.29482105
230	0x3d1cebef	0.03831094
231	0xbe3c8c4c	-0.18412894
232	0x3df5b8ee	0.11998163
233	0xbd61e4da	-0.05514989
234	0xbe3fb0c9	-0.18719782
235	0x3e0f17a9	0.1397387
236	0xbd3a306a	-0.045456327
237	0xbba5b19f	-0.0050565745
238	0xbd95496e	-0.07289396
239	0x3dcf4ced	0.10122094
240	0xbd9dc079	-0.07702727
241	0x3daede13	0.08538451
242	0x3d60b908	0.05486396
243	0xbe78996c	-0.24277276
244	0xbd9c6e7d	-0.076382615
245	0xbdbeb905	-0.093126334
246	0xbd92e5b7	-0.07172721
247	0x3e86201b	0.2619637
248	0x3e4f13cf	0.202224
249	0xbd4c492c	-0.04987447
250	0xbe3197ea	-0.17343107
251	0x3a9e6dda	0.0012087182
252	0x3db5e7ad	0.08882079
253	0x3e15c9ac	0.14627713
254	0xbe2b78fe	-0.16745374
255	0xbd46ed05	-0.048565883

linears.3.bias f4 [40]
0	0x3ce69d9c	0.028151326
1	0x3cd6a41e	0.026201304
2	0xbcda6645	-0.026660094
3	0xbd0af922	-0.033928998
4	0x3d191f70	0.037383497
5	0x3d7d2e36	0.06181165
6	0x3cba9db8	0.022780284
7	0x3ce33803	0.02773667
8	0xbc954c3b	-0.018224826
9	0xbd44631c	-0.04794608
10	0x3d0ce85e	0.03440129
11	0xbd207c96	-0.039181314
12	0x3c2a0f55	0.010379632
13	0x3cbdd68f	0.023173599
14	0xbcfca344	-0.03083957
15	0x3cdf13dd	0.027231151
16	0xbda0904b	-0.07840022
17	0x3bacec6e	0.005277208
18	0xbccb9d3b	-0.024855247
19	0x3acacec3	0.0015472997
20	0xbc8ace52	-0.016944084
21	0x3d5ed1b7	0.05439922
22	0x3c9736ee	0.01845881
23	0xbcdab183	-0.026695972
24	0x3cfd912a	0.030953009
25	0xbd35ecda	-0.044415332
26	0xbc2f421f	-0.010696917
27	0xbd127112	-0.035752364
28	0x3d4049ec	0.046945497
29	0x3cf607be	0.030032989
30	0xbd5107de	-0.051032893
31	0xbdd09e17	-0.10186403
32	0xbd031fb5	-0.03201266
33	0x3cf10d3d	0.029425258
34	0xbe0f9f52	-0.1402562
35	0x3ca13e95	0.019683162
36	0x3c8162c6	0.01579417
37	0x3cb9345a	0.022607971
38	0xbc035b98	-0.008017443
39	0x3d4a84d4	0.04944308

linears.4.weight f4 [40, 40]
0	0xbe41cc30	-0.18925548
1	0xbe1fbd40	-0.15599537
2	0x3d07fa71	0.033197824
3	0x3dd37122	0.10324313
4	0xbdfdf69e	-0.12400554
5	0xbe5be662	-0.21474603
6	0xbe3e80cc	-0.1860382
7	0x3df24fac	0.118316025
8	0x3df417a0	0.119185686
9	0x3d02eb98	0.03196296
10	0xbdfc5510	-0.12320912
11	0xbd56e906	-0.052468322
12	0x3eaf7f90	0.3427701
13	0x3e40e07c	0.18835634
14	0xbd1ace43	-0.037794363
15	0xbca62f01	-0.020286085
16	0x3d197a92	0.037470408
17	0xbd7abd60	-0.06121576
18	0xbcf6d8ff	-0.030132769
19	0xbe362022	-0.17785695
20	0x3e0ce448	0.13758957
21	0xbe980bf7	-0.29696628
22	0x3e2af4c1	0.16694929
23	0xbdfedfed	-0.12445054
24	0xbd9b9a0b	-0.07597741
25	0xbc6017a1	-0.013677509
26	0x3e588949	0.2114612
27	0xbdb4537c	-0.08804986
28	0xbe4f9264	-0.20270687
29	0xbdbe8fea	-0.09304793
30	0xbc904636	-0.017611604
31	0x3e048986	0.12943086
32	0x3e908fb0	0.28234625
33	0x3e2d469d	0.16921468
34	0x3ce11588	0.027476087
35	0x3de9219b	0.11383363
36	0xbd31dac5	-0.043421526
37	0xbdfbaa5f	-0.12288355
38	0x3e267dc0	0.16258907
39	0x3e9d95bd	0.30778304
40	0xbe8cabe8	-0.27474904
41	0xbe85e6e0	-0.26152706
42	0x3de1fccb	0.110345446
43	0xbd9168dd	-0.07100079
44	0xbe98c159	-0.29835013
45	0xbe32eea2	-0.17473844
46	0xbe9afa95	-0.30269304
47	0xbeb26163	-0.34839925
48	0x3dbed9f7	0.09318917
49	0xbe1b3872	-0.15158251
50	0xbdc17023	-0.094452165
51	0x3e273ae8	0.16331065
52	0xbdb7f8fe	-0.08983038
53	0x3d239ddc	0.03994547
54	0x3daff912	0.08592428
55	0x3bc8e6f5	0.006131048
56	0x3deafa7c	0.11473557
57	0xbc72cf2e	-0.014819903
58	0xbe2d8b0c	-0.16947573
59	0xbc77b0d4	-0.015117843
60	0x3dad2a18	0.08455294
61	0x3c18c3fa	0.009324068
62	0xbe0d086f	-0.13772748
63	0x3e5d441c	0.21608013
64	0xba793762	-0.0009506849
65	0x3e4a42d6	0.19752058
66	0xbe093ca4	-0.13402039
67	0x3d5b5f68	0.053557783
68	0xbe6f36fd	-0.2336082
69	0xbdc8d14b	-0.098055445
70	0xbd96e677	-0.073681764
71	0xbd8c2aa0	-0.068440676
72	0xbd5fd4d3	-0.054646324
73	0xbe346c70	-0.1761949
74	0x3e372c02	0.17887881
75	0x3da7864f	0.08179914
76	0xbdd136a2	-0.102154985
77	0xbdbe6210	-0.09296048
78	0x3ce05d88	0.02738835
79	0xbd8669fd	-0.065631844
80	0x3e8dcb79	0.276943
81	0xbdec7f57	-0.11547726
82	0xbd883733	-0.066511534
83	0x3e6b772f	0.22994684
84	0x3d8ecdfd	0.06972883
85	0xbdfcee76	-0.1235017
86	0xbe187a47	-0.14890395
87	0x3d040061	0.032226924
88	0xbe8ddd1b	-0.27707753
89	0xbd4fd164	-0.0507368
90	0x3cfd79f5	0.030941943
91	0x3db2e09e	0.087342486
92	0x3f29a3c7	0.6626553
93	0xbe2d45a4	-0.16921097
94	0xbc6fb789	-0.014631161
95	0x3df33dd0	0.11877024
96	0xbe45e791	-0.19326617
97	0xbe17fef6	-0.14843354
98	0x3d809a6d	0.062794544
99	0xbe8b9564	-0.27262414
100	0x3e48470a	0.19558349
101	0xbe1e8b27	-0.1548277
102	0x3daba9aa	0.0838197
103	0x3e09103f	0.13385104
104	0xbb9d954b	-0.004809057
105	0xbde2cb04	-0.110738784
106	0xbe38b0a2	-0.1803613
107	0xbd51b519	-0.0511981
108	0x3dcfb14f	0.10141241
109	0xbee12f34	-0.43981326
110	0x3e652cf6	0.22380432
111	0xbca27a2a	-0.019833643
112	0x3e045053	0.12921266
113	0xbdac1376	-0.084021494
114	0x3dcc3664	0.09971312
115	0x3e0e83eb	0.1391751
116	0xbe964193	-0.29346904
117	0x3e1a424a	0.1506435
118	0xbd87b292	-0.066258565
119	0xbdcc3b2d	-0.099722244
120	0x3e99c331	0.30031732
121	0x3e399f25	0.18127115
122	0x3e5cd33b	0.21564953
123	0xbce55fdd	-0.027999813
124	0x3de047c5	0.10951189
125	0xbc5ed22b	-0.013599913
126	0xbc0c6696	-0.00856938
127	0x3ec80aa6	0.39070624
128	0x3e630f3c	0.2217378
129	0x3e8c057d	0.27347937
130	0x3d7958a6	0.060875557
131	0x3eb55eb4	0.35423815
132	0x3dff7a29	0.12474472
133	0x3e32e613	0.17470579
134	0xba9eac79	-0.0012105844
135	0x3e0aa9b4	0.13541299
136	0x3e9e8671	0.30961946
137	0xbe261d14	-0.1622203
138	0xbc88a0f4	-0.01667831
139	0xbe781a84	-0.24228865
140	0x3eb2ffcd	0.34960786
141	0x3e9f31c7	0.31092665
142	0xbd8989ad	-0.06715713
143	0x3d278735	0.040900428
144	0x3e8107a4	0.25201142
145	0xbe33a597	-0.17543636
146	0xbe46ceba	-0.19414797
147	0x3dc94f2c	0.09829554
148	0x3e533cf1	0.20628716
149	0x3e3648a5	0.17801149
150	0xbb4c694e	-0.0031190696
151	0x3df59a3d	0.11992309
152	0x3c41235b	0.011788215
153	0x3e951169	0.29114845
154	0xbccb10fb	-0.02478837
155	0xbeac0fac	-0.33605707
156	0x3e5327f9	0.20620717
157	0xbd19f032	-0.037582584
158	0x3ddf4c41	0.10903216
159	0x3ddb056d	0.10694394
160	0xbdf514f2	-0.119668856
161	0x3dd0cdcf	0.10195505
162	0x3e8374f5	0.2567517
163	0xbe059a4e	-0.13047144
164	0x3e0666f6	0.13125214
165	0xbe799389	-0.24372686
166	0x3e942e32	0.28941494
167	0xbebcc4f9	-0.36869028
168	0x3e6033eb	0.21894805
169	0x3d790a58	0.06080088
170	0x3cfcb5e0	0.030848444
171	0xbe7b6cc9	-0.24553217
172	0xbef689ce	-0.48152012
173	0x3e8325d2	0.25614792
174	0x3d99892e	0.07496868
175	0x3e914c11	0.28378347
176	0x3d973489	0.07383067
177	0x3dc4b625	0.09605054
178	0xbd669530	-0.05629462
179	0x3c07fcf2	0.008300053
180	0x3e30efab	0.17278926
181	0xbd1e7684	-0.038687244
182	0x3e2b01f3	0.16699962
183	0xbe9ba907	-0.30402395
184	0x3d853a3c	0.06505248
185	0x3e57db26	0.21079692
186	0xbdbebede	-0.09313749
187	0x3e56e652	0.20986298
188	0xbd5eae94	-0.05436571
189	0x3d92cf30	0.07168424
190	0xbd5ed30b	-0.054400485
191	0xbe882beb	-0.26596007
192	0x3e0c6ec1	0.13714124
193	0x3d9211f9	0.07132334
194	0xbd953b36	-0.07286684
195	0x3e19f9ce	0.15036699
196	0xbd571153	-0.052506756
197	0xbbf87433	-0.0075822114
198	0x3e36d179	0.17853345
199	0xbe890a31	-0.26765588
200	0xbdf8d928	-0.12150794
201	0x3e39aa12	0.18131283
202	0x3e3480b7	0.17627226
203	0x3d955b76	0.072928354
204	0x3d0e6601	0.034765247
205	0xbe2cb4fb	-0.16865914
206	0xbd9b1820	-0.07572961
207	0x3e8d7c3d	0.2763385
208	0xbd45839e	-0.048221223
209	0xbc67d0ad	-0.014148873
210	0x3eb9b28d	0.36269036
211	0xbecc47d2	-0.39898545
212	0xbeb2218c	-0.3479122
213	0x3ce1412c	0.027496897
214	0xbe10732b	-0.14106433
215	0xbe4e8acb	-0.20170133
216	0xbe947404	-0.28994763
217	0xbdc27e4f	-0.09496748
218	0x3d776e04	0.060407653
219	0x3aa886ab	0.0012857517
220	0x3d9ebe60	0.07751155
221	0xbd908dd3	-0.07058301
222	0x3e67e044	0.22644144
223	0xbe176ef8	-0.14788425
224	0xbe06796b	-0.13132255
225	0x3e2d3860	0.16916037
226	0x3de5c289	0.11218745
227	0x3deaa1b3	0.11456623
228	0xbba8231f	-0.00513114
229	0x3e40d29d	0.18830343
230	0x3e9fd541	0.31217387
231	0xbea6a002	-0.3254395
232	0xbeba091d	-0.36335078
233	0xbbb44614	-0.005501518
234	0xbf1a7d37	-0.6034731
235	0x3df97b26	0.12181692
236	0xbe8f1e56	-0.27952832
237	0xbdc8a94b	-0.09797915
238	0x3c3dc17d	0.011581776
239	0xbe8e50e7	-0.277961
240	0x3d54a8c5	0.051918764
241	0xbd9075a7	-0.070536904
242	0xbddbaa2a	-0.107258156
243	0xbcbaa75d	-0.022784883
244	0xbe47dff4	-0.19519025
245	0xbe1fd59c	-0.1560883
246	0x3e5daf78	0.21648967
247	0x3d91fd6d	0.07128415
248	0x3e2c140f	0.16804527
249	0xbe97f1bf	-0.29676625
250	0xbd32fbf3	-0.04369731
251	0xbcf6b324	-0.030114718
252	0xbe402e72	-0.18767717
253	0x3e6e9a82	0.23301128
254	0x3e14daa7	0.14536534
255	0xbe50cd00	-0.20390701

linears.4.bias f4 [40]
0	0xbc92aa24	-0.017903395
1	0xbd2badb1	-0.041913692
2	0xbbe013c4	-0.0068382937
3	0x3be2ebed	0.006925097
4	0x3b9b74f5	0.004744167
5	0x3c63be7f	0.013900398
6	0x3c62259c	0.013802912
7	0x3cf92fb0	0.030418247
8	0x3d14e3b2	0.03634996
9	0xbb5351ce	-0.0032244804
10	0x3c1bd081	0.00951016
11	0x3d0ee9c9	0.034890924
12	0xbce9696c	-0.028492652
13	0xbc894a77	-0.01675914
14	0xbd0eac78	-0.034832448
15	0xbe00efa1	-0.12591411
16	0x3b8b9f12	0.004260906
17	0xbca26703	-0.01982451
18	0x3d6076aa	0.054800667
19	0xbc3ae056	-0.011406025
20	0x3ce7ef5e	0.028312381
21	0xbd531af4	-0.051539376
22	0xbd36d294	-0.044634417
23	0xbaa6e257	-0.001273225
24	0xbb74d5fa	-0.0037358985
25	0x3cf3df14	0.029769458
26	0x3c44ad8a	0.012004266
27	0xbce70d0e	-0.028204467
28	0x3ce8022d	0.02832135
29	0xbd190955	-0.037362415
30	0xbdab4a0c	-0.08363733
31	0x3dc130d9	0.09433145
32	0x3afde53a	0.0019370683
33	0xbce37082	-0.027763609
34	0xbd668c60	-0.056286216
35	0xbd9cb56a	-0.076517895
36	0xbcbe679e	-0.023242768
37	0xbd02682e	-0.031837635
38	0xbd10a0e1	-0.035309676
39	0x3cf0421e	0.029328402

linears.5.weight f4 [40, 40]
0	0xbe57eb78	-0.21085918
1	0xbe4c9a92	-0.19980839
2	0x3d73bda3	0.059507024
3	0x3d18b0f1	0.03727812
4	0xbd964af5	-0.07338516
5	0x3edecc2c	0.43515146
6	0x3e8f4c96	0.27988118
7	0xbc09520a	-0.008381376
8	0x3dfd1552	0.12357582
9	0x3e14d72d	0.14535208
10	0xbe862d8e	-0.2620663
11	0xbdda9e86	-0.10674767
12	0x3e21db98	0.15806425
13	0x3d7ada99	0.061243627
14	0xbe3705ea	-0.1787335
15	0xbc4d64a0	-0.012536198
16	0x3dc7fd53	0.09765115
17	0xbd48de20	-0.04903996
18	0x3d58a7da	0.05289445
19	0xbe928eec	-0.28624666
20	0xbd83fdb6	-0.06444876
21	0x3c92f197	0.017937465
22	0x3d6f28ef	0.058388647
23	0xbe637784	-0.2221356
24	0x3ea2835a	0.31740838
25	0x3d80bca7	0.062859826
26	0x3d564561	0.05231226
27	0xbd8965d9	-0.06708879
28	0x3dfc9edd	0.12334988
29	0xbdb529b0	-0.08845842
30	0xbe635ec7	-0.22204123
31	0x3da86099	0.082215495
32	0xbd34a43d	-0.044101942
33	0xbe2a697b	-0.166418
34	0xbe9a8eb3	-0.30186996
35	0x3b8abde0	0.0042340606
36	0xbe662f65	-0.22479017
37	0xbb9cd342	-0.004785926
38	0xbe55da29	-0.20884003
39	0x3e56c054	0.20971805
40	0x3db388d4	0.08766332
41	0xbdfcb791	-0.123397
42	0x3ce1cce1	0.027563514
43	0xbe26cff3	-0.16290264
44	0xbdffce12	-0.12490477
45	0xbccacb7e	-0.024755236
46	0x3d8c7283	0.06857779
47	0x3cd6c397	0.026216311
48	0x3d5b79d5	0.053582985
49	0x3e9da497	0.30789635
50	0xbe74f591	-0.23921801
51	0x3d269cce	0.040676884
52	0x3e7a0f43	0.24419884
53	0xbd624ac8	-0.0552471
54	0xbdccb434	-0.099953085
55	0xbe05a907	-0.1305276
56	0x3e9e576d	0.30926076
57	0x3d93bf22	0.0721419
58	0x3ce260bb	0.027634015
59	0x3df01d07	0.117242865
60	0x3e2b4ede	0.16729304
61	0xbe3f375b	-0.1867346
62	0xbe359d57	-0.17735802
63	0xbdc4f7f9	-0.096176095
64	0xbe036ec4	-0.12835222
65	0xbe173078	-0.14764583
66	0x3c1ccf5b	0.009570922
67	0xbe495f22	-0.19665197
68	0x3cf729c7	0.030171288
69	0xbe68e894	-0.22744972
70	0x3dc6cbb8	0.09706825
71	0x3e1db95f	0.15402745
72	0x3d280b91	0.041026656
73	0xbdd46ff7	-0.10372918
74	0xbd0f409a	-0.03497372
75	0xbeae4318	-0.34035563
76	0xbd32815f	-0.04358041
77	0x3d769a0e	0.06020551
78	0xbda6d108	-0.08145338
79	0xbe5e793f	-0.21725939
80	0x3e0816e2	0.13289979
81	0xbdb3d90a	-0.08781631
82	0xbdb3498e	-0.08754264
83	0xbcd15db6	-0.02555738
84	0xba9f2c51	-0.0012143945
85	0x3e85aad9	0.2610691
86	0x3e05cdcd	0.13066788
87	0xbd9ddbd1	-0.07707942
88	0xbe00cc3b	-0.12577908
89	0x3dd70160	0.10498309
90	0x3e35a3db	0.17738287
91	0xb9e0667a	-0.0004280096
92	0xbe3ba576	-0.18324837
93	0xbd8862ff	-0.06659507
94	0x3e3995a9	0.18123497
95	0xbc2bbcf5	-0.010482063
96	0xbdd82e5f	-0.105557196
97	0x3e8998a1	0.2687426
98	0x3ed82d76	0.42222184
99	0x3d9c8bac	0.07643828
100	0xbe9434cb	-0.28946528
101	0xbd900307	-0.070318274
102	0x3de7f0ed	0.1132525
103	0x3eca78af	0.395452
104	0xbe78a96b	-0.24283378
105	0xbd58268f	-0.052771147
106	0x3d022740	0.031775713
107	0x3db203a7	0.08692103
108	0xbdcf7c53	-0.10131135
109	0xbee4d30c	-0.44692266
110	0x3dedb21b	0.116062365
111	0xbd42f6ce	-0.047598653
112	0xbe8b81c0	-0.2724743
113	0xbda4b237	-0.08041804
114	0x3d4a31de	0.049363963
115	0xbebf49d3	-0.3736101
116	0xbc0f102a	-0.008731881
117	0xbd4bd495	-0.04976328
118	0xbda5584a	-0.080734804
119	0xbea81767	-0.32830355
120	0xbd95f620	-0.07322335
121	0x3e39fc69	0.18162693
122	0x3d1c5d07	0.038174655
123	0xbde4c23d	-0.111698605
124	0x3e577d1b	0.21043818
125	0xbd775e5c	-0.060392722
126	0xbd6e1ab1	-0.058130924
127	0xbd3ad91a	-0.0456172
128	0xbe07bb27	-0.13254987
129	0x3d747fa6	0.059692048
130	0xbe6a7b69	-0.2289864
131	0xbdd62349	-0.10455949
132	0xbc4255d2	-0.0118612815
133	0x3d8f4244	0.06995061
134	0xbe8fe517	-0.2810447
135	0xbe353802	-0.17697147
136	0xbc0e6bda	-0.008692706
137	0x3a8272cc	0.0009952425
138	0xbde6e0f4	-0.11273375
139	0x3d344f03	0.044020664
140	0x3dacea44	0.0844312
141	0x3e2d1d58	0.16905725
142	0x3e3f953a	0.18709269
143	0xbe3f236d	-0.18665858
144	0x3e1f6d99	0.15569152
145	0x3cffdac0	0.031232238
146	0xbd9ee3b5	-0.077582754
147	0xbdbc0d50	-0.09182227
148	0xbddc4c0b	-0.107566915
149	0x3e2d9146	0.16949949
150	0xbd812714	-0.06306282
151	0x3dd3a41c	0.10334036
152	0xbd7d5661	-0.061849955
153	0x3e37fc05	0.17967232
154	0xbd0ef4c9	-0.034901414
155	0x3e76480d	0.24050923
156	0xbde278cc	-0.110581964
157	0x3edb68e0	0.4285345
158	0xbe51bbbf	-0.20481776
159	0xbc914227	-0.01773174
160	0xbe9583cb	-0.29202113
161	0xbe214f55	-0.15752919
162	0x3e0c5f16	0.13708147
163	0x3e8eb5cb	0.27873072
164	0xbdac031a	-0.08399029
165	0x3e4dfa50	0.20115018
166	0x3d76ce6e	0.06025546
167	0x3e955ef0	0.29173994
168	0xbc8acbaf	-0.016942827
169	0xbd68eb8e	-0.056865267
170	0xbdbe9dd8	-0.0930745
171	0xbdfd0537	-0.1235451
172	0xbe058b23	-0.13041358
173	0x3d35614e	0.04428225
174	0xbe1c8ae9	-0.15287365
175	0xbde1e3f2	-0.11029805
176	0x3e43d348	0.19123566
177	0xbd3bd333	-0.045855712
178	0xbda38745	-0.07984785
179	0x3e155730	0.1458404
180	0xbe44927f	-0.19196509
181	0xbe2c6472	-0.16835192
182	0xbd418a75	-0.047251184
183	0xbdd6e479	-0.104927965
184	0xbe495ac7	-0.19663535
185	0xbe00b5cd	-0.12569351
186	0xbc4473ec	-0.011990529
187	0xbe1c80e4	-0.15283543
188	0x3eb0d2f5	0.34535947
189	0x3d2354ea	0.039875902
190	0x3dcd15fd	0.100139596
191	0x3e0bbf44	0.13647181
192	0xbdbf7fe8	-0.09350568
193	0xbe1ffebc	-0.15624517
194	0xbd8c99f5	-0.068653025
195	0x3e22478d	0.15847607
196	0xbe1a934c	-0.15095252
197	0x3e951a47	0.2912161
198	0xbce5c421	-0.028047623
199	0x3cf88fd9	0.03034203
200	0x3d692ac4	0.05692555
201	0xbe3666e2	-0.17812684
202	0xbed35aff	-0.41280362
203	0xbe8d0915	-0.27545992
204	0x3efdef04	0.49596417
205	0xbd12030c	-0.035647437
206	0x3d950eac	0.07278189
207	0xbe3e0b0a	-0.18558899
208	0x3d59ab95	0.05314215
209	0x3d4db654	0.05022271
210	0x3e0b77bb	0.13619892
211	0xbdd3b02e	-0.10336338
212	0x3d519059	0.05116305
213	0x3e00273d	0.12514968
214	0xbd63d2ca	-0.055620946
215	0xbe976906	-0.29572314
216	0x3db83066	0.08993606
217	0x3caaacbb	0.020834317
218	0xbe4a3732	-0.19747618
219	0x3e0d3983	0.1379147
220	0xbca15d2f	-0.019697754
221	0x3dfdc6c7	0.123914294
222	0x3e459ad9	0.19297351
223	0x3d6b9fd1	0.05752546
224	0xbceb5df8	-0.028731331
225	0x3cd9d086	0.02658869
226	0x3bffea55	0.007809917
227	0x3e509588	0.20369542
228	0x3d1a894e	0.0377286
229	0xbdb90dc7	-0.09035831
230	0xbcd4a319	-0.025956677
231	0x3d267bf6	0.040645562
232	0xbeb27f17	-0.34862587
233	0xbd19c14f	-0.03753787
234	0x3e8bb850	0.27289057
235	0x3d0dabea	0.03458778
236	0xbd7c6469	-0.061619196
237	0x3d991b92	0.07475962
238	0x3eadee26	0.33970755
239	0xbe288efa	-0.16460791
240	0xbd76a332	-0.06021423
241	0x3dfdc80c	0.123916715
242	0x3e8f476a	0.27984172
243	0xbdd355f7	-0.10319131
244	0x3e515233	0.20441513
245	0xbd3fd344	-0.046832338
246	0x3e24e2b0	0.161021
247	0xbd148929	-0.03626362
248	0x3d90343e	0.070412144
249	0xbd4aaf3a	-0.049483515
250	0xbd8d21a2	-0.068911806
251	0xbdb51cac	-0.08843359
252	0x3e5e1a6f	0.21689771
253	0x3e8b49dd	0.2720479
254	0xbe0beaee	-0.13663837
255	0x3e20db3f	0.15708636

linears.5.bias f4 [40]
0	0x3d3410a1	0.04396117
1	0xbcf15ebe	-0.029464122
2	0x3d140770	0.036139905
3	0xbd7143bb	-0.058902483
4	0x3cfda87b	0.030964127
5	0xbc9272fd	-0.017877096
6	0xbd9cc5df	-0.076549284
7	0x3c8f5f91	0.017501624
8	0xbd657146	-0.05601623
9	0xbd74419f	-0.059632894
10	0xbcef8a1b	-0.029240659
11	0x3d0786d6	0.033087574
12	0xbd64bf17	-0.0558463
13	0x3e033440	0.128129
14	0x3cedca6b	0.029027184
15	0x3ceae06e	0.02867147
16	0x3c5605f9	0.013062947
17	0xbc9d2dd9	-0.0191869
18	0xbd750f6b	-0.059829157
19	0x3ceab93a	0.028652776
20	0x3d248c6e	0.040172987
21	0xbd4f8407	-0.05066302
22	0xbd8925fd	-0.06696699
23	0xbcadadbb	-0.021201005
24	0xbcc1e767	-0.023669912
25	0xbd32c626	-0.043646
26	0xbd8cc217	-0.06872957
27	0xbd7aa39a	-0.06119118
28	0xbcd9a66a	-0.02656861
29	0x3cc4d5c7	0.024027718
30	0xbd7c1b2c	-0.06154935
31	0x3d10048e	0.035160594
32	0xbcd9cac1	-0.026585938
33	0x3d13152c	0.035908863
34	0xbd89b79d	-0.067244746
35	0x3d2ada3b	0.041712027
36	0xbd1dc1d0	-0.038514912
37	0x3d650b75	0.05591913
38	0x3cc5a7d7	0.024127884
39	0x3d0c186e	0.034202985

linears.6.weight f4 [1, 40]
0	0xbea21a86	-0.3166086
1	0x3de0a202	0.109684005
2	0xbe218bc8	-0.15775979
3	0x3ed93f38	0.42431045
4	0xbea0c2db	-0.31398663
5	0x3e28c58b	0.16481607
6	0x3df6b9b8	0.12047142
7	0xbeb9ba21	-0.36274818
8	0x3ecaff7e	0.3964805
9	0x3bc11626	0.005892533
10	0xbd6ca189	-0.05777124
11	0xbe252372	-0.16126803
12	0x3ed7b07a	0.42126828
13	0xbd617a83	-0.055048477
14	0xbea90ccf	-0.33017585
15	0xbe650a55	-0.22367223
16	0xbdc4ffd0	-0.09619105
17	0x3e97226b	0.29518446
18	0x3dc6aa17	0.09700411
19	0xbf0e6fc8	-0.55639315
20	0xbdb175a9	-0.0866502
21	0x3cadd9fa	0.021222103
22	0x3e88cc4a	0.2671836
23	0x3e9d8051	0.3076196
24	0x3eb65a8c	0.35615957
25	0x3ecad4e9	0.39615563
26	0x3e883bac	0.26608026
27	0x3df0d98c	0.11760244
28	0x3e83b279	0.257221
29	0xbe634b11	-0.22196604
30	0x3e1b22c2	0.15149978
31	0xba8ef34c	-0.0010906248
32	0x3deccad2	0.115621224
33	0xbd1225d1	-0.035680596
34	0x3eb1529b	0.34633335
35	0xbda3a592	-0.079905644
36	0x3e80705d	0.25085726
37	0xbe82edd7	-0.25572082
38	0xbe32bb85	-0.17454346
39	0xbdb17b01	-0.08666039

exp_avg f4 [40, 2]
0	0xba5589c0	-0.00081458315
1	0xb96b94f9	-0.00022466843
2	0x3a050577	0.00050743617
3	0x39393f09	0.00017666457
4	0x3987e5a4	0.00025920302
5	0x39445af1	0.00018725895
6	0x39751865	0.00023374108
7	0x37891f8e	1.6346366e-05
8	0xb9905daf	-0.0002753562
9	0x38cebd44	9.858099e-05
10	0xb820703b	-3.8251495e-05
11	0xb727fc45	-1.0012712e-05
12	0xba40facd	-0.0007361591
13	0xb9bf6a0f	-0.0003650938
14	0x39c23fdd	0.00037050145
15	0x397a687d	0.00023880783
16	0x3a3e7198	0.00072648516
17	0x394c3466	0.00019474476
18	0x392aebe8	0.00016300345
19	0x389197f8	6.942445e-05
20	0x3a0b4e1b	0.0005314068
21	0x398875fc	0.00026027847
22	0x3916c43e	0.0001437822
23	0x38760983	5.865983e-05
24	0xba31c7d7	-0.00067817926
25	0xb9b68a18	-0.00034816633
26	0xb9731bcf	-0.00023184645
27	0x38306438	4.2055006e-05
28	0xb97ff25c	-0.00024408981
29	0xb905be6c	-0.00012754806
30	0x3a02f59f	0.0004995707
31	0x3937c960	0.00017527258
32	0xba596f42	-0.0008294472
33	0xb99b1ed2	-0.00029586867
34	0xb64fb1a7	-3.094881e-06
35	0xb8959016	-7.131712e-05
36	0x386adc72	5.5995253e-05
37	0x38bb356e	8.926807e-05
38	0xb994b048	-0.000283601
39	0xb738f8c1	-1.1025172e-05
40	0x3a40f88e	0.0007361256
41	0x398f41c0	0.00027324073
42	0x39e7df76	0.00044226245
43	0x39403365	0.00018329693
44	0x3822e89d	3.8840448e-05
45	0x38635b4c	5.4206044e-05
46	0x38fb5203	0.000119838885
47	0x3937a557	0.00017513834
48	0xba31ef16	-0.0006787641
49	0xb95501f4	-0.0002031399
50	0x3a00e81e	0.00049174007
51	0x38e10d00	0.000107312575
52	0xb96ea3f5	-0.00022758527
53	0xb6f48235	-7.2869248e-06
54	0xba1c0c96	-0.0005952803
55	0xb9467780	-0.00018927269
56	0x39d7575a	0.00041073078
57	0x38d35af7	0.000100782076
58	0xba01f9bc	-0.0004958173
59	0xb9482ec7	-0.00019090912
60	0xb9ca10a5	-0.00038540844
61	0x384810e7	4.7699457e-05
62	0xb9c37d96	-0.00037286867
63	0xb95f05fe	-0.0002126917
64	0x39b6344e	0.00034752715
65	0x38eeedfa	0.00011393051
66	0xb978bd31	-0.00023721602
67	0xb8b21dcc	-8.4932515e-05
68	0xb9352e01	-0.00017278643
69	0xb8fff896	-0.0001220565
70	0x38d0a4aa	9.948884e-05
71	0x392b3504	0.0001632758
72	0xb9825b72	-0.00024863664
73	0x38f56e2a	0.0001170303
74	0xb7fc2a36	-3.0060397e-05
75	0xb7acb5c6	-2.0588643e-05
76	0xba62fa94	-0.0008658555
77	0xb9909243	-0.00027574794
78	0x3a07f958	0.00051869964
79	0x38e92966	0.00011118017

exp_avg_sq f4 [40, 2]
0	0x3b2e4d2f	0.0026596298
1	0x397269d7	0.00023118347
2	0x3a55a5e8	0.0008150027
3	0x384272e0	4.636019e-05
4	0x3941426c	0.00018430658
5	0x38d8888a	0.00010325115
6	0x391e9376	0.00015122988
7	0x388646b4	6.4027874e-05
8	0x3999e32b	0.00029351687
9	0x388b6858	6.647472e-05
10	0x36f6e824	7.358396e-06
11	0x35b0f7c7	1.3185135e-06
12	0x3b048f1a	0.0020226897
13	0x39e98796	0.00044542243
14	0x398c292f	0.00026733565
15	0x37a21a1f	1.9324068e-05
16	0x3ad2ca81	0.0016082079
17	0x389466ec	7.0763606e-05
18	0x388fbf0c	6.8543566e-05
19	0x373f2d03	1.1394967e-05
20	0x3a6b9827	0.0008987211
21	0x38e8540d	0.00011078278
22	0x38761071	5.8666283e-05
23	0x379217ac	1.741558e-05
24	0x3ac481e2	0.0014992321
25	0x39ffb66a	0.000487733
26	0x39553702	0.00020333755
27	0x389a9a4e	7.372034e-05
28	0x3939e1d4	0.00017727102
29	0x38685e44	5.5400902e-05
30	0x3a5d0145	0.000843067
31	0x3907e59c	0.0001296014
32	0x3afb3505	0.0019165581
33	0x394976a4	0.00019213051
34	0x369cddec	4.6749974e-06
35	0x38fa9624	0.00011948895
36	0x37aac2ac	2.035623e-05
37	0x382cf80a	4.1239e-05
38	0x39800da8	0.00024424237
39	0x37eca59c	2.821051e-05
40	0x3ade2e6f	0.0016951094
41	0x3a11ea2b	0.0005566205
42	0x3a736b4c	0.0009285703
43	0x39072132	0.0001288697
44	0x366c8490	3.5243902e-06
45	0x3694c965	4.434189e-06
46	0x39305917	0.00016817857
47	0x39a0278c	0.00030547043
48	0x3aaa458c	0.0012990697
49	0x39016959	0.00012341644
50	0x3a9ef770	0.0012128185
51	0x388e0bc7	6.773281e-05
52	0x3916772e	0.00014349513
53	0x3760186a	1.3357125e-05
54	0x3ab680e8	0.0013923915
55	0x390adfcd	0.00013244078
56	0x3a252db7	0.00063010625
57	0x382569ac	3.943748e-05
58	0x3a697cd2	0.00089068443
59	0x392a6694	0.00016250677
60	0x39db043c	0.0004177409
61	0x395ca214	0.00021041214
62	0x3a07c194	0.00051786867
63	0x3917bc7e	0.00014470701
64	0x39ad97ea	0.00033110316
65	0x38baf79e	8.9152934e-05
66	0x3929afc7	0.00016182578
67	0x3713d18d	8.810673e-06
68	0x398c7f4a	0.0002679772
69	0x385a6c69	5.2076215e-05
70	0x38230ea5	3.8875867e-05
71	0x39a343a4	0.0003114018
72	0x3927fda9	0.00016020857
73	0x39139b86	0.0001407695
74	0x3700686a	7.653705e-06
75	0x3767886e	1.3800438e-05
76	0x3b1d8d9b	0.0024040702
77	0x39a9e8f0	0.00032407744
78	0x3a8b539f	0.001062978
79	0x37defa51	2.6581025e-05

exp_avg f4 [40]
0	0xb9f606ac	-0.00046925747
1	0x39ab9482	0.0003272631
2	0x398ab0d7	0.00026453167
3	0xb54369b1	-7.279696e-07
4	0xb7ec59ad	-2.817515e-05
5	0x368eda03	4.2573097e-06
6	0xba103bce	-0.00055020757
7	0x398b3055	0.00026548156
8	0x39f69da3	0.00047038225
9	0x38e9ee31	0.000111546724
10	0x39b7d529	0.00035063297
11	0x38f534fe	0.00011692381
12	0xba1f0014	-0.00060653803
13	0x379e10e5	1.8842935e-05
14	0xb94d60fd	-0.00019586454
15	0x39b63ee0	0.0003476059
16	0xba16cbbf	-0.00057524064
17	0xb8faf6e0	-0.00011966913
18	0x38e7332c	0.0001102447
19	0xb8a6631a	-7.933956e-05
20	0x3a26a25e	0.0006356592
21	0x3994756c	0.00028316246
22	0xb7a00cde	-1.9079478e-05
23	0x396de518	0.00022687425
24	0xba01d145	-0.0004952143
25	0x394d0516	0.00019552218
26	0xb85690f0	-5.115656e-05
27	0xb9bf66c7	-0.00036506934
28	0x39869823	0.00025671822
29	0xb9c327f0	-0.00037223054
30	0xb823f6e1	-3.9092152e-05
31	0xb99972ed	-0.0002926806
32	0x39a2a024	0.00031018362
33	0xb919fbec	-0.00014685065
34	0xb8cde9bb	-9.8186974e-05
35	0x398c8423	0.0002680133
36	0xb65280ac	-3.1367335e-06
37	0xb8bb124e	-8.9202644e-05
38	0xba213db5	-0.00061508577
39	0x3979cce7	0.00023822823

exp_avg_sq f4 [40]
0	0x3a8fde90	0.0010976363
1	0x3987be4f	0.00025890997
2	0x3a109e0c	0.0005516715
3	0x398e8b62	0.000271882
4	0x39513718	0.00019952317
5	0x3722bc29	9.699762e-06
6	0x3ae34928	0.0017340528
7	0x3915dd6b	0.00014292232
8	0x3a066c4d	0.00051278324
9	0x3861cef4	5.383692e-05
10	0x3a14629e	0.0005660447
11	0x38c0834a	9.179728e-05
12	0x3b02a963	0.0019937388
13	0x399ed372	0.00030293647
14	0x3944e092	0.00018775676
15	0x3a273c34	0.00063795154
16	0x3a87319e	0.001031447
17	0x39f8f89f	0.00047487483
18	0x395c2488	0.00020994444
19	0x38b3ae22	8.56782e-05
20	0x3b3b1e03	0.0028551824
21	0x39c81101	0.00038159642
22	0x378166ed	1.5425927e-05
23	0x3ab0a715	0.0013477529
24	0x3a33d60c	0.00068602036
25	0x39420588	0.00018503342
26	0x37204c37	9.554488e-06
27	0x3a20027a	0.00061038847
28	0x3971305e	0.00023001569
29	0x3a5fb0f2	0.0008533142
30	0x3a1be0d8	0.0005946285
31	0x3a1a1424	0.0005877635
32	0x3a1c16bf	0.0005954317
33	0x377379b4	1.4512265e-05
34	0x38915744	6.930393e-05
35	0x3a945978	0.0011318168
36	0x39af1611	0.00033395042
37	0x38b7aae6	8.757952e-05
38	0x3aff2470	0.0019465815
39	0x388953d1	6.548281e-05
